results/NewTwoAgents/WhiteMLAgent/WhiteMLAgent-7277.pt (torch, 817948 bytes, 58 tensors)

discrete_act_size_vector f4 [1, 5]
8.0 8.0 8.0 8.0 5.0
00000000: 0000 0041 0000 0041 0000 0041 0000 0041
00000010: 0000 a040

network_body._body_endoder.seq_layers.0.weight f4 [142, 71]
0.03321193 0.14134465 -0.0034575171 -0.048394494 -0.01954312 -0.23975681 0.08461086 -0.02808315
-0.304995 -0.2180477 0.09960012 -0.3768124 -0.23175818 -0.03962982 0.11841235 0.09070597
0.065869085 0.011869832 0.08967842 -0.07086938 -0.096630685 -0.057616964 -0.18818726 -0.07515947
0.14120616 -0.22529359 -0.019627118 0.19113798 -0.3600835 -0.0822695 -0.14908874 0.0065877074
0.059580296 0.07347514 -0.10662763 -0.0235463 -0.04336175 0.0008366364 -0.000949201 0.06962816
-0.039525412 -0.005248467 -0.008263245 0.099512726 0.11850122 -0.05974465 -0.053865958 -0.10038903
0.0795638 0.15850244 0.1418459 0.23028958 -0.14906509 -0.049109932 0.13377157 0.02904096
-0.073651865 -0.030194782 -0.0063930317 0.081181064 0.12625663 0.087584354 -0.044113133 -0.025443366
0.042450693 0.07738086 -0.034094833 0.08545243 -0.119853 0.12229468 -0.11242309 0.087915994
0.053022727 0.13858697 0.0438419 -0.27311233 -0.13943562 0.04051412 -0.3085163 -0.07016864
0.0068315435 -0.22533175 -0.18288377 -0.08849639 -0.24549021 0.16171901 -0.0038191043 0.13011727
0.10047111 -0.11240884 -0.08362195 -0.18006846 0.1528269 -0.10403875 0.04050254 0.025127271
-0.07511079 -0.18357451 0.19563863 0.033806764 0.09523721 -0.35480663 0.19555414 -0.04391106
-0.10818 -0.013319722 0.10843723 -0.033194207 -0.07453201 -0.13689221 0.03686727 0.029362874
0.063161634 0.07253071 0.0062247673 -0.26125553 -0.20314778 0.14698301 -0.3441392 0.09424589
0.041476954 0.034991715 0.03841307 -0.0489484 0.13095647 -0.15256628 -0.064673595 0.15788686
0.0040803337 0.12712432 0.03794394 0.10314732 -0.009054683 0.06852005 0.11846683 0.1848179
0.05078755 0.0901373 0.021815825 -0.06518844 -0.16075759 0.11656906 0.10422375 0.014629718
0.074509986 0.15058114 -0.14313738 0.031808496 0.094306156 -0.2877257 0.08279936 0.058547314
-0.06667747 -0.13990395 0.14108357 0.17516662 0.07390711 0.06924476 -0.044231568 -0.032734986
0.15554512 0.014145614 0.22027333 -0.027723335 -0.12914816 0.14213921 -0.060427446 0.13162477
0.11476353 0.084507525 -0.040192008 -0.03775765 -0.18011959 -0.020958148 0.2609536 0.021612851
-0.18478735 0.015950086 -0.13478306 -0.28742045 -0.15306206 -0.003884728 -0.03393874 -0.044280622
0.1935472 -0.10208255 -0.09440368 -0.2686178 0.26565963 0.045085557 -0.067564666 -0.14796191
-0.2372597 0.17076638 0.028891517 0.101807505 0.24276535 -0.17517276 -0.14139338 0.09042533
-0.17522795 -0.1482869 -0.013623126 0.19676344 0.106000304 0.03833729 -0.021075523 -0.0073565384
0.14462963 -0.08570293 0.04655121 -0.012688034 0.08420241 0.058390837 0.3008983 0.118838035
-0.19246396 -0.02003599 0.034474436 0.042140286 -0.12996124 -0.12922326 -0.017979486 -0.012228548
0.03955961 -0.035270404 0.16061279 -0.12349946 0.064886004 -0.13574018 0.22597358 -0.09618394
-0.07081334 0.12363458 0.015674802 0.10106731 -0.14511566 -0.027948694 -0.15528482 0.032634996
-0.1795394 -0.04051414 0.064962745 0.07470022 -0.08093088 0.240643 -0.047834937 -0.03675488
0.11947234 -0.14857617 -0.022607086 -0.017054372 -0.08657227 -0.01853202 -0.110015266 -0.020033991
00000000: 3c09 083d a7bc 103e 8397 62bb 4e39 46bd
00000010: e518 a0bc cf82 75be 7548 ad3d a20e e6bc
00000020: 4e28 9cbe e547 5fbe 26fb cb3d 8eed c0be
00000030: 0452 6dbe e152 22bd 2d82 f23d 0dc4 b93d
00000040: 5fe6 863d af79 423c 52a9 b73d f723 91bd
00000050: 4fe6 c5bd c4ff 6bbd 29b4 40be 35ed 99bd
00000060: 5998 103e 5db3 66be 0dc9 a0bc adb9 433e
00000070: dd5c b8be e97c a8bd b8aa 18be b2dd d73b
00000080: 780a 743d 227a 963d 965f dabd 2ce4 c0bc
00000090: 179c 31bd b851 5b3a cdd3 78ba 3599 8e3d
000000a0: 66e5 21bd 55fb abbb 9062 07bc 54cd cb3d
000000b0: c5b0 f23d ceb6 74bd 8da2 5cbd c498 cdbd
000000c0: 58f2 a23d 774e 223e 0d40 113e 08d1 6b3e
000000d0: 85a4 18be 7f27 49bd 6afb 083e 4fe7 ed3c
000000e0: cad6 96bd 0c5b f7bc a37c d1bb 4242 a63d
000000f0: 6b49 013e 6d5f b33d f9af 34bd 9b6e d0bc
00000100: c7e0 2d3d db79 9e3d 06a7 0bbd af01 af3d
00000110: 7d75 f5bd a275 fa3d 143e e6bd 4d0d b43d
00000120: 5c2e 593d bee9 0d3e 9093 333d 61d5 8bbe
00000130: 36c8 0ebe 22f2 253d d9f5 9dbe 93b4 8fbd
00000140: 24db df3b 5ebd 66be e245 3bbe 983d b5bd
00000150: c961 7bbe ab99 253e f049 7abb 763d 053e
00000160: ccc3 cd3d 9b36 e6bd fc41 abbd de63 38be
00000170: a87e 1c3e 4512 d5bd fee5 253d b5d7 cd3c
00000180: b0d3 99bd f5fa 3bbe 7e55 483e f678 0a3d
00000190: ba0b c33d 37a9 b5be 583f 483e 15dc 33bd
000001a0: 7a8d ddbd f73a 5abc 5714 de3d a6f6 07bd
000001b0: 3da4 98bd 792d 0cbe 2202 173d 698a f03c
000001c0: e35a 813d fb8a 943d 22f9 cb3b 49c3 85be
000001d0: f905 50be b782 163e 0333 b0be fd03 c13d
000001e0: bde3 293d 7953 0f3d 0657 1d3d 1e7e 48bd
000001f0: 7419 063e 563a 1cbe 9773 84bd 18ad 213e
00000200: 52b4 853b e12c 023e 1b6b 1b3d e73e d33d
00000210: 185a 14bc 3d54 8c3d bd9e f23d e740 3d3e
00000220: 9b06 503d e899 b83d 1ab7 b23c 8481 85bd
00000230: a39d 24be c2bb ee3d 4373 d53d 7cb1 6f3c
00000240: b198 983d f131 1a3e 9b92 12be a049 023d
00000250: 9623 c13d c850 93be b692 a93d 4fcf 6f3d
00000260: 338e 88bd fb42 0fbe 3678 103e e15e 333e
00000270: 9c5c 973d 32d0 8d3d 292c 35bd 1f15 06bd
00000280: 3847 1f3e 01c3 673c 558f 613e 0c1c e3bc
00000290: 6a3f 04be f18c 113e c582 77bd a5c8 063e
000002a0: 2409 eb3d 4812 ad3d 60a0 24bd c4a7 1abd
000002b0: 4571 38be 6cb0 abbc b69b 853e 6f0d b13c
000002c0: e538 3dbe c1a9 823c 9204 0abe c628 93be
000002d0: 4dbc 1cbe ec96 7ebb 5903 0bbd 995f 35bd
000002e0: 3d31 463e a810 d1bd b756 c1bd 4688 89be
000002f0: 8a04 883e a2ab 383d 585f 8abd 5483 17be
00000300: 35f4 72be 62dd 2e3e e7ad ec3c 7480 d03d
00000310: 7b97 783e 7d60 33be 6dc9 10be ea30 b93d
00000320: f56e 33be 85d8 17be 8833 5fbc 5b7c 493e
00000330: b016 d93d 9007 1d3d 93a6 acbc 1e0f f1bb
00000340: ca19 143e 0585 afbd 7bac 3e3d 79e1 4fbc
00000350: 5072 ac3d 3b2b 6f3d 580f 9a3e 5b61 f33d
00000360: 4615 45be 8422 a4bc 1135 0d3d 4b9b 2c3d
00000370: 8f14 05be 1a53 04be b749 93bc 3f5a 48bc
00000380: 4209 223d b377 10bd ae77 243e 49ed fcbd
00000390: f4e2 843d 79ff 0abe 9e65 673e 16fc c4bd
000003a0: 9606 91bd 2034 fd3d 7168 803c 61fc ce3d
000003b0: 3399 14be a9f4 e4bc fc02 1fbe 46ac 053d
000003c0: 2dd9 37be 28f2 25bd 300b 853d 6efc 983d
000003d0: 17bf a5bd 1e6b 763e 91ee 43bd 498c 16bd
000003e0: eaad f43d 5a24 18be 7f32 b9bc 9cb5 8bbc
000003f0: cd4c b1bd 76d0 97bc af4f e1bd 531e a4bc

network_body._body_endoder.seq_layers.0.bias f4 [142]
0.05469087 0.040098637 -0.0067688175 -0.019885305 0.03281524 0.08362864 0.068099186 0.03457776
0.014608696 0.04754051 0.072676145 0.07198594 0.024657698 -0.0068112435 0.037931893 -0.029449867
0.05586058 0.039974738 0.069901586 0.042469278 0.053221848 0.050594397 0.05637448 0.060005087
0.044277124 0.059052184 0.0074543413 0.03231375 -0.013309002 0.0095414845 0.027616184 0.023836557
0.018964102 0.011155318 0.03908421 0.07057962 -0.015357072 0.01454159 0.010997229 -0.0040795105
0.069773935 0.013532523 0.013585536 -0.016246686 0.03297312 0.028634567 0.025391793 0.059068337
0.058161806 0.021936953 0.064941786 0.054854006 0.027217558 0.014655685 0.05854187 0.06095075
0.02306023 0.028500529 0.03201358 0.013707708 0.03190436 0.03493143 0.058112152 0.044416457
0.037916195 0.02415806 0.018779138 0.046947613 -0.02844084 0.023874115 0.02024045 -0.01834701
0.040536683 0.04392816 -0.006405627 0.05156595 0.07060683 -0.012001338 0.061740655 0.01161836
0.018569205 0.019346638 0.009705445 0.0013123695 0.050862134 0.05987361 -0.01025346 0.028349213
0.06857843 0.055463515 0.020246325 0.038064558 0.03852153 -0.00240541 0.05272156 0.04574114
0.012288661 0.031259358 0.042390846 -0.013699762 0.054240108 0.009524205 -0.02393892 -0.0005829507
0.031283475 0.03831172 -0.0015868729 0.047122404 0.042504102 0.087002 -0.013379341 0.026677627
0.036633454 0.06634695 -0.00418055 0.06647491 0.045447126 0.0010670836 -0.025135523 -0.008125799
0.010783448 0.05619324 0.044026043 0.02527628 0.045680087 -0.03174369 0.026156731 -0.009908641
0.034741424 -0.0012434907 0.07618602 0.013510561 0.03913737 -0.009034149 0.051355947 0.021037214
0.078249544 0.0018634042 0.086971246 0.0148864845 0.047626343 -0.0014550925
00000000: 8903 603d 783e 243d f5cc ddbb 82e6 a2bc
00000010: 4669 063d 7e45 ab3d 9677 8b3d 69a1 0d3d
00000020: 5059 6f3c d6b9 423d 3bd7 943d 5d6d 933d
00000030: f1fe c93c da30 dfbb 795e 1b3d d940 f1bc
00000040: 10ce 643d 8dbc 233d 9028 8f3d 44f4 2d3d
00000050: 27ff 593d 123c 4f3d ede8 663d e5c7 753d
00000060: ee5b 353d b4e0 713d 8c43 f43b 6c5b 043d
00000070: 000e 5abc e353 1c3c 563b e23c e244 c33c
00000080: 9b5a 9b3c cbc4 363c c416 203d 0c8c 903d
00000090: 3b9c 7bbc d93f 6e3c b92d 343c 6aad 85bb
000000a0: a3e5 8e3d 84b7 5d3c de95 5e3c c517 85bc
000000b0: d30e 073d 0a93 ea3c 7302 d03c a4f1 713d
000000c0: 133b 6e3d 20b5 b33c 3300 853d 98ae 603d
000000d0: 5bf7 de3c 661e 703c 9ac9 6f3d 7ea7 793d
000000e0: cfe8 bc3c f179 e93c ac20 033d 4b96 603c
000000f0: 25ae 023d 4214 0f3d 0207 6e3d 08ee 353d
00000100: 034e 1b3d 20e7 c53c b5d6 993c 244c 403d
00000110: c4fc e8bc a693 c33c 4dcf a53c 784c 96bc
00000120: cb09 263d 04ee 333d 4be6 d1bb d136 533d
00000130: 509a 903d 43a1 44bc c5e3 7c3d ef5a 3e3c
00000140: 721e 983c d77c 9e3c 9603 1f3c d003 ac3a
00000150: d054 503d 083e 753d 21fe 27bc 9c3c e83c
00000160: d972 8c3d b62d 633d 9fdb a53c 95e9 1b3d
00000170: c0c8 1d3d 15a4 1dbb 90f2 573d 105b 3b3d
00000180: 6156 493c d009 003d 06a2 2d3d f774 60bc
00000190: e02a 5e3d 690b 1c3c 8e1b c4bc 29d1 18ba
000001a0: 1a23 003d c0ec 1c3d 9efe cfba 6c03 413d
000001b0: c818 2e3d 1b2e b23d 0635 5bbc 0a8b da3c
000001c0: f60c 163d e9e0 873d fffc 88bb ff23 883d
000001d0: c426 3a3d 62dd 8b3a 03e9 cdbc 1222 05bc
000001e0: 0fad 303c e22a 663d a754 343d 3310 cf3c
000001f0: 0b1b 3b3d ac05 02bd a446 d63c da57 22bc
00000200: 064d 0e3d a0fc a2ba 6b07 9c3d 665b 5d3c
00000210: 824e 203d f803 14bc 9d5a 523d 3c56 ac3c
00000220: 4c41 a03d 783d f43a fb1d b23d 71e6 733c
00000230: d713 433d cdb8 beba

network_body._body_endoder.seq_layers.2.weight f4 [142, 142]
-0.008344893 0.09885984 0.09746402 -0.026361266 -0.004837468 -0.047217447 0.20601934 0.095803894
-0.13471629 0.08715143 0.011318424 -0.019142807 0.014436274 0.06812498 0.04355415 0.037487444
0.034112368 0.0050239367 -0.04165969 0.103049695 -0.018657286 -0.111297615 0.038025703 0.1279336
0.03171842 -0.06635092 0.04924137 -0.13698958 0.060129005 0.1425557 -0.112474434 0.08663748
0.03732287 0.016948882 0.0040769223 -0.08287939 0.12408678 0.08710016 0.018774012 -0.14813358
0.0088014705 -0.009015806 0.04093929 0.04719424 -0.03151154 -0.05736818 -0.15886727 -0.090289555
-0.0011890907 -0.06560821 -0.07774582 0.029059488 -0.07669762 -0.20068368 -0.14414333 -0.04054447
-0.062873505 -0.087764844 -0.0010523536 -0.10000992 -0.041872345 -0.103876166 0.14959809 -0.02482554
-0.06378603 -0.10052136 0.14339572 -0.021127174 0.040612213 0.052569542 -0.14152133 -0.029443702
-0.091320775 0.09763498 0.12988871 0.06500268 0.12890624 0.003820732 -0.07827515 0.09257185
0.010091593 -0.11397195 0.086779624 0.07385561 0.0557223 0.04587411 -0.004035021 0.09794552
0.057500377 0.07484072 -0.011880716 -0.02439509 0.060713667 0.086551644 -0.046193887 0.06141831
0.0011467249 0.09078016 0.04911133 0.11714948 0.047039147 0.099623114 0.0038093352 -0.052674778
-0.095412485 -0.027887214 0.03426404 -0.15945281 -0.095980644 -0.008564436 0.04903016 -0.113634445
-0.022347571 -0.23049533 -0.03850773 0.029611569 0.0027260107 -0.08761189 -0.049256146 0.11180576
-0.012649135 -0.20235142 -0.019485159 -0.045752157 -0.050770536 0.004731589 0.023330083 0.074256636
0.011871024 0.054327015 -0.114016786 0.08832205 0.09020186 -0.10472856 -0.056637395 -0.03349316
0.035132494 -0.030415691 -0.090097696 -0.056578226 0.024688264 -0.052583724 -0.10674804 0.07908449
-0.030004406 0.031808183 0.15913972 0.164209 0.23797794 0.026986374 0.047392357 0.21457018
0.013324542 -0.01738682 0.12895721 0.15196218 -0.14184284 -0.093098655 0.16328384 -0.0019535087
0.09671482 0.004692682 -0.035877913 0.18947965 0.039379854 0.08757234 0.13473874 -0.040306807
0.03621499 -0.10456922 -0.09516254 -0.013374131 -0.028697243 0.10284312 -0.01170261 0.08996375
0.06489515 0.04390345 -0.04991551 -0.12117281 0.04890382 -0.20390736 -0.040268917 0.08743299
-0.00802262 -0.09301923 0.03908117 -0.08292815 0.09055738 0.091242366 0.06759765 -0.070355624
0.24045435 0.0367089 0.07559109 0.09399131 0.064151384 0.080510564 -0.03991938 -0.086835764
0.0970159 -0.02860521 0.13782194 -0.004263729 0.14369176 -0.021825716 0.05748264 0.0822707
0.0110927 0.07079309 -0.028801104 -0.0042877076 0.117614664 -0.04397371 0.08521098 0.10707028
0.07061796 0.12282659 0.092159115 -0.16066873 0.10269095 0.0027574692 0.111791454 0.004147649
-0.16105047 0.10266131 0.1866409 -0.06638269 0.06476366 -0.109514356 0.14780706 0.16609986
-0.062250637 0.074662894 0.13822763 0.14901413 0.04990323 0.07447257 0.07295013 -0.14978024
0.06895237 -0.13419215 -0.14365548 -0.062679805 -0.16915345 -0.07681063 -0.061760124 0.084871046
-0.06821389 0.02486572 0.1695605 0.20657185 -0.06945893 0.13184427 0.06128391 -0.030079613
00000000: 05b9 08bc 0777 ca3d 379b c73d 95f3 d7bc
00000010: 9f83 9ebb 1567 41bd bcf6 523e d534 c43d
00000020: 11f3 09be 737c b23d e970 393c 60d1 9cbc
00000030: 1f86 6c3c 1c85 8b3d d665 323d 6f8c 193d
00000040: 69b9 0b3d d69f a43b 5aa3 2abd b80b d33d
00000050: 2ad7 98bc 01f0 e3bd d7c0 1b3d 0701 033e
00000060: 2deb 013d fee2 87bd 52b1 493d ff46 0cbe
00000070: d549 763d 1ffa 113e ff58 e6bd fe6e b13d
00000080: dedf 183d 62d8 8a3c b497 853b abbc a9bd
00000090: 3621 fe3d 9261 b23d f5cb 993c 54b0 17be
000000a0: 0b34 103c 08b7 13bc f5af 273d bf4e 413d
000000b0: 3f12 01bd e6fa 6abd 1aae 22be bbe9 b8bd
000000c0: 43db 9bba 995d 86bd 3339 9fbd 2a0e ee3c
000000d0: a413 9dbd 0680 4dbe 4f9a 13be f511 26bd
000000e0: d3c3 80bd 0ebe b3bd 21ef 89ba 00d2 ccbd
000000f0: 5682 2bbd 07bd d4bd 3e30 193e ee5e cbbc
00000100: 40a2 82bd 25de cdbd 54d6 123e e512 adbc
00000110: fe58 263d 2953 573d f8ea 10be eb33 f1bc
00000120: 6306 bbbd d9f4 c73d 8c01 053e 2020 853d
00000130: ffff 033e 3f65 7a3b b94e a0bd 4f96 bd3d
00000140: 3557 253c 206a e9bd 84b9 b13d 9c41 973d
00000150: 113d 643d 7ee6 3b3d 3638 84bb a997 c83d
00000160: 8485 6b3d 1746 993d 56a7 42bc 36d8 c7bc
00000170: e5ae 783d fd41 b13d cd35 3dbd c491 7b3d
00000180: b44d 963a f3ea b93d f628 493d 11ec ef3d
00000190: 1fac 403d 3407 cc3d 0aa6 793b 82c1 57bd
000001a0: 9f67 c3bd ba73 e4bc 7358 0c3d 9947 23be
000001b0: 8091 c4bd d951 0cbc d9d3 483d 2db9 e8bd
000001c0: 4112 b7bc f806 6cbe 48ba 1dbd f693 f23c
000001d0: dfa6 323b dd6d b3bd d0c0 49bd 6bfa e43d
000001e0: 513e 4fbc 3635 4fbe 579f 9fbc 9d66 3bbd
000001f0: c4f4 4fbd 720b 9b3b bb1e bf3c dd13 983d
00000200: af7e 423c 0186 5e3d a281 e9bd 31e2 b43d
00000210: c1bb b83d ed7b d6bd 9dfc 67bd 2030 09bd
00000220: 17e7 0f3d 542a f9bc 2485 b8bd 92be 67bd
00000230: 0b3f ca3c 0862 57bd b79e dabd 0df7 a13d
00000240: cdcb f5bc 4c49 023d 86f5 223e 6726 283e
00000250: 7db0 733e 8712 dd3c 7d1e 423d 49b8 5b3e
00000260: 2e4f 5a3c ce6e 8ebc 5c0d 043e f99b 1b3e
00000270: 403f 11be 82aa bebd e133 273e 7006 00bb
00000280: 6b12 c63d 12c5 993b b8f4 12bd f406 423e
00000290: c54c 213d 2159 b33d f4f8 093e c018 25bd
000002a0: 2b56 143d 6328 d6bd 94e4 c2bd 2c1f 5bbc
000002b0: 7b16 ebbc 6a9f d23d 4ebc 3fbc ea3e b83d
000002c0: c0e7 843d 1bd4 333d 3574 4cbd 7329 f8bd
000002d0: 5f4f 483d 17cd 50be 05f1 24bd 1110 b33d
000002e0: 4f71 03bc de80 bebd 9413 203d 3cd6 a9bd
000002f0: 2676 b93d 47dd ba3d a370 8a3d 9c16 90bd
00000300: aa39 763e 125c 163d 80cf 9a3d 847e c03d
00000310: cd61 833d b9e2 a43d 8182 23bd f3d6 b1bd
00000320: 46b0 c63d 7955 eabc 3221 0d3e c0b6 8bbb
00000330: ef23 133e d8cb b2bc eb72 6b3d 8a7d a83d
00000340: 28be 353c f8fb 903d 4bf0 ebbc e67f 8cbb
00000350: f5df f03d c71d 34bd 1883 ae3d aa47 db3d
00000360: 26a0 903d 828c fb3d ebbd bc3d 5886 24be
00000370: a24f d23d a8b6 343b ebf2 e43d 00e9 873b
00000380: 6aea 24be 1840 d23d cb1e 3f3e a6f3 87bd
00000390: cfa2 843d 1049 e0bd bc5a 173e 1516 2a3e
000003a0: 86fa 7ebd dce8 983d 8b8b 0d3e 2997 183e
000003b0: 5467 4c3d 1385 983d e166 953d fe5f 19be
000003c0: e636 8d3d ab69 09be 6c1a 13be 455e 80bd
000003d0: 9036 2dbe e44e 9dbd 2ff8 7cbd dfd0 ad3d
000003e0: b9b3 8bbd 32b3 cb3c 45a1 2d3e 9287 533e
000003f0: 7c40 8ebd 2f02 073e d604 7b3d 8569 f6bc

network_body._body_endoder.seq_layers.2.bias f4 [142]
0.010893143 0.055633694 0.013563327 0.003971593 0.020922098 0.038035996 0.01050331 0.045874067
0.0071832263 0.006538113 -0.0032020903 0.017406106 0.028765058 0.03095602 0.0669346 0.018105783
0.00937598 -0.015387209 -0.0003286536 0.0014358883 0.069054626 0.05259101 0.027435517 0.023908675
-0.023356093 -0.007673839 0.0026751033 0.03889824 0.056424405 0.024353597 0.04528426 0.028795632
0.036664844 0.025737958 -0.0014930665 0.0059657465 -0.0021082417 -0.0032600434 0.029545572 -0.02805276
0.0061730947 0.05270105 0.03547981 0.030323118 0.024005102 -0.0013770191 0.007326689 0.000855894
-0.010830925 0.042380176 0.01756824 -0.023571126 -0.018210538 0.020291427 0.030289046 -0.013427099
0.007929355 0.062227424 0.053899683 -0.0065256124 -0.009603337 0.0011313637 0.011204207 -0.027600206
0.008758842 0.017988874 0.06314798 -0.0043826094 0.017211491 -0.0011124936 0.047873955 -0.004590113
-0.0067180134 0.03507739 0.02469291 0.017634144 0.08304918 0.02893149 0.018169746 -0.0046314388
-0.008163799 0.022889454 0.021198012 0.011528583 0.008082551 0.0700586 0.039624188 0.021092083
0.031015804 0.031775508 0.0054486096 0.037159517 0.056097582 0.015588524 0.053055845 0.029462593
0.03039471 0.030016927 0.031375524 0.012087866 0.028616881 0.016715685 0.05680926 0.03160934
0.06935283 0.017850157 -0.022487754 0.025772396 -0.008369609 0.015110276 0.02627959 0.025175357
0.02990801 0.034051187 0.06471516 -0.0033841894 -0.0132895075 -0.0049290694 0.02742088 0.067703255
0.018393248 -0.01708722 0.012323563 0.025189376 -0.0051522115 0.04697962 0.0013097151 0.008900803
0.0016284098 0.042841572 0.03311839 -0.018862726 0.024201382 -0.001858127 0.0069029275 -0.030739274
0.04163275 0.042907428 0.047901805 0.024117867 0.014308401 0.033532746
00000000: 2779 323c 28e0 633d b738 5e3c 2324 823b
00000010: d264 ab3c a2cb 1b3d 1316 2c3c 72e6 3b3d
00000020: 4561 eb3b ab3d d63b 29da 51bb 4097 8e3c
00000030: b3a4 eb3c 7b97 fd3c 0215 893d 9452 943c
00000040: b69d 193c a21a 7cbc 244f acb9 6b34 bc3a
00000050: 836c 8d3d ac69 573d 73c0 e03c 20dc c33c
00000060: 4755 bfbc d474 fbbb c950 2f3b c353 1f3d
00000070: 471d 673d 3281 c73c fd7b 393d d1e4 eb3c
00000080: e02d 163d 69d8 d23c 00b3 c3ba 4f7c c33b
00000090: 6d2a 0abb 74a6 55bb 8e09 f23c e7ce e5bc
000000a0: ac47 ca3b 0edd 573d 4753 113d 3068 f83c
000000b0: 59a6 c43c 187d b4ba b914 f03b 135e 603a
000000c0: 3174 31bc d696 2d3d 45eb 8f3c 3c18 c1bc
000000d0: 442e 95bc 353a a63c bc20 f83c 56fd 5bbc
000000e0: 20ea 013c 2fe2 7e3d eac5 5c3d ced4 d5bb
000000f0: 5157 1dbc 444a 943a da91 373c d419 e2bc
00000100: 3f81 0f3c 675d 933c ba53 813d fe9b 8fbb
00000110: 1dff 8c3c 17d1 91ba 7b17 443d a968 96bb
00000120: c822 dcbb 4fad 0f3d c948 ca3c 7b75 903c
00000130: b015 aa3d bb01 ed3c b8d8 943c 53c3 97bb
00000140: 74c1 05bc aa82 bb3c 74a7 ad3c 62e2 3c3c
00000150: ad6c 043c e27a 8f3d f94c 223d 4ec9 ac3c
00000160: db14 fe3c 0927 023d 408a b23b 9434 183d
00000170: 94c6 653d 0267 7f3c 1651 593d 895b f13c
00000180: 54fe f83c 0fe6 f53c 9f83 003d 2f0c 463c
00000190: f36d ea3c 55ef 883c d4b0 683d cc78 013d
000001a0: db08 8e3d 7e3a 923c 3d38 b8bc a220 d33c
000001b0: af20 09bc 1791 773c 4b48 d73c 8d3c ce3c
000001c0: a501 f53c 4279 0b3d 6289 843d 47c9 5dbb
000001d0: 3cbc 59bc 0884 a1bb c1a1 e03c 01a8 8a3d
000001e0: 70ad 963c 7ffa 8bbc c5e8 493c f359 ce3c
000001f0: e2d3 a8bb b46d 403d bfaa ab3a acd4 113c
00000200: 5e70 d53a a57a 2f3d 26a7 073d 0186 9abc
00000210: fa41 c63c 658c f3ba f431 e23b eed0 fbbc
00000220: 1a87 2a3d b3bf 2f3d af34 443d d592 c53c
00000230: c96d 6a3c a259 093d

action_model._discrete_distribution.branches.0.weight f4 [8, 142]
0.019678537 -0.014623743 -0.01634877 -0.010680474 -0.026196003 -0.00024601788 -0.00067972223 0.005817205
0.03007777 -0.0076722237 -0.0074695074 -0.005051999 -0.012849316 -0.022288755 -0.039772946 -0.0139700575
0.03480671 0.013792714 0.023560904 0.0016850955 -0.0016146052 -0.03363376 -0.011933674 -0.020496368
0.012474099 -0.005853346 -0.036449198 -0.013952017 -0.04004828 -0.031643007 -0.022324469 -0.029853834
0.03292255 0.047466036 -0.006376 -0.0042459453 -0.0060781315 -0.018269101 0.0077925897 0.012124394
0.020039314 0.010551251 0.0052768933 -0.018421035 -0.010553225 0.00933484 0.012998276 -0.015283441
-0.0007801317 -0.029321676 -0.017954268 0.0148978 0.019411594 -0.0391668 -0.015212075 -0.0053849444
0.0028196413 -0.030860674 -0.030364882 -0.004085883 -0.008652322 -0.01553872 -0.019915301 -0.013717854
0.0023032734 -0.009822969 -0.0120076565 0.002664236 -0.009321877 0.009983966 0.009955697 0.0050956206
0.012761966 -0.02099911 0.0068965154 -0.016817253 0.031666085 -0.0075806323 -0.018561328 0.027392156
0.0045519397 -0.015496765 -0.03205512 0.004400563 -0.004745355 0.014496248 -0.055602815 0.020142086
0.017583244 -0.031431783 0.033655826 0.001960593 0.016444592 0.025972199 0.02142842 -0.0054342374
0.006284941 -0.0029234767 -0.036108676 0.010092599 0.0056809844 -0.007268824 -0.036316745 0.021806004
-0.024898749 0.019610245 0.010848836 -0.055326518 -0.020625241 -4.1466687e-05 -0.019730266 -0.00861769
0.034999087 -0.0048126252 -0.02649791 0.009388061 -0.015860831 0.0022841056 -0.04580001 -0.04088435
0.012325442 0.012650195 -0.026790503 -0.005957185 0.038783424 0.030819695 0.003263456 0.017508132
0.0111019155 -0.03739293 0.030849572 0.024801562 -1.5219044e-05 0.0021989055 -0.016161656 -0.0012951649
0.006797569 -0.020250829 0.033588797 -0.014444467 -0.02195021 0.013040799 -0.0136763435 0.023341192
-0.00446392 -0.02464327 0.0005922527 0.0017413177 -0.01198062 0.009596567 -0.048881054 -0.013438865
-0.008037209 0.016879182 -0.04744446 0.022467282 0.01962306 -0.045754615 -0.0090842405 -0.020658206
0.026350914 -0.019367667 -0.0047902656 0.03443705 0.035104465 -0.024838382 0.01280775 0.029672295
0.0068916203 0.015923167 -0.020190248 -0.007560174 0.01112608 -0.0034834368 0.053743664 -0.0015516136
-0.0030345714 -0.03224809 -0.014194806 -0.005656643 0.047347445 -0.041866113 -0.013117536 -0.00868876
-0.025608232 0.00018719729 0.022829022 -0.03969997 -0.025934784 -0.019331872 -0.007224459 0.037913468
0.01927734 -0.008496307 -0.021248002 0.012745714 -0.012941214 0.015043041 -0.022383928 -0.04498607
-0.0052049747 0.00882438 -0.014605769 -0.028255293 0.025496518 -0.025578473 0.038071055 0.014263215
-0.022706645 0.025576508 0.02735902 -0.03996867 0.012257325 -0.01473217 0.0020853432 0.008423103
0.0044313255 0.007085769 0.016508745 0.037743673 0.014609001 0.036636755 -0.018816179 0.031616125
0.036937542 -0.020416416 -0.028011614 -0.020891724 0.0044916347 0.03913622 0.056149814 0.022334138
-0.008809543 -0.013078339 -0.0028319233 -0.023641808 0.0043008337 0.03257708 0.007004061 -0.03949853
0.017257776 -0.029673604 0.0052838777 0.018778825 0.00684185 0.027802527 0.010614474 0.017466662
-0.007901053 -0.014824974 0.024072336 -0.04975829 0.01700327 0.038636792 -0.036927287 0.004538096
00000000: e234 a13c 6c98 6fbc dbed 85bc 28fd 2ebc
00000010: 0099 d6bc f6fb 80b9 632f 32ba 419e be3b
00000020: a865 f63c 4767 fbbb c5c2 f4bb 3d8b a5bb
00000030: f085 52bc e896 b6bc f5e8 22bd abe2 64bc
00000040: 7b91 0e3d d6fa 613c cc02 c13c 6cde dc3a
00000050: 29a1 d3ba 8ec3 09bd 7585 43bc 00e8 a7bc
00000060: 2a60 4c3c 6dcd bfbb c14b 15bd 0097 64bc
00000070: aa09 24bd 199c 01bd cee1 b6bc 0790 f4bc
00000080: ccd9 063d bf6b 423d c4ed d0bb 9221 8bbb
00000090: 102b c7bb 15a9 95bc fb58 ff3b 65a5 463c
000000a0: 7d29 a43c 27df 2c3c cae9 ac3b b6e7 96bc
000000b0: 6fe7 2cbc 28f1 183c b9f6 543c 6667 7abc
000000c0: c181 4cba 0334 f0bc d414 93bc e715 743c
000000d0: 1005 9f3c 5e6d 20bd 113c 79bc 3074 b0bb
000000e0: bbc9 383b 86cf fcbc c6bf f8bc dfe2 85bb
000000f0: 78c2 0dbc 1e96 7ebc 6a25 a3bc dac0 60bc
00000100: 84f2 163b 85f0 20bc c3bb 44bc 769a 2e3b
00000110: c9ba 18bc ca93 233c 381d 233c 2af9 a63b
00000120: 9117 513c 5306 acbc 2afc e13b 56c4 89bc
00000130: 4cb4 013d f466 f8bb ed0d 98bc 8465 e03c
00000140: 7028 953b 25e6 7dbc 3b4c 03bd 9932 903b
00000150: ec7e 9bbb ac81 6d3c c7bf 63bd 0401 a53c
00000160: bc0a 903c 9dbe 00bd b1da 093d 4b7d 003b
00000170: cfb6 863c a6c3 d43c a78a af3c b011 b2bb
00000180: e8f1 cd3b cd97 3fbb b1e6 13bd 6e5b 253c
00000190: 8d27 ba3b 512f eebb dec0 14bd 81a2 b23c
000001a0: 76f8 cbbc aaa5 a03c 51bf 313c 0f9e 62bd
000001b0: 44f6 a8bc 84ec 2db8 5ea1 a1bc 3631 0dbc
000001c0: 345b 0f3d 3ab3 9dbb 2512 d9bc 62d0 193c
000001d0: 93ee 81bc efb0 153b cb98 3bbd 5976 27bd
000001e0: a7f0 493c c342 4f3c c277 dbbc 7d34 c3bb
000001f0: 5edb 1e3d 9679 fc3c b5df 553b 376d 8f3c
00000200: cfe4 353c 5429 19bd 3eb8 fc3c a52c cb3c
00000210: 4c55 7fb7 831b 103b 7365 84bc 86c2 a9ba
00000220: 24be de3b 11e5 a5bc 6894 093d 7ca8 6cbc
00000230: edd0 b3bc 13a9 553c be12 60bc 0736 bf3c
00000240: 1346 92bb afe0 c9bc 6841 1b3a ed3c e43a
00000250: 5d4a 44bc eb3a 1d3c 8037 48bd af2e 5cbc
00000260: 7fae 03bc 3646 8a3c 1f55 42bd 4e0d b83c
00000270: 8ac0 a03c 3169 3bbd 11d6 14bc 663b a9bc
00000280: dfdd d73c f1a8 9ebc a9f7 9cbb dd0d 0d3d
00000290: b3c9 0f3d dd79 cbbc 99d7 513c 5013 f33c
000002a0: 1ad3 e13b 4d71 823c 0566 a5bc 56bb f7bb
000002b0: 294a 363c 5f4a 64bb 5122 5c3d 835f cbba
000002c0: a9df 46bb 9316 04bd 5591 68bc 5c5b b9bb
000002d0: 65ef 413d cd7b 2bbd efea 56bc 4d5b 0ebc
000002e0: 5bc8 d1bc 644a 4439 ee03 bb3c 709c 22bd
000002f0: 2f75 d4bc e05d 9ebc 28bb ecbb 274b 1b3d
00000300: 83eb 9d3c 1834 0bbc 4a10 aebc 66d3 503c
00000310: 6307 54bc 1677 763c 805e b7bc 5043 38bd
00000320: 7e8e aabb 2294 103c 094d 6fbc a577 e7bc
00000330: 13de d03c f289 d1bc 65f0 1b3d 42b0 693c
00000340: 4903 babc d385 d13c 0620 e03c 30b6 23bd
00000350: f3d2 483c 335f 71bc 41aa 083b 0e01 0a3c
00000360: a734 913b bd2f e83b 593d 873c 1c99 1a3d
00000370: 975a 6f3c 6c10 163d 6324 9abc e97f 013d
00000380: d24b 173d 5440 a7bc 9d78 e5bc 1f25 abbc
00000390: 902e 933b 4d4d 203d 59fd 653d 15f6 b63c
000003a0: e755 10bc 8846 56bc ca97 39bb 77ac c1bc
000003b0: 02ee 8c3b 8b6f 053d 5282 e53b 36c9 21bd
000003c0: 2e60 8d3c 0f16 f3bc 6124 ad3b 0dd6 993c
000003d0: 9931 e03b 20c2 e33c 55e8 2d3c 3f16 8f3c
000003e0: 6b73 01bc 73e4 72bc 5933 c53c 59cf 4bbd
000003f0: 714a 8b3c 9d41 1e3d 1141 17bd 4fb4 943b

action_model._discrete_distribution.branches.0.bias f4 [8]
-0.0055538886 0.0115660075 -0.005952054 -0.0068084775 0.008331884 0.020343626 -0.028026424 0.012511619
00000000: 65fd b5bb 5a7f 3d3c 7309 c3bb a619 dfbb
00000010: 7482 083c ada7 a63c ac97 e5bc 89fd 4c3c

action_model._discrete_distribution.branches.1.weight f4 [8, 142]
-0.050083358 0.015981318 -0.029308205 0.017400382 0.008097228 0.07149225 0.023643348 0.005991873
-0.025245365 -0.0027530247 -0.029493274 0.010546306 0.016323278 0.01911243 0.011559366 0.05520573
-0.018472757 -0.026889894 -0.007650607 0.016162023 0.029866803 -0.016950844 0.05475297 -0.046421696
0.01579743 -0.024111362 0.0027845087 -0.03749162 0.03307567 -0.0034673284 -0.018035088 -0.027835248
0.040950272 0.03682697 0.02263242 -0.026015006 -0.02719421 0.005329807 0.031380367 0.003954055
0.02954442 0.028417582 -0.003867067 -0.012649261 0.016512146 -0.020243982 0.014391428 -0.033110622
-0.029031059 0.017698556 -0.017734991 -0.03597881 -0.01566028 0.009192593 -0.008186895 0.0092022205
-0.002723679 0.022334013 -0.016001124 -0.0030444283 -0.01638011 -0.031208875 0.02804648 -0.02056841
0.015679173 0.005080557 0.017659668 -0.00056415587 -0.025839774 -0.026874656 0.07210792 0.008709696
-0.007140733 0.010630622 -0.030304613 0.009061985 0.060057886 0.004940025 0.0003887158 0.019448766
-0.015589225 -0.02501561 -0.0058357595 -0.006076947 0.016877064 0.01295699 -0.03425635 -0.063135795
0.032458406 -0.009142149 0.010082361 -0.023140136 -0.048178297 -0.0049819006 -0.057371486 -0.018988179
-0.026325917 -0.03031488 -0.0064203353 -0.026692811 -0.025748406 0.009384328 0.012424821 0.019017017
0.008590308 0.011806576 -0.01213324 0.002957114 -0.03506781 0.025697073 0.009317156 -0.009029333
0.024126988 0.01089916 -0.007430661 -0.0032230676 -0.009292852 0.022074044 0.011363188 0.070450425
-0.05136775 -0.0029634119 0.009970017 0.00041285885 -0.0056737633 0.0034474905 -0.010319815 -0.0037363102
-0.032830644 -0.009123782 0.028719813 -0.010620097 -0.008233756 -0.0016165727 0.00021395035 -0.018848924
0.00788421 0.05174792 0.02949322 0.020101516 0.0075191287 -0.032529056 0.00032468527 0.015421276
-0.017302085 0.015818717 -0.016009431 -0.032082234 0.03923688 0.009271973 -0.004028736 0.021619502
0.02375864 0.025958167 -0.0018635056 0.024065217 0.006457501 -0.02824724 -0.0032796715 0.028150786
0.025614163 -0.022907978 -0.012278532 -0.042618614 0.007877495 0.023325693 0.018790802 0.02335193
0.003666826 -0.010311462 0.008661586 -0.010112113 -0.02284049 -0.012658845 -0.017756356 -0.011372937
0.015098212 0.02140471 -0.006803166 0.018474977 -0.017017514 0.018191928 0.0103831 0.00886377
-0.018908186 -0.009414232 0.015250626 0.009795035 -9.0235844e-05 0.038116824 0.028004907 -0.03771368
0.04091498 0.022073716 0.013347565 -0.030479722 0.029839367 0.029332235 0.011696599 -0.019081885
0.005713062 -0.009417637 0.006559354 0.0017664166 -0.010682317 0.03966582 -0.008794882 -0.005694515
-0.06034598 0.016414257 0.024159594 0.01636534 0.008300045 0.0014025266 0.0031468137 -0.0045460146
-0.010964823 -0.024663776 -0.06743689 0.004734236 0.005857665 -0.01388154 0.025640806 0.015211697
0.009890683 0.02461223 -0.024394216 -0.009301934 0.02020876 0.004451464 -0.0061411327 -0.014048017
-0.023763722 -0.044621512 -0.006277976 0.020030394 0.00041760856 -0.015784109 -0.0373507 -0.022161782
0.0037237224 -0.040379524 0.038036585 0.015535283 0.020333156 -0.01750017 -0.0142451525 -0.013169835
-0.0057007284 0.015303447 0.037520953 -0.011561228 -0.013681234 -0.013859867 0.003966309 -0.0049168835
00000000: 3524 4dbd 41eb 823c c317 f0bc 3f8b 8e3c
00000010: 3caa 043c 876a 923d b2af c13c 7957 c43b
00000020: 5ecf cebc 176c 34bb e19b f1bc 6aca 2c3c
00000030: 65b8 853c ac91 9c3c 7f63 3d3c 671f 623d
00000040: 2e54 97bc 3248 dcbc f1b1 fabb 3866 843c
00000050: 3aab f43c 7fdc 8abc a644 603d ad24 3ebd
00000060: 9d69 813c 3185 c5bc 4e7c 363b d090 19bd
00000070: 5b7a 073d 1e3c 63bb 52be 93bc bf06 e4bc
00000080: 79bb 273d e0d7 163d a067 b93c 6c1d d5bc
00000090: 64c6 debc a9a5 ae3b b388 003d 0491 813b
000000a0: 2407 f23c fdcb e83c 9e6e 7dbb d93e 4fbc
000000b0: 7b44 873c b5d6 a5bc 06ca 6b3c 019f 07bd
000000c0: 8bd2 edbc 90fc 903c f948 91bc 845e 13bd
000000d0: fd49 80bc 889c 163c 5422 06bc e9c4 163c
000000e0: c07f 32bb d2f5 b63c ca14 83bc 0885 47bb
000000f0: 952f 86bc c1a9 ffbc bbc1 e53c 157f a8bc
00000100: 9c71 803c cd7a a63b 02ab 903c dce3 13ba
00000110: efad d3bc 3d28 dcbc 51ad 933d 1db3 0e3c
00000120: cffc e9bb 0f2c 2e3c 6141 f8bc b878 143c
00000130: 42ff 753d efdf a13b 8dcc cb39 0553 9f3c
00000140: f369 7fbc 89ed ccbc e639 bfbb 2021 c7bb
00000150: c541 8a3c 8e49 543c 6350 0cbd 574d 81bd
00000160: 1bf3 043d f4c8 15bc 7d30 253c 6290 bdbc
00000170: 9b56 45bd 363f a3bb 5dfe 6abd 198d 9bbc
00000180: 73a9 d7bc e956 f8bc ad61 d2bb e2aa dabc
00000190: 52ee d2bc b9c0 193c 7a91 4b3c 93c9 9b3c
000001a0: 5dbe 0c3c 5e70 413c 7fca 46bc 24cc 413b
000001b0: 44a3 0fbd ab82 d23c fca6 183c c4ef 13bc
000001c0: f6a5 c53c 6492 323c e77c f3bb 1a3a 53bb
000001d0: 0c41 18bc a0d4 b43c aa2c 3a3c 5048 903d
000001e0: fd66 52bd cd35 42bb 4859 233c fa74 d839
000001f0: faea b9bb 4bef 613b 7114 29bc e2dc 74bb
00000200: 6d79 06bd ea7b 15bc d045 eb3c eaff 2dbc
00000210: e0e6 06bc 2ee3 d3ba dc57 6039 0f69 9abc
00000220: c62c 013c a1f5 533d c49b f13c efab a43c
00000230: 0663 f63b 303d 05bd 853a aa39 85a9 7c3c
00000240: 1abd 8dbc 4196 813c 3626 83bc a968 03bd
00000250: dab6 203d 79e9 173c 7d03 84bb 621b b13c
00000260: 7ba1 c23c 39a6 d43c df40 f4ba 6b24 c53c
00000270: 7299 d33b c266 e7bc c2ef 56bb 7a9c e63c
00000280: cbd4 d13c 83a9 bbbc e52b 49bc db90 2ebd
00000290: 9c10 013c 8615 bf3c 2bef 993c 8c4c bf3c
000002a0: 224f 703b 68f1 28bc 53e9 0d3c 47ad 25bc
000002b0: fb1b bbbc 0b67 4fbc c775 91bc 8e55 3abc
000002c0: 7e5e 773c ee58 af3c 18ed debb d658 973c
000002d0: 5068 8bbc 3d07 953c e11d 2a3c 5939 113c
000002e0: 57e5 9abc 273e 1abc c3dd 793c 5b7b 203c
000002f0: 003d bdb8 6320 1c3d 8c6a e53c a979 1abd
00000300: 7796 273d f0d3 b43c bfaf 5a3c 9cb0 f9bc
00000310: b071 f43c 284a f03c 18a3 3f3c 9d51 9cbc
00000320: a334 bb3b 6f4c 1abc d9ef d63b 1b87 e73a
00000330: e304 2fbc a078 223d 6918 10bc 0e99 babb
00000340: 592d 77bd 3177 863c 57ea c53c 9b10 863c
00000350: e9fc 073c fcd4 b73a c63a 4e3b bcf6 94bb
00000360: cda5 33bc b00b cabc 5a1c 8abd a621 9b3b
00000370: a8f1 bf3b 666f 63bc ab0c d23c 7b3a 793c
00000380: 880c 223c 969f c93c 61d6 c7bc 2467 18bc
00000390: d78c a53c 96dd 913b 8e3b c9bb a729 66bc
000003a0: 23ac c2bc 0cc5 36bd 7bb7 cdbb c816 a43c
000003b0: 79f2 da39 ad4d 81bc 0cfd 18bd a08c b5bc
000003c0: b209 743b 0065 25bd 40cc 1b3d b387 7e3c
000003d0: b891 a63c 845c 8fbc 8064 69bc 4bc6 57bc
000003e0: 2dcd babb 4fbb 7a3c 92af 193d 4e6b 3dbc
000003f0: 4127 60bc 7f14 63bc d0f7 813b cf1d a1bb

action_model._discrete_distribution.branches.1.bias f4 [8]
0.0039061403 -0.014434973 0.008645607 -0.00023503797 -0.0018710543 -0.017861543 0.01915652 0.01646286
00000000: 29fe 7f3b aa80 6cbc 4ea6 0d3c 8674 76b9
00000010: 2a3e f5ba 5f52 92bc 22ee 9c3c 1fdd 863c

action_model._discrete_distribution.branches.2.weight f4 [8, 142]
-0.0058875866 -0.039995965 0.03388555 0.03534766 0.002174973 0.007693164 -0.04303461 -0.06011524
0.01685346 -0.006645886 0.041068 0.03444261 0.08930941 -0.057143778 -0.016337406 0.03497806
-0.0016332134 0.038893994 -0.04346647 0.041422807 -0.0207208 -0.05947096 -0.017017433 0.03152349
0.011920088 0.023471234 0.011858035 -0.010705728 0.024551295 -0.036357496 -0.034886915 0.017247003
0.018076386 -0.038265634 0.006896154 0.051800422 0.034430403 0.0012598365 -0.0041177287 0.008773127
0.025374928 0.018837584 0.06650821 0.02938066 0.012917251 0.03168488 0.012085588 -0.024714684
0.031823967 -0.016415656 -0.047569305 0.021991001 0.008546461 0.026982466 0.009628623 -0.007616422
0.026629454 -0.037820227 -0.05253174 -0.005824666 0.015056653 0.020989645 -0.022001883 0.010624139
0.021855718 0.024747187 -0.033980805 0.048170354 0.040691193 0.002480824 -0.0018011583 0.011601528
-0.010483204 -0.026023397 -0.0038602687 -0.014029212 0.023071248 0.020808758 0.03298647 -0.023364168
-0.0068280566 0.01646302 -0.045256265 0.011365026 0.031470545 -0.048388667 -0.02341185 -0.023697868
-0.092729405 -0.036975592 -0.017093252 0.045690954 -0.027920129 -0.012719715 -0.04559709 -0.022968264
0.048153475 -0.01624584 0.021101998 -0.044018563 -0.046539385 -0.019729877 -0.06447029 -0.0149646895
-0.033051085 0.03669296 0.006843213 -0.015964733 -0.011777806 0.047068354 -0.018937338 -0.018010259
0.029404396 -0.01908738 -0.030949438 0.039945 0.024370443 0.04276921 -0.012651346 -0.047409795
-0.010412378 -0.0025152997 -0.0039708344 -0.0009276471 -0.009529896 0.022221358 -0.012447732 -0.0017563524
0.017666195 -0.013954028 0.024122428 0.03862308 -0.036107313 0.03739293 0.011835979 -0.0036760273
-0.016882086 0.012978696 0.001979833 0.019471424 -0.019347971 -0.010741833 -0.014189972 0.020577619
0.005860482 0.0033778255 -0.0037594503 -0.0027536843 -0.0074677337 -0.02589537 -0.014619156 -0.003984753
-0.029876491 0.0013070496 -0.012087699 0.004089142 -0.045263167 -0.012764508 -0.006618286 -0.007207629
-0.006670083 0.00038902566 -0.038578935 0.052779026 -0.016825227 -0.059776172 -0.008197944 0.0035438307
0.0030719528 -0.002287026 -0.016034506 0.014216935 0.038912483 -0.023906302 -0.03137333 0.008064982
-0.03032167 0.007560877 0.026243396 -0.023002312 -0.03755243 -0.0054722005 -0.004943615 -0.0055956775
-0.060700156 0.0028766368 -0.03346281 -0.02234223 -0.0056210426 0.004838283 -0.024157908 0.015980171
-0.024204 0.003427805 -0.022664474 0.034182932 0.032192156 -0.002946302 0.020068394 -0.0084870905
0.0028992174 0.0040122857 -0.021640865 -0.039474264 -0.00867247 -0.003533724 -0.0063559385 0.015106895
-0.017939098 -0.0128288325 -0.005595224 -0.008622794 -0.05516696 0.005488277 -0.0020209455 -0.058621418
0.018105809 0.007813428 -0.071935505 -0.04514918 0.030373152 0.011154433 -0.01600616 0.03151147
0.017597616 0.023425236 -0.042896222 -0.019103108 0.046413504 -0.008739839 0.018792916 0.028330665
-0.0011902199 -0.010350527 0.037193883 -0.017998736 -0.017297655 -0.0008876573 -0.00010956753 -0.023373092
0.027239619 0.022136793 0.026060978 0.019274736 0.055763207 9.606811e-05 0.01672042 0.017598089
-0.020492103 0.02918283 0.02794443 -0.051069014 0.002446305 0.015570566 -0.014136915 0.03775393
00000000: a8ec c0bb cfd2 23bd 93cb 0a3d b5c8 103d
00000010: fe89 0e3b f016 fc3b 0f45 30bd 663b 76bd
00000020: 4410 8a3c bcc5 d9bb eb36 283d b213 0d3d
00000030: dae7 b63d 980f 6abd 06d6 85bc 2745 0f3d
00000040: 8c11 d6ba 4f4f 1f3d e609 32bd f6aa 293d
00000050: abbe a9bc d297 73bd 2568 8bbc c61e 013d
00000060: 794c 433c bf46 c03c 3448 423c 1467 2fbc
00000070: cc1f c93c 99eb 14bd 95e5 0ebd 9649 8d3c
00000080: ee14 943c 6dbc 1cbd 22f9 e13b ae2c 543d
00000090: e506 0d3d 1921 a53a 03ee 86bb 29bd 0f3c
000000a0: 15df cf3c 4751 9a3c 7535 883d b6af f03c
000000b0: e1a2 533c 01c8 013d a102 463c 7376 cabc
000000c0: d959 023d 207a 86bc 08d8 42bd 7926 b43c
000000d0: 7506 0c3c 550a dd3c 5fc1 1d3c 2e93 f9bb
000000e0: 0326 da3c 62e9 1abd 862b 57bd d7dc bebb
000000f0: 2eb0 763c 7af2 ab3c 4b3d b4bc de10 2e3c
00000100: c30a b33c 9dba ca3c 752f 0bbd 474e 453d
00000110: cfab 263d 5295 223b d814 ecba 5614 3e3c
00000120: bfc1 2bbc 052f d5bc 90fc 7cbb c8da 65bc
00000130: eaff bc3c 2177 aa3c d21c 073d 3666 bfbc
00000140: e4bd dfbb 75dd 863c a25e 39bd 6034 3a3c
00000150: 42e7 003d 3233 46bd 35ca bfbc 0822 c2bc
00000160: eae8 bdbd b873 17bd 2607 8cbc 7026 3b3d
00000170: c1b8 e4bc 5a66 50bc 04c4 3abd f127 bcbc
00000180: 943c 453d ff15 85bc 19de ac3c cf4c 34bd
00000190: 15a0 3ebd 8da0 a1bc 0009 84bd 752e 75bc
000001a0: 9360 07bd 5b4b 163d 083d e03b 79c8 82bc
000001b0: b3f7 40bc bfca 403d 7a22 9bbc 408a 93bc
000001c0: 7de1 f03c 235d 9cbc ad89 fdbc 5e9d 233d
000001d0: 86a4 c73c c42e 2f3d 9747 4fbc c630 42bd
000001e0: ae98 2abc bad7 24bb c61d 82bb 582d 73ba
000001f0: 4823 1cbc 9109 b63c 92f1 4bbc 6835 e6ba
00000200: b2b8 903c 6f9f 64bc 669c c53c 3c33 1e3d
00000210: 43e5 13bd 5429 193d b2eb 413c 81e9 70bb
00000220: 4d4c 8abc 99a4 543c 16c0 013b 8982 9f3c
00000230: a37f 9ebc 83fe 2fbc 0e7d 68bc 6592 a83c
00000240: 4909 c03b 825e 5d3b 1c61 76bb 2877 34bb
00000250: e4b3 f4bb 8722 d4bc 2f85 6fbc 8892 82bb
00000260: 8bbf f4bc 4f51 ab3a 7c0b 46bc 36fe 853b
00000270: df65 39bd 3a22 51bc 35de d8bb f92d ecbb
00000280: b690 dabb 24f6 cb39 f204 1ebd d22e 583d
00000290: 0fd5 89bc dcd7 74bd ab50 06bc 9d3f 683b
000002a0: d152 493b eee1 15bb cc5a 83bc 26ee 683c
000002b0: b262 1f3d 26d7 c3bc 5281 00bd fc22 043c
000002c0: 2765 f8bc 3cc1 f73b 64fc d63c 586f bcbc
000002d0: 94d0 19bd 2550 b3bb 0cfe a1bb f25b b7bb
000002e0: baa0 78bd f585 3c3b 4d10 09bd 0d07 b7bc
000002f0: b930 b8bb 768a 9e3b cee6 c5bc d9e8 823c
00000300: 7847 c6bc 06a5 603b d9aa b9bc 6703 0c3d
00000310: ecdb 033d bf16 41bb 7966 a43c 700d 0bbc
00000320: cc00 3e3b 7e79 833b 2f48 b1bc c4af 21bd
00000330: fa16 0ebc 0d96 67bb 7a45 d0bb e982 773c
00000340: 04f5 92bc 0630 52bc 2458 b7bb 9f46 0dbc
00000350: c0f6 61bd 01d7 b33b d771 04bb 031d 70bd
00000360: a252 943c e403 003c ec52 93bd 59ee 38bd
00000370: 1ed1 f83c 15c1 363c 5a1f 83bc 2c12 013d
00000380: e028 903c 48e6 bf3c f3b3 2fbd 1f7e 9cbc
00000390: 161c 3e3d 8b31 0fbc 9af3 993c b615 e83c
000003a0: 2701 9cba 4295 29bc 9d58 183d 1672 93bc
000003b0: d0b3 8dbc acb1 68ba 9fc7 e5b8 ed78 bfbc
000003c0: 9f25 df3c 3858 b53c d57d d53c 0de6 9d3c
000003d0: f667 643d 2d78 c938 43f9 883c de29 903c
000003e0: 0edf a7bc d510 ef3c b8eb e43c be2d 51bd
000003f0: 3052 203b b01b 7f3c 859e 67bc dda3 1a3d

action_model._discrete_distribution.branches.2.bias f4 [8]
-0.005159243 -0.010922019 0.0041691507 -0.015005196 0.014594811 -0.013642567 0.030787835 0.002172351
00000000: de0e a9bb 45f2 32bc 5f9d 883b 5bd8 75bc
00000010: 131f 6f3c 1385 5fbc c536 fc3c 015e 0e3b

action_model._discrete_distribution.branches.3.weight f4 [8, 142]
-0.0012582097 -0.010674535 0.018794237 0.008019154 -0.019735437 -0.018239044 0.005289439 0.0013892668
-0.014205538 -0.038870778 0.005442417 0.020064887 -0.015646193 -0.05494964 -0.00460998 -0.0114348205
0.0039036153 -0.0002348243 0.036522325 -0.026017461 -0.026125114 -0.030337237 -0.0008367024 -0.028177813
0.012175409 0.029009528 -0.014147156 0.0075669982 -0.027028833 0.0068338923 0.003311538 -0.0004523549
0.006209428 -0.0063884775 -0.0010246929 -0.038880426 -0.007975835 -0.026479803 0.027343884 0.0009048027
-0.0030604997 -0.039016116 -0.038527973 0.0002009185 -0.019722871 -0.035708155 0.0051983288 0.0005393515
-0.012725763 -0.02754217 -0.0042023743 0.032210708 -0.0023874063 -0.027769817 -0.036462136 -0.0058940523
-0.036879104 -0.08183053 0.0033070855 -0.0037476465 0.0019118313 0.021981902 0.012367737 0.012748993
-0.0051414766 0.022901645 0.0035719597 -0.015049507 0.0034491953 -0.00903445 0.005046006 0.0003521471
0.005969527 -0.048951294 0.019597618 0.037797477 -0.023540469 0.02166234 -0.021860594 -0.015653562
0.007360835 0.008915965 -0.020691752 -0.057141233 -0.018217186 -0.024553828 -0.0047103735 0.030215206
0.019108353 -0.033073097 0.028881267 -0.022194173 0.0059691397 0.0019483406 -0.027895497 -0.008362262
-0.027683023 -0.0046893153 0.00069026917 0.0014435765 -0.020496435 -0.024834517 -0.02460092 -0.000112554975
-0.013607401 0.0020377152 0.0065395474 -0.0513063 0.0075575025 -0.017980492 0.0040547824 -0.061481986
-0.046428274 -0.0058786795 -0.04235308 -0.023873799 0.0044106403 0.014205393 -0.017318679 0.044113673
-0.01922673 0.011428344 -0.006106016 0.014058951 0.013048005 -0.012668621 -0.003682246 0.010592224
0.0102462685 -0.020149441 -0.012898356 -0.022064665 0.0045427117 -0.026647538 -0.0043879314 -0.010233623
0.041838367 0.0310052 -0.0047102147 -0.008552404 0.009927675 -0.024923174 0.00013512024 0.006415336
0.033198718 0.028906006 0.024030626 0.098982215 0.014047624 -0.027153717 -0.041649472 0.02640234
0.004011223 -0.04468437 0.06660312 0.0438581 0.029949285 0.021847602 0.04456071 -0.0213174
0.025162326 0.01083597 0.00585851 0.0016169563 0.0058618803 0.035170447 -0.0061908844 -0.039714802
0.023660652 0.0036012481 0.03482686 -0.009480558 -0.04526213 -0.022458443 0.043030344 -0.0037634247
0.0065930565 0.015614645 -0.0023483646 -0.021287154 0.01815091 0.0077839163 -0.0062493137 0.033419646
0.024370076 0.010413722 0.051143005 0.033641413 -0.002564424 -0.014085597 -0.021049371 -0.0047191735
-0.016819846 0.01584108 -0.012452492 -0.0038883062 0.018506737 -0.039864272 0.012409917 0.0027918734
0.012127077 -0.009799877 -0.033859994 -0.023892326 0.029405396 -0.008849309 -0.024133693 0.006377124
0.022346536 -0.005136449 0.015871061 -0.0045529306 0.033746883 0.029791841 -0.032205828 -0.014306349
-0.060541797 -0.045164466 0.025825234 0.023680668 0.022108456 -0.0012063778 0.002455532 0.016663136
0.02603052 -0.013081358 -0.011409066 -0.008508669 0.03754724 -0.027960932 0.0335129 0.0054733874
0.014576103 0.020334227 -0.0030495718 -0.015971484 -0.08454295 -0.001205075 0.026916858 -0.008587802
0.0050664307 -0.025691137 -0.0062375236 -0.042921524 -0.0014675257 -0.042242322 -0.007236941 0.028146295
-0.017482927 0.02808995 0.028149351 -0.0056025614 -0.018299524 -0.019234132 0.0036703835 -0.016688809
00000000: 83ea a4ba 3fe4 2ebc 5ff6 993c c562 033c
00000010: 36ac a1bc 0c6a 95bc 0853 ad3b 0f18 b63a
00000020: 58be 68bc f736 1fbd 4e56 b23b 1e5f a43c
00000030: 722c 80bc e012 61bd 510f 97bb 1d59 3bbc
00000040: ccd3 7f3b 2b3b 76b9 6f98 153d 9222 d5bc
00000050: 5604 d6bc cc85 f8bc 2656 5bba 28d5 e6bc
00000060: 5e7b 473c 64a5 ed3c 79c9 67bc 95f4 f73b
00000070: 926b ddbc d8ee df3b 6306 593b 0c2a edb9
00000080: 7578 cb3b 6f56 d1bb fd4e 86ba 1541 1fbd
00000090: 14ad 02bc 2cec d8bc 4800 e03c 4830 6d3a
000000a0: aa92 48bb 5dcf 1fbd 82cf 1dbd a6ad 5239
000000b0: dc91 a1bc b742 12bd be56 aa3b 4463 0d3a
000000c0: b87f 50bc 1ea0 e1bc 12b4 89bb 60ef 033d
000000d0: 0876 1cbb 877d e3bc 5259 15bd e522 c1bb
000000e0: 8b0e 17bd c496 a7bd b0bb 583b 139b 75bb
000000f0: 6a96 fa3a 6413 b43c 0ca2 4a3c 27e1 503c
00000100: d579 a8bb 3b9c bb3c 8a17 6a3b 3592 76bc
00000110: e50b 623b 3b05 14bc f758 a53b 62a0 b839
00000120: 069c c33b 2781 48bd 2f8b a03c 87d1 1a3d
00000130: f1d7 c0bc 3875 b13c fd14 b3bc e63b 80bc
00000140: 2933 f13b 4514 123c c081 a9bc ed0c 6abd
00000150: 353c 95bc 1c25 c9bc 7a59 9abb e185 f73c
00000160: 1f89 9c3c a877 07bd 6898 ec3c 8ed0 b5bc
00000170: c698 c33b 765f ff3a 1985 e4bc de01 09bc
00000180: 82c7 e2bc d4a8 99bb 2ef3 343a 6436 bd3a
00000190: 24e8 a7bc c271 cbbc de87 c9bc 7e0b ecb8
000001a0: 94f1 5ebc 308b 053b b349 d63b 8e26 52bd
000001b0: eda4 f73b d34b 93bc fbdd 843b 89d4 7bbd
000001c0: 932b 3ebd f0a1 c0bb 6c7a 2dbd fc92 c3bc
000001d0: 2287 903b bdbd 683c e7df 8dbc 8ab0 343d
000001e0: 6081 9dbc f33d 3b3c fa14 c8bb 8457 663c
000001f0: 4dc7 553c 0c90 4fbc d651 71bb 028b 2d3c
00000200: f7df 273c 7110 a5bc a053 53bc f5c0 b4bc
00000210: 07db 943b f04b dabc a3c8 8fbb edaa 27bc
00000220: b55e 2b3d 9efe fd3c 2558 9abb 621f 0cbc
00000230: b0a7 223c af2b ccbc 10af 0d39 bd37 d23b
00000240: 61fb 073d 4acc ec3c e0db c43c 30b7 ca3d
00000250: 0128 663c 7971 debc a398 2abd b849 d83c
00000260: 9470 833b f506 37bd 3767 883d 8da4 333d
00000270: 3458 f53c bef9 b23c 4b85 363d d4a1 aebc
00000280: 3921 ce3c 5a89 313c bef8 bf3b 0df0 d33a
00000290: 0415 c03b e30e 103d e7dc cabb fdab 22bd
000002a0: fcd3 c13c eb02 6c3b 9ca6 0e3d 5854 1bbc
000002b0: c964 39bd c5fa b7bc 9640 303d caa3 76bb
000002c0: 910a d83b 91d4 7f3c 05e7 19bb 6662 aebc
000002d0: 38b1 943c 3910 ff3b 0bc7 ccbb 0ae3 083d
000002e0: c1a3 c73c 519e 2a3c 547b 513d 94cb 093d
000002f0: e50f 28bb 47c7 66bc bb6f acbc 4ca3 9abb
00000300: c6c9 89bc 27c5 813c 8905 4cbc f4d2 7ebb
00000310: 719b 973c b848 23bd f752 4b3c ddf7 363b
00000320: a6b0 463c aa8f 20bc c7b0 0abd d7b9 c3bc
00000330: 96e3 f03c b1fc 10bc 06b4 c5bc 32f7 d03b
00000340: 1510 b73c a84f a8bb 0704 823c c030 95bb
00000350: 2c3a 0a3d 050e f43c 42ea 03bd 2d65 6abc
00000360: adfa 77bd 60fe 38bd 718f d33c f6fd c13c
00000370: cb1c b53c 521f 9eba feec 203b 2181 883c
00000380: f53d d53c 3153 56bc 17ed 3abc f267 0bbc
00000390: 22cb 193d 530e e5bc d344 093d 1a5a b33b
000003a0: 9bd0 6e3c f793 a63c 53db 47bb a1d6 82bc
000003b0: db24 adbd 9bf3 9dba be80 dc3c dab3 0cbc
000003c0: 4d04 a63b 3876 d2bc 2464 ccbb 7bce 2fbd
000003d0: fe59 c0ba 4906 2dbd dc23 edbb 0f93 e63c
000003e0: 5b38 8fbc e51c e63c 7899 e63c b195 b7bb
000003f0: e2e8 95bc e690 9dbc d18a 703b f8b6 88bc

action_model._discrete_distribution.branches.3.bias f4 [8]
-0.012097222 0.00019874444 0.002340215 -0.0065381313 0.012106349 -0.006422665 0.012898694 0.01365198
00000000: 6d33 46bc 0e66 5039 4b5e 193b d23d d6bb
00000010: b559 463c 3875 d2bb 0b55 533c 8eac 5f3c
