results/NewTwoAgents/WhiteMLAgent/WhiteMLAgent-0.pt (torch, 276180 bytes, 20 tensors)

discrete_act_size_vector f4 [1, 5]
00000000: 0000 0041 0000 0041 0000 0041 0000 0041
00000010: 0000 a040
8.0 8.0 8.0 8.0 5.0

network_body._body_endoder.seq_layers.0.weight f4 [142, 71]
00000000: 231c 983c 520c 3abe 0a58 a8bd f745 c93d
00000010: afdd 033e 6efa 69bd dc97 333e 080b b2be
00000020: e3fe 19be 80ae 04be f2b5 603b eaa3 c0bd
00000030: 701d 8c3e 4a62 93bd 0699 b5bd cb29 903c
00000040: 9c52 513e 0a31 fd3d c2b2 b73c 64ac 06bc
00000050: a853 233e af7a fbbd 4f05 5dbd e677 5e3d
00000060: 540e 7cbe 4b07 babd c01e 26bd 2860 5dbd
00000070: 2c71 37bd fd7e 6dbe e00c 7a3d c733 9cbc
00000080: 47bf 6d3d 54d2 f7bd dd49 89be b8a5 98bd
00000090: 304b afba f4c4 58be ccf6 b8bd 7157 56be
000000a0: f1ea 6a3d 6e9c 37bd cc91 2839 a716 d03c
000000b0: 6392 0dbe d821 763d dc79 7a3d f96c a9bd
000000c0: 401f b7bd be82 0e3d 788c 8cbd 7952 27bb
000000d0: 2c31 f1bc 51e9 413e f985 ae3d 3254 2c3d
000000e0: bc8a 143e eb05 cabd 151b 0dbb 13f3 08bd
000000f0: d76d 863d cb01 e2bd 7f85 99bc 38a7 18be
00000100: caa7 103e 6b36 24be f368 80bd 52f4 b23d
00000110: b7f8 cabc 5fff abbd e02c 84bd 2c0d 2e3d
00000120: 0f1a a33d 08d2 503e f558 17be 4713 a2bd
00000130: 173c 703d 3318 693c 8ba5 5abd 7bdd 2bbc
00000140: eb7c 1c3e bf82 763e d9f1 40bd 567f 843d
00000150: de65 dcbd b122 933d e520 29be 7f60 8b3e
00000160: 5e43 553d 79a4 98bb eae7 87bc d3ff 183d
00000170: 05a3 e0bd 5244 083c 25d6 d6bc 5b4b c7bd
00000180: ff46 d5bd af8d cfbc dea8 2c3c 811f d13d
00000190: a122 8ebd 32fa 063d 3607 0e3e e4f7 4cbd
000001a0: a706 b3bd 8ff5 fe3d f612 7f3d 8219 66be
000001b0: ca2a 6a3e 21cb e5bd 7181 26be 9b4c 4f3d
000001c0: 701b 603d 0a1e babd 648e 3c3e c4e9 213e
000001d0: 0d82 02bd 6f38 46bb 9ce6 e6bd f275 46be
000001e0: 4817 edbd d2c7 80bd 7b74 5cbd bcb8 b0bd
000001f0: 72d9 88bd 8e87 41bb 5448 053e 2fab 1d3d
00000200: 924e 063d 27cf df3d b033 ba3d 77a5 17be
00000210: d15c a93d 729f 12bc 6fba 103e b0ca 6cbd
00000220: 7b05 153e d3c3 24bd 0602 e83d 705d b93d
00000230: 596f 9b3c 37ef 4abe 983c 1fbd 83c0 8f3d
00000240: 3586 5b3c b051 c23d 6158 b3bd 2c46 f93c
00000250: f450 7cbd 2068 50be b5ed 77bd 1791 5cbe
00000260: b5b6 bcbc b282 063e fb1c 9abd 8722 b13d
00000270: 98d3 633e 9883 a53d 263b 91bd 4493 2c3e
00000280: 3fdf 0abd 84b3 bc3d 0780 89bd 6124 d2bd
00000290: 1008 7c3d 0392 873d 135e 51be e459 8c3d
000002a0: 5bb3 c9bd 4e13 b43b 223e 82be 4657 773e
000002b0: 5e59 8abe f1ec e73c 82c8 be3d 8b9a 113e
000002c0: 766d e3bd 99c0 9cbd 438b bfbd 42ce c23d
000002d0: 9600 88be 54fa 03be 96f2 92bd c089 0d3e
000002e0: df9c 40be 97c8 8a3d 14c6 b13d ff1b 17bd
000002f0: 8474 013d d2e4 023c ca31 f9bd 1c3c 833d
00000300: abf8 f6bc 599e 52bd 4a14 153e 7674 913d
00000310: 4a98 77bd c993 c13d 3949 ee3a 5b48 fa3d
00000320: 88ef dc3c 76f0 e23d 06c4 dbbd 2244 b43c
00000330: 3332 273e 5d8d 803d 0d75 f8bc 5f36 793e
00000340: fc0c 11be 68ce 163e f43d 7b3d cb73 8abd
00000350: e53e c2bd fcd7 1bbe 2e22 3f3e fe35 233e
00000360: 41dc b0bc 9615 90bc 0123 9f3d 7aee d4bc
00000370: 1dff d93c aef4 233e ef25 6a3d e2da 0ebe
00000380: f7cb 86bd 6352 d13d 7b10 80bb 3cbc e93d
00000390: 85ae aebd c630 0fbe 9ce8 923d 183e 1a3d
000003a0: 2354 193e 45d5 303d dea4 943e 368d 9f3c
000003b0: 444d c2bb ae80 7b3d 0b64 89bd bd5f 463c
000003c0: 95f0 1ebd f1bd 1ebc 872a c6bd f1da abbd
000003d0: c22d 8fbd 20d7 24be 35ac 913e c47b 013d
000003e0: f232 393e 8f27 293d b366 a23c 6a93 7bbe
000003f0: b8c3 b43c 9921 1d3e 4c24 753b 41f5 7c3d
0.018568104 -0.18168762 -0.08219917 0.09827798 0.12877534 -0.057123594 0.17538399 -0.3477404
-0.15038638 -0.12957191 0.0034288135 -0.09406264 0.2736621 -0.071964815 -0.088670775 0.017598053
0.20441669 0.12362869 0.022424106 -0.008219812 0.15949881 -0.122792594 -0.05396014 0.054313563
-0.24614841 -0.09083422 -0.04055667 -0.05404678 -0.044785663 -0.23192973 0.061047435 -0.019067658
0.058043744 -0.12100664 -0.26814166 -0.07453483 -0.0013373848 -0.21168882 -0.09031448 -0.20931794
0.057352964 -0.044826917 0.00016076042 0.025401426 -0.13825373 0.06009087 0.06115137 -0.08272738
-0.08941507 0.034792654 -0.0686273 -0.0025531335 -0.029442392 0.1893666 0.08521647 0.042072482
0.14506048 -0.0986441 -0.0021531035 -0.03343494 0.06563919 -0.11035498 -0.018740414 -0.14907539
0.14126506 -0.16036384 -0.062700175 0.08738007 -0.0247768 -0.083983175 -0.06453872 0.04249303
0.07963955 0.2039262 -0.14780028 -0.07913833 0.058651056 0.014226961 -0.05338053 -0.010489817
0.15282027 0.24073313 -0.047105644 0.064696 -0.10761617 0.07184351 -0.16516455 0.27222058
0.0520662 -0.0046582785 -0.016590077 0.037353348 -0.109685935 0.00831707 -0.026225159 -0.0973117
-0.10413932 -0.025336115 0.010538308 0.10211087 -0.06940199 0.03295345 0.13869938 -0.050041094
-0.08741503 0.1244918 0.062273942 -0.22470668 0.22867885 -0.112203844 -0.16260315 0.050610166
0.054713666 -0.09087761 0.18413693 0.15811831 -0.031862307 -0.003024604 -0.11274454 -0.1938093
-0.11576706 -0.06288113 -0.053822022 -0.08628985 -0.066820994 -0.002953026 0.13015872 0.03849333
0.032789774 0.10928183 0.0909189 -0.14809214 0.082696564 -0.008949148 0.14133619 -0.057810485
0.14552872 -0.040225815 0.11328511 0.09051025 0.018973993 -0.19817816 -0.038876146 0.070191406
0.013398697 0.09488237 -0.08757091 0.030428968 -0.06160064 -0.2035222 -0.06052943 -0.21539722
-0.02303634 0.13135794 -0.07525059 0.08649164 0.22248685 0.0808174 -0.0709136 0.16853052
-0.03390431 0.092139274 -0.067138724 -0.10260845 0.061531126 0.066196464 -0.20446043 0.06853083
-0.098486625 0.0054954654 -0.2543803 0.24154386 -0.27021307 0.028311225 0.093155876 0.1421911
-0.111048624 -0.076539226 -0.09352734 0.09511997 -0.26562947 -0.12888461 -0.07175176 0.13822079
-0.18809842 0.06776541 0.086803585 -0.036891934 0.03160526 0.007989125 -0.121677 0.06407949
-0.030147871 -0.051420543 0.14558521 0.07102291 -0.06044797 0.09452016 0.0018179781 0.12220832
0.026969686 0.110810205 -0.10730748 0.022005145 0.16327743 0.06276963 -0.030329252 0.24337147
-0.1416511 0.14727175 0.06133838 -0.06760367 -0.094846524 -0.1521911 0.18665382 0.15938565
-0.0215894 -0.017588418 0.07770348 -0.02599262 0.026610905 0.16011307 0.057165083 -0.13950685
-0.06581872 0.10220792 -0.0039082146 0.11412856 -0.08529381 -0.1398345 0.07173273 0.037656873
0.14973502 0.04317214 0.29032034 0.019476514 -0.005929621 0.061402015 -0.06708535 0.012107787
-0.038803656 -0.00968884 -0.0967608 -0.08391369 -0.069911495 -0.16097689 0.28451696 0.031612173
0.1808584 0.04129749 0.019824361 -0.24567953 0.022065982 0.15344848 0.0037405668 0.06175733

network_body._body_endoder.seq_layers.0.bias f4 [142]
00000000: 0000 0000 0000 0000 0000 0000 0000 0000
00000010: 0000 0000 0000 0000 0000 0000 0000 0000
00000020: 0000 0000 0000 0000 0000 0000 0000 0000
00000030: 0000 0000 0000 0000 0000 0000 0000 0000
00000040: 0000 0000 0000 0000 0000 0000 0000 0000
00000050: 0000 0000 0000 0000 0000 0000 0000 0000
00000060: 0000 0000 0000 0000 0000 0000 0000 0000
00000070: 0000 0000 0000 0000 0000 0000 0000 0000
00000080: 0000 0000 0000 0000 0000 0000 0000 0000
00000090: 0000 0000 0000 0000 0000 0000 0000 0000
000000a0: 0000 0000 0000 0000 0000 0000 0000 0000
000000b0: 0000 0000 0000 0000 0000 0000 0000 0000
000000c0: 0000 0000 0000 0000 0000 0000 0000 0000
000000d0: 0000 0000 0000 0000 0000 0000 0000 0000
000000e0: 0000 0000 0000 0000 0000 0000 0000 0000
000000f0: 0000 0000 0000 0000 0000 0000 0000 0000
00000100: 0000 0000 0000 0000 0000 0000 0000 0000
00000110: 0000 0000 0000 0000 0000 0000 0000 0000
00000120: 0000 0000 0000 0000 0000 0000 0000 0000
00000130: 0000 0000 0000 0000 0000 0000 0000 0000
00000140: 0000 0000 0000 0000 0000 0000 0000 0000
00000150: 0000 0000 0000 0000 0000 0000 0000 0000
00000160: 0000 0000 0000 0000 0000 0000 0000 0000
00000170: 0000 0000 0000 0000 0000 0000 0000 0000
00000180: 0000 0000 0000 0000 0000 0000 0000 0000
00000190: 0000 0000 0000 0000 0000 0000 0000 0000
000001a0: 0000 0000 0000 0000 0000 0000 0000 0000
000001b0: 0000 0000 0000 0000 0000 0000 0000 0000
000001c0: 0000 0000 0000 0000 0000 0000 0000 0000
000001d0: 0000 0000 0000 0000 0000 0000 0000 0000
000001e0: 0000 0000 0000 0000 0000 0000 0000 0000
000001f0: 0000 0000 0000 0000 0000 0000 0000 0000
00000200: 0000 0000 0000 0000 0000 0000 0000 0000
00000210: 0000 0000 0000 0000 0000 0000 0000 0000
00000220: 0000 0000 0000 0000 0000 0000 0000 0000
00000230: 0000 0000 0000 0000
0.0 0.0 0.0 0.0 0.0 0.0 0.0 0.0
0.0 0.0 0.0 0.0 0.0 0.0 0.0 0.0
0.0 0.0 0.0 0.0 0.0 0.0 0.0 0.0
0.0 0.0 0.0 0.0 0.0 0.0 0.0 0.0
0.0 0.0 0.0 0.0 0.0 0.0 0.0 0.0
0.0 0.0 0.0 0.0 0.0 0.0 0.0 0.0
0.0 0.0 0.0 0.0 0.0 0.0 0.0 0.0
0.0 0.0 0.0 0.0 0.0 0.0 0.0 0.0
0.0 0.0 0.0 0.0 0.0 0.0 0.0 0.0
0.0 0.0 0.0 0.0 0.0 0.0 0.0 0.0
0.0 0.0 0.0 0.0 0.0 0.0 0.0 0.0
0.0 0.0 0.0 0.0 0.0 0.0 0.0 0.0
0.0 0.0 0.0 0.0 0.0 0.0 0.0 0.0
0.0 0.0 0.0 0.0 0.0 0.0 0.0 0.0
0.0 0.0 0.0 0.0 0.0 0.0 0.0 0.0
0.0 0.0 0.0 0.0 0.0 0.0 0.0 0.0
0.0 0.0 0.0 0.0 0.0 0.0 0.0 0.0
0.0 0.0 0.0 0.0 0.0 0.0

network_body._body_endoder.seq_layers.2.weight f4 [142, 142]
00000000: 991c 12bd 7041 013d 2996 be3d c58d 1c3d
00000010: 3e47 88bb 4b1c 633e 9ed9 d33c 8a38 bf3d
00000020: 2ab8 1e3d 0622 2cbd 8ecd b43d 1ede ce3d
00000030: 8ad4 d4bc f2b0 c23d e003 f7bd 7f2e f2bd
00000040: 04bc f83b 6600 aebd 10d5 1b3e 3702 c03b
00000050: 3a44 97bb 3f76 a5bd 1ae2 3d3e 3a71 65bd
00000060: a275 053a b9b7 7dbd e037 42bd 503c f6bd
00000070: 0ad5 943d 3617 1bbd f199 2c3d 2a4b 223d
00000080: 9cee c63d 95be 193c f674 cb3d 2fa6 5d3d
00000090: 0bfd 8e3d 6cde c63d 1e2b 5fbd 9df0 c8bd
000000a0: b6b1 9fbd 5491 953c 0cc6 e83c 1ff0 8f3d
000000b0: 83fc a9bd a749 16be 6b38 d2bc 1980 a9bc
000000c0: d084 153e bfe9 9d3d 7bd3 c3bd 79b2 e63d
000000d0: 9f49 f1bd ac9f 9f3d 613f 923d 0f35 0e3d
000000e0: 50bd 863d 362d 11bd dda6 d63c 37a0 cc3d
000000f0: 6e27 8b3d 446f fcbc e76d 5fb9 4c16 5abd
00000100: 4cc2 ebbd b563 ad3d eb60 0e3c 5f46 aebc
00000110: e5d9 263e 7072 b6bd 4c2e b93d d26b 8ebc
00000120: 895c 013d 8ed8 1dbd d426 923b d378 99bc
00000130: e329 aebc 91f4 023e 76bf bd3d c734 063e
00000140: e11a 913d b621 b2bd d9af 6a3e 4233 7fbc
00000150: be26 8ebd 01ad 0ebe 2e77 29be 26b9 bfbc
00000160: cf41 5ebd e97b a8bd 8532 bd3d 698a 4abc
00000170: 43a9 10be 2a22 8abd 3bc7 553d 6c5c 233e
00000180: 384f d03d 7eae edbd 6008 df3d 588b 023d
00000190: 17f9 27bd d2ee c1bb 5dfb c43d d87d d9bd
000001a0: eee7 52bd 647b 073c 1259 89bc 04f1 5cbe
000001b0: 9ada b5ba cc9c 673e b101 88bd e443 b83c
000001c0: ad8e b73d 2897 d23d a152 94bd daaf 0ab9
000001d0: 3253 af3d d08f cbbd bc15 a6bb a149 a63d
000001e0: 5a1c 4cb9 f5aa 49be 0480 0dbc 0be0 c93c
000001f0: 1890 8dbd 460a a9b8 53d3 bc3d 56c8 6dbd
00000200: 6934 f93d 4dd1 093c 89bd dabd 53a1 e93c
00000210: 7560 0c3d 9a28 ed3d d22a 05be 50f4 7e3d
00000220: 0a8f c7bb 10c1 1b3d 30e5 e3bd 48f5 703d
00000230: f7ab c3bd 6431 4a3d 0908 013d d31a 183c
00000240: 683b 803c 86e9 223d 5eb0 113e 1f53 05bb
00000250: 7061 84bd 5589 523d d55d 8cbd f22c 7a3b
00000260: 88df 31bd b8fa ca3d d8f2 49bc d41a 14be
00000270: 6d78 003e 707e 66bd 651a 8e3c 81d4 f1bd
00000280: 094f 5abd 8e91 2f3d d362 c33d e98d f23d
00000290: e4dd 3d3d 1bc0 b4bd 1fc0 c53d 63d8 24bd
000002a0: 2553 383d e07a c03d 856e 3bbd 7aaf d1bc
000002b0: 26c2 d0bc 090b 663d d6b2 cdbd fd99 6cbd
000002c0: 7119 b7bd a946 0c3b 482a 9e3d 1c78 86bd
000002d0: bd26 163c d524 2bbd aa64 0a3d 39e6 873d
000002e0: 5769 b33d 69a3 18be b5be 5fbd 0233 303d
000002f0: 7fc8 f93d f380 4d3d 8069 d0ba 6b5e c5bc
00000300: 1d35 183e a4a0 823c cc4f 21bb d404 2f3c
00000310: fbaa 513d 4d33 5fbe dea7 d23c 52e3 b6bc
00000320: ec40 89bc d9ae 0a3e 188a 06be 5cff 883d
00000330: 4b89 9e3d 5d2c 40be 0987 17be 73ad 43bd
00000340: 8be1 223e 1a3c a2bc 25b0 293d 9523 49bd
00000350: a119 583d e1a2 32be 0190 953b 6abc 23bd
00000360: 4455 b03d a8c8 90bd b683 e4bc c566 1b3e
00000370: 8fe2 03be 9bc7 ab3d 5f48 553d a8be e9bc
00000380: 2a42 083e a4d0 52bd 3231 abbd a1af b1bd
00000390: f762 9e3d 2d84 fb3d f653 65bd 5010 1cbc
000003a0: dde0 cc3d 280c 33be 85d5 04be fd7b 1e3d
000003b0: 1ca5 c5bd 325b a4bd 8098 abbd d971 863c
000003c0: ea9e 723d 6abf e7bd c94b f5bd a835 8dbd
000003d0: a3d5 c6bd abf4 bd3b 45db 1c3d 02cf 69bd
000003e0: 958a 0c3e e730 aebb 0fbc 073e 8ecd 00be
000003f0: 6ee6 503d 0463 cb3d d02c a93d 1dee aebd
-0.035671804 0.031556547 0.093059845 0.03822114 -0.0041588834 0.22178762 0.025860604 0.09336956
0.03874985 -0.042024635 0.08828269 0.10100959 -0.025980253 0.09506406 -0.12061286 -0.11825275
0.0075907726 -0.0849617 0.15217996 0.005859639 -0.0046162875 -0.08079194 0.18543282 -0.056016184
0.0005091076 -0.06194279 -0.047416568 -0.120232224 0.072671965 -0.037863933 0.042138997 0.039622463
0.0971348 0.009383817 0.09934418 0.054113563 0.06981858 0.09710392 -0.05448448 -0.09811518
-0.077975675 0.018257774 0.028414749 0.07028221 -0.08300116 -0.14676534 -0.025661668 -0.020690965
0.14601445 0.07710599 -0.09561821 0.1126451 -0.1178162 0.07794127 0.07140995 0.03471857
0.06579077 -0.035443507 0.026202613 0.09991496 0.0679463 -0.030814774 -0.00021307879 -0.05324392
-0.115116686 0.08466283 0.008690099 -0.02127379 0.16294058 -0.08908546 0.090420336 -0.017385397
0.03158239 -0.0385366 0.004460195 -0.018734371 -0.021260208 0.12788607 0.09265034 0.1310607
0.07085205 -0.08697836 0.22918643 -0.015576186 -0.06940983 -0.13933183 -0.1654937 -0.023403715
-0.05426198 -0.08226759 0.092381515 -0.012362101 -0.14127068 -0.067447975 0.052191954 0.15953225
0.1017136 -0.11605547 0.10890269 0.03187117 -0.041009035 -0.005918362 0.09618256 -0.10619706
-0.051490717 0.008269165 -0.016766105 -0.21576315 -0.0013874352 0.22618407 -0.066409476 0.02249331
0.0896276 0.10282737 -0.07242323 -0.00013226215 0.0856079 -0.099395394 -0.005068509 0.08119512
-0.00019465518 -0.19694121 -0.008636478 0.024642965 -0.06912249 -8.0604616e-05 0.092199944 -0.058052383
0.121681996 0.008411718 -0.10680682 0.028519308 0.034271676 0.1158001 -0.13004616 0.062244713
-0.0060900496 0.038025916 -0.111276984 0.05882767 -0.09554284 0.04936351 0.031501804 0.009283739
0.015653327 0.039773487 0.14227435 -0.0020343733 -0.06463897 0.0514005 -0.068538345 0.0038173762
-0.043426067 0.09911102 -0.012325965 -0.14463359 0.12545939 -0.056272924 0.01734657 -0.1180811
-0.05329803 0.04286342 0.095403336 0.118434735 0.04635419 -0.08825704 0.09655785 -0.040245425
0.045001168 0.093984365 -0.045759697 -0.025596369 -0.025483202 0.056162868 -0.10043876 -0.057764042
-0.089403994 0.0021404421 0.07722908 -0.06565878 0.009164509 -0.041783173 0.033787407 0.06635708
0.08760326 -0.14906086 -0.05462523 0.043017395 0.12196445 0.050171804 -0.0015900582 -0.024092874
0.14864011 0.01594574 -0.0024614213 0.010682303 0.05118845 -0.21796913 0.025714811 -0.022325192
-0.01675459 0.13543262 -0.13138616 0.06689331 0.0774103 -0.18766923 -0.14797606 -0.047772836
0.1590635 -0.01980405 0.04142775 -0.0491062 0.052758817 -0.17444946 0.0045642857 -0.039974608
0.08610013 -0.07069522 -0.027894836 0.15175922 -0.12879394 0.08387681 0.05207097 -0.028533295
0.1330649 -0.051468506 -0.08358993 -0.08676077 0.0773372 0.1228107 -0.055988275 -0.009525374
0.10003827 -0.17485106 -0.12972076 0.038692463 -0.09650633 -0.080252066 -0.083786964 0.016411709
0.059233584 -0.11315806 -0.119773455 -0.06895 -0.09708717 0.005796989 0.03829505 -0.057082184
0.1372474 -0.005315888 0.13255332 -0.12578413 0.051001005 0.09930995 0.082605004 -0.0854151

network_body._body_endoder.seq_layers.2.bias f4 [142]
00000000: 0000 0000 0000 0000 0000 0000 0000 0000
00000010: 0000 0000 0000 0000 0000 0000 0000 0000
00000020: 0000 0000 0000 0000 0000 0000 0000 0000
00000030: 0000 0000 0000 0000 0000 0000 0000 0000
00000040: 0000 0000 0000 0000 0000 0000 0000 0000
00000050: 0000 0000 0000 0000 0000 0000 0000 0000
00000060: 0000 0000 0000 0000 0000 0000 0000 0000
00000070: 0000 0000 0000 0000 0000 0000 0000 0000
00000080: 0000 0000 0000 0000 0000 0000 0000 0000
00000090: 0000 0000 0000 0000 0000 0000 0000 0000
000000a0: 0000 0000 0000 0000 0000 0000 0000 0000
000000b0: 0000 0000 0000 0000 0000 0000 0000 0000
000000c0: 0000 0000 0000 0000 0000 0000 0000 0000
000000d0: 0000 0000 0000 0000 0000 0000 0000 0000
000000e0: 0000 0000 0000 0000 0000 0000 0000 0000
000000f0: 0000 0000 0000 0000 0000 0000 0000 0000
00000100: 0000 0000 0000 0000 0000 0000 0000 0000
00000110: 0000 0000 0000 0000 0000 0000 0000 0000
00000120: 0000 0000 0000 0000 0000 0000 0000 0000
00000130: 0000 0000 0000 0000 0000 0000 0000 0000
00000140: 0000 0000 0000 0000 0000 0000 0000 0000
00000150: 0000 0000 0000 0000 0000 0000 0000 0000
00000160: 0000 0000 0000 0000 0000 0000 0000 0000
00000170: 0000 0000 0000 0000 0000 0000 0000 0000
00000180: 0000 0000 0000 0000 0000 0000 0000 0000
00000190: 0000 0000 0000 0000 0000 0000 0000 0000
000001a0: 0000 0000 0000 0000 0000 0000 0000 0000
000001b0: 0000 0000 0000 0000 0000 0000 0000 0000
000001c0: 0000 0000 0000 0000 0000 0000 0000 0000
000001d0: 0000 0000 0000 0000 0000 0000 0000 0000
000001e0: 0000 0000 0000 0000 0000 0000 0000 0000
000001f0: 0000 0000 0000 0000 0000 0000 0000 0000
00000200: 0000 0000 0000 0000 0000 0000 0000 0000
00000210: 0000 0000 0000 0000 0000 0000 0000 0000
00000220: 0000 0000 0000 0000 0000 0000 0000 0000
00000230: 0000 0000 0000 0000
0.0 0.0 0.0 0.0 0.0 0.0 0.0 0.0
0.0 0.0 0.0 0.0 0.0 0.0 0.0 0.0
0.0 0.0 0.0 0.0 0.0 0.0 0.0 0.0
0.0 0.0 0.0 0.0 0.0 0.0 0.0 0.0
0.0 0.0 0.0 0.0 0.0 0.0 0.0 0.0
0.0 0.0 0.0 0.0 0.0 0.0 0.0 0.0
0.0 0.0 0.0 0.0 0.0 0.0 0.0 0.0
0.0 0.0 0.0 0.0 0.0 0.0 0.0 0.0
0.0 0.0 0.0 0.0 0.0 0.0 0.0 0.0
0.0 0.0 0.0 0.0 0.0 0.0 0.0 0.0
0.0 0.0 0.0 0.0 0.0 0.0 0.0 0.0
0.0 0.0 0.0 0.0 0.0 0.0 0.0 0.0
0.0 0.0 0.0 0.0 0.0 0.0 0.0 0.0
0.0 0.0 0.0 0.0 0.0 0.0 0.0 0.0
0.0 0.0 0.0 0.0 0.0 0.0 0.0 0.0
0.0 0.0 0.0 0.0 0.0 0.0 0.0 0.0
0.0 0.0 0.0 0.0 0.0 0.0 0.0 0.0
0.0 0.0 0.0 0.0 0.0 0.0

action_model._discrete_distribution.branches.0.weight f4 [8, 142]
00000000: b653 853b 53ef 33bb 3349 53b9 f286 763b
00000010: 3086 533a a636 c5bb c779 5c3c b3e6 0b3b
00000020: 835f 103c bb4e d4bb 9d57 eb3b 0fc2 043b
00000030: 4b39 733b 8c62 1939 0753 f13b 485f 5bbb
00000040: cf44 ec3b c829 4ebb 9829 f1bb f823 f8bb
00000050: 1fbc 14bb ebf1 af3b 0554 ef3a d7f4 fbbb
00000060: 5fdb 36bc 7722 43bc 13ca 223c cfd5 693c
00000070: 1858 0bbc c713 c03b c645 06bc 1b3d 42bc
00000080: 630f 01bc 97f6 86bc 80e6 cdbb 5dee 7db9
00000090: 606a 7cbc 9f4c b13b c052 2cbc 6a0a 4ebc
000000a0: 3b4e 473b 5a79 753c 39a0 40bb 2969 1e3c
000000b0: fac7 bf39 721f 1c3c 1aff 5b3a c682 2bbc
000000c0: 0253 803c 87ac f83b 23b2 58bb c4f3 1bbc
000000d0: 4bef ebbb eb67 663b 20a1 163b cbe6 b33b
000000e0: 37ea 05bc 97ee f03b f012 ec3b eb6b a8bb
000000f0: d1b6 89bc 688b 1c3b 52bd 2fbc 9b34 4dbc
00000100: d39e 91bc 60c4 59ba 5a0b ee3b ae5d 29bc
00000110: ebcb 1f3b 9df3 183b b618 ad3b 0aef f63b
00000120: b557 71bb 2294 993b 925e e03b 73e1 0ebc
00000130: e23f a7bb 6f8e 9bbb a267 523c 17d1 d8b9
00000140: eb9c f43b 9200 b8bb 5d3f ef39 0359 763b
00000150: 96b4 aabb 87e0 c8bc db9e cf39 7f37 d7b9
00000160: b7f6 7c3c a73a 493c c038 473b 9329 1b3c
00000170: 0a78 e03b 90ee 50bb 77d7 143c 1766 e4ba
00000180: a0ea ec3b 1acd e1ba 4c2b 41bc 3c4a 293a
00000190: c17d ac3b 1c2c 8b3c 326f ca3b a391 f2ba
000001a0: a480 9f3b 2eba 013c dbf9 a33a 6b08 b83b
000001b0: 15f9 af3a c3f6 8dbb d950 213b 736e eaba
000001c0: 2563 ff3b a72e 88bc ff6f 8c3b e37f 143c
000001d0: f034 113c bf0e 2b39 82f8 e13b 7b4f 4fbb
000001e0: 47a5 e53b ff74 3d3b 7a9e 9f3b 3fbb c73a
000001f0: 9b74 d4bb 6203 e33b ebea 8ebc 6551 543c
00000200: 8757 4f3b efb3 e2bb 46ea 8cbb a3c0 c03c
00000210: 40c6 713a 745f 17bc 47fb 923b c3c2 1e3b
00000220: 4082 c13b 95d8 2e3a 232f fab8 b700 033c
00000230: 7726 6c3c 87de dcbb 4fb1 683b 33b3 77bb
00000240: 9a77 453a 651f f5bb 2444 34bc 271f 863b
00000250: 67da 4bbc 9c88 8cbb 3ba3 7eba 8329 bf3c
00000260: 6cbf 1bbb 6fbc 583a 1681 383b 99ec 04bc
00000270: a5f0 11bc 1baa a1bc 476c 3abc 2029 febb
00000280: bb51 aa3b dbfd b63c 859b b23b 30f6 89bb
00000290: 3559 d3bb 6f00 09bc b8ab deba e14a 453c
000002a0: e792 013c f3fc e6bb eedc 9dbb 4988 aabb
000002b0: 7989 42bc 1cee 1abb cba1 dfba 0ee6 163b
000002c0: 2a5d 85bb 1224 ef3b 28cd b03b 5b1c 0f3c
000002d0: 6af7 a33b f68e 3bbb 3870 7f3c 9f06 ab3b
000002e0: e287 9c3a 5509 ce3a bd45 09bc efc5 d33b
000002f0: 55bc 163c c6c5 26bc ba59 eabb 2bb5 843b
00000300: dc42 373c 737e d238 0272 903b 3406 92bb
00000310: 1fe1 81bc 0ce2 80bb c9fa 33bb b015 d9b9
00000320: d3dc 50bb 3a40 44bb 079b edbb bb65 c4b9
00000330: a53a d7bb 3b2b b0bb 5f43 fb3b 42db f1bb
00000340: 6bc3 0139 ea14 c0b8 8be5 86bc 5ba7 60bb
00000350: 1beb fc3b 17e6 1e3a 9094 ff3b c8a7 8f3b
00000360: a722 c6ba 212c ac3a 14cf 0039 820c ceba
00000370: b5cb 003b 0878 e73b ed2e ecbb 4366 7c3c
00000380: 2226 62bc b1d3 3fbb 4565 cdbb d30e 8cbc
00000390: 9c89 88bb 4e02 1bbb d545 2c3c 62e5 7bbb
000003a0: e06b f4ba 6f86 36bc f88f fbbb 80c1 0fbc
000003b0: 4b95 cb3b 138a 343c 331b 063c 1351 933b
000003c0: c675 0abc 2fc6 233b 7849 69bc 276f 52bb
000003d0: af5c e93b 3b36 77bb ec3b 87bb d7be c2bb
000003e0: 0b52 5b3c 78ad f13b 0be0 a63b 8f6e 693c
000003f0: 2cd9 02bb b790 2dbc a28b b83b 06de 0ebc
0.004068817 -0.002745588 -0.00020149797 0.0037617055 0.0008069007 -0.0060184775 0.013456768 0.0021347224
0.008811834 -0.006479112 0.007182075 0.002025727 0.0037113007 0.00014627929 0.007364634 -0.003347354
0.007210351 -0.003145801 -0.0073596947 -0.007572647 -0.0022695137 0.005369415 0.0018259293 -0.0076890993
-0.011160701 -0.0119100725 0.009935874 0.014272167 -0.00850489 0.0058617326 -0.008195346 -0.011855389
-0.007877204 -0.016475005 -0.0062835813 -0.00024216757 -0.015406221 0.0054107453 -0.010517776 -0.012575725
0.003041162 0.014982546 -0.0029392375 0.009668627 0.00036579353 0.0095289815 0.00083922 -0.010468191
0.015664581 0.0075889262 -0.0033065162 -0.0095185675 -0.007200157 0.0035157155 0.0022984222 0.005490159
-0.008173517 0.007352661 0.007204406 -0.005139818 -0.016810806 0.0023886804 -0.01072629 -0.012524749
-0.017775929 -0.0008307155 0.007264537 -0.010337276 0.002438302 0.0023338564 0.005282487 0.00753582
-0.003682596 0.0046868483 0.006847211 -0.0087207435 -0.005104051 -0.004747204 0.012842091 -0.00041354515
0.007464995 -0.0056153024 0.00045632842 0.0037589676 -0.005209516 -0.024521125 0.00039600473 -0.00041049343
0.015439681 0.01228205 0.0030398816 0.009470361 0.0068502473 -0.0031880476 0.009084574 -0.0017425445
0.007230118 -0.0017227263 -0.011790108 0.00064579 0.0052640145 0.016988806 0.0061778063 -0.0018506538
0.00486763 0.007917924 0.0012510376 0.005616238 0.0013425673 -0.004332395 0.002461484 -0.00178857
0.0077938014 -0.016623808 0.004285812 0.009063694 0.008862719 0.00016313324 0.0068960795 -0.0031633067
0.007008228 0.0028908846 0.004871187 0.0015238299 -0.006483627 0.0069278935 -0.017446002 0.012958859
0.0031637864 -0.0069184224 -0.0043003885 0.023529356 0.0009222962 -0.009239066 0.004485521 0.0024224974
0.0059054196 0.00066698465 -0.00011929709 0.007995776 0.014413468 -0.0067403945 0.0035506075 -0.003779602
0.00075327756 -0.007480549 -0.011002574 0.004093069 -0.012442208 -0.004288746 -0.0009713654 0.023335224
-0.002376522 0.0008267825 0.0028153113 -0.00811305 -0.008907472 -0.019734433 -0.011378354 -0.0077563673
0.0051977313 0.022337845 0.0054506683 -0.004210256 -0.0064498433 -0.00836192 -0.0016988432 0.012041778
0.007908559 -0.007049197 -0.0048175966 -0.0052042347 -0.011873596 -0.002364046 -0.0017061768 0.0023025307
-0.004069944 0.007298001 0.0053955503 0.008734788 0.0050038593 -0.0028619147 0.01559072 0.005219295
0.0011942352 0.0015719334 -0.008378443 0.0064628045 0.009200175 -0.010178989 -0.0071518095 0.004049917
0.011185374 0.00010037133 0.004408122 -0.004456306 -0.015854416 -0.003933197 -0.0027462712 -0.00041405624
-0.0031869903 -0.0029945509 -0.0072511467 -0.00037459828 -0.0065682703 -0.005376247 0.0076679434 -0.007380874
0.00012375198 -9.159169e-05 -0.016466876 -0.003427944 0.0077184564 0.0006061508 0.0077996925 0.0043840148
-0.0015116528 0.001313571 0.00012284174 -0.001572028 0.001965267 0.0070638694 -0.0072077424 0.0154052405
-0.013803037 -0.0029270465 -0.006268176 -0.017096912 -0.004166795 -0.0023652497 0.010514696 -0.0038436283
-0.0018647872 -0.01114045 -0.0076770745 -0.008774161 0.0062128655 0.011019248 0.008185196 0.004495749
-0.008450931 0.0024989953 -0.014238708 -0.003210971 0.0071216444 -0.0037721533 -0.0041270163 -0.00594316
0.01338626 0.0073754154 0.005092626 0.014247551 -0.001996587 -0.010593585 0.00563188 -0.008719927

action_model._discrete_distribution.branches.0.bias f4 [8]
00000000: 0000 0000 0000 0000 0000 0000 0000 0000
00000010: 0000 0000 0000 0000 0000 0000 0000 0000
0.0 0.0 0.0 0.0 0.0 0.0 0.0 0.0

action_model._discrete_distribution.branches.1.weight f4 [8, 142]
00000000: 83fd 86ba 8d34 c33b 1b3e bebb 489a cd3b
00000010: 803b 543c 6e72 b03b 9a01 f93b d777 4dbb
00000020: 3e5b 0fbc 431b 00bc 9b19 87bb 4556 e8b9
00000030: 7778 1e3b 4ff5 48bc cc1f 82bb 8285 643c
00000040: 1c8d c4bb 83dc d039 8ab0 0dbb fd96 d4bb
00000050: 6fe5 66ba 8970 acba e348 3cbc 6161 043c
00000060: 4cdc 3a3b 1bb8 c1bb bb1e 64bc 5f14 313c
00000070: 1073 4b3b 1f85 22bb f444 b83b db23 1f3b
00000080: 038f 83bb 2534 52bb 2000 983c 5119 aa3b
00000090: b79e 593c 7f94 bfba dbab 243b fe65 0fbc
000000a0: 0380 37ba eee5 c93b f32a 8cbc b37e 0abc
000000b0: e734 973b 80aa 13bc 7381 d8bb eaf4 7cbb
000000c0: 7280 453c d2c7 d13a 4bc2 b33b 1146 13bc
000000d0: d5ad 223b 6e85 c6b9 f13c c43b 8d2b 2a3b
000000e0: b79f 1a3c 4d2a 043c 4699 343a 0b56 4a3a
000000f0: ef25 85bb 4f5b 8dbc f013 713b 547e b1bc
00000100: 4398 98bc 3b64 84bc 475c 71bb f27a 68bb
00000110: 452c 5cbc 7170 123c 8de6 cfbb 389c 00bb
00000120: d484 81bb 023f cd3b ca08 f8bb e1a3 b43b
00000130: e663 47bc e196 a6bb 21ad 9cbb dfe6 25bc
00000140: e574 533a 6c93 11bc 0452 a4bb 7297 56ba
00000150: 32c8 773c af91 ad3b f470 0dbb fbc4 e83b
00000160: 8dcc e0bb 018b 223c d083 73bb ef01 21bc
00000170: 1809 de3b 9f3f 9dba ce98 86bb 4be0 bbba
00000180: af04 993b 767e 1a3c 90ad ad3b 8736 343b
00000190: 07db e8bb 12ae e6bb 999a 1ab9 0b5f 333c
000001a0: a78a 76bb 0f86 15bc 07b7 8dbb 40c0 60bc
000001b0: a2c2 f7bb 0fb9 e5ba 1299 b3bb 2079 8d3b
000001c0: d056 adbb f14a b23a 1b50 093c 291c 873b
000001d0: 5cba c0bb 295d 4bbc 8183 47bb bb43 a7bc
000001e0: c51d 79bb 8229 28bc 5648 c2bb 9972 4a3c
000001f0: 5624 04bb 3d11 73ba a387 43b8 43cc dab9
00000200: be53 86bb 4d4c 1dbc 0fd0 81bb 81fc a43a
00000210: d10e 21bc edc5 3fba 8d1b 76bb 1ffd 333b
00000220: ca1d 52bc 3f5c bc3b 1b00 cbbb 3af1 943a
00000230: 3a57 c63b 1368 133b afe8 9cbb 3f94 203c
00000240: 2b54 3b3b 9a0e e93b c1ff 133c a766 203c
00000250: 1a5b 9bbb 63da 403b 11ac c03b 63bf 913b
00000260: 774c b8bb c0fa 66bc db60 893c 5801 3abc
00000270: eb28 563c d060 28bb 9050 d83a 5a09 67bc
00000280: 3992 953c 22ad 62bb 5d49 9ebb 7779 32bc
00000290: 573c d6bb c99a 03bb 5b97 3e3c faf7 5ebb
000002a0: f0a7 7cbc cc50 48bc e46d 813c 25a2 0a3c
000002b0: 6483 02bb 0538 2bbb b51c 53bc f1e9 363c
000002c0: 6986 193c 2283 28bc 70c4 843c a63a b1ba
000002d0: add9 a7bb d72e 37bb 972b d0bb f3f3 d0ba
000002e0: 4369 33bc 7724 0ebc 06f6 00bc 4b67 673a
000002f0: 23ea 3dba 5d26 8e3b 4067 6c3c 3f63 3cbc
00000300: 6a60 0b3b 7565 123a 5b67 833c 3661 98bc
00000310: 5597 91ba c539 00bb 70ce 283c ed2b bd3b
00000320: 3dd3 313b ee00 3a3c c346 103b 3395 2dbc
00000330: 9171 a8bb c3e7 e4b9 5686 8a3b 7628 403c
00000340: 05a5 9abb bb53 733c b04e 523b d7b6 c73b
00000350: 7710 5fba 40d2 0a3b 9b6c 8e39 07e8 35bb
00000360: 4a63 67bc b241 6bbb a377 b3bb 1026 173c
00000370: 0f45 bcbb d75b 29bc 0163 893a 6748 88bb
00000380: 91c9 12ba 8a04 2fbc e3eb 4eb9 e7ba eb3a
00000390: a716 0aba ab33 91bb 953d 12bb d0dc 0bbc
000003a0: 57f2 803b c36d c3bb abf3 9739 89b5 a53b
000003b0: 7f92 f5bb 3db0 e3bb 4f0b 0bb9 d010 453b
000003c0: 9011 593c 7a43 343b 5fb2 483b 2893 eb3b
000003d0: af90 c3b9 fd47 b7bc 88c8 c9bb 550c f23b
000003e0: 51ea 8239 7503 bebb eb25 8f3b b8c3 7dbb
000003f0: d792 4dba 7d9e 6db9 e827 863b 6eb7 40bc
-0.0010298941 0.0059571923 -0.0058057434 0.0062744953 0.012953639 0.005384735 0.007599068 -0.0031351948
-0.008749781 -0.007819 -0.0041229255 -0.00044314764 0.002418069 -0.012265517 -0.0039710756 0.013947846
-0.005998267 0.00039837146 -0.0021620118 -0.006487726 -0.0008807992 -0.0013156097 -0.011491987 0.008079858
0.0028512655 -0.0059118397 -0.013923342 0.0108080795 0.0031043924 -0.0024798585 0.005623454 0.0024282846
-0.004014851 -0.0032074538 0.018554747 0.005191006 0.0132824695 -0.0014616399 0.0025126848 -0.008752344
-0.0006999971 0.006161443 -0.017110324 -0.008453059 0.0046144607 -0.009012818 -0.0066072284 -0.0038598129
0.0120545495 0.0016004986 0.005485808 -0.008988873 0.002482285 -0.00037864916 0.00598871 0.00259659
0.009437493 0.008066726 0.00068892946 0.000771851 -0.00406336 -0.017255453 0.0036785565 -0.021666683
-0.018627292 -0.016161075 -0.0036828683 -0.0035473672 -0.013438289 0.008937941 -0.0063446225 -0.0019624364
-0.003952602 0.0062636146 -0.007569407 0.0055127 -0.012169814 -0.005083904 -0.0047813808 -0.010125845
0.000806643 -0.008885246 -0.00501466 -0.0008186019 0.015123414 0.005296908 -0.0021582218 0.00710356
-0.006860322 0.009920836 -0.0037157424 -0.009827121 0.0067759864 -0.001199711 -0.004107571 -0.0014333812
0.004669748 0.009429565 0.0053002313 0.002749832 -0.007106188 -0.0070397938 -0.00014744177 0.010947953
-0.0037619264 -0.0091262 -0.004324797 -0.013717711 -0.007561044 -0.0017526465 -0.005480894 0.0043174177
-0.00528989 0.0013602657 0.008380915 0.00412323 -0.005881591 -0.012412348 -0.0030443373 -0.020418039
-0.0038012129 -0.0102638025 -0.0059290333 0.012356424 -0.002016326 -0.0009272283 -4.6617944e-05 -0.00041732387
-0.0040993383 -0.009600711 -0.00396157 0.0012587459 -0.009830193 -0.0007315565 -0.0037553043 0.0027464104
-0.012824485 0.0057483013 -0.006195081 0.0011363395 0.0060528787 0.0022492453 -0.0047884802 0.00980097
0.0028584104 0.0071123363 0.009033144 0.009790099 -0.0047410848 0.0029427044 0.005879887 0.004447864
-0.0056243497 -0.014097869 0.016769817 -0.011352859 0.013071279 -0.002569247 0.0016503502 -0.014101351
0.018258201 -0.0034588058 -0.004830523 -0.010893217 -0.006537955 -0.0020081273 0.011632766 -0.0034022317
-0.015420899 -0.012226295 0.01579947 0.00846151 -0.001991474 -0.002612592 -0.012885262 0.011164174
0.009370425 -0.010285171 0.01620695 -0.0013521507 -0.0051223845 -0.0027951503 -0.0063528526 -0.0015941843
-0.010950389 -0.008675686 -0.007871157 0.00088273425 -0.0007244667 0.0043380694 0.014428914 -0.0114982715
0.0021267184 0.0005584576 0.016040495 -0.018601041 -0.0011107723 -0.0019565683 0.010303125 0.0057730586
0.0027133964 0.011352761 0.0022014834 -0.010594654 -0.0051404913 -0.00043660225 0.00422744 0.011728397
-0.004719379 0.014851506 0.0032090358 0.0060947943 -0.00085092284 0.0021182448 0.00027165268 -0.0027756707
-0.014122793 -0.0035897312 -0.0054769083 0.009225383 -0.005745537 -0.010336838 0.0010481776 -0.0041590217
-0.0005599494 -0.010682235 -0.00019733566 0.0017984778 -0.00052676577 -0.004431208 -0.0022314538 -0.0085365325
0.003935139 -0.0059640124 0.0002898251 0.005057041 -0.0074942703 -0.0069484995 -0.00013260286 0.0030069835
0.013248816 0.002750604 0.0030623896 0.0071891733 -0.00037301096 -0.022373194 -0.0061579384 0.007386724
0.00024970112 -0.005798752 0.004368534 -0.0038721394 -0.000784201 -0.00022661123 0.0040941127 -0.011762483

action_model._discrete_distribution.branches.1.bias f4 [8]
00000000: 0000 0000 0000 0000 0000 0000 0000 0000
00000010: 0000 0000 0000 0000 0000 0000 0000 0000
0.0 0.0 0.0 0.0 0.0 0.0 0.0 0.0

action_model._discrete_distribution.branches.2.weight f4 [8, 142]
00000000: bbe1 f5ba 7af8 ecbb 78b0 25bc 7db5 bf37
00000010: 2d74 4f3c 8309 353b 64a1 273b 2bc1 b93b
00000020: 7dfd 273b 8994 383c 7719 523c 8380 1c3b
00000030: e227 ddb6 3c13 baba b6fb 3abc 558a 223c
00000040: 221c d839 b10f ccba 86c5 8d3a 63b6 323a
00000050: e71d 23bc c330 2b3c 5704 44bb 8ae2 df3b
00000060: f275 36bb 6a57 7fbc c9f5 10bc 8962 0d3c
00000070: 65e6 473c 5c80 42bb a5a9 5cbc 0723 1dba
00000080: d8ab 70bc 3a2f a7bb c8a7 c63b 43f1 683c
00000090: 0e07 453b 7387 07bb f470 27bb 1f16 81bc
000000a0: bcff 05bc 981c 923b 97e2 813b e4a5 183c
000000b0: 6bd0 093c 564c 393c cd9a 233c 05b0 a13b
000000c0: a355 a1ba 179c 2ebb 814a 423b 1565 513b
000000d0: e70f a23b 16c4 1238 8bad 903c eb9b 92bb
000000e0: d884 deba e7c3 a3ba 94f1 11bc 1b23 0ebb
000000f0: 6dea 2c3b 5f50 90bb 43da 883a 7fe8 113a
00000100: f27b e9bc a7e1 5b3b fb57 8f3b 9a9b bbba
00000110: 3c17 c439 a5f4 e83b 59f8 203b d3c7 fd3a
00000120: cfd7 533c 3223 cabb 0c23 263c 9941 3e3c
00000130: c642 0c3b 5705 10bc 8d2f 70bb e15d 88ba
00000140: 35bc 85ba 5781 f63b e5d6 51bc ee11 1b3b
00000150: ed8d 9d3b 6289 32bb 6fed 793b f6dc c5bb
00000160: 02c7 313c bb4b 073c 5040 ca3b df12 acbb
00000170: 9bfa 09bc b33d bf3b 6a75 853c 6baa 3fbc
00000180: cbc6 1cbc ca42 e4bb c51e e13a 8bd7 963b
00000190: 27c8 2c3c d8c6 7fbb 62ea f339 4aa3 15bb
000001a0: 6f75 763c 3a78 943c 1692 ac3b cdc2 743b
000001b0: af9f 92bb 138a 22bc 6b7c 583c 2099 0a3b
000001c0: 23cb 22bb e392 8b3c dd7d 723c abb3 b43a
000001d0: 4375 e3bb c85c e7bb 4aae 52bb 8948 16bb
000001e0: f76e 293b 2c67 943b 17ed bd3a bbec 8d3b
000001f0: c6c9 ca3a 5f04 df3b 2bc9 a43b 4593 46ba
00000200: 8c85 a03a 6d82 c43b 67b1 203b ef53 d639
00000210: 9dfe 883c 0a14 543c 0b04 44b9 7b5b 113c
00000220: 48e5 053b 60d6 ce3c 0e22 a53b 0288 5ebc
00000230: 5eb0 223b ed24 3bb9 cdc9 d8ba 05ce c2b9
00000240: ef8f 7b3b 00d2 ff3b 3f3f 02bc 2fa3 243c
00000250: 6794 f4bb db3c 32bc 6fa1 61bb 7b17 f03b
00000260: 5e71 91bc d4e5 24bc 6d8c 943b c84e f1bb
00000270: d01f e93b b87d 30bb bb88 e3bb 4ae2 083c
00000280: 3b01 80bc 91fb 82ba 5e63 39bb 9ce0 053c
00000290: d54d 16bb 5276 3c3b 76bb ac3a d52a 4f3c
000002a0: ebae 0abc 98ec abbb e784 2a3c d2e5 2ebb
000002b0: aae9 4cbc e8f0 0dbc 7a29 abba 4369 04bc
000002c0: bab8 54ba 6aef b93b 01ef 203c 1922 003b
000002d0: 9cbb 1a3b 4da2 84bb 7888 723c 3755 7db9
000002e0: dd00 cbba 85b4 c83b 3a55 7f3c 4cb8 36ba
000002f0: 1f75 69bc d193 82bc f3e4 343c 50e9 093c
00000300: dd24 7fbb e665 153c e2c4 ea3b 20f1 f43b
00000310: 0765 e4bb 2570 ac3b dbe5 a4b8 32c7 35bb
00000320: f284 b4bb d074 383c 3426 3e3c 4242 1bbc
00000330: e56b 95bb 6759 dbbb 3ac5 793b 554f 8e3b
00000340: 5658 0bbc 1d50 eabb 80ef 2f3b d871 113b
00000350: 751e 79ba 78a6 34bb b887 b73b 8f18 9dbb
00000360: 02a4 fb3b e396 de3a fb76 393c 9250 a0bc
00000370: e6e2 883b 22a1 32bb 3798 273b bd3e 083c
00000380: f326 a6bc 6d5f f23a 7bf1 f4bb 18a6 a5bb
00000390: ab7d e43b 5de5 1cbb 9ddc 7039 32af 9f38
000003a0: 9d25 af3a 9f0e e23a 2b53 f23a 4449 b13b
000003b0: 6fc6 14bc b5b6 c63a 2bbd 6a3b 05e8 86bb
000003c0: c529 ecbb 3569 023c 634b 0abc d81c ea3b
000003d0: 3f7c 083c 5f87 3b3b 560e 0fbc 1f36 ecbb
000003e0: cf5e 2f3b 5102 883b 57c8 2dbc db16 af3b
000003f0: 6330 bb3c b5dc a6bb 19b5 3dbc 0fe6 b1bb
-0.001875929 -0.007231769 -0.010112874 2.2853486e-05 0.012661976 0.0027624078 0.0025578374 0.0056687794
0.0025633269 0.011265882 0.012823454 0.002388031 -6.590956e-06 -0.0014196406 -0.011412552 0.009920676
0.0004121969 -0.0015568641 0.0010816313 0.0006817339 -0.00995586 0.010448637 -0.0029909813 0.0068324255
-0.0027841297 -0.015584806 -0.008847662 0.00862945 0.012200926 -0.002967856 -0.013468181 -0.0005994294
-0.014689408 -0.0051020654 0.0060624816 0.0142176775 0.003006402 -0.00206801 -0.0025549503 -0.015757618
-0.008178648 0.004458975 0.003963779 0.009316895 0.008411507 0.011309704 0.009985638 0.0049343132
-0.0012308847 -0.002664333 0.0029646459 0.0031951119 0.0049457434 3.499173e-05 0.017660877 -0.0044741533
-0.0016976846 -0.0012494297 -0.008907694 -0.0021688405 0.0026384846 -0.004404112 0.0010441024 0.00055659557
-0.028501485 0.0033551247 0.0043745018 -0.0014313341 0.00037401344 0.007109242 0.002456209 0.001936192
0.012929871 -0.0061687464 0.010140192 0.011612319 0.0021402105 -0.008790336 -0.0036649436 -0.0010403955
-0.0010203185 0.0075227427 -0.0128075825 0.002366181 0.0048081786 -0.002724253 0.0038135906 -0.0060383035
0.01085067 0.008257802 0.0061722174 -0.005251273 -0.008421565 0.0058362125 0.016291339 -0.011698346
-0.00956888 -0.0069659697 0.0017175308 0.0046033314 0.010545767 -0.0039028432 0.000465232 -0.0022832924
0.015042647 0.018123735 0.0052664382 0.0037347556 -0.004474602 -0.009920615 0.013213257 0.0021148399
-0.0024840317 0.017037814 0.014800516 0.0013786455 -0.006941469 -0.007060621 -0.0032147341 -0.0022931418
0.0025853494 0.0045289006 0.0014490214 0.004331199 0.001547151 0.006805941 0.005028864 -0.00075750455
0.0012246831 0.0059969933 0.0024519803 0.00040879796 0.016722972 0.012944231 -0.00018693523 0.008871908
0.0020430852 0.025248706 0.00503946 -0.0135822315 0.0024824361 -0.00017847466 -0.0016539634 -0.0003715606
0.0038385352 0.0078070164 -0.007949649 0.010048672 -0.00746398 -0.010878767 -0.0034428497 0.007327018
-0.017754253 -0.010064561 0.0045333416 -0.007364128 0.007114388 -0.0026930403 -0.00694379 0.008354733
-0.015625587 -0.0009993186 -0.0028287987 0.008171227 -0.0022934575 0.0028757048 0.0013178426 0.012644489
-0.008464555 -0.00524671 0.010407663 -0.0026687277 -0.012506882 -0.008663394 -0.0013058626 -0.008081737
-0.00081146846 0.0056742923 0.009822608 0.0019551574 0.002361036 -0.004047668 0.0148030445 -0.00024159705
-0.0015487928 0.006125035 0.015584284 -0.00069702114 -0.014249115 -0.015939625 0.011040914 0.008417442
-0.0038931884 0.009118533 0.0071645835 0.0074750334 -0.006970051 0.005262392 -7.862943e-05 -0.0027737138
-0.0055090124 0.011258319 0.011605788 -0.009476246 -0.004559981 -0.006694007 0.003811194 0.004342953
-0.008504948 -0.0071506635 0.0026845634 0.00221931 -0.00095031346 -0.0027565043 0.0056008957 -0.0047941874
0.0076794634 0.0016982224 0.011319871 -0.019569669 0.004177439 -0.0027256687 0.0025572905 0.008315739
-0.020282244 0.0018491574 -0.007475076 -0.0050552003 0.0069729886 -0.0023940422 0.00022970368 7.6143435e-05
0.001336265 0.0017246789 0.0018487921 0.0054103453 -0.009080513 0.0015160652 0.003581832 -0.0041170144
-0.0072071278 0.007959654 -0.008440825 0.0071445517 0.008330404 0.0028614623 -0.008731445 -0.0072086
0.0026759391 0.0041506668 -0.010606847 0.0053433008 0.022850221 -0.0050922283 -0.011578822 -0.0054290364

action_model._discrete_distribution.branches.2.bias f4 [8]
00000000: 0000 0000 0000 0000 0000 0000 0000 0000
00000010: 0000 0000 0000 0000 0000 0000 0000 0000
0.0 0.0 0.0 0.0 0.0 0.0 0.0 0.0

action_model._discrete_distribution.branches.3.weight f4 [8, 142]
00000000: 9825 4dbb eaf9 143c 6317 c93b f620 9cbc
00000010: 29d6 b5ba 7326 063c 8a93 883b 0e9c 1abc
00000020: eef1 803b 1c7a 4bbb ca25 463b 7991 a23b
00000030: 9721 74bb f8fd 6cbc 4a44 333c e756 a2bb
00000040: 3cd0 2f3c c3a6 7d37 4540 e3ba a142 b6bc
00000050: 4f75 963c 103a 2bbc d7df a1bc 52f1 dd3b
00000060: 4e81 163b ab30 49bc 388e f4bb 4958 44bb
00000070: e39a 0f3c 0f29 4a3c 35fb eb3b 7296 f0bb
00000080: 5d5d e3b9 c581 983b 3f32 5e3b a28f 79bb
00000090: 505a 7a3b 878a ae3b 8efe 08ba 5787 413a
000000a0: e2af 813c b749 3eba e4b3 2b3a 1396 b0bb
000000b0: a81b 41bc 896f a53b f01e 693c ed02 54bb
000000c0: 6845 90bb 880a c83b 586d 553c 44e1 3c3b
000000d0: 3fed cd3a 3f3b 003b 67d1 b73b fe90 023c
000000e0: 1a16 bfbb c661 14bb 430c 4a3c 97c2 ddba
000000f0: 7fcd 8abc 3b18 0bbc 5af8 6dbb 2e3a 1a3c
00000100: b7b4 ca3b d23e 25bb 1237 ddbb 9321 4ebb
00000110: 8b10 d63b ee81 05bc 10ac a9b9 525d 86bb
00000120: fd35 34bc 5075 5cbc 33da 4fbb 1c7b 8d3b
00000130: 6906 46ba 258b 743b 5bea 35bc b64d abba
00000140: b56a 4ebb d847 573c 3a54 4f3c 1f7a 8db9
00000150: c7e3 f73b 93fe a03a 3d1b 10bb f297 6bbb
00000160: c5f4 65bb a5d4 d5ba b785 273c 1f43 0abc
00000170: 0f4f 98ba 9ecb 0e3c fdd7 0ebb 48e8 493c
00000180: 749a be3b c381 1bbc b5ff 3e3b 33c4 963c
00000190: 77e4 74ba 387f 93bc e786 b7bb b54b 8d3b
000001a0: cf26 97bb 2fc5 643a a012 62bb 5f11 1a3c
000001b0: b753 eabb e47d 083b 39d8 233c 266d 9e3b
000001c0: 0bcb ccbb 2a3f e03b b085 ddbb 3f6f 4ebb
000001d0: 7355 643c 967f b1bb 9df7 4c3c 46f5 173b
000001e0: 3f21 22ba 3bde 4f3c 3e76 07ba 0208 41bc
000001f0: 2967 0ebb 623c e73b eb13 053b 40e4 de3b
00000200: babf 2aba a840 173c 6a4c 7cbb 0627 b8ba
00000210: 6b2c 1ebb 4558 1abc 6756 1bbb 43aa 1cbc
00000220: 6727 e03b dfbb 52ba 7104 19bc 2fc3 0c3c
00000230: fb74 60bc f8ec 173b 26a3 83bb db7a 703c
00000240: bbe1 253c be0e 8e3c db76 ad3c 6340 433c
00000250: 0d5a e63a 37ba 143b 1f40 c03b 2617 0b3b
00000260: 363f 19bb 1b3d b7ba cbab 75bc e440 0fbc
00000270: 133c a1bb 96d2 433c 057e 8bbb cfad eabb
00000280: 9dbd 95bb 6b97 f13b 046d 90bb c815 0f3c
00000290: e75f 04bc 4527 d03b f9fe 8c3b a5d4 e1bb
000002a0: 1e0b 88ba 4bec 073b 238a 9a3b ba3b 29bc
000002b0: 062d c6ba df45 fb39 e57b f0bb 0299 74bb
000002c0: 1316 f23c 90e1 283c 29e6 283c cd6d 17bc
000002d0: 39a5 963a 4db2 723b ad40 9b3b 325e 4fba
000002e0: efc2 02bc 1134 beba a56c f43b bb92 90ba
000002f0: 0715 8d3a 1153 1b3b eda3 fdba cac2 fe3a
00000300: e283 64bc 6741 2cbb 679b 343b 0bfb f5bb
00000310: 8716 553b fa95 d4bb 95db f7ba 678f 873a
00000320: 973f 183c e81c 9b3b 2e38 9ebb eeea 2c3c
00000330: c069 c33a 7bf5 86b9 5b40 a1bc c49f 073c
00000340: 99ab a83b 0773 be3a 789c fdba da2a 66bc
00000350: 4eb2 133a 9d5f 6ebc 1b0d 01bc 0015 afba
00000360: c507 d3ba b8f6 e23b 2806 ddbb 6fcd fcb9
00000370: 7b1f 153b dfca 90ba a70f 25bc d22c ecba
00000380: 4a53 6d3b 3345 ccbb 5245 3fbc 55dd 9bbb
00000390: 6478 043c 8030 81bb 1279 813c a83f 23bc
000003a0: 4769 da3b 93c6 09bc 9f86 3e3b 2c20 1dbc
000003b0: 86f7 343c f332 ac39 ec63 1a3c 18ed 6cbc
000003c0: 87d9 a43c 27a2 19bc ad00 2dbc 47cd a63b
000003d0: 1392 003b 443c 0dbb 3759 1a3c edd8 173c
000003e0: 1247 55bc d50d 573c 3fb3 4bbc 5a4a 603c
000003f0: 038b 613c 85fa 4b3b 751b 1dbc e34b e33b
-0.0031302925 0.009092787 0.006136821 -0.019058686 -0.0013873029 0.008187878 0.0041679787 -0.00943662
0.0039350903 -0.0031048125 0.0030234926 0.0049611893 -0.0037251466 -0.014464848 0.010941574 -0.004954207
0.010730799 1.5118802e-05 -0.0017337879 -0.022248568 0.018366484 -0.010450855 -0.019760055 0.0067731524
0.0022965255 -0.01227967 -0.007463243 -0.0029959849 0.008764955 0.012338891 0.007201577 -0.007342153
-0.00043366375 0.0046541416 0.003390446 -0.0038079997 0.0038200803 0.0053265723 -0.000522592 0.0007382533
0.015830938 -0.0007258909 0.0006549938 -0.005388984 -0.011786379 0.0050486964 0.0142285675 -0.0032350377
-0.004402805 0.006104771 0.013026558 0.0028820792 0.0015710964 0.0019566563 0.0056096795 0.007969139
-0.005831492 -0.0022641285 0.012332025 -0.0016918954 -0.016943691 -0.008489664 -0.003631136 0.009413285
0.0061860937 -0.0025214446 -0.0067509497 -0.0031453117 0.006532734 -0.008148653 -0.00032362388 -0.00410048
-0.0109992 -0.013455704 -0.003171575 0.0043176543 -0.0007554056 0.0037314382 -0.011103238 -0.0013069424
-0.0031496708 0.0131396875 0.0126543585 -0.00026984603 0.007564995 0.00122829 -0.0021988892 -0.003594872
-0.003508852 -0.0016313983 0.010224751 -0.0084388545 -0.0011620241 0.008715538 -0.002179622 0.012323447
0.005816752 -0.009491387 0.0029144112 0.018404102 -0.0009341905 -0.018004999 -0.0056007984 0.0043120035
-0.0046127806 0.00087268924 -0.0034495965 0.009403556 -0.007151093 0.002082699 0.010000282 0.004834789
-0.0062497905 0.0068434672 -0.0067603216 -0.0031499413 0.013936388 -0.0054168208 0.0125102075 0.0023186966
-0.00061847636 0.012687261 -0.0005167461 -0.011781694 -0.0021728969 0.0070567587 0.0020306061 0.006802112
-0.0006513555 0.009231724 -0.0038497695 -0.0014049716 -0.0024135362 -0.009420459 -0.0023702623 -0.009562078
0.0068406346 -0.0008038859 -0.009339438 0.008591457 -0.013699765 0.0023182016 -0.0040172515 0.0146777285
0.010124619 0.017341014 0.021174839 0.011917206 0.0017574445 0.0022694 0.005867019 0.0021223514
-0.0023383624 -0.0013980003 -0.014994572 -0.0087434985 -0.0049204915 0.011952063 -0.004256966 -0.007161833
-0.004569723 0.0073727868 -0.004407527 0.00873322 -0.0080795055 0.0063523375 0.004302856 -0.0068918043
-0.001037929 0.0020740207 0.004716174 -0.010329181 -0.0015119619 0.0004792651 -0.007338988 -0.0037322645
0.029551541 0.010307685 0.010308781 -0.009242487 0.0011493332 0.0037032545 0.0047379346 -0.00079104595
-0.007981046 -0.0014511367 0.0074592405 -0.0011030057 0.0010763713 0.0023700634 -0.0019351222 0.0019436714
-0.013947459 -0.00262841 0.0027558447 -0.0075067333 0.0032514648 -0.006487605 -0.0018910045 0.001034242
0.009292505 0.0047336705 -0.0048284745 0.0105540585 0.0014908835 -0.0002574137 -0.019684007 0.008277837
0.005147409 0.001453013 -0.0019349 -0.014048303 0.00056341744 -0.014549163 -0.00787666 -0.0013357699
-0.0016100338 0.006926384 -0.0067451186 -0.00048218246 0.002275436 -0.0011046788 -0.010074533 -0.0018018729
0.0036212974 -0.006233835 -0.011674242 -0.0047566094 0.008085344 -0.003942549 0.015804801 -0.009963907
0.006665382 -0.00840916 0.002907194 -0.00959019 0.011045342 0.00032844357 0.009423237 -0.014460824
0.020123256 -0.009377039 -0.010559243 0.005090389 0.0019618317 -0.0021550814 0.009420685 0.009268028
-0.013017433 0.013125856 -0.012432872 0.013689602 0.013766053 0.0031124663 -0.009589066 0.0069365366

action_model._discrete_distribution.branches.3.bias f4 [8]
00000000: 0000 0000 0000 0000 0000 0000 0000 0000
00000010: 0000 0000 0000 0000 0000 0000 0000 0000
0.0 0.0 0.0 0.0 0.0 0.0 0.0 0.0
