results/JustWhite2-with-imitation-learning/WhiteMLAgent/WhiteMLAgent-12960.pt (torch, 781432 bytes, 66 tensors)

discrete_act_size_vector f4 [1, 5]
00000000: 0000 0041 0000 0041 0000 0041 0000 0041
00000010: 0000 a040
8.0 8.0 8.0 8.0 5.0

network_body._body_endoder.seq_layers.0.weight f4 [128, 64]
00000000: 027d debc b6e4 b63d 8d5c b23d 7d29 85bd
00000010: 0d72 633d 3115 f63d faa0 a3bd 577f d1bc
00000020: f4d1 4e3d 622e fb3d 211a b7be 1ab6 bbbd
00000030: 8806 c8bd bbf8 cfbd ed18 863e ebbf 283d
00000040: 4cd6 0d3e 45f6 c5bd 1540 3bbe bb67 56be
00000050: 11cf a13e 9bba 383e b862 5d3e 2df7 983d
00000060: 2dfa fdbd dcad 393e e165 c9bd 9acf 14be
00000070: c38b dbbd a1d2 603d 26c4 d23d 574a 21bd
00000080: bb0a 533e eb6a 4b3e 61a3 a1bd 8620 2dbe
00000090: bee1 0bbd 9d80 ba3c 8af3 88bd d414 03be
000000a0: 02ba ecb9 917a c83c 6fe4 3abe 4a87 5b3e
000000b0: 6cac a03d d8be 65be 6709 d7bd 899c f63d
000000c0: 7c11 263e ea7c 31be 1271 b1ba be15 2cbe
000000d0: ae7d 7ebe a06e 963d bd6f 14bd 075c b6bd
000000e0: a75d d0bc 6811 5abe cfb9 98be 36b0 2b3b
000000f0: 6496 f5bd e534 c2bd 8e6b 803b 3793 85bd
00000100: ef65 bdbd c496 4d3e 7dc8 b93e 7525 27bb
00000110: 7828 013e 543b d23c b845 943e dbf9 d3bd
00000120: 7075 803e 725b c23d 1bdc 1a3e 9ce8 06be
00000130: c7e4 a5bc 2078 b9be b6f1 00be 888a 26be
00000140: 077c b4be 556a 7fbe 1f79 99bd 638e e1bd
00000150: a69c 64be 0cbd 02be 8934 83be 57c7 dabd
00000160: 8029 51bd 6cd0 3c3e 8a5b 61bd 72e6 1cbe
00000170: 6145 bc3b 2777 ef3b 751d afbd 7710 413e
00000180: da9a 0e3e bb8b 413e f592 b43d 4acc bebd
00000190: 11bd 713d 8403 d5bd 2126 4dbe 84dc 543e
000001a0: 73d2 4bbd b6f3 1a3d 382c e7be f84c b53e
000001b0: 32c3 1a3e bee8 1cbe d89c 883d 4f1a 93bd
000001c0: 8b27 743e b767 f7bc 4bb5 033e 0567 1cbe
000001d0: 14e8 c4bc 8c6d 0a3e 66f0 ba3e 4b2a 4ebd
000001e0: 5e57 72bd d0c6 8fbc 8209 0d3e df8e 10be
000001f0: 9c28 91bd b76b 463e cb1a f3be 81e8 42be
00000200: e17b 8d3d ee7b c5be e403 663d 4056 2e3d
00000210: f17e b7bd 18ae 5ebd 2a85 99be 5954 a0bc
00000220: cdd8 213e d753 05be 2caa a83e 7e5f 59bd
00000230: 0a4a 693e 7a9d b0bd 093a 74be 53a1 713e
00000240: 40e1 b63d 328d d0bc da22 dfbb 839f 2dbe
00000250: 91bf ecbd 5f77 f9bd 187e aebd d960 613e
00000260: 0516 da3e 7c15 5ebc 92c6 33bd c0af 433e
00000270: 1686 c3bc d436 6ebd 039a 723c 0356 3fbe
00000280: 5c44 d33d 2942 e5bd 72ab 34bd 4d7f b5bb
00000290: 9c12 bcbe 5439 70bc a4a9 71bd 45ea 193e
000002a0: 6ab7 55bd a189 0dbe 4bbf 87be 0f9f b5bd
000002b0: 6f08 d13b ec92 63bd e777 61be b303 82be
000002c0: db29 23bc 8133 3fbe 050c 43be ceca a93d
000002d0: cbd6 933e 7d87 06be b757 9b3d e566 313e
000002e0: 0cfa 903d 4905 04bd 3b33 82bd 833d 373e
000002f0: 354b 4f3d 0a43 5abe 9e0a 59be 34e6 03bd
00000300: 88fa df3d 480d 053c 3189 05be db0f 9c3e
00000310: 26ee f3bd d02f d83d 837c 133e 46d5 323c
00000320: 9811 d7bd acb3 cebd aecc 71be b6d2 153d
00000330: 3f2d 4abe d1ac 19be 0897 213e 680b 95bd
00000340: a27f 203e 121d 653e 01a5 7b3e a374 a13e
00000350: 2fda 59be 5278 423e 0b23 9b3d 9f2d 2fbd
00000360: 274b 88bd 140c 923c 3815 2e3e e086 8dbd
00000370: 423e ea3d 1814 cf3e d4ce 15be 8381 a7bd
00000380: 4f14 76be 28f8 bc3c 0c3d 6bbe 55ff c93d
00000390: de4e 35be aa10 01be 1913 113c 9a70 f03d
000003a0: 9ca1 0ebe 9755 cf3d b21c 19be 917d b6bc
000003b0: 2cc2 57be e2e6 ecbc 7eb3 033d 0276 cd3d
000003c0: ea4f 5abe 40e1 7abe 983f c33e 455f b1bd
000003d0: 980d 07be c40f 3dbe 80a5 26be 9067 0f3e
000003e0: 004f 163d 703a 21be e119 e33d 0abd 193d
000003f0: d2f3 433e aae0 e1bc 0ab7 5f3e 03e3 813e
-0.027159218 0.08930342 0.08709059 -0.06502054 0.05552869 0.12015761 -0.07989688 -0.025573416
0.050493196 0.12264706 -0.35762122 -0.091655925 -0.09766871 -0.101548634 0.26190892 0.041198652
0.13851279 -0.09666113 -0.18286164 -0.20938008 0.31603292 0.18039934 0.2161969 0.0746902
-0.12401233 0.18132728 -0.09833885 -0.14532319 -0.10720017 0.05488837 0.102913186 -0.039377537
0.20609562 0.19865005 -0.0789249 -0.16906938 -0.03415083 0.022766406 -0.066870764 -0.12800914
-0.00045152014 0.024472507 -0.18251203 0.21438327 0.07845387 -0.22436082 -0.1049984 0.120415755
0.16217607 -0.17332807 -0.0013537726 -0.16805169 -0.2485263 0.07345319 -0.036239374 -0.089042716
-0.025435282 -0.21295702 -0.2982926 0.002619756 -0.11991575 -0.09482745 0.0039190715 -0.0652222
-0.09247958 0.20077044 0.36285773 -0.0025504504 0.12613094 0.025663055 0.2895944 -0.103503905
0.25089598 0.09490098 0.15123026 -0.13174671 -0.020250691 -0.3622446 -0.12592205 -0.16263783
-0.35250875 -0.24942906 -0.07493805 -0.11013486 -0.22325382 -0.12767428 -0.2562602 -0.10682552
-0.051064968 0.18438882 -0.05501894 -0.15322283 0.0057455753 0.0073079052 -0.0855054 0.18853937
0.13926259 0.18900959 0.08817092 -0.09316309 0.0590182 -0.10401061 -0.20034076 0.20787245
-0.049761247 0.037830077 -0.45150924 0.35410285 0.15113524 -0.15323159 0.066705406 -0.07182752
0.2384321 -0.030200822 0.12862127 -0.15273674 -0.024036445 0.13518351 0.36511534 -0.050333302
-0.05916535 -0.017550856 0.13773158 -0.14117001 -0.07087824 0.19377027 -0.4748138 -0.19034006
0.06908394 -0.38571113 0.056156054 0.042562723 -0.08959759 -0.054365247 -0.2998441 -0.01957147
0.15805359 -0.13020264 0.3294233 -0.053069584 0.2278215 -0.08623786 -0.23850264 0.23596697
0.08929682 -0.025457952 -0.0068095746 -0.1695538 -0.11559976 -0.12180971 -0.08520144 0.220096
0.42594925 -0.013554927 -0.043890543 0.19110012 -0.023867648 -0.058157757 0.014807227 -0.18685155
0.10315773 -0.1119426 -0.044108815 -0.005538857 -0.36732948 -0.014662106 -0.058999673 0.15030773
-0.05217687 -0.13822033 -0.26513132 -0.08868229 0.006379179 -0.055560037 -0.22018395 -0.25393447
-0.00995871 -0.18671991 -0.19047554 0.08290635 0.28874812 -0.13137622 0.0758509 0.17324407
0.07078943 -0.032231603 -0.06357428 0.17894559 0.050608832 -0.21314636 -0.21195456 -0.03220196
0.10936457 0.008120842 -0.13040616 0.30480847 -0.119106576 0.105559945 0.14402966 0.010915106
-0.105014026 -0.100928634 -0.23613235 0.036577903 -0.19743823 -0.1500733 0.1578027 -0.07277566
0.15673688 0.2237437 0.24574663 0.315343 -0.21274637 0.18991211 0.07575043 -0.042768117
-0.06654959 0.017828025 0.17000282 -0.06910491 0.11437656 0.40445018 -0.1462968 -0.08178999
-0.24031185 0.023067549 -0.22972506 0.09863154 -0.17705867 -0.12604013 0.008854651 0.11740227
-0.13928837 0.10123747 -0.14952353 -0.022276672 -0.21070164 -0.028918687 0.0321536 0.10032274
-0.21319547 -0.24499989 0.38134456 -0.08660749 -0.1318878 -0.18463045 -0.1627407 0.1400435
0.036696434 -0.15744948 0.110889204 0.037533797 0.19135979 -0.027572948 0.21847168 0.2536851

network_body._body_endoder.seq_layers.0.bias f4 [128]
00000000: e0c3 fb3d 8be8 023e f47f 033e 9dcc fc3d
00000010: 8559 4d3e ae20 0a3e f1b1 183e 9b3e 013e
00000020: 1369 9f3b 203a 183e 91df 363e 03d1 0a3e
00000030: 5ba0 6b3e 4c48 3c3e 1978 943d 75b0 c33d
00000040: eb91 083e 5bc2 c63d c164 f63d b248 133e
00000050: 436c 053e a859 113e 8f15 203e f12f ac3d
00000060: 865d a63d 569d 673e f366 d43d 4a0d ee3d
00000070: d18a f03d ee81 c23d 2932 003e 2990 073e
00000080: fd95 093e 6cb2 073e 01a3 813b e92e f33d
00000090: 08b7 9b3d 9e3e 0a3e f9db 853e 78db 0b3e
000000a0: 711f 4f3e c652 bc3d 1229 3a3e e721 a73d
000000b0: 3b3d 1e3e b411 243e fa3d cfbc 9ebc 083e
000000c0: 6c93 0c3e fd73 fe3d 246e 1d3e 1078 ce3d
000000d0: 29a7 de3d a108 0f3e 5b31 143e f705 0a3e
000000e0: e41c e73d 091e e43d 5c93 0d3e c1cc fb3d
000000f0: 39ad 573e 690e 093e 40f6 0e3e f031 973d
00000100: 8a52 383e 15a0 203e a739 d43d a1dd 053e
00000110: d0eb 423e 311e bd3d a808 a53d 3877 293e
00000120: 2efc ab3d f699 3e3e 9451 ec3d 3471 4d3e
00000130: 2a85 603d 9625 413e 83e8 263e e66e 0a3e
00000140: c4f6 763d fdfc 513e e450 393e 6f9e f83d
00000150: 0bda a53d cb30 fe3d 5db6 c13d a816 ad3d
00000160: 470c fb3d 8eae 413e 357d 503d de9e 143e
00000170: 9337 543d 4270 063e 3c60 3b3e 17fa 303e
00000180: 074a bb3d 9e06 b13d ebaa ea3d ee61 233e
00000190: 0344 043e e769 a13d dfc4 903d 23fe c73d
000001a0: 0c27 103e 2861 933d c00a bf3d 251c e93d
000001b0: 1c69 c93d 1180 1e3e 06df 223e 49a8 e03d
000001c0: 29c1 c03d 34af 173e e3b0 7b3e 9d8c 873d
000001d0: ce70 1b3e 7fb6 293e 6b23 7b3d 7255 093e
000001e0: 2a63 193e 6700 d93d 6790 003e 2a4e 033e
000001f0: b231 153e 612f 153e 68c6 183e 1b06 173e
0.122932196 0.1278402 0.12841779 0.123437144 0.2005368 0.13489029 0.1491163 0.12621538
0.0048648207 0.14865923 0.17858721 0.13556294 0.2301039 0.18386954 0.07249469 0.09555141
0.13336913 0.09705039 0.12030936 0.143832 0.1302958 0.14194357 0.15633224 0.084075816
0.08123307 0.22618613 0.103711985 0.116236284 0.11745227 0.09497438 0.12519135 0.13238586
0.13436122 0.13251656 0.003956199 0.11874182 0.0760327 0.13500449 0.26144388 0.1365794
0.20226838 0.09195475 0.1817973 0.08160763 0.15453045 0.16022378 -0.025298107 0.13353202
0.13728112 0.12424467 0.15374047 0.10081494 0.10871727 0.13968135 0.14471953 0.13478838
0.11284807 0.11138541 0.13825744 0.12294913 0.21062173 0.13384403 0.13961124 0.07382572
0.18000236 0.15686066 0.10362559 0.13072826 0.19035268 0.09234274 0.08058292 0.16549385
0.08397709 0.18613419 0.11538997 0.20062715 0.054814495 0.18861994 0.16299634 0.13518867
0.060293928 0.20506664 0.18097264 0.12139594 0.08098229 0.1241165 0.09458611 0.08451587
0.12258201 0.18914244 0.050900657 0.14513728 0.051810812 0.1312876 0.18298429 0.17282902
0.09144979 0.0864384 0.11458381 0.15955326 0.1291657 0.078815274 0.070688 0.097652696
0.14077395 0.071962655 0.09328222 0.11382321 0.09834501 0.15478541 0.15905389 0.10969598
0.094118424 0.14812928 0.24579196 0.06618617 0.1517975 0.16573523 0.061313074 0.13411501
0.14979234 0.1059578 0.12555085 0.12822786 0.14569739 0.14568855 0.14919436 0.14748423

network_body._body_endoder.seq_layers.2.weight f4 [128, 128]
00000000: 3e4b ad3d 4a5e b43d 19ed 4a3d b0b8 723d
00000010: 97df cf3c a75b 07bd 9fad e63c 664b 4cbe
00000020: 723f a93d d98d edbd 9eb0 a03d fc89 40be
00000030: ff7e 753d 93d6 673e 8502 35bd 5710 b3bc
00000040: dd2d 10be 940b c23d f652 59bd 69d2 783e
00000050: ce58 7a3e 8f3d 09be 0827 5c3b ffd5 60bd
00000060: d828 debd 5bf3 b7bd 6275 893e 165a 6ebd
00000070: ad62 db3d 7463 22be def2 653d c22b 60bc
00000080: 6d55 c2bd 0894 ba3b edcc 65be 3902 503c
00000090: 9151 c63d c85d 78be 2757 cc3c 5c25 8bbd
000000a0: 6074 393e 0fcb a23c 197c 0b3e b424 debc
000000b0: b9ab 2e3e 5faa fe3d 85ab b53d 9131 7b3e
000000c0: 3171 c1bc 23d5 333c 0714 6ebe 5817 cabd
000000d0: 082c 8f3e f67d 8f3e dee4 c33d 2aa4 e4bd
000000e0: b775 dbbd 0a6a 88bd 57b8 aa3d dff1 923d
000000f0: 6f9e ef3d 801c 6cbe f137 24be de37 9ebd
00000100: 0c55 123e b760 1a3e 4e53 d43e 4c4f 193d
00000110: a5ef 973d 306d 573e 0a17 d6bd ab64 483d
00000120: a6ba 6d3e 49ef 123e c688 2a3d c56b 5ebc
00000130: d15a 96bd 6164 263e 8c20 b83d d210 da3d
00000140: 020e 90b8 9852 2e3e cd2f 093d 3fe4 4abd
00000150: 1d59 d33a 9921 2d3e 49fe 40be 07b8 21bd
00000160: e465 a73b fd38 203e e5a4 aabe c451 99bd
00000170: 9b6d 83be b662 11be 6665 27be d512 76bd
00000180: 395e 83bb 186d 8abd 9235 6b3e 86c4 0abe
00000190: 0dd1 2c3e cd3d b6bc 1375 b7bd fed0 9bbb
000001a0: c786 073e c0bb 0cbe 3bab 413d 2da0 553c
000001b0: 2882 33bc 40a0 aaba a2a9 703d cf36 403e
000001c0: 1e1b fa3d 0922 773d 5b29 0d3e 6992 353d
000001d0: 03d5 10bd 89aa 96bd db75 49be d126 96bd
000001e0: 394e 4c3e 3701 873d 8840 15bd 413f 1d3e
000001f0: a367 ce3e 296e a43c b032 453e d2ed e03d
00000200: d0ee eebc be2f cc3d 5a1c b53d c9d0 883e
00000210: 1efe 79bc 3722 88bb 12d0 8a3d e2f9 97bd
00000220: fb73 f3bd d004 923d 3601 a33c 43f0 a03e
00000230: d236 5c3e f97d 0a3e ef76 09be 347d d13d
00000240: f972 883e 7431 b53c 739a a6bc 46f3 5b3e
00000250: fed8 ad3d 195b 2b3e c740 00be 777f eebc
00000260: 1e9f 4c3d cb84 973e b0a0 a93a 0d21 7abd
00000270: 9dbd 19bc e54a 1d3c dbb4 bfbc 6fcf a13b
00000280: 0d47 97bc 3d66 073d 2c85 e2bc 035f cd3c
00000290: f686 743d 1848 30bd 5b1e f93c 4263 803d
000002a0: 3fe8 9d3c 5d54 e7bc 2910 223e 0d66 08bd
000002b0: 301d ffbc 185f 2fbe be79 0a3d f69e 1c3e
000002c0: 075e b73e 731f efbc c19f 1d3e b903 52bd
000002d0: 09ff d23d e083 cd3d d4bb 95bd 81cb a93e
000002e0: 59a7 fe3d f243 d93d 676d 4cbd 4e50 17be
000002f0: bd9f 29bd 10ae 273d 294e 373e 4778 5d3c
00000300: 5c99 73bd 9262 f13d 59ea 9c3d 5817 a3bd
00000310: bbe4 103e 02c9 97bd 4d8a d83d 2392 403e
00000320: 2715 febd fdfa 633e 4c4b d73c 0327 a83d
00000330: 6a28 e3bd 7dea 0a3d a09a 8ebd 6e6f 9f3d
00000340: 7327 523c 97ac 363d 7238 c3bd 3887 a13d
00000350: 227d b13d f008 c1bd 8ebe 903d 7bda 68bd
00000360: a2ef 73bc 9740 a53b 7991 35be 7711 0a3d
00000370: 5fee ca3c a57f 80bd 9005 d53d 116a 5a3e
00000380: 65e6 babb ed90 ad3c 6ce6 263e 03fd 0cbd
00000390: 7ba6 2b3d 2110 d03d a013 773d 3ca4 1c3d
000003a0: 3d33 843d d3fd b2bd e0b6 003e 7783 56bd
000003b0: a575 01bb c750 143e 9530 34be eae4 64bc
000003c0: 22b8 05be 7272 dd3c 6163 a83e a149 af3d
000003d0: e122 0cbd f697 10be 75d6 9fbd 3a73 303e
000003e0: 0a5c 083e d19a d3bd f925 46be 7621 08be
000003f0: a24b e43c 29de dc3d f32a 193e 0e40 ff3d
0.08461617 0.08807047 0.04954252 0.059258163 0.02537517 -0.03304639 0.02815896 -0.19950637
0.08264054 -0.11599321 0.07846187 -0.18802637 0.059935566 0.22640447 -0.044191856 -0.021858377
-0.14079995 0.094748646 -0.053057633 0.24299015 0.24447939 -0.13402389 0.00335926 -0.054891583
-0.10847634 -0.08981963 0.26847368 -0.05819138 0.1071218 -0.15858251 0.05613982 -0.013682308
-0.0948895 0.005693916 -0.22441454 0.012695842 0.09683526 -0.24254525 0.024943901 -0.06794235
0.181108 0.019872217 0.13621558 -0.02711711 0.17057694 0.124348395 0.088706054 0.24530627
-0.023613544 0.010976109 -0.23249827 -0.09867734 0.2796328 0.28025788 0.09565137 -0.11164124
-0.10715812 -0.0666085 0.08335941 0.071750395 0.11700141 -0.23057747 -0.16036965 -0.077254996
0.14290255 0.15075956 0.41469806 0.03742914 0.074187554 0.21037745 -0.10453613 0.04892413
0.23215732 0.14349093 0.041634344 -0.013575499 -0.073415406 0.16249229 0.08990583 0.106477395
-6.869064e-05 0.17023695 0.033492852 -0.04953408 0.001612458 0.16907348 -0.18847002 -0.039482143
0.005108582 0.1564674 -0.3332893 -0.07486299 -0.2566956 -0.14197811 -0.16347274 -0.060076553
-0.004009035 -0.06759089 0.22969654 -0.1355153 0.16876622 -0.022246266 -0.08957877 -0.0047551384
0.13235007 -0.13743496 0.04728244 0.013038677 -0.010956325 -0.0013017729 0.058755524 0.18770908
0.122122034 0.060335193 0.13785307 0.04432908 -0.035359394 -0.07356746 -0.19673865 -0.073316224
0.19951715 0.065920286 -0.036438495 0.1535616 0.40313444 0.02007206 0.19257617 0.109828606
-0.029166609 0.099700436 0.08843298 0.2672179 -0.01525834 -0.0041544694 0.067779675 -0.07420708
-0.11887356 0.07129824 0.019898038 0.31433305 0.21505287 0.13524617 -0.13424276 0.10228959
0.26650217 0.022118308 -0.020337319 0.2147952 0.084886536 0.1673397 -0.1252471 -0.029113514
0.049956433 0.295935 0.0012941565 -0.061066676 -0.009383586 0.009600376 -0.023401668 0.004938058
-0.018466497 0.033056486 -0.027651392 0.02506972 0.05969902 -0.043037504 0.030409982 0.06268932
0.019275783 -0.02823847 0.15826477 -0.03330045 -0.031141847 -0.17126119 0.03380751 0.15295014
0.35813925 -0.0291898 0.15392973 -0.05127308 0.1030255 0.10034919 -0.07311216 0.33163074
0.12434263 0.10608663 -0.04990902 -0.14776728 -0.041412104 0.040937483 0.1790091 0.013517446
-0.059472427 0.11786379 0.07661886 -0.07963437 0.14149754 -0.07411386 0.10573254 0.18805747
-0.12406378 0.22263713 0.026281022 0.08210566 -0.11091693 0.03391503 -0.06963086 0.077849254
0.012826788 0.04459819 -0.095322505 0.07887119 0.08666445 -0.09425533 0.070675954 -0.056848984
-0.014888676 0.0050431 -0.17731275 0.033708062 0.024771867 -0.06274346 0.104014516 0.21329524
-0.0057037347 0.02118727 0.16298836 -0.03442098 0.041906815 0.10159326 0.06032145 0.038242564
0.064550854 -0.087398194 0.12569761 -0.05237147 -0.001975396 0.14483939 -0.17596658 -0.013970593
-0.13058522 0.02703211 0.3288832 0.085589655 -0.03421295 -0.14120468 -0.07804576 0.17231455
0.1331636 -0.10332263 -0.19350423 -0.13294014 0.027868096 0.10784561 0.1495779 0.12463389

network_body._body_endoder.seq_layers.2.bias f4 [128]
00000000: c1f7 9b3d 4a04 623d 9e7c b73d f86d e03c
00000010: aa38 da3d 7995 393d cc37 b13d 3b61 8f3c
00000020: 5027 cf3d 5ebd 363d dd26 af3d bd5a 543d
00000030: 4f27 073d 3c19 a63d cfd3 173d 8b5b 663d
00000040: 530f 143d 5b77 0a3e 01f1 d43c 36d3 253d
00000050: 16e4 0d3d 64ce 1a3d 79c6 c43d 10fa fb3c
00000060: e2e9 983d 0e49 743d 6e0e d33d f7a1 8d3d
00000070: dadc 4d3d 3bf7 a33d 5a37 903d 65ef 1a3d
00000080: b708 ab3d 153f 743d 2819 973d 17c6 783d
00000090: ee15 333c 89c3 d53d 305b 843d c683 363d
000000a0: 7853 823d 0ab6 143d 3f92 9d3d d9d8 9d3d
000000b0: 4266 633d f163 1f3c 2da0 f93c 8aaf 753d
000000c0: 9608 e03c ef52 2a3d 1d53 963d ae3c 4d3d
000000d0: 7195 d33c 5c42 cb3d 546f 883d 038a 1e3d
000000e0: 5744 dd3c 32cf be3d 3066 c03d 662c 823d
000000f0: dbde 8a3d 1388 9b3d 44ee ab3d bb72 9b3d
00000100: be45 c43d add7 963d 6ccd 323d 7e2f 893d
00000110: feb2 d43c 7852 a93d b34e 923d b997 303d
00000120: 67d1 bb3c 6512 28bb d793 4e3d c2eb c83d
00000130: 9568 b43d a528 7d3d 7e3b 103d 172f 493d
00000140: 67b6 573d 7013 333c 84dc 533d 60ca fb3c
00000150: 564b 373d 0c28 553d 8fa3 873c 67ba 5b3d
00000160: e4b0 533d bb3c 333d 5fbf 503d 67da a53d
00000170: d51a 463d 4c4d 203d 63d0 3b3d 9bd1 0f3b
00000180: f960 c53d b707 0b3d 7ac3 0d3d 568e 8b3d
00000190: fc48 a73d 3493 213d c45d b83d a021 d43c
000001a0: 2cd8 e83d 0f66 773d 908a 0c3d 7153 273d
000001b0: 624d 5b3c 0795 803d 561b 9c3d 85b3 a23d
000001c0: 317c 5c3d 93ff 953d 32f5 a73d ef55 5e3d
000001d0: fdde be3d f7d5 a43d bf2a f53c ae73 e13c
000001e0: 9c3a bf3d 3068 963b c1d9 fe3c 6704 8e3d
000001f0: c656 223d 0eb2 353d d2ff f43d 1cb8 0f3d
0.07615615 0.05517987 0.08959316 0.027396187 0.10655339 0.045308564 0.086532205 0.017502418
0.1011492 0.04461419 0.085523345 0.051844347 0.032996472 0.08110282 0.03706723 0.056239646
0.036147427 0.13522093 0.025993826 0.04048463 0.034641348 0.037794486 0.09608168 0.030758888
0.074664846 0.059639983 0.103054866 0.06915658 0.05025945 0.0800614 0.070418075 0.03782596
0.083512716 0.059630472 0.07377845 0.06073579 0.010930521 0.10437686 0.06462705 0.044559263
0.06363577 0.03630642 0.0769391 0.07707376 0.055517443 0.009728418 0.030471886 0.05998186
0.027347844 0.041582998 0.07340071 0.050106697 0.025828095 0.099247664 0.06661859 0.038705837
0.027010126 0.09316863 0.09394491 0.063561246 0.067807876 0.075943135 0.08395055 0.075902425
0.09583615 0.07365356 0.043652937 0.066985115 0.025964256 0.08267683 0.07143917 0.043113444
0.022927 -0.002564573 0.05043396 0.09810592 0.0880901 0.06180634 0.035212986 0.049117174
0.052664187 0.010929927 0.051723972 0.030736148 0.04474958 0.052040145 0.016557483 0.053644564
0.051682368 0.04375909 0.050963756 0.080982976 0.048365433 0.039136216 0.04585303 0.0021945003
0.09637637 0.033942904 0.03461025 0.06814258 0.081682175 0.039447024 0.090022594 0.02589494
0.113693565 0.060400065 0.03431183 0.04085106 0.013385149 0.06278425 0.076224014 0.07944397
0.053829376 0.073241375 0.08201064 0.05428117 0.093198754 0.08048623 0.02992761 0.02752098
0.09337351 0.004590057 0.031109693 0.069344334 0.039633535 0.04435926 0.11962856 0.03508769

action_model._discrete_distribution.branches.0.weight f4 [8, 128]
00000000: 2aa0 74bd fdc9 21bd eabd 94be 2485 9d3d
00000010: 39b7 e0bd 191b eb3c f438 bbbd 5c37 093d
00000020: 5bbf 04be d78f 733d 58c4 893c ace8 903a
00000030: 4c74 643d 4196 3cbe 2c43 9f3d 201f 6b3d
00000040: 577e 8a3b c933 92be 6894 a73d 4189 933d
00000050: 17f9 f33c 5d06 f2bc 5e3f 1fbe 93aa 353d
00000060: 4021 49bc 8241 da3c 37b7 6fbb e265 703c
00000070: 8c99 2b3b 0d55 603c b599 61bc 5cba 9e3d
00000080: 3580 47be 3065 d83c c699 8ebd 9c67 9abc
00000090: 8ec7 9b3d da46 d9bd f507 9fbd 9614 06bd
000000a0: 4625 133d 9062 1d3e 2f63 7ebb 736f 48bd
000000b0: 2cd5 99bd 43ba 013d d118 483d 076d 783d
000000c0: 0c0b 233d c745 023c 22ac 50bb 676b 6b3d
000000d0: 6885 a13c 27c9 86bd c679 f83b 5a2b a83c
000000e0: ac80 4b3e ae9c 5abc 9c91 693c c821 8c3c
000000f0: 9787 e9bb 4a4f 4fbd 1944 39bc e415 8cbd
00000100: 60e3 cebd 6e53 53bd 69b0 19bd b4c1 14bd
00000110: eadb c43c c8cf f8bc c866 2dbd 2313 ce3c
00000120: bdc2 333e ff9b 2c3d 4074 fe3c d087 0bbe
00000130: 53fc b5bd b40f 653d f24b 003d 9167 44bd
00000140: a706 593b da6b dd3d ad61 65bc a88e 163e
00000150: 5d02 5a3d 42b9 6dbd 6d73 b43d 3a05 7cbd
00000160: 3806 b33c 9bb3 573d 42f2 cebc 16ac 62bd
00000170: 3884 603b 6dcf c03d 9fd1 ddbc 7bf8 0e3d
00000180: 0725 6f3d 2a2a 813d 12dd f63c 7591 dfbc
00000190: 3cda e0bc 2b88 2a3c a528 01be 82ba 22bc
000001a0: f2f1 babd 9621 92bd a3c5 643d d9ec 373d
000001b0: 4a0f 933d e02a 113c e015 0a3d 532b 89bd
000001c0: 2dc7 5f3c d898 143d 9282 3bbb 6f5c 363c
000001d0: 8129 143d 67aa 443c 5ffc c3bb 43c7 353d
000001e0: 21cf 50bd 5538 983d 2435 f93d ee30 80bc
000001f0: 409f 17bd 9caf 48bd 4c28 08be 1440 823d
00000200: 993a 51bc 393e f7ba 120e c1bd d454 d2bd
00000210: fc19 a83c cf39 0f3d ad28 efbb 0a5e a2bd
00000220: 83c7 a63d e7bf 3ebd 3e32 84bd 44c4 043d
00000230: 77fa e83c ab3e 45bd cd0e 613b 0318 353d
00000240: 119f d3bc 60c2 863c 1d04 54bd 7081 acbd
00000250: eb12 5e3d ada4 e03b ae12 b33d bd68 3cbe
00000260: ccc1 5ebd e839 19be bb39 bd3d 1ee7 ecbb
00000270: 2305 f93c c497 42be 7cf7 043e 48ff ff3c
00000280: f8b6 1c3d 56cd e7bd 9467 b1bc 5762 7c3d
00000290: bf49 61bb b19a 023e b77c 71bd b31d 9c3c
000002a0: ab3c 5e3d 1766 54be 6621 29bd f7bf 7bbd
000002b0: 1b4c 37bd 7b60 f7bc b562 f8bd a6d8 f93c
000002c0: 26a5 923c dbe9 01bc 55a9 babc 3760 97bc
000002d0: 2b55 083d d221 a4bc d870 9f3c 4c1d 20bd
000002e0: 2a3f 63bd cfc6 a03d ffeb 02be 6e2e de3a
000002f0: 1079 39bd 2cd7 3f3d 3536 163c 1e55 573d
00000300: 7b6c 253e f963 0e3d 6697 14be 3263 36bc
00000310: d168 1bbc 53a3 03bd 28d2 7bbd 3dae 883c
00000320: 6a49 21be eb8e e93d 5ee8 14ba 0c65 203d
00000330: 0914 503d 52c9 0e3e 72b3 c3bc 022e 22bd
00000340: e5b2 5a3d 28ae 4cbe c163 273d d28e 643c
00000350: 1345 97bd cecd 69bd a5b5 34bc 62cc 3f3d
00000360: a925 e23c e202 dcbd d73d 0e3b 7a26 9a3d
00000370: a4b3 1a3d 0f54 e0bd 3594 6cba 9596 e2bc
00000380: 599e 023d af65 a23d e519 ba3c a064 233c
00000390: ce68 d93d 85bf 6cbd f35c 173d 1873 ad3c
000003a0: bb08 97be 6ef6 b5bd 1bd1 843d 835e 113d
000003b0: cce9 73bd 752c 603d 847f 543d 7b4f 9e3d
000003c0: d743 b63d 9f09 aebe 47b5 873d fbc6 efbd
000003d0: d7e9 703d f63c 343d 18eb 2b3c d4fc 973d
000003e0: 86d8 533c ea05 3fbd a141 dfbd ac5c 07bd
000003f0: 8c78 b7bd 7cc3 213a d666 bbbd 62c6 b13a
-0.059723057 -0.03949927 -0.29051143 0.0769141 -0.10972447 0.028699445 -0.09141722 0.03350006
-0.12963621 0.05946335 0.016817257 0.001105567 0.05577497 -0.18416692 0.07776484 0.05740273
0.0042264867 -0.28555134 0.08182603 0.072039135 0.029781861 -0.02954405 -0.15551516 0.044352125
-0.012275994 0.026642565 -0.003657771 0.014672728 0.002618405 0.013692153 -0.013769557 0.07750389
-0.19482501 0.026415437 -0.06962924 -0.018848233 0.076064214 -0.10609217 -0.077651896 -0.032734476
0.03592422 0.1536963 -0.0038816442 -0.04893441 -0.075113624 0.031671774 0.04885179 0.06065085
0.039805457 0.0079512065 -0.003184088 0.057475474 0.019716933 -0.065813355 0.007582876 0.020528484
0.19873303 -0.013343019 0.014255907 0.017105952 -0.0071267593 -0.050612725 -0.01130774 -0.06840113
-0.10101962 -0.051593237 -0.037521753 -0.036317542 0.024030644 -0.030372515 -0.042334348 0.02515561
0.17554756 0.042140957 0.031061292 -0.13626027 -0.08886018 0.05592318 0.031322427 -0.04795033
0.0033115537 0.10811587 -0.0140003385 0.14702857 0.05322491 -0.058038004 0.08811078 -0.061528422
0.021853551 0.05266152 -0.025262002 -0.055339895 0.0034258496 0.09414563 -0.027077494 0.03490494
0.05838492 0.0630687 0.030134711 -0.027291039 -0.027447812 0.010408442 -0.12613161 -0.009932162
-0.09128179 -0.07135312 0.055852544 0.04490361 0.071806505 0.00886032 0.033712268 -0.066977166
0.013658327 0.036278576 -0.0028611762 0.011130436 0.036172394 0.012003518 -0.0059810127 0.044379484
-0.050978784 0.074326195 0.12168339 -0.015648331 -0.037017107 -0.0489956 -0.13296622 0.06359878
-0.012770318 -0.0018863148 -0.09426512 -0.10270086 0.020520203 0.03496724 -0.00729855 -0.07928093
0.081435226 -0.04656973 -0.064548954 0.032413736 0.028439743 -0.048155468 0.0034341097 0.044212352
-0.025832685 0.016450107 -0.051761735 -0.08423126 0.05421726 0.0068555684 0.08743797 -0.1839933
-0.054384038 -0.14963496 0.09239527 -0.0072296998 0.030397957 -0.19003206 0.12985033 0.031249657
0.03826043 -0.113184616 -0.021655835 0.06161722 -0.0034376231 0.12754323 -0.058956828 0.01905713
0.054257076 -0.20742069 -0.041291617 -0.06146237 -0.044750314 -0.030197373 -0.12128202 0.030498814
0.017901015 -0.007929291 -0.022785822 -0.018478496 0.033284348 -0.020035658 0.019462988 -0.03909044
-0.05548016 0.0785042 -0.12785338 0.0016951093 -0.04528147 0.046836063 0.009168197 0.05257141
0.16154663 0.03476331 -0.14510879 -0.011132048 -0.009485439 -0.03213818 -0.061479717 0.016684646
-0.15750661 0.114042126 -0.00056803774 0.039158866 0.050800357 0.13943985 -0.023889277 -0.039594658
0.053393263 -0.1998831 0.040866617 0.013950067 -0.07386222 -0.057081036 -0.011029636 0.046825774
0.027605848 -0.10742737 0.002170434 0.0752687 0.037768975 -0.10953533 -0.000902477 -0.027659694
0.031889293 0.07929551 0.022717426 0.009972721 0.10615693 -0.057799835 0.036953878 0.021173045
-0.29498848 -0.08884893 0.06485196 0.035490524 -0.059549138 0.054729898 0.05187942 0.077300034
0.08899658 -0.33991715 0.06626373 -0.117078744 0.058816757 0.04400345 0.010493062 0.0742127
0.012930041 -0.0466365 -0.109011896 -0.033047363 -0.08958539 0.0006170792 -0.09150474 0.0013563151

action_model._discrete_distribution.branches.0.bias f4 [8]
00000000: f37d 2cbd 5a63 c13c 346e c93c cc27 a93c
00000010: 726a 4cbb 30aa dcba 6ac0 a1bc ff1c f1bc
-0.042112302 0.023606945 0.024588682 0.02064886 -0.0031191376 -0.0016835388 -0.01974507 -0.029432772

action_model._discrete_distribution.branches.1.weight f4 [8, 128]
00000000: 39c6 013d f5de 70bc fa1a d4bc 73e7 6fbd
00000010: 5492 c43c d364 2cbc e85e 33bd b42e 5b3c
00000020: 135a 8c3d 7a1e 5bba 4ec0 aabd 0086 e3bc
00000030: f27f a83c 246b 39be ff79 943d c7da 163d
00000040: 5b2a 333e 7ed9 803d ab32 49bd 144f a53e
00000050: d56a 8e3d d133 573d 70b0 f13d c206 0ebe
00000060: bd4c 1bbe 6806 0f3d 274b 0fbe b66d 0b3d
00000070: c645 4ebd ffe1 3bba 8597 463d 1c9b be3c
00000080: cdb4 a33d 4b93 e1bb dbd6 87bc 5043 37bd
00000090: 7cec 403c dfb5 7ebe fd2b 83bc 13e5 0cbc
000000a0: 0d64 b2bd 2f6d f3bd 323d 54bd 2ab0 5b3d
000000b0: 6cb4 993a aadd ba3c 163c 933d 9857 833d
000000c0: 0ed2 b33d fa2c d23d 8ed3 9ebe cc84 31bd
000000d0: 129c 9a3d ec80 81bd a623 a53d 3e11 7cbd
000000e0: c7e4 0dbe e9d8 98bc 08f5 9ebc 832b 9a3c
000000f0: 8e4a e939 157b 993c 0a27 833d 63ae 89bc
00000100: a0ca 5fbd 6fcc 22bd 9701 513d b2ac fb3c
00000110: c7d6 0a3c 6e0b e9bd 1e18 5fbd 2eb8 843c
00000120: 09a9 063c ec76 853e 2aaa 893c 8ed2 00be
00000130: 8169 96bb 6432 22be c1ae 003c 3e7a 463c
00000140: 46c4 eb3d 9bbf 143e e8d5 213d dfed e9ba
00000150: 059a ab3d bc8f 903d e689 cb3b 5825 323d
00000160: b3ba d1bd 40bc b03c eaff 7d3d 6b36 0b3d
00000170: bec4 57bd 6ccb 0fbd 4547 063d feca 6bbd
00000180: e695 c6be bf11 773d e2e3 8bbd eb9c 2cbd
00000190: 2f40 a23d 76a5 963b eab2 a63d 2e3d 01bc
000001a0: f8ad 9a3b 3ce1 293c ad20 35bc 5247 153c
000001b0: a6a5 56bd e554 033d ee0f 07be f37d 4b3d
000001c0: 280b 7d3d ce96 bb3d 9d24 e839 4df1 17be
000001d0: 692c bebd d3a9 673c 5bfd 963d 1d92 d63c
000001e0: 61f8 373d 0f01 403c fc6d 09be de30 303d
000001f0: 35fa d2bd 798c 873d 1466 b6bc 8778 95bc
00000200: 148c b53d f34a 013d 63d0 d23c d9fc 8a3d
00000210: f3fe c63c 84b2 c53d b929 a93d 3602 d93c
00000220: 1593 07bd 6715 35b9 fbfd 613c 506a 183d
00000230: 0867 09bd de48 563d ea1e ee3c 97b5 17be
00000240: e829 c3bd e791 9bbc 9464 033d 3742 a9be
00000250: af73 083d 5b35 22bc 1594 b33b 286e fd3d
00000260: b3fc 743e e189 f63c eba7 87bc 2f51 6ebc
00000270: 83be 8b3d db89 5f3d 9508 673c d05f 20bd
00000280: 37b8 65bd 9da4 163d 33c2 fd3c 43a8 26bd
00000290: bb0c 6ebd 54d3 fa3d 508e 523d 5b9e 8abd
000002a0: f78c 0e3e 0f35 1cbc 1fc1 b83c c67c 613d
000002b0: e98f 983c 3220 19bd a890 30bd fdf3 8e3d
000002c0: 3230 ccbd 4678 9abd 81cd 253d e34a b13d
000002d0: 27fe 84bd d0bc 523d f7f8 d1bd 18b0 1c3d
000002e0: 8bd8 c13d 5555 03bc 28c6 343c e57f b1bd
000002f0: aac3 343d 16b1 063d 5c61 df3c e919 0d3d
00000300: 5030 2cbc e3c7 5b3d 06ad f0bd 5d2e 733d
00000310: 665b 9a3c 43f2 b6bc 8230 c83d 33d0 98bc
00000320: 1079 c1bd 382f 5fbe 6e5d 173c 328a cbbd
00000330: 501c 763c 4e58 8dbd 1c23 8c3c 059f 353c
00000340: fd1b 19bd ae69 35be 5601 363d 191a 443d
00000350: efe9 1c3d b304 c6bc b2be c53c a469 70bd
00000360: 083b eb3c 6c86 73bd 28c3 0abd 5657 6bbd
00000370: b57b 663d 561b a9bc 4540 1fbd 0ffd 5a3d
00000380: e829 323e ec34 c9ba a286 073c 7774 893c
00000390: d180 cebb 9b54 983c 9169 babb 174f 08be
000003a0: ddfa aebd b5d1 2c3d 79fb 3e3a 7692 3cbd
000003b0: 43f9 98bd eb7b 053c c37d ea3d a90c 843c
000003c0: 9a26 f83c f86e 8fbd 9d40 94bc c602 eb3d
000003d0: 1c70 6f3c 4592 e03d 5cbf 6fbd 371f af3b
000003e0: 6efe 823d f1d5 39bc 6609 ca3c 3f1b f13c
000003f0: 1d72 a3bd 1c6a 73bd cf76 23bd e4f9 cabc
0.03168318 -0.014701595 -0.02589177 -0.058570337 0.023995556 -0.010522085 -0.04379168 0.013377834
0.06853118 -0.00083587284 -0.083374605 -0.027773857 0.020568822 -0.18107277 0.072498314 0.036829736
0.17496626 0.06291483 -0.049120586 0.32286894 0.0695397 0.05253965 0.11801231 -0.13869765
-0.15165992 0.03491822 -0.13993512 0.034040175 -0.05035951 -0.000716716 0.048484344 0.023267321
0.079934694 -0.006884014 -0.016581943 -0.04474193 0.011775132 -0.24874066 -0.016012186 -0.008599537
-0.087104894 -0.118860595 -0.051816173 0.0536348 0.0011726744 0.022810776 0.07189195 0.064131916
0.08780299 0.10262485 -0.31020778 -0.043339536 0.07549299 -0.06323418 0.0806344 -0.06153988
-0.13856803 -0.018658118 -0.01940395 0.018819576 0.0004449677 0.018735448 0.064039305 -0.016806787
-0.054636598 -0.039745744 0.051026907 0.030721996 0.0084740585 -0.11379133 -0.05446636 0.016201105
0.008219012 0.26067293 0.016804773 -0.1258032 -0.0045902138 -0.15839535 0.007854165 0.012114106
0.115120456 0.14526217 0.039510638 -0.001784738 0.08378986 0.07058665 0.006211507 0.043492645
-0.10240688 0.02157414 0.062011637 0.033987444 -0.052677862 -0.035106108 0.03278281 -0.057566635
-0.38786238 0.06031966 -0.068305746 -0.042141836 0.07922398 0.004597361 0.08139594 -0.0078881215
0.0047204457 0.0103686415 -0.011055154 0.009111242 -0.05240407 0.032063384 -0.1318967 0.04968066
0.061778218 0.09159623 0.00044277767 -0.14838143 -0.09285814 0.01413961 0.073725425 0.02619272
0.044914607 0.011719002 -0.13420862 0.043015353 -0.103016295 0.0661859 -0.022265472 -0.018245948
0.088646084 0.031565618 0.025734132 0.06786508 0.024291491 0.0965319 0.08259911 0.026490312
-0.033099253 -0.00017269478 0.013793464 0.037210763 -0.033545524 0.052315585 0.029067475 -0.14815365
-0.09529477 -0.01899047 0.03207834 -0.3305833 0.03331345 -0.009900416 0.0054802992 0.12374526
0.23924522 0.030095043 -0.016559562 -0.014545723 0.068234466 0.05457483 0.014101167 -0.039153874
-0.056083884 0.03677808 0.03097639 -0.04068781 -0.05811761 0.12247339 0.05140525 -0.06768485
0.13920961 -0.0095341345 0.022553025 0.055050634 0.01862331 -0.03738422 -0.043106705 0.06980131
-0.0997013 -0.075424716 0.040479187 0.08656862 -0.06493788 0.051449597 -0.102525644 0.038253874
0.094651304 -0.00801595 0.011033572 -0.08666972 0.044131912 0.032883726 0.027268104 0.034448538
-0.0105095655 0.053657424 -0.117517516 0.059370387 0.01884241 -0.022332316 0.09774877 -0.018653965
-0.09446919 -0.21795356 0.009238584 -0.09938468 0.015021399 -0.069016084 0.017106585 0.0110852765
-0.037380207 -0.17716095 0.044434868 0.04787645 0.038309034 -0.024172163 0.024138782 -0.058694497
0.028714672 -0.059454367 -0.03387752 -0.057456337 0.05627032 -0.020642918 -0.03887965 0.05346399
0.17398798 -0.0015350855 0.008271845 0.016779168 -0.006301977 0.01859503 -0.005688854 -0.1331142
-0.08543942 0.04219218 0.0007285397 -0.046038114 -0.07469418 0.00814722 0.114497684 0.016119318
0.030291844 -0.070035875 -0.018097216 0.11475138 0.014614131 0.10965399 -0.058532104 0.0053442973
0.06396185 -0.0113425115 0.024662685 0.029431937 -0.0798075 -0.059427366 -0.039908227 -0.02477736

action_model._discrete_distribution.branches.1.bias f4 [8]
00000000: 4f31 f33b a882 cb3c a042 b93c 25c7 89bc
00000010: b35a a9bb 66f8 e9bc 4a19 56bc e392 c0bc
0.0074216495 0.024842575 0.022614777 -0.016818592 -0.005168283 -0.028560828 -0.013067553 -0.023507541

action_model._discrete_distribution.branches.2.weight f4 [8, 128]
00000000: f228 00be 6c35 ddbc 5a39 52be 7806 0b3d
00000010: 25d1 95bd 8d3f 1fbc 7970 8cbd 82ba 813d
00000020: 7587 43bb ef3d bf3c 0b3a 29bd 2474 a0bd
00000030: 3f89 aebb 9656 fcbd 0182 5e3d c723 283e
00000040: e877 ddbc eded 61be c6f9 ff3c ebc2 a2bd
00000050: 5a05 833b beff 863c bfe4 fd3b 7a78 31bd
00000060: 8b29 43bd 9d45 f2bd e6f1 b13c 42a4 5a3d
00000070: 11f4 bb3c f098 1bbd d9cb 793c 84fe ce3d
00000080: eaf5 f6bd d8c2 a63b 967d 1dbd 9794 dc3d
00000090: ec35 433d 6712 83bd c9ec f93c 3ab0 90bc
000000a0: 6daa 703a f7f2 a73d 3584 5ebc abce 4dbd
000000b0: 62e9 cabc 26ea 0c3d 065a 3cbd 5502 ce3d
000000c0: 7616 5abc db88 563c 663f 48bd f2cd f23c
000000d0: 2019 873d c5d9 f5bd 7cb3 86bc c95b 6cbc
000000e0: 6214 32bd d515 093d acdb a7bd 1196 933d
000000f0: 787c 89bc deb1 be3b 6afd e3bd d652 dd3c
00000100: 53e6 ba3d 55b7 613d 19ba 853d 1ec8 f3bd
00000110: d3a6 52bb 0b4f 9dbd 7861 5dbd c613 21bc
00000120: ef38 803d 1f20 ab3d 721f c5bc 11f0 3b3c
00000130: 198d 83bd 4ba1 0abe 7c4d 913a f0c3 0ebd
00000140: 2082 8d3d a81a 22be e96b e13c 3f8a ce3d
00000150: 6c66 57bd 87f8 eebb eac1 1a3d a992 813d
00000160: 05ab 983b 5e96 d0bc 135d 803d a7fe 693d
00000170: 7855 02bd 4eb2 143e df4c 29bc 395e fe3c
00000180: 53a7 5b3d 4f80 5b3d e102 bc3d 6cda e03c
00000190: 4dc7 4fbd e205 ee3c 88da bdbd 3dc7 b33d
000001a0: bffe 3bbe bccf 6dbd 7e62 0e3e f858 983c
000001b0: 7cc8 8c3d cec4 673d d4c9 053d 1862 103d
000001c0: ee90 433d 5e92 b1bd d89d 03be 7062 02bd
000001d0: 4d40 d03c 7513 5bbd 2553 f6ba de9d 643d
000001e0: 61bb fbbd d9ab 853d 1f17 033e 8ab9 843a
000001f0: ddbf 13be 2839 383d 7735 41bd 4173 983d
00000200: bc85 273c 7a8a d23c 63c0 43be d647 1a3d
00000210: 8aed 583d 8b4c cd3c 8a63 6bbd 8d87 f53c
00000220: 802b 3ebd 1cd0 9c3d 30ef d1ba 4ec3 ac3d
00000230: 0a50 d8bd ff7a 4bbe dd56 9b3c 7cd5 cdbd
00000240: aa00 aebd 74d8 05bd 655b 803d cede 563c
00000250: 0a94 6e3c 35f9 5c3d 3bb2 a7bd 5768 9cbd
00000260: 24ec 33bd 84ed 363d 9d40 123d 15c9 493c
00000270: 2e86 babc fe4a e83c e382 3dbc 337f 14be
00000280: 1dac 39bd 281b 1bbd 9370 d93c 0d39 6ebd
00000290: bd26 71bd 2e2e b8bd 039c c8bd 4737 00be
000002a0: 465f 1a3d d681 a1bc 4da8 d53c af57 a83d
000002b0: 3ade da3c a7c1 193c 4c6c 183d 86f4 473d
000002c0: ca02 893c f6ef a13b 0c58 31bd 5dfa c93d
000002d0: 5c1e f73c f099 aa3d d8a0 d3bd a7dc 923c
000002e0: 6b2b e23d 9cc1 dcbd 6520 583d 3199 2bb9
000002f0: ba2b 98bd c44a b5bd 9cc9 573c f8ba c33b
00000300: 4222 c6bd f72b 08bc d09a 3abe 818a 123e
00000310: 1ffd b13d 9976 c3bd 22f9 fc3c 82ac 0e3c
00000320: d054 52bd 0640 e23c a777 923d 9169 0d3d
00000330: 59bf 6b3d 96f8 e93c a9ac 5dbd 3355 d03d
00000340: 46ba af3c 204f 1d3c 2b5b f1b8 bd18 b93c
00000350: bc2b 143d 5974 7f3c 239a 8c3d 02ad 0cbe
00000360: ff5d 0abb 31df 723b 3b27 963c 5ce0 b2bd
00000370: 675b 9c3d 429b b7bd e944 863d 7997 cbbc
00000380: e3d9 943c c57b 81bd 703a 11be 3b7b 703d
00000390: e7c9 a53d 7963 26bd 1754 13be c77a fbbb
000003a0: 7c82 0dbe 77ba af3d 6f51 7ebd 8beb 9b3c
000003b0: e30b 09bb 11ff 26be 6f3e 69bc 89c4 6ebd
000003c0: 6e12 21bc 8a2a d43d 547a c63d 7e55 6d3d
000003d0: 18a0 e83d 0056 263d a41f fc3c 6d4e 6a3b
000003e0: b6b5 243d 8ea9 92bd c908 0cbe 7561 9b3c
000003f0: 93cf fabd 60eb 473c 99b7 23be 2181 f93d
-0.1251562 -0.027003013 -0.2052969 0.033941716 -0.07315282 -0.0097197415 -0.0685739 0.06334402
-0.0029835377 0.023344962 -0.04131512 -0.07834652 -0.0053264196 -0.123212025 0.0543232 0.16419898
-0.027034715 -0.22063418 0.031247031 -0.07947334 0.0039984407 0.01647937 0.007748216 -0.043327786
-0.04764704 -0.11829684 0.021721791 0.053379305 0.022943528 -0.03798765 0.015246355 0.10107139
-0.12058623 0.005089145 -0.038449846 0.10770529 0.047658846 -0.06399994 0.030508416 -0.017662156
0.0009180669 0.08200639 -0.013581325 -0.050245922 -0.024769489 0.03440299 -0.04598429 0.100590385
-0.013311019 0.013094152 -0.048888586 0.029639218 0.06596589 -0.12004427 -0.016443007 -0.01442618
-0.04347647 0.033468086 -0.08196196 0.07206357 -0.016782984 0.0058195433 -0.11132319 0.027017038
0.09125962 0.05510648 0.06529636 -0.11903404 -0.0032142892 -0.07681092 -0.05404803 -0.0098313745
0.06260859 0.08355736 -0.024062846 0.0114708105 -0.064233966 -0.13538091 0.0011085714 -0.03485483
0.06909585 -0.15830481 0.027517276 0.10084962 -0.05258791 -0.0072928104 0.037782587 0.06326801
0.004659059 -0.025462326 0.062677525 0.05712762 -0.03181979 0.14521143 -0.010333269 0.031050788
0.05362637 0.05358916 0.091802366 0.027447902 -0.050727177 0.02905554 -0.09270197 0.08778236
-0.18358897 -0.05805944 0.1390476 0.018597111 0.06874177 0.056584172 0.03266318 0.0352498
0.047745638 -0.086704955 -0.12853181 -0.03183216 0.025421286 -0.053485353 -0.001879309 0.055814616
-0.12291599 0.06526918 0.12801789 0.0010126096 -0.14428659 0.044976383 -0.04717013 0.07443858
0.010224756 0.025700796 -0.19116358 0.037666164 0.05296091 0.025060913 -0.057467975 0.029971862
-0.046428204 0.07656881 -0.0016016718 0.08435689 -0.10562141 -0.19871138 0.018962318 -0.100504845
-0.084962204 -0.03267713 0.06267432 0.013114644 0.014561662 0.0539486 -0.08188292 -0.07637089
-0.043926373 0.044660106 0.03570615 0.012316008 -0.02276906 0.028356072 -0.01156685 -0.14501648
-0.045330156 -0.037867695 0.026542937 -0.058159877 -0.058874834 -0.08993183 -0.09795382 -0.12521087
0.037688516 -0.01971523 0.026081229 0.08219849 0.026717294 0.009384549 0.037212655 0.04881718
0.016724963 0.0049419357 -0.04329686 0.09862206 0.030165844 0.083301425 -0.10333413 0.01792748
0.110434376 -0.107791156 0.05276527 -0.00016364899 -0.07430215 -0.08852151 0.013170626 0.005973216
-0.09674503 -0.008311263 -0.18223119 0.14310648 0.08690857 -0.09544105 0.030880515 0.008708121
-0.051350415 0.02761842 0.07151728 0.034524504 0.05755553 0.028560918 -0.05411974 0.101725005
0.021451127 0.009601384 -0.00011508757 0.022594804 0.03617452 0.015591704 0.06865337 -0.13737872
-0.0021113155 0.0037059302 0.018329253 -0.087341994 0.07634621 -0.0896516 0.06556112 -0.024852501
0.018170303 -0.06322435 -0.14182448 0.05871127 0.080951504 -0.04062221 -0.14387546 -0.0076745483
-0.13819307 0.08580487 -0.06208938 0.019033214 -0.0020911626 -0.16308238 -0.014236077 -0.0582929
-0.009831054 0.10359676 0.09691301 0.05794286 0.113586605 0.04060936 0.030776806 0.0035752312
0.040212356 -0.07161246 -0.13675226 0.01896737 -0.12246623 0.012202114 -0.15988006 0.121828325

action_model._discrete_distribution.branches.2.bias f4 [8]
00000000: 8ec2 cdbc c3cb 2c3c c6d7 493c 2a7f 873c
00000010: e2fb 6a3c 97c0 803b ac40 91bc d89b 33bc
-0.025117185 0.010546627 0.012319511 0.016540129 0.01434228 0.0039292085 -0.017731033 -0.010962449

action_model._discrete_distribution.branches.3.weight f4 [8, 128]
00000000: 4597 043d e3f5 d33d f3be f63d c6ed 8a3d
00000010: c3f1 063d e06c ca3d 56cc 1d3d cbca 543d
00000020: 77c9 26bd 0474 34bd a6b3 02be 53c8 123d
00000030: 97d2 7abd 4a21 03bb 0eb0 173d 3315 74bd
00000040: 6908 3dbd 5b8d 9ebb db2d 273d 3544 163c
00000050: 6525 dd3c cf93 15bd dc36 703d 7098 413d
00000060: 967e 9cbd 6c6d 4bbd 2f07 4dbb e1a3 533d
00000070: 3cbc 003d ec70 a83d e515 a93d 9676 dabc
00000080: d08b 533d 7886 00bd 0fbb c13d 0f35 543d
00000090: ab19 01be ca78 16be 82b1 943d ffec 86bd
000000a0: ec06 9d3d 1554 d8bd 581a 61be bcd8 4b3d
000000b0: 5005 b33c 4fe9 91bd 1684 143d 1d1b e83d
000000c0: 8301 1e3d d9ba 75bc 2d81 14bd 70ca 593d
000000d0: bda1 7abd ba80 4bbe 8785 353d d76e 95bc
000000e0: 22a1 10bd 3658 0d3b 200a 43ba 66b4 16be
000000f0: 1dc8 47bc 8f88 303d 7dd4 a33c bbd5 863d
00000100: 0a80 fabd 09bb 913d f24a 71bb 06ae 2d3d
00000110: 47ff 82bd dc3b cfbd fa68 aab9 a203 1ebe
00000120: 7185 68bd 7725 543d 2eb8 853d e324 01be
00000130: 0daf 24be f123 20bd 0889 91bd 4608 46bd
00000140: 7748 f8bc e72c 15bd 387c 3b3d 8480 05bd
00000150: 91ab 5e3d 5d7e 053d 3277 0f3d 038a 373c
00000160: 3233 76bd 6241 01be 6c3b 923d e641 fa3c
00000170: 4aaa 3fbd 532d b3bd 01b6 e1bd 3a43 cebd
00000180: 7aaa a7bc 2b8a 663d 461c a83d dfad 0b3d
00000190: 0525 353d 4f13 a2bd 91b4 69bd c52d 92bd
000001a0: 405b 2abc 7612 323c c9f1 a93d fef4 15be
000001b0: 7c6b febd bd3b 993d edb4 393d e97d 343d
000001c0: 3cb6 163d 7e50 873c 94f9 64bd cd9f 053d
000001d0: 5f5e 043e 9343 6c3c 5aa9 433d fb43 123c
000001e0: e8ae 833d 81f9 c63c 9dd4 a8bd 8ee5 4a3d
000001f0: 2945 b6bd c2bf 8bbd 66b0 eabd 5cd5 5bbd
00000200: b750 e2bc 5b43 c9bd 6dbc 01be 609d 303c
00000210: 8cb3 273d bcfa 95bd a8f4 48be c554 eb3b
00000220: f506 e53b b539 0abc dc63 2bbd 5cfb c8bc
00000230: cc5f b63c 9fbf 24bd a4b0 88bd eb0d 9b3d
00000240: 3f2a e439 91dd 3e3d 60d5 543d fba8 653d
00000250: 8d22 de3c 4bd1 be3d 3f06 a13c de82 debd
00000260: c8bd 983d 21e1 793d 4bb5 32be fd6e 11be
00000270: f01f 2bbc d4fe 49be c952 9ebc 3e66 613d
00000280: bc5e e8bc 4839 363d 421e f3bb 9de1 51be
00000290: d261 6d3d 7825 19bd aac0 37bc fc94 803d
000002a0: 7bf9 d9bd 751e 0ebc bbb7 32bd 666c 7a3d
000002b0: db0f f6bb d78b cc3c 1c41 cbbc 1f52 f33c
000002c0: d377 623b 3f52 7b3d 389b b0bd 8aa7 ab3d
000002d0: 962c fdbb 4bf8 bb3d f254 833b da97 6a3d
000002e0: 3a6d a73c 8787 1bbe 2a7c b9bd 0b0d 1a3d
000002f0: 28dc 9abd 1ee7 043d d378 533d 6160 18be
00000300: efea 183e e240 b83c 1a8e 7e3d 2ece b53d
00000310: 1c48 0b3d d67d 883d 9a79 abbd f6e2 053e
00000320: f352 01bd 296a af3b 8074 1ebe 152e 03bd
00000330: 3458 853c e1c0 ebbd bcc2 13bc f5c2 983b
00000340: 790a 3a3e f6e4 c2bc c8ad ed3b db0b 183e
00000350: cb6b e63c 063b 6dba 9b55 e53c bf4d 933d
00000360: 2b01 6ebd 1793 83bd fb35 473b f90e 55bd
00000370: c6b3 263d f64a 803c d9f5 f43c 4307 693d
00000380: 3b3a 8ebd a988 443d 7743 7e3b d95a a2bd
00000390: 1029 6fba 1d92 9cbb f935 683d 197f 483d
000003a0: f01b 40bd 1413 aa3c f90f 62bc 7f29 f73c
000003b0: 9d9e 7dbb 921c 8abd 6896 15be 444b a8bd
000003c0: 6cf5 be3c 5b8d ba3d 8cec a43d d4ab abbd
000003d0: 57eb a9bd 9345 123b 45c1 943d ae2c 2d3d
000003e0: ea33 773c 8be6 ca3d 3987 20bd 5557 dd3c
000003f0: d7fc d9bd cd7f 693d 4885 aabc 7c77 d5bc
0.032370824 0.103496335 0.120481394 0.06783633 0.032945406 0.098840475 0.038524948 0.05195121
-0.040719476 -0.044055954 -0.12763843 0.035835575 -0.06123599 -0.0020008855 0.037033133 -0.05959053
-0.0461506 -0.004838628 0.040815216 0.009171535 0.02699537 -0.036517914 0.058646068 0.047264516
-0.07641332 -0.0496649 -0.00312848 0.05166996 0.031429514 0.08224663 0.08256129 -0.026667874
0.051647007 -0.03137824 0.09459507 0.051808413 -0.12607448 -0.14694515 0.072604194 -0.06588172
0.07667336 -0.105629124 -0.21982706 0.04976724 0.02185312 -0.07124578 0.03625878 0.113332964
0.03857566 -0.014998161 -0.036256004 0.053171575 -0.061189402 -0.19873324 0.044316795 -0.01824133
-0.03530992 0.002156747 -0.00074401684 -0.14717254 -0.012193707 0.043098982 0.019998783 0.065837346
-0.12231453 0.07115752 -0.0036818353 0.04240229 -0.063963465 -0.10118839 -0.0003250314 -0.15431073
-0.056767885 0.05179354 0.0652927 -0.12611727 -0.16082402 -0.039096776 -0.07106215 -0.048347734
-0.030307991 -0.036419775 0.04577276 -0.032593265 0.054362837 0.032591213 0.035025783 0.011202338
-0.060107417 -0.12622598 0.0714024 0.030549001 -0.04679326 -0.08748879 -0.110210426 -0.10071416
-0.020467032 0.05628411 0.08208518 0.034101363 0.044224758 -0.07913839 -0.057056967 -0.07137636
-0.010397732 0.010868659 0.0829807 -0.14644238 -0.12422845 0.07482097 0.04533856 0.04406539
0.036794886 0.016517874 -0.05590208 0.0326231 0.12926625 0.014420408 0.047768928 0.008927341
0.06429845 0.024288895 -0.08243678 0.049535327 -0.0889991 -0.06823684 -0.114594266 -0.053670272
-0.027626378 -0.098273 -0.12669535 0.010779709 0.040942714 -0.073232144 -0.19624579 0.007181736
0.0069893547 -0.00843661 -0.04184328 -0.02453392 0.022262476 -0.040221807 -0.066743165 0.07571014
0.00043519025 0.04659802 0.051961303 0.056069355 0.027116084 0.09317263 0.019656299 -0.10864805
0.07458073 0.061005715 -0.1745197 -0.14202495 -0.010444626 -0.19726115 -0.019326584 0.055029146
-0.028365485 0.04448822 -0.0074193785 -0.20496221 0.057954617 -0.03738925 -0.011215368 0.062784165
-0.10643288 -0.008674254 -0.04363225 0.061138533 -0.0075092143 0.024969025 -0.02481132 0.029702244
0.0034556284 0.061357733 -0.086233556 0.08381565 -0.0077262623 0.091782175 0.004007929 0.057273723
0.020437825 -0.15188418 -0.090568855 0.037610095 -0.07561523 0.032446973 0.0516289 -0.14880516
0.1493337 0.022491876 0.062147237 0.08877216 0.034004316 0.06664626 -0.08372803 0.1307486
-0.031573247 0.0053532314 -0.15474129 -0.03202637 0.01627741 -0.11511398 -0.009018596 0.0046619126
0.18168058 -0.023790818 0.0072533824 0.14848273 0.028127572 -0.00090496277 0.027994921 0.07192563
-0.058106583 -0.064245395 0.0030397165 -0.052016232 0.04069879 0.015660744 0.029902386 0.05689169
-0.069447 0.04798189 0.0038797536 -0.07927484 -0.0009123245 -0.0047781602 0.056692097 0.048949335
-0.046901643 0.02076105 -0.0137977535 0.030171154 -0.0038699277 -0.067437306 -0.14608157 -0.08217481
0.023310386 0.09108993 0.0805293 -0.08382383 -0.08296841 0.0022319301 0.07263426 0.042278938
0.015088061 0.09907254 -0.03919146 0.027019182 -0.106439285 0.057006646 -0.020815507 -0.026057951

action_model._discrete_distribution.branches.3.bias f4 [8]
00000000: bd3e 8b3c cd65 163b 096e 8a3c 184e 24bc
00000010: 2b3b 92bc bd4c b5bb 3f74 00bd ff39 ebbc
0.01699769 0.0022948862 0.016898172 -0.010028385 -0.01785048 -0.0055328296 -0.03136086 -0.028714178
