results/NewTwoAgentsFullBoardActionKeepAfterFail/WhiteMLAgent.onnx (onnx, 681198 bytes, 133 tensors)

discrete_act_size_vector f4 [1, 64]
13.0 13.0 13.0 13.0 13.0 13.0 13.0 13.0
13.0 13.0 13.0 13.0 13.0 13.0 13.0 13.0
13.0 13.0 13.0 13.0 13.0 13.0 13.0 13.0
13.0 13.0 13.0 13.0 13.0 13.0 13.0 13.0
13.0 13.0 13.0 13.0 13.0 13.0 13.0 13.0
13.0 13.0 13.0 13.0 13.0 13.0 13.0 13.0
13.0 13.0 13.0 13.0 13.0 13.0 13.0 13.0
13.0 13.0 13.0 13.0 13.0 13.0 13.0 13.0
00000000: 0000 5041 0000 5041 0000 5041 0000 5041
00000010: 0000 5041 0000 5041 0000 5041 0000 5041
00000020: 0000 5041 0000 5041 0000 5041 0000 5041
00000030: 0000 5041 0000 5041 0000 5041 0000 5041
00000040: 0000 5041 0000 5041 0000 5041 0000 5041
00000050: 0000 5041 0000 5041 0000 5041 0000 5041
00000060: 0000 5041 0000 5041 0000 5041 0000 5041
00000070: 0000 5041 0000 5041 0000 5041 0000 5041
00000080: 0000 5041 0000 5041 0000 5041 0000 5041
00000090: 0000 5041 0000 5041 0000 5041 0000 5041
000000a0: 0000 5041 0000 5041 0000 5041 0000 5041
000000b0: 0000 5041 0000 5041 0000 5041 0000 5041
000000c0: 0000 5041 0000 5041 0000 5041 0000 5041
000000d0: 0000 5041 0000 5041 0000 5041 0000 5041
000000e0: 0000 5041 0000 5041 0000 5041 0000 5041
000000f0: 0000 5041 0000 5041 0000 5041 0000 5041

network_body._body_endoder.seq_layers.0.weight f4 [142, 71]
-0.065778084 -0.25479794 -0.20828953 -0.004533442 0.049322728 0.035990655 -0.09867853 -0.09007888
0.17321521 -0.008697834 -0.116771445 0.1388007 -0.035965163 0.20435537 0.0011916419 -0.019687448
-0.08252053 -0.08995481 -0.019323913 -0.03613455 0.0038332292 -0.0279097 0.0012124006 0.12719622
0.036147427 -0.12217005 0.20553827 -0.06294406 -0.07568352 0.034881573 -0.12462678 0.058354665
0.03291818 -0.14301407 0.17364797 0.045053944 -0.010209001 -0.00080723775 -0.1547081 0.07765227
-0.13675867 0.07265945 0.07702546 -0.0077118548 0.14704359 0.19445983 -0.010744245 0.1392707
0.062569186 -0.014609458 -0.2963217 -0.034491953 0.08905471 0.023055937 0.09878083 -0.08133944
0.16493082 0.01053197 0.08247216 0.020180231 0.00512226 0.13582541 -0.09536188 0.26355642
-0.013532818 0.20037857 0.12755676 0.108147584 0.059915975 -0.004296988 0.03506816 0.05368068
0.040571213 -0.1735121 -0.12101131 -0.020540442 0.16480257 0.062216204 0.014873574 -0.1665248
0.064100206 -0.077920154 -0.21162981 0.16576931 0.008335051 0.21370439 -0.107038714 0.041988257
0.02217754 -0.018083109 -0.03621209 0.05192112 0.22468415 -0.07883056 -0.117379345 0.10915372
-0.11911569 -0.05891688 -0.26660186 0.08202269 0.024108378 -0.11243498 0.059980724 -0.06565488
-0.096106015 0.040485542 -0.04020222 -0.12159859 0.07857335 0.04628689 -0.11570106 0.08260263
0.06025473 -0.027256204 0.08364313 -0.28484684 0.08018493 0.005523365 0.10771346 -0.0012598253
0.16441616 0.15715232 0.0045911875 -0.22940841 -0.1858085 0.071574785 0.09912671 -0.11274141
-0.09873676 -0.2150106 -0.1303817 -0.09427029 0.18689197 -0.03178764 0.028411148 -0.016911766
-0.030589256 -0.114631094 -0.07556597 0.08940015 0.14771597 0.2978224 0.052932832 0.19097397
0.06498861 -0.031983946 -0.112841465 0.020902252 0.019103257 0.16251235 -0.10909201 0.22251393
-0.17953108 0.07159595 0.081680804 -0.17254402 -0.25374517 0.19692609 -0.14348772 0.20079093
0.23965918 -0.0933576 0.19506754 -0.021623919 -0.008945456 0.0018599081 0.036297426 -0.16317695
0.005578774 -0.13155884 0.044993237 0.17041494 0.021691019 -0.07141482 -0.11124389 0.0632367
-0.08746775 0.15057147 -0.048316162 -0.051209684 -0.105196126 0.014118567 -0.0052337167 0.24054027
0.16392519 -0.01861953 -0.0797628 -0.060365595 0.0929714 0.058257587 -0.113598935 0.20405634
0.07777168 -0.4409324 0.13093822 -0.14054726 -0.13796224 0.06683484 -0.0730573 0.060303647
-0.015626723 0.13626373 -0.15959221 0.059108898 -0.116865486 -0.027042912 -0.036424387 0.24068113
0.08288859 0.22973324 -0.41354197 -0.042421665 -0.19914018 -0.16481505 0.0014251677 0.11247606
-0.16658463 -0.06989646 -0.29281098 -0.099736676 -0.18550597 0.066408575 0.011916392 -0.09098302
-0.03571515 -0.015064164 -0.1593488 0.08815103 -0.026336266 0.03916653 -0.044928048 0.17226832
-0.031417232 -0.20077431 0.08862829 0.059541695 -0.23738319 0.050308563 0.08137987 -0.15835121
-0.07301176 0.12435883 0.0013896863 0.15921552 -0.09979796 -0.0106352735 0.048983276 0.2441775
0.14185199 0.049218938 0.023832636 0.008885035 -0.04640615 -0.036255352 -0.30761772 -0.17886305
00000000: a9b6 86bd e074 82be da49 55be 458d 94bb
00000010: a106 4a3d f06a 133d f817 cabd 477b b8bd
00000020: 545f 313e 5c81 0ebc de25 efbd c521 0e3e
00000030: 3550 13bd 8942 513e de30 9c3a 9247 a1bc
00000040: 8600 a9bd 3a3a b8bd 2f4d 9ebc d201 14bd
00000050: ea36 7b3b e2a2 e4bc 6ae9 9e3a ba3f 023e
00000060: 530f 143d 4b34 fabd a078 523e d1e8 80bd
00000070: f6ff 9abd fbdf 0e3d 533c ffbd 4d05 6f3d
00000080: 37d5 063d 4872 12be c6d0 313e 7c8a 383d
00000090: a743 27bc cf9c 53ba cd6b 1ebe 2708 9f3d
000000a0: 770a 0cbe 7ace 943d 86bf 9d3d bab3 fcbb
000000b0: 9892 163e 7a20 473e a108 30bc fa9c 0e3e
000000c0: 4624 803d 825c 6fbc 7ab7 97be 6f47 0dbd
000000d0: 5162 b63d cedf bc3c 9b4d ca3d 4b95 a6bd
000000e0: a0e3 283e 498e 2c3c 2ae7 a83d 0351 a53c
000000f0: a2d8 a73b d115 0b3e 174d c3bd def0 863e
00000100: c1b8 5dbc 0a30 4d3e 3d9e 023e 7b7c dd3d
00000110: 746a 753d bfcd 8cbb a2a3 0f3d 46e0 5b3d
00000120: 002e 263d 28ad 31be c7d4 f7bd 6e44 a8bc
00000130: 01c2 283e 6bd6 7e3d 4ab0 733c 7a85 2abe
00000140: f846 833d 9a94 9fbd 7cb5 58be 6ebf 293e
00000150: bd8f 083c 53d5 5a3e 1d37 dbbd e1fb 2b3d
00000160: acad b53c 0723 94bc 2153 14bd 3eab 543d
00000170: 9a13 663e eb71 a1bd 9564 f0bd fc8b df3d
00000180: edf2 f3bd d452 71bd 0a80 88be 83fb a73d
00000190: ef7e c53c 5044 e6bd 59ae 753d 1176 86bd
000001a0: 3bd3 c4bd 2bd4 253d 15ab 24bd ae08 f9bd
000001b0: 11eb a03d 5297 3d3d adf4 ecbd 912b a93d
000001c0: aacd 763d 6748 dfbc 174d ab3d 72d7 91be
000001d0: ff37 a43d 58fd b43b e098 dc3d b920 a5ba
000001e0: b65c 283e 8aec 203e ac71 963b 0aea 6abe
000001f0: 9544 3ebe cd95 923d f202 cb3d f8e4 e6bd
00000200: 8036 cabd bd2b 5cbe c882 05be c810 c1bd
00000210: 9c60 3f3e c233 02bd 7fbe e83c 8b8a 8abc
00000220: 5296 fabc b5c3 eabd 55c2 9abd 6d17 b73d
00000230: db42 173e 2d7c 983e 19d0 583d ae8e 433e
00000240: c018 853d 9901 03bd 6d19 e7bd 333b ab3c
00000250: 6f7e 9c3c a369 263e a26b dfbd b1da 633e
00000260: ffd6 37be e6a0 923d 4448 a73d 61af 30be
00000270: e3ea 81be fea6 493e 72ee 12be 239c 4d3e
00000280: 3769 753e 4532 bfbd c9bf 473e a524 b1bc
00000290: f68f 12bc 29c8 f33a 9cac 143d dc17 27be
000002a0: 26ce b63b 5cb7 06be d44a 383d 4181 2e3e
000002b0: 5db1 b13c ef41 92bd d6d3 e3bd 3e82 813d
000002c0: 4b22 b3bd 682f 1a3e 2be7 45bd 3fc1 51bd
000002d0: 1171 d7bd 9051 673c 997f abbb 3050 763e
000002e0: 01dc 273e fc87 98bc ae5a a3bd ea41 77bd
000002f0: ca67 be3d 829f 6e3d 8fa6 e8bd 25f4 503e
00000300: c246 9f3d e4c1 e1be ab14 063e 9feb 0fbe
00000310: f945 0dbe b4e0 883d 119f 95bd f500 773d
00000320: 9d03 80bc b888 0b3e 246c 23be 2c1c 723d
00000330: 2c57 efbd 1989 ddbc bd31 15bd 1d75 763e
00000340: 7ec1 a93d 313f 6b3e c6bb d3be 57c2 2dbd
00000350: 67eb 4bbe 47c5 28be b1cc ba3a d959 e63d
00000360: 2995 2abe e025 8fbd 52eb 95be be42 ccbd
00000370: 47f5 3dbe 3801 883d f83c 433c 4e55 babd
00000380: 0d4a 12bd afcf 76bc 552c 23be 8788 b43d
00000390: 27bf d7bc 156d 203d 7906 38bd 1b67 303e
000003a0: 5baf 00bd c897 4dbe c082 b53d fee1 733d
000003b0: 9414 73be 5a10 4e3d 7daa a63d d226 22be
000003c0: 3187 95bd d8af fe3d 2226 b63a 6509 233e
000003d0: df62 ccbd 923f 2ebc b0a2 483d ab09 7a3e
000003e0: a641 113e cc99 493d a93c c33c 8a92 113c
000003f0: 6014 3ebd 7e80 14bd 1280 9dbe e027 37be

network_body._body_endoder.seq_layers.0.bias f4 [142]
-0.010892078 -0.009955638 0.018369585 0.00028395592 -0.015542953 0.016951686 -0.014219464 0.0005436023
-0.016417556 0.02548804 -0.021075511 0.004489893 0.00593627 -0.020015746 0.00088168494 0.0039406
0.011020176 -0.0012216386 0.018184558 -0.0017180336 -0.0044051665 -0.024551917 0.005047015 0.010599718
-0.0030330557 0.0077034584 0.007554465 -0.0021354237 0.0015180238 0.0024596918 0.0035238985 0.000881022
-0.01737823 -0.0018074906 -0.0053323023 -0.012158727 0.00521601 0.012963695 -0.017225947 -0.005452416
-0.0069610965 0.0026567099 -0.03491441 -0.011201648 0.025444036 -0.00086150534 0.008655216 -0.01685572
0.004529666 0.0012146758 -0.005382027 -0.0102363685 -0.013858623 0.0053017926 -0.012145152 -0.011374734
-0.007786138 -0.0009619688 -0.021430964 0.008282481 -0.01488171 -0.00014830208 0.0067775776 -0.001715596
-0.01718718 -0.019956917 -0.016002946 -0.0012340007 0.010554653 -0.010693306 0.0032310649 -0.003799101
-0.010249392 -0.0004620229 0.000893161 -0.017098784 0.016943255 -0.01122599 9.0938265e-05 -0.0048696687
-0.0058864485 0.00023275094 -0.019194996 0.0039651575 -0.015810901 0.0048068827 0.0048535867 -0.014421905
-0.013740767 0.017439462 -0.0043676533 -0.017213328 0.018634472 -0.00791475 0.0010142683 -0.017813519
-0.026037358 0.00015995422 -0.012262758 -0.0154469125 -0.008895759 -0.010972825 0.006667832 -0.009977133
0.0069530345 0.0060802926 -0.009653638 0.008722282 -0.023684477 -0.0060661235 -0.021461172 0.0032169055
0.0076383078 -0.015325604 -0.008548331 0.0103283385 8.59852e-05 -0.009617219 -0.022852622 0.003198643
-0.0007016972 0.015766948 -0.00095224247 0.001336062 -0.0057936613 0.011114902 -0.011247049 0.0050144466
-0.004977025 0.0061267475 -0.0013543274 0.0052056145 0.00465919 0.005215725 -0.0038005968 -0.015315217
-0.0022711307 -0.024261076 0.021858342 0.013621171 -0.0152825555 0.0059156935
00000000: b074 32bc f91c 23bc d07b 963c ebdf 9439
00000010: dfa7 7ebc 43de 8a3c c1f8 68bc 8880 0e3a
00000020: 1c7e 86bc 4bcc d03c 8da6 acbc f41f 933b
00000030: 0b85 c23b 10f8 a3bc e020 673a 2620 813b
00000040: f88d 343c 641f a0ba c8f7 943c a42f e1ba
00000050: 3759 90bb 1a21 c9bc 6e61 a53b 71aa 2d3c
00000060: 3bc6 46bb 4b6d fc3b 728b f73b 77f2 0bbb
00000070: 6df8 c63a c832 213b 35f1 663b 63f4 663a
00000080: ca5c 8ebc 52e9 ecba 98ba aebb 6635 47bc
00000090: 10eb aa3b ae65 543c 6e1d 8dbc 2eaa b2bb
000000a0: e919 e4bb 321c 2e3b 6a02 0fbd 1e87 37bc
000000b0: 0370 d03c a5d6 61ba 9bce 0d3c 0215 8abc
000000c0: 986d 943b c235 9f3a b75b b0bb 71b6 27bc
000000d0: 470f 63bc a9ba ad3b 76fc 46bc 185d 3abc
000000e0: dc22 ffbb a22c 7cba fd8f afbc 3eb3 073c
000000f0: 6ad2 73bc 8981 1bb9 7116 de3b d9dd e0ba
00000100: 21cc 8cbc b07c a3bc 9c18 83bc 31be a1ba
00000110: 6ced 2c3c fa32 2fbc 46c0 533b 57fa 78bb
00000120: 11ed 27bc aa3b f2b9 0523 6a3a c012 8cbc
00000130: 95cc 8a3c 37ed 37bc 1cb6 be38 be91 9fbb
00000140: 1ce3 c0bb 9b0e 7439 d33e 9dbc 27ee 813b
00000150: dd85 81bc 0e83 9d3b d60a 9f3b db49 6cbc
00000160: f420 61bc 34dd 8e3c 881e 8fbb f702 8dbc
00000170: 52a7 983c deac 01bc 32f1 843a a8ed 91bc
00000180: 4c4c d5bc 62b9 2739 bce9 48bc 0c15 7dbc
00000190: 84bf 11bc 5dc7 33bc d47d da3b 2177 23bc
000001a0: 48d6 e33b 313d c73b 4b2a 1ebc e7e7 0e3c
000001b0: f305 c2bc 55c6 c6bb 57cf afbc b8d2 523b
000001c0: c54a fa3b 3e18 7bbc 4d0e 0cbc 3138 293c
000001d0: f452 b438 8a91 1dbc 6c35 bbbc 53a0 513b
000001e0: 1af2 37ba b029 813c e99f 79ba cd1e af3a
000001f0: c1d8 bdbb 471b 363c 8b45 38bc 3a50 a43b
00000200: 5016 a3bb e2c2 c83b b083 b1ba dc93 aa3b
00000210: 1eac 983b ace8 aa3b 6f13 79bb adec 7abc
00000220: 40d7 14bb 2abf c6bc 4410 b33c 552b 5f3c
00000230: af63 7abc 6fd8 c13b

network_body._body_endoder.seq_layers.2.weight f4 [142, 142]
-0.10409248 -0.0957114 -0.15475784 0.16319531 -0.1409835 -0.018547777 0.010874136 -0.066267714
-0.04311885 -0.034583006 0.0055196607 0.10743842 -0.08248169 0.0065989294 0.0056211744 -0.0046109385
0.08189394 0.026190259 0.04302772 0.10119262 0.16271454 -0.13208775 -0.0034424397 -0.09275351
0.11351113 0.15649068 -0.034402717 0.047381986 0.05610888 0.01728058 0.081674814 0.025033351
0.024493393 0.20299567 -0.085503586 -0.004347934 -0.06886938 0.097660206 0.05643744 -0.03711363
-0.07301102 0.109192535 0.016198846 -0.15484197 -0.04926097 -0.20985545 -0.16297908 0.17381772
0.0268535 -0.0019555392 0.08030537 0.007603551 -0.083675 0.110661685 0.022676269 -0.063777305
-0.0012414998 0.032850698 0.005967191 -0.08030797 -0.1352529 -0.015315207 0.15739793 0.04444892
-0.058960136 0.038062572 -0.030934652 0.09748959 -0.08448332 0.02109764 -0.014962822 -0.06661907
0.06529924 0.022160344 0.06531847 0.08198136 -0.025866507 -0.06951241 -0.061578076 -0.05408784
0.0031760943 -0.24127793 0.074322335 0.01096094 -0.109773755 0.03176951 -0.034143884 0.10757924
0.06406325 0.13637564 -0.014269154 -0.03198703 0.04897789 -0.020104315 -0.01417012 0.032143638
-0.08941179 -0.0414453 -0.03312981 0.0735257 -0.02313729 -0.011247597 0.02645386 0.0900209
0.05743579 0.0019449908 0.027531153 -0.17160928 -0.0066723484 0.18997669 0.19811477 0.089100346
-0.060785517 -0.089417376 -0.007762103 0.042447638 0.04967334 -0.033574022 -0.0368792 0.02070445
-0.03056155 -0.022874301 0.05289379 -0.050961833 -0.043906283 0.11379312 0.07395628 -0.13430437
-0.1266818 0.096894324 0.03508015 0.07073969 0.09528392 -0.023458712 0.08798326 0.035436988
-0.19181143 0.047029316 -0.0509154 0.02320738 -0.07041368 -0.07940735 0.06816991 -0.092045285
-0.043724544 -0.09431398 0.13175532 -0.10067349 -0.270202 -0.10634707 0.068418644 -0.009535602
0.00037287275 0.059636332 0.03473574 0.13787435 -0.082450144 -0.042465143 -0.002482584 0.075957954
0.044183295 -0.065809034 -0.09592552 -0.011174771 0.010505281 -0.09780023 0.090576865 -0.0030715622
0.007335163 -0.02637854 0.039281424 0.058986403 0.0013513417 -0.09855287 0.016688934 -0.10656719
0.001905108 0.20126887 -0.028187986 -0.008913375 -0.009351832 0.056053154 -0.12735891 -0.031981066
-0.07466628 -0.11851263 0.10604662 0.027159031 -0.14564675 0.08449915 -0.17069733 0.0075531816
0.13031355 -0.0337845 0.04094342 0.096092284 -0.056802273 0.11479944 -0.03427127 0.07913988
-0.008858468 -0.025837405 0.12811299 0.008614897 0.10659073 0.105283536 -0.2520273 0.08644803
-0.074585184 0.1501234 0.04407415 0.068378516 -0.022718694 0.0151651595 -0.054572362 -0.03818358
-0.016983423 0.11865517 -0.025676703 -0.041889958 -0.09484072 0.15168841 0.008461753 -0.033695363
0.15180545 -0.16383573 -0.048310224 0.0085675195 0.054014605 -0.020418331 -0.039844118 -0.0029998806
0.13274556 0.17595777 -0.07042517 0.05592237 0.09395491 0.12910935 0.13656648 0.029387306
-0.15957387 -0.059068866 0.08724963 -0.061190862 0.058461722 0.10970217 -0.0007594965 -0.03405784
-0.0020415229 -0.08071542 0.014278646 0.16968112 -0.01701364 -0.022987984 0.009000872 0.12947996
00000000: 702e d5bd 5704 c4bd d778 1ebe ac1c 273e
00000010: fb5d 10be 82f1 97bc 6f29 323c 5eb7 87bd
00000020: 649d 30bd e9a6 0dbd 45de b43b ad08 dc3d
00000030: 29ec a8bd d53b d83b d431 b83b 5b17 97bb
00000040: 03b8 a73d f48c d63c d63d 303d 143e cf3d
00000050: a49e 263e 0342 07be 8e9a 61bb 8df5 bdbd
00000060: 8678 e83d 183f 203e dde9 0cbd 9d13 423d
00000070: 6dd2 653d 0190 8d3c 2045 a73d be12 cd3c
00000080: 5ea6 c83c 19de 4f3e 811c afbd 1d79 8ebb
00000090: 640b 8dbd 1302 c83d f22a 673d 7604 18bd
000000a0: cd86 95bd 56a0 df3d 71b3 843c e58e 1ebe
000000b0: dfc5 49bd 59e4 56be fde3 26be 46fd 313e
000000c0: dffb db3c 8128 00bb 2477 a43d 3527 f93b
000000d0: cc5d abbd 98a2 e23d 95c3 b93c ad9d 82bd
000000e0: d2b9 a2ba 748e 063d 6d88 c33b 8178 a4bd
000000f0: bc7f 0abe a2ec 7abc ec2c 213e 1210 363d
00000100: 2f80 71bd 80e7 1b3d ab6a fdbc 9fa8 c73d
00000110: 9705 adbd f5d4 ac3c a026 75bc 946f 88bd
00000120: 9cbb 853d 9c89 b53c b1c5 853d d8e5 a73d
00000130: ffe5 d3bc 865c 8ebd 4b39 7cbd 368b 5dbd
00000140: 0526 503b 9011 77be 4f36 983d 8495 333c
00000150: 10d1 e0bd bf20 023d 75da 0bbd 8152 dc3d
00000160: 9833 833d 0ea6 0b3e 2bc9 69bc d504 03bd
00000170: 0a9d 483d ceb1 a4bc ca29 68bc 0ca9 033d
00000180: 871d b7bd 8cc2 29bd 20b3 07bd a494 963d
00000190: 6a8a bdbc d747 38bc c4b5 d83c e15c b83d
000001a0: ca41 6b3d 10ef fe3a 0389 e13c 58ba 2fbe
000001b0: b7a3 dabb 4089 423e 99de 4a3e 3e7a b63d
000001c0: 3cfa 78bd 7520 b7bd 3d59 febb 93dd 2d3d
000001d0: 4676 4b3d ea84 09bd a50e 17bd 619c a93c
000001e0: 375c fabc e362 bbbc 29a7 583d 5bbd 50bd
000001f0: 13d7 33bd 5e0c e93d 6476 973d 1687 09be
00000200: e0b8 01be 8870 c63d 34b0 0f3d f8df 903d
00000210: 3724 c33d 7c2c c0bc 9130 b43d 6026 113d
00000220: 376a 44be d0a1 403d ab8c 50bd 671d be3c
00000230: 0c35 90bd 52a0 a2bd aa9c 8b3d 3d82 bcbd
00000240: 8218 33bd b027 c1bd deea 063e e72d cebd
00000250: eb57 8abe 7ecc d9bd 131f 8c3d 373b 1cbc
00000260: 227e c339 3a45 743d 1047 0e3d ef2e 0d3e
00000270: 9fdb a8bd eeef 2dbd d9b2 22bb d88f 9b3d
00000280: 8bf9 343d e3c6 86bd 9974 c4bd 6316 37bc
00000290: 581e 2c3c 7d4b c8bd 5d80 b93d 434c 49bb
000002a0: cf5b f03b cf17 d8bc 8fe5 203d ba9b 713d
000002b0: 811f b13a 16d6 c9bd 3bb7 883c e63f dabd
000002c0: d1b4 f93a 6d19 4e3e 7eea e6bc 6809 12bc
000002d0: 6d38 19bc fe97 653d 606a 02be 94fe 02bd
000002e0: a2ea 98bd c0b6 f2bd f82e d93d 9e7c de3c
000002f0: 6c24 15be e40d ad3d 48cb 2ebe ae80 f73b
00000300: ea70 053e 9e61 0abd 4ab4 273d 08cc c43d
00000310: 80a9 68bd f81b eb3d 0860 0cbd 1714 a23d
00000320: 1c23 11bc f7a8 d3bc 0d30 033e 7f25 0d3c
00000330: 3e4c da3d e59e d73d b909 81be aa0b b13d
00000340: 1ec0 98bd f3b9 193e 1987 343d 090a 8c3d
00000350: 8e1c babc 4a77 783c 4587 5fbd 6366 1cbd
00000360: d220 8bbc 7b01 f33d f357 d2bc ce94 2bbd
00000370: da3b c2bd 3554 1b3e 2aa3 0a3c 2604 0abd
00000380: e372 1b3e 8ec4 27be f1e0 45bd c85e 0c3c
00000390: 6b3e 5d3d 5844 a7bc 9633 23bd a599 44bb
000003a0: 74ee 073e 462e 343e 123b 90bd db0e 653d
000003b0: 6f6b c03d 3e35 043e 15d8 0b3e a6bd f03c
000003c0: 5567 23be 32f2 71bd efaf b23d 45a3 7abd
000003d0: 8f75 6f3d 88ab e03d f318 47ba 3c80 0bbd
000003e0: 12cb 05bb 204e a5bd fbf0 693c e3c0 2d3e
000003f0: 3060 8bbc 4c51 bcbc 6578 133c 6596 043e

network_body._body_endoder.seq_layers.2.bias f4 [142]
-0.007955045 0.001075881 0.0064303204 -0.00712834 0.009043365 -0.012138125 0.007893759 0.017075889
-0.014194979 0.023117738 -0.0059503852 -0.020693617 0.0083548315 0.0021066007 0.008147979 -0.010395129
0.00558185 0.01717528 0.008323664 -0.00032923414 0.0039181737 -0.00023928357 0.012531348 0.002256166
0.0059571452 0.01817124 -0.0023316797 -0.0018337043 0.00067240704 -0.013024182 0.015474411 -0.015143496
-0.0044835964 0.03543693 0.037726812 0.012406664 -0.014456544 0.012783219 0.014089639 -0.00899768
0.02015963 -0.008439095 0.008750855 0.005708052 -0.0018952729 0.027789678 0.020174349 0.0042517553
-0.0047354093 -0.015222237 0.027202027 -0.021475265 0.0012333856 0.031586044 -0.010229645 -0.0060881185
0.017715458 0.010621251 -0.013806187 -0.0036232395 -0.0046463977 0.006200372 0.018705787 0.014097978
-0.005549981 0.0041997395 0.016470803 0.014199764 0.013097633 0.009540139 -0.030946847 0.00015841277
0.01257812 -0.015530114 -0.009128497 -0.004729642 0.002477492 0.01316124 -0.013841442 0.0015839073
-0.00838688 -0.012297611 0.0028974223 -0.018120285 0.0045491215 -6.223708e-05 0.045621693 0.013907962
-0.04089001 -0.000614105 0.010442805 0.02979486 0.01861917 0.016019402 0.008809763 -0.013223316
0.0023766353 -0.00073815515 -0.0037170046 0.025679125 0.007148255 0.020978728 0.009254238 0.0024719618
0.023132564 0.023773722 0.005007762 0.011302076 0.018118134 -0.004829257 0.0043598716 -0.011814752
0.0057245586 -0.009202839 0.0017580572 0.014685701 0.029328337 -0.0010644333 0.008036501 0.022524573
0.008152162 0.010972511 0.005127366 0.003771186 -0.0031471609 -0.0005340392 0.013575584 0.001333665
-0.0016312752 -0.009614513 0.015651928 0.010409435 -0.022239469 0.009364517 0.02436909 -0.0060836407
0.014062444 -0.012971007 0.014889599 -0.016394978 -0.0006237243 0.014736959
00000000: e155 02bc 9304 8d3a 70b5 d23b da94 e9bb
00000010: 9f2a 143c fcde 46bc d354 013c bce2 8b3c
00000020: 0f92 68bc 6961 bd3c 73fb c2bb a985 a9bc
00000030: b4e2 083c e50e 0a3b 1a7f 053c 5550 2abc
00000040: f4e7 b63b 2cb3 8c3c fa5f 083c 0f9d acb9
00000050: 0664 803b 32e8 7ab9 4850 4d3c 2fdc 133b
00000060: 2834 c33b dadb 943c 18cf 18bb e858 f0ba
00000070: 7944 303a 6163 55bc 6288 7d3c 6d1c 78bc
00000080: 22eb 92bb 5026 113d 6e87 1a3d 5245 4b3c
00000090: 24db 6cbc b570 513c 3bd8 663c 016b 13bc
000000a0: cf25 a53c 2144 0abc bf5f 0f3c 9c0a bb3b
000000b0: ce6a f8ba 2ea7 e33c ad44 a53c 4f52 8b3b
000000c0: 7e2b 9bbb b166 79bc c9d6 de3c e5ec afbc
000000d0: 8ea9 a13a 5e60 013d 3e9a 27bc d77e c7bb
000000e0: 0220 913c c104 2e3c 5833 62bc df73 6dbb
000000f0: cf40 98bb 7d2c cb3b e13c 993c 35fb 663c
00000100: 9ddc b5bb f89d 893b c7ed 863c 20a6 683c
00000110: 7497 563c 3e4e 1c3c 3e84 fdbc 9b1b 2639
00000120: 7614 4e3c 0572 7ebc b18f 15bc 1dfb 9abb
00000130: 6b5d 223b 3ea2 573c 37c7 62bc 1c9b cf3a
00000140: 2069 09bc eb7b 49bc aee2 3d3b fe70 94bc
00000150: cc10 953b 4785 82b8 d0dd 3a3d 38de 633c
00000160: 487c 27bd e4fb 20ba 4c18 2b3c 5a14 f43c
00000170: 3b87 983c 1f3b 833c d356 103c 9ba6 58bc
00000180: 53c1 1b3b c180 41ba fd98 73bb 075d d23c
00000190: e93b ea3b 95db ab3c 169f 173c a300 223b
000001a0: 8180 bd3c 1cc1 c23c 2718 a43b 582c 393c
000001b0: 7b6c 943c be3e 9ebb 41dd 8e3b a992 41bc
000001c0: 1495 bb3b 81c7 16bc 9c6e e63a 4b9c 703c
000001d0: fb41 f03c 7484 8bba 87ab 033c 7485 b83c
000001e0: a590 053c 0cc6 333c 7703 a83b 0126 773b
000001f0: 9940 4ebb c4fe 0bba 206c 5e3c 5fce ae3a
00000200: 83d0 d5ba 3186 1dbc 7938 803c 568c 2a3c
00000210: 8c2f b6bc a26d 193c b0a1 c73c 4759 c7bb
00000220: 2a66 663c 5984 54bc 81f3 733c c34e 86bc
00000230: 6e81 23ba 4973 713c

action_model._discrete_distribution.branches.0.weight f4 [13, 142]
-0.029578242 -0.0008206112 0.022014828 -0.0015582492 0.03894571 -0.051502004 0.0446686 0.02759762
0.049821936 -0.021226102 -0.007706132 -0.028772162 0.017368445 -0.0011810646 -0.026238285 -0.0004549761
0.004926078 -0.045665372 0.01838427 -0.048183408 -0.06416789 -0.018467741 -0.012523968 0.042445954
-0.026252529 -0.017266406 0.0024609298 -0.0399995 0.011525623 -0.0051462967 -0.021546787 -0.012969468
0.020969976 -0.023206798 -0.012679559 -0.0061726705 0.01563349 -0.027634108 0.01781966 0.0128014125
0.023829784 -0.0017721376 -0.003591473 -0.039190803 -0.016504217 -0.018267035 -0.07884411 -0.026405465
-0.044142924 0.0045233164 -0.06324852 0.00014232287 0.011947075 0.02498566 -0.03160266 -0.0014973236
-0.020874223 0.02806051 -0.031643134 0.0031781797 0.019860247 -0.055175234 -0.03863171 -0.0314696
0.013599448 -0.0031925554 0.0042822706 0.026043491 -0.025466159 -0.03351545 0.03723702 -0.037971903
-0.025053613 -0.024570568 0.008305706 -0.0053603924 -0.0058909436 -0.001880312 0.023208946 -0.02952424
-0.008132528 -0.004687149 -0.030350937 -0.021375017 0.0037171193 0.014324323 -0.06455716 0.0035778538
0.012136198 -0.015908927 0.03426606 0.041996088 0.061869763 -0.057118174 -0.028491616 0.00971887
0.01994898 0.016276844 -0.0005224388 0.017324971 -0.036889803 -0.042935356 -0.031801738 0.011858232
-0.0015478316 -0.06005548 0.013533838 0.021040361 -0.022382604 -0.014898174 0.042496204 -0.027133068
-0.006301111 -0.024481354 0.010624294 -0.087369286 0.013248122 0.011964272 -0.0040391306 -0.017254269
-0.030941512 -0.005799416 -0.003259156 -0.05544422 0.00093786063 0.032425113 0.01920157 -0.016558757
-0.0127776535 -0.04121385 -0.012971182 0.0035271524 -0.015519977 -0.0778917 0.021796804 -0.032217603
-0.051881664 0.014635872 0.011272973 0.013560053 0.05411494 0.057568647 -0.035322133 0.028409746
-0.02459019 0.0020156372 -0.0034546936 -0.0021842753 -0.015139577 -0.021860024 -0.002801682 -0.049909793
0.020070152 0.016644286 -0.0046135173 -0.0089962 0.025945121 -0.003985746 0.014215079 0.0073802588
-0.018676417 -0.0072741215 -0.057571817 0.013391499 -0.03298973 0.041032508 0.0023446716 0.00013642739
-0.022602284 0.008098802 -0.018675484 0.024775311 -0.027995856 -0.033528835 -0.0011095982 0.0029536488
0.027358282 -0.007950189 0.035874262 -0.012589656 0.05449383 -0.00016249678 0.01823727 0.024028959
-0.0037518858 0.03292271 -0.03371904 -0.038956784 -0.06744796 0.02056646 0.04614458 0.011766253
-0.076785885 -0.013219376 0.02848403 0.044732727 -0.011015653 -0.00968682 -0.010130295 -0.03449884
0.030539427 -0.00042511267 0.01748383 -0.017256398 0.006916841 -0.031019876 0.0060215606 -0.016475651
-0.016900737 -0.012428059 -0.047352366 -0.032581594 0.016510135 -0.0021286951 0.008681399 0.00010650867
0.031391192 0.036289126 -0.013094277 0.027869094 0.009835639 0.012136887 -0.02201594 0.043642215
-0.010332404 0.026554152 0.024917087 0.06498306 0.03037129 -0.046839252 -0.025995864 0.0031733303
0.03366195 -0.0141509045 -0.029469794 -0.016953534 -0.00020326494 -0.016082676 -0.05339237 0.018611876
0.02157055 -0.019806692 -0.037130367 0.017642442 -0.0031401787 0.016361687 -0.04876623 0.014825585
-0.024330031 -0.004752351 -0.032324016 -0.008517145 -0.048384402 0.018914206 -0.026975982 0.03694097
00000000: 124e f2bc 491e 57ba 7158 b43c 2b3e ccba
00000010: 8985 1f3d c4f3 52bd 6cf6 363d 6714 e23c
00000020: 1612 4c3d 5de2 adbc b883 fcbb 99b3 ebbc
00000030: 4548 8e3c f4cd 9aba acf1 d6bc dc89 eeb9
00000040: f06a a13b 9d0b 3bbd 9c9a 963c f75b 45bd
00000050: 746a 83bd a949 97bc 5431 4dbc cfdb 2d3d
00000060: 8b0f d7bc 4772 8dbc 8d47 213b 84d6 23bd
00000070: f7d5 3c3c 44a2 a8bb e382 b0bc e47d 54bc
00000080: 3ac9 ab3c 2f1c bebc edbd 4fbc 1d44 cabb
00000090: ce11 803c ed60 e2bc 89fa 913c 04bd 513c
000000a0: ae36 c33c 1247 e8ba eb5e 6bbb 8986 20bd
000000b0: da33 87bc c0a4 95bc 0579 a1bd 4650 d8bc
000000c0: 36cf 34bd 5438 943b 7188 81bd 813c 1539
000000d0: aabd 433c baae cc3c ca71 01bd d841 c4ba
000000e0: 6b00 abbc 28df e53c 3b9c 01bd 0249 503b
000000f0: f5b1 a23c 6dff 61bd 493c 1ebd 44e6 00bd
00000100: 38d0 5e3c 313a 51bb 4a52 8c3b 2959 d53c
00000110: 689e d0bc 7f47 09bd d885 183d 6d88 1bbd
00000120: 3c3d cdbc 3748 c9bc a814 083c 3ba6 afbb
00000130: d108 c1bb cd74 f6ba b020 be3c d2dc f1bc
00000140: 4b3e 05bc a896 99bb 87a2 f8bc a91a afbc
00000150: ea9a 733b 91b0 6a3c 8b36 84bd 6d7a 6a3b
00000160: e7d6 463c 7053 82bc 915a 0c3d 1704 2c3d
00000170: 266b 7d3d bff4 69bd 4067 e9bc e53b 1f3c
00000180: 0b6c a33c 0457 853c 46f4 08ba 19ed 8d3c
00000190: c319 17bd fcdc 2fbd 8a42 02bd 0849 423c
000001a0: 9ce0 caba bcfc 75bd 08bd 5d3c d65c ac3c
000001b0: b95b b7bc 7917 74bc 8010 2e3d 2b46 debc
000001c0: 8d79 cebb 1f8d c8bc 8511 2e3c abee b2bd
000001d0: a70e 593c cb05 443c af5a 84bb d358 8dbc
000001e0: 0e79 fdbc 0709 bebb 9097 55bb 7a19 63bd
000001f0: c3da 753a 32d0 043d 9c4c 9d3c 3ba6 87bc
00000200: 5d59 51bc dbcf 28bd 1585 54bc cc27 673b
00000210: 8047 7ebc af85 9fbd 368f b23c 9bf6 03bd
00000220: de81 54bd 4ccb 6f3c 47b2 383c fc2a 5e3c
00000230: a1a7 5d3d 1acd 6b3d f1ad 10bd 8ebb e83c
00000240: 5e71 c9bc c818 043b 2468 62bb 0f26 0fbb
00000250: fd0b 78bc cb13 b3bc 6d9c 37bb 366e 4cbd
00000260: 296a a43c 9959 883c fd2c 97bb cc64 13bc
00000270: dd8a d43c dc9a 82bb 5de6 683c 19d6 f13b
00000280: 49ff 98bc c15b eebb 6dd0 6bbd 0568 5b3c
00000290: 3d20 07bd b411 283d 10a9 193b f30d 0f39
000002a0: 6d28 b9bc d6b0 043c 54fd 98bc 98f5 ca3c
000002b0: 9157 e5bc 8855 09bd f06f 91ba 0192 413b
000002c0: 7a1e e03c 8241 02bc e4f0 123d d844 4ebc
000002d0: ec34 5f3d e663 2ab9 5466 953c 61d8 c43c
000002e0: 33e2 75bb f7d9 063d fa1c 0abd 2691 1fbd
000002f0: 2822 8abd fe7a a83c 1902 3d3d 3ec7 403c
00000300: eb41 9dbd 1596 58bc 5757 e93c aa39 373d
00000310: ff7a 34bc 78b5 1ebc 89f9 25bc a84e 0dbd
00000320: d22d fa3c a8e1 deb9 403a 8f3c 4a5d 8dbc
00000330: aba6 e23b 651d febc 8350 c53b f2f7 86bc
00000340: 6a73 8abc 0f9f 4bbc 8ef4 41bd 4774 05bd
00000350: 4340 873c 9481 0bbb 6d3c 0e3c 685d df38
00000360: 0d94 003d e8a3 143d 6189 56bc ba4d e43c
00000370: a925 213c cbd9 463c c65a b4bc 2ec2 323d
00000380: 3e49 29bc 1888 d93c eb1e cc3c d715 853d
00000390: 36cd f83c 84da 3fbd 47f5 d4bc a6f7 4f3b
000003a0: 1de1 093d 32d9 67bc a36a f1bc 23e2 8abc
000003b0: 8423 55b9 d1bf 83bc f5b1 5abd ef77 983c
000003c0: b9b4 b03c a541 a2bc 0316 18bd e286 903c
000003d0: 75cb 4dbb f208 863c 19bf 47bd 03e7 723c
000003e0: c64f c7bc 9cb9 9bbb 3066 04bd 7f8b 0bbc
000003f0: b92e 46bd f7f1 9a3c bcfc dcbc 6a4f 173d

action_model._discrete_distribution.branches.0.bias f4 [13]
-0.022791231 0.010461422 -0.017731609 -0.0006431745 -0.005380165 0.026481858 0.026577422 0.025226763
-0.054421227 -0.020598458 0.020236768 0.004583426 -0.0014047641
00000000: adb4 babc 6266 2b3c e141 91bc b69a 28ba
00000010: 184c b0bb 7bf0 d83c e5b8 d93c 5ba8 ce3c
00000020: cbe8 5ebd 19be a8bc 94c7 a53c 9030 963b
00000030: 1020 b8ba

action_model._discrete_distribution.branches.1.weight f4 [13, 142]
0.007861924 -0.025020787 -0.01712475 -0.036860216 -0.025288275 0.006213246 -0.021068761 0.008967807
0.002278984 0.026567796 0.0028482142 0.035383347 -0.016820004 -0.011279481 -0.047713935 -0.014919479
-0.015370982 -0.028093128 -0.00905853 -0.012403485 0.0029707337 -0.040818002 -0.020860584 -0.028521566
-0.01890551 -0.019114124 -0.03747312 -0.024291119 -0.013639233 -0.023291595 -0.049097065 -0.021143591
0.022798372 -0.04234954 -0.053329263 0.009978924 -0.017811693 -0.0024869088 -0.02496971 -0.010263846
0.0086244065 -0.015042723 0.022138668 -0.022748629 -0.015530487 0.00012123638 -0.027944567 -0.012391908
-0.02349469 -0.0006460081 -0.015820378 0.029769102 -0.049283635 -0.014078878 0.013400588 -0.03763461
0.0022968214 -0.031234853 -0.00088007626 -0.040065445 -0.014708509 -0.03554014 -0.030557245 -0.023394123
-0.0038543998 -0.013546003 -0.025022099 0.013929425 -0.0051378636 -0.017463319 -0.0079558 0.016144767
0.010127401 0.0010430152 -0.024241919 0.007969489 -0.019040463 -0.04909013 0.03153872 -0.024432212
-0.005691403 -0.015735323 -0.018568259 -0.010682543 -0.023321267 -0.054490555 -0.017607732 -0.012535777
0.004155969 -0.025575856 -0.022151016 -0.02919458 0.0056194197 0.0042647966 -0.0017983152 -0.027830297
-0.019063354 0.013153673 -0.025864745 -0.025073824 -0.022281945 -0.017197683 0.0345599 -0.014341894
-0.051254746 0.023883922 0.0035573414 -0.0010613877 -0.023202939 -0.021408899 -0.025437571 0.014876425
0.0010674496 -0.036736675 0.005295337 -0.03708657 -0.023737496 -0.015606792 -0.033184785 -0.02552877
-0.012234029 0.015714882 0.026927568 -0.0039033454 0.0038223315 -0.010808718 0.0035461157 -0.029980252
-0.023205942 0.010520649 -0.028429803 -0.033451956 -0.03231052 -0.04212978 -0.012432009 -0.058943726
-0.00699628 -0.030493068 -0.014965639 0.0110753765 -0.00018316186 0.0050128987 0.044656627 -0.0052858302
0.010038781 0.04213505 0.036065053 0.033674598 0.008359728 0.02250336 -0.016130814 -0.01951556
0.053296726 0.028475499 0.013430836 0.04232837 0.019512929 0.04731176 0.014864361 -0.019588845
0.029520098 0.025219183 0.040671304 0.021116203 0.04151105 -0.007829844 0.060864393 -0.009961107
0.04658861 0.058815382 0.006511699 0.026766945 0.049352184 0.011050484 0.0015114078 0.07876465
0.025851902 0.03693951 -0.022730399 -0.010439174 -0.020704165 0.048364542 0.012297498 0.018986259
-0.0488512 8.712095e-05 0.07526644 0.002140469 0.038977735 0.06733589 0.044159997 0.038860247
-0.022102492 -0.0064138845 0.028706988 0.026208004 0.045662478 0.050018508 -0.031379722 0.029925972
0.05692636 -0.020967437 0.06698271 0.09289985 0.079499066 0.07375063 0.0033435202 0.031800177
0.019091114 -0.008584513 0.0106743835 0.05049823 0.0010904483 0.022071017 -0.0056701857 -0.014125876
0.014722475 -0.07874238 0.0030201788 -0.045629926 -0.06674469 0.01621524 0.05324768 -0.030579591
0.021939674 0.059195418 0.032895945 -0.043512765 0.010298186 0.017343896 -0.010543994 0.025500402
0.016161613 0.0056748693 -0.00014790134 0.03914763 0.088629015 0.010835742 0.028930385 0.027796617
0.050777145 -0.025049172 0.004002524 0.088933095 0.042607907 0.028549151 0.00037535824 0.0016546638
0.08048661 0.0070346366 -0.014413769 0.035929736 -0.032865822 -0.02612315 0.03107632 -0.033331797
00000000: 4dcf 003c 65f8 ccbc 3449 8cbc bdfa 16bd
00000010: 5b29 cfbc 7c98 cb3b 6598 acbc b5ed 123c
00000020: 025b 153b b5a4 d93c 1ba9 3a3b 21ee 103d
00000030: 1bca 89bc 93cd 38bc b06f 43bd d570 74bc
00000040: 92d6 7bbc 8f23 e6bc 3b6a 14bc fd37 4bbc
00000050: a4b0 423b c730 27bd d1e3 aabc 0fa6 e9bc
00000060: badf 9abc 3995 9cbc 6a7d 19bd 2bfe c6bc
00000070: 1777 5fbc 04ce bebc 011a 49bd 5335 adbc
00000080: a7c3 ba3c b676 2dbd c96f 5abd a47e 233c
00000090: d4e9 91bc 68fb 22bb 478d ccbc b129 28bc
000000a0: 624d 0d3c c175 76bc 275c b53c 555b babc
000000b0: 9573 7ebc 4940 fe38 01ec e4bc 6e07 4bbc
000000c0: f077 c0bc df58 29ba bd99 81bc 55de f33c
000000d0: a3dd 49bd 18ab 66bc 248e 5b3c c026 1abd
000000e0: 4586 163b 3ce0 ffbc ebb4 66ba aa1b 24bd
000000f0: f5fb 70bc 8a92 11bd 3053 fabc 08a5 bfbc
00000100: 199a 7cbb 0ef0 5dbc 25fb ccbc 3e38 643c
00000110: 865b a8bb 3c0f 8fbc 0b59 02bc 0842 843c
00000120: 66ed 253c c8b5 883a fd96 c6bc 7692 023c
00000130: bffa 9bbc bb12 49bd bf2e 013d 1026 c8bc
00000140: f37e babb 5de7 80bc 761c 98bc d505 2fbc
00000150: 3e0c bfbc 7d31 5fbd 173e 90bc dc62 4dbc
00000160: cb2e 883b 7584 d1bc 0c76 b5bc 7929 efbc
00000170: 1c23 b83b b5bf 8b3b 72b5 ebba 5dfc e3bc
00000180: c02a 9cbc 8182 573c 4de2 d3bc 9f67 cdbc
00000190: a088 b6bc 28e2 8cbc af8e 0d3d 43fa 6abc
000001a0: 7ff0 51bd 37a8 c33c 4922 693b 431e 8bba
000001b0: 1714 bebc b761 afbc 7462 d0bc 40bc 733c
000001c0: aae9 8b3a 3279 16bd 8284 ad3b 16e8 17bd
000001d0: 2375 c2bc a1b3 7fbc c5ec 07bd b621 d1bc
000001e0: 3d71 48bc 7fbc 803c 3497 dc3c 45cf 7fbb
000001f0: 1580 7a3b 0d17 31bc f365 683b 2599 f5bc
00000200: 631a bebc cd5e 2c3c 9ee5 e8bc eb04 09bd
00000210: 0958 04bd 4790 2cbd a0af 4bbc fa6e 71bd
00000220: 0d41 e5bb 99cc f9bc 7132 75bc 7f75 353c
00000230: 230f 40b9 3e43 a43b dee9 363d c234 adbb
00000240: b379 243c cd95 2c3d f3b8 133d 60ee 093d
00000250: 3ef7 083c f758 b83c c524 84bc 18df 9fbc
00000260: ab4d 5a3d 7345 e93c 020d 5c3c 8360 2d3d
00000270: 94d9 9f3c fac9 413d a689 733c c978 a0bc
00000280: 22d4 f13c 7698 ce3c f496 263d e3fb ac3c
00000290: 7e07 2a3d bf48 00bc f14c 793d e933 23bc
000002a0: b3d3 3e3d 66e8 703d 1760 d53b 5a46 db3c
000002b0: 8425 4a3d 170d 353c 6e1a c63a 5c4f a13d
000002c0: 5ec7 d33c e24d 173d 1a35 babc 1209 2bbc
000002d0: c89b a9bc e619 463d 727b 493c 1289 9b3c
000002e0: 3218 48bd b4b4 b638 4b25 9a3d 1c47 0c3b
000002f0: 1ea7 1f3d 66e7 893d 1de1 343d ec2b 1f3d
00000300: 4910 b5bc 902b d2bb eb2a eb3c 2bb2 d63c
00000310: 9408 3b3d 35e0 4c3d 0688 00bd 5027 f53c
00000320: 9d2b 693d e7c3 abbc 3b2e 893d 4742 be3d
00000330: 68d0 a23d 920a 973d f61e 5b3b e740 023d
00000340: f864 9c3c 0fa6 0cbc 9ce3 2e3c 3bd7 4e3d
00000350: 60ed 8e3a 47ce b43c f7cc b9bb 3870 67bc
00000360: 8936 713c af43 a1bd 31ee 453b 72e6 3abd
00000370: 71b1 88bd d3d5 843c 3d1a 5a3d 0d82 fabc
00000380: d5ba b33c e576 723d e6bd 063d 713a 32bd
00000390: b9b9 283c c914 8e3c b7c0 2cbc 38e6 d03c
000003a0: 5c65 843c 41f4 b93b f715 1bb9 4459 203d
000003b0: 2183 b53d 6588 313c 6aff ec3c bbb5 e33c
000003c0: b2fb 4f3d ec33 cdbc 9b27 833b 8e22 b63d
000003d0: a185 2e3d e9df e93c bbcb c439 4ee1 d83a
000003e0: 2ad6 a43d cf82 e63b bb27 6cbc 0f2b 133d
000003f0: 509e 06bd 3700 d6bc c493 fe3c ec86 08bd

action_model._discrete_distribution.branches.1.bias f4 [13]
-0.015635073 0.024680123 -0.006470665 0.000450664 -0.04102015 0.024327766 0.03278119 0.001953376
-0.0063953088 -0.0045944927 -0.04685186 0.017304752 0.015821427
00000000: 2015 80bc f82d ca3c df07 d4bb 1947 ec39
00000010: bf04 28bd 064b c73c 9245 063d 3604 003b
00000020: bd8f d1bb 668d 96bb bce7 3fbd b2c2 8d3c
00000030: f09b 813c

action_model._discrete_distribution.branches.2.weight f4 [13, 142]
0.004739756 -0.018716622 -0.010562387 -0.013022123 -0.0033841573 -0.05385438 -0.036122557 0.040523425
0.07818598 -0.041279387 -0.06209964 0.019853106 -0.0005517917 -0.032292094 -0.077843 -0.014237805
-0.046473775 -0.06741194 -0.082862824 -0.0046068584 -0.05947515 -0.014265276 0.0074670403 0.02740205
-0.011614892 -0.02063346 -0.013431686 -0.016292546 -0.060917508 -0.0138309 -0.08676521 -0.006175498
0.028504739 -0.022953842 -0.05750709 -0.03562403 -0.016066952 -0.05751334 0.0059851985 0.012148075
-0.017852208 0.00018656987 -0.010092266 -0.040502924 0.006555942 0.032661676 -0.015067476 -0.053694975
-0.07566244 -0.026678374 -0.06620178 0.065871984 -0.06376098 -0.026384937 0.00079401734 -0.02029661
-0.0377581 -0.030987145 -0.017063383 -0.021286612 8.27131e-05 -0.074495025 0.04026517 -0.0068173134
0.005940497 -0.02588824 -0.054340683 0.012652449 -0.054347128 -0.009559367 0.007086701 0.009293971
-0.06390199 -0.01330767 -0.024408622 0.045359835 -0.028764978 -0.0075756144 0.0036207414 -0.045865893
-0.069234475 0.0020460356 -0.015472525 -0.0041707903 -0.1008809 0.0053985375 -0.09278279 -0.007456949
0.0015806396 0.022384483 0.014508369 -0.0115985675 -0.040947996 -0.015802313 -0.044008527 -0.050947107
-0.009655709 0.01857363 -0.019751754 -0.044569045 0.048392743 -0.030246044 -0.040243123 -0.0026174996
-0.016020523 0.008739818 -0.020204738 -0.038592327 -0.0205883 -0.020640602 -0.047569472 0.013885562
-0.022236465 0.004882937 -0.025634449 -0.038236678 -0.023620753 -0.047978435 -0.011513109 0.024498347
-0.04840674 0.019856468 -0.015453711 -0.046634294 0.004735817 -0.03223842 -0.044415355 -0.015093762
0.00284807 -0.030668011 -0.014447458 -0.005241741 -0.022003258 -0.053832747 0.035584338 -0.030913142
-0.07805254 0.012604723 -0.025572479 0.008856665 -0.03430581 -0.0041114003 -0.0036276001 -0.0058840383
-0.022255557 -0.019246845 -0.003422287 0.0065605785 -0.054452993 0.024566775 -0.057211705 0.05813559
0.045144 0.04463694 0.039095834 -0.013129439 0.032906882 0.011148665 0.05373628 0.070394866
0.02052373 -0.030115508 -0.008831946 0.046581585 -0.026937496 0.018720517 0.0032883952 0.056748345
-0.020313794 0.0178717 -0.024717003 -0.0035515 -0.014453385 0.008266101 0.0500942 -0.0021335348
-0.014038156 0.008056821 0.025673058 -0.0062919473 -0.018885149 0.012953347 0.029944114 -0.018878838
-0.014758315 0.06660451 -0.010711692 -0.031520054 -0.007863916 0.016957222 0.017370483 -0.03528873
0.06445563 -0.018480433 0.002300268 0.0790819 -0.025917966 -0.002451862 0.023575302 0.01068596
0.0053914823 0.0636135 -0.0110098 -0.023806617 -0.019562956 -0.07588599 0.035895344 -0.0026791445
-0.014706636 0.048408672 0.019980922 0.017277032 0.004628848 0.011512767 0.06313854 -0.051659897
0.008622102 0.0012127351 -0.02351184 0.016437033 -0.0072760503 0.01800193 -0.04085387 0.05364213
-0.008610978 0.013371363 0.01477123 0.0627683 -0.0029870786 -0.012577702 -0.00756114 -0.0087211635
0.0075852424 0.012197069 -0.0008784362 0.0209747 0.005073173 -0.007726743 0.010044565 0.019752935
-0.053495884 0.09313481 -0.033698764 -0.034496725 0.03651754 -0.034583278 0.009399958 0.013001066
0.014256284 -0.0049322033 0.032662045 -0.025569087 0.0058733486 -0.028049843 0.059544053 0.017128956
00000000: f54f 9b3b 9a53 99bc dd0d 2dbc be5a 55bc
00000010: bdc8 5dbb 6996 5cbd 3ff5 13bd e4fb 253d
00000020: f91f a03d 9314 29bd 315c 7ebd fba2 a23c
00000030: 1da6 10ba b744 04bd 276c 9fbd af45 69bc
00000040: 495b 3ebd 450f 8abd fcb3 a9bd 21f5 96bb
00000050: 379c 73bd e7b8 69bc 13ae f43b 447a e03c
00000060: 634c 3ebc 8007 a9bc 9310 5cbc f277 85bc
00000070: a384 79bd 009b 62bc f5b1 b1bd d55b cabb
00000080: c582 e93c b209 bcbc 8e8c 6bbd 81ea 11bd
00000090: d79e 83bc 1c93 6bbd 7c1f c43b b808 473c
000000a0: cb3e 92bc f8a1 4339 085a 25bc 65e6 25bd
000000b0: 3ad3 d63b 40c8 053d 93dd 76bc 43ef 5bbd
000000c0: e9f4 9abd 9b8c dabc cd94 87bd e4e7 863d
000000d0: 1e95 82bd 3925 d8bc 9a25 503a 1445 a6bc
000000e0: 3da8 1abd c1d8 fdbc 82c8 8bbc 4361 aebc
000000f0: 4276 ad38 d990 98bd 17ed 243d c563 dfbb
00000100: 80a8 c23b 9313 d4bc 5694 5ebd 384c 4f3c
00000110: 189b 5ebd e49e 1cbc 8f37 e83b bd45 183c
00000120: 0cdf 82bd 6a08 5abc 97f4 c7bc 3ccb 393d
00000130: 88a4 ebbc dc3c f8bb f649 6d3b e0dd 3bbd
00000140: ceca 8dbd c816 063b 7980 7dbc 20ab 88bb
00000150: a59a cebd 37e6 b03b e704 bebd 6c59 f4bb
00000160: 772d cf3a aa5f b73c 83b4 6d3c eb07 3ebc
00000170: 16b9 27bd da73 81bc 4942 34bd eaad 50bd
00000180: fb32 1ebc ba27 983c 6ece a1bc 088e 36bd
00000190: 7837 463d 8dc6 f7bc f9d5 24bd 5b8a 2bbb
000001a0: 793d 83bc 7431 0f3c 6884 a5bc fd12 1ebd
000001b0: cba8 a8bc 7b16 a9bc 35d8 42bd 4580 633c
000001c0: 3f29 b6bc 0b01 a03b 56ff d1bc 109e 1cbd
000001d0: 4f80 c1bc 0985 44bd 7ba1 3cbc c2b0 c83c
000001e0: 2546 46bd 08aa a23c 9031 7dbc 9a03 3fbd
000001f0: ea2e 9b3b 6f0c 04bd e0ec 35bd d44b 77bc
00000200: b0a6 3a3b 7b3b fbbc 08b5 6cbc e9c2 abbb
00000210: 2d40 b4bc ba7f 5cbd e2c0 113d 8f3d fdbc
00000220: 03da 9fbd 0a84 4e3c 607d d1bc 8c1b 113c
00000230: 4084 0cbd edb8 86bb 08bd 6dbb e4ce c0bb
00000240: 4951 b6bc 8fab 9dbc 7348 60bb 1ffa d63b
00000250: 1a0a 5fbd 4340 c93c d256 6abd 961f 6e3d
00000260: eae8 383d 39d5 363d f422 203d dc1c 57bc
00000270: 5ec9 063d e4a8 363c 931a 5c3d 2f2b 903d
00000280: 6221 a83c ccb4 f6bc deb3 10bc 55cc 3e3d
00000290: 06ac dcbc c55b 993c 1e82 573b f470 683d
000002a0: 1d69 a6bc ac67 923c 507b cabc 48c0 68bb
000002b0: e4cd 6cbc 8a6e 073c 932f 4d3d c6d2 0bbb
000002c0: 4b00 66bc c200 043c 4e50 d23c ae2c cebb
000002d0: 07b5 9abc 463a 543c 5c4d f53c cba7 9abc
000002e0: dccc 71bc f267 883d 1880 2fbc 2c1b 01bd
000002f0: a8d7 00bc dfe9 8a3c 8b4c 8e3c ea8a 10bd
00000300: 5001 843d 4764 97bc 18c0 163b b1f5 a13d
00000310: ea51 d4bc 6baf 20bb fe20 c13c 2a14 2f3c
00000320: 08ab b03b cb47 823d 7362 34bc 1806 c3bc
00000330: 7e42 a0bc 1d6a 9bbd ff06 133d 9694 2fbb
00000340: 1af4 70bc 2c48 463d 08af a33c 9088 8d3c
00000350: 97ad 973b 0ba0 3c3c c74e 813d 5499 53bd
00000360: b843 0d3c a3f4 9e3a e79b c0bc f5a6 863c
00000370: ef6b eebb c978 933c 6356 27bd dab7 5b3d
00000380: 0f15 0dbc 9013 5b3c 0703 723c ab8c 803d
00000390: ddc2 43bb b512 4ebc 71c3 f7bb 36e3 0ebc
000003a0: a08d f83b 37d6 473c db46 66ba 22d3 ab3c
000003b0: dc3c a63b 9e30 fdbb f691 243c e8d0 a13c
000003c0: 801e 5bbd 77bd be3d b707 0abd 704c 0dbd
000003d0: 6b93 153d 32a7 0dbd 4802 1a3c 6c02 553c
000003e0: 3093 693c 529e a1bb a3c8 053d 4376 d1bc
000003f0: 3875 c03b c9c8 e5bc 77e4 733d 0652 8c3c

action_model._discrete_distribution.branches.2.bias f4 [13]
-0.045214742 0.041971453 0.023909522 -0.031026585 -0.0114672985 -0.003974035 -0.007019778 0.040586483
-0.028150775 0.0053902897 0.008139662 -0.01607745 -0.013956251
00000000: 1833 39bd 42ea 2b3d e7dd c33c 772b febc
00000010: 56e1 3bbc 9f38 82bb 2a06 e6bb 033e 263d
00000020: 749c e6bc 07a1 b03b 385c 053c dbb4 83bc
00000030: c2a8 64bc

action_model._discrete_distribution.branches.3.weight f4 [13, 142]
-0.00022234683 0.014900228 -0.017295966 -0.02821239 -0.0011582221 0.006025559 0.026288766 0.02238772
0.023947237 0.0065081897 0.02122686 -0.013103773 0.023283513 -0.013536018 0.022927605 0.010220873
-0.04097291 -0.03035238 -0.03521196 0.013310573 0.027512727 -0.0011521365 0.010608292 0.06440692
-0.0047336104 0.048983175 -0.002405886 7.847101e-05 -0.049232896 0.026705299 -0.011881775 -0.0019031609
-0.028942684 -0.0394582 0.041130465 -0.025909308 0.04053041 0.0044583543 -0.07435128 0.01574987
0.026314195 -0.02610891 0.05124456 -0.003111058 -0.019175641 -0.032512367 0.047090083 -0.024802867
0.034642212 -0.015761543 -0.051208276 -0.0037373803 -0.0060586566 0.012843262 0.044849724 0.054050364
-0.0182009 -0.003618767 0.027209055 0.025794346 -0.011111383 -0.06685918 -0.05420315 -0.02532208
-0.03778987 -0.030206697 -0.036866985 0.026801514 -0.0034489657 -0.012179483 0.018463328 -0.006756283
0.016273806 0.023153026 0.016181905 0.022274544 -0.025094694 0.004649144 0.051427558 0.00036681234
-0.009191379 0.07121986 0.0032728752 0.027616547 0.025149943 0.05240586 0.010036735 -0.036826417
-0.01154869 0.0018373635 0.057403583 -0.05710736 0.03187816 -0.0004083884 0.0371298 0.018362768
0.0022044308 -0.005959111 -0.012168658 -0.0329385 -0.05648551 -0.03847213 -0.0026963768 0.020015763
0.029984258 -0.025532221 -0.028833112 0.03722888 0.0100712385 -0.00062270666 0.013390571 0.060202945
0.06789277 -0.05633795 0.009687903 -0.022718769 0.021577425 -0.0031067568 0.009728526 -0.034315344
-0.017961852 0.028966283 0.027204996 -0.0062987246 -0.04848851 0.018350186 0.08324153 0.022423867
-0.015126103 0.014104115 -0.033542614 0.0036891187 0.0005796384 -0.0048005227 -0.044023685 -0.004557534
-0.0026951793 0.03107882 -0.0032842085 -0.02004725 0.011490452 -0.04504947 -0.0011124576 -0.036333993
-0.050349835 0.018800495 -0.016163 0.031328924 -0.020058872 -0.013715682 -0.0012961191 -0.0060589626
-0.05309205 0.00032398876 -0.03059684 -0.053609192 0.0049461066 0.009448996 0.022820126 0.04819913
-0.0666443 0.008903503 -0.0059903967 -0.0278279 -0.01620439 0.027651832 -0.012874226 0.05815858
-0.00964002 0.04790357 0.00049042836 -0.03834892 0.057496138 0.011214961 0.033032004 -0.012773148
-0.036476586 0.034306224 -0.028179746 -0.02644619 -0.0076965424 0.061815675 0.049118053 -0.0048097908
-0.015252188 0.038123276 -0.023406172 -0.012849298 -0.023120452 -0.008008808 -0.012970782 -0.0027542158
-0.025135877 0.0400884 -0.022283938 0.052936777 -0.05822816 -0.036544297 0.0754265 -0.060383867
0.0092429565 -0.006428081 -0.03361037 -0.06968864 -0.06657258 -0.069808915 -0.005858531 -0.02066748
0.008354523 -0.013356518 0.02856314 0.013945675 -0.005998045 0.038404256 0.009278337 0.008636722
-0.036617696 0.03271536 -0.021658115 0.054093856 -0.02599245 -0.03581833 -0.039747607 0.016972046
0.00068405736 0.019286022 -0.001066799 0.010278495 0.00747096 -0.023765553 -0.029501911 -0.0019929807
-0.0168454 0.0009528655 -0.026449235 0.016831582 -0.044143435 0.012181862 -0.03524354 -0.0033721332
0.010415976 0.028207103 -0.036309984 -0.020763453 0.0001524426 0.014520713 0.024062686 0.011931599
-0.008348302 -0.02116744 -0.005579374 0.005779101 -0.033064734 -0.0011180423 -0.049034614 0.052381437
00000000: c625 69b9 1620 743c 45b0 8dbc ac1d e7bc
00000010: 7ccf 97ba 0d72 c53b 8a5b d73c 7466 b73c
00000020: ff2c c43c a742 d53b f4e3 ad3c 35b1 56bc
00000030: 11bd be3c 2dc6 5dbc acd2 bb3c 7375 273c
00000040: 36d3 27bd 8ea5 f8bc 6b3a 10bd 9714 5a3c
00000050: 5f62 e13c 4903 97ba 67ce 2d3c c6e7 833d
00000060: 671c 9bbb 95a2 483d 12ac 1dbb cd90 a438
00000070: 6fa8 49bd 12c5 da3c c7ab 42bc 7c73 f9ba
00000080: 3519 edbc ec9e 21bd 6b78 283d c23f d4bc
00000090: 3703 263d 6317 923b 7c45 98bd df05 813c
000000a0: de90 d73c 5ae2 d5bc d1e5 513d e4e2 4bbb
000000b0: 3c16 9dbc b02b 05bd 88e1 403d 622f cbbc
000000c0: fee4 0d3d 5a1e 81bc c5bf 51bd d6ee 74bb
000000d0: b287 c6bb 8c6c 523c 58b4 373d ea63 5d3d
000000e0: 0e1a 95bc d628 6dbb 86e5 de3c aa4e d33c
000000f0: 850c 36bc 77ed 88bd 1f04 5ebd 4070 cfbc
00000100: 8dc9 1abd 0974 f7bc d601 17bd d98e db3c
00000110: 0b08 62bb 748c 47bc 6840 973c cf63 ddbb
00000120: a550 853c 6aab bd3c ea8f 843c 1b79 b63c
00000130: 6393 cdbc d957 983b b4a5 523d b850 c039
00000140: 7097 16bc b8db 913d bc7d 563b 193c e23c
00000150: 4107 ce3c 87a7 563d 1e71 243c 4cd7 16bd
00000160: b736 3dbc b0d3 f03a 0520 6b3d 68e9 69bd
00000170: ac92 023d f71c d6b9 6b15 183d 846d 963c
00000180: 3678 103b a544 c3bb 0d5f 47bc 85ea 06bd
00000190: 5a5d 67bd f494 1dbd b2b5 30bb 19f8 a33c
000001a0: 8ca1 f53c f328 d1bc 6b33 ecbc 4f7d 183d
000001b0: d601 253c 233d 23ba 2064 5b3c 5d97 763d
000001c0: 5d0b 8b3d 9fc2 66bd 03ba 1e3c b61c babc
000001d0: 24c3 b03c bb9a 4bbb 6564 1f3c 3f8e 0cbd
000001e0: bc24 93bc b34a ed3c 03dd de3c 8865 cebb
000001f0: e39b 46bd 2153 963c 897a aa3d 42b2 b73c
00000200: 79d3 77bc f214 673c fb63 09bd 24c5 713b
00000210: e0f2 173a b44d 9dbb 2e52 34bd 5e57 95bb
00000220: 9ba1 30bb 0299 fe3c e03b 57bb 213a a4bc
00000230: 7342 3c3c cb85 38bd e2cf 91ba f4d2 14bd
00000240: a13b 4ebd 7f03 9a3c 4568 84bc c252 003d
00000250: 8152 a4bc bdb7 60bc 8ae2 a9ba 438a c6bb
00000260: 0d77 59bd 09dd a939 39a6 fabc 5095 5bbd
00000270: f312 a23b f6cf 1a3c 46f1 ba3c 736c 453d
00000280: cf7c 88bd 00e0 113c 174b c4bb 56f7 e3bc
00000290: 12bf 84bc 1886 e23c 6bee 52bc b137 6e3d
000002a0: 2df1 1dbc 8936 443d 1790 003a c213 1dbd
000002b0: 1281 6b3d f5be 373c 914c 073d 7746 51bc
000002c0: 7968 15bd af84 0c3d 36d9 e6bc aea5 d8bc
000002d0: 4733 fcbb 6f32 7d3d 0330 493d 739b 9dbb
000002e0: 50e4 79bc 2727 1c3d 4dbe bfbc dd85 52bc
000002f0: 1a67 bdbc 6037 03bc 6783 54bc 1380 34bb
00000300: c1e9 cdbc bc33 243d ce8c b6bc 3cd4 583d
00000310: a780 6ebd 79af 15bd 3579 9a3d 1355 77bd
00000320: c56f 173c a7a2 d2bb 07ab 09bd ebb8 8ebd
00000330: 3457 88bd faf7 8ebd ecf8 bfbb d94e a9bc
00000340: 69e1 083c 4cd5 5abc 3ffd e93c 677c 643c
00000350: 408b c4bb c84d 1d3d 2a04 183c 0a81 0d3c
00000360: 70fc 15bd 8b00 063d 5c6c b1bc 8591 5d3d
00000370: 1eee d4bc 3eb6 12bd 63ce 22bd f608 8b3c
00000380: 5052 333a b8fd 9d3c d6d3 8bba 2267 283c
00000390: f4ce f43b faaf c2bc fead f1bc ab9c 02bb
000003a0: 5dff 89bc b9c9 793a 11ac d8bc 63e2 893c
000003b0: bfcf 34bd 6f96 473c 885b 10bd 02ff 5cbb
000003c0: c5a7 2a3c 9512 e73c c7b9 14bd 1e18 aabc
000003d0: 00d9 1f39 49e8 6d3c 1c1f c53c c17c 433c
000003e0: 51c7 08bc 5767 adbc 2ed3 b6bb 9d5e bd3b
000003f0: e36e 07bd 468b 92ba 85d8 48bd eb8d 563d

action_model._discrete_distribution.branches.3.bias f4 [13]
0.019582884 0.008851049 0.02353176 -0.0122440895 0.008891358 0.008232751 -0.04410598 -0.001411429
-0.024511741 0.010343111 0.019629488 0.0077911206 -0.03999991
00000000: 496c a03c fd03 113c adc5 c03c 6f9b 48bc
00000010: 0fad 113c a9e2 063c 79a8 34bd b3ff b8ba
00000020: d9cc c8bc 2776 293c 05ce a03c a84c ff3b
00000030: f2d6 23bd
