results/NewTwoAgents/BlackMLAgent/BlackMLAgent-5186.onnx (onnx, 151064 bytes, 15 tensors)

discrete_act_size_vector f4 [1, 5]
000000 00 00 00 41 00 00 00 41 00 00 00 41 00 00 00 41
       8.0 8.0 8.0 8.0
000010 00 00 a0 40
       5.0

network_body._body_endoder.seq_layers.0.weight f4 [142, 71]
000000 48 de 07 be 05 e9 7a bd b8 d7 44 3d 3a d9 42 bd
       -0.13268387 -0.06125738 0.048057288 -0.047570445
000010 3b f2 9f be f6 57 76 3d f4 e1 16 bc db d3 92 3e
       -0.31239495 0.06014248 -0.009209145 0.28677258
000020 47 37 49 3e 9f eb 3b bd bf 5c 05 3e 1a 8e a7 3c
       0.19649993 -0.045879003 0.13023661 0.020453501
000030 f0 38 d2 3d a0 cf fb 3d 33 7f c2 3d fa ca 9f bb
       0.10264766 0.12295461 0.094969176 -0.0048764916
000040 36 2d 2a 3e bc 70 96 bd f3 64 00 be ea b4 5d bd
       0.16618809 -0.07345721 -0.12538509 -0.05412761
000050 b8 7b d0 3c ce 78 9c bc 9e f4 af bd df 32 48 3e
       0.025449619 -0.019100573 -0.08591579 0.19550656
000060 05 7e 09 3e d8 ee 85 be 45 2e aa 3d e4 9d fe bd
       0.13426979 -0.26158786 0.083096065 -0.12432459
000070 49 66 95 3d a5 d1 42 be cf ba 26 3e e0 da 5c 3c
       0.072949 -0.19025286 0.162822 0.013479918
000080 25 78 09 bc 15 19 75 be 7f b8 0e 3e 53 d9 42 be
       -0.008390461 -0.2393535 0.13937567 -0.19028215
000090 fb 0f 0c 3e 0e 6c 6f 3d 67 af 1e b8 1b 1f 1e 3d
       0.13677971 0.05845266 -3.783349e-05 0.038603883
0000a0 1c 8d 14 bd 2e 96 be bc 79 49 8b bd 9f ea cd 3d
       -0.036267385 -0.02326497 -0.06801123 0.10054516
0000b0 ae 4f da 3d 91 f2 4f be 30 ee de 3c 9f 4f 4c 3e
       0.10659729 -0.20307375 0.027213186 0.19952248
0000c0 5f 6a 8f bd 8c 55 d9 bd 85 f5 d1 bd d1 f6 f6 bc
       -0.070027106 -0.1061202 -0.10251907 -0.030146988
0000d0 8a 8a b2 bd 09 62 16 3d 38 2d 0d 3e 24 c8 9e bb
       -0.087178305 0.036714587 0.13786781 -0.004845636
0000e0 c0 67 a3 3d e4 55 9a bd 97 e3 8d bd a3 b2 0b 3e
       0.07978773 -0.075359136 -0.06928175 0.13642363
0000f0 83 c7 04 3e da 7d 13 bd eb 26 e3 bd a9 fc 63 bd
       0.12966733 -0.036008693 -0.110914074 -0.055660877
000100 04 4f a0 3a ab d0 ec bd ad 6e 30 3e c8 b6 ff bc
       0.001223058 -0.11563238 0.1722972 -0.031215087
000110 8e ec c7 bb 40 53 23 bd 28 84 a3 3d a2 4c 11 3e
       -0.0061011976 -0.039874315 0.07984191 0.1418939
000120 2f a6 6c 3e 10 89 14 bb a3 62 05 be 84 fb 90 bd
       0.23110269 -0.0022664703 -0.13025908 -0.07079223
000130 ed 4f 23 bc ff a6 3c be eb cf 72 3e b5 e4 34 3c
       -0.009967786 -0.18423079 0.23712127 0.011040856
000140 9c 9c 76 3e 3e 7f af bd e4 44 dd bd 0f d9 91 3d
       0.24083179 -0.085691914 -0.108041555 0.07121479
000150 0c f8 03 bd 15 a8 db 3d 38 b2 d6 3d 2d 30 99 3d
       -0.032218978 0.107254185 0.10483211 0.07479892
000160 4b 56 f4 bc a3 38 a3 3d df 55 5e bd 3a 46 d8 3c
       -0.029826304 0.07969787 -0.05428111 0.026400674
000170 96 7a a1 bd c8 f4 3d 3e 77 53 27 3e 6a 09 ae 3d
       -0.078847095 0.18550408 0.16340433 0.08497889
000180 9c 57 d8 3d 30 cd fd 3d b9 9e 02 bc cb b1 97 bd
       0.10563585 0.12392652 -0.007972413 -0.07406958
000190 6f be 83 3d 80 82 eb 3d 5e 98 73 ba 10 c5 f8 3d
       0.06432807 0.114995 -0.0009292419 0.12146962
0001a0 d6 91 73 3d 49 30 e4 3c 58 aa d7 bd 3a 59 32 be
       0.059465252 0.027855055 -0.10530537 -0.1741685
0001b0 9b f6 54 3e 6b 0c cb bb e5 03 48 be c8 88 65 be
       0.20797198 -0.0061965487 -0.19532736 -0.22415459
0001c0 d5 03 45 be 53 6d b9 3d 04 e2 10 be dd 96 d9 ba
       -0.19239743 0.09054055 -0.14148718 -0.0016600747
0001d0 62 d2 8b 3d ab 37 87 be 2f 62 62 3e 10 79 2e 3e
       0.06827237 -0.2640966 0.22107767 0.17038369
0001e0 18 a6 47 3c bd 9c 9a bc 39 a4 82 3d 23 21 af 3d
       0.012185596 -0.018873567 0.06378979 0.08551242
0001f0 ce 16 29 3b f9 e8 84 bc 88 91 77 be 16 29 b8 bd
       0.0025800946 -0.016224371 -0.2417661 -0.089922115
000200 84 0c 41 be e0 5c 80 bd 34 10 47 be c9 97 5a 3d
       -0.1885243 -0.062677145 -0.19439775 0.05336741
000210 a1 cf 97 3d a7 67 a5 3c 6a 11 4b bc e8 7d 62 be
       0.07412649 0.020191027 -0.012394289 -0.22118342
000220 1b 91 d3 3d 4f 08 fd 3d 5d 6f fd bd 5a 35 a3 bc
       0.10330411 0.123551 -0.123747565 -0.019922901
000230 2b cc 99 3d 14 19 18 3d ff 65 19 3e 5b b9 e2 bd
       0.07509645 0.03713329 0.14980315 -0.1107051
000240 20 e6 76 3c f1 0e 61 3d 2b 12 ec bd 56 66 80 3e
       0.0150695145 0.05494589 -0.11526903 0.25078076
000250 4c 86 47 bd 2d 85 f0 bd 88 f3 3b bd 5b 0c 1d be
       -0.04871206 -0.11744151 -0.045886546 -0.15336744
000260 02 ba 59 3e 3a ee fe 3d b6 a2 de 3d 7d e5 92 3d
       0.21262363 0.12447782 0.108708784 0.07172678
000270 f0 7a 5f be 95 f4 ee bb 62 d0 55 bd 17 38 d6 bd
       -0.2182424 -0.00729234 -0.052200682 -0.10459917
000280 5f 7e 37 be 6b ba c6 bd 29 60 8b 3d 09 f3 a2 bb
       -0.179193 -0.09703525 0.068054505 -0.0049728197
000290 07 1f fc 3d dd ee b1 bc a9 87 83 bc a6 48 1d bd
       0.123106055 -0.021720344 -0.016055899 -0.03839936
0002a0 d0 52 3e be 68 62 bb bd 54 f1 3d 3e 54 66 33 3e
       -0.18586278 -0.09149629 0.1854909 0.17519504
0002b0 5a 78 29 be 3b ad 80 bd 9c a3 43 bd 03 c1 60 be
       -0.16549817 -0.06283041 -0.047763452 -0.21948628
0002c0 0f 5b 83 3e 39 18 61 3e cb 9d 98 bd e6 8e 9d bc
       0.2565541 0.21981896 -0.074519716 -0.019233178
0002d0 91 af 46 3e b7 0a 9e 3b 2c 6c b3 3c 8c 28 7d be
       0.19402911 0.0048230547 0.021902166 -0.24722499
0002e0 cc 37 6c 3e 97 1f 5c bd ce b7 1d bb 0f 96 56 bd
       0.2306816 -0.053741064 -0.0024065855 -0.0523892
0002f0 ce 7c af 3d 59 db 61 3d f9 e3 b7 bd ac 07 08 bd
       0.085687265 0.055140827 -0.08979029 -0.03321044
000300 a4 59 e3 3c 3b 4f 44 bd a8 e1 92 3d 5d a7 7a 3d
       0.027752705 -0.047927123 0.07171947 0.061194766
000310 c2 4c 4c 3e fa c2 64 3e 5f a4 ad bd 4a e7 54 be
       0.19951156 0.22340003 -0.08478617 -0.20791355
000320 00 dd f2 3d 2d e8 06 3d 58 e3 c4 bd da 8a 80 3d
       0.11858559 0.032936264 -0.09613675 0.06276484
000330 ed 70 4c 3e d5 f3 cc 3d d2 77 50 3a f0 5d f1 3d
       0.19964953 0.10007445 0.0007952425 0.11785495
000340 2f 67 13 be 35 25 56 be 81 1e f9 3c 48 39 29 bd
       -0.1439483 -0.20912631 0.030410053 -0.041314393
000350 c5 bc de 3e 39 fd 82 3d dd f8 a4 3d ef 2e 97 3d
       0.43503395 0.06395955 0.080552794 0.07381999
000360 0d d8 85 3e b6 70 2c bc b0 b9 14 be 47 d2 2a 3d
       0.26141396 -0.010524919 -0.14523959 0.041704442
000370 72 7c 71 3b 83 e4 2b 3d 40 0c a7 bd 50 fa 69 bc
       0.0036847857 0.041965973 -0.081566334 -0.014280871
000380 2a c5 9f be 98 d5 8b 3c 19 7f 0b bd 7f 4f ac bc
       -0.31205112 0.017069623 -0.034056757 -0.021034
000390 a0 28 b7 3d 11 43 88 be 4d eb 01 bd c0 18 9c bc
       0.089432955 -0.26613668 -0.03171854 -0.01905477
0003a0 14 ed 1f 3c 57 3f 93 3d 41 3e 91 3d 9a 21 18 be
       0.009761114 0.071898155 0.07091952 -0.14856568
0003b0 61 46 b2 bd a5 f3 5b bd 00 cc 26 be 85 25 52 bd
       -0.0870483 -0.053699154 -0.16288757 -0.051305313
0003c0 39 a4 7b be 61 eb 8e bd b6 71 22 be 39 90 41 3d
       -0.24574365 -0.06978489 -0.1586369 0.047256682
0003d0 75 98 40 bd 6f 34 00 be 80 28 1a be b8 a6 de bd
       -0.047020394 -0.12520002 -0.15054512 -0.10871643
0003e0 c9 51 0d be ea c3 98 3d 55 52 99 bb ea e2 b2 3d
       -0.1380073 0.07459243 -0.004679004 0.08734687
0003f0 eb 36 8e 3e 45 fb d4 bb b3 14 34 3e c5 31 17 3c
       0.27776274 -0.00649968 0.17586021 0.009228175

network_body._body_endoder.seq_layers.0.bias f4 [142]
000000 2f 6a 8e 3c f0 89 83 3c d1 a0 42 bc 35 f4 a0 bc
       0.017384617 0.016056985 -0.011879162 -0.019647697
000010 2a df 24 3d fd 7c 92 3c e5 96 3f 3d 7f 72 14 bc
       0.04025189 0.017881865 0.046774764 -0.009060501
000020 a0 2c 8b 3c 71 51 f0 3c 1a 39 81 3c 1d 8b 01 bc
       0.016989052 0.02933571 0.015774298 -0.007906702
000030 c9 2d 99 3c 29 27 a1 ba 26 2f 12 bc 60 b5 d1 3c
       0.01869859 -0.0012294996 -0.008922374 0.025599182
000040 16 f4 3d bc 32 ed 5c 3c d3 11 5e 3c 2c 40 6a bb
       -0.011593839 0.013484286 0.013554054 -0.0035743816
000050 ce 91 ed ba bc 10 24 3c 38 2a 60 3d 38 b2 b0 ba
       -0.0018125118 0.010013755 0.054727763 -0.0013480848
000060 cf 01 86 3c 51 a5 b5 3c 47 45 57 ba 76 d8 d6 bc
       0.016358284 0.022173556 -0.0008211922 -0.026226263
000070 2c fc 02 3d 8e 3f ee ba 6e dc 19 3c 6b 1a 12 3c
       0.03197877 -0.00181769 0.009390933 0.008917431
000080 16 b5 df 3b 55 65 fd bb f2 c3 89 3b 1b 03 b6 bc
       0.006827007 -0.007733027 0.0042042667 -0.022218278
000090 75 11 43 3d c0 46 dc 3c b0 f0 89 bc c4 5e e5 bb
       0.04762407 0.026889205 -0.016838402 -0.0069998223
0000a0 d6 60 ac 3c ff 70 a0 bc 96 56 83 3c 95 c9 9b ba
       0.021042269 -0.01958513 0.016032498 -0.0011885638
0000b0 69 c8 8f ba f0 78 b2 ba 9b 44 1d bc c6 98 b9 ba
       -0.0010969761 -0.0013616364 -0.009598876 -0.001415991
0000c0 ca bb d7 bb 2c e6 02 bb 86 e8 54 3c 34 d2 65 bc
       -0.0065836655 -0.001997362 0.012994891 -0.014027167
0000d0 aa 5d 6a bc e2 1c e4 bb 01 2f 64 3c 5f 86 c7 3c
       -0.014304558 -0.006961451 0.013927222 0.024356065
0000e0 03 8b 68 3c 73 ec 23 3d 46 cf cb bb fc df 33 3b
       0.014193299 0.040020417 -0.0062197773 0.0027446738
0000f0 b3 c5 64 bb b0 b0 e1 3c 10 8b 4f bc b2 ff d4 3c
       -0.0034907877 0.027550071 -0.012667432 0.026000831
000100 fe ed 1c 3d 5f c5 9e bc c1 24 d4 3c 3a 69 5f bc
       0.038312905 -0.019381223 0.025896432 -0.013635928
000110 6f fd 1e 3c 02 27 37 3d 85 be 77 bc 92 39 3a bc
       0.009703978 0.044714935 -0.015121107 -0.011366265
000120 ac 7d f1 3c 72 fc 3d 3c 7f 0b cf 3b a1 5c b8 3c
       0.02947887 0.011595832 0.006318509 0.022505106
000130 06 68 32 bc 3b 02 86 3b 44 bd 59 3c 53 a8 ec 3c
       -0.010889059 0.0040896214 0.013289753 0.028888857
000140 65 d8 a2 3c 9e d5 ad 3c d8 dd e5 3c 25 42 8e bc
       0.019878576 0.021220025 0.028059885 -0.017365525
000150 48 e3 74 bb 04 9f 6c bb ac 26 76 bc b3 7b d5 3c
       -0.0037366915 -0.0036105523 -0.0150238685 0.026059961
000160 cc b8 0a bc b0 c3 b4 3b 33 b1 24 3d 0a 87 cf 3c
       -0.008466911 0.005516492 0.040208053 0.025332946
000170 4e 9a ec 3c 09 f7 af 3c 68 3a 05 bc cb 9a fc 3c
       0.028882172 0.0214801 -0.008131601 0.03083553
000180 c6 bd 81 bb cd 61 28 3d 4a dc 21 bb 70 18 72 bc
       -0.0039593903 0.041108895 -0.0024697953 -0.014776334
000190 8d 59 01 3d 6f e4 42 3d ce 16 04 3c 1f 2f fa 3c
       0.031579543 0.047581133 0.008062078 0.030540047
0001a0 e5 1c 1c 3d 63 8a b5 3b 6b 16 f7 bb 15 7c f2 bb
       0.038113493 0.0055401786 -0.007540514 -0.0074000456
0001b0 7a 15 21 3c 0a 08 19 3d 46 f6 d4 bb a5 18 d5 bc
       0.009831781 0.037361182 -0.0064990846 -0.026012728
0001c0 f1 64 e1 3c ba 71 9e bb eb 59 ae 3c 7b 2b e6 3c
       0.027513953 -0.0048353346 0.02128311 0.028096905
0001d0 af 93 2b 3c 21 bd ad 3c 04 a6 2c 3d a7 e3 27 3c
       0.010472222 0.021208348 0.042150512 0.010247148
0001e0 e9 dd ea 3c 5d 93 13 bc 49 3b e5 3c 2a 8c 6a 3c
       0.028670268 -0.009007302 0.02798237 0.014315644
0001f0 89 00 fe 3c 55 fb 86 3c 72 0e 19 bc b4 76 e8 bb
       0.031006115 0.016477266 -0.009341823 -0.0070942286
000200 6c b9 88 3b 9a 92 21 3d 0c 42 b0 3c 89 c6 06 3d
       0.0041724946 0.03944645 0.021515869 0.03290418
000210 1e 82 0d 3c b2 80 51 ba 36 f3 c7 bb bc e9 ca 3c
       0.008636979 -0.00079918944 -0.006101991 0.024769656
000220 c5 52 8b 3c 29 b8 84 3c 82 67 75 bb bb 53 48 3c
       0.017007241 0.016201096 -0.0037445729 0.012226994
000230 5a fb 98 bc 84 ab b2 3c
       -0.018674541 0.0218103

network_body._body_endoder.seq_layers.2.weight f4 [142, 142]
000000 a3 43 5b 3d 38 12 55 3d 52 0e 8d 3d f9 a5 1a be
       0.0535313 0.052019328 0.06887497 -0.15102376
000010 f4 9d 13 bd 21 ff 35 bc e7 2d 98 3b 90 2f 91 bb
       -0.036039308 -0.011108191 0.004644144 -0.0044307187
000020 d5 d4 b4 bd f4 66 a0 bd 3b 35 a6 3d 6a 03 ca bd
       -0.08829657 -0.07832137 0.08115622 -0.098639324
000030 cf d9 39 3d b2 b7 0b 3d 02 a0 8e 3d 04 c7 c2 3d
       0.045373734 0.034110732 0.06964113 0.095106155
000040 43 0d 99 3d 9a d2 af 3c ac 31 83 3d d4 34 47 3e
       0.074732326 0.021462727 0.064059585 0.19453746
000050 c1 02 13 be 20 2f 26 be 98 b6 c5 3d e9 cc 01 3e
       -0.1435652 -0.16228914 0.096539676 0.12675823
000060 4d b5 82 bc 68 85 d7 bd 8c 80 86 3d 89 c5 1c bc
       -0.015955592 -0.10523492 0.06567487 -0.00956858
000070 96 3b 72 3d b8 85 08 bd 16 c9 32 be 29 bd cb bc
       0.059138857 -0.03333065 -0.1745952 -0.024870472
000080 6d e9 2b 3e 31 66 32 be 88 c1 4c be 66 e5 34 bd
       0.16788264 -0.17421795 -0.19995701 -0.044164084
000090 7f 62 57 3e 63 31 f3 3c b6 2a 07 3d 5f be d0 b9
       0.21033667 0.029686635 0.032999717 -0.0003981469
0000a0 7b 27 85 be ce cc 41 3c 18 aa 9a 3d c4 7e fe bb
       -0.26006684 0.011828614 0.07551974 -0.0077665765
0000b0 fb 6a ef bc 48 4f ae 3d ff 2b 39 3e 01 98 4a bd
       -0.029225817 0.085112154 0.1808319 -0.04946137
0000c0 40 f2 f5 3d f4 15 2f bd ba 79 22 3e 89 21 e5 3d
       0.12009096 -0.042745546 0.15866747 0.11188037
0000d0 f7 6d 7b 3d e8 e7 cf 3d e1 00 49 3c 08 3e 42 bc
       0.061384168 0.101516545 0.012268276 -0.01185561
0000e0 55 df 83 bb 32 a3 fa 3d aa 82 96 bd d9 97 b9 3d
       -0.004024426 0.12238158 -0.07349141 0.09062166
0000f0 8e e4 e9 bd a8 b3 3c 3d 5c ce 73 bd 6d ca d1 bd
       -0.114205465 0.04606977 -0.05952297 -0.10243688
000100 8c 55 ad 3d 26 95 b5 bd 78 50 8e 3b 88 9a 0f bd
       0.084635824 -0.088663384 0.0043430887 -0.03505948
000110 35 c9 a6 3c 78 b0 3a 3e b9 fc f0 3d 2a 87 34 bd
       0.020359615 0.1823138 0.11766953 -0.044074215
000120 a6 17 5f 3d d6 e2 b8 bd ba f0 5e bc 88 49 85 3d
       0.054465912 -0.090276405 -0.013607198 0.065081656
000130 6e fd 41 be 68 15 8f 3d 83 96 42 bd ce f5 89 bc
       -0.18944332 0.06986505 -0.04750682 -0.016840842
000140 e3 ab df bd a4 18 05 3e 5b 30 b0 3d 48 76 ae bd
       -0.10921457 0.12997681 0.08602973 -0.08518654
000150 85 3c 13 be 0d a5 2b bc 39 fb bb 3d 3c 0f 31 3d
       -0.14378555 -0.010476363 0.09178776 0.04322742
000160 7b fe 73 3d 9e 66 15 3d 9e c8 63 3d 88 7a 96 bd
       0.059568863 0.036474817 0.055611245 -0.0734759
000170 6f a8 2f bc 78 2c 14 bc d6 90 55 3d 0d 41 4f 3c
       -0.01072131 -0.009043805 0.05214008 0.012649787
000180 ec 2d 5d be 70 3b 3f 3d 0a 6e 4b bd fd a3 eb 3d
       -0.21599549 0.046687543 -0.04966549 0.11505888
000190 11 a9 0a ba 8e e6 d9 3b 8d a6 29 3e c1 c2 fb 3d
       -0.0005289475 0.0066497987 0.1656744 0.12293006
0001a0 07 21 da 3c 0d 44 fc bc d2 1f 88 bc 32 70 cc bd
       0.026627077 -0.030794168 -0.016616736 -0.09982337
0001b0 4a c0 f5 3d fb 9e a7 bc 6d 61 6e 3d 11 60 bd 3d
       0.11999567 -0.02046155 0.05819838 0.09246839
0001c0 58 bb c4 3c a2 fa 6a bd 90 ea bf bd 39 40 36 3e
       0.024015114 -0.05736793 -0.09370911 0.17797936
0001d0 ad 23 1a bd 07 04 18 3e 31 02 89 3d bc 1a 88 bd
       -0.03763168 0.14845286 0.06689871 -0.06645724
0001e0 b4 4f e8 bb 77 bf 92 bd be e8 0d 3e 5e 4a 7c 3d
       -0.0070895795 -0.07165425 0.13858315 0.06159436
0001f0 cd e3 ed bc b9 d1 a8 bd 94 b7 14 3e 16 1a 47 3c
       -0.029039288 -0.082431264 0.14523154 0.0121522155
000200 d9 96 ee 3d 7e 0d 1d 3d f3 fb 36 bd 14 cd 85 3d
       0.11649866 0.038342945 -0.04467387 0.06533256
000210 aa 52 6a 3d b8 44 51 3d a6 a8 96 bd 24 25 bc 3d
       0.05720774 0.051090926 -0.07356386 0.091867715
000220 ba a6 c1 bc cb 98 ad 3d 00 80 1d 3d 49 7f cc 3d
       -0.023639072 0.084764086 0.03845215 0.09985215
000230 be da 1b be 59 64 5c 3d 5c 18 94 bd 0a 9a 46 bd
       -0.15220162 0.053806636 -0.07231209 -0.048486747
000240 e6 94 b9 3d 30 c6 76 3c 83 d9 4c 3d a4 30 45 bc
       0.09061603 0.0150619 0.050012123 -0.012035523
000250 23 62 27 bd 65 a6 fc ba 89 25 6c 3d 3b e9 79 bd
       -0.040865075 -0.0019275664 0.057652984 -0.06101344
000260 17 b6 2b 3c 5e 2b 83 bc 10 82 e0 bd 95 c8 2e 3d
       0.010480425 -0.01601189 -0.109623075 0.04267176
000270 fc bf f4 3d 44 58 a2 3c d3 5c 8d 3c 86 f4 27 bc
       0.119506806 0.019817479 0.017256176 -0.01025117
000280 cf 4b 54 3c 72 2f d9 bd 86 7f 4e 3d e0 d8 0f 3e
       0.012957527 -0.106047526 0.050414585 0.14047575
000290 08 7c fe 3d 64 6d 62 bb f9 d7 99 3d 03 2b a1 bd
       0.12426001 -0.0034550065 0.07511897 -0.07869532
0002a0 49 dc 35 bc 4d 4c cd bd b6 11 07 3e ec 44 42 bb
       -0.011099883 -0.10024319 0.1319035 -0.0029643131
0002b0 66 7a 6e 3d 56 00 26 be c4 94 35 bd ac 11 4f bc
       0.058222197 -0.16211066 -0.044331327 -0.012638491
0002c0 5f bb 3a 3d 52 39 05 be b2 93 f3 3d a3 08 de ba
       0.045588847 -0.13010147 0.11893405 -0.001693983
0002d0 8b 4c 73 3d 98 02 11 be 48 38 2f 3d da 27 49 bd
       0.05939917 -0.14161146 0.042778283 -0.04911027
0002e0 75 e1 83 3c 9d a1 8b bd ab 86 26 3b 82 48 c5 bd
       0.016098717 -0.06817935 0.0025409858 -0.096329704
0002f0 be 9f 83 bd 5b 36 c6 bd aa f2 dd 3b 97 85 72 bc
       -0.06426953 -0.09678336 0.0067733126 -0.014802358
000300 6e be 0d 3c c4 e2 ad 3c e1 6c ae 3d 74 ea e9 3b
       0.008651359 0.021226294 0.08516861 0.0071385447
000310 9a 60 df bd 2c 08 80 bc 7d ca 55 bc 3f a9 2e 3c
       -0.10907097 -0.015628897 -0.013048765 0.010660469
000320 87 c4 ab 3d 5f 85 0c bd 9b c8 2a bd 35 e0 1f bd
       0.08387094 -0.03430688 -0.04169522 -0.03903218
000330 47 e6 e8 bc 73 05 a4 bd ad 95 10 bd db bc ea bd
       -0.028430117 -0.08008852 -0.035298992 -0.114618026
000340 b4 e4 35 3d ca 08 73 3d f6 21 48 bd 81 3a 3a 3c
       0.04440756 0.059334554 -0.048860513 0.0113664875
000350 02 e0 c7 bc 24 c1 25 be 09 7b a3 bc 57 c3 84 bd
       -0.024398807 -0.16186959 -0.019956129 -0.064825706
000360 4c 32 3e bd b4 5a dc bd b5 7e 07 3d 4f 55 3a be
       -0.046434686 -0.10759488 0.03307982 -0.18196605
000370 09 90 a8 3c 59 b7 05 be 68 bc 6f bd 8d 74 3d be
       0.020576494 -0.13058223 -0.058529288 -0.18501492
000380 0c e1 4e b9 1b 24 8c 3d 81 a2 23 bc 18 5b d3 3d
       -0.00019729527 0.06842824 -0.009987474 0.10320109
000390 2d 45 33 3d b6 44 97 bc c4 bc 3d 3d 26 38 a7 3d
       0.043767143 -0.018465381 0.0463226 0.08165006
0003a0 ca e0 af 3d a3 9a d5 bd 2c ba 00 bd 8c 08 d6 bd
       0.08587797 -0.10429885 -0.031427547 -0.10450849
0003b0 0d 9b 24 bd 81 c8 d8 3b 45 cf 03 3c ee 65 d7 bc
       -0.04018693 0.006615699 0.008045022 -0.026293721
0003c0 99 dc 35 3d f3 6e e1 bd 9f c6 0b bc 7e 49 c3 bd
       0.04439983 -0.1100749 -0.008531242 -0.09535502
0003d0 1f 46 3b 3c 57 4e 6d 3d 05 4a a3 bb bf 91 89 bc
       0.011430292 0.05793604 -0.004983189 -0.01679313
0003e0 ca 73 aa bd 99 61 c0 bd e0 cc 98 bd d7 d3 d9 3d
       -0.08322866 -0.09393615 -0.07460952 0.10636108
0003f0 eb 16 42 3d 62 9a 1f 3d 2b 31 c2 3c 3d a8 9f 3d
       0.047385138 0.03896559 0.023705086 0.07795761

network_body._body_endoder.seq_layers.2.bias f4 [142]
000000 5e 92 cc 3c 2c 93 27 3c 29 2b a7 3c 1d 04 bf 3c
       0.024972137 0.01022796 0.020406323 0.023317391
000010 84 5c ea 3c 6a 19 93 3c 3c 95 87 3c a6 c1 b9 bb
       0.028608568 0.017956454 0.016550653 -0.0056688366
000020 4c d5 0e 3c b3 e2 12 3d 25 8c 14 3d a1 46 b4 b9
       0.008717846 0.03586073 0.036266465 -0.00034384898
000030 28 a3 8b 3c 42 0e a9 3c 96 56 bd 3c b5 e9 79 3c
       0.017045572 0.020636681 0.023112576 0.015253474
000040 a9 11 e3 3b b5 0f 94 3c 7a 8c d7 3a 2d 33 10 3d
       0.0069295955 0.018073896 0.0016445064 0.035205055
000050 7b 3d 65 3b 59 79 70 bb 16 1f 9f 3c 3d 39 0d 3d
       0.0034979272 -0.0036693423 0.019424003 0.034478415
000060 f4 3d d7 3b db 81 94 3c f3 d6 05 bc d0 41 ad 3b
       0.0065686647 0.018128326 -0.008168924 0.0052873865
000070 db e2 48 bc bc 81 fd 3b 43 a7 e7 3c 99 9e ab 3c
       -0.012261118 0.007736413 0.028277999 0.020949649
000080 24 c4 21 3c cb b6 e6 bb d1 89 23 3d 1b e5 27 3b
       0.009873424 -0.0070408336 0.039926354 0.0025618735
000090 0f af af 3c fd 0e c5 bb 11 bb 92 bb 23 85 72 ba
       0.02144578 -0.0060137496 -0.0044778665 -0.00092514063
0000a0 2d 5d 2e 3d 6f 6b 04 3c d6 e0 b3 3b 29 3f 8e 3c
       0.042569328 0.008082255 0.005489449 0.017364101
0000b0 d0 dc 25 bc 95 a5 28 bc a8 d0 3f 39 bd 30 5c 3c
       -0.010123447 -0.010293384 0.0001829291 0.0134393545
0000c0 89 05 71 3b 85 45 a8 bb c1 7c 8d bb 47 a0 b7 3b
       0.003677698 -0.0051352405 -0.0043178503 0.0056038233
0000d0 00 8b 8a 3c e1 ea 33 3b 74 f9 12 bb 5a f8 f3 3c
       0.016911983 0.002745323 -0.0022426518 0.02978151
0000e0 9b 3b eb bb ee 0d 53 3c 9e 54 05 bc fe b7 a6 bb
       -0.0071787364 0.012881739 -0.00813785 -0.0050878515
0000f0 f1 07 89 3c d9 62 7b bb f9 42 d8 3c ee ea fc bb
       0.01672742 -0.0038358478 0.026399123 -0.0077184355
000100 d6 50 8c 3c 32 0a 49 3c 3f 85 c6 3c 33 59 aa 3c
       0.01712839 0.012270497 0.024233459 0.020794487
000110 0b c1 4b ba 9b 67 04 3c 0b 2c 70 3b 48 c0 3b 3c
       -0.0007772601 0.008081342 0.0036647345 0.011459418
000120 57 98 d9 3b 86 4b a6 3c 38 b7 4d bb 45 48 b7 ba
       0.006640475 0.020299684 -0.0031389724 -0.001398333
000130 5b 53 8d 3c 77 35 72 bb 83 2f 2a bc 9b 5c af 3c
       0.017251661 -0.0036958137 -0.010387304 0.021406462
000140 6d 96 99 3b da da e6 3b 35 5a dc 3c 57 dc 17 3c
       0.0046871216 0.007045132 0.026898483 0.009268842
000150 9c b8 10 bb b5 3f f1 3b ec e7 fc 3c 75 9a 8d 3c
       -0.0022082692 0.007362331 0.030872308 0.017285565
000160 b8 13 a5 3c e5 b7 ad bb cd fb 1e bb 9b f0 08 3b
       0.020151004 -0.005301463 -0.0024258972 0.0020895365
000170 90 67 aa 3c 94 2d 0a 3b 5b 47 8c bb 7e f6 6f 3c
       0.020801336 0.0021084296 -0.004280967 0.014646171
000180 a2 53 fd 3c 3e 94 92 bb 40 cd ec 3c 19 b2 a8 3c
       0.030923668 -0.0044732383 0.028906465 0.020592736
000190 d1 6b 0a 3a 39 c9 28 bc 35 49 46 bb e7 2c 0b 3c
       0.0005280348 -0.0103018815 -0.0030256037 0.008494592
0001a0 c8 1b 27 3c c0 bd 18 3d fa 80 a5 bb 10 14 c5 3b
       0.010199495 0.037290335 -0.0050507756 0.0060143545
0001b0 49 42 d9 bb 22 23 a9 ba 81 ef 48 bb 1c bf 33 3b
       -0.0066302163 -0.0012904147 -0.0030660334 0.0027427142
0001c0 28 d4 27 3b 53 c1 0f b9 a1 f0 44 3c 97 79 5a 3b
       0.0025608633 -0.00013709562 0.012020261 0.0033336633
0001d0 66 87 d1 3b e9 8d 88 bb 12 82 b0 3c 0c 08 4e 3c
       0.0063943146 -0.0041673076 0.021546397 0.012575161
0001e0 c4 dd 8a 3b e5 be 33 3d 98 ad ef 3b 08 db b4 3c
       0.0042378623 0.043883223 0.007314395 0.022077098
0001f0 20 d6 87 bb 89 d1 af 3b 63 fc 06 bc 27 37 85 3c
       -0.0041453987 0.0053655547 -0.008238885 0.01626165
000200 b9 1d 40 bb 70 03 4a 3b 62 ae c2 3b 95 70 39 3b
       -0.002931459 0.0030824803 0.005941198 0.0028295864
000210 22 c8 db 3a 68 57 5a bb 16 6d 17 3d fd 22 be 3c
       0.0016768018 -0.0033316258 0.036969267 0.023210043
000220 a8 42 92 ba 43 17 4d 3c 0d 50 3a bc 61 cc 22 b9
       -0.0011158781 0.012517753 -0.011371625 -0.00015525661
000230 2f fa d5 3b 67 9c b1 3b
       0.0065300683 0.005420256

action_model._discrete_distribution.branches.0.weight f4 [8, 142]
000000 4d e4 2a bc 61 36 79 3c 59 41 ba bc 11 31 03 3d
       -0.010430408 0.015210719 -0.022736238 0.032029215
000010 f4 b7 4c bc 5d 02 8e bb b9 ee b2 3b a4 22 b1 3b
       -0.01249503 -0.004333778 0.005460587 0.005405741
000020 f4 bd 44 3c 41 a2 57 3a 35 55 48 3c 27 e2 e3 bb
       0.012008179 0.0008225777 0.012227346 -0.0069544497
000030 57 1f 29 bc 03 d8 3c bc ee 85 80 bc 5b 38 80 3c
       -0.010322413 -0.011526111 -0.015688863 0.015651872
000040 5a c6 f8 bc 47 52 1d 3c d6 33 da 3a 21 9d 34 bc
       -0.030368019 0.009602136 0.0016647528 -0.011023791
000050 8f 0d a6 3b 77 fe 74 3a 7d 06 33 bc e6 da 3a bc
       0.0050675343 0.00093457795 -0.01092684 -0.0114047285
000060 db ec f3 3b 5f 0d 8f bb 2c e2 9c bc 9d 9c d5 3b
       0.007444007 -0.0043656076 -0.019150816 0.006518914
000070 cf e6 f5 3b 3b 6c b9 bb f2 4c a9 bc 97 2f be bb
       0.007504321 -0.005658654 -0.020666573 -0.005804013
000080 36 0b e4 3b 7a f1 17 bc b1 13 50 bc 1e fd 86 bb
       0.0069593443 -0.009273881 -0.012700007 -0.0041195294
000090 e7 0f 91 bc bf 09 9c 3c 14 1d 5c 3b c7 65 bc 3b
       -0.017707778 0.019047616 0.0033586668 0.0057494375
0000a0 4f 95 0e bc 73 70 c7 ba 48 72 fa ba d1 7e d6 3b
       -0.00870259 -0.0015216008 -0.0019107545 0.0065458794
0000b0 98 1b 9e bc b1 75 99 3c f1 93 d3 3b 6b 1d 56 3c
       -0.019300267 0.018732877 0.006456845 0.013068537
0000c0 bb e1 f0 3b 83 cc 38 3c a5 19 06 3c 82 57 35 bb
       0.007351128 0.011279228 0.008184825 -0.0027670567
0000d0 c5 ca 8a bc 95 63 05 bc 59 86 4d 3c 01 76 03 bc
       -0.016942391 -0.008141418 0.012544238 -0.00802374
0000e0 1d 27 c4 ba 57 82 e7 bb d9 04 b1 bc 3f f1 48 3c
       -0.001496527 -0.0070650983 -0.021608757 0.012264549
0000f0 2d a6 9a ba 49 50 bb 39 ca 0a 9c bc a2 c4 1b 3c
       -0.0011798792 0.00035727237 -0.019048113 0.00950733
000100 85 f6 c6 3b 3d 41 b9 bb 2f 92 27 bc e5 83 5f 3c
       0.006071868 -0.005653529 -0.010227724 0.013642286
000110 d1 be d5 3b 59 af ae bb d9 c3 bf bb 7e 10 1c bc
       0.006522991 -0.0053309617 -0.0058522043 -0.009525416
000120 87 f2 ad 3c da ef d1 ba d0 3d b5 3a aa e8 3f bb
       0.02123381 -0.0016016916 0.0013827626 -0.0029282966
000130 f6 f7 16 bc 6b 36 5a bb 2a 8f a1 3b bc c3 74 bc
       -0.009214392 -0.0033296596 0.0049303966 -0.014939245
000140 80 db 8c 3b e4 07 e2 bb 63 57 39 bc 49 90 0f 3c
       0.0042986274 -0.0068979133 -0.0113123385 0.008762428
000150 2f 7d 16 3b 54 d0 73 bc bb ed e1 ba bc 36 6d bc
       0.0022962799 -0.014881212 -0.0017236987 -0.014478382
000160 49 a2 72 bc 5a 39 3b 3c 9e 81 25 3c f0 1e 19 bb
       -0.0148092 0.011427248 0.010101704 -0.0023364387
000170 dc 31 02 bc 6d 31 cc 3c d1 b7 69 bc 09 f7 5c bc
       -0.007946458 0.024925912 -0.014265017 -0.013486632
000180 0d f0 8f bc e6 7c e0 3b 7c b1 a3 bb 04 59 28 3c
       -0.01757052 0.0068508266 -0.004995523 0.010275129
000190 2e ea 82 3a 43 a4 6d ba f7 3e 85 3c 14 fd 52 3c
       0.0009988004 -0.00090653094 0.016265376 0.012877721
0001a0 56 b5 1e 3c 2b 3c 5c bc b3 27 b4 3a fd 70 83 3b
       0.009686789 -0.01344208 0.0013744741 0.004011272
0001b0 ce a7 ac 3c f1 8d d0 bb 79 3f 90 3c c8 c5 3f 3c
       0.02107611 -0.006364577 0.017608391 0.01170487
0001c0 8a 9e 82 bc 06 2f 83 3c 36 45 3f 3a 1b 82 6a 3b
       -0.015944738 0.016013633 0.0007296385 0.0035783115
0001d0 74 60 d0 ba f6 c6 88 3a 14 36 0e 3c a3 58 8e 3b
       -0.0015897886 0.0010435272 0.008679885 0.0043440624
0001e0 ad 49 7b 3a 44 bb 59 bc 2d ec 92 3c cc 9a 73 bc
       0.00095858687 -0.0132892765 0.017934883 -0.014868449
0001f0 9e ab 16 3b 32 d9 1b bc 71 c7 dc b9 eb 4a f3 bc
       0.0022990475 -0.009512233 -0.00042110265 -0.02969881
000200 65 d5 4d bb c2 25 99 3c f9 25 b8 3b 58 9f c6 bb
       -0.003140771 0.018694762 0.005619761 -0.0060614757
000210 5e 24 1e 3b 4e 93 e6 3c d0 69 c5 bb 3b 9e 85 bc
       0.0024130563 0.028146412 -0.0060245767 -0.016310802
000220 fa 1d 18 bb 93 fa 11 bc ee 67 06 3c f2 07 0e 3c
       -0.0023211227 -0.008909839 0.00820349 0.0086688865
000230 28 06 33 3c 9a e1 4c 3c 51 9c ca 3b 55 60 6e 3c
       0.010926761 0.0125049595 0.006183185 0.0145493345
000240 32 73 37 bb 3b b8 8e bb 07 df 47 3c 9c 48 20 3b
       -0.0027992246 -0.004355458 0.01219917 0.002445734
000250 15 69 9d 3c 47 ad 4c 3c c7 47 53 3a fc 8d dd bb
       0.019215146 0.012492484 0.0008059707 -0.0067613106
000260 a2 ce 3b 3b 12 24 73 3c 4c f2 12 bc bc 45 36 3c
       0.0028657098 0.014840143 -0.008968901 0.011125024
000270 47 16 95 39 2e fc 03 bc 7f 4b 7a 3b b3 86 30 bc
       0.00028436093 -0.00805573 0.0038191972 -0.010774302
000280 7a 6e 8b 3c 5e 27 52 bc 0e 5d db 3a 65 85 ae 39
       0.017020453 -0.012826769 0.0016736106 0.00033287253
000290 a8 d2 a6 ba 96 dd 47 bc bf db dc bb d9 10 cc 3b
       -0.0012727575 -0.012198826 -0.006740063 0.0062275943
0002a0 f3 6e ab 3b 67 63 13 bb 5b 35 8f 3b bf f4 9c 3c
       0.005231732 -0.0022489668 0.004370374 0.019159673
0002b0 a3 80 d6 bc 59 61 3e 3b 97 eb 5a 3c 14 5a 78 bc
       -0.026184386 0.0029049723 0.013361833 -0.015158195
0002c0 e1 2c ad bb d0 10 e8 bb 87 6f 4c bc 6a 9e 26 bb
       -0.005284891 -0.0070820823 -0.012477762 -0.0025424012
0002d0 0e c3 5e bc 8f 2e ed 3b ae 4c f0 bb e7 a4 4a bc
       -0.013596309 0.007238216 -0.0073333597 -0.012368417
0002e0 d1 0e 2b bb d7 ab a7 ba 36 c9 25 bc 23 fa a5 3a
       -0.002610136 -0.0012792301 -0.010118773 0.0012663048
0002f0 20 8e 45 bc 50 fa e2 3b cc ad b4 3c d2 59 a5 3c
       -0.012057811 0.006926812 0.022055529 0.020184431
000300 87 3e dd 3b 57 44 49 bb d0 a6 a2 3b e5 a1 02 3c
       0.0067518386 -0.00307109 0.0049637333 0.007973169
000310 01 6a bb ba 43 3e 7d bb 79 81 f5 ba 65 b2 87 3b
       -0.0014298559 -0.0038641847 -0.0018730602 0.0041411393
000320 20 7e 64 3c 51 db e6 3b 15 b8 38 bc 86 37 14 bc
       0.013946086 0.0070451875 -0.011274357 -0.009046441
000330 99 ca f3 bb ad 1f 9b bc 9e 41 22 3c a7 0c d2 bb
       -0.007439923 -0.018936003 0.00990334 -0.0064101997
000340 b4 85 e8 ba 66 6c 54 bb f0 b2 a3 ba 86 0b ae bb
       -0.0017740042 -0.0032413243 -0.0012489241 -0.0053114323
000350 69 d9 03 3c 62 23 b2 3b 5c cc f6 3b 7c 85 4d bc
       0.00804744 0.005436347 0.0075316858 -0.012544032
000360 2b cf 39 bb a6 9e 47 3b 62 b2 cb bc 5e f2 0b 3c
       -0.0028352241 0.0030459552 -0.024865333 0.008541672
000370 87 da 1f 3c 89 dc 31 3b af fc 8e bc 30 98 c9 bb
       0.009756691 0.0027139506 -0.017454473 -0.0061521754
000380 cc 99 cc bb 5a 8f 6d 3c c9 02 cc ba 05 cc 61 bc
       -0.00624392 0.01449951 -0.0015564795 -0.013781552
000390 b0 b9 27 bc 2c c1 52 bc a6 a0 e0 bb fc 1e fa ba
       -0.010237142 -0.012863439 -0.0068550883 -0.001908272
0003a0 40 3e 2c 3c dd d2 e4 3b 2c 94 89 bc e6 83 da 3b
       0.010512888 0.0069831447 -0.016794287 0.0066685556
0003b0 d9 51 93 bc b8 67 70 3a 35 0c e4 bb 3a 57 14 3c
       -0.017983364 0.0009170729 -0.006959463 0.009054
0003c0 b8 8a 4d bc 2d e4 61 bc e1 a3 84 ba 2b 0d a0 3b
       -0.01254528 -0.0137873115 -0.001011964 0.0048843822
0003d0 98 46 38 3c f0 30 e8 bb b8 fe 58 3c c7 28 ed 3b
       0.0112473 -0.007085912 0.013244323 0.007237527
0003e0 82 d5 76 3c 09 70 2b bb 84 69 9b 3b 68 da 58 3c
       0.015065553 -0.0026159307 0.004742803 0.013235666
0003f0 88 dd 94 bb f4 9f 0d bc 3d 2c 39 bb 20 5a 3a 3c
       -0.00454301 -0.008644093 -0.0028255128 0.011374027

action_model._discrete_distribution.branches.0.bias f4 [8]
000000 02 02 0d bc a8 03 fa ba ec e5 62 3a 53 68 2b b8
       -0.008606436 -0.0019074576 0.0008655477 -4.0866737e-05
000010 71 eb 0c bc 59 65 2d bc ef 43 93 3c e3 bd a6 bb
       -0.0086010555 -0.010583245 0.01797673 -0.005088554

action_model._discrete_distribution.branches.1.weight f4 [8, 142]
000000 20 ae 81 bc f2 b9 d9 3b 35 f8 e0 bb c1 f6 99 3c
       -0.0158301 0.006644481 -0.006865526 0.01879442
000010 7a b8 10 bc f3 ff 50 bc 65 ff 08 3c 10 89 8b 3b
       -0.008833045 -0.012756336 0.008361672 0.0042582825
000020 87 39 1e 3a b9 3d 70 bc 4c 2d 65 bc 7b ad 66 bb
       0.0006035794 -0.014663153 -0.01398785 -0.0035198617
000030 d1 3f a7 bc 48 35 02 bd 09 f1 0e bc 87 4b d5 3b
       -0.020416172 -0.031789094 -0.008724459 0.0065092477
000040 5c 57 3e bc 82 ce 93 b9 d0 d8 94 ba a3 dc 43 bc
       -0.011617508 -0.00028191885 -0.0011356119 -0.011954459
000050 b0 54 7c bb 52 28 c2 bb fd 24 c9 bb 8b f7 9e bc
       -0.0038502626 -0.0059252167 -0.0061384425 -0.019405147
000060 f3 e3 bc 3b 4d cc f6 3b db dd 8e bc 61 79 0e bc
       0.0057644784 0.007531679 -0.017439773 -0.008695931
000070 52 84 58 3b 6f 5a d1 bb a3 4f cc bb 4e 5a 2d bc
       0.0033037853 -0.0063889544 -0.0062350794 -0.010580612
000080 38 f4 a7 3b 5c dd e4 bb 21 7b 98 bc 71 c5 c4 3b
       0.0051255487 -0.006984396 -0.0186134 0.006004982
000090 0b 0a 81 bb 05 06 08 3b c7 6a 05 3a 1c 2c 66 3b
       -0.003937965 0.002075554 0.00050894584 0.0035121506
0000a0 f0 b8 ea bc 6f 2f 79 bc 17 0e 3d bc dd 68 bd bb
       -0.028652638 -0.015209063 -0.011539004 -0.005780323
0000b0 fe 55 27 3c f8 e8 69 3b 21 f2 ec bb 65 2c 5a 3a
       0.010213373 0.0035691839 -0.0072310125 0.00083226553
0000c0 7a 84 87 3c 69 6e b5 bb ba ac 35 bb ec b7 4a ba
       0.016542662 -0.0055368436 -0.0027721361 -0.0007733095
0000d0 c7 00 13 bc 0a fc af 3b a8 19 9b 3b 0d e5 1a bc
       -0.008972353 0.0053706216 0.004733283 -0.009454024
0000e0 12 8d 9a bb a8 43 35 3b b4 aa 71 bc 10 5d 1b 3b
       -0.004716524 0.0027658734 -0.014750171 0.0023706593
0000f0 0d 9b c9 bc 07 27 54 3a a7 cf d2 ba 8a 71 8a 3a
       -0.024610067 0.0008092974 -0.0016083614 0.0010562402
000100 ff bd d6 3b 9b ae 99 39 59 7b d2 bc 01 db c3 3b
       0.006553411 0.00029312525 -0.025693582 0.005977035
000110 e4 bd 0c bc 84 87 5d 3c 9d 52 64 3c eb e7 1e 3c
       -0.008590195 0.013521079 0.013935712 0.009698848
000120 60 20 4f bb 2b 5a 95 bc d0 eb 58 3b 43 b6 00 3b
       -0.003160499 -0.018231472 0.003309954 0.0019639886
000130 87 5b 2b bc 70 45 f6 3b d3 70 3e 3c cf 49 f8 bb
       -0.010458834 0.007515602 0.011623579 -0.007577158
000140 5c 05 50 3b e4 09 c4 3a 97 74 1a bc 81 6e e3 bb
       0.0031741476 0.0014956561 -0.009427211 -0.0069406633
000150 6d 5e 09 bb b8 b3 a2 bc 91 50 c7 bc ae 16 20 3b
       -0.0020960823 -0.019861087 -0.02433041 0.002442758
000160 4d dc bb 3b c6 be 83 3c d7 0b 05 3c 35 3e 42 bc
       0.005733049 0.016082179 0.008120499 -0.011855652
000170 26 11 b8 3a 64 9b 65 3c 9f 02 9d 3b e6 40 ee bb
       0.0014043197 0.014014099 0.004791572 -0.00727092
000180 0f 99 05 bc 17 c7 04 3c c1 fa 90 bc 53 47 2d 3a
       -0.008154168 0.008104107 -0.017697694 0.00066100544
000190 16 96 89 3b 1e 89 35 3c 46 7f b7 3b b8 cc 9e bc
       0.0041988 0.011080055 0.005599889 -0.019384727
0001a0 75 84 f4 3b 89 b8 48 bb 98 f8 99 3b 69 7d 6d 3b
       0.007462079 -0.003062757 0.004698824 0.003623808
0001b0 11 79 88 3c bd 63 41 bc d2 78 7e ba 82 74 29 3b
       0.016659291 -0.011803565 -0.00097073347 0.0025856798
0001c0 c0 2a 9e 3b 91 db 2e bc d9 d2 d6 3b 95 6c 8f ba
       0.0048268735 -0.010672466 0.0065558967 -0.0010942394
0001d0 20 d2 48 bc 38 cf c8 3a 2d 94 47 bb 57 9e a6 3a
       -0.012257129 0.0015320545 -0.003045331 0.0012711984
0001e0 b1 6a dc 3b db d8 2d bb 1a 58 14 bc b4 c1 02 3a
       0.006726586 -0.002652696 -0.009054208 0.00049879705
0001f0 43 06 e8 3b 5e 0c c9 3b d8 bb 37 3a 07 24 19 bc
       0.0070808246 0.0061355075 0.0007008887 -0.0093469685
000200 8e 1f 2a bc a7 27 af 3a b1 77 53 39 0b 5d 52 3b
       -0.0103835 0.0013363258 0.00020167117 0.0032098915
000210 08 6d f5 ba e9 36 0b bc 09 a9 13 bc 9f fe 72 bc
       -0.001872451 -0.008496978 -0.009012469 -0.014831214
000220 fa 9a a7 3b 6b 66 45 bc 9b 0d 14 3c d8 85 cd 3a
       0.00511491 -0.012048344 0.009036447 0.0015680147
000230 44 56 04 bc 12 7d b4 3b 4f 0d 08 bd 19 06 4e ba
       -0.008077208 0.0055080736 -0.033215817 -0.0007859185
000240 99 bc 1d 3b 65 cd 1e 3c d6 87 dc bc aa 51 37 bc
       0.0024068712 0.009692525 -0.02692024 -0.011188904
000250 87 5a d9 39 3a 65 4c 3c 83 ec 30 bb f1 70 b5 bc
       0.00041456913 0.012475306 -0.002699644 -0.022148581
000260 ef ec b3 bc d8 e3 52 3b ef 2a 8b ba 99 5a b5 bc
       -0.021963565 0.0032179262 -0.0010617654 -0.022137927
000270 2b 78 65 bc cb 52 2f 3c d6 79 31 3c 58 db 01 bc
       -0.014005701 0.010700892 0.010832271 -0.007925831
000280 bf f7 2a 3c 1f fc ac bc 30 56 a0 3b 16 9e f1 3b
       0.010435044 -0.021116314 0.004893087 0.0073735816
000290 e7 bb 08 bc 9b 11 bd bc 9a 3e 6c 3c a9 9c dd bc
       -0.008345581 -0.023079684 0.014419222 -0.02705224
0002a0 b9 5b 16 bc dc 91 07 3b b6 ff 54 3c 7b bf a0 3b
       -0.009177142 0.0020686304 0.013000419 0.0049056388
0002b0 51 85 b2 bb f0 c9 f5 bc 98 15 35 bb ad fc b2 38
       -0.0054480215 -0.030003518 -0.002763128 8.534766e-05
0002c0 db 9e 2b bd ed 88 b7 3c 92 44 74 3b 09 e1 4d 3c
       -0.041899543 0.022404158 0.0037272316 0.01256586
0002d0 d6 73 37 3b b2 b5 a1 3c 8f b3 ef bc 4f a2 91 3b
       0.0027992628 0.01973996 -0.029260425 0.0044443975
0002e0 1d 30 fd bb 20 6d 9b bc 89 07 b7 ba e3 8c a7 3b
       -0.007726683 -0.018972933 -0.0013964038 0.0051132306
0002f0 16 b8 50 3b d6 ac 62 3c cf fe e6 3b b2 b4 aa 3c
       0.0031848005 0.013835153 0.0070494185 0.020838115
000300 8e f6 82 bb 35 23 29 bc dd ef d9 bc 39 d9 fb b9
       -0.0039966768 -0.010323335 -0.026603634 -0.00048036294
000310 75 eb 12 bc d5 dc b3 bc 50 13 09 bc 09 dd f4 bb
       -0.00896727 -0.021955887 -0.008366421 -0.0074726385
000320 ba 7d 48 bb 15 ef 6a bc d5 51 f5 bb 13 ec f8 3b
       -0.0030592517 -0.014339228 -0.007486562 0.0075965016
000330 0a e2 84 bc 14 af f1 3b 60 39 27 3c df d3 a8 3c
       -0.016221065 0.0073756073 0.01020655 0.02060884
000340 d2 57 8e bc 37 f6 5e 3c d3 47 f1 bb 25 99 b4 ba
       -0.01737586 0.013608507 -0.0073632984 -0.0013778551
000350 d5 0b dd 3b ac 09 bd 3c 38 97 d2 3b c6 94 00 bb
       0.0067457953 0.023075901 0.006426718 -0.0019619926
000360 87 47 47 bb ae 2c b5 3b 4c 62 e5 bb 0b f9 a4 3a
       -0.0030407624 0.005529008 -0.0070002433 0.0012586428
000370 03 a4 c4 3b 4b 8a 92 bc 38 cf 88 3c 2e 55 32 bc
       0.006000997 -0.017888209 0.016700372 -0.010884566
000380 d7 51 ba bc 1c 74 4c 3c 5d 85 3a 3b 3e 93 1f 3a
       -0.022744102 0.0124788545 0.0028460838 0.00060873094
000390 23 89 ce bc 5a bc 3f bb 19 2b 0d bb 70 9b fe 3c
       -0.025211876 -0.0029256553 -0.002154058 0.031079978
0003a0 bf 6a be 3a fc 96 c9 3b fe a2 fe bc 21 91 b5 bb
       0.0014527662 0.006152032 -0.03108358 -0.0055409824
0003b0 7d d3 61 bc 24 e2 34 bb 0d a5 5b bb 23 ab 92 3a
       -0.013783333 -0.002760061 -0.0033515126 0.0011189919
0003c0 f5 18 cc bc f5 10 0f 3c 66 2b 4b 3c 40 2e 15 3c
       -0.024914244 0.00873207 0.012400484 0.009105265
0003d0 c7 f9 01 3b 8d 70 e7 ba a8 47 4e 3c 55 6e e9 bc
       0.0019832717 -0.0017657444 0.012590326 -0.028494993
0003e0 f0 f4 a9 3c 83 97 35 3a 65 d2 80 3a 08 a1 cc bb
       0.020746678 0.0006927179 0.0009828327 -0.0062447824
0003f0 45 ec bb ba 88 ee a1 bb 64 19 0a bc 23 e8 f9 3b
       -0.0014337382 -0.004941765 -0.008428905 0.00762655

action_model._discrete_distribution.branches.1.bias f4 [8]
000000 20 bb 8b bb 75 30 ea bb 3b f1 6e bb 1e 72 dc 3a
       -0.0042642504 -0.00714689 -0.0036459703 0.0016818678
000010 28 52 02 bc 58 56 92 ba b5 f0 65 bb 84 2b 81 3c
       -0.007954158 -0.0011164648 -0.00350861 0.01576782

action_model._discrete_distribution.branches.2.weight f4 [8, 142]
000000 34 28 88 bc 54 31 cd 39 d8 87 42 bc 25 5f 06 3c
       -0.016620733 0.000391374 -0.011873208 0.008201395
000010 53 a1 a6 bc 90 30 48 bc 2b 32 75 bc 86 3e e5 3b
       -0.020340597 -0.012218609 -0.014965574 0.0069959788
000020 74 b2 04 bc 95 f8 f8 bc 24 2a 3d bb 50 d2 11 3c
       -0.008099187 -0.03039197 -0.002886423 0.00890024
000030 25 09 9a bb 18 5d 9a bc eb 08 70 bc ee d9 ac 3b
       -0.004700797 -0.018843219 -0.014650564 0.0052750027
000040 0c b4 c2 bb 6c 50 56 bb 31 14 de 3b 40 84 89 bc
       -0.0059418734 -0.0032701744 0.0067773093 -0.016786695
000050 49 88 88 38 9d e7 b6 bb 60 3e c1 bc 85 b8 7b bc
       6.5103704e-05 -0.0055818097 -0.023589313 -0.015363817
000060 16 1b 2e 3c ed f9 42 bc fd 1f 34 3c a5 70 c0 bb
       0.010626575 -0.011900407 0.010993955 -0.0058728033
000070 a8 44 6e 3a 3c 8c 82 3c 1e c0 31 bc 44 5d 95 bc
       0.000908921 0.01593601 -0.010849027 -0.01823295
000080 79 b4 97 3b b8 6b 99 3b f9 25 78 bc e2 53 b9 bb
       0.0046296683 0.0046820305 -0.015145772 -0.0056557516
000090 9a ad 57 ba 03 9d 76 3c ec 9c e1 bb fa 53 6e 3c
       -0.0008227468 0.015052083 -0.0068851616 0.014546389
0000a0 60 6d 41 bc 66 34 0c bc 9a c8 e2 3b 4c 0a 51 3a
       -0.011805862 -0.008557415 0.006920886 0.00079742516
0000b0 af f6 ae 3b d5 00 7a 3a 0c 7f 47 bb 33 d8 84 bb
       0.0053394656 0.0009536867 -0.0030440716 -0.0040540933
0000c0 4f 8c 95 3a 23 6e 91 3c 21 9f 15 3c 0a 4c 39 bc
       0.0011409613 0.017752713 0.009132178 -0.011309633
0000d0 fd 1a 3d bc 1a 31 af 3b 46 e2 15 ba 89 cc a6 ba
       -0.011542079 0.0053464295 -0.00057176163 -0.0012725751
0000e0 c8 2d 20 bc a8 1b dc 3a b9 04 55 bb 5b da 9e bb
       -0.00977654 0.001679291 -0.0032504036 -0.0048478073
0000f0 6b 96 2d 3c 95 32 17 3c a4 68 31 3b 10 ae ec ba
       0.0105949445 0.009228368 0.0027070427 -0.0018057246
000100 01 c3 84 3c e1 df 97 3b 82 4b 4f bc cf c1 50 3c
       0.016206266 0.0046348427 -0.01265228 0.01274152
000110 05 da b7 bb c1 54 5d 3c 02 d5 6d 3c 20 26 8a 3b
       -0.0056107068 0.013508976 0.014516117 0.0042159706
000120 3a 4d 08 3a f5 c5 35 3b 56 d9 76 bc e0 c2 d2 3a
       0.0005199496 0.00277364 -0.015066465 0.0016079806
000130 9b dc 0a bc fc ab 03 bc 1a e1 88 ba f4 34 3f 3b
       -0.008475448 -0.00803661 -0.0010443062 0.002917585
000140 ca 2c 27 3c 0a a4 2a 3b 7b b4 dd bc 2d 8c 54 3c
       0.01020355 0.0026037716 -0.027063599 0.012972874
000150 a0 65 1c 3c 71 36 3b 3b 6c c4 0a bc 01 e4 a5 bc
       0.009545714 0.0028566385 -0.008469682 -0.020250322
000160 00 34 81 ba ca 25 03 bb eb fe cc 3a e4 d9 99 b8
       -0.0009857416 -0.0020011538 0.0015639936 -7.336194e-05
000170 0d 5c 51 36 a4 91 c9 bb 3c 30 24 bc 04 79 e5 3b
       3.1197008e-06 -0.006151395 -0.010021266 0.0070029516
000180 8b 01 05 bc ec 3a 87 3b df 44 8a bc ca 59 27 3a
       -0.008118044 0.004126897 -0.016878543 0.0006383924
000190 67 1b d1 ba 02 b1 8f 3b 58 aa 82 3b d3 05 52 bb
       -0.0015953601 0.0043851146 0.0039875917 -0.0032046929
0001a0 23 d7 01 3c 9f 45 fe ba 69 59 e2 3b 0b cd ac 3b
       0.007924828 -0.0019399411 0.006907631 0.0052734665
0001b0 98 2e b5 bb eb 5c c9 bb 8b 11 b4 bb c7 bd d3 3a
       -0.005529236 -0.00614511 -0.0054952553 0.001615458
0001c0 41 e8 01 3b 6c 99 0a 3c cb 78 70 bc b0 36 de 3b
       0.0019822272 0.00845943 -0.014677237 0.0067814216
0001d0 d9 07 6a bc ad 87 2a bc 9c 5f ac 3a 98 f5 b9 bb
       -0.014284098 -0.010408324 0.0013151052 -0.005675029
0001e0 8f 7e e3 3b 4a 49 53 bc aa 44 1e 3c 4f 70 d0 bc
       0.006942577 -0.012895891 0.0096599255 -0.025444178
0001f0 3a 14 eb bb fe 7a 1a bc bf de 6c bb 21 f6 6c 3a
       -0.007174042 -0.009428738 -0.003614351 0.00090393616
000200 62 92 db 3c 5d b0 97 3b 57 9e 8f 3c 14 69 b7 ba
       0.0268032 0.0046291784 0.017531557 -0.0013993108
000210 5d 57 3c bb 3a e9 d2 3b 4f d3 3d bc 0b 9c 40 bc
       -0.0028738596 0.006436494 -0.011586024 -0.011755954
000220 1f 66 8e 3b 4b 2f 90 bc eb 8f 85 3b 18 3f 0e 3c
       0.00434567 -0.017600676 0.0040759942 0.008682035
000230 a8 49 90 3c 20 5b 08 bc c2 75 00 bc 1a 9c 6c 3c
       0.017613247 -0.008322507 -0.007840576 0.014441514
000240 74 4a e5 bc 17 b4 90 3b 32 33 ea bb 72 cb 38 bc
       -0.027989604 0.0044159996 -0.0071472162 -0.011278974
000250 04 98 02 3c 68 82 10 ba 70 69 40 3c fd 86 d6 bc
       0.007970814 -0.0005512596 0.011743888 -0.026187414
000260 be 09 ee bc bf 6b 81 bb 95 9a 28 3b 0b c8 28 3c
       -0.02905738 -0.003949612 0.0025726904 0.0103016
000270 1b b4 b1 bb 95 32 4a 3b c9 01 9a bc a0 d5 98 bc
       -0.0054230816 0.0030852903 -0.01879968 -0.018656552
000280 04 17 54 3c 1a 46 45 bc 77 a0 f9 3b 4f fe 91 3c
       0.0129449405 -0.012040639 0.007618006 0.01782146
000290 25 ff 5d bc 8c e8 10 bb f9 40 69 3b 91 5c 48 bc
       -0.013549601 -0.0022111265 0.0035591705 -0.012229101
0002a0 01 c9 6a 3c 58 ef ae bc 8e b0 0b 3c e5 c8 56 3b
       0.01433015 -0.021354362 0.008525981 0.003277355
0002b0 a3 c3 c2 bc 6b b9 1b bc a7 2b 99 3c 71 8a 08 3b
       -0.023774927 -0.009504656 0.018697573 0.002083447
0002c0 e2 1e 8c bc 44 84 72 bb cd c5 9d bc 2b 8f 50 3c
       -0.01710457 -0.0037005106 -0.019259358 0.012729446
0002d0 45 3f 0e 3c 67 bb 10 bc d6 e6 e5 bc 02 2c 20 bc
       0.008682077 -0.008833743 -0.028064173 -0.009776117
0002e0 70 c3 c0 3b 8f 38 24 bc da 73 3d bc 02 9a a5 3b
       0.005882673 -0.01002325 -0.011563266 0.0050537596
0002f0 02 0f 59 3c ed 89 32 3c fa ab dc 3b f0 b3 f9 3a
       0.013248207 0.010897142 0.0067343684 0.0019050818
000300 5a 95 a5 3c 77 95 55 bb e4 0e 0a bc f7 61 e1 3b
       0.020212818 -0.0032590309 -0.008426402 0.0068781334
000310 67 3a d9 b9 ff 34 ce 3b bf 5f d7 3b 01 a2 be bb
       -0.00041432978 0.0062929387 0.006572693 -0.005817652
000320 35 f6 94 bc fc d4 81 3b e1 f2 1c 3a 50 6c a1 3b
       -0.018183807 0.0039621573 0.00059871195 0.004926242
000330 21 e9 fd bb b7 32 c5 3b fb 27 a1 3c 49 20 f1 3b
       -0.0077487384 0.0060180086 0.019672384 0.007358585
000340 2b ab b5 bc d2 89 ca bb 52 ea 0a bc a2 06 18 3c
       -0.022176346 -0.0061809802 -0.008478718 0.009278925
000350 e8 bf 50 3c 27 c8 29 3c f7 8b 18 bc 92 1a aa bc
       0.0127410665 0.010362661 -0.009310714 -0.020764623
000360 28 3c 50 3c b8 05 a5 bb 08 fd 1f bb 0e 4b 1f bb
       0.012709655 -0.005036082 -0.0024412293 -0.002430621
000370 6c b7 25 3c c3 4b 81 bc 4b 5e 9e 3c 6f a7 75 bc
       0.010114532 -0.015783196 0.019332072 -0.014993533
000380 d9 53 8a 3b b6 0e 7b 3c 05 0c ef 39 40 03 6a bc
       0.004221421 0.015323332 0.00045594588 -0.014283001
000390 da 57 77 bc 9e 20 c9 bb e2 69 4f bc cd b2 c2 3c
       -0.015096629 -0.0061379215 -0.012659522 0.0237669
0003a0 90 08 0f 3c 81 58 90 3b 80 66 0a bc ef 38 57 3c
       0.008730069 0.0044050817 -0.0084472895 0.013136133
0003b0 7a 0e 89 3b c8 83 38 bc b3 82 fa ba 79 5e 63 b8
       0.004182634 -0.011261888 -0.0019112438 -5.4209002e-05
0003c0 1a ee 7a bc 7f 61 83 bc 0f 3e 0d bc 52 02 3a bb
       -0.015315557 -0.0160377 -0.008620753 -0.002838273
0003d0 12 5d e0 3b b3 71 74 3c 83 18 d0 3b 4d af 01 bd
       0.0068470323 0.014919686 0.0063505783 -0.03166132
0003e0 6d 4a 5c 3c d5 03 21 3b cf 8e 1a 3c 32 67 04 bb
       0.013445479 0.0024568934 0.009433462 -0.002020311
0003f0 4d eb 63 bb a8 50 a1 3b 38 20 61 bc f4 e5 a8 3b
       -0.0034777701 0.004922945 -0.013740592 0.0051543657

action_model._discrete_distribution.branches.2.bias f4 [8]
000000 e8 c1 ad bb 62 9f c5 bb 47 07 4f 3b 84 95 00 bc
       -0.0053026564 -0.006030963 0.003159003 -0.007848147
000010 e9 8b 0a bc 66 15 4f 3b 0c 4d eb bb 1b 7d 59 3c
       -0.008456209 0.0031598448 -0.0071808156 0.013274456
