results/NewTwoAgents/BlackMLAgent/BlackMLAgent-7246.onnx (onnx, 151064 bytes, 15 tensors)

discrete_act_size_vector f4 [1, 5]
8.0 8.0 8.0 8.0 5.0
00000000: 0000 0041 0000 0041 0000 0041 0000 0041
00000010: 0000 a040

network_body._body_endoder.seq_layers.0.weight f4 [142, 71]
0.2764853 -0.0067874375 0.005953842 0.07949636 0.04745692 0.006627987 0.054551385 0.1800727
-0.23770069 -0.03600015 -0.109573245 0.05651572 0.013284171 0.0076097893 -0.03008077 -0.044540364
-0.01484846 -0.2665898 -0.12914552 -0.20621605 0.11946696 -0.0067138537 -0.06280887 -0.079480566
0.0761301 0.21003294 -0.0145348795 -0.025291748 -0.2692797 -0.21045204 0.13358349 -0.14083488
0.025616165 0.14316742 -0.21926834 0.12176491 0.10842544 -0.22693346 -0.0072080656 0.13755484
-0.00094924384 0.20239532 0.021507846 0.10960694 0.08485163 0.30782297 0.11117644 -0.048232358
0.21038185 -0.15547796 -0.18331285 -0.1699578 -0.08949796 -0.07441005 0.05731924 0.01159139
-0.029188694 0.059034217 -0.021425553 -0.075717434 -0.16536646 -0.15392001 -0.07945618 -0.022853624
-0.058813296 -0.03966127 -0.14058195 -0.17926092 -0.072827265 -0.07260765 0.06748665 0.09774992
-0.09873822 -0.022827469 0.08597224 0.07967701 0.0119475955 0.11060777 -0.0092077 0.0969765
-0.2577409 -0.15620247 -0.06721715 -0.0025560865 0.11598221 0.07442313 0.018369569 0.23485015
0.10903451 -0.0693573 -0.033898823 -0.10705267 0.10936702 0.10983155 0.21843712 -0.030323619
0.16250668 -0.10406941 -0.08667979 -0.059801023 -0.02139445 0.1834677 -0.25560695 -0.08869204
-0.01383761 0.12589397 -0.14363593 -0.013036511 -0.10244708 -0.13075753 -0.0904574 0.0425038
0.15232839 -0.02162718 -0.29432273 -0.033008754 0.23570755 -0.06222301 -0.060286306 -0.12988316
-0.07910028 0.21739314 0.10254423 0.021483954 -0.07108606 0.07115544 0.29276463 -0.16666465
-0.062225368 -0.10955324 0.00014698812 -0.078771405 0.1123114 0.015806686 -0.1293124 -0.19890992
-0.1381877 -0.1176894 -0.19071251 -0.28742275 -0.19905324 -0.117738344 -0.052232176 0.08650774
0.2638547 -0.23476595 -0.1236568 -0.11418424 0.0052843923 0.053463195 0.03668091 0.052548975
0.008121662 -0.032106977 -0.084639356 0.11970419 -0.10501087 -0.014140159 0.07294033 0.07125494
-0.19978848 0.12504019 -0.011126717 -0.16709009 -0.21888472 -0.0938299 0.09433761 -0.15111002
-0.08461837 -0.16930726 0.09954564 0.16525786 -0.02568826 -0.020553699 -0.061754964 -0.10369276
-0.25343972 0.11551451 -0.022281697 -0.04009914 -0.20421778 -0.040697657 0.033688266 -0.13264997
0.21544304 -0.16138488 0.23909311 -0.030206751 0.06435808 0.051887967 -0.12863131 0.038214922
-0.021640595 0.0036566472 0.2788854 -0.031507514 0.09520028 -0.10087989 0.11340635 -0.0045975675
0.28188944 0.1779442 0.059976276 0.058654826 0.083971485 -0.08089472 0.01143178 0.023469998
0.07303984 0.124400236 0.070562646 -0.13223286 -0.07268869 -0.22211166 -0.14923257 -0.082416706
0.041730423 0.058992688 0.033642095 -0.14805935 0.081215054 -0.23797175 -0.09367016 0.057393726
-0.1599128 0.19579941 -0.020826118 0.14907034 -0.12313658 -0.103443086 0.085558414 0.010540234
-0.19921207 0.04694752 -0.20786035 -0.14265974 -0.16700424 -0.12794219 0.050876178 -0.022825865
0.062559426 0.22753337 0.07890603 -0.11223285 -0.20124297 -0.093108915 0.13197583 -0.039242998
0.05046103 0.038575467 -0.039849717 0.100570545 -0.0006268482 0.06380633 -0.023185797 0.12479357
00000000: 7b8f 8d3e 2769 debb 7218 c33b fdce a23d
00000010: 3062 423d 962f d93b 4671 5f3d fa64 383e
00000020: cf67 73be e574 13bd f067 e0bd 077d 673d
00000030: daa5 593c 8a5b f93b f26b f6bc f56f 36bd
00000040: f546 73bc 757e 88be b93e 04be 4d2a 53be
00000050: 18ab f43d e3ff dbbb f0a1 80bd b5c6 a2bd
00000060: 19ea 9b3d e012 573e b423 6ebc a430 cfbc
00000070: 07df 89be bd80 57be 1cca 083e 0537 10be
00000080: fed8 d13c 7b9a 123e e187 60be e25f f93d
00000090: 280e de3d 3f61 68be a331 ecbb 2ddb 0c3e
000000a0: add6 78ba b840 4f3e 3931 b03c 9a79 e03d
000000b0: b1c6 ad3d f99a 9d3e 79b0 e33d 4b8f 45bd
000000c0: 576e 573e 9d35 1fbe 5db6 3bbe 6b09 2ebe
000000d0: b54a b7bd 4c64 98bd 94c7 6a3d d0e9 3d3c
000000e0: 211d efbc ddcd 713d a484 afbc be11 9bbd
000000f0: d355 29be 359d 1dbe ecb9 a2bd 8637 bbbc
00000100: 36e6 70bd db73 22bd b7f4 0fbe 2d90 37be
00000110: 7626 95bd 52b3 94bd 7136 8a3d 1c31 c83d
00000120: 4437 cabd ac00 bbbc 3712 b03d b32d a33d
00000130: d9bf 433c 5486 e23d e5db 16bc 9d9b c63d
00000140: 9ef6 83be 8af3 1fbe 25a9 89bd 0484 27bb
00000150: 1588 ed3d 276b 983d c77b 963c 8f7c 703e
00000160: 7c4d df3d 330b 8ebd 7ed9 0abd 6e3e dbbd
00000170: d1fb df3d 5def e03d fbad 5f3e 3d69 f8bc
00000180: 2768 263e 5822 d5bd 2c85 b1bd ebf1 74bd
00000190: 6a43 afbc f5de 3b3e eade 82be 2ca4 b5bd
000001a0: 25b7 62bc 59ea 003e 4c15 13be 1797 55bc
000001b0: c6cf d1bd 4de5 05be bb41 b9bd 7718 2e3d
000001c0: f9fb 1b3e 7c2b b1bc 78b1 96be 3034 07bd
000001d0: 525d 713e 8edd 7ebd c6ee 76bd 1700 05be
000001e0: 54ff a1bd 4f9c 5e3e b602 d23d 1eff af3c
000001f0: 9195 91bd f1b9 913d 3fe5 953e 23aa 2abe
00000200: 07e0 7ebd 735d e0bd d320 1a39 e752 a1bd
00000210: 8503 e63d 067d 813c 786a 04be 0baf 4bbe
00000220: 1481 0dbe 2407 f1bd 244a 43be 1329 93be
00000230: 9dd4 4bbe cd20 f1bd 68f1 55bd f82a b13d
00000240: f717 873e 7c66 70be c73f fdbd 6dd9 e9bd
00000250: b228 ad3b 39fc 5a3d b93e 163d 983d 573d
00000260: b810 053c 9b82 03bd 6657 adbd 7827 f53d
00000270: f00f d7bd 20ac 67bc bd61 953d 1cee 913d
00000280: 5a95 4cbe 890a 003e d54c 36bc aa19 2bbe
00000290: 5123 60be e429 c0bd 1434 c13d 96bc 1abe
000002a0: 654c adbd e25e 2dbe 96de cb3d 5b39 293e
000002b0: 3070 d2bc 3b60 a8bc c6f2 7cbd df5c d4bd
000002c0: dac2 81be df92 ec3d 1b88 b6bc ff3e 24bd
000002d0: 771e 51be 96b2 26bd b5fc 093d 65d5 07be
000002e0: 1a9d 5c3e 1442 25be d3d4 743e 2674 f7bc
000002f0: 2bce 833d 7a88 543d edb7 03be 4087 1c3d
00000300: 9e47 b1bc 5ca4 6f3b 11ca 8e3e 060e 01bd
00000310: 5df8 c23d 1e9a cebd 9741 e83d 31a7 96bb
00000320: d053 903e 0137 363e afa9 753d 0b40 703d
00000330: 3ef9 ab3d 22ac a5bd 5c4c 3b3c 2744 c03c
00000340: e995 953d 8dc5 fe3d 2683 903d 0d68 07be
00000350: cfdd 94bd 3d71 63be 6cd0 18be 17ca a8bd
00000360: 85ed 2a3d 51a2 713d 4bcc 093d df9c 17be
00000370: 1454 a63d deae 73be 24d6 bfbd af15 6b3d
00000380: 2ec0 23be a47f 483e 899b aabc e5a5 183e
00000390: 082f fcbd f8d9 d3bd 4039 af3d f2b0 2c3c
000003a0: 40fe 4bbe 0b4c 403d 58d9 54be 6515 12be
000003b0: 2903 2bbe 4703 03be 8a63 503d 4ffd babc
000003c0: 281f 803d 82fe 683e 7c99 a13d 56da e5bd
000003d0: a312 4ebe e3af bebd ac24 073e 44bd 20bd
000003e0: 3ab0 4e3d 4f01 1e3d 7539 23bd eef7 cd3d
000003f0: 1253 24ba e5ac 823d 24f0 bdbc c593 ff3d

network_body._body_endoder.seq_layers.0.bias f4 [142]
0.042536516 0.06678942 0.061185878 0.03556756 0.028544882 0.016738337 0.05378226 0.029892307
0.043164432 0.051519565 0.022752006 0.0022523801 0.0028422005 0.028407393 0.022404345 0.036703706
0.051510178 0.020880966 0.02248218 0.0367783 -0.006451824 0.0016905994 0.019020285 0.06787583
0.053691503 -0.0019444732 0.027966982 0.03447101 0.0012289187 0.016109725 0.012695343 0.048711915
0.004792686 -0.02938583 0.050910797 0.052898668 0.05146638 0.05978394 0.03943407 0.04146975
-0.008398195 0.033892445 0.02449772 0.061258525 0.054416537 0.060148276 0.04039201 0.032412708
0.056158196 0.026306733 0.021055482 0.018199904 0.07273284 0.025935942 0.046774514 0.020978712
0.024463946 0.0018246488 0.055015855 -0.003910455 0.056834843 0.06788891 0.04472694 0.047089156
0.063063964 0.012348832 0.022159219 0.031362846 0.103235655 0.009414186 0.023222843 0.050911106
0.03648779 0.019156449 0.0044904654 0.03511362 -0.014268885 0.015383841 0.020323541 0.03038463
0.045516543 0.01919411 0.03852904 0.03785777 0.038181968 0.067552544 0.036446292 0.026333429
0.03352319 0.03751184 0.056438345 0.037350606 0.05032083 0.0069752946 0.015591356 0.037750807
0.050708674 0.029534383 0.0040456727 0.007368978 0.013042054 0.06699484 -0.0012591585 0.01871415
0.03159309 0.04076944 0.019770347 0.008455861 0.062154237 0.014589282 0.06767246 0.026702378
0.017062197 0.05074343 0.06582559 0.062459406 0.04018356 0.0056528915 0.055825222 0.047129583
-0.0051299185 0.06657396 0.033023424 0.004245179 0.02685465 0.016717527 0.04444771 0.031058094
0.041946013 -0.04649779 0.013247007 0.025183046 0.03344802 0.004505693 0.039833084 0.0071991705
0.0085277865 0.08436074 0.033347107 0.0028164652 0.03890974 0.05313855
00000000: c53a 2e3d e4c8 883d 0b9e 7a3d 4aaf 113d
00000010: f5d6 e93c d61e 893c c94a 5c3d b6e0 f43c
00000020: 30cd 303d 2e06 533d 6a62 ba3c ab9c 133b
00000030: 3644 3a3b 9fb6 e83c 5189 b73c a056 163d
00000040: 56fc 523d 8f0e ab3c 8c2c b83c d8a4 163d
00000050: d369 d3bb 1a97 dd3a 6ed0 9b3c 7c02 8b3d
00000060: 9feb 5b3d b2dd feba 031b e53c 7931 0d3d
00000070: ab13 a13a 8bf8 833c 2100 503c 2586 473d
00000080: f70b 9d3b 8dba f0bc d787 503d 46ac 583d
00000090: 69ce 523d 01e0 743d 9f85 213d 2fdc 293d
000000a0: 9598 09bc ced2 0a3d 71af c83c 38ea 7a3d
000000b0: e0e3 5e3d 0a5e 763d 1872 253d 30c3 043d
000000c0: 2306 663d 3881 d73c 8c7c ac3c f717 953c
000000d0: f5f4 943d 9d77 d43c a296 3f3d 8cdb ab3c
000000e0: 9d68 c83c 0e29 ef3a 4e58 613d 4623 80bb
000000f0: a7cb 683d 5709 8b3d 9933 373d 8fe0 403d
00000100: ae27 813d c152 4a3c 4087 b53c 5476 003d
00000110: 376d d33d f53d 1a3c d53d be3c 2a88 503d
00000120: 3974 153d fced 9c3c c124 933b 4dd3 0f3d
00000130: 0bc8 69bc 810c 7c3c 8e7d a63c 30e9 f83c
00000140: 8e6f 3a3d f73c 9d3c a0d0 1d3d c010 1b3d
00000150: b264 1c3d fd58 8a3d b548 153d 34b9 d73c
00000160: 9d4f 093d 04a6 193d e52b 673d f3fc 183d
00000170: 371d 4e3d 0391 e43b e372 7f3c 97a0 1a3d
00000180: e6b3 4f3d 17f2 f13c 9091 843b 7877 f13b
00000190: 57ae 553c 9734 893d 590a a5ba 6b4e 993c
000001a0: c267 013d dbfd 263d 6cf5 a13c 748a 0a3c
000001b0: 7195 7e3d e207 6f3c dc97 8a3d f2be da3c
000001c0: 05c6 8b3c 58d8 4f3d 91cf 863d 6fd5 7f3d
000001d0: 8497 243d e43b b93b fda8 643d f30a 413d
000001e0: e018 a8bb ee57 883d 9243 073d 241b 8b3b
000001f0: 48fe db3c 32f3 883c cd0e 363d 8b6d fe3c
00000200: 95cf 2b3d 7774 3ebd f909 593c ad4c ce3c
00000210: cb00 093d 7ea4 933b 0428 233d 05e7 eb3b
00000220: 21b8 0b3c 53c5 ac3d fa96 083d 7294 383b
00000230: d25f 1f3d cfa7 593d

network_body._body_endoder.seq_layers.2.weight f4 [142, 142]
0.09506943 -0.15398435 0.23715764 -0.014232178 0.1368016 0.0036691471 0.035535045 0.021404704
0.054793812 0.03269462 -0.038987886 0.08328609 -0.003046834 -0.16491117 -0.012821365 0.051676415
0.062315762 -0.01336518 -0.039572835 -0.13265522 0.12967043 -0.06575354 0.0015465436 -0.08164143
-0.048411816 0.060164083 -0.034270495 -0.0068730824 0.11427935 -0.1407659 -0.17815024 -0.09293277
0.05276761 0.048739586 0.011064863 -0.0861834 0.27158383 -0.011245353 0.092240885 0.037751365
-0.24250208 0.055577155 0.27586338 0.043628626 -0.19234022 -0.068307094 -0.104207814 -0.18700515
0.048894033 -0.1288808 -0.021268861 0.086645916 0.035195522 0.109886244 -0.2069429 0.043906596
0.073701374 -0.12563707 0.018356752 -0.076133065 0.04316834 -0.009023821 -0.029472195 0.10249596
0.024988387 0.05495499 0.17810111 -0.18689841 -0.0153803555 0.068209276 -0.071389556 -0.028525347
-0.0962313 -0.09537078 -0.007007882 0.0105967065 -0.012399831 0.11019162 -0.11050504 0.0063576023
0.04225712 0.16445161 0.0039330507 0.06300866 0.059526265 -0.06127066 0.15830217 0.09815585
-0.06183001 -0.021757092 -0.111428015 -0.027961377 0.0057140263 -0.09497927 0.093816325 0.019816214
0.036515232 0.05452894 0.034658268 0.0884627 -0.039366 0.0318187 0.0022141163 0.04658989
0.1381776 0.08264301 0.0054804566 0.27316672 -0.03207226 0.032184534 -0.15220176 -0.07504282
-0.007097859 0.019306751 0.042718932 0.12015002 0.052271076 0.10881586 -0.05312872 -0.08677152
-0.074744195 -0.06284288 0.09309713 0.027965255 -0.028876394 -0.012813801 0.08402497 -0.23101169
0.15028901 0.0031221944 0.008501724 -0.12118669 0.13667075 0.043026064 -0.0010077188 0.06254866
-0.050711695 0.052458156 -0.045488685 -0.105448924 0.039918933 -0.048347022 -0.04964626 -0.0073983264
0.13893314 0.06522745 -0.23200269 0.081253216 -0.015959695 0.0033594554 -0.12888317 0.073039584
0.13034713 -0.08717495 -0.053399112 0.044766616 -0.09854892 -0.06590637 0.070813864 0.0443962
-0.033331614 -0.013457636 0.0025158993 0.025070865 0.11236836 0.29436076 0.012332641 -0.14513479
-0.033824928 0.066588424 0.13208626 0.022784049 0.030343702 0.15255445 -0.049348194 0.064562276
0.04797686 -0.047975343 0.036483586 0.13761066 -0.000566071 -0.012233816 -0.07830513 -0.025032751
-0.10889759 -0.014937995 -0.06989098 0.115931965 -0.053357705 -0.06080493 0.010352185 -0.08965392
0.039300296 0.04167108 0.15091366 0.022507833 0.12541161 -0.12446494 -0.12077277 -0.103859335
0.029225584 -0.104443155 0.102801226 -0.08869664 -0.020670637 0.0019764672 -0.008991443 0.07469103
0.16135444 -0.04183316 0.024629252 -0.08356794 0.00067147653 0.013133427 0.12770349 0.08728939
-0.021296298 0.06719753 0.0422701 0.07581837 0.12751314 -0.042926952 0.13103648 0.012587693
-0.017919527 -0.0877466 -0.034026183 -0.13477148 -0.11423616 0.10315389 0.06938147 0.13659485
0.016139148 0.24078846 -0.027079215 0.005632291 -0.06331632 0.0080943825 -0.050741725 -0.012045258
0.15101163 -0.030155618 -0.0052609583 -0.012034013 -0.16290142 -0.03473906 0.045396235 0.04420038
0.024748283 -0.04923788 0.011106271 0.0857604 0.0134191 0.030185701 -0.015002196 0.046298813
00000000: c3b3 c23d 13ae 1dbe 74d9 723e 152e 69bc
00000010: b815 0c3e 1376 703b 328d 113d eb58 af3c
00000020: 7a6f 603d cbea 053d c3b1 1fbd e691 aa3d
00000030: 64ad 47bb 79de 28be b410 52bc a6aa 533d
00000040: d03e 7f3d a1f9 5abc 2017 22bd c5d6 07be
00000050: 53c8 043e cba9 86bd 64b5 ca3a 9f33 a7bd
00000060: 784b 46bd 9d6e 763d 385f 0cbd 9837 e1bb
00000070: 4b0b ea3d f024 10be 046d 36be 8953 bebd
00000080: d922 583d 29a3 473d 6649 353c ec80 b0bd
00000090: 090d 8b3e 6e3e 38bc cae8 bc3d 2da1 1a3d
000000a0: 7752 78be dfa4 633d f73d 8d3e eeb3 323d
000000b0: d6f4 44be 97e4 8bbd e86a d5bd 477e 3fbe
000000c0: 1c45 483d 54f9 03be 093c aebc 6a73 b13d
000000d0: 2e29 103d 0a0c e13d d7e8 53be 67d7 333d
000000e0: bff0 963d 01a7 00be e660 963c a7eb 9bbd
000000f0: 49d1 303d a6d8 13bc ac6f f1bc 67e9 d13d
00000100: 72b4 cc3c 7c18 613d 2360 363e 4c62 3fbe
00000110: e3fd 7bbc 4eb1 8b3d b034 92bd fdad e9bc
00000120: ea14 c5bd c151 c3bd 60a2 e5bb cf9d 2d3c
00000130: a928 4bbc 25ac e13d 7750 e2bd 6f53 d03b
00000140: cd15 2d3d 0166 283e d2e0 803b af0a 813d
00000150: d0d1 733d f2f6 7abd f719 223e ef05 c93d
00000160: 7741 7dbd ee3b b2bc 5f34 e4bd 420f e5bc
00000170: ba3c bb3b 7e84 c2bd c622 c03d 9d55 a23c
00000180: ff90 153d bd59 5f3d d4f5 0d3d ef2b b53d
00000190: 3e3e 21bd 5354 023d b51a 113b 0ad5 3e3d
000001a0: 6e7e 0d3e bd40 a93d 6795 b33b 82dc 8b3e
000001b0: 345e 03bd eed3 033d c7da 1bbe 0db0 99bd
000001c0: 2895 e8bb 3129 9e3c 0cfa 2e3d 3711 f63d
000001d0: 321a 563d d9da de3d 809d 59bd 44b5 b1bd
000001e0: 7c13 99bd c5b3 80bd b5a9 be3d 6417 e53c
000001f0: 308e ecbc faf0 51bc 4915 ac3d 548e 6cbe
00000200: 5de5 193e bb9d 4c3b d14a 0b3c ba30 f8bd
00000210: 6bf3 0b3e 193c 303d 6f15 84ba 8319 803d
00000220: 11b7 4fbd 5dde 563d 5852 3abd 9bf5 d7bd
00000230: 0982 233d 8707 46bd e059 4bbd a96d f2bb
00000240: 7d44 0e3e f895 853d 1d92 6dbe 1668 a63d
00000250: e8bd 82bc 4f2a 5c3b f3f9 03be c795 953d
00000260: b879 053e c888 b2bd 07b9 5abd 335d 373d
00000270: 04d4 c9bd ebf9 86bd dc06 913d cad8 353d
00000280: bb86 08bd 6b7d 5cbc c9e1 243b 6a61 cd3c
00000290: 6221 e63d 74b6 963e d80e 4a3c 379e 14be
000002a0: 028c 0abd 835f 883d 9f41 073e 9da5 ba3c
000002b0: 5b93 f83c 3c37 1c3e 5521 4abd 3a39 843d
000002c0: 6283 443d cb81 44bd d06f 153d cfe9 0c3e
000002d0: 6264 14ba 5870 48bc 715e a0bd 7c11 cdbc
000002e0: b305 dfbd 7ebe 74bc 0123 8fbd bd6d ed3d
000002f0: 9c8d 5abd 970e 79bd 369c 293c 799c b7bd
00000300: 59f9 203d 4baf 2a3d 1c89 1a3e 5962 b83c
00000310: e76b 003e 79e7 febd b757 f7bd 34b4 d4bd
00000320: 7e6a ef3c 4be6 d5bd 7389 d23d 96a6 b5bd
00000330: 7855 a9bc 9e87 013b d850 13bc 9cf7 983d
00000340: 193a 253e 3f59 2bbd 49c3 c93c ab25 abbd
00000350: 0706 303a 962d 573c b4c4 023e c8c4 b23d
00000360: 9375 aebc dc9e 893d 6a23 2d3d a946 9b3d
00000370: ce92 023e 2cd4 2fbd 6d2e 063e 9c3c 4e3c
00000380: f9cb 92bc 7db4 b3bd 0a5f 0bbd 8901 0abe
00000390: a6f4 e9bd 5942 d33d df17 8e3d 85df 0b3e
000003a0: 3f36 843c 4091 763e 3bd5 ddbc 158f b83b
000003b0: fdab 81bd 4d9e 043c 8ed6 4fbd 7959 45bc
000003c0: cba2 1a3e ea08 f7bc 1e64 acbb 4f2a 45bc
000003d0: a1cf 26be 8b4a 0ebd 67f1 393d 750b 353d
000003e0: e9bc ca3c a9ad 49bd 14f7 353c 26a3 af3d
000003f0: c9db 5b3c 0148 f73c c5cb 75bc d3a3 3d3d

network_body._body_endoder.seq_layers.2.bias f4 [142]
0.033143982 -0.00089919515 0.03523438 0.0310975 0.022905804 0.027110793 0.006068834 0.0053496305
0.036397345 0.0032619287 0.012541047 0.017714422 0.037414853 0.044872772 0.0047848076 0.051557608
0.013870764 0.018938908 0.041399054 0.027234383 0.008230382 -0.008834208 0.032053098 -0.012819267
0.026790274 0.02322378 0.00352646 0.02242478 -0.010569149 0.021185488 0.015158168 0.041442882
0.03416889 0.02801835 0.018299833 0.030086601 0.04023982 0.036656827 0.029478246 0.021963738
0.018811973 0.008326579 0.046188734 0.014806367 0.014420519 0.021826139 0.04161025 0.02105387
0.039442156 0.013654097 0.019205889 0.0076764217 0.03966681 0.010315418 0.036460284 0.05036939
0.0039620874 0.023444563 0.07679316 0.028272955 0.03434171 0.007427087 0.0152974855 0.042724222
0.015002773 0.049126152 0.040851146 0.017636126 0.04192129 0.0075361095 0.03234064 0.015397947
0.01484359 0.016144464 0.061008327 -0.0073298416 -0.0002954662 0.031200802 0.02494877 0.030150587
-0.0017852349 0.023392161 0.04398275 0.018413818 -0.010305731 0.027759012 0.02931403 0.019142576
0.057341695 0.012761495 -0.009491388 0.007493344 0.044629492 0.019980496 0.02407557 -0.008556527
0.018352672 0.0278682 0.039588332 0.009366981 0.025844555 0.0276707 0.03529301 0.039946616
0.04051171 0.012359803 0.008996021 0.062444843 0.008185391 0.021186747 0.03574749 0.03918721
0.055151332 0.037938245 0.0007913761 0.020486195 0.0041777343 0.047721196 0.029751634 0.04265036
0.0022977504 0.013561643 0.0024040847 0.026932191 0.04268549 0.03535006 0.043179404 0.042008143
0.03663475 0.02131013 0.028103719 0.04886697 0.00999727 0.0112485755 0.019269058 0.058205977
0.059893038 0.009772615 0.015046956 0.020324204 0.049849708 0.018132411
00000000: fcc1 073d f7b7 6bba ed51 103d 2fc0 fe3c
00000010: f4a4 bb3c 7417 de3c 12dd c63b f44b af3b
00000020: 6215 153d 15c6 553b f778 4d3c d61d 913c
00000030: 5140 193d 83cc 373d e0c9 9c3b 122e 533d
00000040: 3342 633c c525 9b3c 0e92 293d a41a df3c
00000050: b9d8 063c 5bbd 10bc 1c4a 033d e707 52bc
00000060: 4777 db3c cc3f be3c 2e1c 673b 2cb4 b73c
00000070: 392a 2dbc 308d ad3c f759 783c 03c0 293d
00000080: aef4 0b3d bd86 e53c 88e9 953c 2d78 f63c
00000090: 82d2 243d 7825 163d 5d7c f13c 4ced b33c
000000a0: 911b 9a3c 346c 083c 6630 3d3d 6896 723c
000000b0: 0a44 6c3c bbcc b23c 826f 2a3d 2a79 ac3c
000000c0: 198e 213d 6fb5 5f3c ab55 9d3c 7e8a fb3b
000000d0: aa79 223d 0002 293c 6157 153d 2250 4e3d
000000e0: 66d4 813b d00e c03c bb45 9d3d af9c e73c
000000f0: e5a9 0c3d ec5e f33b 4ea2 7a3c 98ff 2e3d
00000100: 31ce 753c 8138 493d 8853 273d a379 903c
00000110: a9b5 2b3d 78f1 f63b 9e77 043d ac47 7c3c
00000120: 8732 733c 6541 843c dee3 793d 2b2f f0bb
00000130: cde8 9ab9 d398 ff3c 5d61 cc3c 5dfe f63c
00000140: 8bfe e9ba eba0 bf3c 4227 343d 93d8 963c
00000150: 5ed9 28bc de66 e33c fa23 f03c e4d0 9c3c
00000160: 20df 6a3d 9715 513c c481 1bbc ba8a f53b
00000170: 6acd 363d 23ae a33c 213a c53c ad30 0cbc
00000180: 5858 963c da4b e43c 6027 223d f777 193c
00000190: f6b7 d33c aaad e23c 678f 103d 109f 233d
000001a0: 9bef 253d c580 4a3c 0c64 133c 2ac6 7f3d
000001b0: 051c 063c d48f ad3c f66b 123d c582 203d
000001c0: 5de6 613d 2265 1b3d 5a74 4f3a aad2 a73c
000001d0: 60e5 883b 4d77 433d b3b9 f33c 25b2 2e3d
000001e0: db95 163b a731 5e3c d98d 1d3b e6a0 dc3c
000001f0: fbd6 2e3d 39cb 103d e3dc 303d bb10 2c3d
00000200: 520e 163d 9592 ae3c c539 e63c bb28 483d
00000210: 97cb 233c f24b 383c 25da 9d3c 6469 6e3d
00000220: 6752 753d 511d 203c 8287 763c f27e a63c
00000230: 352f 4c3d 6c8a 943c

action_model._discrete_distribution.branches.0.weight f4 [8, 142]
-0.018432017 -0.016521825 -0.004740622 -0.0053537893 0.026468538 -0.023256918 -0.027646506 -0.027590405
0.01092811 0.015102905 0.023117512 0.0024363687 0.017674118 -0.0021558055 0.026124667 -0.017705442
0.0070742844 -0.0011635739 0.023490941 -0.018748986 -0.050474223 -0.028153088 -0.0024416035 0.0022312128
0.0025183288 -0.06462069 -0.013257603 -0.011638704 0.021850204 -0.008871056 0.026207514 0.0052016927
-0.02760879 -0.02829332 0.0140712615 0.026839636 0.007252035 0.03580881 -0.057591304 -0.00438035
0.0036804716 -0.015413171 -0.009225936 0.016452458 0.0060583223 0.01663177 -0.026739046 0.020855023
-0.007453011 -0.032930475 0.0034116697 -0.003952535 0.024590883 0.004437828 -0.04530583 0.038482822
0.0052104937 0.014878882 -0.010548048 -0.004985749 0.0129253045 -0.007932177 -0.021227153 -0.054724406
0.04047529 0.015602419 0.00376049 0.027240934 0.013411196 0.009036224 0.021196343 0.016165785
-0.028467588 -0.0026859462 -0.0010692307 0.0065095327 0.031469855 -0.047524348 -0.0037059202 0.00922663
0.020278594 0.02365061 -0.011209606 0.031669483 0.0005819025 0.014264782 -0.0033169754 0.006631798
0.015752822 -0.020567607 -0.0035594567 -0.024856072 -0.06011026 -0.008273135 -0.0027072455 -0.037207536
0.024050646 0.0043142643 0.013289894 -0.0153600285 -0.0026132904 -0.0022351157 -0.0150989145 -0.023105172
-0.014099094 0.0154294465 -0.013399662 -0.027441874 -0.0025918758 0.02430125 0.027798157 0.015468069
-0.060457874 -0.013540041 0.018819125 0.020355709 0.012734851 -0.007968081 0.007927214 0.00911772
0.0018788264 0.004456517 0.025189938 0.013880055 -0.019368859 -0.011662719 -0.041699216 0.038123414
-0.044188254 -0.01858438 0.0015737773 0.041340653 -0.010362127 0.032874778 -0.0385808 -0.031511497
0.009709467 -0.004452424 -0.016312886 -0.006671036 -0.027276877 -0.007380565 -0.0010986266 0.00059417915
-0.010499167 0.011118227 0.024770351 0.012747192 -0.020628788 -0.021261046 -0.03368825 -0.019549279
-0.018440276 -0.006089025 0.015487284 0.054481264 0.0020332632 -0.012725422 6.1429746e-06 0.016162982
0.018620519 -0.011684116 -0.032471113 -0.004591692 -0.017468676 -0.0129669495 -0.030722948 0.053270202
-0.001334742 0.04154089 0.03542887 -0.018856406 -0.010080486 0.01602038 -0.019617893 0.00047641285
-0.014066928 0.00017571446 -0.014547544 -0.01872343 0.021790635 -0.002288577 -0.009701781 0.0452057
-0.013935715 0.0026882424 0.011168821 0.00045623115 0.043472435 0.023667408 0.0062284707 0.0019292339
0.006930684 -0.006195295 0.027484143 -0.020989962 0.0014660481 -0.013640974 -0.010938286 -0.016976964
-0.012694423 0.00205514 -0.046324044 0.01964101 0.026821654 -0.029513404 -0.03055404 0.025108665
-0.02511376 0.0017736463 0.0030681917 -0.010985641 -0.00829059 0.0031296066 0.026109364 0.016048068
0.024049213 -0.011057436 -0.0037149908 -0.015782258 0.0087027075 -0.040057313 0.01244729 -0.03440813
-0.0040666168 -0.013802891 0.026752021 -0.003900924 -0.007394155 -0.007265747 0.0079340795 0.013370343
-0.0040744147 -0.029268863 -0.027883543 0.002536168 -0.0068165613 -0.03575658 -0.0020918946 0.011700522
-0.016754081 0.02735894 0.037379064 0.002408896 0.05016192 0.024690412 0.044190343 -0.018901575
-0.0024388817 -0.02113198 -0.014597764 -0.03555142 -0.0007981062 -0.018189294 0.03283913 -0.0025079742
00000000: befe 96bc c758 87bc 3857 9bbb d76e afbb
00000010: 8cd4 d83c 4b85 bebc ed7a e2bc 4605 e2bc
00000020: d10b 333c 2d72 773c f060 bd3c 7cab 1f3b
00000030: 50c9 903c 6a48 0dbb 6603 d63c 010b 91bc
00000040: 66cf e73b 1083 98ba 1370 c03c 7997 99bc
00000050: 0fbe 4ebd 4ea1 e6bc 4f03 20bb 8a39 123b
00000060: 8c0a 253b da57 84bd 6b36 59bc 43b0 3ebc
00000070: 33ff b23c e857 11bc 24b1 d63c f672 aa3b
00000080: d42b e2bc 65c7 e7bc 268b 663c ccde db3c
00000090: 7ba2 ed3b 42ac 123d dce4 6bbd 0a89 8fbb
000000a0: 1134 713b 8687 7cbc 6128 17bc 4ec7 863c
000000b0: e484 c63b 5a3f 883c d80b dbbc 27d8 aa3c
000000c0: 6338 f4bb 1be2 06bd 5296 5f3b 4484 81bb
000000d0: d272 c93c 336b 913b 9b92 39bd 2aa0 1d3d
000000e0: cabc aa3b 8ec6 733c b8d1 2cbc 7e5f a3bb
000000f0: a8c4 533c f6f5 01bc 91e4 adbc b326 60bd
00000100: 6bc9 253d 4aa1 7f3c 8e72 763b 6128 df3c
00000110: a2ba 5b3c ac0c 143c f4a3 ad3c 1c6e 843c
00000120: dc34 e9bc b306 30bb 6e25 8cba eb4d d53b
00000130: 89e6 003d e4a8 42bd 06df 72bb 4b2b 173c
00000140: 4b1f a63c edbe c13c 7fa8 37bc dcb7 013d
00000150: d18a 183a d5b6 693c 9d61 59bb 8e4f d93b
00000160: 100c 813c 667d a8bc c645 69bb f69e cbbc
00000170: 2d36 76bd 0b8c 07bc 0b6c 31bb ee66 18bd
00000180: dc05 c53c ac5e 8d3b dbbd 593c a1a8 7bbc
00000190: bd43 2bbb 057b 12bb 7061 77bc 0f47 bdbc
000001a0: e3ff 66bc cacb 7c3c 428a 5bbc c8cd e0bc
000001b0: 76dc 29bb 6a13 c73c f6b8 e33c c96d 7d3c
000001c0: ada2 77bd 0cd7 5dbc 912a 9a3c 04c1 a63c
000001d0: d6a5 503c 8e8c 02bc 25e1 013c 7d62 153c
000001e0: f442 f63a f907 923b 215b ce3c 2c69 633c
000001f0: 71ab 9ebc fd14 3fbc cccc 2abd 4c27 1c3d
00000200: befe 34bd 453e 98bc 3447 ce3a d154 293d
00000210: e9c5 29bc b4a7 063d e706 1ebd 3312 01bd
00000220: 7514 1f3c a4e5 91bb 9aa2 85bc b598 dabb
00000230: c273 dfbc abd8 f1bb cbff 8fba b0c2 1b3a
00000240: b304 2cbc 3929 363c 31eb ca3c 99d9 503c
00000250: b4fd a8bc a52b aebc b1fc 09bd cf25 a0bc
00000260: 1010 97bc 7286 c7bb 61be 7d3c bf27 5f3d
00000270: 7f40 053b 4a7e 50bc c01f ce36 3b68 843c
00000280: 0f8a 983c bc6e 3fbc 6e00 05bd e775 96bb
00000290: 781a 8fbc 5473 54bc b1ae fbbc db31 5a3d
000002a0: 82f2 aeba c826 2a3d dd1d 113d c078 9abc
000002b0: 9f28 25bc 2c3d 833c b4b5 a0bc 0dc7 f939
000002c0: f978 66bc fe3f 3839 d258 6ebc e161 99bc
000002d0: 4682 b23c f3fb 15bb 38f4 1ebc 9d29 393d
000002e0: a052 64bc 392d 303b 6efd 363c 4f32 ef39
000002f0: 2710 323d 27e2 c13c 3318 cc3b 59de fc3a
00000300: cb1a e33b e701 cbbb 6d26 e13c 24f3 abbc
00000310: 6928 c03a 647e 5fbc 7f36 33bc 4613 8bbc
00000320: 45fc 4fbc 87af 063b 48be 3dbd 2fe6 a03c
00000330: 16b9 db3c 18c6 f1bc 774c fabc b0b0 cd3c
00000340: 5fbb cdbc b279 e83a b713 493b 1efd 33bc
00000350: 41d5 07bc 161a 4d3b 4ee3 d53c 3d77 833c
00000360: db02 c53c 3f2a 35bc 3477 73bb cb49 81bc
00000370: cd95 0e3c 2313 24bd b8ef 4b3c 8aef 0cbd
00000380: 4141 85bb 8525 62bc 0e27 db3c a5a6 7fbb
00000390: ab4a f2bb 8115 eebb f1fd 013c 480f 5b3c
000003a0: ab82 85bb 41c5 efbc 076c e4bc d735 263b
000003b0: 765d dfbb 7e75 12bd 2b18 09bb 8cb3 3f3c
000003c0: db3f 89bc db1f e03c ca1a 193d 92de 1d3b
000003d0: 9676 4d3d 8c43 ca3c ef00 353d 7ad7 9abc
000003e0: a5d5 1fbb f91c adbc 762b 6fbc 5e9e 11bd
000003f0: 0038 51ba b701 95bc 5382 063d d35c 24bb

action_model._discrete_distribution.branches.0.bias f4 [8]
-0.0057762093 -0.007806218 0.008721789 -0.01528104 0.016216189 0.00414867 0.008046563 0.0023059507
00000000: 5b46 bdbb 4ecb ffbb d6e5 0e3c 545d 7abc
00000010: d0d7 843c 91f1 873b bbd5 033c 6f1f 173b

action_model._discrete_distribution.branches.1.weight f4 [8, 142]
0.009006954 -0.0009678977 0.00624722 0.012756349 -0.0143920425 0.020763515 -0.015400047 0.0077727805
-0.019741131 -0.024315452 0.01668101 -0.011911766 0.0013720377 -0.005042945 0.025367707 -0.014686008
0.006444233 -0.0054015378 -0.015131897 0.009007091 0.0070484597 0.011337437 -0.013216788 0.0037440201
0.03602408 -0.0052592615 0.0014501049 0.012692709 -1.690624e-05 -0.006645206 -0.020980526 0.0072720195
-0.027697824 0.008481171 0.0008348202 -0.022162544 0.0057339473 -0.027716108 0.035665523 0.011796543
0.0023953025 0.008820306 0.027027493 -0.00043852784 0.0031869614 -0.032364722 -0.036114488 -0.05039843
0.018608117 -0.05706596 0.024850149 0.0075053656 -0.005711596 -0.020887123 -0.024292266 0.0055915616
0.023516765 -0.013325979 -0.028122038 -0.0053393445 -0.014841659 0.033053387 0.0004990957 -0.0075946352
0.009536749 -0.03452232 -0.0029440087 -0.011908995 -0.008727 -0.0058977096 -0.0077848076 0.018461073
-0.04173314 0.052203197 -0.018779509 0.023491042 0.0028326677 0.0217225 0.0068923845 -0.011086916
-0.018830454 0.0035571994 0.047222696 -0.0011416462 0.022859167 -0.010621426 -0.01848725 0.008323078
-0.022894524 -0.013451779 -0.004484516 0.025394328 -0.002918893 -0.0038811767 0.00799857 0.03670206
-0.009464237 0.030384263 0.015815476 0.028027384 -0.016091775 0.019694928 -0.012763774 -0.009866641
-0.02785815 -0.016173251 0.016565848 -0.024447694 -0.021875935 -0.0027041119 -0.031068187 -0.006642838
-0.008008315 0.04445029 0.032350622 0.020956948 0.0013430293 -0.012160306 -0.028418109 -0.00034499218
0.0049156025 0.009747727 0.01720765 -0.015432902 0.0062458967 -0.01253717 -0.011213485 -0.014053886
0.007244702 0.0039473833 -0.0063378005 -0.0066448357 -0.038462512 -0.004137227 -0.0065699127 0.008663716
-0.008163454 -0.004667889 0.0353249 -0.01688606 0.003418255 -0.03511056 -0.033253405 0.021613961
-0.013657547 -0.004137807 0.0014902533 0.036560286 0.017267657 0.025628679 0.031199919 0.03752436
0.009628467 0.012985778 -0.030757124 -0.005491736 0.0048356103 -0.018087445 0.021200009 0.003526706
-0.0007777419 -0.033153653 0.0202935 0.03313698 0.044538435 -0.00436198 -0.01053048 0.0067721107
-0.00734017 0.054881584 -0.0061916118 -0.022706298 -0.03444605 -0.00048816355 -0.03547083 0.028192017
-0.0015511964 0.040909212 -0.02534413 0.045893464 0.033250455 -0.053066317 0.018001264 0.0017029094
-0.0008507653 0.017615909 -0.0071617216 0.051349767 0.03064294 0.030589864 0.016421204 0.039853178
-0.025502514 -0.02110563 -0.01737014 -0.0026004068 0.057005655 -0.030248147 0.0037589138 0.00022538695
-0.009131714 -0.01861338 0.0129892705 -0.02032165 0.018804882 0.048592214 0.012024459 0.06484816
0.05740411 -0.009700616 -0.015319068 0.010984407 -0.007978295 0.0101865055 0.020236365 0.015935494
-0.020971421 -0.011893675 0.012949515 0.031512108 -0.0249363 0.03435069 -0.015419009 0.011527873
0.030161256 0.009325867 -0.029701417 0.032692153 0.0181089 -0.004520811 0.012872156 0.024186235
0.010013227 -0.025415251 0.07852148 0.0120187905 0.01047151 -0.024880758 0.0052888193 0.035287544
-0.0066174027 -0.031203931 0.044281766 0.0046058437 0.041402817 0.06250445 0.012287526 0.008408206
0.010670214 0.05121201 -0.0016190456 0.020541003 0.030726224 0.0486176 0.032775223 -0.030775692
00000000: e791 133c 84ba 7dba 7bb5 cc3b 0100 513c
00000010: 9acc 6bbc 3f18 aa3c 7b50 7cbc cfb2 fe3b
00000020: 27b8 a1bc 3331 c7bc 9da6 883c 9129 43bc
00000030: f2d5 b33a 4a3f a5bb f0cf cf3c 959d 70bc
00000040: 252a d33b 62ff b0bb c7eb 77bc 7a92 133c
00000050: c4f6 e63b a8c0 393c 3a8b 58bc 3c5e 753b
00000060: fc8d 133d e255 acbb 7211 be3a 15f5 4f3c
00000070: e0d1 8db7 07c0 d9bb 5adf abbc 1f4a ee3b
00000080: 8ce6 e2bc 9cf4 0a3c d6d7 5a3a 398e b5bc
00000090: d6e3 bb3b e40c e3bc 0316 123d 4a46 413c
000000a0: 82fa 1c3b 0b83 103c c368 dd3c 36ea e5b9
000000b0: 57dc 503b df90 04bd c9ec 13bd 966e 4ebd
000000c0: 0d70 983c ffbd 69bd 8a92 cb3c 92ef f53b
000000d0: 5728 bbbb 791b abbc 9300 c7bc 6b39 b73b
000000e0: 3ba6 c03c 3555 5abc 3060 e6bc abf5 aebb
000000f0: 6e2a 73bc fd62 073d bfd5 023a 6bdc f8bb
00000100: 0640 1c3c 4767 0dbd 45f0 40bb f21d 43bc
00000110: b1fb 0ebc 9341 c1bb b317 ffbb ad3b 973c
00000120: 5ef0 2abd 05d3 553d 7cd7 99bc 4970 c03c
00000130: 47a4 393b 62f3 b13c 83d9 e13b e5a5 35bc
00000140: 5342 9abc e71f 693b 966c 413d 4aa3 95ba
00000150: 2643 bb3c 7d05 2ebc 9372 97bc 855d 083c
00000160: 4c8d bbbc da64 5cbc d9f2 92bb c407 d03c
00000170: e64a 3fbb 575b 7ebb 6f0c 033c e654 163d
00000180: e30f 1bbc 6be8 f83c 758f 813c af99 e53c
00000190: e6d2 83bc 4257 a13c 261f 51bc b1a7 21bc
000001a0: c636 e4bc c47d 84bc 1ab5 873c 8846 c8bc
000001b0: 2935 b3bc 7837 31bb b682 febc 2aac d9bb
000001c0: 4f35 03bc 8211 363d 1682 043d e8ad ab3c
000001d0: 9608 b03a 053c 47bc 18cd e8bc 11e0 b4b9
000001e0: 1013 a13b eeb4 1f3c 0ff7 8c3c 48da 7cbc
000001f0: 61aa cc3b b468 4dbc c4b8 37bc 4542 66bc
00000200: f764 ed3b 0d59 813b 53ad cfbb ecbc d9bb
00000210: de8a 1dbd 9391 87bb 6c48 d7bb 42f2 0d3c
00000220: 02c0 05bc 17f5 98bb d8b0 103d a254 8abc
00000230: cd04 603b 17d0 0fbd b934 08bd c30f b13c
00000240: e7c3 5fbc 7196 87bb 9a54 c33a 3dc0 153d
00000250: e774 8d3c 3cf3 d13c f996 ff3c 25b3 193d
00000260: b8c0 1d3c 4dc2 543c 5df6 fbbc 05f4 b3bb
00000270: 0a74 9e3b 1f2c 94bc a4ab ad3c 4f20 673b
00000280: 60e1 4bba 20cc 07bd 8e3e a63c a4ba 073d
00000290: ef6d 363d f1ee 8ebb 0988 2cbc 95e8 dd3b
000002a0: cf85 f0bb 83cb 603d 01e3 cabb 8f02 babc
000002b0: 4d17 0dbd 34f0 ffb9 dc49 11bd f2f2 e63c
000002c0: 8451 cbba 6b90 273d 7e9e cfbc c9fa 3b3d
000002d0: a131 083d 115c 59bd 6377 933c 2834 df3a
000002e0: e505 5fba 3d4f 903c e0ac eabb 2254 523d
000002f0: e706 fb3c 9897 fa3c c385 863c 163d 233d
00000300: a6ea d0bc b7e5 acbc d34b 8ebc 966b 2abb
00000310: c37e 693d f6ca f7bc 1c58 763b d955 6c39
00000320: 2f9d 15bc 167b 98bc f3d0 543c 9779 a6bc
00000330: b20c 9a3c a108 473d 3d02 453c 1dcf 843d
00000340: 9220 6b3d 55ef 1ebc d4fc 7abc f1f7 333c
00000350: 65b7 02bc 4de5 263c bcc6 a53c 278b 823c
00000360: 42cc abbc b0dd 42bc 342a 543c d712 013d
00000370: 3647 ccbc 4fb3 0c3d 03a0 7cbc 67df 3c3c
00000380: bd14 f73c 85cb 183c 6350 f3bc 35e8 053d
00000390: 1e59 943c 5023 94bb bce5 523c 3622 c63c
000003a0: 850e 243c a533 d0bc dfcf a03d 76ea 443c
000003b0: b290 2b3c bbd2 cbbc d54d ad3b ac89 103d
000003c0: ccd6 d8bb 639f ffbc cc60 353d 9eec 963b
000003d0: 0096 293d 5502 803d 9f51 493c 92c2 093c
000003e0: 1fd2 2e3c afc3 513d 2836 d4ba 9b45 a83c
000003f0: 90b5 fb3c 4023 473d 503f 063d 4e1d fcbc

action_model._discrete_distribution.branches.1.bias f4 [8]
0.0020128347 0.02814749 -0.0010231738 0.011164252 0.020314597 -0.032214005 -0.0030856642 -0.022515282
00000000: c3e9 033b 9195 e63c 041c 86ba 44ea 363c
00000010: cc6a a63c d5f2 03bd db38 4abb f871 b8bc

action_model._discrete_distribution.branches.2.weight f4 [8, 142]
0.023612987 -0.00097612216 0.01468261 0.030577848 0.02955849 0.008820394 -0.02262022 0.013817249
-0.0013491088 -0.0392857 0.00090978615 0.02571536 0.02784975 -0.014089072 -0.017881744 0.031213868
0.03221293 0.006260608 0.02391503 0.013081539 0.037168935 0.014088231 0.012797124 -0.03347443
0.042526625 -0.009796582 0.018922444 -0.035095625 -0.010299353 0.03459193 0.020073075 0.0250149
0.04285746 -0.004922088 -0.0038162966 0.0110981995 0.02302463 0.013849837 -0.027241448 0.048731845
0.026284434 0.01789163 -0.031304408 -0.004454657 0.020766623 -0.0091908015 -0.027120804 0.003823512
-0.0038617624 -0.009264366 0.010228927 0.0107956 -0.01978655 0.026213016 -0.016455406 0.019982053
-0.023684382 -0.02814805 0.057537068 0.005629809 0.0013146253 0.030040383 -0.012303506 0.020812277
-0.0016696879 -0.04040274 -0.060813177 0.0432922 0.044974487 0.010881958 0.02391901 -0.008506902
-0.05282616 -0.012291408 0.03268921 0.007064332 -0.0016567725 0.022368561 0.027627848 -0.010040521
-0.0060461015 -0.0024225402 0.040629726 0.0033117423 0.02799807 0.030237688 -0.0068071657 0.005859351
0.06310595 -0.008293714 0.015383965 0.014513197 0.032648884 -0.04029916 -0.00076174404 -0.013170057
-0.009142404 -0.004308201 0.026403861 -0.014037649 -0.02778488 0.020791812 -0.02550146 -0.015958423
0.03361809 -0.013757424 -0.009867173 -0.015235421 0.013504486 0.031614844 -0.016951032 0.028349623
0.024987819 0.037286382 -0.0022321334 0.01023208 0.019557294 -0.029037273 -0.015787616 0.017159363
-0.022128336 -0.021297922 -0.013924897 -0.0067838007 -0.0015492499 0.027555646 -0.04892976 0.03416454
0.047379248 0.026469275 -0.0029368873 0.022269022 -0.0198634 -0.022550868 0.036010034 -0.0032928817
0.03450674 0.023690017 -0.022069797 0.0030142858 0.02545094 0.018485544 0.029316837 0.008426821
0.0062370533 -0.020323958 -0.013099109 0.010987229 -0.022787392 -0.0024113983 0.03583771 0.010460331
-0.00015860514 0.0064814556 -0.018323878 -0.008642235 0.022093916 0.009854976 0.0050982656 -0.03842617
-0.019634826 0.036500085 0.020013973 0.00016474334 0.0012385639 0.0021471386 0.0154555 0.003653571
-0.009188545 -0.014184183 0.024793737 0.0110626975 -0.01806899 0.017267784 -0.005592164 -0.001899885
0.011120281 0.010527996 0.035274442 -0.0073006195 0.021232743 -0.014921738 -0.008368354 0.0052825212
0.04965974 -0.022631435 0.025422286 0.006757804 -0.008415011 0.0101633705 0.008627638 0.001804626
0.0037045171 -0.0031531814 -0.0046125613 -0.0031124891 -0.00271265 0.03740934 0.009461131 -0.028287929
0.029356036 0.0024641682 -0.007987919 -0.003351511 -0.026590755 0.019815523 0.019123059 0.015318192
0.07930441 -0.03635638 -0.023795063 0.002697304 0.0039545298 0.014408893 -0.008685175 0.013125449
-0.025758144 0.013575874 0.00094934675 0.02938097 0.018313646 -0.007046591 0.009100473 -0.0031046155
0.02279804 -0.010527416 0.0053824713 0.006659911 0.004396433 -0.019284597 0.024942484 -0.01950367
0.004472841 0.020526554 0.019638069 0.026497254 -0.008753258 -0.016755212 0.013592333 0.03930834
0.001225942 -0.0013678855 -0.010353178 0.02249836 -0.034955125 -0.011992563 0.0017895239 -0.0047828434
-0.0008797276 0.00037858775 0.048295874 0.007998309 0.026169972 0.026624639 -0.033317667 -0.011884242
00000000: 0670 c13c 73e2 7fba 548f 703c 657e fa3c
00000010: a524 f23c 6a83 103c 0a4e b9bc be61 623c
00000020: 94d4 b0ba 0bea 20bd b77e 6e3a 05a9 d23c
00000030: 2925 e43c dad5 66bc bc7c 92bc 3ab4 ff3c
00000040: b5f1 033d c925 cd3b 74e9 c33c f453 563c
00000050: 743e 183d 53d2 663c 07ab 513c 7c1c 09bd
00000060: 6630 2e3d d881 20bc 3e03 9b3c 6ec0 0fbd
00000070: 9ebe 28bc 45b0 0d3d 4a70 a43c 0cec cc3c
00000080: 4e8b 2f3d 7749 a1bb d51a 7abb 39d5 353c
00000090: 269e bc3c 6dea 623c 7529 dfbc 0b9b 473d
000000a0: 7452 d73c 7891 923c 0d39 00bd 5ff8 91bb
000000b0: c41e aa3c 0495 16bc 732c debc e393 7a3b
000000c0: 9f15 7dbb 91c9 17bc 3b97 273c 07e0 303c
000000d0: 6717 a2bc aebc d63c 7dcd 86bc 67b1 a33c
000000e0: c005 c2bc bd96 e6bc fdab 6b3d 437a b83b
000000f0: 814f ac3a 4017 f63c a594 49bc 827e aa3c
00000100: 6ed9 daba 587d 25bd 3d17 79bd 2953 313d
00000110: 2b37 383d 3d4a 323c cdf1 c33c 8860 0bbc
00000120: 3e60 58bd e761 49bc 1fe5 053d e97b e73b
00000130: 0f28 d9ba 463e b73c cc53 e23c ff80 24bc
00000140: 601e c6bb 7bc3 1ebb 5b6b 263d d109 593b
00000150: 355c e53c 07b5 f73c a50e dfbb ccff bf3b
00000160: b13d 813d 5ce2 07bc 070d 7c3c c3c8 6d3c
00000170: d6ba 053d bb10 25bd c7af 47ba 39c7 57bc
00000180: 06ca 15bc cf2b 8dbb e94c d83c 2bfe 65bc
00000190: 1e9d e3bc 9753 aa3c 70e8 d0bc 3dbb 82bc
000001a0: 1fb3 093d d266 61bc eca9 21bc fd9d 79bc
000001b0: eb41 5d3c 917e 013d e4dc 8abc 783d e83c
000001c0: 41b3 cc3c 9bb9 183d fc48 12bb 74a4 273c
000001d0: 9e36 a03c 93df edbc 0855 81bc cb91 8c3c
000001e0: 7c46 b5bc fb78 aebc 4025 64bc a54a debb
000001f0: 3310 cbba 61bc e13c 926a 48bd 1ef0 0b3d
00000200: be10 423d 18d6 d83c cb78 40bb 866d b63c
00000210: 92b8 a2bc 99bc b8bc 427f 133d 63cd 57bb
00000220: f056 0d3d 9111 c23c b8cb b4bc 538b 453b
00000230: 7d7e d03c ff6e 973c dd29 f03c a610 0a3c
00000240: 3260 cc3b 6e7e a6bc a59d 56bc c703 343c
00000250: a0ac babc 8d08 1ebb 90ca 123d cf61 2b3c
00000260: 3e4f 26b9 6462 d43b f51b 96bc 2998 0dbc
00000270: 4dfe b43c c476 213c 5a0f a73b c264 1dbd
00000280: 37d9 a0bc 1d81 153d 58f4 a33c f4be 2c39
00000290: 4f57 a23a 02b7 0c3b 1139 7d3c c070 6f3b
000002a0: 8d8b 16bc c764 68bc 3c1c cb3c 5140 353c
000002b0: 6b05 94bc 2b75 8d3c 793e b7bb 9005 f9ba
000002c0: d731 363c 9e7d 2c3c ef7b 103d 093a efbb
000002d0: 4af0 ad3c 4e7a 74bc 6c1b 09bc 0019 ad3b
000002e0: 0368 4b3d 8f65 b9bc 6642 d03c 9270 dd3b
000002f0: 1ddf 09bc 4484 263c f05a 0d3c 3389 ec3a
00000300: 7cc7 723b 9ba5 4ebb f824 97bb e7fa 4bbb
00000310: b7c6 31bb 893a 193d dc02 1b3c 16bc e7bc
00000320: 127c f03c e27d 213b c3df 02bc 06a5 5bbb
00000330: dbd4 d9bc 2a54 a23c f6a7 9c3c 27f9 7a3c
00000340: 5a6a a23d 6dea 14bd dded c2bc 40c5 303b
00000350: 0095 813b 4713 6c3c 444c 0ebc 200c 573c
00000360: be02 d3bc 586d 5e3c 95dd 783a 5cb0 f03c
00000370: 8006 963c 17e7 e6bb 261a 153c ce76 4bbb
00000380: f5c2 ba3c 2f7b 2cbc 715f b03b 623b da3b
00000390: f40f 903b bbfa 9dbc 2e54 cc3c 29c6 9fbc
000003a0: e990 923b 4e27 a83c 04e0 a03c c510 d93c
000003b0: d369 0fbc 3a42 89bc 60b2 5e3c c801 213d
000003c0: caaf a03a 9f4a b3ba 60a0 29bc 7b4e b83c
000003d0: 1b2d 0fbd 747c 44bc 758e ea3a 66b9 9cbb
000003e0: 859d 66ba 307d c639 e5d1 453d 570b 033c
000003f0: 6962 d63c ea1b da3c 1b78 08bd 20b6 42bc

action_model._discrete_distribution.branches.2.bias f4 [8]
0.012851115 0.00601701 0.0070205275 -0.012836202 -0.009406002 -0.011064401 0.010297912 0.0023168023
00000000: 7c8d 523c 572a c53b 740c e63b ef4e 52bc
00000010: a21b 1abc 7647 35bc 93b8 283c 7ed5 173b

action_model._discrete_distribution.branches.3.weight f4 [8, 142]
0.017325683 0.029523622 0.032164186 0.060472228 0.012850583 0.006515864 -0.046891686 -0.023593726
-0.007882081 -0.014457184 0.0029852968 0.0344404 0.015905669 -0.01094452 0.026465435 0.010795211
0.02797114 0.0044758003 0.025579648 0.017310163 -0.02442717 0.019490056 0.026375443 0.0048321877
0.06487744 -0.013817086 0.025973778 -0.027536891 0.0037632154 -0.004875221 0.0061894907 0.06447825
0.050916757 0.017855518 0.021253463 -0.0005759993 0.056024335 -0.009627991 -0.0005821766 0.037349917
0.023241607 0.037874203 0.025950575 -0.0012277279 0.006078375 0.014534103 0.022031378 -0.0043545873
0.05612555 -0.027231889 0.027479619 -0.012564991 -0.004778341 -0.016074926 -0.024905084 0.023629872
-0.008804731 -0.049299564 0.069807306 0.029968206 -0.016137438 0.040752854 0.022699283 0.037150696
-0.0002790338 -0.008215638 0.00070101174 0.016496917 0.055585973 0.013672596 0.060135383 0.009943452
0.009078988 0.015320479 0.0027235297 -0.006721152 -0.02402836 0.042954255 0.07374015 -0.00036442885
-0.013112416 0.0026176374 0.06633952 0.03468766 -0.0035248185 0.041667618 -0.0025196022 0.037309986
0.07628246 0.049383856 -0.014360385 0.021838048 -0.0012026847 -0.02700234 -0.009678924 0.01533964
-0.009734685 0.018500099 0.056962457 0.016699113 0.0014768773 0.07315536 0.004332654 -0.01786965
0.06531655 -0.013734562 0.04332085 -0.025215479 0.0020400796 0.02456076 -0.05114717 0.045324117
0.045803957 0.052929033 0.03790834 0.029260278 0.014648094 0.0035861647 -0.026717965 0.012454241
-0.00924144 0.034616213 0.033176515 0.007924256 0.053535715 0.030898511 -0.03193694 0.055882793
0.023986587 -0.009112936 0.013500498 0.042595763 -0.0054610176 0.008011596 0.060295466 0.083468065
0.043349024 0.011233808 -2.9913692e-05 0.02320548 0.019980796 0.00076906406 0.022500196 -0.01886048
-0.03157698 -0.0035484186 0.0021237233 -0.016236497 0.0040426115 -0.0069024954 -0.0069626705 -0.013985058
0.01304558 -0.020954814 -0.0108309025 0.004730738 0.008177012 -0.005770069 -0.008951369 -0.016064689
-0.031780273 0.028943973 0.0067804717 0.0029223296 -0.009998341 -0.016369395 -0.016956255 -0.0045245877
-0.0025444124 -0.01591803 0.014172807 -0.009931651 -0.0035303875 -0.03546769 0.018136738 -0.04234838
-0.031192444 -0.039489303 -0.0126152225 -0.023362601 -0.020682339 -0.002312575 -0.016310262 0.019455684
0.01438667 -0.03211123 -0.012107442 -0.020785267 -0.037505545 -0.008774207 -0.028676298 0.0057633556
-0.006258329 -0.013498267 0.021030746 -0.009077674 -0.006135506 -0.007566293 -0.011444815 0.024873722
-0.005174899 -0.0033992424 -0.016200626 -0.017112177 -0.016493909 -0.013460655 0.021320969 -0.043047372
0.020412847 -0.022028834 -0.0055920645 -0.031280715 -0.03929233 -0.015646012 -0.01633913 -0.045373585
0.019615464 0.011735626 -0.00668003 -0.010378975 -0.025702113 -0.029043825 -0.015548137 -0.013771294
-0.0021414165 0.004637613 0.00461422 -0.010665454 -0.021903964 -0.009361903 -0.02872853 0.0007151872
0.008016864 -0.008985494 -0.0111379335 -0.009203801 -0.014680946 0.02602126 -0.012641335 -0.029574823
-0.011694106 0.028093401 0.007667195 -0.016760463 -0.0139763 -0.033746924 -0.025873262 -0.0015442779
0.0041133664 -0.017527651 -0.023134584 -0.00031027073 -0.032389984 -0.016004456 -0.024740012 0.009880403
00000000: 97ee 8d3c 86db f13c 98be 033d bab1 773d
00000010: 408b 523c 0783 d53b 7f11 40bd a147 c1bc
00000020: d823 01bc d3dd 6cbc f8a4 433b 6011 0d3d
00000030: 9b4c 823c a550 33bc 0ace d83c 66de 303c
00000040: bb23 e53c bca9 923b 698c d13c 0bce 8d3c
00000050: 7d1b c8bc 9ca9 9f3c 5011 d83c 5457 9e3b
00000060: 77de 843d 0f61 62bc f6c6 d43c 0c95 e1bc
00000070: 47a0 763b 51c0 9fbb 36d1 ca3b 2c0d 843d
00000080: 178e 503d bc45 923c be1b ae3c a9fe 16ba
00000090: c679 653d b9be 1dbc 369d 18ba 3afc 183d
000000a0: 2f65 be3c fb21 1b3d 4d96 d43c b6eb a0ba
000000b0: 1b2d c73b 7220 6e3c 267b b43c edb0 8ebb
000000c0: e8e3 653d 6915 dfbc f01c e13c 64dd 4dbc
000000d0: a193 9cbb 90af 83bc bf05 ccbc 6f93 c13c
000000e0: b841 10bc 57ee 49bd 22f7 8e3d e27f f53c
000000f0: a932 84bc 77ec 263d d9f3 b93c 542b 183d
00000100: 484b 92b9 e29a 06bc 1ac4 373a 8b24 873c
00000110: 1eae 633d 0603 603c 8550 763d dce9 223c
00000120: 09c0 143c bf02 7b3c 3f7d 323b 1c3d dcbb
00000130: 20d7 c4bc cdf0 2f3d 1305 973d d010 bfb9
00000140: 75d5 56bc ab8c 2b3b 04dd 873d a614 0e3d
00000150: a400 67bb aaab 2a3d e91f 25bb 5bd2 183d
00000160: fa39 9c3d ba46 4a3d d247 6bbc b5e5 b23c
00000170: 67a3 9dba 0334 ddbc 5a94 1ebc 1d53 7b3c
00000180: 3a7e 1fbc 858d 973c 7751 693d 94cc 883c
00000190: c793 c13a 7ad2 953d f0f8 8d3b 5f63 92bc
000001a0: afc4 853d ee06 61bc 3471 313d b190 cebc
000001b0: dbb2 053b a633 c93c b27f 51bd c8a5 393d
000001c0: ee9c 3b3d 1dcc 583d c745 1b3d 40b3 ef3c
000001d0: 8ffe 6f3c dc05 6b3b a2df dabc df0c 4c3c
000001e0: 6969 17bc bbc9 0d3d 19e4 073d bdd4 013c
000001f0: 4448 5b3d e01e fd3c 4fd0 02bd 5be5 643d
00000200: 857f c43c 6d4e 15bc 3131 5d3c e578 2e3d
00000210: 56f2 b2bb 1243 033c 61f8 763d 4ef1 aa3d
00000220: bf8e 313d 010e 383c 2aef fab7 6b19 be3c
00000230: c4ae a33c 049b 493a 5552 b83c 4b81 9abc
00000240: dd56 01bd 968c 68bb 2a2e 0b3b 6702 85bc
00000250: e277 843b 542e e2bb 1d27 e4bb 9621 65bc
00000260: 21bd 553c 6ea9 abbc 1974 31bc 4e04 9b3b
00000270: e0f8 053c d912 bdbb c3a8 12bc 189a 83bc
00000280: 082c 02bd e91b ed3c b82e de3b 8e84 3f3b
00000290: 15d0 23bc 1c19 86bc d8e7 8abc fe42 94bb
000002a0: 28c0 26bb 8766 82bc 1035 683c 5db8 22bc
000002b0: 135e 67bb 9246 11bd 7f93 943c 7f75 2dbd
000002c0: 4c87 ffbc 89bf 21bd 14b0 4ebc ed62 bfbc
000002d0: 026e a9bc 928e 17bb 199d 85bc 8761 9f3c
000002e0: 11b6 6b3c 1187 03bd 4b5e 46bc dd45 aabc
000002f0: 6a9f 19bd b1c1 0fbc 8eea eabc 88da bc3b
00000300: ab12 cdbb d627 5dbc ac48 ac3c 86ba 14bc
00000310: 5b0c c9bb aaee f7bb 0983 3bbc fac3 cb3c
00000320: 3392 a9bb d3c5 5ebb 2db7 84bc d62e 8cbc
00000330: 3c1e 87bc 148a 5cbc 50a9 ae3c 7152 30bd
00000340: d838 a73c d075 b4bc a33d b7bb 3520 00bd
00000350: fff0 20bd 112c 80bc a4d9 85bc a7d9 39bd
00000360: 9cb0 a03c c846 403c 27e4 dabb 940c 2abc
00000370: 3d8d d2bc 51ed edbc 9dbd 7ebc fea0 61bc
00000380: 0257 0cbb 1ef7 973b e232 973b 28be 2ebc
00000390: f16f b3bc ab62 19bc 1858 ebbc 677b 3b3a
000003a0: 2a59 033c e537 13bc e17b 36bc 8acb 16bc
000003b0: 5a88 70bc 8a2a d53c 9a1d 4fbc e646 f2bc
000003c0: a398 3fbc 2224 e63c 183d fb3b 3d4d 89bc
000003d0: dafc 64bc 373a 0abd 2af4 d3bc 5e69 caba
000003e0: 6bc9 863b 2696 8fbc bd84 bdbc d5ab a2b9
000003f0: 5cab 04bd c71b 83bc 91ab cabc 6ae1 213c

action_model._discrete_distribution.branches.3.bias f4 [8]
0.021295121 -0.016701246 0.012900466 -0.0062372545 -0.0058858814 -0.008400835 0.016735077 -0.0058763893
00000000: 1b73 ae3c 0dd1 88bc 7a5c 533c e261 ccbb
00000010: 5ade c0bb a8a3 09bc 0018 893c ba8e c0bb
