results/NewTwoAgents/BlackMLAgent/BlackMLAgent-18619.pt (torch, 817948 bytes, 58 tensors)

discrete_act_size_vector f4 [1, 5]
8.0 8.0 8.0 8.0 5.0
00000000: 0000 0041 0000 0041 0000 0041 0000 0041
00000010: 0000 a040

network_body._body_endoder.seq_layers.0.weight f4 [142, 71]
-0.010712214 0.19006866 0.2742076 -0.09885482 -0.0018142182 -0.009841159 0.3059679 -0.07716605
0.16089524 0.044425163 -0.021057986 0.37987125 -0.04495726 0.015141462 -0.09145055 0.07956652
0.10257292 0.09993823 0.106087014 -0.13078985 0.22712024 -0.33236825 0.12920156 -0.10331266
-0.028953284 -0.047380134 0.25916958 0.10417945 -0.22252934 -0.13080311 -0.0672505 0.07352317
-0.0055700056 0.06404347 0.15700677 0.003712821 -0.08699835 -0.16731311 -0.18530717 -0.027086558
-0.07743931 0.048427925 0.08957193 0.11643928 -0.20155372 0.21840952 0.082498476 0.041352473
0.10437742 -0.07304046 -0.04963786 -0.2620303 -0.011452398 -0.17607313 -0.22214946 0.18017213
0.34109 0.027000332 -0.102207385 0.12495805 0.16444725 -0.105280995 0.19163673 0.12098062
0.07165383 -0.05907031 0.06264314 0.16225548 0.06519467 0.031899504 -0.05429462 0.19303967
0.102669396 0.08586808 0.10188815 -0.05920978 0.06607048 0.004073457 -0.23697671 0.064674266
-0.081146665 0.22056067 0.07024672 0.050284456 0.06917301 -0.057423063 -0.07136706 0.18424214
-0.21621227 0.012916612 -0.15090348 0.14838831 0.008609182 -0.33734453 -0.008137195 -0.13805234
0.04825667 -0.018967167 -0.031966727 -0.059046764 -0.114634365 -0.019443003 -0.10717769 0.12234389
-0.047017545 0.023108402 -0.06477727 0.111622 0.17719996 -0.03254217 0.09387827 -0.04213793
0.19859342 -0.05217797 0.26367173 -0.08658299 0.075570434 0.07722281 -0.069262505 0.0894507
0.028093113 0.16910098 -0.115510315 -0.12810126 0.056411933 0.17043073 0.07367519 0.10890069
-0.059828527 0.011996267 -0.13023235 -0.17307508 -0.15422745 0.008746703 -0.03835777 -0.025348764
0.11639286 0.08822767 -0.18950577 0.05609653 0.15355176 0.07176761 0.111029536 0.06570339
0.17436294 0.09960297 -0.09925957 0.33364102 0.0039521 -0.068465605 -0.0034388057 0.24648812
-0.120684214 0.0730489 0.19489352 -0.07535635 0.014596351 0.039690778 0.1257504 -0.08741358
0.19093944 -0.27967632 0.011331257 -0.21488096 -0.113853864 0.0894923 -0.06157038 0.061025858
-0.011021378 -0.16135933 -0.19029768 -0.11660636 0.021945681 -0.26454362 -0.11647089 0.02134158
-0.12344023 -0.112504214 0.08280529 0.18075588 -0.050357245 -0.029230231 -0.06545647 -0.027881762
0.07664336 0.16140838 -0.13083503 0.00525849 -0.18123312 0.068022296 0.12351568 -0.14430155
0.057335317 0.061022643 -0.12679899 -0.057583403 0.02613809 -0.24127273 0.18486838 0.23874657
-0.03606369 -0.29726166 -0.0744379 -0.07857851 -0.14855337 0.02782586 0.06427176 0.03145668
-0.046662264 -0.09176815 0.1327951 -0.16712435 -0.21138573 0.0080599785 0.002142395 0.005782407
-0.107053 -0.033781365 0.050121322 -0.059913583 0.16342936 0.02489896 -0.062140573 0.04157945
-0.021473112 0.06204336 -0.15907724 0.027242001 0.05350692 -0.087468274 0.011975836 -0.0061405646
-0.10679139 -0.16994077 0.12634064 0.05466581 -0.16016996 0.11950444 -0.0835049 -0.16104354
0.008073096 -0.15475553 0.13964783 -0.21211806 0.047293503 -0.03709763 0.02447977 0.040629067
0.21548828 -0.036335465 -0.101620264 -0.26557764 0.0018442757 0.082737066 -0.021693513 0.07605426
00000000: 4882 2fbc 5ca1 423e f064 8c3e 6574 cabd
00000010: 10cb edba d03c 21bc d3a7 9c3e 3c09 9ebd
00000020: b9c1 243e 29f7 353d cc81 acbc 7c7e c23e
00000030: 1b25 38bd e513 783c 6d4a bbbd c6f3 a23d
00000040: c011 d23d 6aac cc3d 2644 d93d c6ed 05be
00000050: 3592 683e 2c2c aabe 6a4d 043e 9695 d3bd
00000060: 702f edbc ac11 42bd e0b1 843e 095c d53d
00000070: bbde 63be 40f1 05be a1ba 89bd 5193 963d
00000080: 9884 b6bb 3929 833d 62c6 203e cd52 733b
00000090: 312c b2bd 2154 2bbe 2ac1 3dbe a1e4 ddbc
000000a0: 8098 9ebd 5c5c 463d 7d71 b73d b877 ee3d
000000b0: 1964 4ebe bfa6 5f3e f6f4 a83d 3661 293d
000000c0: d4c3 d53d 3d96 95bd 1251 4bbd d628 86be
000000d0: d7a2 3bbc 844c 34be 267b 63be 0b7f 383e
000000e0: 59a3 ae3e cd2f dd3c 1b52 d1bd 02ea ff3d
000000f0: dc64 283e 909d d7bd 6b3c 443e b0c4 f73d
00000100: 3ebf 923d b6f3 71bd 0c4b 803d 4d26 263e
00000110: c884 853d 0ea9 023d 0964 5ebd 31ac 453e
00000120: 5544 d23d 9bdb af3d bcaa d03d f485 72bd
00000130: f64f 873d a27a 853b 06aa 72be f173 843d
00000140: 3930 a6bd a8da 613e 83dd 8f3d 13f7 4d3d
00000150: 94aa 8d3d 7234 6bbd e528 92bd f9a9 3c3e
00000160: c066 5dbe 33a0 533c 7186 1abe 1bf3 173e
00000170: 870d 0d3c 6cb8 acbe df51 05bc 985d 0dbe
00000180: c9a8 453d 0861 9bbc 8bef 02bd 05db 71bd
00000190: 6cc5 eabd ef46 9fbc fa7f dbbd 6f8f fa3d
000001a0: 7895 40bd d54d bd3c f2a9 84bd 139a e43d
000001b0: e873 353e f04a 05bd 4043 c03d d298 2cbd
000001c0: 135c 4b3e 91b8 55bd fbff 863e 6c52 b1bd
000001d0: acc4 9a3d fe26 9e3d 80d9 8dbd ee31 b73d
000001e0: 8723 e63c cf28 2d3e ac90 ecbd fa2c 03be
000001f0: 3310 673d 6585 2e3e 05e3 963d 5307 df3d
00000200: c20e 75bd fe8b 443c a15b 05be 983a 31be
00000210: cded 1dbe 554e 0f3c 091d 1dbd 36a8 cfbc
00000220: 615f ee3d b5b0 b43d cd0d 42be 7ac5 653d
00000230: ac3c 1d3e e6fa 923d 7463 e33d 808f 863d
00000240: 338c 323e a4fc cb3d 9a48 cbbd ffd2 aa3e
00000250: 9e80 813b b237 8cbd 965d 61bb 6267 7c3e
00000260: 4929 f7bd a99a 953d 2b92 473e 6e54 9abd
00000270: 8925 6f3c cc92 223d b6c4 003e e405 b3bd
00000280: a185 433e bc31 8fbe bda6 393c c109 5cbe
00000290: 372c e9bd bd47 b73d 3931 7cbd 40f6 793d
000002a0: 0393 34bc 613b 25be 65dd 42be 51cf eebd
000002b0: 6ec7 b33c 4372 87be 4a88 eebd 8ad4 ae3c
000002c0: 3bce fcbd 9c68 e6bd d295 a93d 1218 393e
000002d0: 6643 4ebd 3d74 efbc 0b0e 86bd 4b68 e4bc
000002e0: 32f7 9c3d 3d48 253e 9ef9 05be 694f ac3b
000002f0: 2d95 39be 464f 8b3d caf5 fc3d c9c3 13be
00000300: 70d8 6a3d e1f2 793d 98d7 01be 93dc 6bbd
00000310: 8c1f d63c 3310 77be 234e 3d3e fb79 743e
00000320: 85b7 13bd ae32 98be e672 98bd c5ed a0bd
00000330: 601e 18be 0ff3 e33c eaa0 833d b8d8 003d
00000340: ee20 3fbd f1f0 bbbd 70fb 073e a522 2bbe
00000350: 8075 58be 000e 043c 6c67 0c3b 587a bd3b
00000360: 9a3e dbbd 545e 0abd 044c 4d3d f267 75bd
00000370: 075a 273e e7f8 cb3c 1d87 7ebd 374f 2a3d
00000380: 61e8 afbc 2e21 7e3d 25e5 22be 9e2a df3c
00000390: 122a 5b3d 9122 b3bd 4c36 443c ca36 c9bb
000003a0: 72b5 dabd f404 2ebe 715f 013e 42e9 5f3d
000003b0: 9803 24be bebe f43d 9e04 abbd 99e8 24be
000003c0: 0545 043c 3c78 1ebe d7ff 0e3e 7a35 59be
000003d0: d5b6 413d aff3 17bd cc89 c83c aa6a 263d
000003e0: f6a8 5c3e 7fd4 14bd 491e d0bd cbf9 87be
000003f0: a0bb f13a 0d72 a93d 98b6 b1bc 56c2 9b3d

network_body._body_endoder.seq_layers.0.bias f4 [142]
0.0068975845 0.028745381 0.056216445 0.008068878 0.13432014 0.07792396 0.009800434 0.05664586
0.059192132 0.052144475 0.0675883 0.035282645 -0.002426205 0.05922876 0.05936756 0.045509048
0.07120977 0.038929705 0.042138077 0.010861447 -0.020132402 0.049932566 0.049668677 0.0006003922
0.03467966 0.025946165 0.049904488 0.062371314 0.0858649 0.042813968 0.032852277 -0.01581018
0.052222148 -0.00036690617 0.056435723 0.038224418 0.0710342 0.025898246 0.050063815 -0.0035320194
0.060485426 0.026583327 0.013611436 0.009847922 0.042366363 0.09049474 0.05710585 0.048735198
0.072878934 0.09600322 0.10289732 0.07137316 0.03558999 0.033723574 0.0486539 0.06440552
0.053946976 0.06536428 0.01645241 0.004003163 -0.01726451 0.02904045 0.045926504 0.0008285119
0.038376253 0.05161369 0.06427785 0.056124087 0.036367737 0.070105635 0.061974328 0.09455829
0.019934246 0.04373204 0.03544526 0.015746137 0.04279738 0.019298095 0.04157544 -0.029215895
0.012406146 0.03674683 0.04604159 0.04325059 0.008560931 0.07904709 0.049076457 0.017925458
0.014821811 0.044877328 0.04932219 0.03956852 0.023074655 0.040372964 0.06342554 0.09676235
0.08990602 0.018499576 0.003180588 0.05545558 0.029492605 0.019487575 0.0451756 -0.006055547
0.07695298 0.01466881 0.044811003 0.018322716 0.049008127 0.044775993 0.014890506 0.058060408
0.073662065 0.10549786 -0.00036497862 0.051704057 -0.02408829 0.045023937 0.032683954 0.036567256
0.043707002 0.027936844 0.03919244 0.026736949 0.031949334 -0.0018778718 0.06463562 -0.022955026
0.043324303 0.06006338 0.09304318 0.003938293 -0.02322099 0.06154421 0.03771046 0.02477884
0.052701343 0.019538527 0.03439509 0.012556865 0.0044243936 0.04852908
00000000: 2205 e23b 6f7b eb3c 3743 663d 5433 043c
00000010: 388b 093e 9996 9f3d 0092 203c 7d05 683d
00000020: 7373 723d 7295 553d bc6b 8a3d 8984 103d
00000030: f700 1fbb db99 723d 662b 733d b267 3a3d
00000040: 6ed6 913d c174 1f3d fa98 2c3d 36f4 313c
00000050: b5ec a4bc 1786 4c3d 6271 4b3d a363 1d3a
00000060: 420c 0e3d 0d8d d43c a668 4c3d 1079 7f3d
00000070: f0d9 af3d b35d 2f3d 1c90 063d 5a84 81bc
00000080: e4e6 553d 505d c0b9 2529 673d 3591 1c3d
00000090: 617a 913d 8f28 d43c b70f 4d3d 7479 67bb
000000a0: 91bf 773d 47c5 d93c 8002 5f3c 2e59 213c
000000b0: 5a88 2d3d 4e55 b93d d3e7 693d 8f9e 473d
000000c0: 8d41 953d 569d c43d d5bb d23d 172c 923d
000000d0: cfc6 113d bb21 0a3d 5049 473d 0be7 833d
000000e0: 81f7 5c3d b5dd 853d 34c7 863c f72c 833b
000000f0: 4d6e 8dbc 3de6 ed3c 6e1d 3c3d 7e30 593a
00000100: 6b30 1d3d e068 533d 1ba4 833d 5fe2 653d
00000110: 56f6 143d 8b93 8f3d cbd8 7d3d c7a7 c13d
00000120: 254d a33c 5e20 333d 0d2f 113d 0bfe 803c
00000130: 4e4c 2f3d 0a17 9e3c 024b 2a3d 2c56 efbc
00000140: 2643 4b3c d883 163d 1b96 3c3d 8827 313d
00000150: 2643 0c3c 71e3 a13d 6504 493d 69d8 923c
00000160: 2ed7 723c 4ad1 373d 1106 4a3d 9a12 223d
00000170: 0f07 bd3c 1f5e 253d 40e5 813d 572b c63d
00000180: a620 b83d 6c8c 973c 6971 503b 6425 633d
00000190: 7a9a f13c 68a4 9f3c 0d0a 393d 9c6d c6bb
000001a0: 8699 9d3d 7355 703c be8b 373d 8519 963c
000001b0: bfbc 483d 0867 373d 4ff7 733c c0d0 6d3d
000001c0: 23dc 963d 430f d83d 9a5a bfb9 a2c7 533d
000001d0: ce54 c5bc 056b 383d 9cdf 053d 8cc7 153d
000001e0: 1d06 333d cfdb e43c 4188 203d 7207 db3c
000001f0: 4edd 023d ec22 f6ba ae5f 843d 2e0c bcbc
00000200: d374 313d 0505 763d 6c8d be3d cc0c 813b
00000210: f239 bebc c815 7c3d 4976 1a3d fefc ca3c
00000220: 5ddd 573d 430f a03c dee1 0c3d 4fbb 4d3c
00000230: 81fa 903b 6ec6 463d

network_body._body_endoder.seq_layers.2.weight f4 [142, 142]
-0.11337922 -0.0785476 0.05834208 -0.098278694 0.009990683 -0.061659537 0.062202513 0.14224048
0.0044164765 0.13294542 0.23288101 0.074805506 0.10213828 -0.045156974 -0.074067324 -0.08912948
0.028633539 0.04612656 -0.018386392 -0.07344319 0.07393827 0.07125335 0.15024576 -0.014142167
-0.017267354 0.02549225 0.07015355 -0.07584814 -0.06017968 0.013710009 0.020128062 0.12807144
0.17902972 0.14194576 0.040507145 0.017760811 0.14919415 0.043386675 -0.22833307 0.035839505
0.052222777 -0.12572858 0.028219717 -0.13011709 0.15148573 -0.17202409 -0.054674264 0.10566258
0.031878926 0.17194536 -0.04260396 -0.055486403 -0.018861704 0.05653086 0.027655624 0.1033481
0.052194506 0.14173873 -0.045457482 0.08353851 0.056441493 0.041709777 -0.12864436 -0.044861402
0.28402796 0.0034684609 -0.029548736 -0.10261094 -0.07798405 -0.008970366 -0.047318026 0.018586457
0.060431506 -0.051884886 -0.1402301 -0.097530805 -0.045704786 0.06946428 0.03352934 0.0025407383
0.047413 0.07566191 0.03499566 0.051689412 0.0712575 0.02221812 0.12496368 -0.03564578
0.031845775 -0.18128277 0.037686903 -0.0067947945 -0.031342562 0.037525553 0.08480336 -0.043995548
0.061206333 -0.007593264 -0.056941792 0.07356268 0.003465104 0.014955931 0.03255549 -0.105514586
0.0021134014 -0.11007619 -0.03655653 -0.15623344 -0.13176309 -0.01289865 -0.015055704 -0.0720603
0.13861209 0.11798233 -0.05597002 0.07368615 -0.0021699322 -0.07717456 0.08268421 0.076917715
0.11281088 0.12595081 0.037076488 0.15822728 0.07472516 0.31596845 -0.06996236 0.03546881
-0.08424807 0.060834795 0.21984872 -0.1080599 -0.0067663537 0.18248077 0.030365432 0.13449419
-0.20287056 0.103395775 -0.0105954865 0.08300585 0.11298276 -0.16871072 0.28136283 -0.004556054
0.09086508 0.029885706 0.025164371 -0.032312255 -0.060956754 -0.089745864 0.041287404 0.010030803
-0.020202186 0.11443065 -0.0025872428 0.11499459 -0.086201556 -0.040155895 0.027769484 0.04304026
0.100161694 0.008535605 0.09583129 0.056786396 0.12786531 -0.0608511 0.13278404 -0.08617249
0.14745444 -0.018861813 -0.05118555 0.08991148 0.025890665 0.017365748 -0.14119339 0.056950077
0.013071785 0.097540766 0.015350014 -0.21694139 -0.042261366 0.021741997 -0.106353916 -0.11501519
0.030892361 0.011802001 0.02035289 -0.031273052 0.03959462 -0.0033026363 -0.1233448 0.26734227
0.019298855 0.040868405 -0.020549089 0.012960193 -0.032064833 0.06751079 0.15351582 -0.18203862
-0.001675912 0.029142251 -0.063703395 0.23154336 -0.0125531135 0.03426233 0.13683252 -0.12831455
0.010979816 -0.015808854 -0.0043336125 -0.10287012 0.049810503 0.0023992748 0.077534445 -0.043105315
-0.25210884 0.01312294 0.034848765 0.015496909 0.07545416 0.06377394 -0.084515 -0.23189068
0.012625382 -0.03145052 -0.037909813 0.05370814 0.023519032 -0.049293134 0.18054192 -0.23043767
0.1318221 -0.09809633 0.1934546 0.092455834 -0.055038035 -0.05187565 0.09342183 0.1530913
-0.023132384 -0.1239809 0.028061304 0.0021218623 0.041125156 -0.03800536 0.10679398 -0.03995441
0.06134465 0.005011587 0.005600199 0.044337016 0.056630395 -0.120212294 0.06523227 0.13035835
00000000: 5d33 e8bd 90dd a0bd 1bf8 6e3d 5746 c9bd
00000010: f6af 233c b68e 7cbd 10c8 7e3d 7da7 113e
00000020: 17b8 903b d822 083e 5c78 6e3e a133 993d
00000030: e02d d13d 85f6 38bd 9cb0 97bd 8489 b6bd
00000040: e290 ea3c 34ef 3c3d 0f9f 96bc 6269 96bd
00000050: f36c 973d 47ed 913d 06da 193e 8cb4 67bc
00000060: 4474 8dbc 20d5 d03c aaac 8f3d 4556 9bbd
00000070: f87e 76bd f29f 603c 9be3 a43c 2925 033e
00000080: 9153 373e 3b5a 113e d2ea 253d 1f7f 913c
00000090: 5ac6 183e 3ab6 313d 25d0 69be 72cc 123d
000000a0: 8de7 553d febe 00be 092d e73c 6a3d 05be
000000b0: 131f 1b3e 1527 30be 1ff2 5fbd 9f65 d83d
000000c0: 7a93 023d 7212 303e 7d81 2ebd b645 63bd
000000d0: dc83 9abc e78c 673d 0c8e e23c 2ba8 d33d
000000e0: e8c9 553d f523 113e a031 3abd 3d16 ab3d
000000f0: 322f 673d dfd7 2a3d 59bb 03be 97c0 37bd
00000100: 1d6c 913e 1e4f 633b 3110 f2bc af25 d2bd
00000110: 1ab6 9fbd 71f8 12bc 8cd0 41bd a042 983c
00000120: 0787 773d 3f85 54bd 7b98 0fbe 3bbe c7bd
00000130: f134 3bbd 4a43 8e3d 1056 093d 8482 263b
00000140: 2234 423d a2f4 9a3d 9c57 0f3d 47b8 533d
00000150: 74ef 913d c602 b63c f5ec ff3d 4f01 12bd
00000160: b770 023d 31a2 39be 955d 1a3d dea6 debb
00000170: 0f61 00bd 65b4 193d 62ad ad3d ad34 34bd
00000180: 7eb3 7a3d ead0 f8bb cc3b 69bd 08a8 963d
00000190: cc16 633b b909 753c e858 053d 0818 d8bd
000001a0: fe80 0a3b a06f e1bd 4dbc 15bd a9fb 1fbe
000001b0: e7ec 06be dc54 53bc 33ac 76bc 5a94 93bd
000001c0: 54f0 0d3e b8a0 f13d d240 65bd c4e8 963d
000001d0: 6c35 0ebb b20d 9ebd 5756 a93d 0987 9d3d
000001e0: 6409 e73d 40f9 003e 84dd 173d 5506 223e
000001f0: 8109 993d 9ec6 a13e 6d48 8fbd be47 113d
00000200: 418a acbd e82d 793d 0620 613e 824e ddbd
00000210: 4ab8 ddbb 3ddc 3a3e edc0 f83c d8b8 093e
00000220: 4dbd 4fbe 2ac1 d33d b198 2dbc f9fe a93d
00000230: 8163 e73d 81c2 2cbe ca0e 903e f34a 95bb
00000240: 7917 ba3d ded2 f43c 8325 ce3c db59 04bd
00000250: caad 79bd aecc b7bd fb1c 293d 3d58 243c
00000260: 0e7f a5bc 9e5a ea3d bb8e 29bb 4982 eb3d
00000270: 718a b0bd 827a 24bd d47c e33c fc4a 303d
00000280: 9321 cd3d ecd8 0b3c 3243 c43d da98 683d
00000290: 20ef 023e 013f 79bd 8af8 073e 347b b0bd
000002a0: 4cfe 163e 1784 9abc f0a7 51bd 8323 b83d
000002b0: a918 d43c 9d42 8e3c 0095 10be 7c44 693d
000002c0: 0a2b 563c 74c3 c73d a07e 7b3c e225 5ebe
000002d0: 411a 2dbd 461c b23c 15d0 d9bd 158d ebbd
000002e0: fa11 fd3c 2e5d 413c 1bbb a63c 2c18 00bd
000002f0: f82d 223d 0b71 58bb 339c fcbd 16e1 883e
00000300: a218 9e3c a165 273d 9056 a8bc fd56 543c
00000310: 6a56 03bd 1943 8a3d 4033 1d3e 5568 3abe
00000320: 46aa dbba bbbb ee3c ed76 82bd b419 6d3e
00000330: 93ab 4dbc a856 0c3d d31d 0c3e e464 03be
00000340: b0e4 333c 9281 81bc fa00 8ebb 92ad d2bd
00000350: 1906 4c3d 273d 1d3b 61ca 9e3d 338f 30bd
00000360: 6914 81be 9a01 573c 94bd 0e3d bfe6 7d3c
00000370: b687 9a3d e99b 823d 3316 adbd c074 6dbe
00000380: b1da 4e3c 43d2 00bd 5247 1bbd 11fd 5b3d
00000390: fcaa c03c 99e7 49bd fbdf 383e daf7 6bbe
000003a0: 5ffc 063e bbe6 c8bd f618 463e 7c59 bd3d
000003b0: 906f 61bd 907b 54bd f253 bf3d f7c3 1c3e
000003c0: 2080 bdbc b3e9 fdbd d2e0 e53c f10e 0b3b
000003d0: da72 283d 82ab 1bbd cdb6 da3d 3ca7 23bd
000003e0: 8744 7b3d 3d38 a43b e081 b73b bb9a 353d
000003f0: 46f5 673d dd31 f6bd 7f98 853d a97c 053e

network_body._body_endoder.seq_layers.2.bias f4 [142]
0.027166136 0.030686911 0.03378712 0.016054053 0.0067890873 0.011662585 0.0067956424 0.013045656
0.021247229 0.05195975 0.047054995 0.047230866 0.008537597 0.07559637 0.0394579 -0.0037182202
0.011812531 0.025582377 0.067099854 0.052504137 -0.0020544007 -0.00023162834 0.06481787 0.048404813
0.032275353 -0.0035575656 0.0773331 0.09322345 0.039133582 0.032998227 0.045050427 0.043582506
0.023671806 0.039599877 0.045609493 0.017485358 0.030135794 0.03957729 0.071509644 0.02511187
-0.002300713 0.030294023 0.029019073 0.03907916 0.013488835 0.0446096 0.08317486 0.0812042
0.020027168 0.008582675 0.012303677 0.036378108 0.009319601 0.031845953 0.008058034 0.027653135
0.020059267 0.005990022 -0.002669005 0.0064479555 -0.007935981 0.018057786 0.001577985 0.027451744
0.0533396 0.002955491 0.028481767 0.015918152 0.016230864 0.07957059 0.015463876 0.067628995
0.032652177 0.0113356905 -0.0048897737 0.006961312 0.0050096493 0.026517253 -0.006834241 0.02536739
0.012231499 0.026326189 0.016603628 -0.0075408136 0.055237483 0.025771234 0.0023297458 0.024640586
0.059337452 0.036002584 0.0031938488 0.06065748 0.05064196 0.032082994 -0.026037674 0.04409459
0.035068057 0.02716812 0.055249352 0.01915875 0.045189563 0.0375095 0.015522411 -0.03202972
0.035161894 -0.0031559512 0.04833119 0.03443739 0.06979832 0.04231271 0.029889021 -0.014165471
0.05409033 0.037023444 0.027628342 0.043037653 0.08842347 0.027754366 0.01708624 0.0004798288
0.023904337 0.07806382 0.039492074 0.05860776 0.024309082 0.022950098 -0.00057556975 0.009956983
0.019610515 0.020313201 0.0308593 0.04259906 0.011593086 0.030915374 0.018915268 0.025640199
0.010369198 0.03887983 0.03502353 0.013506003 0.021628536 0.030811058
00000000: 848b de3c 1e63 fb3c 5d64 0a3d ca83 833c
00000010: fe76 de3b 6d14 3f3c fbad de3b 72bd 553c
00000020: ab0e ae3c bfd3 543d bdbc 403d 2775 413d
00000030: 47e1 0b3c 45d2 9a3d 9b9e 213d 62ad 73bb
00000040: 5989 413c 2292 d13c a66b 893d 940e 573d
00000050: 20a3 06bb 42e1 72b9 3bbf 843d 2044 463d
00000060: 2933 043d 0c26 69bb d160 9e3d f0eb be3d
00000070: 894a 203d 2629 073d cc86 383d 9283 323d
00000080: 60eb c13c 7b33 223d 05d1 3a3d 743d 8f3c
00000090: 57df f63c cc1b 223d a673 923d 69b7 cd3c
000000a0: 8fc7 16bb 2c2b f83c 68b9 ed3c 7811 203d
000000b0: 4600 5d3c 8eb8 363d 9557 aa3d 634e a63d
000000c0: 0410 a43c 599e 0c3c 5d95 493c 3601 153d
000000d0: 3db1 183c e770 023d d805 043c d488 e23c
000000e0: 5553 a43c f247 c43b 79ea 2ebb 5f49 d33b
000000f0: eb05 02bc eced 933c 64d4 ce3a 7be2 e03c
00000100: a07a 5a3d e9b0 413b 9852 e93c c966 823c
00000110: 97f6 843c e8f5 a23d 325c 7d3c 1281 8a3d
00000120: 4abe 053d 55b9 393c 653a a0bb b81b e43b
00000130: fc27 a43b b63a d93c c5f1 dfbb 46cf cf3c
00000140: a066 483c 05aa d73c 5504 883c ee18 f7bb
00000150: b340 623d 321e d33c a6ae 183b 0edb c93c
00000160: d40b 733d 7277 133d e44f 513b fa73 783d
00000170: f26d 4f3d 7569 033d f64c d5bc 879c 343d
00000180: 86a3 0f3d ad8f de3c 254d 623d d0f2 9c3c
00000190: b118 393d 90a3 193d b651 7e3c 9831 03bd
000001a0: eb05 103d 13d4 4ebb edf6 453d 380e 0d3d
000001b0: 6cf2 8e3d 1850 2d3d d2d9 f43c 4b16 68bc
000001c0: d28d 5d3d e5a5 173d d554 e23c 4048 303d
000001d0: 5d17 b53d 205d e33c 71f8 8b3c 8891 fb39
000001e0: 07d3 c33c eddf 9f3d 71c2 213d b10e 703d
000001f0: d723 c73c d801 bc3c d5e1 16ba 9d22 233c
00000200: 3ba6 a03c df67 a63c a5cc fc3c 5a7c 2e3d
00000210: edf0 3d3c 3d42 fd3c 31f4 9a3c 650b d23c
00000220: 92e3 293c 7540 1f3d d574 0f3d 4848 5d3c
00000230: 542e b13c 7967 fc3c

action_model._discrete_distribution.branches.0.weight f4 [8, 142]
-0.047372304 -0.005341932 0.004428857 -0.00047100947 0.017363 0.008630285 -0.023491636 0.044262055
-0.031179378 0.0078041623 -0.009915174 -0.015865438 -0.01648085 -0.004968537 -0.04379305 -0.00094184733
-0.004171082 0.012265111 0.03654171 -0.018361371 -0.014933759 0.00077572564 -0.012621 -0.008814581
-0.02657159 -0.048223667 -0.037113108 -0.020093251 0.029979667 0.0085646855 0.0067409305 -0.010391121
0.006786613 0.0194871 -0.005964832 -0.002038396 0.0436743 -0.008180554 -0.02819896 -0.0120749
-0.024191821 0.019226523 -0.019884063 0.03051384 -0.0139605 -0.019664356 0.062305335 0.019290725
0.053156234 0.013322987 0.015866363 0.031368464 0.010872754 0.045610044 -0.013467985 -0.009025916
0.015124571 0.037174296 -0.034252234 0.015912607 -0.006026726 -0.02450394 -0.014539798 0.00013306463
-0.0021634016 -0.00662341 -0.04618533 -0.012238383 -0.008342104 -0.037095502 -0.040700633 0.008294744
-0.049720608 0.03918491 0.015843237 -0.0079567395 -0.01070368 0.0026094324 0.017917007 -0.0048303385
-0.008215581 -0.0009262113 -0.022395475 -0.015272735 0.05237255 -0.021578673 0.015388487 -0.01589774
-0.0502673 -0.018067714 0.017938107 -0.048377182 -0.00015690361 -0.004987586 -0.044693444 0.04689478
0.0033193121 0.025813056 -0.005498769 -0.01046412 -0.011419479 -0.018826777 -0.003986521 -0.0019883628
-0.012369233 0.024295079 -0.0033698631 0.005312364 0.008694363 -0.034676332 -0.04830121 0.011957103
0.0037255515 -0.005126282 0.0074048773 -0.04065633 0.052479886 -0.0077583515 0.021247804 -0.00077548984
-0.0159407 0.024366267 -0.040141806 -0.014851754 0.027971696 0.011604518 0.0023184945 -0.020751093
-0.009181766 -0.0063338447 -0.008777565 -0.008674824 -0.009816072 0.023321327 -0.0073896353 0.007733268
-0.014868033 -0.017940028 0.01824646 0.010154107 0.014431224 -0.007620244 -0.02512784 -0.049019612
0.030272735 0.050838087 0.026889365 0.004534763 -0.002584872 -0.03869892 0.041897897 0.03538616
-0.02617844 -0.012944411 -0.06479015 0.033185955 -0.023496088 0.016228938 -0.018241761 0.005843845
0.058895543 -0.036427017 0.015185658 -0.028796883 -0.026698025 0.042963967 -0.01631648 -0.012957413
-0.02178477 -0.08981319 -0.033744805 0.018780496 0.06373404 0.012116121 0.002278552 -0.019397674
0.075317785 0.005323144 -0.034062747 -0.03170955 -0.024782427 -0.029959474 0.0042610047 0.018066615
-0.05909318 0.045574993 -0.015896322 -0.008319664 -0.0014927653 0.026526406 -0.05494375 0.00090793427
0.024318615 -0.020400517 -0.028953163 -0.03124315 -0.0042968104 -0.04036185 -0.057130456 0.02719907
0.066161945 -0.034381226 -0.0039559077 0.047669403 -0.022300402 -0.03426486 -0.017493723 -0.05330709
0.0068843015 -0.02557045 0.013492697 0.03305639 -0.02373132 0.030566087 -0.05399661 0.0045964704
-0.020084292 -0.0032711625 0.005790602 0.028675573 0.022704765 -0.007222173 -0.028258068 0.008277283
0.023420338 -0.0051470567 -0.0032626027 0.012147494 -0.004345925 -0.037076123 0.03414416 -0.04277913
0.0010434585 -0.061480068 -0.014867661 -0.017966434 0.013160588 0.050893486 -0.009328084 -0.008181755
0.045468047 0.04690666 0.021339467 -0.0041921833 -0.012820423 -0.005200023 -0.04143218 0.016390003
-0.045432907 -0.036015335 0.020348439 -0.013458169 -0.019417826 -0.040232845 0.010749731 0.001682204
00000000: 7609 42bd 600b afbb f21f 913b d2f1 f6b9
00000010: da3c 8e3c 0a66 0d3c 8871 c0bc 214c 353d
00000020: e56b ffbc 0fba ff3b 4173 22bc 3cf8 81bc
00000030: d902 87bc 1ccf a2bb 5760 33bd 4ee6 76ba
00000040: 92ad 88bb 9bf3 483c c3ac 153d 966a 96bc
00000050: baac 74bc 115a 4b3a 50c8 4ebc 086b 10bc
00000060: aaac d9bc 2e86 45bd ea03 18bd 9a9a a4bc
00000070: eb97 f53c e552 0c3c 06e3 dc3b 853f 2abc
00000080: 3c62 de3b 69a3 9f3c a374 c3bb 9c96 05bb
00000090: d3e3 323d bb07 06bc 8101 e7bc cdd5 45bc
000000a0: ed2d c6bc f180 9d3c e7e3 a2bc 29f8 f93c
000000b0: 95ba 64bc 2517 a1bc e133 7f3d 9507 9e3c
000000c0: 5aba 593d a848 5a3c 2dfa 813c 387c 003d
000000d0: a323 323c 99d1 3a3d d3a8 5cbc 70e1 13bc
000000e0: 0ccd 773c 1344 183d 124c 0cbd 285b 823c
000000f0: d87b c5bb 7dbc c8bc 5538 6ebc 4487 0b39
00000100: dbc7 0dbb 3109 d9bb d42c 3dbd 8083 48bc
00000110: 52ad 08bc 74f1 17bd b5b5 26bd aee6 073c
00000120: d6a7 4bbd 5b80 203d adc9 813c fc5c 02bc
00000130: 7d5e 2fbc 0303 2b3b b0c6 923c d147 9ebb
00000140: a59a 06bc fdcc 72ba b776 b7bc 7e3a 7abc
00000150: 9984 563d c2c5 b0bc fe1f 7c3c fa3b 82bc
00000160: 16e5 4dbd be02 94bc f0f2 923c 2727 46bd
00000170: 7e86 24b9 e76e a3bb 7910 37bd be14 403d
00000180: d188 593b e775 d33c 052f b4bb b371 2bbc
00000190: c418 3bbc 9d3a 9abc 5da1 82bb 314f 02bb
000001a0: 53a8 4abc 7906 c73c ecd8 5cbb 5713 ae3b
000001b0: cd72 0e3c c508 0ebd 7dd7 45bd bae7 433c
000001c0: 6228 743b 5ffa a7bb 9da4 f23b 4087 26bd
000001d0: 26f5 563d c539 febb e00f ae3c 3e4a 4bba
000001e0: 1296 82bc c49b c73c bc6b 24bd c554 73bc
000001f0: e624 e53c e020 3e3c e2f1 173b 32fe a9bc
00000200: 1e6f 16bc 248c cfbb c7cf 0fbc d920 0ebc
00000210: 97d3 20bc 5e0c bf3c c124 f2bb 5b67 fd3b
00000220: 0d99 73bc f7f6 92bc 9a79 953c 695d 263c
00000230: f170 6c3c 3db3 f9bb e6d8 cdbc cac8 48bd
00000240: 87fe f73c 993b 503d 1647 dc3c 5998 943b
00000250: f566 29bb c282 1ebd 219d 2b3d 14f1 103d
00000260: 2b74 d6bc cb14 54bc b3b0 84bd ffed 073d
00000270: de7a c0bc 8df2 843c bf6f 95bc ba7d bf3b
00000280: 743c 713d 7f34 15bd 44cd 783c 71e7 ebbc
00000290: d1b5 dabc fcfa 2f3d 23aa 85bc 544b 54bc
000002a0: f975 b2bc faef b7bd fe37 0abd 8ed9 993c
000002b0: fe86 823d b282 463c c253 153b dfe7 9ebc
000002c0: 3640 9a3d c56d ae3b 6185 0bbd e0e1 01bd
000002d0: 8404 cbbc 926d f5bc e69f 8b3b 7000 943c
000002e0: b10b 72bd d8ac 3a3d 0139 82bc 334f 08bc
000002f0: e4a8 c3ba e84d d93c b30c 61bd 7002 6e3a
00000300: d537 c73c fc1e a7bc 2f2f edbc a2f1 ffbc
00000310: 42cc 8cbb 7852 25bd a001 6abd 96d0 de3c
00000320: ea7f 873d 54d3 0cbd 8fa0 81bb fe40 433d
00000330: 55af b6bc 4f59 0cbd ff4e 8fbc 8958 5abd
00000340: b595 e13b 1f79 d1bc 7910 5d3c 2366 073d
00000350: 2f68 c2bc bb65 fa3c 8d2b 5dbd fd9d 963b
00000360: d087 a4bc 0061 56bb 17bf bd3b 09e9 ea3c
00000370: 58ff b93c faa7 ecbb 777d e7bc 719d 073c
00000380: 02dc bf3c a4a8 a8bb 64d1 55bb 4806 473c
00000390: 4368 8ebb 22dd 17bd bfda 0b3d 2b39 2fbd
000003a0: a8c4 883a 86d2 7bbd 7d97 73bc 582e 93bc
000003b0: 829f 573c b075 503d d2d4 18bc c50c 06bc
000003c0: b43c 3a3d 3321 403d 1bd0 ae3c 955e 89bb
000003d0: c00c 52bc f464 aabb cab4 29bd 5444 863c
000003e0: db17 3abd d184 13bd c5b1 a63c a77f 5cbc
000003f0: 2212 9fbc 32cb 24bd a41f 303c 667d dc3a

action_model._discrete_distribution.branches.0.bias f4 [8]
0.010776795 -0.00096756197 -0.0023568587 -0.020185709 0.0045913304 0.022686465 0.0066755675 -0.0121331345
00000000: 2891 303c fca3 7dba 8775 1abb 805c a5bc
00000010: df72 963b f7d8 b93c b8be da3b 0eca 46bc

action_model._discrete_distribution.branches.1.weight f4 [8, 142]
0.0062261806 -0.015490552 -0.026419267 0.009043424 -0.035477787 0.03646137 -0.040778503 0.053041976
0.0011447411 -0.06016486 0.002059563 -0.015035081 -0.051799852 0.0004978824 0.015014153 0.04242959
-0.0061002797 0.045186374 -0.006373808 -0.03471671 -0.0019223625 0.024168728 -0.019602975 -0.023348376
-0.040259052 -0.044544466 -0.03971887 -0.019930752 0.057391122 0.053885445 0.028324367 -0.018978098
-0.006297459 -0.06059567 -0.02455154 -0.027873892 0.045387253 0.026479922 0.0042555174 0.00075962057
0.013348084 -0.05239347 0.06333171 -0.00032627117 0.0018085365 0.012984164 -0.05172857 -0.08084274
0.0782045 -0.032902878 0.008100173 -0.032795407 -0.03670112 -0.042789474 -0.01760205 0.0435747
0.018425468 -0.015158151 0.016506372 0.03787661 0.0016116026 -0.012411905 -0.0029281892 -0.010503155
-0.01502143 0.008424592 -0.02129009 0.05524658 -0.033993945 -0.053749453 0.08560341 0.011166424
-0.051529218 0.07204597 0.010432565 -0.0034387077 -0.012680132 -0.05590844 -0.005051063 0.08635336
0.0125634335 -0.04410808 0.0017470787 -0.037973136 -0.041061603 0.034063365 -0.016053047 0.077479765
0.09229646 0.04192389 0.009619734 -0.11136212 -0.063571684 -0.044809718 0.0048886067 0.06392417
0.059968296 -0.01648947 -0.050094616 0.0029853454 -0.080699496 0.026593074 0.04741323 0.003484701
0.021065934 -0.04103242 -0.035885155 -0.03769507 0.013962536 0.015674314 0.009343315 -0.008128776
-0.055927973 -0.011309129 -0.013594239 0.055185188 0.016969888 0.058239713 0.037238453 -0.028712776
-0.009353755 0.01461868 -0.02906549 0.007773108 0.012695132 0.06711177 0.049583353 0.044209246
-0.050012324 0.0043908632 0.011023703 -0.0029549378 0.015763046 0.028581582 0.008513706 0.01640101
0.005162689 -0.048508678 0.050313197 0.0071939975 -0.029616194 -0.035505928 -0.0018559189 0.012501616
-0.0049365256 -0.0084295655 0.014797047 0.009323686 0.041071653 -0.013119413 -0.019046174 0.015145468
0.061828498 -0.04213188 -0.0043012463 -0.043298732 0.021642856 0.003860181 -0.041844692 0.0018871962
0.0046083257 -0.02921161 0.0019655502 -0.04569915 -0.023274714 -0.0019962164 -0.02414734 -0.01635818
0.0034338965 0.014335081 0.016245378 0.023950696 0.008162787 -0.04236349 0.013817739 -0.028864851
0.0038021686 0.0023933838 0.00063273945 -0.025520174 0.052664038 0.02233191 0.028483288 -0.029614352
-0.02467588 0.024294848 -0.0050811493 0.034026433 0.012868042 0.010300224 -8.464212e-05 0.02408598
-0.00018472312 0.02838372 -0.01655999 0.036153898 -0.019796735 -0.008140655 0.031771716 0.038192656
0.00046945098 -0.010435064 -0.021964742 -0.026618024 0.009840107 0.024323333 -0.047175433 -0.015363691
0.03477298 -0.011896251 -0.0028000367 0.0040474297 0.0059760897 0.001819897 -0.068051875 -0.03487727
0.0010529003 -0.0050756107 0.020704102 0.02007669 -0.05373634 0.01965003 -0.029585259 -0.009199958
0.071281314 0.014208902 0.031563316 -0.021229254 0.012958237 0.008784882 0.0147533845 0.016128102
0.0024704947 -0.038130373 -0.035042778 -0.029595984 -0.011624352 -0.011384263 -0.03314049 0.0064360173
0.041425813 0.005716246 -0.048139453 -0.011217529 0.03625213 -0.0124891 0.016976915 -0.007465799
0.009861652 -0.028179787 -0.06503403 0.021687567 0.0013722273 -0.022022136 0.033647183 -0.014572483
00000000: fd04 cc3b 16cc 7dbc 386d d8bc df2a 143c
00000010: 2851 11bd 8458 153d 5c07 27bd 8b42 593d
00000020: 230b 963a 6e6f 76bd bcf9 063b b355 76bc
00000030: 152c 54bd 5384 023a ecfd 753c a6ca 2d3d
00000040: dbe4 c7bb 5915 393d 60db d0bb 1c33 0ebd
00000050: c8f7 fbba 7ffd c53c 6b96 a0bc 1845 bfbc
00000060: ade6 24bd 4274 36bd 41b0 22bd d145 a3bc
00000070: f412 6b3d fcb6 5c3d 8108 e83c f577 9bbc
00000080: ea5a cebb 2a33 78bd 5020 c9bc ca57 e4bc
00000090: fce7 393d 6cec d83c de71 8b3b 4621 473a
000000a0: ecb1 5a3c 899a 56bd 0eb4 813d 600f abb9
000000b0: 6a0c ed3a 88bb 543c 56e1 53bd e190 a5bd
000000c0: ae29 a03d 2bc5 06bd 97b6 043c 7a54 06bd
000000d0: ea53 16bd 0444 2fbd 2d32 90bc 627b 323d
000000e0: 02f1 963c e559 78bc 5f38 873c 8124 1b3d
000000f0: 693c d33a 4e5b 4bbc dde6 3fbb 6d15 2cbc
00000100: 721c 76bc 4d07 0a3c 8e68 aebc 3d4a 623d
00000110: 3c3d 0bbd 6328 5cbd d750 af3d 60f3 363c
00000120: 4d10 53bd d68c 933d 59ed 2a3c f15b 61bb
00000130: 54c0 4fbc 4000 65bd 6383 a5bb 08da b03d
00000140: dcd6 4d3c adaa 34bd 3cfe e43a b889 1bbd
00000150: 3630 28bd 0786 0b3d ae81 83bc b6ad 9e3d
00000160: ed05 bd3d 63b8 2b3d 179c 1d3c d311 e4bd
00000170: df31 82bd 658a 37bd 9b30 a03b adea 823d
00000180: 51a1 753d ed14 87bc 0330 4dbd c9a5 433b
00000190: c745 a5bd b8d9 d93c 6034 423d 955f 643b
000001a0: 7792 ac3c 9c11 28bd 50fc 12bd 2566 1abd
000001b0: 1fc3 643c 6b67 803c b414 193c 8f2e 05bc
000001c0: bb14 65bd ed49 39bc 5fba 5ebc dd09 623d
000001d0: 6f04 8b3c c48c 6e3d 5987 183d 0e37 ebbc
000001e0: 7e40 19bc 3083 6f3c c01a eebc 8eb5 fe3b
000001f0: 3eff 4f3c e571 893d ea17 4b3d c114 353d
00000200: b9d9 4cbd 3be1 8f3b c39c 343c a1a7 41bb
00000210: 8121 813c ec23 ea3c 127d 0b3c 695b 863c
00000220: c62b a93b 09b1 46bd 3615 4e3d a0bb eb3b
00000230: a99d f2bc aa6e 11bd 4e42 f3ba 94d3 4c3c
00000240: 94c2 a1bb 291c 0abc 506f 723c 60c2 183c
00000250: c03a 283d cef2 56bc b906 9cbc b224 783c
00000260: e13f 7d3d 7a92 2cbd 78f1 8cbb 035a 31bd
00000270: 5c4c b13c 17fb 7c3b 5765 2bbd cc5b f73a
00000280: 7001 973b 304d efbc 76d0 003b 082f 3bbd
00000290: 9daa bebc f4d2 02bb a4d0 c5bc 9701 86bc
000002a0: 390b 613b b0dd 6a3c 0715 853c 4034 c43c
000002b0: 36bd 053c 5785 2dbd cc63 623c fb75 ecbc
000002c0: ce2d 793b 51da 1c3b 6dde 253a af0f d1bc
000002d0: 3fb6 573d 69f1 b63c c955 e93c cc99 f2bc
000002e0: 1225 cabc fd05 c73c c57f a6bb 4d5f 0b3d
000002f0: 7bd4 523c 45c2 283c e481 b1b8 f64f c53c
00000300: 3cb2 41b9 fa84 e83c d1a8 87bc 1c16 143d
00000310: c32c a2bc 6260 05bc 0f23 023d e76f 1c3d
00000320: a520 f639 d5f7 2abc 67ef b3bc 0b0e dabc
00000330: 6638 213c ba41 c73c 073b 41bd feb7 7bbc
00000340: 1d6e 0e3d 7ee8 42bc d280 37bb 4da0 843b
00000350: 13d3 c33b 9c89 ee3a c85e 8bbd 78db 0ebd
00000360: 7901 8a3a 4f51 a6bb a69b a93c df77 a43c
00000370: a31a 5cbd 1af9 a03c c95c f2bc 6cbb 16bc
00000380: f0fb 913d 74cc 683c 8948 013d f9e8 adbc
00000390: c94e 543c 77ee 0f3c 2eb8 713c 151f 843c
000003a0: 06e8 213b 982e 1cbd 0489 0fbd 4773 f2bc
000003b0: 1174 3ebc 0f85 3abc 53be 07bd 3ae5 d23b
000003c0: 1dae 293d 594f bb3b e02d 45bd bac9 37bc
000003d0: 1d7d 143d 159f 4cbc 2c13 8b3c a9a3 f4bb
000003e0: c492 213c 4cd9 e6bc 9030 85bd 20aa b13c
000003f0: 4fdc b33a c467 b4bc a1d1 093d 6cc1 6ebc

action_model._discrete_distribution.branches.1.bias f4 [8]
-0.005053429 -0.009471078 -0.0021778303 0.023039142 0.008369693 -0.020900307 0.026897492 -0.008360331
00000000: 3c97 a5bb 952c 1bbc eeb9 0ebb 95bc bc3c
00000010: 0921 093c 1f37 abbc 2158 dc3c c5f9 08bc

action_model._discrete_distribution.branches.2.weight f4 [8, 142]
0.015847575 -0.008243361 -0.06861109 -0.022861289 -0.033389002 0.007754358 0.047090568 -0.031031094
-0.05337605 -0.048282273 -0.051941283 -0.0047622626 -0.034141418 0.010190906 0.05942047 0.025463285
-0.033501327 0.037739497 -0.01461261 -0.022100095 -0.0023160612 0.041194174 -0.01779516 -0.077660024
-0.055011623 -0.02325969 0.028421614 0.039162897 0.011140974 0.026228178 -0.041241646 -0.07145634
-0.04529359 -0.0005507216 -0.028846346 -0.052554637 0.0048756707 0.030529533 -0.018880254 0.0321694
0.019885352 -0.012011873 0.012611283 -0.030768212 0.0044677337 0.04813371 -0.08609921 -0.047123518
-0.002826853 0.0063001714 0.025150843 0.0330802 -0.026433822 -0.03154669 -0.026333664 0.024542518
0.014342587 -0.008571777 -0.06981079 0.027161578 0.0075177196 -0.040095836 0.0035416381 0.02616939
0.039683647 -0.028764695 0.0011199637 -0.0019336223 0.030367859 0.01466685 0.046882443 0.0071247583
-0.047781672 0.0161405 -0.0013759087 -0.019903664 -0.009806938 -0.016705312 0.023607267 0.06589015
0.019488662 0.008425263 0.012840819 0.02062056 0.0474966 -0.012718037 -0.014037966 0.018556643
0.005398361 0.013632824 -0.020691492 -0.061695486 -0.026711112 -0.008447243 0.014242697 -0.04835945
0.052424226 -0.0434384 -0.012780532 -0.029345749 0.01558922 -0.05194823 0.02805592 -0.010278683
-0.007211911 -0.003981648 -0.10841632 -0.03165659 0.04109676 0.018541256 -0.007708381 -0.038677417
-0.052253358 -0.011196456 -0.0020075648 0.0091573605 -0.005884453 0.023102337 0.01602587 0.044035174
0.043656975 0.025118375 0.0075797457 0.0038724167 -0.02494101 0.012039038 0.07710242 0.07673572
-0.027925419 0.019672675 0.0031467944 0.024267998 0.002578216 -0.0054560355 -0.012870338 -0.04133583
-0.0072075217 0.023740957 -0.003480805 0.012908097 -0.0076681967 0.028071407 -0.04438948 -0.007960395
-0.006895709 -0.030422183 0.011531812 -0.031682946 -0.08035168 -0.0041344133 -0.012592782 -0.008548078
0.0025483577 0.016745104 -0.020279005 -0.017756518 -0.0042806957 0.02464804 0.028920332 0.030469328
0.02356162 -0.030040639 0.026435597 0.0137988655 -0.06967333 -0.036753427 -0.07477833 -0.017271636
-0.024972174 0.000112237416 -0.048637535 0.03478236 0.0128954565 -0.010350613 -0.010241954 -0.046268463
0.008577685 -0.0017592873 0.023842473 -0.035820678 8.992576e-05 -0.01748076 -0.02345451 -0.006712327
-0.03174418 -0.013789653 0.0019209018 -0.016493784 -0.05032759 -0.039846696 0.014445371 -0.0010874034
-0.024452532 -0.0063162944 0.0005587114 0.014548351 -0.015648637 0.01102834 0.021698508 0.0064760623
-0.02215691 0.017932959 -0.018158542 0.025106845 0.002330992 0.024528068 0.032142915 0.037711553
-0.043566428 -0.0017583816 -0.019419406 -0.027419891 0.014401052 -0.03381253 -0.021028884 0.039932683
-0.028185494 -0.036295503 0.012848045 -0.01304221 -0.027432086 -0.0070585455 -0.038956553 -0.09670371
-0.026256636 0.0037462902 -0.0003253246 0.003264949 0.0048484523 0.005772281 -0.00072329666 0.035091408
-0.014203809 -0.07761021 -0.04918651 -4.7516387e-05 -0.030372424 -0.035260007 0.012374213 0.0005505383
-0.029372623 -0.026546665 -0.04448567 -0.009820679 -0.013342378 0.0057464954 -0.0108710835 0.013747395
-0.03929001 -0.02449047 -0.044350177 -0.0069140433 0.01813543 0.0029157766 -0.020766579 -0.0008634885
00000000: c6d2 813c 290f 07bc f983 8cbd 9947 bbbc
00000010: e8c2 08bd 4518 fe3b 0ae2 403d ec34 febc
00000020: d8a0 5abd a2c3 45bd 62c0 54bd c10c 9cbb
00000030: dfd7 0bbd c2f7 263c e162 733d 6198 d03c
00000040: b038 09bd bb94 1a3d bb69 6fbc 420b b5bc
00000050: 0fc9 17bb 39bb 283d 28c7 91bc 380c 9fbd
00000060: de53 61bd 1b8b bebc 72d4 e83c 4669 203d
00000070: a288 363c 7adc d63c 00ed 28bd b457 92bd
00000080: c585 39bd 4d5e 10ba 2c4f ecbc 8843 57bd
00000090: 17c4 9f3b 1219 fa3c c3aa 9abc 10c4 033d
000000a0: 9be6 a23c 72cd 44bc 8e9f 4e3c 9e0d fcbc
000000b0: 1166 923b da27 453d c854 b0bd 9704 41bd
000000c0: b942 39bb ab71 ce3b 2409 ce3c 1b7f 073d
000000d0: be8b d8bc 1a37 01bd b2b9 d7bc 640d c93c
000000e0: 2cfd 6a3c a370 0cbc f6f8 8ebd f581 de3c
000000f0: 3457 f63b 883b 24bd d41a 683b 3061 d63c
00000100: 528b 223d f0a3 ebbc bfcb 923a 9971 fdba
00000110: 04c6 f83c 3a4d 703c ce07 403d ce76 e93b
00000120: b7b6 43bd 1539 843c d657 b4ba 020d a3bc
00000130: 47ad 20bc 94d9 88bc 0764 c13c 6af1 863d
00000140: b0a6 9f3c 1d0a 0a3c 4c62 523c 73ec a83c
00000150: cb8b 423d 505f 50bc 7fff 65bc 1a04 983c
00000160: bce4 b03b 355c 5f3c 3481 a9bc 68b4 7cbd
00000170: 43d1 dabc 4e66 0abc 335a 693c 8f14 46bd
00000180: c9ba 563d 77ec 31bd 7065 51bc 7f66 f0bc
00000190: ee69 7f3c abc7 54bd 87d5 e53c ec67 28bc
000001a0: e551 ecbb 7c78 82bb 6009 debd 57aa 01bd
000001b0: 1455 283d d5e3 973c 9696 fcbb 366c 1ebd
000001c0: 9e07 56bd 5771 37bc 5991 03bb c108 163c
000001d0: 5fd2 c0bb 1d41 bd3c af48 833c 3a5e 343d
000001e0: a8d1 323d 0dc5 cd3c 845f f83b 5fc8 7d3b
000001f0: 1751 ccbc 633f 453c e0e7 9d3d 9e27 9d3d
00000200: d9c3 e4bc 9728 a13c 733a 4e3b aecd c63c
00000210: 49f7 283b 8bc8 b2bb 1cde 52bc c24f 29bd
00000220: 132d ecbb 657c c23c 381e 64bb 7c7c 533c
00000230: 7f45 fbbb 02f6 e53c bed1 35bd 516c 02bc
00000240: 66f5 e1bb f137 f9bc edef 3c3c fac5 01bd
00000250: 6c8f a4bd f979 87bb f551 4ebc 3d0d 0cbc
00000260: 5902 273b 072d 893c 2820 a6bc 1e76 91bc
00000270: 1445 8cbb b0ea c93c 55ea ec3c d09a f93c
00000280: 4c04 c13c c917 f6bc 778f d83c a314 623c
00000290: e4b0 8ebd c38a 16bd 6225 99bd 3f7d 8dbc
000002a0: 7292 ccbc 0161 eb38 2738 47bd f377 0e3d
000002b0: 7747 533c 9e95 29bc decd 27bc 0084 3dbd
000002c0: 6b89 0c3c e397 e6ba 4a51 c33c b4b8 12bd
000002d0: 8696 bc38 d033 8fbc ac23 c0bc 14f3 dbbb
000002e0: 2f06 02bd ffed 61bc c5c6 fb3a f91d 87bc
000002f0: 4e24 4ebd 4a36 23bd 47ac 6c3c 3487 8eba
00000300: ad50 c8bc ebf8 cebb 7d76 123a 355c 6e3c
00000310: 9231 80bc 36b0 343c 12c1 b13c 2635 d43b
00000320: 6882 b5bc 24e8 923c 39c1 94bc dfac cd3c
00000330: 8ec3 183b 16ef c83c 4aa8 033d 6e77 1a3d
00000340: b672 32bd 7f79 e6ba 7215 9fbc ae9f e0bc
00000350: 64f2 6b3c 027f 0abd c444 acbc 7490 233d
00000360: 44e5 e6bc 98aa 14bd 9b80 523c feae 55bc
00000370: 41b9 e0bc 5f4b e7bb e890 1fbd 980c c6bd
00000380: 2818 d7bc 5284 753b 5490 aab9 c1f8 553b
00000390: c4df 9e3b 6725 bd3b 9e9b 3dba 02bc 0f3d
000003a0: 18b7 68bc 1af2 9ebd cb77 49bd 554c 47b8
000003b0: 97cf f8bc cc6c 10bd 36bd 4a3c 0052 103a
000003c0: db9e f0bc 6478 d9bc 9b36 36bd eae6 20bc
000003d0: fd99 5abc 194d bc3b a11c 32bc c13c 613c
000003e0: 90ee 20bd 3da0 c8bc 88a8 35bd 338f e2bb
000003f0: c190 943c 9d16 3f3b ac1e aabc bb5b 62ba

action_model._discrete_distribution.branches.2.bias f4 [8]
-0.015135122 -0.014563522 0.032457564 -0.021862172 -0.015250339 0.01960033 0.008490383 0.004615412
00000000: 4ef9 77bc d79b 6ebc 39f2 043d 4c18 b3bc
00000010: 8fdc 79bc df90 a03c 3f1b 0b3c e23c 973b

action_model._discrete_distribution.branches.3.weight f4 [8, 142]
0.012866213 0.026752502 -0.03407232 0.028616726 -0.040678684 0.06965614 -0.018767834 -0.04100759
0.046541646 -0.0029379432 0.05072909 -0.019671941 -0.005383597 -0.028898695 0.030858442 0.051941846
-0.014407213 0.034351856 -0.045780703 0.009983103 0.06770009 -0.054281034 0.021664845 0.024319671
0.028429795 0.027610147 0.08065669 0.06978456 0.0093467 0.0078198 0.08970746 -0.004513993
0.025920656 -0.091591924 0.06732652 0.000752449 -0.041056123 -0.03534004 0.032630567 0.024256961
-0.068626545 -0.0049709594 0.0015008566 0.0328551 0.012903007 0.05217897 0.01451621 0.044474278
-0.014238311 0.013406099 0.0056924424 0.032479763 -0.02728574 0.034529347 0.048002373 0.046469945
0.0028927044 0.0029081337 0.032403536 0.018375525 -0.041660074 0.0943762 -0.007017744 0.045925688
0.009424749 -0.016483903 -0.0144313015 0.03324211 0.037293177 0.014568972 0.010301637 0.02922026
-0.06676974 -0.01223792 -0.042896304 -0.009461504 0.0510573 -0.002414143 -0.023760775 -0.113897674
0.005371392 -0.040487505 -0.021055933 0.043089304 0.01462549 -0.012104619 0.0533515 -0.022732802
0.034512967 0.048171658 -0.06694237 -0.04400477 0.043656286 0.0034751857 0.004507871 -0.018775009
0.015847225 0.0011231106 0.07152352 -0.028716888 0.012710613 0.033393446 -0.04805853 -0.002251889
0.06281507 -0.0045699356 -0.07912306 0.045249652 0.034716044 0.023177125 0.0014836154 0.0036971977
0.017535629 0.042879812 -0.021514082 0.052437115 -0.04836452 0.05330737 0.014217437 0.038184594
0.05296422 -0.017210752 -0.0016478613 0.071728416 0.0661953 0.03036221 0.010552285 0.003816196
0.053612225 0.06643628 0.056307808 0.020676317 0.06059748 0.040118508 0.04203162 0.04150147
-0.014003739 0.06381809 -0.02830295 -0.0068440014 0.06026247 0.07786094 -0.008189948 0.005879358
0.05396785 -0.011548218 0.016745625 0.0026840211 0.047619704 0.019890709 0.005665559 -0.014524045
-0.011650716 -0.04279122 -0.05176166 -0.021325538 -0.022966841 0.0057260194 0.0053812563 0.029766228
0.0016070292 -0.0002633301 -0.06264642 0.0036438121 -0.00513466 0.0072255824 0.010992612 0.02989511
-0.052191287 -0.02406018 0.005747584 0.013832882 0.009404523 -0.0004349101 -0.014819088 0.0039980155
0.0015877096 -0.0018376744 0.036609277 -0.013810616 -0.039377965 0.023934497 0.030578721 0.023239292
-0.027870439 0.011979016 0.0022704827 -0.047309328 -0.008536954 0.026142225 0.014610537 -0.01449395
0.050574757 -0.00559332 -0.047080953 -0.04142994 0.0061388635 0.0076443413 0.025342973 0.04928704
-0.034158308 -0.023875711 -0.0075572366 -0.01730965 0.015177385 0.013618083 0.0007853231 0.0031916786
-0.034781903 -0.043815482 -0.058974557 -0.035170544 -0.0057296306 0.08641411 0.022611598 0.04123748
0.033815935 0.019065088 -0.04502921 0.041827764 0.0036940873 0.069715284 0.015731612 0.02893002
-0.041866962 0.008180735 0.05620692 -0.0069700675 -0.016340837 0.01022673 0.0149265295 -0.04026635
-0.005402211 0.011272575 -0.011595561 0.009183489 0.05458555 0.013191871 0.032727435 0.027144402
-0.041211337 0.014187499 0.009936486 0.060894888 0.044168442 -0.00069265114 -0.028677 -0.005241204
0.03124664 0.019927293 0.05803223 -0.048166275 -0.00014947013 -0.0067165545 -0.011881318 0.0063041747
00000000: cfcc 523c 1028 db3c 6b8f 0bbd a06d ea3c
00000010: b19e 26bd e1a7 8e3d 00bf 99bc 93f7 27bd
00000020: 74a2 3e3d 828a 40bb 4ec9 4f3d 0d27 a1bc
00000030: e368 b0bb f5bc ecbc d8ca fc3c f9c0 543d
00000040: 3b0c 6cbc 88b4 0c3d 8c84 3bbd 2b90 233c
00000050: 58a6 8a3d ca55 5ebd 797a b13c 0c3a c73c
00000060: 9ae5 e83c ad2e e23c 562f a53d 35eb 8e3d
00000070: e722 193c 9e1e 003c 8bb8 b73d 1eea 93bb
00000080: 8e57 d43c 8c94 bbbd 7de2 893d ff3f 453a
00000090: 772a 28bd b8c0 10bd a1a7 053d 89b6 c63c
000000a0: 138c 8cbd 6ee3 a2bb 64b8 c43a 1293 063d
000000b0: 2267 533c 9eb9 553d 66d5 6d3c a92a 363d
000000c0: ce47 69bc 41a5 5b3c ab87 ba3b 8009 053d
000000d0: 5886 dfbc a56e 0d3d 239e 443d 4557 3e3d
000000e0: 8793 3d3b 6396 3e3b 92b9 043d 4588 963c
000000f0: c1a3 2abd 4f48 c13d 1af5 e5bb 931c 3c3d
00000100: 436a 1a3c 4009 87bc 4471 6cbc e128 083d
00000110: bbc0 183d b3b2 6e3c 33c8 283c 545f ef3c
00000120: 93be 88bd 8f81 48bc 09b4 2fbd 6d04 1bbc
00000130: 7621 513d 9936 1ebb f5a5 c2bc 2f43 e9bd
00000140: 8002 b03b 3ad6 25bd 7e7d acbc 697e 303d
00000150: c09f 6f3c 7452 46bc 1a87 5a3d 243a babc
00000160: 785d 0d3d a54f 453d 1519 89bd 593e 34bd
00000170: efd0 323d f1bf 633b c3b6 933b 0cce 99bc
00000180: 0ad2 813c 5735 933a ec7a 923d ae3f ebbc
00000190: 2d40 503c 91c7 083d 05d9 44bd 6e94 13bb
000001a0: 30a5 803d 66bf 95bb 450b a2bd b357 393d
000001b0: 6932 0e3d f4dd bd3c df75 c23a af4c 723b
000001c0: e1a6 8f3c bea2 2f3d 4d3e b0bc 4dc8 563d
000001d0: e019 46bd d458 5a3d 41f0 683c 7367 1c3d
000001e0: 03f1 583d 90fd 8cbc 0dfd d7ba 59e6 923d
000001f0: 6791 873d 2bba f83c 7ee3 2c3c 2519 7a3b
00000200: 7e98 5b3d bf0f 883d 04a3 663d 6161 a93c
00000210: 1035 783d 4e53 243d 5929 2c3d 72fd 293d
00000220: f06f 65bc 0fb3 823d 97db e7bc a543 e0bb
00000230: c8d5 763d 8e75 9f3d 222f 06bc a1a7 c03b
00000240: 640d 5d3d bd34 3dbc 1f2e 893c 67e6 2f3b
00000250: e10c 433d d7f1 a23c 27a6 b93b 43f6 6dbc
00000260: a5e2 3ebc d945 2fbd 0904 54bd e5b2 aebc
00000270: f524 bcbc 55a1 bb3b 4055 b03b 4ed8 f33c
00000280: f4a2 d23a 910f 8ab9 c44c 80bd 06cd 6e3b
00000290: a640 a8bb 94c4 ec3b 5b1a 343c 97e6 f43c
000002a0: 88c6 55bd db19 c5bc 3b56 bc3b 50a3 623c
000002b0: 6e15 1a3c a504 e4b9 c3cb 72bc c901 833b
000002c0: b21a d03a 1fde f0ba 9cf3 153d ec45 62bc
000002d0: ca4a 21bd 4712 c43c 3a80 fa3c 5460 be3c
000002e0: 8c50 e4bc a243 443c 61cc 143b 6dc7 41bd
000002f0: 95de 0bbc 3828 d63c 0961 6f3c 0878 6dbc
00000300: 7a27 4f3d 2b48 b7bb f5d7 40bd 71b2 29bd
00000310: 8528 c93b 627d fa3b 119c cf3c 35e1 493d
00000320: 95e9 0bbd ff96 c3bc b2a2 f7bb f8cc 8dbc
00000330: 91aa 783c 611e 5f3c 24de 4d3a 7b2b 513b
00000340: 7877 0ebd dd77 33bd 4e8f 71bd fd0e 10bd
00000350: a0bf bbbb e2f9 b03d f53b b93c a2e8 283d
00000360: 9482 0a3d 632e 9c3c 8d70 38bd 9753 2b3d
00000370: 8018 723b e3c6 8e3d 95df 803c a6fe ec3c
00000380: b17c 2bbd 7d08 063c 3a39 663d 2a65 e4bb
00000390: 38dd 85bc 048e 273c 678e 743c 54ee 24bd
000003a0: 0805 b1bb 9bb0 383c 4ffb 3dbc 5876 163c
000003b0: 1995 5f3d b822 583c 340d 063d f05d de3c
000003c0: 38cd 28bd af72 683c a5cc 223c eb6c 793d
000003d0: f8e9 343d 0893 35ba 07ec eabc 68be abbb
000003e0: f4f8 ff3c 903e a33c 34b3 6d3d 004a 45bd
000003f0: 15bb 1cb9 8b16 dcbb dca9 42bc 4093 ce3b

action_model._discrete_distribution.branches.3.bias f4 [8]
0.037104357 0.024805663 0.01839522 -0.04644007 -0.009864758 -0.0033327583 -0.022784198 0.0069810706
00000000: bdfa 173d 3f35 cb3c 93b1 963c f137 3ebd
00000010: cb9f 21bc 686a 5abb eda5 babc 77c1 e43b
