results/NewTwoAgents/BlackMLAgent/BlackMLAgent-259952.onnx (onnx, 151064 bytes, 15 tensors)

discrete_act_size_vector f4 [1, 5]
8.0 8.0 8.0 8.0 5.0
00000000: 0000 0041 0000 0041 0000 0041 0000 0041
00000010: 0000 a040

network_body._body_endoder.seq_layers.0.weight f4 [142, 71]
0.07366147 0.12496833 0.212315 0.019318534 -0.0042307707 0.019377584 0.14342768 -0.27872804
0.15080242 -0.029806484 0.02367367 0.05938494 -0.015622218 0.06975962 -0.08547168 0.065030836
-0.23726174 0.10189344 0.13744068 0.037483636 0.10907395 -0.2310641 0.12640907 0.060525674
-0.23597324 -0.050354157 -0.18267876 -0.12758112 -0.05409032 -0.3557611 0.057791818 -0.07553447
-0.06110056 -0.17337632 0.011973835 -0.11142157 -0.00504259 -0.24860296 -0.13485864 -0.28214943
-0.32026526 0.053171493 -0.7024356 -0.19855158 0.1303229 -0.04346389 -0.046324253 -0.18211776
-0.123787425 -0.19776267 0.020465512 -0.19633722 0.030384488 0.00245102 -0.078530185 -0.13170113
0.053038456 0.11578032 0.017644057 -0.38728237 0.13015202 0.028917655 -0.14995363 -0.37852028
-0.12439501 -0.009598604 0.021550821 0.008388214 0.22069399 -0.18312953 -0.18107487 0.12015838
-0.11562917 0.086503804 -0.011146735 -0.096540354 -0.04274543 0.1498935 -0.060745336 0.15972279
0.025975538 -0.08840912 0.10575452 -0.14256097 -0.016175384 -0.070031315 0.0039048616 0.16102517
-0.24066265 0.3632671 -0.059062555 0.13626392 0.046035275 -0.1081326 0.06475346 -0.032974128
0.19315916 0.110346116 0.09993041 0.04223067 0.03836857 0.14923525 0.33224306 0.025922596
-0.070023455 -0.008869871 0.11988841 -0.03821902 0.0046934304 0.0070157326 -0.38096535 -0.0022343143
-0.05224784 -0.31033024 -0.14329235 -0.064225055 0.1525302 -0.15100451 0.01751277 -0.11917682
-0.0340251 0.21926461 0.07205378 0.020256681 0.20421515 -0.21595474 -0.18167906 0.07324397
0.19638455 -0.03692843 -0.057333134 -0.2595147 0.2133724 0.22040427 -0.109024234 -0.18139556
1.1616572e-05 0.06470333 -0.024101377 -0.06829692 0.30809203 0.06575389 0.16009448 0.23601106
0.06148722 -0.15826637 -0.1416337 -0.119410284 0.3249753 -0.26213962 0.034133583 -0.35208127
-0.24866608 0.1973924 0.13110177 -0.07458306 -0.088090904 -0.06080895 -0.2122724 0.03435539
-0.33112028 0.07961663 -0.117686205 -0.29163215 0.2392742 0.12567894 -0.11091728 0.09821972
0.018310739 -0.13084431 0.025986115 0.062144425 0.07388973 -0.34208852 -0.17980787 0.24722828
0.19677372 -0.16700599 0.080125205 0.10992822 0.07537818 -0.2799036 -0.053231303 -0.23454957
0.09802 -0.19335757 -0.027765634 -0.13430285 -0.18291217 0.10738494 -0.23069368 -0.13180113
-0.046046086 -0.35008287 0.09750628 0.009391401 0.12674272 -0.34148762 0.09084944 -0.054910704
0.13781188 0.08616112 0.08311502 -0.26257214 0.05512033 -0.018687323 -0.012896639 0.10839814
0.15302064 0.10390031 -0.19100563 0.20209074 -0.018720817 -0.07100515 0.034920797 8.052737e-05
-0.080799006 0.18895057 -0.24094035 -0.06508368 0.0373932 -0.20426583 0.05937799 -0.17781612
0.027352113 -0.18765576 -0.048667524 0.022568492 -0.024435876 -0.1515701 0.24702041 -0.09223116
0.18644717 0.031839546 0.014827241 -0.047733188 0.19672062 0.04806437 0.046006195 0.18886654
0.08878036 -0.1594478 0.05181917 -0.08895153 0.01398571 0.20083593 -0.035533156 0.12499502
-0.122361965 -0.057472076 0.35184023 -0.16585974 0.14699179 -0.060572986 0.118689045 -0.34911054
00000000: d3db 963d 65ef ff3d 1a69 593e e741 9e3c
00000010: 47a2 8abb bdbd 9e3c b5de 123e 71b5 8ebe
00000020: f36b 1a3e ba2c f4bc 49ef c13c 9f3d 733d
00000030: 55f4 7fbc 22de 8e3d c70b afbd e32e 853d
00000040: bef4 72be 82ad d03d 40bd 0c3e 7188 193d
00000050: 2a62 df3d 119c 6cbe 6171 013e c5e9 773d
00000060: f8a2 71be 2940 4ebd 2410 3bbe a0a4 02be
00000070: d08d 5dbd 5226 b6be 1db7 6c3d d1b1 9abd
00000080: 9544 7abd 9089 31be e72d 443c fe30 e4bd
00000090: 503c a5bb c691 7ebe 6218 0abe e475 90be
000000a0: cff9 a3be 5aca 593d d2d2 33bf 1b51 4bbe
000000b0: 5e73 053e 3107 32bd 80be 3dbd 147d 3abe
000000c0: 4384 fdbd 4c82 4abe 4aa7 a73c a00c 49be
000000d0: e4e8 f83c 4ba1 203b 6fd4 a0bd a9dc 06be
000000e0: da3e 593d 3b1e ed3d 458a 903c e049 c6be
000000f0: 9246 053e b8e4 ec3c 728d 19be 69cd c1be
00000100: d0c2 febd 7743 1dbc 598b b03c b86e 093c
00000110: 9bfd 613e 4f86 3bbe b16b 39be 9915 f63d
00000120: fcce ecbd e828 b13d cca0 36bc f3b6 c5bd
00000130: d515 2fbd af7d 193e 1ad0 78bd 5f8e 233e
00000140: a7ca d43c d70f b5bd d395 d83d 81fb 11be
00000150: 3d82 84bc 946c 8fbd b5e8 7f3b c8e3 243e
00000160: 4570 76be 25fe b93e 94eb 71bd c588 0b3e
00000170: 7c8f 3c3d a074 ddbd 769d 843d e10f 07bd
00000180: 84cb 453e 25fd e13d 51a8 cc3d 11fa 2c3d
00000190: 5d28 1d3d 20d1 183e c31b aa3e a05b d43c
000001a0: 7568 8fbd ef52 11bc 0e88 f53d 8c8b 1cbd
000001b0: 59cb 993b 3be4 e53b e40d c3be 936d 12bb
000001c0: d501 56bd 9be3 9ebe 3bbb 12be 6d88 83bd
000001d0: e030 1c3e eda0 1abe f176 8f3c fa12 f4bd
000001e0: e75d 0bbd e786 603e ef90 933d 57f1 a53c
000001f0: c71d 513e 3d23 5dbe 130a 3abe ef00 963d
00000200: 0819 493e 4442 17bd 26d6 6abd 1cdf 84be
00000210: 4b7e 5a3e a8b1 613e 1948 dfbd c2bf 39be
00000220: cce4 4237 2e83 843d 4070 c5bc 41df 8bbd
00000230: 3dbe 9d3e faa9 863d cfef 233e e2ac 713e
00000240: 06da 7b3d 9410 22be 6d08 11be 618d f4bd
00000250: 2a63 a63e 2a37 86be a8cf 0b3d ff43 b4be
00000260: 52a2 7ebe 3c21 4a3e 8b3f 063e 01bf 98bd
00000270: 0169 b4bd ce12 79bd f05d 59be 3db8 0c3d
00000280: 9988 a9be 0b0e a33d 7705 f1bd cf50 95be
00000290: 4c04 753e fbb1 003e 9928 e3bd 6c27 c93d
000002a0: 6700 963c 0dfc 05be d5e0 d43c 278b 7e3d
000002b0: 8053 973d 3a26 afbe 8e1f 38be 6929 7d3e
000002c0: 0d7f 493e 9e03 2bbe af18 a43d 0c22 e13d
000002d0: e05f 9a3d 864f 8fbe 1109 5abd c32d 70be
000002e0: b6be c83d 87ff 45be c174 e3bc b086 09be
000002f0: 544d 3bbe a3ec db3d f73a 6cbe e0f6 06be
00000300: d29a 3cbd 103e b3be 5fb1 c73d 64de 193c
00000310: d8c8 013e 77d7 aebe 450f ba3d 0cea 60bd
00000320: 8f1e 0d3e 3e75 b03d 3538 aa3d db6f 86be
00000330: dbc5 613d 2816 99bc 6d4c 53bc d8ff dd3d
00000340: 71b1 1c3e b0c9 d43d fb96 43be e0f0 4e3e
00000350: 665c 99bc 266b 91bd 1c09 0f3d cde0 a838
00000360: f379 a5bd 427c 413e 11b9 76be 984a 85bd
00000370: 9d29 193d 102b 51be 5636 733d 6e15 36be
00000380: 8a11 e03c d528 40be 9957 47bd 8fe1 b83c
00000390: bf2d c8bc 3135 1bbe ebf2 7c3e b1e3 bcbd
000003a0: 02ec 3e3e 2f6a 023d f5ed 723c e083 43bd
000003b0: 2171 493e 25df 443d fe70 3c3d 3b66 413e
000003c0: 7ad2 b53d 4946 23be 5740 543d 382c b6bd
000003d0: 5224 653c efa7 4d3e 378b 11bd 64fd ff3d
000003e0: e998 fabd d767 6bbd 6724 b43e 23d7 29be
000003f0: 0485 163e 611b 78bd 3e13 f33d 9ebe b2be

network_body._body_endoder.seq_layers.0.bias f4 [142]
0.19415247 -0.068968385 0.105856046 0.035082567 -0.014642267 0.09573119 0.08007219 0.069815494
0.06692585 0.071654685 0.03784338 0.01927474 -0.009582247 -0.03694871 0.09686491 0.041866504
0.01235968 -0.04682029 0.06492461 -0.03318069 -0.0616225 0.0918664 -0.06928254 0.035017278
0.05374329 0.13380103 0.0034531322 0.18464008 0.15291692 -0.0063368874 0.033447187 0.06698132
0.10354068 0.062832616 0.049964964 -0.025443919 0.13774638 0.104275115 -0.076431274 -0.011365728
0.091701426 0.061910946 0.067061394 0.030207463 0.025786169 0.081249766 0.026233662 0.10331155
0.13876307 0.048457794 0.07193962 0.044225194 0.04715287 0.007317684 0.016626352 0.039192285
0.0032128694 0.09331313 0.027830102 0.0041571106 -0.0050163628 0.12074628 0.06414643 0.07481707
-0.05393558 0.12949303 0.02526023 0.014870683 0.09832817 -0.0050274115 0.028477311 -0.055252492
-0.0077515016 0.02791848 0.008961187 0.038426023 0.055053975 0.10219668 0.025620535 0.0662606
0.10575031 -0.07625259 0.09496058 0.06800107 0.07198779 0.019965734 0.02021919 0.13228978
0.15738712 0.100924425 0.09638402 0.0026625677 0.0010909506 0.094696365 0.21752357 0.121922866
0.12491541 0.03307224 0.07941677 0.0012841419 -0.054999206 0.11928712 0.045281403 -0.049158666
-0.00591764 0.0031511267 0.11523301 -0.0006525277 0.1176233 -0.04918635 0.06260358 0.03782847
0.23236278 0.038324248 -0.042166874 0.06040942 0.08323052 -0.013957224 0.041257724 0.04099732
-0.054381367 0.028737104 0.032533545 0.1044538 0.17612682 0.026216535 -0.03096691 0.027040739
0.06387536 -0.025782047 0.0072471714 0.0064188717 0.044888522 -0.008195665 0.15438065 -0.069644116
0.0466743 0.024962455 0.10121797 0.08941192 0.09485296 0.09234322
00000000: e8cf 463e 4c3f 8dbd 0ecb d83d bdb2 0f3d
00000010: 1ee6 6fbc b70e c43d e3fc a33d 6dfb 8e3d
00000020: 6c10 893d b1bf 923d a901 1b3d 0fe6 9d3c
00000030: dbfe 1cbc 8857 17bd 1c61 c63d 367c 2b3d
00000040: 4180 4a3c a2c6 3fbd 32f7 843d 7ae8 07bd
00000050: e067 7cbd 7324 bc3d 01e4 8dbd 476e 0f3d
00000060: ed21 5c3d 2303 093e f24d 623b 4a12 3d3e
00000070: 4196 1c3e aaa5 cfbb ebff 083d 812d 893d
00000080: 230d d43d 63ae 803d 10a8 4c3d c46f d0bc
00000090: 630d 0d3e 318e d53d 0088 9cbd 5237 3abc
000000a0: f5cd bb3d 5596 7d3d 7c57 893d a475 f73c
000000b0: 843d d33c 4766 a63d fae7 d63c 0295 d33d
000000c0: e817 0e3e ae7b 463d 1455 933d 7a25 353d
000000d0: 5e23 413d 2fc9 ef3b fd33 883c 1788 203d
000000e0: 018f 523b f41a bf3d f4fb e33c 5f38 883b
000000f0: 4d60 a4bb d349 f73d 345f 833d b139 993d
00000100: 8eeb 5cbd d299 043e 8bee ce3c 2aa4 733c
00000110: 4860 c93d fcbc a4bb 4049 e93c 7050 62bd
00000120: 4f00 febb 4cb5 e43c f1d1 123c 9b64 1d3d
00000130: 4780 613d 7e4c d13d 28e2 d13c a3b3 873d
00000140: 9e93 d83d 512a 9cbd b17a c23d 2544 8b3d
00000150: 566e 933d 2e8f a33c b7a2 a53c f976 073e
00000160: 172a 213e 77b1 ce3d fc64 c53d 797e 2e3b
00000170: 3afe 8e3a 2bf0 c13d 80be 5e3e b2b2 f93d
00000180: a7d3 ff3d c276 073d 42a5 a23d a750 a83a
00000190: d946 61bd ce4c f43d fe78 393d 995a 49bd
000001a0: c3e8 c1bb 2283 4e3b 49ff eb3d 650e 2bba
000001b0: 7ce4 f03d a077 49bd 4e36 803d 07f2 1a3d
000001c0: 82f0 6d3e e3f9 1c3d 2cb7 2cbd de6f 773d
000001d0: c374 aa3d d7ac 64bc dcfd 283d ceec 273d
000001e0: ffbe 5ebd 136a eb3c e541 053d e0eb d53d
000001f0: 975a 343e 0fc4 d63c 51ae fdbc 8a84 dd3c
00000200: 16d1 823d df34 d3bc ae79 ed3b 6655 d23b
00000210: 07dd 373d 1c47 06bc f615 1e3e 93a1 8ebd
00000220: 8d2d 3f3d 107e cc3c 5e4b cf3d 991d b73d
00000230: 4542 c23d 711e bd3d

network_body._body_endoder.seq_layers.2.weight f4 [142, 142]
-0.12982938 0.031659376 0.0044766944 0.019568317 -0.05199409 0.00077092444 0.04242923 -0.16290745
-0.019023586 0.20287581 -0.22005685 -0.037213482 0.09525302 0.05838142 0.0087390365 -0.14263377
0.11688409 -0.034843665 0.08362667 0.14873725 0.16671456 -0.01864211 -0.08299578 0.06176934
0.044016536 0.074000604 0.086173184 -0.024417406 -0.0035971103 0.08219466 0.07265982 0.12032137
0.093266614 -0.16899043 0.015622767 -0.03956357 0.07733256 0.0965023 -0.16731392 -0.19213593
-0.04679041 -0.15766002 -0.2438367 0.15633707 -0.13884781 -0.2492449 0.055842217 0.009858935
-0.028225018 0.11701931 0.16374893 0.18445808 -0.08347898 0.1403332 -0.1274484 0.21857555
0.009630709 0.0015318065 0.22823699 0.10213248 0.08634459 -0.19852507 -0.013176824 0.20093113
0.10764084 -0.10568926 -0.0795477 0.23893481 -0.23554668 -0.087214425 -0.07166671 -0.052499697
0.20051813 -0.07246416 -0.091861695 0.009346565 0.13358955 0.15939113 0.0111702215 0.15132259
0.27833745 -0.122222066 -0.28874627 -0.01971444 0.020605804 -0.23312934 -0.010669149 -0.0006478601
-0.048652455 0.124996245 0.069935344 -0.19337259 -0.09868107 -0.000943124 -0.1158445 0.16135912
0.12837882 0.15615088 0.02115158 -0.077401295 -0.032823194 -0.1217562 -0.3602785 0.11119309
-0.08376811 -0.06364771 0.097808704 0.24682121 0.06249119 0.08713785 0.10574458 0.02755804
-0.04872028 -0.048042607 0.03590955 0.12691714 -0.1341073 -0.11494253 0.21429318 -0.09416185
-0.0026078233 0.14154677 -0.06039439 0.017338544 -0.067284785 0.24467358 -0.15822409 -0.044304658
0.05496853 0.08351507 -0.051495105 0.04711042 0.049862634 0.07671017 -0.02700302 0.03339979
0.00498572 -0.13808967 -0.0671989 0.24805303 -0.16048361 -0.057043742 -0.092539676 -0.07039598
-0.12578283 0.17635518 -0.022536777 -0.10779506 -0.10519635 0.26881728 -0.10824917 -0.12762108
0.0071223327 0.026653925 -0.0032143139 0.18263425 -0.079550214 0.07370052 -0.07089982 -0.044921007
-0.043338947 -0.21949492 -0.010811035 -0.020748818 -0.013299908 0.08899532 0.12628108 -0.06178761
-0.023244275 0.033366185 0.20765722 -0.29465836 0.029200353 -0.22477263 0.03586184 0.057081014
0.04324438 -0.07013604 0.07205161 0.1916139 0.024111265 0.055590097 -0.27749333 0.05136918
0.06528377 -0.02623929 -0.059357442 0.15476742 -0.08316613 0.13233384 -0.2981018 0.25214568
-0.056343347 0.031687498 0.31462368 -0.04130683 0.08145544 -0.023328863 -0.12620823 -0.033234123
0.1751035 0.2588178 -0.07712505 0.1231508 -0.0945663 0.05388534 0.060157638 -0.016947597
0.2559294 -0.0033450453 -0.07574365 0.006654685 -0.073319264 0.03379476 0.033533383 0.10917968
-0.02887024 -0.016600491 0.071953245 0.021185616 -0.057335358 0.06109512 -0.20963413 0.14535072
-0.25876912 0.053223092 -0.11671744 0.11447405 0.27888772 -0.1320774 0.11534216 0.07835831
0.051845048 0.028015401 0.10119003 -0.01662762 0.0096620945 -0.011952636 0.09600276 0.07120848
-0.07726201 0.11463624 0.13694645 0.053106435 0.12052015 0.028573193 0.08343224 -0.1463774
-0.008422069 -0.16887298 0.19361769 -0.0721765 -0.07758423 -0.2416421 0.004363066 -0.28340343
00000000: fef1 04be 43ad 013d 3cb1 923b bc4d a03c
00000010: c1f7 54bd dd17 4a3a 46ca 2d3d 36d1 26be
00000020: 5ad7 9bbc adbe 4f3e 9556 61be 2a6d 18bd
00000030: 0414 c33d 5b21 6f3d 2d2e 0f3c 960e 12be
00000040: ed60 ef3d 3bb8 0ebd 7644 ab3d 944e 183e
00000050: 39b7 2a3e 57b7 98bc b1f9 a9bd d901 7d3d
00000060: af4a 343d a18d 973d 917b b03d 0307 c8bc
00000070: 7fbd 6bbb ad55 a83d acce 943d 0d6b f63d
00000080: 9102 bf3d d40b 2dbe a2f6 7f3c 690d 22bd
00000090: 8960 9e3d ffa2 c53d 5754 2bbe 48bf 44be
000000a0: 4da7 3fbd a171 21be 54b0 79be d316 203e
000000b0: 1f2e 0ebe 0e3a 7fbe cfba 643d 5f87 213c
000000c0: 2738 e7bc d2a7 ef3d cdad 273e 94e2 3c3e
000000d0: 07f7 aabd 82b3 0f3e d581 02be 45d2 5f3e
000000e0: 1fca 1d3c e6c6 c83a f5b6 693e d52a d13d
000000f0: 6fd5 b03d 284a 4bbe 9be3 57bc e4c0 4d3e
00000100: cd72 dc3d 9c73 d8bd e8e9 a2bd 54ab 743e
00000110: 2633 71be 7a9d b2bd ffc5 92bd ec09 57bd
00000120: a054 4d3e 1768 94bd fc21 bcbd 5622 193c
00000130: b3cb 083e 6e37 233e 4e03 373c 4ff4 1a3e
00000140: 3f82 8e3e 904f fabd 8dd6 93be 2d80 a1bc
00000150: 81cd a83c 75b9 6ebe a8cd 2ebc 28d5 29ba
00000160: cc47 47bd 08fe ff3d 433a 8f3d 7703 46be
00000170: 4d19 cabd fb3b 77ba e23f edbd 533b 253e
00000180: bd75 033e 04e6 1f3e 1446 ad3c 9284 9ebd
00000190: 9d71 06bd 515b f9bd 6c76 b8be 34b9 e33d
000001a0: 9d8e abbd bb59 82bd ee4f c83d b3be 7c3e
000001b0: c3f6 7f3d 5475 b23d 9d90 d83d 66c1 e13c
000001c0: eb8e 47bd 53c8 44bd e415 133d 91f6 013e
000001d0: 6d53 09be fd66 ebbd ac6f 5b3e eed7 c0bd
000001e0: 04e8 2abb a3f1 103e 1c60 77bd 9009 8e3c
000001f0: 9bcc 89bd b68b 7a3e 7f05 22be cd78 35bd
00000200: ae26 613d f309 ab3d 88ec 52bd dbf6 403d
00000210: c33c 4c3d 391a 9d3d 7035 ddbc 38ce 083d
00000220: 405f a33b 6167 0dbe 949f 89bd 9d01 7e3e
00000230: d155 24be b3a6 69bd 7185 bdbd c42b 90bd
00000240: 37cd 00be 7496 343e 0c9f b8bc a8c3 dcbd
00000250: 2f71 d7bd 6ba2 893e beb1 ddbd 1aaf 02be
00000260: 7562 e93b 5559 da3c 3da7 52bb 7904 3b3e
00000270: 39eb a2bd 4cf0 963d ed33 91bd 17ff 37bd
00000280: 2e84 31bd 47c3 60be c420 31bc 6df9 a9bc
00000290: dbe7 59bc 2e43 b63d d44f 013e 0115 7dbd
000002a0: c76a bebc fbaa 083d 18a4 543e 76dd 96be
000002b0: 9435 ef3c cc2a 66be dde3 123d c8cd 693d
000002c0: 0521 313d 7ca3 8fbd cb8f 933d 6f36 443e
000002d0: fd84 c53c 71b2 633d 9b13 8ebe 7d68 523d
000002e0: 7fb3 853d c8f3 d6bc ca20 73bd 5a7b 1e3e
000002f0: 0153 aabd 8682 073e cda0 98be 3d19 813e
00000300: 48c8 66bd c0ca 013d 5b16 a13e 5a31 29bd
00000310: 1cd2 a63d 2c1c bfbc bb3c 01be 8120 08bd
00000320: 554e 333e c483 843e bdf3 9dbd 7d36 fc3d
00000330: faab c1bd e0b6 5c3d db67 763d b0d5 8abc
00000340: 2e09 833e 8c38 5bbb 7d1f 9bbd 8b0f da3b
00000350: 6928 96bd 606c 0a3d 4d5a 093d 9999 df3d
00000360: 4881 ecbc c1fd 87bc 395c 933d 758d ad3c
00000370: 7bd8 6abd e03e 7a3d 54aa 56be d2d6 143e
00000380: 637d 84be 7500 5a3d 8e09 efbd 5f71 ea3d
00000390: 5fca 8e3e 4c3f 07be 8338 ec3d 527a a03d
000003a0: 795b 543d 8e80 e53c b83c cf3d a636 88bc
000003b0: c34d 1e3c fdd4 43bc 189d c43d c0d5 913d
000003c0: 8b3b 9ebd 68c6 ea3d b13b 0c3e 2286 593d
000003d0: 45d3 f63d 5412 ea3c 86de aa3d f5e3 15be
000003e0: b8fc 09bc 0aed 2cbe b743 463e 46d1 93bd
000003f0: 7be4 9ebd 0771 77be 0df8 8e3b 411a 91be

network_body._body_endoder.seq_layers.2.bias f4 [142]
-0.02663991 0.03215584 0.008667347 0.052849136 0.029774018 0.045333944 0.000322356 0.026756488
0.011105179 -0.002902038 0.047883786 0.0056460933 -0.016799659 0.042724784 0.013074966 0.024232004
-0.028842922 -0.021838188 -0.010942841 -0.029953066 -0.009471257 -0.0025683634 -0.0062283836 -0.019005071
0.020594215 0.0040468294 0.025497226 -0.0053211516 0.095957816 0.020085946 0.014900089 0.0060476903
0.026215635 -0.019484041 -0.0013712915 -0.029432988 -0.0061944155 -0.070718065 0.026017662 -0.0156003805
-0.03894652 0.031850215 0.0019370024 -0.040911574 -0.0107264435 0.021811496 0.046751104 0.006330861
0.0010619592 -0.0008360765 0.0046342635 0.030777406 0.070487484 -0.036536757 -0.033030674 -0.02267299
-0.021317232 -0.0005448658 -0.011166924 0.015305195 -0.014187204 -0.037656095 -0.013995751 0.025075467
-0.011390546 -0.023907093 0.066812545 0.07364521 -0.02284102 0.0017292603 -0.05939573 0.009688463
-0.006698726 -0.022340136 0.009909525 -0.05832747 -0.07909632 -0.12809905 0.010194606 -0.009588011
-0.003650407 0.023216102 -0.0058098575 0.024341423 0.03204891 -0.010703127 0.032210276 0.04014587
-0.0596938 0.00092716125 -0.011934684 0.040155128 0.06528503 -0.012026419 -0.003591151 -0.00645178
0.02177826 -0.06380169 0.009359627 -0.08623186 -0.017709162 -0.0193499 0.010357762 -0.040033042
-0.008738417 -0.015685854 0.005417056 0.017650327 -0.058663465 -0.026865803 0.048416812 -0.023895016
-0.04162819 0.023297057 0.017591234 -0.008538663 0.033055924 0.0023944667 -0.08336276 -0.0030834042
0.019808996 0.02933923 -0.040241085 0.011985957 -0.04950351 0.07264889 0.09686675 0.015027552
0.025604473 0.05198063 -0.07139513 -0.16721699 -0.065156914 0.051315956 -0.090878025 0.047994338
-0.01575068 0.06639222 -0.0015797161 0.085694365 0.02244383 0.013422369
00000000: f13b dabc d8b5 033d 7d01 0e3c 5678 583d
00000010: a4e8 f33c 16b0 393d e401 a939 6c30 db3c
00000020: 7ff2 353c 1e30 3ebb ca21 443d dd02 b93b
00000030: 709f 89bc 2f00 2f3d 6238 563c 3282 c63c
00000040: fe47 ecbc 00e6 b2bc 9a49 33bc 2260 f5bc
00000050: 552d 1bbc fd51 28bb 7817 ccbb 86b0 9bbc
00000060: 33b5 a83c 449b 843b 8fdf d03c 0e5d aebb
00000070: 8885 c43d 488b a43c 811f 743c b42b c63b
00000080: 2cc2 d63c ff9c 9fbc e8bc b3ba 731d f1bc
00000090: 86fa cabb a2d4 90bd fe22 d53c bd98 7fbc
000000a0: 6386 1fbd 5f75 023d 04e3 fd3a e592 27bd
000000b0: f7bd 2fbc 06ae b23c 167e 3f3d 1c73 cf3b
000000c0: 7031 8b3a 252c 5bba 05db 973b e620 fc3c
000000d0: be5b 903d 91a7 15bd 2c4b 07bd b5bc b9bc
000000e0: 7aa1 aebc 53d5 0eba 79f5 36bc a4c2 7a3c
000000f0: 7271 68bc 473d 1abd 6f4e 65bc 116b cd3c
00000100: 6a9f 3abc cfd8 c3bc 04d5 883d 4dd3 963d
00000110: 171d bbbc 59a8 e23a f048 73bd 5cbc 1e3c
00000120: fd80 dbbb a902 b7bc 8f5b 223c c9e8 6ebd
00000130: 40fd a1bd 662c 03be 4707 273c 0817 1dbc
00000140: ab3b 6fbb b22f be3c 9e60 bebb aa67 c73c
00000150: b845 033d 2b5c 2fbc ecee 033d ff6f 243d
00000160: 7c81 74bd bd0c 733a b189 43bc b479 243d
00000170: 28b4 853d 750a 45bc 8459 6bbb 7469 d3bb
00000180: 5268 b23c 76aa 82bd 1f59 193c 549a b0bd
00000190: ce12 91bc ae83 9ebc 9ab3 293c b0f9 23bd
000001a0: 942b 0fbc 9f7f 80bc 8f81 b13b 6b97 903c
000001b0: 1a49 70bd ac15 dcbc b550 463d 7bbf c3bc
000001c0: 5282 2abd 78d9 be3c 7e1b 903c c0e5 0bbc
000001d0: a665 073d 7cec 1c3b 18ba aabd f012 4abb
000001e0: 7a46 a23c d358 f03c d6d3 24bd bf60 443c
000001f0: 31c4 4abd f1c8 943d 1362 c63d 1f36 763c
00000200: 79c0 d13c a4e9 543d 9c37 92bd ee3a 2bbe
00000210: fd70 85bd ae30 523d 421e babd b695 443d
00000220: 9207 81bc a5f8 873d 7a0e cfba 8780 af3d
00000230: 1fdc b73c 7fe9 5b3c

action_model._discrete_distribution.branches.0.weight f4 [8, 142]
0.113870054 0.05971079 0.02344276 -0.043447036 -0.07939584 0.106794454 0.056446455 -0.17975004
0.035695333 0.049352653 -0.07337899 0.088314846 -0.0497671 -0.1316667 0.08814781 -0.093634665
0.048983954 -0.058753394 -0.032669015 -0.10072401 0.059106294 -0.018826462 0.026983658 -0.041530494
0.121852644 -0.04706858 0.010531539 -0.043401744 -0.067198016 -0.030010695 0.03559513 -0.105841994
0.029365227 -0.07313049 0.027673937 0.10184219 0.016565682 -0.029590061 0.025002565 0.09955892
-0.014992934 -0.0591893 -0.027440881 -0.15833536 -0.09565827 -0.04309548 0.022307921 -0.06497068
0.006805276 0.05322356 -0.017520208 0.08922151 -0.12749623 0.0039855903 -0.08315365 0.0055703768
0.015915051 -0.025472114 -0.011569252 0.12994912 -0.062262222 -0.03150188 0.014467435 -0.07092251
0.050051976 -0.10176857 -0.006931016 -0.065978564 0.025975082 0.19474629 0.04614189 0.0038390844
-0.026525948 -0.044879545 -0.008655672 -0.06440422 0.088863656 0.04353372 0.06203737 -0.07239688
-0.15429981 -0.041059893 -0.020409465 0.047412027 -0.018709928 0.0063588778 0.064736396 0.06616301
-0.041673936 0.008078085 -0.026423493 -0.07854952 0.0026714937 0.029208051 0.0072180824 0.09292094
-0.050906863 -0.05923988 -0.03715834 -0.01526303 -0.03174801 0.09882408 0.0050716945 -0.02712406
0.014318416 -0.009651015 0.006596776 -0.08665273 -0.043067794 -0.003807427 0.011148516 0.07425141
0.017574308 0.025523124 -0.023656493 -0.050177105 0.06393042 -0.06926355 -0.06930144 -0.01073752
-0.08273155 -0.019389095 0.048077665 0.066466406 -0.069335476 0.028572503 -0.012805253 0.07868528
-0.05645846 -0.06694003 -0.12245377 -0.034994286 -0.03488336 -0.03784593 0.010404155 0.023965351
0.0193678 0.026252607 0.011207695 -0.13927193 -0.07281812 0.043957394 0.086448394 0.0049099238
0.15931581 -0.02544617 -0.03253315 0.14857991 0.11450485 -0.104019955 -0.086135566 0.080961354
0.12600781 -0.021752536 -0.07499012 -0.21420333 0.0076867314 -0.14342341 0.20942278 0.063752465
-0.06287191 0.056095023 0.09303046 0.019258931 0.025666872 0.13945147 0.0031351822 -0.09422476
0.064033695 0.029142646 0.10679923 -0.022334773 0.046375025 -0.02900519 -0.08930045 0.060146637
-0.034717526 0.13569412 -0.003460814 0.024077447 -0.12124303 0.1003535 0.1269171 0.09171567
-0.055045366 -0.061728913 -0.0034981791 -0.063111044 0.0055318237 -0.095640294 -0.1377378 8.825438e-06
0.104978636 0.07910333 -0.02992944 -0.033696182 0.07966289 0.111455806 0.08914166 -0.051415764
-0.1786659 -0.06112993 0.023117673 -0.05535565 0.13224134 0.093475886 -0.042264007 -0.06672173
0.0052219187 0.036872555 0.124128915 -0.03408786 0.064249024 0.085375875 -0.080924824 -0.10274476
0.15479125 -0.03132917 0.11719812 -0.03907323 0.0028586756 0.043667052 -0.13547678 0.09048794
0.04104466 0.09167189 0.024215842 -0.004041733 0.037722502 0.01596189 0.04240349 0.09521711
-0.06909072 0.20408869 -0.044654764 0.13072133 -0.029714298 -0.021092597 -0.1501745 -0.018286984
-0.017512718 0.041703105 0.042972934 -0.06372808 0.03102257 0.14883333 0.057246633 0.12327982
-0.025047801 -0.043101832 0.073034704 -0.032187194 0.1575897 0.00934851 0.08620111 0.021835271
00000000: b434 e93d 4d93 743d 080b c03c 85f5 31bd
00000010: 499a a2bd 0db7 da3d 6634 673d 6510 38be
00000020: 4535 123d 0226 4a3d b947 96bd 6ade b43d
00000030: 96d8 4bbd a3d3 06be d786 b43d 88c3 bfbd
00000040: 66a3 483d 66a7 70bd f2cf 05bd 6448 cebd
00000050: 7119 723d f439 9abc d50c dd3c e11b 2abd
00000060: e18d f93d fcca 40bd 7a8c 2c3c 07c6 31bd
00000070: 1d9f 89bd fdd8 f5bc 33cc 113d b0c3 d8bd
00000080: 588f f03c 70c5 95bd 74b4 e23c a392 d03d
00000090: c1b4 873c db66 f2bc 2ed2 cc3c 8ce5 cb3d
000000a0: eca4 75bc 7b70 72bd b3cb e0bc aa22 22be
000000b0: 7ce8 c3bd e384 30bd 1abf b63c 590f 85bd
000000c0: cbfe de3b f300 5a3d 8a86 8fbc c4b9 b63d
000000d0: 5f8e 02be 8e99 823b 764c aabd b587 b63b
000000e0: 4860 823c e5aa d0bc f68c 3dbc 6211 053e
000000f0: ac06 7fbd 1e08 01bd d208 6d3c d23f 91bd
00000100: 4d03 4d3d 0a6c d0bd 941d e3bb c51f 87bd
00000110: b2c9 d43c 926b 473e 47ff 3c3d 2699 7b3b
00000120: f24c d9bc 9dd3 37bd 85d0 0dbc 5ce6 83bd
00000130: 26fe b53d 6a50 323d e61a 7e3d d144 94bd
00000140: c500 1ebe 6b2e 28bd c031 a7bc 1d33 423d
00000150: 9045 99bc 225e d03b 8494 843d 7980 873d
00000160: 4ab2 2abd f259 043c 1576 d8bc 92de a0bd
00000170: 3a14 2f3b b945 ef3c aa85 ec3b 554d be3d
00000180: b783 50bd 84a5 72bd 5833 18bd ca11 7abc
00000190: 340a 02bd 4764 ca3d 7530 a63b 4733 debc
000001a0: ca97 6a3c 4a1f 1ebc c529 d83b fd76 b1bd
000001b0: db67 30bd 0686 79bb 44a8 363c 2011 983d
000001c0: fff7 8f3c df15 d13c 43cb c1bc 8286 4dbd
000001d0: f4ed 823d 0cda 8dbd eaed 8dbd 6cec 2fbc
000001e0: 296f a9bd e1d5 9ebc 16ed 443d 8a1f 883d
000001f0: c2ff 8dbd e210 ea3c 20cd 51bc c025 a13d
00000200: fc40 67bd db17 89bd 0bc9 fabd 2b56 0fbd
00000210: dbe1 0ebd 5504 1bbd 3076 2a3c fc52 c43c
00000220: 38a9 9e3c b50f d73c 7ba0 373c 4d9d 0ebe
00000230: ab21 95bd ab0c 343d db0b b13d 6de3 a03b
00000240: af23 233e 7c74 d0bc 7b41 05bd 5525 183e
00000250: 8581 ea3d 6a08 d5bd d867 b0bd 11cf a53d
00000260: 3108 013e 6032 b2bc 6c94 99bd 1e58 5bbe
00000270: fae0 fb3b 96dd 12be ed72 563e a790 823d
00000280: fdc2 80bd e5c3 653d c186 be3d e8c4 9d3c
00000290: 5543 d23c 5ecc 0e3e a177 4d3b e9f8 c0bd
000002a0: 1924 833d 8fbc ee3c 8eb9 da3d 6af7 b6bc
000002b0: bdf3 3d3d 4b9c edbc 28e3 b6bd 525c 763d
000002c0: f733 0ebd 66f3 0a3e d3ce 62bb 113e c53c
000002d0: 444e f8bd 2386 cd3d 8ef6 013e 6dd5 bb3d
000002e0: 4077 61bd 75d7 7cbd b541 65bb 5d40 81bd
000002f0: 4d44 b53b 0fdf c3bd 230b 0dbe f810 1437
00000300: 0aff d63d ed00 a23d 962e f5bc 0205 0abd
00000310: 4c26 a33d f142 e43d e78f b63d 5699 52bd
00000320: 32f4 36be 6163 7abd 4661 bd3c 9bbc 62bd
00000330: 466a 073e 4970 bf3d 061d 2dbd 67a5 88bd
00000340: a11c ab3b ad07 173d 4d37 fe3d b69f 0bbd
00000350: fe94 833d 8cd9 ae3d eabb a5bd d86b d2bd
00000360: 9981 1e3e 0453 00bd 9105 f03d 400b 20bd
00000370: 9e58 3b3b 39dc 323d 6dba 0abe be51 b93d
00000380: 721e 283d 79be bb3d 4d60 c63c 8470 84bb
00000390: e982 1a3d 82c2 823c 48af 2d3d 3001 c33d
000003a0: 6f7f 8dbd a0fc 503e eae7 36bd d0db 053e
000003b0: 666b f3bc 62ca acbc 58c7 19be 96ce 95bc
000003c0: d576 8fbc e0d0 2a3d 6304 303d de83 82bd
000003d0: 0b23 fe3c c467 183e 727b 6a3d 217a fc3d
000003e0: 0c31 cdbc 8c8b 30bd 3893 953d b8d6 03bd
000003f0: 325f 213e 7e2a 193c 358a b03d e2df b23c

action_model._discrete_distribution.branches.0.bias f4 [8]
0.0025785158 0.054619465 0.007913361 0.0048523666 0.024082273 0.0047584134 0.08229757 0.04706231
00000000: 51fc 283b a9b8 5f3d 0ba7 013c 9a00 9f3b
00000010: 3048 c53c 77ec 9b3b a18b a83d 69c4 403d

action_model._discrete_distribution.branches.1.weight f4 [8, 142]
-0.03436073 0.14051566 0.068219155 -0.011467482 0.08524767 -0.05588275 0.084805064 -0.1467897
-0.014986843 0.0007766899 -0.04419832 0.1838423 0.033487298 0.025924282 -0.07205987 -0.013659061
0.03969439 0.034433324 0.022258203 0.10717576 0.12111437 0.041339517 0.04867403 0.12840381
-0.0014124385 0.029333998 0.004131045 -0.007013445 0.033086207 -0.024873616 0.010586036 -0.10809239
-0.029814364 -0.0033335255 -0.14374682 -0.030117307 0.054527603 -0.0061692973 -0.09035451 0.004542516
-0.19526139 0.09084312 -0.14282951 -0.062278133 -0.06659468 0.1369882 -0.050034598 0.21957077
0.03015575 0.01593362 0.030629504 -0.019920165 -0.03521625 -0.037390888 -0.049636323 -0.0992635
-0.06952216 0.14717498 0.019301137 -0.026652645 -0.004946166 -0.06812191 0.056524947 -0.13061579
0.16257747 -0.0940442 0.019325504 -0.051804468 -0.048448343 -0.054020427 0.105436996 -0.0322585
0.058263093 0.03582156 0.06203506 -0.1461338 0.08008029 0.1567325 -0.027126143 -0.06608653
-0.008482948 0.043813255 0.056413483 0.17935328 0.048969578 0.094459996 0.14287087 -0.07369563
0.12705 0.01952587 -0.034258388 -0.006934634 -0.042426456 0.01619052 -0.039401274 -0.0754303
0.055633478 -0.101407066 0.082639545 -0.042764198 0.06595375 -0.08711582 0.09769189 0.008046392
3.1157007e-05 -0.0003122737 -0.044569355 0.112774685 0.058674846 0.059667137 -0.21000846 0.019997854
-0.04054016 0.049655665 -0.036598336 -0.17406806 0.10534233 0.11198556 0.034251682 -0.04682225
0.23546952 -0.0060102465 0.03505557 0.18033767 -0.11380264 -0.12337352 0.12662329 0.01492242
-0.022764238 -0.021944296 -0.0036972458 0.16775928 -0.04450694 0.00016439872 0.06313255 -0.06311726
-0.018596284 0.118969895 0.03555634 0.18305653 0.026933493 -0.107845224 -0.033640184 -0.027681919
0.019670215 0.02558045 0.14381361 0.033767857 0.0574009 -0.016381267 -0.08102658 -0.10811357
-0.056065645 -0.038737167 -0.027594998 -0.06378008 0.18018343 0.007469412 0.066362195 0.11420528
-0.04935895 -0.047380604 0.0056409277 0.24592137 -0.16856013 0.02533675 0.17818989 0.029732252
-0.07172948 0.06627112 -0.08420623 -0.056650907 0.09815199 -0.058485076 7.558801e-05 0.0058088237
-0.07775459 0.009240473 0.14462501 0.04714438 -0.029988369 0.061749253 -0.07855781 -0.04152861
0.093063265 0.05555339 0.13778105 -0.05030605 0.023555124 -0.011214718 -0.0034645065 0.09842915
-0.0066417833 0.09944618 -0.12590559 0.1203466 -0.019736389 0.0026334221 0.12877284 -0.044112995
-0.106304236 0.018838922 0.022008073 -0.034990948 -0.02988938 -0.02984153 -0.09400036 -0.1374582
0.03030769 -0.02696458 -0.011104592 0.14329432 -0.06057773 0.04443991 0.0631643 -0.06693381
-0.12780502 -0.009916687 -0.04991355 -0.03136542 0.117849484 0.0899619 -0.015925128 -0.034118112
-0.0943365 0.04800969 0.025883006 0.034648605 -0.035918005 0.11067377 0.047888737 -0.018361254
0.0020468514 -0.0017034714 -0.08984348 0.08019426 -0.09113496 0.1705356 -0.10103463 0.0011624781
-0.009540056 0.03837242 0.048972607 0.020963727 0.003106709 0.051448382 0.02783814 -0.0011903138
-0.09220884 -0.0334862 -0.06388196 0.020340424 0.039876968 -0.13296525 0.11051261 0.008145511
00000000: d6bd 0cbd 56e3 0f3e 7cb6 8b3d 1be2 3bbc
00000010: 5596 ae3d 4fe5 64bd 47ae ad3d 0a50 16be
00000020: 608b 75bc c79a 4b3a 4c09 35bd 2841 3c3e
00000030: fa29 093d 295f d43c 2094 93bd 41ca 5fbc
00000040: 9696 223d f509 0d3d d656 b63c f77e db3d
00000050: d00a f83d a053 293d 6b5e 473d 4a7c 033e
00000060: 9221 b9ba da4d f03c b85d 873b 0ad1 e5bb
00000070: 6785 073d c1c3 cbbc 0e71 2d3c 8b5f ddbd
00000080: 413d f4bc 4777 5abb 5e32 13be 92b8 f6bc
00000090: 5658 5f3d d127 cabb c90b b9bd 63d9 943b
000000a0: 9af2 47be f50b ba3d e641 12be 5b17 7fbd
000000b0: cb62 88bd a246 0c3e 14f1 4cbd 29d7 603e
000000c0: 3109 f73c 3987 823c baea fa3c 9d2f a3bc
000000d0: ea3e 10bd 3027 19bd 754f 4bbd a94a cbbd
000000e0: a261 8ebd 0ab5 163e 6b1d 9e3c a656 dabc
000000f0: 7313 a2bb 8083 8bbd b486 673d 25c0 05be
00000100: b57a 263e 3f9a c0bd 8550 9e3c ec30 54bd
00000110: c571 46bd 8644 5dbd 5aef d73d 7d21 04bd
00000120: 48a5 6e3d a1b9 123d 7a18 7e3d 19a4 15be
00000130: 2301 a43d 7c7e 203e a537 debc 6058 87bd
00000140: 10fc 0abc 8775 333d d311 673d 63a8 373e
00000150: 5394 483d 3e74 c13d be4c 123e bced 96bd
00000160: 6519 023e b8f4 9f3c 8652 0cbd ed3b e3bb
00000170: 5dc7 2dbd fba1 843c 3b63 21bd 337b 9abd
00000180: eedf 633d 82ae cfbd ec3e a93d 8329 2fbd
00000190: c212 873d c769 b2bd b012 c83d 04d5 033c
000001a0: 95ae 0238 abb8 a3b9 5b8e 36bd 6af6 e63d
000001b0: 0955 703d 8765 743d 750c 57be 8ad2 a33c
000001c0: 700d 26bd bd63 4b3d 23e8 15bd e63e 32be
000001d0: b8bd d73d af58 e53d 7e4b 0c3d b0c8 3fbd
000001e0: ec1e 713e 9af1 c4bb 6e96 0f3d 70aa 383e
000001f0: 5c11 e9bd 42ab fcbd 89a9 013e 2a7d 743c
00000200: 117c babc 86c4 b3bc 7e4d 72bb 17c9 2b3e
00000210: e94c 36bd 7262 2c39 a34b 813d 9f43 81bd
00000220: 3c57 98bc 7da6 f33d 86a3 113d 2c73 3b3e
00000230: a1a3 dc3c f5dd dcbd 4aca 09bd 31c5 e2bc
00000240: 6e23 a13c 188e d13c e043 133e 2a50 0a3d
00000250: 351d 6b3d 0232 86bc 43f1 a5bd a66a ddbd
00000260: 17a5 65bd ddaa 1ebd e80e e2bc 219f 82bd
00000270: 0182 383e f8c1 f43b e7e8 873d 75e4 e93d
00000280: 9c2c 4abd 2a12 42bd 88d7 b83b d0d2 7b3e
00000290: 079b 2cbe 048f cf3c 6977 363e 0d91 f33c
000002a0: e8e6 92bd 27b9 873d 5174 acbd c80a 68bd
000002b0: e903 c93d 0c8e 6fbd 0185 9e38 f257 be3b
000002c0: cc3d 9fbd 5a65 173c 9418 143e 771a 413d
000002d0: 2baa f5bc c9ec 7c3d ebe2 a0bd e719 2abd
000002e0: f497 be3d f48b 633d 7a16 0d3e b70d 4ebd
000002f0: adf6 c03c f0bd 37bc c60c 63bb 3995 c93d
00000300: 51a3 d9bb 70aa cb3d 65ed 00be 4778 f63d
00000310: 35ae a1bc 7e95 2c3b 07dd 033e d4af 34bd
00000320: 09b6 d9bd 1554 9a3c 464a b43c ab52 0fbd
00000330: 93da f4bc 3976 f4bc 4383 c0bd d8c1 0cbe
00000340: d547 f83c d3e4 dcbc 09f0 35bc bfbb 123e
00000350: 5b20 78bd a006 363d 495c 813d 9814 89bd
00000360: 52df 02be 9a79 22bc 2772 4cbd 0779 00bd
00000370: 125b f13d f23d b83d 6a75 82bc 6fbf 0bbd
00000380: 7f33 c1bd cfa5 443d 9908 d43c b2eb 0d3d
00000390: c21e 13bd eea8 e23d fb26 443d 576a 96bc
000003a0: 7824 063b 0447 dfba dcff b7bd e33c a43d
000003b0: f7a4 babd e2a0 2e3e 3eeb cebd 4b5e 983a
000003c0: e54d 1cbc 662c 1d3d 8097 483d 1fbc ab3c
000003d0: ee99 4b3b 8abb 523d d00c e43c 4e04 9cba
000003e0: fdd7 bcbd d328 09bd 8cd4 82bd f6a0 a63c
000003f0: 0856 233d 0b28 08be 6f54 e23d c074 053c

action_model._discrete_distribution.branches.1.bias f4 [8]
0.06359649 -0.023064662 0.0871151 0.025057664 -0.00787752 0.06792193 0.0591162 -0.06311107
00000000: e03e 823d 1af2 bcbc 6769 b23d bb45 cd3c
00000010: b710 01bc a71a 8b3d d423 723d 6040 81bd

action_model._discrete_distribution.branches.2.weight f4 [8, 142]
0.18188006 0.08438084 0.03567256 0.021834172 0.0332601 -0.071854934 0.0357186 0.084815554
0.13957557 0.15781526 0.13677508 0.07375461 0.048015542 0.077741444 -0.06529993 -0.012337303
0.13957117 -0.0073273634 0.1408704 0.021150455 0.052589986 -0.17962469 0.16885923 -0.031200567
-0.029056314 0.22871114 0.04787948 -0.14876048 -0.07327362 0.178331 -0.003046206 0.07011851
0.052091032 0.07178859 0.13030614 0.04279783 0.07191404 0.0076269214 0.035194937 0.022736115
0.14571837 0.2140881 0.06183956 0.0995994 0.12279704 0.11566967 0.11351554 0.101264395
0.082307465 0.041946936 -0.01687745 0.015595879 0.20651528 0.0020935405 -0.017123241 -0.10885206
0.04985446 -0.04033205 0.13757317 0.1531446 0.12889582 0.21249755 0.0832828 -0.029902717
0.038289603 -0.05719906 0.055548787 0.09181983 -0.03883112 -0.032146595 -0.005614439 -0.057927456
0.1415896 0.07685027 0.044805504 0.0960226 0.09661169 0.09512086 0.10290982 -0.07725527
0.02379485 -0.20822638 -0.067023054 0.044370882 -0.03372 0.062155377 -0.007998671 -0.10379893
0.08245117 -0.07877455 0.110905685 -0.057813503 0.13859928 0.054479018 0.11669408 -0.04372204
-0.031102117 0.06001316 -0.026917582 -0.03392815 0.19123253 0.17098378 0.091348454 -0.12565756
0.0070159943 0.077791885 0.01157733 -0.04728736 0.08068321 0.09543054 0.085422225 0.17994055
0.10087142 0.028394772 0.23153737 0.16891356 0.051977374 0.071878165 0.19219805 0.11706329
0.06944963 0.10186348 0.054112844 0.08747223 0.1370118 -0.0005242832 -0.062650666 0.11866137
0.041654486 -0.046458896 0.09053469 0.025794148 0.07661846 0.08581036 0.145268 -0.007861034
0.18961585 0.14660735 0.09315246 0.043663718 0.011096305 0.02466305 0.068538025 -0.026727054
0.040595196 -0.19885874 -0.0786469 -0.17524204 -0.056288317 0.07714968 0.016837552 0.022672687
0.24112289 0.16989447 0.030734338 -0.0049435464 0.10800612 -0.11245122 -0.013616907 0.030480357
-0.090773255 0.08020433 0.15264432 -0.039566576 -0.11302471 0.030748956 -0.07643882 -0.04004214
0.025128841 0.027691621 0.1903572 -0.016678283 -0.082495175 -0.14277206 -0.043828834 0.17692353
-0.1440634 0.18698668 0.11924172 -0.02454436 -0.049368266 0.052886005 -0.049573056 -0.07104709
0.1374495 -0.04011233 -0.095276915 -0.041144427 -0.06665026 -0.068751924 -0.10158717 0.001436771
0.07216239 0.011267802 0.08441658 0.1872777 0.1710061 0.11992335 -0.0050346833 0.027307132
-0.18993077 0.021849725 -0.13955693 0.013137912 0.024395036 -0.11362972 0.009151348 0.104180075
0.026810596 -0.018113257 -0.12115846 -0.04323813 -0.06054503 0.18840511 -0.062359195 -0.024712455
0.10197698 -0.12134151 0.1389025 0.087482005 -0.066251874 0.16760989 -0.15698376 0.13386208
0.10123663 0.0201794 0.025150886 0.09067776 0.04366917 -0.011585335 0.039919615 0.13057533
0.04232211 0.047406845 0.10061396 -0.034195654 0.062015735 0.059998892 -0.08233102 -0.13767487
-0.025824057 -0.0010326118 -0.06440256 -0.09613511 0.010908013 0.14852022 -0.0069585657 -0.029067814
0.02419946 0.048393067 0.034566704 -0.09111723 -0.23181175 -0.02367028 0.072097465 0.003227123
00000000: c43e 3a3e ddcf ac3d 641d 123d 94dd b23c
00000010: be3b 083d ae28 93bd ab4d 123d c7b3 ad3d
00000020: e6ec 0e3e 539a 213e c40e 0c3e a80c 973d
00000030: f2ab 443d e836 9f3d f8bb 85bd 6622 4abc
00000040: bfeb 0e3e 611a f0bb 5540 103e b843 ad3c
00000050: 9968 573d 89ef 37be 6fe9 2c3e 5598 ffbc
00000060: 8207 eebc 4133 6a3e 461d 443d ab54 18be
00000070: 7b10 96bd 679c 363e dba2 47bb 4b9a 8f3d
00000080: 685d 553d e505 933d f96e 053e c74c 2f3d
00000090: ab47 933d 41eb f93b 9128 103d 1741 ba3c
000000a0: 3237 153e e939 5b3e 7a4b 7d3d c5fa cb3d
000000b0: 047d fb3d 38e4 ec3d d67a e83d b563 cf3d
000000c0: d190 a83d 8dd0 2b3d 9442 8abc dc85 7f3c
000000d0: be78 533e c833 093b 0a46 8cbc d4ed debd
000000e0: 3134 4c3d 3833 25bd fbdf 0c3e f0d1 1c3e
000000f0: 44fd 033e f598 593e 2c90 aa3d 8bf6 f4bc
00000100: 8fd5 1c3d 9049 6abd 2087 633d 090c bc3d
00000110: 610d 1fbd 26ac 03bd 54f9 b7bb 5745 6dbd
00000120: ddfc 103e ad63 9d3d fa85 373d 7fa7 c43d
00000130: 5adc c53d bace c23d 62c2 d23d 0338 9ebd
00000140: 6bed c23c 4c39 55be 6243 89bd 3ebe 353d
00000150: fc1d 0abd a396 7e3d dc0c 03bc 8994 d4bd
00000160: 29dc a83d 8d54 a1bd 8522 e33d dacd 6cbd
00000170: f8ec 0d3e 6425 5f3d 4efd ee3d e215 33bd
00000180: dec9 febc 5cd0 753d 4382 dcbc 3ef8 0abd
00000190: 76d2 433e 5f16 2f3e e614 bb3d 60ac 00be
000001a0: 6de6 e53b 5a51 9f3d d7ae 3d3c 64b0 41bd
000001b0: 3d3d a53d 1671 c33d d9f1 ae3d 5642 383e
000001c0: ad95 ce3d 279c e83c 2218 6d3e adf7 2c3e
000001d0: 3ae6 543d dc34 933d 91cf 443e e1be ef3d
000001e0: 9c3b 8e3d cd9d d03d 6ea5 5d3d a424 b33d
000001f0: d24c 0c3e 0d70 09ba fe4e 80bd bb04 f33d
00000200: e59d 2a3d af4b 3ebd 406a b93d 404e d33c
00000210: 24ea 9c3d 58bd af3d 22c1 143e 91cb 00bc
00000220: a82a 423e 3d20 163e b8c6 be3d bad8 323d
00000230: 47cd 353c 2a0a ca3c aa5d 8c3d b2f2 dabc
00000240: 2647 263d a0a1 4bbe a011 a1bd a672 33be
00000250: 948e 66bd a700 9e3d e8ee 893c 12bc b93c
00000260: ebe8 763e d1f8 2d3e 94c6 fb3c 79fd a1bb
00000270: 5032 dd3d d34c e6bd 7319 5fbc f1b1 f93c
00000280: 54e7 b9bd 2b42 a43d cb4e 1c3e 9010 22bd
00000290: 8079 e7bd 3ce5 fb3c f58b 9cbd 3a03 24bd
000002a0: 00db cd3c 8ad9 e23c ffec 423e e5a0 88bc
000002b0: 3bf3 a8bd d732 12be dd85 33bd 712b 353e
000002c0: 5b85 13be 7079 3f3e 0135 f43d 4111 c9bc
000002d0: 6136 4abd ff9e 583d 1e0d 4bbd 2381 91bd
000002e0: 90bf 0c3e d44c 24bd 8b20 c3bd 0f87 28bd
000002f0: ee7f 88bd cfcd 8cbd ef0c d0bd 0952 bc3a
00000300: e0c9 933d 969c 383c 9ae2 ac3d bac5 3f3e
00000310: 391c 2f3e 609a f53d fcf9 a4bb 35b3 df3c
00000320: 367d 42be 32fe b23c 03e8 0ebe 6640 573c
00000330: 19d8 c73c b3b6 e8bd 89ef 153c 5d5c d53d
00000340: e5a1 db3c 4162 94bc ed21 f8bd 771a 31bd
00000350: 11fe 77bd 45ed 403e 5b6c 7fbd c671 cabc
00000360: 4fd9 d03d e681 f8bd 753c 0e3e c429 b33d
00000370: 10af 87bd eda1 2b3e 5ac0 20be 2413 093e
00000380: 2655 cf3d 454f a53c 3b09 ce3c 43b5 b93d
00000390: 72de 323d 6bd0 3dbc c082 233d 8ab5 053e
000003a0: f359 2d3d ae2d 423d b10e ce3d be10 0cbd
000003b0: 3604 7e3d 66c1 753d 2a9d a8bd a4fa 0cbe
000003c0: f98c d3bc b458 87ba 7de5 83bd 7ce2 c4bd
000003d0: 86b7 323c af15 183e ae04 e4bb a01f eebc
000003e0: f23d c63c cf37 463d d195 0d3d ac9b babd
000003f0: 0f60 6dbe 2de8 c1bc d6a7 933d 247e 533b

action_model._discrete_distribution.branches.2.bias f4 [8]
-0.05114503 0.07303221 0.0027003894 0.040233944 0.082239695 0.053524267 -0.005486755 0.041526128
00000000: 737d 51bd e991 953d 04f9 303b 59cc 243d
00000010: 496d a83d 433c 5b3d 3dca b3bb 4d17 2a3d

action_model._discrete_distribution.branches.3.weight f4 [8, 142]
-0.1323121 0.005708182 0.021457002 -0.21679226 -0.06838929 0.15260616 -0.047442432 0.08786011
-0.20787185 -0.07757375 -0.047122713 0.03183065 0.09901913 -0.059677657 -0.023082303 -0.12689662
0.041508183 0.0137115335 -0.14037815 -0.069582954 -0.01730572 0.07551607 -0.14340863 0.09352075
0.0070590293 -0.10660623 -0.13225868 -0.06383745 0.037688844 -0.07017375 -0.010250834 0.023937907
-0.052974567 0.08323208 -0.08794058 -0.07863671 -0.025364418 0.14436273 0.04462163 0.06886535
-0.06289486 -0.023946607 0.08161032 0.0024059922 0.11484966 -0.19749825 -0.06854963 -0.058186445
0.12670025 0.05695472 0.002719095 0.01158955 0.021274386 -0.028255992 0.0056334087 0.07305379
0.059866294 0.03240966 0.00092863926 -0.06810909 0.03891093 -0.03181228 0.1922078 0.069989726
-0.10218975 -0.068088666 0.084430754 -0.012527813 0.08303313 0.006580761 -0.051028494 0.08193063
-0.011661683 -0.03355791 -0.05197592 0.047682337 0.04698343 0.08469439 -0.051676452 0.050206587
0.04551939 0.012238227 0.14367007 0.02119258 0.091151014 -0.009602482 -0.01778795 0.035834573
0.14136775 0.09883961 -0.08211137 0.13883136 -0.07061867 -0.10941393 0.07355689 0.017220898
-0.019163745 0.05943819 -0.013191039 0.041916456 -0.1917722 -0.06347068 -0.024543516 -0.035430435
-0.044289634 -0.074079975 -0.06972497 0.0030957493 -0.016234618 -0.04507113 0.16107814 -0.0040114843
0.005372824 -0.054012187 -0.08463737 -0.030062145 0.10721556 -0.09433351 -0.024379022 0.031845246
0.11521872 0.009599059 0.15934446 0.0074086785 -0.05805678 0.11110793 0.07585378 -0.053080734
0.013863406 0.10970618 -0.0022279874 0.005711894 -0.00024684094 -0.11667464 -0.020486154 0.020953178
-0.046963442 0.088855416 -0.25293165 -0.042488728 -0.04766872 -0.040427227 0.05958094 0.040601686
-0.042129375 0.1444416 0.20098071 0.12067468 0.019241657 0.025864556 0.050879695 0.037883136
0.022292824 -0.0750194 0.06952136 0.26573867 -0.10088336 -0.04963288 -0.017344804 -0.06204774
0.040360507 -0.070136145 0.00980718 0.019845856 0.058640346 0.003332816 -0.026263852 0.084121846
0.06631559 0.0150906565 0.14895567 0.14757225 0.01222694 0.023497669 0.05277541 -0.043692052
0.16108115 -0.2130435 -0.020589191 0.03070749 0.26956716 -0.061786167 0.09697579 -0.08581803
-0.033575386 0.23224379 -0.05057468 -0.033900045 0.112249754 0.03933299 0.01837201 -0.12323412
-0.1420354 -0.026818814 0.11840272 0.00980751 0.07084202 0.04338426 0.14711067 -0.021363487
0.0020875381 -0.013275157 -0.010540965 0.02852478 0.08122917 0.14210153 -0.10340386 0.02425987
0.11407541 0.03812245 0.08701682 -0.08427413 0.007047761 0.15124188 0.18225415 0.18539442
0.14794452 0.06702182 -0.09574439 0.03223995 0.09932383 -0.07349106 0.1048682 0.100824825
-0.06790741 -0.16556077 0.10959893 -0.13289112 0.019318026 0.047470387 0.037649613 0.11119051
0.101402886 -0.034511153 -0.081789255 0.010532823 0.006329551 0.06307748 0.03546327 -0.054065604
-0.02703542 0.07119825 -0.058074106 0.012564637 0.15967654 0.0054317205 0.012855835 -0.14816117
0.06652255 0.009635136 -0.06760081 0.06320511 0.010800928 0.043857794 -0.12655129 -0.13849722
00000000: d37c 07be b40b bb3b 98c6 af3c cafe 5dbe
00000010: af0f 8cbd ca44 1c3e ff52 42bd 00f0 b33d
00000020: 5cdc 54be fcde 9ebd bf03 41bd db60 023d
00000030: 8bca ca3d 8f70 74bd 1917 bdbc 30f1 01be
00000040: 7c04 2a3d 57a6 603c 4abf 0fbe 8281 8ebd
00000050: bac4 8dbc 2ba8 9a3d b6d9 12be cf87 bf3d
00000060: 6e4f e73b 5e54 dabd d26e 07be 36bd 82bd
00000070: 9e5f 1a3d 41b7 8fbd 1df3 27bc 6e19 c43c
00000080: dcfb 58bd 9575 aa3d 311a b4bd 490c a1bd
00000090: 0ac9 cfbc d3d3 133e 2cc5 363d 4709 8d3d
000000a0: 05cf 80bd ad2b c4bc 5023 a73d daad 1d3b
000000b0: 4c36 eb3d fb3c 4abe c063 8cbd e954 6ebd
000000c0: b6bd 013e 5a49 693d d832 323b 19e2 3d3c
000000d0: 9f47 ae3c 1c79 e7bc 7598 b83b 3a9d 953d
000000e0: 5c36 753d febf 043d ed6f 733a c77c 8bbd
000000f0: 1161 1f3d 984d 02bd 1fd2 443e c656 8f3d
00000100: dc48 d1bd 1272 8bbd 08ea ac3d 7541 4dbc
00000110: 460d aa3d 6da3 d73b 4103 51bd 3fcb a73d
00000120: a510 3fbc 0574 09bd b4e4 54bd 8e4e 433d
00000130: b271 403d 4174 ad3d b0aa 53bd 6ca5 4d3d
00000140: 8a72 3a3d d882 483c 3f1e 133e 109c ad3c
00000150: 62ad ba3d bb53 1dbc 09b8 91bc 46c7 123d
00000160: b5c2 103e 6c6c ca3d 022a a8bd cf29 0e3e
00000170: 85a0 90bd 6914 e0bd ffa4 963d d712 8d3c
00000180: 49fd 9cbc 7675 733d 3a1f 58bc 97b0 2b3d
00000190: ee5f 44be eafc 81bd 7c0f c9bc 811f 11bd
000001a0: 0c69 35bd 3eb7 97bd f7cb 8ebd 0ee2 4a3b
000001b0: 76fe 84bc 819c 38bd abf1 243e c572 83bb
000001c0: 840e b03b e23b 5dbd 5c56 adbd e344 f6bc
000001d0: d593 db3d ed31 c1bd 84b6 c7bc 2970 023d
000001e0: cbf7 eb3d 5f45 1d3c 322b 233e 80c4 f23b
000001f0: f2cc 6dbd 8e8c e33d 3a59 9b3d 2f6b 59bd
00000200: 5723 633c a2ad e03d 6d03 12bb d72a bb3b
00000210: 6e6a 81b9 1df3 eebd 94d2 a7bc 00a6 ab3c
00000220: bd5c 40bd d4f9 b53d 4280 81be a908 2ebd
00000230: 4740 43bd 0597 25bd 250b 743d f44d 263d
00000240: da8f 2cbd 80e8 133e e3cd 4d3e 4924 f73d
00000250: aea0 9d3c e8e1 d33c 3a67 503d 592b 1b3d
00000260: 719f b63c c5a3 99bd 3761 8e3d e60e 883e
00000270: ef9b cebd d94b 4bbd b116 8ebc c525 7ebd
00000280: 0f51 253d 8aa3 8fbd 4bae 203c c793 a23c
00000290: dc30 703d 606b 5a3b 4a27 d7bc 1348 ac3d
000002a0: 78d0 873d cd3e 773c d687 183e 2e1d 173e
000002b0: 8153 483c 2f7e c03c 072b 583d 70f6 32bd
000002c0: 75f2 243e 1328 5abe aaaa a8bc 468e fb3c
000002d0: b504 8a3e 7e13 7dbd 3e9b c63d 5dc1 afbd
000002e0: 5886 09bd 51d1 6d3e 6527 4fbd c6da 0abd
000002f0: 33e3 e53d a11b 213d e680 963c 2c62 fcbd
00000300: ba71 11be 21b3 dbbc 207d f23d aeaf 203c
00000310: 9f15 913d b2b3 313d 2ea4 163e 7b02 afbc
00000320: 14cf 083b 0b80 59bc 03b4 2cbc cdac e93c
00000330: 7b5b a63d 1083 113e 67c5 d3bd a3bc c63c
00000340: 5ea0 e93d 4926 1c3d e035 b23d ea97 acbd
00000350: e8f0 e63b 27df 1a3e d5a0 3a3e 09d8 3d3e
00000360: c57e 173e bc42 893d a215 c4bd 0a0e 043d
00000370: 4b6a cb3d 7b82 96bd 24c5 d63d 3f7d ce3d
00000380: 0a13 8bbd c388 29be 6775 e03d 9c14 08be
00000390: d640 9e3c 4f70 423d 7b36 1a3d dab7 e33d
000003a0: 51ac cf3d 915b 0dbd 2081 a7bd dd91 2c3c
000003b0: 1f68 cf3b c42e 813d ef41 113d e573 5dbd
000003c0: 6379 ddbc 63d0 913d 1ddf 6dbd e8db 4d3c
000003d0: 3f82 233e 93fc b13b 48a1 523c 90b7 17be
000003e0: fa3c 883d b1dc 1d3c 4b72 8abd ae71 813d
000003f0: 60f6 303c 3ba4 333d a996 01be 37d2 0dbe

action_model._discrete_distribution.branches.3.bias f4 [8]
0.036836624 0.02873142 0.046209034 0.045564655 0.024718922 -0.06092461 0.07147257 0.04460292
00000000: 00e2 163d 285e eb3c af45 3d3d 01a2 3a3d
00000010: 567f ca3c 158c 79bd 3660 923d 8db1 363d
