results/NewTwoAgentsFullBoardActionKeepAfterFail/WhiteMLAgent/WhiteMLAgent-13687.onnx (onnx, 681198 bytes, 133 tensors)

discrete_act_size_vector f4 [1, 64]
13.0 13.0 13.0 13.0 13.0 13.0 13.0 13.0
13.0 13.0 13.0 13.0 13.0 13.0 13.0 13.0
13.0 13.0 13.0 13.0 13.0 13.0 13.0 13.0
13.0 13.0 13.0 13.0 13.0 13.0 13.0 13.0
13.0 13.0 13.0 13.0 13.0 13.0 13.0 13.0
13.0 13.0 13.0 13.0 13.0 13.0 13.0 13.0
13.0 13.0 13.0 13.0 13.0 13.0 13.0 13.0
13.0 13.0 13.0 13.0 13.0 13.0 13.0 13.0
00000000: 0000 5041 0000 5041 0000 5041 0000 5041
00000010: 0000 5041 0000 5041 0000 5041 0000 5041
00000020: 0000 5041 0000 5041 0000 5041 0000 5041
00000030: 0000 5041 0000 5041 0000 5041 0000 5041
00000040: 0000 5041 0000 5041 0000 5041 0000 5041
00000050: 0000 5041 0000 5041 0000 5041 0000 5041
00000060: 0000 5041 0000 5041 0000 5041 0000 5041
00000070: 0000 5041 0000 5041 0000 5041 0000 5041
00000080: 0000 5041 0000 5041 0000 5041 0000 5041
00000090: 0000 5041 0000 5041 0000 5041 0000 5041
000000a0: 0000 5041 0000 5041 0000 5041 0000 5041
000000b0: 0000 5041 0000 5041 0000 5041 0000 5041
000000c0: 0000 5041 0000 5041 0000 5041 0000 5041
000000d0: 0000 5041 0000 5041 0000 5041 0000 5041
000000e0: 0000 5041 0000 5041 0000 5041 0000 5041
000000f0: 0000 5041 0000 5041 0000 5041 0000 5041

network_body._body_endoder.seq_layers.0.weight f4 [142, 71]
-0.06149773 -0.24239472 -0.20728725 0.0026184807 0.05010946 0.039726462 -0.095604494 -0.08785362
0.1751282 -0.008232626 -0.11093887 0.12891932 -0.028264537 0.21294115 0.0005709779 -0.01991181
-0.075432554 -0.07695572 -0.016763208 -0.039512392 -0.005174594 -0.025468076 0.008771641 0.12374623
0.03863137 -0.11963071 0.20045754 -0.059985187 -0.06842201 0.02492857 -0.1289411 0.059010692
0.032226063 -0.14441815 0.1710866 0.04139666 -0.010256582 -0.00089564984 -0.16086735 0.07294596
-0.14227204 0.07383849 0.07455645 -0.012565354 0.14203933 0.19138151 -0.012704873 0.13812815
0.061199334 -0.02030921 -0.300648 -0.042516124 0.080497906 0.018697102 0.09192092 -0.08101242
0.16909355 0.0036678156 0.08167483 0.022115333 0.0016908313 0.12769726 -0.1054479 0.26149014
-0.01365628 0.17920545 0.10638335 0.107489884 0.058898762 0.0035599074 0.043734584 0.06649151
0.048956916 -0.15781096 -0.107352056 -0.009510041 0.17264153 0.07070389 0.02519946 -0.15949574
0.0700235 -0.06608117 -0.20468076 0.17833902 0.01186703 0.22303863 -0.100307465 0.05374367
0.03211563 -0.008546701 -0.029354945 0.061632767 0.23438874 -0.07454175 -0.10554109 0.11870346
-0.11149333 -0.05082348 -0.2581055 0.08859053 0.03541311 -0.10217045 0.06987259 -0.056614883
-0.08643242 0.04990303 -0.031446 -0.11413212 0.082628615 0.056584742 -0.10859241 0.09368253
0.069312975 -0.0192469 0.093557656 -0.27551952 0.090299256 0.013276451 0.11810343 0.007350721
0.17296313 0.16361956 0.018273998 -0.2212657 -0.17577477 0.0816683 0.107764855 -0.102302805
-0.08844996 -0.21062285 -0.124716714 -0.086424276 0.18752745 -0.02397855 0.036580637 -0.007845856
-0.026594553 -0.11063638 -0.06468013 0.10222522 0.15858042 0.31041062 0.047412366 0.18135224
0.054398302 -0.041121256 -0.11960948 0.008675285 0.0044514295 0.16161668 -0.11557099 0.21798237
-0.19121467 0.0622236 0.0721246 -0.18339652 -0.25809276 0.19480525 -0.14870147 0.18981662
0.23506194 -0.09654957 0.18292768 -0.020413233 -0.028761132 0.0019291114 0.03263262 -0.16612159
0.0040108515 -0.14059907 0.041852593 0.17258881 0.01523311 -0.07491304 -0.11086864 0.062000483
-0.08899872 0.14693539 -0.053426646 -0.0484155 -0.09970279 0.015713094 -0.003387487 0.23739901
0.16531968 -0.01760192 -0.075355306 -0.059999056 0.09313718 0.060930546 -0.113471314 0.20296818
0.08198593 -0.43435133 0.13190296 -0.1416676 -0.13068162 0.06497018 -0.07674707 0.06518874
-0.013884916 0.1335252 -0.15086597 0.07246176 -0.11265861 -0.023837997 -0.039538283 0.23672064
0.07892807 0.24086298 -0.4038281 -0.0311186 -0.18683848 -0.15581657 0.011091869 0.115732305
-0.15609576 -0.05734667 -0.2860944 -0.09099977 -0.18022327 0.0795944 0.022035066 -0.07554288
-0.033227455 -0.0010912111 -0.14294776 0.09326804 -0.01861327 0.04515915 -0.03353353 0.17895928
-0.021906149 -0.19261199 0.09286973 0.07369567 -0.23244968 0.054511774 0.08840195 -0.15342788
-0.06307155 0.130812 -0.002466397 0.16449253 -0.09295342 -0.0059147826 0.05501256 0.24966036
0.14294218 0.05407967 0.025424847 0.008738823 -0.047024306 -0.037945747 -0.30382785 -0.17784853
00000000: 0be5 7bbd 5236 78be 1c43 54be d19a 2b3b
00000010: 943f 4d3d 37b8 223d 4acc c3bd 99ec b3bd
00000020: cf54 333e 23e2 06bc eb33 e3bd 6d03 043e
00000030: 088b e7bc 3f0d 5a3e aead 153a 181e a3bc
00000040: 627c 9abd f69a 9dbd ff52 89bc bfd7 21bd
00000050: a48f a9bb 6da2 d0bc eeb6 0f3c aa6e fd3d
00000060: ed3b 1e3d f200 f5bd be44 4d3e 07b3 75bd
00000070: d720 8cbd 0037 cc3c 2309 04be 32b5 713d
00000080: 7aff 033d 5ae2 13be 5331 2f3e 8b8f 293d
00000090: 390b 28bc 0bca 6aba 69ba 24be b164 953d
000000a0: c3af 11be a238 973d 0db1 983d eade 4dbc
000000b0: c272 113e 84f9 433e 1a28 50bc 7771 0d3e
000000c0: 27ac 7a3d 805f a6bc 89ee 99be 6325 2ebd
000000d0: 16dc a43d aa2a 993c 0941 bc3d d7e9 a5bd
000000e0: dc26 2d3e bc5f 703b 2245 a73d 372b b53c
000000f0: e29e dd3a 12c3 023e 12f5 d7bd 09e2 853e
00000100: 97be 5fbc a281 373e 84df d93d a823 dc3d
00000110: d43f 713d 564d 693b 0923 333d b32c 883d
00000120: 0c87 483d 3299 21be 65db dbbd 01d0 1bbc
00000130: f1c8 303e 33cd 903d 196f ce3c da52 23be
00000140: 7b68 8f3d 9155 87bd d597 51be 819e 363e
00000150: ee6d 423c 3d64 643e 006e cdbd 5322 5c3d
00000160: ae8b 033d 7607 0cbc c879 f0bc a472 7c3d
00000170: 9a03 703e 58a9 98bd ed25 d8bd cd1a f33d
00000180: 9d56 e4bd 482c 50bd 6726 84be f46e b53d
00000190: 560d 113d be3e d1bd 5c19 8f3d 02e5 67bd
000001a0: 7b03 b1bd 1f67 4c3d 85cd 00bd 1abe e9bd
000001b0: 3139 a93d 67c5 673d b365 debd a0dc bf3d
000001c0: f6f3 8d3d adab 9dbc 289b bf3d e510 8dbe
000001d0: d1ee b83d 7985 593c 36e0 f13d 51de f03b
000001e0: 3f1d 313e e38b 273e 5ab3 953c 7a93 62be
000001f0: 4dfe 33be b641 a73d d2b3 dc3d 2284 d1bd
00000200: 4125 b5bd 84ad 57be 7a6b ffbd 36ff b0bd
00000210: 3207 403e aa6e c4bc 94d5 153d e88b 00bc
00000220: d2dc d9bc 5495 e2bd 0477 84bd 755b d13d
00000230: e862 223e 24ee 9e3e 7833 423d 67b4 393e
00000240: c1d0 5e3d c36e 28bd d1f5 f4bd c822 0e3c
00000250: 4cdd 913b d87e 253e 7cb0 ecbd c536 5f3e
00000260: c7cd 43be 2cde 7e3d 10b6 933d 4ccc 3bbe
00000270: bc24 84be 077b 473e 3345 18be 4a5f 423e
00000280: 14b4 703e c8bb c5bd 6551 3b3e a739 a7bc
00000290: 779c ebbc 3dda fc3a c8a9 053d c71b 2abe
000002a0: 766d 833b 34f9 0fbe a06d 2b3d 1fbb 303e
000002b0: 4b94 793c 026c 99bd 190f e3bd 38f4 7d3d
000002c0: f644 b6bd 3b76 163e e6d5 5abd 554f 46bd
000002d0: fa30 ccbd bfb8 803c 9a00 5ebb ba18 733e
000002e0: 9049 293e e731 90bc e253 9abd 92c1 75bd
000002f0: b5be be3d 4f92 793d a663 e8bd e4d6 4f3e
00000300: 3de8 a73d 4c63 debe 9211 073e 5011 11be
00000310: 67d1 05be 160f 853d 912d 9dbd ad81 853d
00000320: 8f7d 63bc d4ba 083e 9c7c 1abe d566 943d
00000330: 8fb9 e6bd e747 c3bc e5f2 21bd e566 723e
00000340: 0aa5 a13d c9a4 763e 8fc2 cebe 6fec febc
00000350: 9652 3fbe 618e 1fbe acba 353c 0f05 ed3d
00000360: 91d7 1fbe 58e4 6abd f77a 92be 165e babd
00000370: 738c 38be 6402 a33d e282 b43c 3ab6 9abd
00000380: 8319 08bd f806 8fba e660 12be 5003 bf3d
00000390: db7a 98bc cdf8 383d 745a 09bd 1a41 373e
000003a0: 8674 b3bc 143c 45be 7c32 be3d c1ed 963d
000003b0: 4a07 6ebe bd47 5f3d 150c b53d 331c 1dbe
000003c0: a82b 81bd 95f3 053e 46a3 21bb bb70 283e
000003d0: 5d5e bebd cbd0 c1bb da54 613d f7a6 7f3e
000003e0: 6f5f 123e a582 5d3d c547 d03c 482d 0f3c
000003f0: 8f9c 40bd 006d 1bbd 538f 9bbe ed1d 36be

network_body._body_endoder.seq_layers.0.bias f4 [142]
-0.011015534 -0.0008897748 0.015255662 0.005439596 -0.0136027 0.028694727 -0.010171904 -0.0036538737
-0.018307818 0.028425174 -0.011595312 0.0032696286 -0.0068201 -0.014890773 0.0011263866 0.0050358
0.013969052 0.0043228287 0.020009218 0.002431565 -0.0041449373 -0.017357405 0.006623895 0.010326868
0.0054881456 0.001302119 0.007960903 -3.8469923e-05 0.0027021775 -0.0068890736 0.0013755219 -0.0001364323
-0.013555795 -0.0020448552 -0.007326229 -0.007440853 0.010257831 0.008496954 -0.013449872 -0.0041830814
-0.0027050928 -0.00020765765 -0.026203299 -0.014034952 0.033896435 -0.0063758767 0.008260207 -0.0092644375
-0.013209522 0.0036637646 -0.0005532661 -0.011984124 -0.010657932 0.006097368 -0.009850503 -0.010918595
-0.0054961946 -0.0010483772 -0.021984298 0.006306855 -0.0062463125 0.0010845913 0.013351777 0.005558739
-0.019673761 -0.012046433 -0.007867571 0.0021733532 0.009952872 -0.009833523 -0.0016030157 -0.0062757377
-0.0062099886 0.0027270126 -0.0010345036 -0.009458319 0.013531369 -0.011661592 0.002244782 -0.006655659
-0.010447937 -0.00011739495 -0.017710991 0.0058304006 -0.011147 0.011956987 0.0019066456 -0.009856166
-0.0031321987 0.0015277836 -0.00075503153 -0.014037784 0.017251274 -0.0126565145 -0.021568818 -0.01675792
-0.024416542 0.0027580801 -0.011048646 -0.013880357 -0.0071915197 -0.0063898484 0.007854207 -0.007774166
-0.004203782 0.014063045 -0.0016803857 0.012679689 -0.017323783 -0.006180126 -0.016838603 0.003821225
0.009881596 -0.013005832 -0.008677496 0.009676432 0.0014195321 -0.0070870956 -0.020647695 0.00443538
-0.0044937152 0.016163142 0.0022777622 0.0037899187 -0.0024679007 0.011970254 -0.013706101 0.0022637753
-0.0079651605 0.016542535 -0.0004357198 0.0017551202 0.002188013 0.006376918 -0.0014653312 -0.01566482
0.0029266255 -0.021157999 -0.011384233 0.01714381 -0.0091437055 0.008993433
00000000: 807a 34bc c73f 69ba e2f2 793c a33e b23b
00000010: dcdd 5ebc 3411 eb3c 0fa8 26bc d475 6fbb
00000020: 47fa 95bc e9db e83c 43fa 3dbc 4447 563b
00000030: 257b dfbb 6ef8 73bc 43a3 933a 5a03 a53b
00000040: 73de 643c 84a6 8d3b 5fea a33c e45a 1f3b
00000050: 41d2 87bb 1e31 8ebc 420d d93b 0632 293c
00000060: e7d5 b33b ddab aa3a 736e 023c c45a 21b8
00000070: 0417 313b bdbd e1bb db4a b43a 440f 0fb9
00000080: 2019 5ebc fa02 06bb dd10 f0bb 66d2 f3bb
00000090: 7610 283c cf36 0b3c da5c 5cbc 3b12 89bb
000000a0: ed47 31bb adbe 59b9 4da8 d6bc dbf2 65bc
000000b0: fdd6 0a3d bbec d0bb d255 073c dec9 17bc
000000c0: c06c 58bc c51b 703b 0f09 11ba 0f59 44bc
000000d0: 9b9e 2ebc 6ecc c73b 0164 21bc e8e3 32bc
000000e0: 6c19 b4bb b469 89ba 6a18 b4bc bca9 ce3b
000000f0: dead ccbb d828 8e3a 69c1 5a3c 1526 b63b
00000100: de2a a1bc 675e 45bc fce6 00bc d16e 0e3b
00000110: 5f11 233c c91c 21bc 481c d2ba b4a4 cdbb
00000120: 297d cbbb aeb7 323b 2e98 87ba 11f7 1abc
00000130: adb2 5d3c 4310 3fbc 311d 133b b717 dabb
00000140: d32d 2bbc ef31 f6b8 a416 91bc f20c bf3b
00000150: e8a1 36bc 3de7 433c 69e8 f93a c27b 21bc
00000160: 9345 4dbb e93f c83a 4fed 45ba bcfe 65bc
00000170: 8b52 8d3c 455d 4fbc 17b1 b0bc e847 89bc
00000180: 3305 c8bc e8c0 343b 6105 35bc 706a 63bc
00000190: d7a6 ebbb ef61 d1bb efae 003c 6ebe febb
000001a0: e1bf 89bb b068 663c 6340 dcba 78be 4f3c
000001b0: 9bea 8dbc a882 cabb 1cf1 89bc 846d 7a3b
000001c0: 6be6 213c 6a16 55bc 0e2c 0ebc e689 1e3c
000001d0: 980f ba3a de3a e8bb 5b25 a9bc aa56 913b
000001e0: 0440 93bb 9168 843c 8246 153b 4960 783b
000001f0: 81bc 21bb e21e 443c 8e8f 60bc d95b 143b
00000200: 4e80 02bc 3684 873c 5271 e4b9 100c e63a
00000210: c464 0f3b 77f5 d03b 5b10 c0ba 8253 80bc
00000220: a1cc 3f3b 8a53 adbc ef84 3abc 2d71 8c3c
00000230: 7bcf 15bc 3159 133c

network_body._body_endoder.seq_layers.2.weight f4 [142, 142]
-0.08613627 -0.09627785 -0.14561433 0.17024003 -0.13355058 -0.0330307 -0.0038753871 -0.06534748
-0.039795488 -0.009299028 0.015654309 0.118797146 -0.10991926 0.015298494 0.019208506 -0.015632097
0.09000268 0.0235954 0.039836954 0.07426386 0.15359625 -0.13193917 0.0019198259 -0.0720891
0.12560935 0.1473864 -0.031148659 0.056155782 0.06462966 0.027747907 0.07291702 0.034262776
0.022355495 0.18953511 -0.06863484 -0.003763934 -0.067525 0.091699824 0.06092042 -0.03424977
-0.073804505 0.14281362 0.020932311 -0.12570581 -0.045567654 -0.20591867 -0.14018224 0.16747166
0.00062176865 -0.0016780648 0.08174127 0.029812599 -0.08163041 0.11015502 0.034865268 -0.06837639
0.0025188632 0.059275717 0.027581885 -0.07110471 -0.13489538 0.010781344 0.15772945 0.03315297
-0.03826041 0.022864137 -0.032404527 0.085826725 -0.06997301 0.014295027 -0.017893037 -0.06784729
0.064691745 0.020824622 0.06783858 0.07304742 0.006100645 -0.043321095 -0.06816132 -0.041392915
0.0043439325 -0.2300953 0.06520411 0.010557233 -0.09788894 0.039609075 -0.02530681 0.10123291
0.05792112 0.09313584 -0.0043295855 -0.027399559 0.06388345 -0.020512788 -0.03400882 0.0394316
-0.072768554 -0.025617002 -0.023455113 0.08933272 -0.01326423 -0.012272108 0.013138346 0.08763853
0.087666854 -0.007573415 0.02814403 -0.16098852 0.018128445 0.18199164 0.19212529 0.07326545
-0.05900729 -0.094252944 -0.0070652203 0.046296664 0.05774673 -0.024252966 -0.025658261 0.0408543
-0.043131772 -0.010199932 0.060737632 -0.046943616 -0.021061959 0.121909104 0.08009231 -0.12487549
-0.10516468 0.09813078 0.035077184 0.05431846 0.11567523 -0.03248971 0.10377383 0.047572825
-0.20228381 0.048503835 -0.09391973 0.016186124 -0.05973674 -0.074900985 0.07910768 -0.09087341
-0.053995825 -0.09315083 0.12837178 -0.09274047 -0.26986805 -0.11877188 0.0781637 0.007444905
0.0074355775 0.04734824 0.008918294 0.13386561 -0.06592886 -0.04682926 -0.0030883239 0.069425695
0.02151795 -0.03310181 -0.10067921 -0.013110286 0.022684596 -0.07064932 0.089909896 -0.01310547
-0.008404209 -0.023353908 0.05516903 0.059456334 -0.0124461455 -0.09137715 0.01717354 -0.12186133
0.0087151285 0.19766475 -0.03654556 0.00092974096 -0.0071889753 0.056823492 -0.12928355 -0.042087
-0.07487375 -0.08940838 0.11482086 0.03201899 -0.14485353 0.08499205 -0.16627455 0.008114283
0.12262418 -0.016163386 0.039445933 0.10463435 -0.034029264 0.122418895 -0.046341516 0.08049751
-0.020516105 -0.041936673 0.13335645 0.027624426 0.10012182 0.11232641 -0.21610256 0.08251076
-0.069867045 0.15041147 0.0438684 0.060435127 -0.029875098 0.010423339 -0.074439965 -0.035839573
-0.029830292 0.10502026 -0.030953482 -0.03177364 -0.09003992 0.14713217 -0.007678527 -0.0049136714
0.14571552 -0.13572451 -0.04658958 0.023883762 0.037155565 -0.0069779768 -0.04756582 0.01556047
0.1396538 0.17742784 -0.049948238 0.048441872 0.075086564 0.13855343 0.13742645 0.017133085
-0.16064604 -0.057065602 0.08684963 -0.07468797 0.05499679 0.08679602 0.008641248 -0.030108187
0.001417876 -0.07416863 0.012616414 0.15627028 -0.0330249 -0.020071307 0.024978662 0.14207561
00000000: 3668 b0bd 522d c5bd ec1b 15be 6753 2e3e
00000010: 7cc1 08be 334b 07bd 35fa 7dbb e6d4 85bd
00000020: 9800 23bd f35a 18bc 773d 803c eb4b f33d
00000030: 591d e1bd 89a6 7a3c 285b 9d3c e20e 80bc
00000040: 5353 b83d 244b c13c 132c 233d a717 983d
00000050: 5648 1d3e 101b 07be aba2 fb3a 73a3 93bd
00000060: bd9f 003e 76ec 163e 792b ffbc 9b03 663d
00000070: 8e5c 843d 944f e33c 8555 953d 2057 0c3d
00000080: df22 b73c 7e15 423e 6c90 8cbd 55ac 76bb
00000090: 8c4a 8abd 1ecd bb3d b187 793d 7d49 0cbd
000000a0: d126 97bd bc3d 123e 3d7a ab3c 06b9 00be
000000b0: 26a5 3abd 58dc 52be ef8b 0fbe b17d 2b3e
000000c0: 30fe 223a 83f2 dbba f867 a73d 8d39 f43c
000000d0: d82d a7bd f598 e13d e2ce 0e3d ec08 8cbd
000000e0: 8313 253b 18cb 723d 68f3 e13c 599f 91bd
000000f0: 0422 0abe 3ca4 303c d483 213e 69cb 073d
00000100: f3b6 1cbd 924d bb3c 9cba 04bd ecc5 af3d
00000110: 024e 8fbd b035 6a3c 6b94 92bc 85f3 8abd
00000120: 1b7d 843d 6698 aa3c f4ee 8a3d e399 953d
00000130: ebe7 c73b 7671 31bd 2a98 8bbd 9e8b 29bd
00000140: 8c57 8e3b 1a9e 6bbe bc89 853d 3ff8 2c3c
00000150: ff79 c8bd 203d 223d 3a50 cfbc 3353 cf3d
00000160: b23e 6d3d 01be be3d 32df 8dbb 0a75 e0bc
00000170: 54d5 823d 6f0a a8bc d54c 0bbd 0883 213d
00000180: ae07 95bd bfda d1bc f024 c0bc 13f4 b63d
00000190: 3752 59bc f410 49bc 3842 573c d47b b33d
000001a0: ae8a b33d 692a f8bb 4f8e e63c 2dda 24be
000001b0: 1b82 943c 045c 3a3e 7ebc 443e 320c 963d
000001c0: a1b1 71bd b007 c1bd 5d83 e7bb 92a1 3d3d
000001d0: d687 6c3d 28ae c6bc 4631 d2bc d756 273d
000001e0: f1aa 30bd 9e1d 27bc 06c8 783d f347 40bd
000001f0: 218a acbc 7bab f93d 7007 a43d b9be ffbd
00000200: 9460 d7bd caf8 c83d 18ad 0f3d 097d 5e3d
00000210: 23e7 ec3d ee13 05bd 6087 d43d b9db 423d
00000220: 7d23 4fbe f5ab 463d fd58 c0bd c398 843c
00000230: 83ae 74bd b065 99bd 3503 a23d d71b babd
00000240: ba2a 5dbd ddc5 bebd e473 033e b7ee bdbd
00000250: 252c 8abe ac3e f3bd 4a14 a03d 64f4 f33b
00000260: 25a6 f33b 3af0 413d 091e 123c 1114 093e
00000270: b605 87bd 0ad0 3fbd 7a65 4abb 0f2f 8e3d
00000280: 6946 b03c c395 07bd e730 cebd 86cc 56bc
00000290: 0cd5 b93c 97b0 90bd ae22 b83d 53b8 56bc
000002a0: cfb1 09bc b250 bfbc ecf8 613d 7c88 733d
000002b0: ebea 4bbc f123 bbbd 86af 8c3c 6f92 f9bd
000002c0: e6c9 0e3c a168 4a3e ccb0 15bd dcb9 733a
000002d0: 7f91 ebbb c0bf 683d e862 04be 6b63 2cbd
000002e0: 6957 99bd be1b b7bd 3327 eb3d 5826 033d
000002f0: 7c54 14be 5010 ae3d e043 2abe c5f1 043c
00000300: 6322 fb3d 1469 84bc 0f92 213d 894a d63d
00000310: 4562 0bbd c2b6 fa3d 9ad0 3dbd e1db a43d
00000320: 6411 a8bc cac5 2bbd 988e 083e 9f4c e23c
00000330: ab0c cd3d 640b e63d fd49 5dbe 67fb a83d
00000340: 7416 8fbd 7705 1a3e 5aaf 333d d38a 773d
00000350: 9fbc f4bc a7c6 2a3c fb73 98bd 84cc 12bd
00000360: a85e f4bc dd14 d73d 2892 fdbc 1425 02bd
00000370: d966 b8bd d1a9 163e 279c fbbb dd02 a1bb
00000380: 7336 153e 5efb 0abe b7d4 3ebd e1a7 c33c
00000390: 6f30 183d 83a7 e4bb 61d4 42bd 57f1 7e3c
000003a0: 6801 0f3e a5af 353e 8696 4cbd fc6a 463d
000003b0: fcc6 993d f3e0 0d3e 85b9 0c3e af5a 8c3c
000003c0: 6580 24be 9fbd 69bd 38de b13d 02f6 98bd
000003d0: 5044 613d 1dc2 b13d 0594 0d3c 72a5 f6bc
000003e0: 06d8 b93a b9e5 97bd 13b5 4e3c 5105 203e
000003f0: 1e45 07bd 956c a4bc 0da0 cc3c 457c 113e

network_body._body_endoder.seq_layers.2.bias f4 [142]
0.0028418137 0.0026616596 0.0026831562 -0.009892206 0.0072756545 -0.006157985 -0.0009135085 0.03772297
-0.017893253 0.02472691 -0.004308283 -0.0010365925 0.013722622 0.009245055 -0.0018852212 -0.0069785714
0.009784503 0.019794198 0.0051483423 -0.0006158501 0.005428217 0.007715907 0.009375737 0.001398356
-0.0025672868 -0.011262594 -0.0026544766 -0.021593109 0.0043864935 -0.003107582 0.01856401 -0.01386405
-0.006511725 0.02847437 0.027200874 -0.0023131678 -0.016843723 0.004851328 0.017629648 0.0055181743
0.004169858 -0.0008080325 -0.00202742 0.012590544 -0.004577939 0.031218633 0.013244126 0.0097659975
0.0016983581 -0.010055762 0.023024658 -0.021354081 0.00370592 0.00853685 0.0067798826 0.00872734
-0.0040658144 0.015771657 -0.0077240053 -0.001094676 4.1884312e-05 0.014459887 0.01361975 0.013601614
0.0014136118 0.00602882 -0.0073003164 0.006752089 0.025270725 -0.00031944556 -0.007015517 0.0046370206
0.015645292 -0.0013628926 -0.0015618542 0.017844573 0.0067901416 0.0014892011 -0.005313456 0.004260907
-0.002382784 -0.0059874645 -0.0012281779 -0.015294803 0.0034138612 0.0006396028 0.030168949 0.014866401
-0.01845374 0.0057779164 0.01743697 0.012322959 0.008259904 0.010521168 0.0024128992 -0.005203001
-0.0027231677 -0.016690765 -0.0026801256 0.016113022 0.0072577214 0.02104249 0.0038011621 0.0011843637
0.028132314 0.008783853 0.0050216685 0.014523152 0.010605013 -0.008253652 0.014216373 0.0021077732
0.014806351 -0.0128146075 -0.0017653037 -0.026437031 0.01478859 0.006396995 0.006057778 -0.005006751
0.012275904 0.0034564766 0.010508704 0.00918085 -0.022425437 -9.0075184e-05 0.020308439 0.009319971
-0.0013282405 -0.004249303 -0.0056979847 -0.0010643923 -0.011924909 0.009245715 -0.01730429 -0.005421239
0.011173515 -0.007551588 0.02037874 -0.0052900584 -0.0072764168 0.017767845
00000000: b93d 3a3b 3d6f 2e3b e4d7 2f3b eb12 22bc
00000010: 9d68 ee3b ecc8 c9bb 8578 6fba 6783 1a3d
00000020: df94 92bc 1790 ca3c 7f2c 8dbb 46de 87ba
00000030: d9d4 603c 9278 173c 8719 f7ba 80ac e4bb
00000040: 2e4f 203c 7127 a23c 6db3 a83b 0071 21ba
00000050: 2fdf b13b b8d5 fc3b b19c 193c 0b49 b73a
00000060: ed3f 28bb be86 38bc baf6 2dbb 08e4 b0bc
00000070: 93bc 8f3b 93a8 4bbb 8d13 983c 0a26 63bc
00000080: 4f60 d5bb 1543 e93c 5ed4 de3c 8498 17bb
00000090: d9fb 89bc e4f7 9e3b 0d6c 903c cdd1 b43b
000000a0: 4ea3 883b 25d2 53ba 77de 04bb 9248 4e3c
000000b0: 8902 96bb 38be ff3c e4fd 583c 9001 203c
000000c0: 719b de3a ecc0 24bc 359e bc3c c1ee aebc
000000d0: 05df 723b 25de 0b3c c729 de3b 1efd 0e3c
000000e0: 863a 85bb 9033 813c a719 fdbb 3b7b 8fba
000000f0: f0ac 2f38 29e9 6c3c 5f25 5f3c 4ed9 5e3c
00000100: f148 b93a 688d c53b 7e37 efbb a140 dd3b
00000110: 8d04 cf3c 427b a7b9 6ce2 e5bb 26f2 973b
00000120: 8e2a 803c 16a3 b2ba 21b7 ccba c82e 923c
00000130: d67f de3b 4c31 c33a 801c aebb 149f 8b3b
00000140: 7b28 1cbb 7e32 c4bb d0fa a0ba 0e97 7abc
00000150: 16bb 5f3b 04ab 273a df24 f73c 3592 733c
00000160: 4c2c 97bc ad54 bd3b fad7 8e3c 3ce6 493c
00000170: 8c54 073c fa60 2c3c bb21 1e3b f07d aabb
00000180: 2c77 32bb 12bb 88bc 0ca5 2fbb 75ff 833c
00000190: 2ed2 ed3b 4d61 ac3c eb1c 793b a73c 9b3a
000001a0: bd75 e63c 26ea 0f3c cf8c a43b 84f2 6d3c
000001b0: a6c0 2d3c 533a 07bc caeb 683c 9122 0a3b
000001c0: 5696 723c 5cf4 51bc c361 e7ba 7992 d8bc
000001d0: d84b 723c e29d d13b 5380 c63b ac0f a4bb
000001e0: e020 493c 0e86 623b b32c 2c3c 476b 163c
000001f0: 8db5 b7bc bfe6 bcb8 e25d a63c cbb2 183c
00000200: 5b18 aeba bd3d 8bbb 29b6 babb 1483 8bba
00000210: b260 43bc 577b 173c bac1 8dbc a6a4 b1bb
00000220: 1e11 373c 5073 f7bb 51f1 a63c 3a58 adbb
00000230: 026f eebb df8d 913c

action_model._discrete_distribution.branches.0.weight f4 [13, 142]
-0.02644618 -0.00121584 -0.0013512191 -0.024427406 -0.0077684512 -0.023737157 0.015474509 0.026146468
0.03455567 -0.023998402 -0.019723592 -0.02285004 -0.0011720276 -0.011725677 -0.0061635654 -0.006466796
-0.01615731 -0.022123495 0.014810777 -0.036120187 -0.040643524 -0.023909792 0.005961817 0.03422445
-0.016777957 0.018690417 -0.0019259088 0.00021936178 0.027354663 0.0015917203 0.004784681 -0.010219978
-0.006776617 -0.012996095 0.0025781763 0.0077380347 -0.011688903 -0.030572092 0.029509127 0.009457162
0.015599407 -0.0150692 -0.018421857 -0.043903135 -0.024727054 -0.032824494 -0.04527856 -0.015988033
-0.04964797 0.0063774055 -0.048532467 0.025192708 0.027036766 0.035864882 -0.028204115 -0.024183586
-0.0017043226 0.049517978 -0.02316299 -0.010390965 0.0036223494 -0.04378039 -0.009341261 -0.044412866
0.02253338 -0.009899055 -0.0021035273 0.0061284387 -0.03550169 -0.019347392 0.029471938 -0.029999727
-0.031930577 -0.026123311 0.007965312 -0.022586823 -0.01078438 -0.0023956154 0.021447957 -0.019572958
0.0058579724 -0.025911551 -0.0062519326 -0.014006832 0.0060199867 0.019115327 -0.05972409 -0.016503083
0.008276172 -0.019326234 0.01814637 0.024222963 0.025306705 -0.03187577 0.016925082 0.00094867765
-0.017926026 -0.005190149 0.0047700307 0.00088137644 -0.028379051 -0.048895784 -0.03902814 0.0031231346
0.010651282 -0.05358306 0.006178052 0.014849848 0.01539789 -0.0077498876 0.019785212 -0.035744455
-0.017204572 -0.008785462 0.016709462 -0.029434143 -0.024450105 0.00027639212 0.002053364 -0.020068938
-0.021669477 0.0063088755 0.0067636273 -0.049798556 0.028544275 0.011646555 -0.03196715 -0.006703512
-0.010582005 -0.027842926 0.012432233 -0.008065339 -0.027103927 -0.042065572 0.030479176 -0.013626346
-0.011203055 -0.0046084966 0.0052122725 0.015333176 0.020679474 0.047074884 -0.03491028 0.017617099
-0.010229523 -0.009586805 0.008677437 0.0032001669 -0.012996163 -0.021465326 -0.011728787 -0.047461383
0.030346954 0.015152382 -0.008014495 -0.010247677 0.023814451 0.015089026 0.018972332 0.013200727
0.006093118 0.006887293 -0.06365773 -0.0020529684 -0.012745157 0.0024352237 -0.0031437431 -0.0065096607
-0.011934335 -0.0064878054 -0.02822555 0.016980637 -0.050914712 -0.016522849 0.0048787193 0.015683213
0.0042094043 -0.01358215 0.0011677133 -0.0023417098 0.027788376 0.010781689 0.017093875 0.006502068
-0.01715514 0.0094185155 -0.03138656 -0.018357858 -0.028906906 0.0056092096 0.03882543 0.01795632
-0.05481757 -0.0055402615 0.0017031553 -0.0030605018 -0.010367604 0.0049616974 -0.017743494 -0.0522329
0.009406451 -0.0043472033 0.0005816052 -0.014882022 -0.017311214 -0.014832026 -0.007605961 -0.010272319
-0.011748103 0.014217454 -0.053434126 -0.0069928467 0.021057995 -0.0061863177 -0.00015538596 -0.005560102
0.006802572 0.019228527 -0.0085676005 -0.010607076 -0.0012649546 0.023317631 -0.01600237 0.019545851
0.009056239 -0.006193553 0.03304974 0.026475191 0.035250407 -0.004031125 -0.022914369 -0.003956319
0.019391976 0.0057528433 -0.0053221453 -0.029298438 0.018653966 -0.01861536 -0.004863638 0.011633292
-0.007384359 -0.013157253 -0.027943468 0.013554737 0.001204572 0.015526172 -0.03286943 -0.003972144
-0.01708503 -0.0009477748 -0.021009753 -0.0059033684 -0.028619666 0.008923591 -0.033440188 -0.005100266
00000000: a9a5 d8bc d25c 9fba 641b b1ba fc1b c8bc
00000010: 7e8e febb 6d74 c2bc cc88 7d3c 1e31 d63c
00000020: 3f8a 0d3d 4c98 c4bc 5f93 a1bc 0230 bbbc
00000030: b89e 99ba 0e1d 40bc bcf7 c9bb 6be7 d3bb
00000040: 565c 84bc 553c b5bc e7a8 723c c3f2 13bd
00000050: d379 26bd 78de c3bc 595b c33b f02e 0c3d
00000060: ed71 89bc a51c 993c c76e fcba 7b04 6639
00000070: e316 e03c 45a1 d03a d0c8 9c3b b271 27bc
00000080: 620e debb 93ed 54bc 9ff6 283b 578f fd3b
00000090: d082 3fbc 5372 fabc 20bd f13c 36f2 1a3c
000000a0: a894 7f3c cee4 76bc 6fe9 96bc c6d3 33bd
000000b0: 6490 cabc fa72 06bd 0376 39bd 56f9 82bc
000000c0: ab5b 4bbd 8ef9 d03b fbc9 46bd f060 ce3c
000000d0: 357c dd3c 0ee7 123d 510c e7bc a81c c6bc
000000e0: 9463 dfba 5dd3 4a3d 50c0 bdbc de3e 2abc
000000f0: f064 6d3b 1153 33bd 170c 19bc 44ea 35bd
00000100: ec97 b83c a52f 22bc 55db 09bb 12d1 c83b
00000110: 386a 11bd 6c7e 9ebc 226f f13c fdc1 f5bc
00000120: a3c9 02bd 8e00 d6bc f180 023c 0008 b9bc
00000130: f8b0 30bc c2ff 1cbb a0b3 af3c 7857 a0bc
00000140: 3cf4 bf3b 7644 d4bc 03dd ccbb e97c 65bc
00000150: 4f43 c53b bf97 9c3c 3fa1 74bd 7931 87bc
00000160: c898 073c 0d52 9ebc b2a7 943c 3c6f c63c
00000170: 0250 cf3c 2b90 02bd 78a6 8a3c aeb0 783a
00000180: 9ad9 92bc 2012 aabb eb4d 9c3b 2c0c 673a
00000190: 2f7b e8bc f246 48bd f9db 1fbd 81ad 4c3b
000001a0: b782 2e3c e979 5bbd 4271 ca3b c74c 733c
000001b0: 6e47 7c3c c5f2 fdbb 9914 a23c c768 12bd
000001c0: 9af0 8cbc e6f0 0fbc 48e2 883c df1f f1bc
000001d0: 964b c8bc b9e8 9039 bb91 063b 9d67 a4bc
000001e0: 3084 b1bc afba ce3b 6ba1 dd3b 92f9 4bbd
000001f0: afd5 e93c 31d1 3e3c fcef 02bd 22a9 dbbb
00000200: 2560 2dbc d916 e4bc 91b0 4b3c 7c24 04bc
00000210: 0e09 debc f34c 2cbd 77af f93c 0a41 5fbc
00000220: 058d 37bc df02 97bb b6cb aa3b 0038 7b3c
00000230: 0068 a93c 98d1 403d 15fe 0ebd bc51 903c
00000240: bb99 27bc f911 1dbc cf2b 0e3c e4b9 513b
00000250: dced 54bc 0dd8 afbc 192a 40bc de66 42bd
00000260: 2d9a f83c b241 783c 3a4f 03bc dfe5 27bc
00000270: 8616 c33c f637 773c dd6b 9b3c dd47 583c
00000280: c7a8 c73b cdae e13b fc5e 82bd 188b 06bb
00000290: 10d1 50bc 4698 1f3b 4207 4ebb fe4e d5bb
000002a0: 3b88 43bc a897 d4bb 4539 e7bc fa1a 8b3c
000002b0: f28b 50bd ed5a 87bc aadd 9f3b 157a 803c
000002c0: 0bef 893b ab87 5ebc f50d 993a 5f77 19bb
000002d0: 73a4 e33c aea5 303c 7408 8c3c 4d0f d53b
000002e0: f088 8cbc 1e50 1a3c 328f 00bd 3863 96bc
000002f0: 2dce ecbc 76cd b73b 6a07 1f3d 2219 933c
00000300: 6388 60bd 158b b5bb 693c df3a b392 48bb
00000310: e2dc 29bc bc95 a23b ce5a 91bc 2af2 55bd
00000320: 841d 1a3c fc72 8ebb dd76 183a b9d3 73bc
00000330: 3fd0 8dbc 0702 73bc 6d3b f9bb 3b4d 28bc
00000340: 1e7b 40bc 53f0 683c bedd 5abd 4024 e5bb
00000350: d181 ac3c 98b6 cabb 1aef 22b9 8431 b6bb
00000360: 1ce8 de3b 2585 9d3c 1f5f 0cbc 4dc9 2dbc
00000370: d5cc a5ba 9e04 bf3c 6717 83bc 9f1e a03c
00000380: 9f60 143c 4af3 cabb 2a5f 073d 80e2 d83c
00000390: bb62 103d 8717 84bb eab6 bbbc 02a4 81bb
000003a0: ecdb 9e3c 5982 bc3b 6465 aebb 4703 f0bc
000003b0: 34d0 983c 3d7f 98bc 275f 9fbb 9099 3e3c
000003c0: 7ef8 f1bb 8591 57bc b3e9 e4bc b014 5e3c
000003d0: bbe2 9d3a 7c61 7e3c 18a2 06bd c228 82bb
000003e0: e8f5 8bbc 1774 78ba a51c acbc 0b71 c1bb
000003f0: ca73 eabc 4134 123c 94f8 08bd 2220 a7bb

action_model._discrete_distribution.branches.0.bias f4 [13]
-0.018805543 0.008168043 -0.0136409905 0.005770725 -0.010004705 0.021225037 0.015504411 0.005583758
-0.022183398 -0.001413196 -0.006865318 0.020832125 -0.0047382545
00000000: 150e 9abc 41d3 053c 767e 5fbc 5a18 bd3b
00000010: c6ea 23bc 21e0 ad3c 3706 7e3c f5f7 b63b
00000020: f5b9 b5bc fd3a b9ba 76f6 e0bb 22a8 aa3c
00000030: 5c43 9bbb

action_model._discrete_distribution.branches.1.weight f4 [13, 142]
0.019138254 -0.028249681 -0.007388866 -0.029663514 -0.030939972 -0.000802646 -0.033672135 0.0018836432
-0.0047890227 0.005480715 0.017258206 0.023263711 -0.0068307817 -0.0043527693 -0.017293729 -0.0028882788
-0.0051016454 -0.02625394 -0.016562775 -0.012048709 0.030395158 -0.044374425 -0.019034825 -0.0075155506
-0.029241143 0.011284656 -0.017091548 -0.012619109 -0.030088307 -0.010167576 -0.038943484 -0.013394593
0.015057377 -0.031689733 -0.03592221 0.0148640135 -0.035895772 -0.002681638 -0.029821845 -0.012275838
0.011136624 -0.019098748 0.022490654 -0.022257451 -0.0043958277 0.014808952 -0.0044022645 0.005376995
-0.015488058 -0.008837313 -0.027385496 0.027268061 -0.019940523 -0.021330794 -0.00030634485 -0.023276638
-0.025125766 -0.0043891887 0.008526115 0.008416089 -0.012193427 -0.03716747 -0.019829301 -0.013515489
-0.000119701035 -0.0041360003 0.018488891 0.008586201 -0.022449626 -0.018469917 -0.009433243 -0.004533826
0.030260146 0.0052868007 -0.020172821 0.023738004 -0.010444998 -0.030974867 0.025586424 -0.04272912
-0.01164569 -0.0029194795 -0.0043933783 -0.009190138 -0.021194935 -0.03264831 -0.010776243 -0.02126477
0.0047805635 -0.0027911998 -0.017467324 -0.020291446 0.008506715 -0.007405823 0.022907853 -0.026752597
-0.018448234 0.003939444 -0.021253625 -0.043090858 -0.0045937276 -0.012662741 0.0113731045 -0.0010441098
-0.03501004 0.027156007 0.008640263 -0.012593851 -0.0013908825 -0.005410663 -0.016007092 0.013611584
0.007451578 -0.030971173 -0.018355196 -0.0026014962 -0.029503252 -0.0090093985 -0.0015154346 -0.013793677
-0.009392853 0.0025057248 0.011334631 0.005951542 0.0063662487 -0.0063874144 -0.011034469 -0.033216275
-0.012776528 0.012909422 -0.015887607 -0.028528323 -0.021486534 -0.025721984 -0.0026731046 -0.011279296
-0.013183312 -0.030099116 -0.011582917 0.0060287095 0.002742804 0.01630561 0.024709871 -0.012952679
-0.005150982 -0.0005561599 0.0135519365 0.003947792 0.011713483 0.013557924 0.0025314866 -0.022892758
0.03632017 0.012647804 0.0010181143 0.015454749 0.009481562 -0.002567789 0.0003830576 -0.062078644
-0.021405302 0.0009792404 -0.020205598 -0.0028291708 -0.011758667 -0.012587574 0.0025435556 -0.00084631704
0.011694836 0.0132970745 0.011335179 -0.009085222 -0.027721096 0.008088864 -0.017111257 0.026301267
0.021393219 0.004494237 0.0058596693 0.0011664187 -0.013170612 -0.0287053 0.008967523 -0.005967707
-0.022621743 -0.012808811 0.03611143 -0.052613836 0.021299632 0.023926524 0.028071642 0.0026769643
-0.059756007 -0.0051232865 -0.008811125 0.008166348 0.038853668 0.024628444 -0.045325674 0.018338868
0.016178882 -0.0075476766 0.025907254 0.0474464 0.005450193 0.037754215 -9.104035e-05 0.0057153916
0.021557663 0.009996741 0.004565682 0.03203508 0.006440942 0.013291835 -0.0026943292 -0.015283398
0.0138731105 -0.06095323 -0.0051394794 -0.024826245 -0.019546924 -0.002829303 0.0022733805 -0.01887867
-0.0012095979 0.016170956 0.019935884 0.01438084 0.002124241 0.006551092 -0.0004321179 0.02078388
0.016338188 0.005852273 -0.0033346373 0.0038191308 0.03485137 -0.011319337 0.030251438 0.021289699
0.02394339 -0.054912984 -0.011524394 0.031353757 0.018366134 0.019228546 0.015092332 -0.0041100467
0.018661827 -0.0056998627 -0.0017676994 0.008597045 -0.020242795 -0.02197064 0.019106973 0.0058370386
00000000: d4c7 9c3c e06b e7bc 4d1e f2bb e600 f3bc
00000010: d375 fdbc a968 52ba cbeb 09bd 94e4 f63a
00000020: 3ced 9cbb 9297 b33b 1561 8d3c 8a93 be3c
00000030: c0d4 dfbb ada1 8ebb 94ab 8dbc 4749 3dbb
00000040: b42b a7bb 8112 d7bc a8ae 87bc f367 45bc
00000050: 44ff f83c f5c1 35bd ecee 9bbc 0245 f6bb
00000060: 1f8b efbc 47e3 383c 9303 8cbc 61c0 4ebc
00000070: c17b f6bc e895 26bc 3483 1fbd ff74 5bbc
00000080: 37b3 763c 18cd 01bd 2b23 13bd 3188 733c
00000090: 7207 13bd 6cbe 2fbb f14c f4bc 9920 49bc
000000a0: 6376 363c fa74 9cbc 523e b83c 4255 b6bc
000000b0: e00a 90bb 3fa1 723c df40 90bb 8131 b03b
000000c0: a0c1 7dbc 61ca 10bc 8c57 e0bc 4561 df3c
000000d0: 4f5a a3bc ebbd aebc e99c a0b9 a6ae bebc
000000e0: 8dd4 cdbc 2fd3 8fbb 1eb1 0b3c a3e3 093c
000000f0: f1c6 47bc eb3c 18bd 0f71 a2bc 1270 5dbc
00000100: 0108 fbb8 4987 87bb 0476 973c 23ad 0c3c
00000110: 47e8 b7bc 394e 97bc e48d 1abc 7d90 94bb
00000120: 20e4 f73c e63c ad3b 7941 a5bc 3476 c23c
00000130: 7f21 2bbc 01bf fdbc 9f9a d13c bb04 2fbd
00000140: 90cd 3ebc bd54 3fbb 54f6 8fbb 3c92 16bc
00000150: 00a1 adbc 3cba 05bd d78e 30bc 7433 aebc
00000160: 46a6 9c3b 90ec 36bb a217 8fbc 3f3a a6bc
00000170: c05f 0b3c 8cac f2bb 40a9 bb3c 4328 dbbc
00000180: c020 97bc 7416 813b 151c aebc 0a80 30bd
00000190: fb86 96bb 6377 4fbc 4256 3a3c 83da 88ba
000001a0: b066 0fbd 4676 de3c e48f 0d3c 7156 4ebc
000001b0: 464e b6ba ee4b b1bb 4e21 83bc 1f03 5f3c
000001c0: 5e2c f43b 42b7 fdbc a35d 96bc dd7d 2abb
000001d0: ceb0 f1bc 289c 13bc 8ca1 c6ba e0fe 61bc
000001e0: 7be4 19bc 1637 243b e3b4 393c 2705 c33b
000001f0: f79b d03b 844d d1bb ebc9 34bc ca0d 08bd
00000200: a454 51bc 0a82 533c ba26 82bc 3bb4 e9bc
00000210: 8704 b0bc e9b6 d2bc 412f 2fbb cccc 38bc
00000220: d1fe 57bc 6c92 f6bc 46c6 3dbc 7b8c c53b
00000230: 9dc0 333b 5893 853c 5b6c ca3c 7937 54bc
00000240: 92c9 a8bb 42cb 11ba f108 5e3c 7b5c 813b
00000250: e9e9 3f3c 0e22 5e3c 4ce7 253b 9889 bbbc
00000260: 75c4 143d bc38 4f3c 3f72 853a ea35 7d3c
00000270: 8e58 1b3c 5a48 28bb 1fd5 c839 2d46 7ebd
00000280: 2c5a afbc db59 803a 3686 a5bc 9c69 39bb
00000290: 6da7 40bc 1d3c 4ebc c8b1 263b 60db 5dba
000002a0: b39b 3f3c f9db 593c 30b7 393c 2fda 14bc
000002b0: 5a17 e3bc 2887 043c e82c 8cbc c175 d73c
000002c0: d540 af3c 6444 933b 7802 c03b 84e2 983a
000002d0: 8dc9 57bc 6127 ebbc 85ec 123c c18c c3bb
000002e0: 3c51 b9bc 0cdc 51bc 94e9 133d 9b81 57bd
000002f0: 917c ae3c 8f01 c43c 80f6 e53c 0270 2f3b
00000300: b7c2 74bd 3ee1 a7bb 895c 10bc 25cc 053c
00000310: 0625 1f3d 97c1 c93c 6aa7 39bd 653b 963c
00000320: 9389 843c 8052 f7bb 733b d43c 2857 423d
00000330: 8897 b23b 2aa4 1a3d eaec beb8 2e48 bb3b
00000340: b299 b03c 5fc9 233c b79b 953b 3737 033d
00000350: 8a0e d33b ffc5 593c 5893 30bb 3867 7abc
00000360: 0b4c 633c 18aa 79bd 1469 a8bb 6960 cbbc
00000370: df20 a0bc d46b 39bb fffc 143b 71a7 9abc
00000380: 5f8b 9eba f478 843c 9450 a33c 9d9d 6b3c
00000390: da36 0b3b 8baa d63b e28d e2b9 f542 aa3c
000003a0: aad7 853c 6dc4 bf3b ee89 5abb 624a 7a3b
000003b0: 4fc0 0e3d be74 39bc ddd1 f73c bc67 ae3c
000003c0: ee24 c43c 70ec 60bd d0d0 3cbc cc6c 003d
000003d0: 9374 963c 2f85 9d3c d445 773c 92ad 86bb
000003e0: b0e0 983c eac5 babb 26b2 e7ba 9fda 0c3c
000003f0: 38d4 a5bc c6fb b3bc 3a86 9c3c a144 bf3b

action_model._discrete_distribution.branches.1.bias f4 [13]
-0.006497209 0.0034058087 -0.014533926 0.0067454204 -0.015844071 0.017032057 0.01703726 -0.006462039
-0.015382632 0.007069808 -0.011141524 0.013787341 0.017271884
00000000: 8ae6 d4bb fd33 5f3b b41f 6ebc b008 dd3b
00000010: 6dcb 81bc d086 8b3c b991 8b3c 83bf d3bb
00000020: 6f07 7cbc d9a9 e73b f08a 36bc 4de4 613c
00000030: c47d 8d3c

action_model._discrete_distribution.branches.2.weight f4 [13, 142]
0.0036276642 -0.012884688 -0.010712661 -0.008936355 -0.006394388 -0.039874293 -0.03131058 0.018357266
0.028687265 -0.015640501 -0.0275368 -0.016427692 -0.02128466 -0.021690365 -0.053878125 0.006618027
-0.013208185 -0.07403867 -0.013601938 -0.0016354866 -0.040692937 -0.016599216 0.0028706433 0.018725235
-0.01796016 -0.0064441934 -0.011828411 -0.009300508 -0.046957575 -0.023522453 -0.043741826 -0.0055182544
0.0020273451 -0.010956339 -0.05516544 -0.005699403 -0.013926789 -0.018230926 0.0014939416 0.011165853
-0.025814703 0.014343413 -0.032199576 -0.0328022 0.006266123 0.023378832 0.016774174 -0.057389986
-0.034240667 -0.024547037 -0.034939498 0.032589864 -0.04316354 -0.006806659 -0.001711723 -0.016897472
-0.020157926 -0.018347556 -0.0024943384 -0.03681627 -0.0054400796 -0.057856 0.042038143 0.009790303
-0.01161935 -0.016408922 -0.023860589 0.008849265 -0.035813536 -0.013116656 -0.006883685 -0.022106638
-0.05048707 -0.009047195 -0.018289467 0.023107016 -0.0124643305 -0.01135406 -0.00782757 -0.04215949
-0.034330044 0.016787326 -0.017463446 -0.0006802861 -0.06268265 -0.026903298 -0.049735464 0.0057377294
-0.019665467 0.012339855 -0.0027632788 0.0087562585 -0.016663361 -0.014291085 -0.034337915 -0.037135605
0.0049843644 -0.009561476 -0.02621536 -0.027341679 0.022801252 -0.04577715 -0.029594831 -0.009632397
-0.023926958 0.005045041 -0.020603126 -0.011066594 -0.023578558 -0.0062933727 -0.037443176 0.009109897
-0.013057798 -0.018816324 -0.023788683 -0.031674862 -0.02167481 -0.0035710207 -0.004381131 0.0009579162
-0.033003163 -0.00374028 -0.026391275 -0.017079517 -0.008370817 -0.0041836323 -0.023580093 -0.008129392
-0.016911954 -0.01357969 -0.012098238 0.0007480054 -0.018882327 -0.046488047 -0.002591386 -0.014566668
-0.037337355 3.259364e-05 -0.00041156926 0.003923671 -0.017025365 -0.016180722 0.0046262555 -0.0064802496
-0.005315666 -0.01874361 -0.021028606 0.012348464 -0.017624144 0.032883245 -0.030343283 0.0315892
0.010885414 0.059038725 0.030587211 -0.010643923 0.030409064 -0.02014044 0.0017993404 0.05453103
-0.019267492 -0.022790845 -0.049613878 0.037972968 -0.023950275 0.009891411 -0.005308842 0.014989606
-0.024663793 -0.011677451 -0.04926528 0.009578281 -0.015670085 -0.012452486 0.02054834 -0.038239725
-0.014504751 0.0010010367 0.031706367 -0.006589775 -0.0042283954 -0.004862059 0.012767256 0.0010506348
0.019636061 0.045190826 -0.008667763 -0.05044582 -0.035491694 0.015715437 0.021021638 -0.030243218
0.03920704 -0.027441058 -0.0067873383 0.034323525 -0.024985727 0.0018971716 0.00688484 0.0120499935
0.022763243 0.044753652 -0.017207822 -0.012238286 -0.047794342 -0.02873683 0.06058416 -0.014323341
-0.02411419 0.0127614755 0.013071999 -0.004092989 0.010456315 0.015090699 0.053277016 -0.023053823
-0.022849036 0.009843358 -0.0152017735 0.0064931205 0.0049365372 0.011838644 -0.025215453 0.024018325
-0.022094725 -0.011256191 0.009519622 0.007840878 -0.0006584506 0.00061676145 0.0056553287 0.004293781
-0.007161607 -0.030165892 -0.01976047 -0.008011106 -0.008252415 -0.0017551559 -0.0047728284 0.009765302
-0.02774774 0.07551152 -0.047150265 -0.047634546 0.010336487 -0.019042166 -0.016689736 0.0061464882
-0.011953705 -4.968772e-05 -0.015146657 -0.026969254 0.012247352 -0.030106923 0.05176908 0.020047238
00000000: 1bbe 6d3b 4c1a 53bc 2884 2fbc ca69 12bc
00000010: 0488 d1bb 3a53 23bd 863f 00bd fa61 963c
00000020: 8e01 eb3c 8220 80bc db94 e1bc 5e93 86bc
00000030: 2b5d aebc feaf b1bc 4faf 5cbd 09dc d83b
00000040: 2567 58bc 96a1 97bd aada 5ebc d35d d6ba
00000050: a3ad 26bd 14fb 87bc 6721 3c3b aa65 993c
00000060: 2f21 93bc d029 d3bb f4cb 41bc 2861 18bc
00000070: 9656 40bd 29b2 c0bc a12a 33bd 79d2 b4bb
00000080: 35dd 043b 3782 33bc 28f5 61bd 0fc2 babb
00000090: 302d 64bc 0659 95bc 5dd0 c33a fbf0 363c
000000a0: 5b79 d3bc a200 6b3c b4e3 03bd 9a5b 06bd
000000b0: 0d54 cd3b f784 bf3c fe69 893c c311 6bbd
000000c0: f13f 0cbd de16 c9bc b81c 0fbd f37c 053d
000000d0: 41cc 30bd 650a dfbb e55b e0ba 916c 8abc
000000e0: 3c22 a5bc 9d4d 96bc 0e78 23bb a8cc 16bd
000000f0: b242 b2bb 6afa 6cbd 3030 2c3d 8267 203c
00000100: 165f 3ebc 016c 86bc 4877 c3bc 82fc 103c
00000110: 37b1 12bd 3ee7 56bc 8990 e1bb fb18 b5bc
00000120: 88cb 4ebd b03a 14bc cbd3 95bc ed4a bd3c
00000130: 3137 4cbc 6106 3abc 353f 00bc 6eaf 2cbd
00000140: a99d 0cbd 9385 893c 800f 8fbc 3a55 32ba
00000150: c35f 80bd 4e64 dcbc 6ab7 4bbd 9003 bc3b
00000160: 7919 a1bc 1a2d 4a3c 2018 35bb 6976 0f3c
00000170: 9a81 88bc 2825 6abc eaa5 0cbd 811b 18bd
00000180: e153 a33b bda7 1cbc 98c1 d6bc a8fb dfbc
00000190: b1c9 ba3c d280 3bbd dc70 f2bc 34d1 1dbc
000001a0: 7802 c4bc df50 a53b e3c7 a8bc a950 35bc
000001b0: d227 c1bc a338 cebb 045e 19bd ad41 153c
000001c0: 60f0 55bc b124 9abc 7ce0 c2bc 80bd 01bd
000001d0: 5f8f b1bc c907 6abb 978f 8fbb ab1c 7b3a
000001e0: 532e 07bd 7c1f 75bb 8432 d8bc 58ea 8bbc
000001f0: c025 09bc da16 89bb 0a2b c1bc 2431 05bc
00000200: f08a 8abc 597d 5ebc b037 46bc cb15 443a
00000210: 1caf 9abc 406a 3ebd 3ed4 29bb 09a9 6ebc
00000220: 0eef 18bd 28b5 0838 e4c7 d7b9 2392 803b
00000230: c778 8bbc 6f8d 84bc d897 973b 4658 d4bb
00000240: 0a2f aebb 338c 99bc 2f44 acbc 3651 4a3c
00000250: 8260 90bc 95b0 063d 7a92 f8bc ad63 013d
00000260: bc58 323c 97d2 713d 0892 fa3c d963 2ebc
00000270: 6e1c f93c 90fd a4bc d8d7 eb3a ee5b 5f3d
00000280: dcd6 9dbc deb3 babc ec37 4bbd 8b89 1b3d
00000290: 5e33 c4bc 960f 223c cbf5 adbb f796 753c
000002a0: b90b cabc c852 3fbc 64ca 49bd 39ee 1c3c
000002b0: 8d5e 80bc 8305 4cbc fe54 a83c 42a1 1cbd
000002c0: 56a5 6dbc 3835 833a 89de 013d 0aef d7bb
000002d0: 5a8e 8abb e851 9fbb c12d 513c 74b5 893a
000002e0: cedb a03c 041a 393d 3c03 0ebc 47a0 4ebd
000002f0: bd5f 11bd a9bd 803c 9235 ac3c a0c0 f7bc
00000300: 9097 203d 12cc e0bc 5268 debb d396 0c3d
00000310: deae ccbc 84aa f83a 399a e13b 566d 453c
00000320: fb79 ba3c 9b4f 373d 6bf7 8cbc 1883 48bc
00000330: 00c4 43bd 8069 ebbc 1927 783d 72ac 6abc
00000340: 1f8b c5bc 8215 513c f02b 563c 7b1e 86bb
00000350: f750 2b3c fb3e 773c 0039 5a3d 5fdb bcbc
00000360: e72d bbbc 0946 213c dc10 79bc 3ec4 d43b
00000370: adc2 a13b dff6 413c a390 cebc 14c2 c43c
00000380: ffff b4bc e36b 38bc 30f8 1b3c 0777 003c
00000390: df9b 2cba 29ae 213a 5650 b93b d8b2 8c3b
000003a0: eaab eabb 761e f7bc b6e0 a1bc 0441 03bc
000003b0: 2335 07bc 420d e6ba 6365 9cbb a5fe 1f3c
000003c0: 3a4f e3bc c9a5 9a3d a320 41bd 711c 43bd
000003d0: 5e5a 293c 51fe 9bbc eab8 88bc 7b68 c93b
000003e0: 79d9 43bc c867 50b8 af29 78bc a0ee dcbc
000003f0: 1ea9 483c cba2 f6bc d10b 543d 1b3a a43c

action_model._discrete_distribution.branches.2.bias f4 [13]
-0.02471159 0.010723979 0.0009816897 -0.006655551 -0.011859135 -0.023804892 -0.0070384066 0.043366555
-0.0011743832 0.014404518 0.023445979 -0.017735416 -0.01876312
00000000: f66f cabc a1b3 2f3c 0aac 803a cf16 dabb
00000010: d14c 42bc 7a02 c3bc 6fa2 e6bb 21a1 313d
00000020: c3ed 99ba ed00 6c3c c811 c03c dd49 91bc
00000030: 1db5 99bc

action_model._discrete_distribution.branches.3.weight f4 [13, 142]
0.01236836 0.016764492 0.006421588 -0.013799951 -0.010626226 0.042627078 0.023811787 0.021051265
0.01047444 0.040563177 0.012604502 -0.005938262 0.016212923 0.010898215 0.019183071 0.01379007
-0.033802476 -0.039947487 0.00863772 0.011501908 0.029314794 0.015786933 0.0034307959 0.04710416
0.021067087 0.0005220306 0.017667517 -0.01874553 -0.035281144 0.030147329 0.010116785 0.004786461
-0.03295158 -0.023013024 0.04010426 -0.014563902 0.03750795 -0.005740543 -0.07831781 -0.0014050074
0.01098987 -0.027562778 0.047380283 0.025577996 -0.015270545 -0.00052731525 0.022205008 -0.014477725
0.02293879 0.018749883 0.0021789588 -0.022495367 -0.017586308 0.003553122 0.028915502 0.035542086
0.0071690967 -0.041214276 0.030763544 0.012047053 -0.0076626553 -0.038011003 -0.03410688 -0.010287944
-0.03549068 -0.0001915026 -0.0282025 0.010891916 -0.027326602 -0.0054305685 0.025849458 0.012983495
-0.0026563832 0.023011401 0.029997507 0.028854717 -0.009867458 0.022603193 0.029225325 0.02816749
0.0039096423 0.025159704 0.017157799 0.012237069 0.023411157 0.029720739 0.0040256158 -0.010717466
-0.018549556 0.0085622445 0.054725923 -0.059184205 0.014818642 0.005282852 0.040159553 0.013075578
-0.013928351 0.02754571 -0.01516936 -0.028280579 -0.035805624 -0.017606778 0.01762062 0.01826462
0.019839378 -0.036138717 -0.016452359 0.028019581 0.011397507 0.008954693 0.022637561 0.04359546
0.035345525 -0.013874239 0.02310694 0.011625734 0.004746189 -0.0015118655 -0.00879338 -0.02173369
-0.020105768 0.026745996 0.042548183 -0.0014605355 -0.027852658 0.021690538 0.064355746 0.025976261
-7.6065684e-05 0.0166114 -0.0021196692 0.01336861 0.0037210945 0.015636494 -0.019768395 -0.00070026424
0.035794728 0.0073504318 -0.009704058 -0.013676696 0.01477501 -0.020943003 -0.0029210905 -0.0036257992
-0.030039323 -0.008420158 0.00015869187 -0.0108543495 -0.008319379 -0.02939429 0.0128480075 -0.013577532
-0.036493376 -0.00028368516 -0.005024333 -0.028819798 -0.014971455 0.00954127 0.017740866 0.044523183
-0.032376997 0.0002921884 -0.028788796 -0.021111041 -0.00964242 0.027401106 -0.014049093 0.0049527655
-0.0084518455 0.014016046 0.006314051 -0.011104331 0.058961958 -0.00037818155 0.03311856 0.014327498
-0.037785422 0.01799469 0.0035434635 -0.012944237 -0.042838007 0.030237576 0.04554952 0.01698089
0.013618841 0.022077087 -0.012121857 -0.022615472 -0.010794008 -0.019029353 0.0026819836 -0.011922803
-0.047665074 0.024831126 -0.021753099 0.0072231176 -0.005075194 -0.019995447 0.04020923 -0.034699444
0.002677403 0.007352078 -0.015988741 -0.0662175 -0.058817264 -0.038934816 -0.013379092 -0.017139234
0.035243403 -0.0010437663 0.023028392 -0.00022062458 0.0034691796 -0.0006655462 0.006094563 0.014513081
-0.0066625397 0.030171216 -0.02336613 0.026848385 -0.0075171893 -0.052388553 -0.025997233 0.0048618997
-0.020534288 0.0050864653 0.0005499895 0.01243807 -0.0011595861 0.0013410993 -0.013270818 -0.006620443
0.0068118703 0.0077832937 0.012455387 -0.013156517 -0.030855505 0.0028743413 0.0057848417 0.00051910436
0.005887846 0.025431607 -0.04456813 -0.013091073 -0.015769063 0.018735606 -0.009618527 0.016835513
-0.00013429548 0.01785948 -0.039984602 0.012825087 -0.024257962 0.0012791607 -0.017616218 0.020598982
00000000: a9a4 4a3c b055 893c 2f6c d23b 3119 62bc
00000010: 9f19 2ebc bb99 2e3d f010 c33c b473 ac3c
00000020: fc9c 2b3c 9325 263d 1d83 4e3c c195 c2bb
00000030: f7d0 843c 6d8e 323c d125 9d3c bfef 613c
00000040: 7774 0abd fa9f 23bd 3985 0d3c 8072 3c3c
00000050: 9425 f03c 9953 813c 34d7 603b 4bf0 403d
00000060: e294 ac3c e1d8 083a 78bb 903c 3a90 99bc
00000070: f682 10bd 88f7 f63c dfc0 253c bfd7 9c3b
00000080: 3cf8 06bd cf85 bcbc 5d44 243d 6f9d 6ebc
00000090: f0a1 193d 2a1b bcbb 1765 a0bd 3a28 b8ba
000000a0: db0e 343c 56cb e1bc d411 423d f288 d13c
000000b0: 4f31 7abc 873b 0aba 47e7 b53c fb33 6dbc
000000c0: 21ea bb3c 5b99 993c ddcc 0e3b 3448 b8bc
000000d0: 2911 90bc 7fdb 683b 34e0 ec3c 9494 113d
000000e0: beea ea3b 4dd0 28bd d403 fc3c 0161 453c
000000f0: 0317 fbbb 6db1 1bbd a8b3 0bbd c48e 28bc
00000100: ad5e 11bd 16ce 48b9 ee08 e7bc 0274 323c
00000110: 0adc dfbc e9f2 b1bb 3ec2 d33c bab8 543c
00000120: b716 2ebb 6882 bc3c 55bd f53c ba60 ec3c
00000130: 1eab 21bc 552a b93c f369 ef3c 82bf e63c
00000140: 751c 803b b91b ce3c 838e 8c3c fd7d 483c
00000150: c1c8 bf3c e878 f33c 50e9 833b 4f98 2fbc
00000160: 3df5 97bc a848 0c3c 4a28 603d 236b 72bd
00000170: e4c9 723c c61b ad3b 587e 243d f33a 563c
00000180: bd33 64bc 8aa7 e13c e888 78bc acac e7bc
00000190: eba8 12bd 173c 90bc 1e59 903c af9f 953c
000001a0: 3186 a23c 3106 14bd 19c7 86bc 5289 e53c
000001b0: 9cbc 3a3c b4b6 123c 6872 b93c 2791 323d
000001c0: 78c6 103d c750 63bc c44a bd3c dd79 3e3c
000001d0: eb85 9b3b ca29 c6ba 1c12 10bc da0a b2bc
000001e0: dab4 a4bc 6b1a db3c 0147 2e3d 706f bfba
000001f0: 422b e4bc 5bb0 b13c f2cc 833d 2bcc d43c
00000200: 7485 9fb8 a114 883c 26ea 0abb 0408 5b3c
00000210: 9bdd 733b 1b18 803c 54f1 a1bc f091 37ba
00000220: 7e9d 123d e4db f03b c5fd 1ebc 3914 60bc
00000230: e212 723c a990 abbc c46f 3fbb d19e 6dbb
00000240: 0715 f6bc b4f4 09bc 8666 2639 71d6 31bc
00000250: 014e 08bc 4bcc f0bc 7380 523c 4c74 5ebc
00000260: 147a 15bd 94bb 94b9 29a3 a4bb 7f17 ecbc
00000270: d54a 75bc fd52 1c3c 4b55 913c f15d 363d
00000280: be9d 04bd dd30 9939 7bd6 ebbc 10f1 acbc
00000290: 3efb 1dbc 4978 e03c 2b2e 66bc cf4a a23b
000002a0: 9c79 0abc 8fa3 653c 19e6 ce3b f1ee 35bc
000002b0: 1882 713d ab46 c6b9 54a7 073d e2bd 6a3c
000002c0: e3c4 1abd 9a69 933c 7439 683b 1114 54bc
000002d0: e876 2fbd cbb4 f73c 2292 3a3d 821b 8b3c
000002e0: 8f21 5f3c 02db b43c c19a 46bc 1544 b9bc
000002f0: 5ad9 30bc 72e3 9bbc 38c4 2f3b dc57 43bc
00000300: 743c 43bd a56a cb3c 8e33 b2bc e7af ec3b
00000310: d04d a6bb 7ecd a3bc 6fb2 243d 0121 0ebd
00000320: 5e77 2f3b b3e9 f03b d2fa 82bc 0a9d 87bd
00000330: 5fea 70bd 1d7a 1fbd fb33 5bbc 9467 8cbc
00000340: 635b 103d fcce 88ba 0aa6 bc3c 7657 67b9
00000350: 2d5b 633b 0d78 2eba e6b4 c73b 46c8 6d3c
00000360: 6f51 dabb a029 f73c 546a bfbc 25f1 db3c
00000370: c152 f6bb 6195 56bd 26f8 d4bc 9250 9f3b
00000380: 8637 a8bc 5dac a63b 2c2d 103a 0cc9 4b3c
00000390: 41fd 97ba d3c7 af3a d86d 59bc 4df0 d8bb
000003a0: 1c36 df3b 000b ff3b ae11 4c3c 6f8e 57bc
000003b0: afc4 fcbc 725f 3c3b c58e bd3b 8114 083a
000003c0: d5ee c03b f255 d03c 128d 36bd f17b 56bc
000003d0: 1f2e 81bc 6a7b 993c 0797 1dbc a1ea 893c
000003e0: abd1 0cb9 0b4e 923c e5c6 23bd 5020 523c
000003f0: a2b8 c6bc 83a9 a73a e34f 90bc 32bf a83c

action_model._discrete_distribution.branches.3.bias f4 [13]
0.020844845 -0.00301142 0.012333464 0.0008620305 0.0029362014 0.017271653 -0.028488325 -0.0048803454
-0.010345804 0.011947382 -0.0067171683 -0.0052877152 -0.017158674
00000000: cfc2 aa3c 3e5b 45bb 4c12 4a3c e3f9 613a
00000010: 496d 403b 487d 8d3c 5960 e9bc 4eeb 9fbb
00000020: 7281 29bc f4be 433c b11b dcbb 9244 adbb
00000030: 5990 8cbc
