results/NewTwoAgentsFullBoardActionKeepAfterFail/WhiteMLAgent/WhiteMLAgent-60004.onnx (onnx, 681198 bytes, 133 tensors)

discrete_act_size_vector f4 [1, 64]
00000000: 0000 5041 0000 5041 0000 5041 0000 5041
00000010: 0000 5041 0000 5041 0000 5041 0000 5041
00000020: 0000 5041 0000 5041 0000 5041 0000 5041
00000030: 0000 5041 0000 5041 0000 5041 0000 5041
00000040: 0000 5041 0000 5041 0000 5041 0000 5041
00000050: 0000 5041 0000 5041 0000 5041 0000 5041
00000060: 0000 5041 0000 5041 0000 5041 0000 5041
00000070: 0000 5041 0000 5041 0000 5041 0000 5041
00000080: 0000 5041 0000 5041 0000 5041 0000 5041
00000090: 0000 5041 0000 5041 0000 5041 0000 5041
000000a0: 0000 5041 0000 5041 0000 5041 0000 5041
000000b0: 0000 5041 0000 5041 0000 5041 0000 5041
000000c0: 0000 5041 0000 5041 0000 5041 0000 5041
000000d0: 0000 5041 0000 5041 0000 5041 0000 5041
000000e0: 0000 5041 0000 5041 0000 5041 0000 5041
000000f0: 0000 5041 0000 5041 0000 5041 0000 5041
13.0 13.0 13.0 13.0 13.0 13.0 13.0 13.0
13.0 13.0 13.0 13.0 13.0 13.0 13.0 13.0
13.0 13.0 13.0 13.0 13.0 13.0 13.0 13.0
13.0 13.0 13.0 13.0 13.0 13.0 13.0 13.0
13.0 13.0 13.0 13.0 13.0 13.0 13.0 13.0
13.0 13.0 13.0 13.0 13.0 13.0 13.0 13.0
13.0 13.0 13.0 13.0 13.0 13.0 13.0 13.0
13.0 13.0 13.0 13.0 13.0 13.0 13.0 13.0

network_body._body_endoder.seq_layers.0.weight f4 [142, 71]
00000000: 99b2 9bbd 5c4c 8bbe b8b6 5dbe 11dc c8bc
00000010: 6d04 f73c 7b2b 833c 4929 01be 28f0 cdbd
00000020: d85f 2f3e d85b aabc 1223 0bbe 8208 013e
00000030: 2b0a 49bd 00df 453e b860 69bc e858 10bd
00000040: 1169 bebd 030a e7bd 81c5 28bd b4b3 5dbd
00000050: 9cba 6fbb 2867 26bd ad53 f9ba a68d f43d
00000060: 3625 fb3c 1080 18be d803 503e 3890 90bd
00000070: 5605 b2bd 447d d63c 26f9 fcbd a3c6 813d
00000080: 0116 073d acc5 11be b146 313e 26f1 2d3d
00000090: fdfe 94bc 7490 f8bb 2499 24be 5f3b 9c3d
000000a0: 966f 0abe 0d70 a13d 70bf c03d ec2c 29ba
000000b0: 399c 1e3e c53a 4a3e 36b7 c5bb 6cc1 103e
000000c0: a625 853d 5730 54bc 442c 92be be29 05bd
000000d0: dbe7 bc3d e650 283d e620 d83d ec5c b2bd
000000e0: 3022 253e c777 4f3c 998a b23d 60dd fc3c
000000f0: 05d2 883c 50e6 113e 0886 babd fd9e 893e
00000100: f589 9cbc e0ce 313e e079 ce3d d224 c63d
00000110: f465 163d 72d2 afbc feac 243c 794c 3c3d
00000120: 22c6 073d f602 2bbe 4840 febd a5e0 a8bc
00000130: 945e 273e 3963 403d 19b8 923c f8a2 31be
00000140: fd5e 603d 956d a9bd f02b 56be c544 213e
00000150: b0e8 02bb 3d01 543e 5b4c e4bd ae1b 293d
00000160: 8542 833c e9ae d8bc 1929 3cbd be9c 7b3d
00000170: 273f 633e 132e adbd 1468 fabd 784b ca3d
00000180: 4836 08be cd2c 84bd 083e 89be 6fee 983d
00000190: c07e 833c 7f47 e8bd 2dd7 5a3d ed7e 93bd
000001a0: 3b7f cdbd e699 053d 151d 4fbd 4307 fcbd
000001b0: c378 973d 11ab 103d d1eb 00be 1bd3 ae3d
000001c0: 007f 543d 9c38 25bd f245 a13d c054 90be
000001d0: e82b 953d 46df 053b 28c4 cc3d a8ba 38bc
000001e0: c0dc 213e a5d4 183e 0e93 abbb d42a 79be
000001f0: 208c 57be e367 633d d0e7 bb3d e347 03be
00000200: a00f e4bd 7ea3 60be 956f 16be e405 dabd
00000210: 57f4 323e ac7b 15bd 7d79 a03c 694d c3bc
00000220: 57ad 59bc 0554 c7bd 396e 9cbd 6512 b93d
00000230: 32fd 553e 2ac4 be3e 4388 4d3d c224 3a3e
00000240: f76f 893d 3d18 ecbc a211 febd 658b af3c
00000250: f06e df3c 9a4c 293e d258 f0bd 9d41 693e
00000260: 09cd 33be f3fb 973d 43dc b93d 7c56 2cbe
00000270: 3bd4 82be ab01 503e 3ba4 0ebe 792b 573e
00000280: 8117 763e a516 bbbd 06b1 523e eb40 c7bc
00000290: 5350 bcba beaf d638 fab1 d03c 3915 20be
000002a0: 47ab ae3b 9722 10be b883 263d 7269 423e
000002b0: e0ab 893c ce16 b6bd 22aa f4bd a6f8 6c3d
000002c0: e811 c7bd 178c 1c3e 4609 68bd 0b04 81bd
000002d0: 1297 e4bd d242 db3b ce15 1abc a0fa 783e
000002e0: eef5 1d3e 8b1f 0fbd 4feb b1bd 657c 81bd
000002f0: dbf8 a63d b68c 4d3d 6feb f8bd 69f3 543e
00000300: 2270 8c3d 406f e8be 13cc 013e 432f 1dbe
00000310: 6651 12be 2124 693d 0095 89bd 2a85 773d
00000320: 8bf1 aebc 90f2 0f3e eef2 32be ebe9 783d
00000330: 26d8 febd 846f febc 59a1 1ebd 60ff 3b3e
00000340: a555 d33c 6b19 3e3e 7987 e6be 4cce 06bd
00000350: e725 45be 8902 34be 9640 b8bb 4cd5 d93d
00000360: e8ad 36be 4cbd abbd 4a55 9fbe a024 d8bd
00000370: dc58 45be 1677 753d 179f 18bb ca8f d0bd
00000380: 1b04 3fbd e824 f0bc 17d0 2fbe f3be 9e3d
00000390: bd76 29bd 5f9c fd3c fa66 51bd f767 283e
000003a0: 2e88 34bd 7a6e 58be a69c a93d 03cc 543d
000003b0: 6baa 7ebe 43d7 583d 036c 893d 3221 27be
000003c0: 075c 97bd 92e0 fd3d 94be 123c 0c7b 293e
000003d0: c6b9 c2bd 8db8 21bc 32ae 7d3d 81c6 7f3e
000003e0: 642a 193e 9248 1d3d c25e b83c ae55 b83b
000003f0: d954 5cbd 8a84 09bd 3b35 9cbe 5213 2fbe
-0.07602424 -0.27206695 -0.21651733 -0.024518998 0.030153478 0.016011944 -0.12613405 -0.10055572
0.17126405 -0.020795748 -0.13587597 0.12600902 -0.049081963 0.19323349 -0.014244251 -0.035241038
-0.092973836 -0.112812065 -0.04120398 -0.054126456 -0.0036579734 -0.04062572 -0.001902213 0.1194108
0.030657392 -0.14892602 0.20313966 -0.070587575 -0.08692424 0.026182778 -0.12352209 0.06336715
0.03297997 -0.14235562 0.17312123 0.042466305 -0.018187994 -0.0075855795 -0.16074044 0.07628512
-0.13519129 0.078827 0.09411514 -0.0006453532 0.15489282 0.19748981 -0.0060338033 0.14136285
0.065013215 -0.012950978 -0.28549397 -0.03251051 0.092239104 0.041092776 0.1055315 -0.0870913
0.16126323 0.0126628345 0.08717842 0.030867279 0.016701708 0.14248013 -0.09107596 0.2687911
-0.019108752 0.17364073 0.100818396 0.09674992 0.036718324 -0.021462653 0.01005101 0.045971368
0.03314794 -0.16700348 -0.124146044 -0.020614931 0.16344672 0.046969626 0.01791005 -0.17347324
0.054778088 -0.08272854 -0.20915198 0.1574889 -0.0019975118 0.20703597 -0.11147376 0.041286163
0.01602293 -0.026450591 -0.04593763 0.061428778 0.2219206 -0.084560536 -0.122268826 0.09877676
-0.13301957 -0.064538576 -0.2680514 0.074673526 0.01605165 -0.11341762 0.053427864 -0.072019435
-0.10034033 0.032617472 -0.050564844 -0.123060726 0.0739608 0.03531939 -0.12589957 0.08536359
0.05187893 -0.04033719 0.07874669 -0.2818966 0.07283765 0.002042727 0.09998351 -0.011274971
0.15806866 0.14924867 -0.005236036 -0.24332744 -0.21049547 0.055518996 0.09175074 -0.12820391
-0.11135793 -0.21937367 -0.14691003 -0.10645655 0.17476021 -0.036494896 0.01958918 -0.023840623
-0.013285956 -0.09732822 -0.07638211 0.090367116 0.20897368 0.37259036 0.050178777 0.18178084
0.06710809 -0.028820151 -0.12405707 0.021428773 0.027274579 0.16533127 -0.11735691 0.22778936
-0.17558683 0.074211024 0.09075215 -0.16829866 -0.25552544 0.20313136 -0.13929836 0.21012677
0.24032404 -0.091351785 0.20575342 -0.024322947 -0.00143672 0.0001023705 0.02547549 -0.15633096
0.0053304764 -0.14075695 0.04065296 0.18985537 0.01680559 -0.088910684 -0.11946513 0.057854317
-0.09720212 0.15287815 -0.05664947 -0.06299599 -0.11161627 0.006691315 -0.009404613 0.24314356
0.15425846 -0.03494219 -0.0868746 -0.063225545 0.08152934 0.05018302 -0.121542804 0.20795979
0.06857325 -0.45397377 0.12675504 -0.1535006 -0.14288864 0.05691922 -0.067178726 0.06042973
-0.021355411 0.14057374 -0.17475483 0.060769957 -0.12443571 -0.031059034 -0.038728092 0.18359137
0.025797674 0.18564384 -0.45025232 -0.032911584 -0.1925274 -0.17579092 -0.0056229336 0.10636386
-0.17839777 -0.08385715 -0.31119758 -0.10553861 -0.19272178 0.059928022 -0.0023288184 -0.101836756
-0.046634775 -0.029314473 -0.17169224 0.077512644 -0.041373003 0.030958353 -0.051123597 0.1644591
-0.044075184 -0.21135893 0.082818314 0.051952373 -0.24869697 0.052939665 0.06710055 -0.16321257
-0.073906 0.12396349 0.00895657 0.16550845 -0.0950809 -0.0098706605 0.061933704 0.24978067
0.14957577 0.038399287 0.022506122 0.005625448 -0.053791855 -0.033573665 -0.30509362 -0.17097214

network_body._body_endoder.seq_layers.0.bias f4 [142]
00000000: e1e7 86bc 4c51 8abc 969c 833c 46b5 1bbb
00000010: b933 73bc 0981 dd3a 8930 94ba d9c1 11bc
00000020: fa55 acbc abd4 fc3c b300 d4bc 2812 3d3b
00000030: e203 153c 8b72 51bc 41ed 183a 4e28 0c3c
00000040: 59dc 3c3c ab96 02bb a661 523c 50fc dabb
00000050: b750 56bc 3103 b9bc e207 353b 22fd 2b3c
00000060: 62c4 263b 7cb2 243c b074 183c 6db8 d8bb
00000070: dfb3 853a 732f e83c ad31 03bc 4e2e 0ebb
00000080: 20cd c6bc 1a56 613a 7db3 1dbc 1228 3bbc
00000090: 1b56 a23b 94ec 513c 3e95 00bd d961 01bc
000000a0: e604 b6bc e0ce 0f3b 157e 2bbd 06d5 50bc
000000b0: 03df fe3c 4799 52bc 53b1 223c 3965 5a3c
000000c0: 1961 a43c a0ba eeba 7830 9437 1d79 e4bc
000000d0: d68c 86bc 0a01 2abc a7e8 19bc 41f9 71bc
000000e0: ad65 f7bb 6a57 87bc 5a84 8abc 29b4 f83b
000000f0: c42c 0abc f383 54bb 9cd3 ed3b ea60 9fb8
00000100: 12d3 b9bc c677 efbc 274e a5bc f2c6 733a
00000110: 56a2 0b3c f6e5 ccbc 299d f1ba ef91 6c3b
00000120: e6d5 c53b b6d6 0abb 511e a93c 6ef1 18bd
00000130: e415 503c 859a b2bb 40a4 a6ba 2374 3ebb
00000140: 1bf2 02bc 4faa 4bbb b024 03bd 3857 8d3b
00000150: 55ff 75bc a1d7 4d3c 0300 59ba b281 3dbc
00000160: 3eda e3bc 82fd 30bb 61f6 11bc c32c 88bc
00000170: bedb bb3c c372 ffbb be02 13bc dd88 a7bc
00000180: b81d dcbc e053 62bb a8af 743b 4d39 96bc
00000190: d8fb 58bc 59f3 cdbb 8cf6 823b a5f6 eabb
000001a0: 7b3c 813b d3d6 9a3c b7a4 38bc 2e3d 2fbc
000001b0: 76e0 21bd 6412 fbbb bda6 ccbc a46d e23b
000001c0: 7fd7 ae3b 131c 81bc 2242 83bb cf7d 2a3c
000001d0: 38a6 0fba c925 c1bc 5c7d febc ed28 dd3b
000001e0: 18a7 5a3c 9f82 6c3c e0dd 1db7 b46e 493c
000001f0: 0841 91bc d87d 6b3c 152a 81bc ed8d 84ba
00000200: 9acb 3abb 4de7 603c 5a26 08bb d23c 003a
00000210: 7f81 373b 1831 893c 144e a8b9 977f 01bd
00000220: 52d3 1d3b 8fe1 f0bc bcc3 c43c e010 0c3d
00000230: dd32 76bc 68c7 bd3b
-0.01646799 -0.016884468 0.016065877 -0.002375917 -0.014843875 0.0016899417 -0.0011305969 -0.008896315
-0.02103709 0.030863127 -0.02587924 0.0028849933 0.009095164 -0.012783657 0.00058336934 0.008554531
0.011527144 -0.001992623 0.012840664 -0.00668291 -0.013080767 -0.02258453 0.0027623107 0.010497363
0.0025446643 0.01005232 0.009305164 -0.006613782 0.00102007 0.028342938 -0.008007449 -0.002169508
-0.024267733 0.0008595899 -0.009625313 -0.011423128 0.004954112 0.012812752 -0.03139233 -0.007896864
-0.022219133 0.0021943375 -0.041868288 -0.012746101 0.0311122 -0.012853927 0.009929973 0.013329797
0.020065831 -0.0018213578 1.7665545e-05 -0.027889783 -0.016424578 -0.010376224 -0.009393848 -0.014768899
-0.0075499625 -0.016521174 -0.016908813 0.007589836 -0.0084335245 -0.003242728 0.007257892 -7.5997625e-05
-0.022683654 -0.029231917 -0.020178868 0.00092993595 0.008522591 -0.025011998 -0.0018433678 0.0036097725
0.0060374616 -0.0021185107 0.020644339 -0.03733962 0.012700532 -0.005450549 -0.0012713745 -0.0029060922
-0.007992293 -0.0031076854 -0.03201741 0.004313376 -0.015014489 0.012563617 -0.0008277895 -0.011566566
-0.027814027 -0.0027006571 -0.008908839 -0.016622907 0.02293193 -0.007795663 -0.008972822 -0.020451004
-0.02686964 -0.0034534857 0.0037336145 -0.01833787 -0.013243638 -0.006285113 0.003996676 -0.0071705156
0.0039439774 0.018901264 -0.01126974 -0.010695739 -0.039520703 -0.0076621044 -0.02498185 0.006910043
0.0053357477 -0.015760457 -0.0040056864 0.010405972 -0.00054797856 -0.023577588 -0.031065635 0.0067492635
0.013345502 0.014435439 -9.4095885e-06 0.01229446 -0.017731205 0.014373265 -0.015767137 -0.0010113098
-0.0028502704 0.013727021 -0.0020774812 0.00048918754 0.002800077 0.016747043 -0.0003210163 -0.03161582
0.0024082256 -0.02940443 0.024019115 0.03419578 -0.015026775 0.0057915933

network_body._body_endoder.seq_layers.2.weight f4 [142, 142]
00000000: 4316 fcbd 4ea3 aebd 8cb1 05be 3037 553e
00000010: d968 1bbe 3776 0cbc 3af0 453c 8cb4 7fbd
00000020: 0286 64bd 4bae 5cbd a19b 1e3d 9069 cf3d
00000030: 58af 1cbd 0e99 9d3c 90c5 d53c fb6a adbc
00000040: 9782 053e f772 183d 383d 993d 72ea bb3d
00000050: 26a3 473e 958e 04be d1a9 b03b 8627 07be
00000060: d25f f33d d39f 043e 9973 2bbd ff42 9c3c
00000070: 70fa 8e3c e422 ac3c 6507 973d 434f 363c
00000080: dfb0 af3c 5bef 713e 2d59 90bd 555c 36bc
00000090: cb03 01be 4119 9e3d c506 383d 7a7a 52bb
000000a0: 18cf 9abd 8c7f 043e 6e76 e1bb d2f7 38be
000000b0: a48a 30bc faf0 22be 8874 5fbe feff 363e
000000c0: 13ca 5b3c 9658 a23b 87d8 e63d d4e5 113d
000000d0: ac53 dcbd b060 be3d 05f1 9c3c e2a4 54bd
000000e0: 57f8 a6bc ef4c 9a3d 1b70 f73c c402 4fbd
000000f0: 27ec 28be 23c3 3ebd b443 293e 56fc 553d
00000100: 6510 babd 2b90 0a3d 8872 043a 9957 a53d
00000110: 1af6 b1bd ffaf 9f3c 7e0f e5bc 7083 71bd
00000120: b1bd ca3d 0877 d13b 14f9 983c 82ec a73d
00000130: 6f8b e3bc 75e7 b5bd a1e3 9ebd 0b0b 64bd
00000140: 5306 593c d651 79be c36e 9f3d 257b be3c
00000150: 2d55 95bd 996e 233d 978c 2fbd 5dc9 bc3d
00000160: 6e20 743d 81fd 2b3e 1f47 1abc ca9c e6bc
00000170: 305d a13c d277 4dbc 8189 23bd 83e5 2e3d
00000180: 8555 00be 88c4 94bc d3c0 b53c f6d6 a63d
00000190: 3f9b 55bd fca2 963c 53ab 3c3d efdd a83d
000001a0: 242d dc3c b39a 99bb 26a2 8a3c 4f6d 35be
000001b0: 97c1 4abc 16e2 463e aae7 4f3e 12c0 a13d
000001c0: 3e01 15bd 5ab9 cebd ecdf 2dbd 58bd 193d
000001d0: 133f 793c 6e1a f5bc d16f 71bb a33f d5ba
000001e0: e0de 82bd 7982 02bd 37c0 ab3d fd4e d3bc
000001f0: f65d 02bd 0f4b 103e 8c4f 063d aa7a bbbd
00000200: efc5 0dbe 17f2 cf3d 0731 0f3d 922f b43d
00000210: cc19 8e3d d9cd c1bc 0b97 e93d e5c0 7d3d
00000220: 1e5c 76be f2d7 a73c 8cd5 aabd 6f4a 48bc
00000230: 640d bcbd c33f adbd 4c69 9b3d 3d3e dbbd
00000240: b793 f0bc ddc5 b7bd 0eeb 163e 0bca cabd
00000250: 2770 a2be 34e3 f2bd e9c1 a63d 6544 1fbb
00000260: 626a 583b 0430 643d 89ed 253d 3827 273e
00000270: a4f4 87bd 6cda d7bc a2a2 a63b 21d1 7c3d
00000280: f202 653d 8fe4 cabd e978 19be f17e 04bc
00000290: cad7 953d 65c4 93bd 2af2 cc3d 1cfa 7bbd
000002a0: e916 9e3c b068 9fbd 3323 443d 8972 893d
000002b0: 4d03 7dbc b011 c8bd f87b 2f3d f320 f0bd
000002c0: bc70 e5bc df7c 7b3e be1a 16bd 04b7 903c
000002d0: dd97 c2bc eae6 8f3d 9b32 f5bd bdbd 30bd
000002e0: a1d0 e4bd 64b9 01be 447c 113e 4b35 c13c
000002f0: 1189 14be ce5b 0e3e 27fb 26be 5372 de3b
00000300: 8761 093e 3b85 dcbb ad28 4f3d 1372 953d
00000310: ae68 1abd f85f 003e e3e5 28bd b13a 723d
00000320: b8b2 3abd 00bb ffbc e9c1 3b3e 1300 a23c
00000330: 22a6 013e a5d1 d23d f06c 6abe a9c2 cf3d
00000340: e5fd 8ebd 6a5e e73d b357 cc3c 69b1 923d
00000350: 344e 22bc 154b 0bbd 1b05 2fbd 8f58 87bd
00000360: 650a ea3c 88dd df3d 0a82 a6bb bdf5 983c
00000370: fb3e 9ebd 2ec0 423e 430e 7c3c a0b8 86bd
00000380: d593 1e3e c819 45be 8b1b b3bc 6ee4 a03c
00000390: 9558 2a3d 194c 78bb a5c5 0dbd 8737 01bd
000003a0: 9f3a 0f3e 4166 163e 90a9 3bbd ac5c 833c
000003b0: a2cb bd3d 2528 1a3e 4976 113e 2b93 4bbd
000003c0: 76a3 fbbd 7e96 9ebc db38 bf3d bf81 9abd
000003d0: 320c bd3d ec2b fe3d 3308 20bd b38f 28bd
000003e0: bf8b f9bb a3d8 cbbd b119 b23a 7287 323e
000003f0: 1bff 68bd 3aad 19bd 29ff 483d 0c66 d53d
-0.123089336 -0.08527242 -0.1305601 0.20821834 -0.15176715 -0.0085731065 0.0120812 -0.062428042
-0.055791862 -0.053877156 0.038722638 0.10127556 -0.03825316 0.019238021 0.026095182 -0.021169176
0.13038097 0.037219014 0.0748238 0.09175576 0.1949583 -0.12945016 0.0053913374 -0.1319867
0.11883511 0.12951593 -0.04185829 0.019074915 0.017453402 0.02101273 0.07374457 0.011127296
0.021446643 0.23626463 -0.07048259 -0.011130412 -0.12599103 0.077196606 0.04492833 -0.0032116459
-0.07559031 0.1293928 -0.006880573 -0.18063286 -0.010775242 -0.15912238 -0.21821797 0.17871091
0.0134148775 0.004954408 0.11271768 0.03561957 -0.10758147 0.092957854 0.019157896 -0.051915057
-0.02038209 0.07534205 0.030204823 -0.050539747 -0.16496335 -0.046572816 0.16529733 0.0522426
-0.09085158 0.033828896 0.0005052467 0.080733486 -0.08689518 0.019493101 -0.027961489 -0.05896324
0.09899462 0.0063923635 0.018673457 0.08199407 -0.027776448 -0.088820376 -0.077582605 -0.055674594
0.013246137 -0.24347624 0.07784798 0.02325208 -0.072916366 0.039900396 -0.042858686 0.092180945
0.05960124 0.16795923 -0.009416371 -0.028150935 0.019697756 -0.012540774 -0.039926056 0.04269935
-0.12532623 -0.01816012 0.022186672 0.08146469 -0.052150007 0.018388264 0.046061825 0.082454555
0.026876993 -0.004687631 0.016923022 -0.17717479 -0.012375257 0.19422182 0.20303217 0.07897963
-0.036378138 -0.10093947 -0.042449877 0.037534088 0.015212792 -0.02991983 -0.003684033 -0.0016269576
-0.06390166 -0.03186271 0.083862714 -0.0257945 -0.03182789 0.14091133 0.032790706 -0.09154256
-0.13845037 0.10153597 0.034958865 0.08798136 0.06938514 -0.023657726 0.11405762 0.061951537
-0.24058577 0.020488713 -0.08341512 -0.012224778 -0.091822416 -0.08459427 0.07588443 -0.107052304
-0.02936731 -0.08973286 0.14738104 -0.09901818 -0.3172619 -0.11859742 0.08142454 -0.002430224
0.0033022393 0.055709854 0.040509734 0.16323555 -0.06638458 -0.026349269 0.0050853053 0.06172288
0.055911012 -0.09906875 -0.1498753 -0.008086906 0.07316549 -0.07215194 0.10007127 -0.06151782
0.019298034 -0.077836394 0.04788513 0.06711299 -0.0154426815 -0.097689986 0.042842835 -0.117250346
-0.028007858 0.24559353 -0.036646597 0.017665394 -0.023754055 0.07026465 -0.11972543 -0.0431497
-0.11172605 -0.12668377 0.1420756 0.023584982 -0.14505412 0.13902208 -0.16306745 0.006788531
0.1341611 -0.0067297495 0.0505759 0.072971486 -0.037697487 0.12536609 -0.041234862 0.059138004
-0.045580596 -0.031217098 0.1833569 0.019775426 0.12661031 0.10293893 -0.22893119 0.1014455
-0.0698202 0.11297305 0.024944162 0.071627446 -0.00990634 -0.03400715 -0.04272948 -0.06608688
0.02856941 0.109309256 -0.00508142 0.018671865 -0.07726856 0.19018623 0.01538426 -0.06578183
0.15486081 -0.19248116 -0.02186372 0.019640174 0.041588385 -0.0037887155 -0.034612317 -0.031547096
0.13987206 0.14687444 -0.045816004 0.0160354 0.092673555 0.15054376 0.14205278 -0.049700897
-0.12287037 -0.01935887 0.09337016 -0.07544278 0.09230842 0.12410721 -0.03907032 -0.041152667
-0.007615536 -0.099534295 0.0013587979 0.17434481 -0.056883913 -0.037518717 0.049071465 0.104198545

network_body._body_endoder.seq_layers.2.bias f4 [142]
00000000: 86fc cabb e957 8c3c b7d9 f63a 449a e3bb
00000010: 21b0 bbbb 2b5c 54bc fdc5 ef3c 6270 8e3c
00000020: 94d4 133d 3270 053d 39bf 90bc 8c0c 50bc
00000030: aca7 123c e72d 46bc ba8b 5ebb 6443 e23a
00000040: 97d1 383c 32e2 2c3c e74d 4b3c 8b52 ccb9
00000050: 2401 183b b039 743c 3c89 ad3c cfa3 093c
00000060: dac2 013b 5a2f bd3c 04dc 6c3a f1a0 8fbb
00000070: 7366 f23c 3671 753b fc00 a43c 3158 91bc
00000080: 3975 333b 4711 e33c c267 1c3d ee70 99ba
00000090: 63b4 2dbc 79e7 ee3c f09e 323c b181 9f3c
000000a0: 3a2a 873a 3cee 13bd 210a d1b8 9793 073c
000000b0: 0413 74bc 11dd 2d3d 3f26 f63c 8cb5 6c3c
000000c0: 47c4 1abb 89b9 52bc 76a7 823c d3b1 303d
000000d0: 4677 703a a079 f53c dad5 693c 4c5d 423c
000000e0: 38ed 733c 3c6a 613c bd9e 6fbb a86d 843c
000000f0: 000c 333c dd8e 103c 213c 253a 4642 343b
00000100: ef20 ff3a 1e3e 103c 0b16 bfbb 6522 c6ba
00000110: f01a c93c 742f b43c e081 b43c ea2e 973c
00000120: e90d a6bb 48fd 18bc b7c6 263c 8c04 b13b
00000130: a1b9 83bb 48be b93c fa7a e93a 1242 09bc
00000140: 0717 3b3c 07c0 c4bc 3239 41bb f660 dabc
00000150: 05b5 2f3b 0ac4 47bc 42e1 2a3d 138d e33c
00000160: 8401 363c 62af 98b8 e548 6c3c b0ce 213d
00000170: 4121 b23c 4999 133b 3abd 393c ed4e 28bc
00000180: ad3f 273b 4327 9339 2e78 18bb f04c d83c
00000190: 1c58 6d3b ff38 c13c 91af 723c 2575 73bc
000001a0: 5d4d 1d3d 6c3f a43c b691 a33b 56be 313d
000001b0: 7675 d43c 476d f93b 8574 703c 1c6d f83b
000001c0: a068 523b 0e0f 843b be60 543b 3b12 9cbc
000001d0: e0ef 093d 3b38 0b3c 25f3 c13b b218 103d
000001e0: b910 9d3c 4d56 eb3c 32fc a5ba 11fa 5dbb
000001f0: 376e 213c 4f17 1e3c 175d 163d d0c7 aa3c
00000200: bc71 293a 55ac 7f3c c4e8 ba3c 4c9f b23b
00000210: ceef fcbc d653 a43b 9302 bf3c 06bc 6c3c
00000220: 25d3 6c3b e0dd 813b 63c1 9c3c c082 04bd
00000230: b871 d9bc ea64 853c
-0.006194654 0.017131763 0.0018833195 -0.00694588 -0.0057277833 -0.012961428 0.029269213 0.017387573
0.036091402 0.0325777 -0.017669307 -0.012698304 0.008951109 -0.012095905 -0.0033957795 0.0017262516
0.011280439 0.010551976 0.01240871 -0.0003897141 0.002319404 0.014906332 0.021183603 0.008400871
0.0019799978 0.023093868 0.00090354704 -0.0043831994 0.029589867 0.0037451512 0.02002 -0.017742248
0.0027383103 0.0277182 0.03818489 -0.0011706629 -0.01060209 0.02916311 0.010902151 0.019471021
0.0010312267 -0.03611587 -9.967783e-05 0.008274934 -0.014897112 0.042447153 0.030047534 0.014447581
-0.0023615526 -0.012861618 0.015948992 0.043138336 0.00091730466 0.029965222 0.014272178 0.011863064
0.0148881 0.013758238 -0.0036563121 0.01616557 0.010928154 0.008823124 0.00063032104 0.0027505322
0.0019464771 0.008803872 -0.005831485 -0.0015116452 0.024548978 0.021995284 0.022034585 0.018454988
-0.005067576 -0.009337731 0.010179213 0.0054021534 -0.0040199314 0.022673741 0.0017813139 -0.008377569
0.011419064 -0.024017347 -0.0029483554 -0.026657563 0.0026810777 -0.012192735 0.04171873 0.02777723
0.01110876 -7.2805924e-05 0.014421676 0.039503753 0.021744372 0.0022521785 0.011336619 -0.010272724
0.0025520131 0.00028067277 -0.0023264992 0.026403874 0.0036215847 0.023586748 0.014812366 -0.014859472
0.038403857 0.020049773 0.0049917353 0.04339441 0.025934916 0.007611904 0.014676218 0.007581366
0.0032105818 0.004030115 0.0032406296 -0.019051662 0.03367603 0.008497293 0.0059188777 0.0351798
0.019173013 0.028727675 -0.0012663661 -0.0033870975 0.009852937 0.009649112 0.03670987 0.020847231
0.0006463786 0.015605052 0.02281607 0.0054511186 -0.030876067 0.005014877 0.023316657 0.014449125
0.0036136594 0.003963217 0.019135183 -0.032351255 -0.026543483 0.016283471

action_model._discrete_distribution.branches.0.weight f4 [13, 142]
00000000: 35f6 30bc 71de c2bb d556 9cba 75b1 7c3d
00000010: d2b3 863b ce24 c6bb 307f 093d db79 2ebc
00000020: a625 f4bc 98aa 893d d953 44bc 079e 19bd
00000030: 899e 173d 2e82 9ebb 3efa 0dbd 9230 11bd
00000040: 9070 da3b 69e9 9ebd 6cea 0c3d fabf 6dbd
00000050: ea5a e5bd 6fe6 1ebd f504 7d3c a9f2 14bb
00000060: 669c 2ebc dfe0 a3bc 127d c73c 56a8 2cbd
00000070: 2c18 d2bb e3b7 9f3b 3c25 a3bd 5d00 a9bb
00000080: cb75 28bc 98bc 86bc a246 dbbc 6477 0ebc
00000090: 2c87 3ebc d2b9 e0bc 171e 64bc f1c4 ee39
000000a0: e13b 7a3d 3218 c5bc e8f6 85bd 44e5 ac38
000000b0: 8f3c 1bbd 0cec 133b 2990 0abe 0b1c 8dbd
000000c0: af23 45bd ed54 e33c fa5f a6bc 1d22 a73c
000000d0: ec1c d73c 6037 693c 2c3f 06bd 312b d83c
000000e0: ff49 68bd c302 083d 9dac 3c3d 463e b0bc
000000f0: 8af9 14bd 3947 4cbd 68f0 59bd 1ef2 82bd
00000100: 063a dd3c ea92 2a3d 20c0 8abc 4a8a eb3b
00000110: 9718 92bc d4f1 72bb bf11 013d 2411 dbbb
00000120: cc89 83bd 721e eabd c660 8dbc 3f22 81bd
00000130: 2281 c3ba 5011 56bd b710 ce3c 1bbf 8dbc
00000140: 4aab b5bc 7e09 0abc 5b0e 913b ce21 1f3c
00000150: bd2b bc3c c6d1 18bc d0da 9abc f365 1f3c
00000160: be77 0b3d 8f93 943c f919 8b3b 3a05 fd3c
00000170: f24e 813d c229 5bbd 0bf4 7bba 87e9 0f3d
00000180: e239 7dba 4247 193d 947e 6abd 980f 653d
00000190: 5f93 dfbc 37fc 2abd 3b0c 54bd 6a49 f03b
000001a0: 4dad dbbc 78c4 33bd 6628 433d 6beb 413c
000001b0: adb5 32bc 396d ff3c 5918 6a3d ab5c 08bd
000001c0: c678 ef3b 43a1 24bd c772 c0bc f697 0bbe
000001d0: 329b 4abc f3ee f1bb c100 2ebd 49a1 30bb
000001e0: 488c a6bc 0701 d23c 3417 813c 6653 90bd
000001f0: b9e0 803c b7fb 3a3d e08d 773d bd01 913c
00000200: fded 03bd bea9 86bd e898 77bd 50db bc3c
00000210: afe1 4cbd 82db bebd 16e2 bf3c 12a9 14bd
00000220: ee7a 8abc 1d28 d93c 84aa 9f3c 3426 1d3b
00000230: b177 ed3b 8bb7 fd3b 221a 30bd c11f 2a3d
00000240: 110c 92bc 078d e5bb 1b98 e83b 400f 6fbc
00000250: 9c97 e23c 928a a0bd cf07 eebc b19b 82bd
00000260: 5827 d13c 528e 0abd 7772 513c ff46 e33b
00000270: a2f1 bf3c 61bd 1dbc 8105 c33c 9a86 523c
00000280: cb41 28bd 3bd6 f6bc 6600 1abd 6e25 063d
00000290: 569e 91bd 3f9d 01bd a686 bebc a7d3 4dbb
000002a0: 4424 76bc 57d0 c3bb 283e 2abd cf48 e93c
000002b0: 271f 63bd a4eb 47bd 79ed df3c 9948 6ebc
000002c0: 4ecc 4abc 4ea3 4d3b d531 f93c cbea 6fbd
000002d0: f6dd 663d 674d e2bc 5f2e 0dbc 6c7b 5b3d
000002e0: afcb 84bc d4b6 203c cfbd 85bd f553 98bd
000002f0: 3c3c 0dbe 4116 323d 8347 783d 5586 2dbd
00000300: 18d4 e3bd 76ea 1ebc fedd b23b 76dc 893c
00000310: aec4 87bc b624 3dbd 3900 32bd 76fc 99bc
00000320: 909e edbb 9e1e 6cbc d238 bb39 5f1f 1fbd
00000330: 0cbe 3abc c2c2 33bd 5ad4 4c3a e7f4 72bd
00000340: 7176 3fbd caeb eb3c d3b1 51bc a864 96bd
00000350: 4dbe c23c 0b43 94bd 9ab7 d0bc 5cbc 63bc
00000360: 3549 373a cada 713c 2980 3b3b 00cf 143d
00000370: eed5 8b3d 2213 a2bc 8556 333d 24f1 853d
00000380: e06c 22bc 6f7f 8c3b b4d2 493d c5c6 8a3d
00000390: c125 fc3c b36c 53bd 54ab 1dbd a45b 03bd
000003a0: ffe2 8e3c 0b33 e8ba 8d7f 2ebc f60b 0abd
000003b0: 1ec0 5e3b aedc 34bc 8bde e73b 7f95 18bc
000003c0: 6bef 443d 9b17 21bd 29f3 80bd 3f48 893c
000003d0: e19b 8abc 1e28 1e3d deca 57bd b3ef d03c
000003e0: cde8 bfbd d8ea 0abd e368 c0bd c892 debc
000003f0: 35cb d5bc 76b3 a13b 4f4f 0fbd 69fe ef3c
-0.010800888 -0.0059469272 -0.0011927733 0.061692674 0.0041107917 -0.006046868 0.03356856 -0.01064917
-0.029803108 0.06721991 -0.011982881 -0.037504222 0.037016425 -0.004837296 -0.034662478 -0.03544671
0.0066662505 -0.07759363 0.03440325 -0.05804441 -0.11198981 -0.038793977 0.015443076 -0.0022727645
-0.0106574055 -0.020004688 0.02435163 -0.042152725 -0.006411573 0.004874216 -0.07966086 -0.005157514
-0.01028199 -0.01644735 -0.026767079 -0.008695457 -0.011628907 -0.027432356 -0.01392319 0.0004554163
0.06109226 -0.024059389 -0.06541234 8.244303e-05 -0.03789955 0.0022571115 -0.13531555 -0.068901144
-0.048129734 0.027750457 -0.020309437 0.020402009 0.026258908 0.014234394 -0.03277509 0.026387783
-0.056711193 0.03320576 0.046063054 -0.02151407 -0.03637079 -0.04987261 -0.053207785 -0.063938364
0.027005207 0.041644014 -0.016937315 0.007188116 -0.017833991 -0.003707041 0.031511065 -0.006685393
-0.06422767 -0.11431588 -0.01725806 -0.0630536 -0.0014915804 -0.052262604 0.025154455 -0.01730304
-0.022176404 -0.008425115 0.00442676 0.0097126495 0.022970075 -0.009327358 -0.018903166 0.009728896
0.034049742 0.018136768 0.0042450395 0.030886281 0.06313886 -0.05350662 -0.00096112554 0.03513482
-0.00096598093 0.037421472 -0.05724962 0.055923074 -0.027291952 -0.041744437 -0.051769476 0.0073329704
-0.026816035 -0.04388854 0.04764595 0.011835913 -0.010907573 0.031180011 0.057152126 -0.0332915
0.0073080985 -0.040192854 -0.02349223 -0.13632187 -0.012366103 -0.0073832213 -0.042481188 -0.0026951602
-0.020330563 0.025635256 0.015758134 -0.07047157 0.015732156 0.04565021 0.060438037 0.017701024
-0.032209385 -0.065753445 -0.060448557 0.023053795 -0.050019916 -0.093192115 0.023423236 -0.03629405
-0.01690432 0.026508385 0.019490488 0.002397907 0.0072469343 0.0077428273 -0.042993672 0.04153419
-0.01782802 -0.007005337 0.0070982105 -0.014591038 0.027660184 -0.0783893 -0.029056458 -0.06377352
0.025531456 -0.033827133 0.012783638 0.0069359536 0.02343065 -0.009627671 0.023806335 0.012849474
-0.04107837 -0.03013145 -0.037598036 0.03275054 -0.07110278 -0.031644102 -0.023257565 -0.0031406672
-0.015023295 -0.005975764 -0.041563183 0.0284771 -0.05544963 -0.04880871 0.027334915 -0.014543676
-0.012377812 0.0031377855 0.03041927 -0.058573525 0.056364022 -0.027624799 -0.008617013 0.0535845
-0.016210405 0.009809215 -0.06530344 -0.074378885 -0.13792509 0.043478254 0.060615074 -0.042364437
-0.11124438 -0.0096994545 0.0054585924 0.016828757 -0.016573276 -0.04617759 -0.043457244 -0.01879714
-0.007251568 -0.014411597 0.00035709754 -0.038848277 -0.01139785 -0.043886907 0.0007813625 -0.05931559
-0.046743814 0.028798956 -0.012798744 -0.073434174 0.023772383 -0.0723935 -0.025478173 -0.013899889
0.00069918047 0.014761636 0.0028610325 0.036330223 0.06827913 -0.019784514 0.043783683 0.065401345
-0.009913653 0.004287652 0.049273208 0.067761935 0.030779721 -0.051617336 -0.03849347 -0.032069817
0.017442225 -0.0017715407 -0.010650528 -0.033702813 0.0033989022 -0.011038942 0.0070760897 -0.009312986
0.04807989 -0.039329153 -0.06296379 0.016758082 -0.016920032 0.038612477 -0.052683704 0.025504922
-0.09370575 -0.03391537 -0.093950056 -0.0271696 -0.026097873 0.0049347235 -0.034987744 0.029296117

action_model._discrete_distribution.branches.0.bias f4 [13]
00000000: 1b75 40bc cebe 0bbd 2989 06bc 59a9 6cbc
00000010: 90b9 5bbd 3683 113d 0b83 b03c bd54 a23c
00000020: 3050 423a 7add e5bb 0ec9 5c3d eedf 8d3c
00000030: 847a d53c
-0.01174667 -0.034117512 -0.0082114125 -0.0144446725 -0.053643763 0.035525523 0.021546861 0.019815797
0.00074124616 -0.0070149275 0.05390268 0.017318692 0.026059397

action_model._discrete_distribution.branches.1.weight f4 [13, 142]
00000000: b640 c13d 71db 2d3d b0b6 2abd b700 33bd
00000010: 639f 75bd 780b 083c be46 c13c d8d0 5abc
00000020: 9cdd a9bd 0182 003e bd46 173d d25e 86bc
00000030: c33a 0cbc e666 843b 70dc d2bd 7ed9 a23c
00000040: 4fb1 9dbd 05ca 8a3c f7ad f3b9 de86 87bc
00000050: fcd1 2d3d 3dcd 31bd 7cf4 533a 1f06 2dbd
00000060: 8a86 a13c a230 f5bc d5a6 973b 52ec d23c
00000070: bc2b 503d 23f1 063d f1c0 d2bd b837 3e3c
00000080: 5a21 823b fa6b d5bc 534f 71bb ccc9 993d
00000090: f1ac db3c 9227 01bd a22f 383d 8687 15bd
000000a0: 9b7a f8bc c594 203d 9b23 033c 609d 18bc
000000b0: 7909 8a3c b1d6 1f3b b04d 78bc 6c7c 7cbd
000000c0: 0234 00bd 3f4f 793c 05a6 a8bd 1d52 3d3d
000000d0: 7541 43bd 1b9e f43b ccdc f6bc e5d4 02bd
000000e0: f137 593d 2f10 9f3d 3e51 10bc 85e1 6bbd
000000f0: 2c63 81bd 3990 71bd d3bd e9bc b828 8e3c
00000100: 1436 b73c cafb 20bd 4bc0 72bc 53e9 0abd
00000110: df27 403d 3503 193d 3e0a 0c3c 8f8f 2f3d
00000120: e4b0 973d 66aa b2bd 4a4a 96bd 2935 81bb
00000130: a09a a4bc 6b90 9c3c 9ca8 563c 0366 be3c
00000140: 3564 21bd f9d2 3e3d a3a7 ddbc d17f 9dbc
00000150: 9b5c 1a3c abb2 57bd 7733 80bd 0604 1dbd
00000160: 2bfc 533d e0e4 49bd fb4b 37bd 0749 55bc
00000170: 1177 683c 0a17 0a3d c275 973c f301 a9bd
00000180: f245 93bc 34ea 403d 55f8 f23c d195 2a3b
00000190: a494 863d 584c bcbd 6605 bf3d 52df fd3c
000001a0: f09e 2c3c a12c f33c c024 063d 2d17 ac3d
000001b0: 1e8d e7bc 8f61 d83c d3ec be3b 2b9e 18bd
000001c0: 03a9 0a3d f0ad 17bc 3b7a 803c daf2 58bd
000001d0: 67e4 44bd f3dc 40bc 7d40 963c 2214 15bc
000001e0: a484 02bd 7618 ae3d fde3 ad3d 2b7d e23c
000001f0: 630b c9bc 6bd0 9bbd 4f06 b93d 4304 f0bc
00000200: 5ccf b63c e767 b8bc 877a 54bd 39da 493b
00000210: af23 59bd 52b1 34bd e6b6 6e3c 252b babc
00000220: f6a5 a7bb db4e 063d 11b9 113d b2e7 6a3d
00000230: 52fe 44bc 56a4 083d 4d06 5d3c 6004 a23c
00000240: 6002 b43d 605e 913d 92cd 373d 2f0b 7e3d
00000250: b0f3 ff3c 9560 34bc 08e9 303d df74 4c3c
00000260: d2c5 8b3c 79ba e43c b690 143d 8208 aa3d
00000270: 6417 463d 8be0 603d c759 8d3c 8f3b 32bc
00000280: 7e65 f13c bd15 4a3d 7222 e8bc cd72 9e3c
00000290: 45a8 873d 4547 8a3d 51ed 593d 2fcf 803b
000002a0: da1c d93d 3654 b63d 9bdb 763c 5bb4 813d
000002b0: 9631 6a3d 5656 a23d 5dca dbbc d361 883d
000002c0: 9c24 ca3c 89ca 893c d198 84bb a636 a53c
000002d0: 3a02 71bc 9f06 80bc b0f3 bbbc da47 093d
000002e0: 1fe7 73bc c80d 79bc 8441 c43d 6193 413b
000002f0: 388c bcbc 904f d53d e06f 983d 49e5 9e3d
00000300: b182 573b 59b3 6e3d f864 7b3d bec5 c23a
00000310: 92c3 543d a308 553d 8baf 0abd e28b 4d3d
00000320: 93d7 e93d 1f23 ecbc beda be3d 74c5 f83d
00000330: ed9e ca3d 413f b63d 47d9 0ebc eeea 5b3d
00000340: b41d 2c3d 8375 94bb 0346 d13c 6e5a 7d3d
00000350: c3b2 87bd 7ee1 80bd 4415 713c 9e2e 1d3c
00000360: 98b6 0d3b 23f5 bbbd 95d0 2e3d cf14 4abd
00000370: 4fbd 9abb 2531 23bc b12d 3b3d efbb b93c
00000380: b419 4a3c 7cf1 3a3d 21b7 353d dcf8 84bd
00000390: 3d4c 3f3d c096 723c e112 38bd dd2c 7a3d
000003a0: 25c8 dfba da75 e6bc 8641 b73c 5e98 713d
000003b0: e768 893d 4507 b63d 987f 713d dca4 fdbc
000003c0: fe8a 0e3d e988 13bc 6656 173c 4b9f 9c3d
000003d0: 4559 4c3c ace9 8f3d f7c2 45bb 54b9 3f3d
000003e0: 38eb bd3d ed57 e6bb 691a b6bd 9a66 e33d
000003f0: b5e4 e93c 1f19 adbc 0cab 8d3d d18f 22bd
0.09436171 0.042445604 -0.04167813 -0.043701854 -0.059966456 0.008303516 0.023593303 -0.013355456
-0.08294222 0.12549593 0.036932696 -0.016402636 -0.008558932 0.0040405868 -0.10295951 0.019879099
-0.076998346 0.016942034 -0.00046478186 -0.016543802 0.042436585 -0.04340862 0.0008085442 -0.042242166
0.019717474 -0.029930416 0.004628042 0.025747452 0.05082296 0.03294481 -0.10290707 0.011609964
0.003971261 -0.026052464 -0.0036820963 0.07509193 0.026815863 -0.031531878 0.0449673 -0.0365062
-0.0303319 0.039204378 0.0080040945 -0.009314865 0.01685022 0.002438944 -0.015155241 -0.061642095
-0.0312996 0.015216648 -0.08234791 0.046220887 -0.047669847 0.0074651367 -0.030134581 -0.031941313
0.053031866 0.07766759 -0.008808432 -0.05758812 -0.06317744 -0.058975432 -0.028532898 0.0173534
0.022364654 -0.039302625 -0.014816354 -0.03391392 0.046913024 0.037356574 0.008547364 0.042861518
0.07406786 -0.08723907 -0.07338388 -0.0039431048 -0.020093262 0.019111833 0.013101723 0.023242002
-0.039402205 0.046587918 -0.027057474 -0.019225987 0.009421493 -0.052660625 -0.06259816 -0.038333915
0.051754158 -0.049290538 -0.044750195 -0.013017899 0.014188544 0.033713378 0.018488768 -0.08252325
-0.017977688 0.047098354 0.02965943 0.002602924 0.0657132 -0.09194249 0.093272015 0.030990276
0.0105359405 0.029684367 0.03274989 0.08402858 -0.028265532 0.026413707 0.0058265715 -0.037260216
0.03385259 -0.0092577785 0.015683284 -0.052965976 -0.048069384 -0.011771428 0.018341297 -0.009099038
-0.031864777 0.08500759 0.08490751 0.027647575 -0.024541562 -0.07608112 0.090344064 -0.029298907
0.022315674 -0.022510482 -0.051874664 0.0030800237 -0.053012546 -0.04411442 0.014569974 -0.022725651
-0.0051162196 0.032790046 0.035576884 0.057349868 -0.012023525 0.033359848 0.013490272 0.019777477
0.087895155 0.07098079 0.04487378 0.062022384 0.031244129 -0.011009355 0.043190986 0.012479036
0.017062102 0.027920948 0.03627082 0.08302404 0.04836215 0.05490164 0.017254723 -0.010878458
0.02946734 0.049337137 -0.028336737 0.01934185 0.06623892 0.06751875 0.05320484 0.003930948
0.10601206 0.08902781 0.015067006 0.06333228 0.057176195 0.079266235 -0.026829893 0.066592835
0.02467566 0.01682021 -0.0040465374 0.02016766 -0.0147100035 -0.015628157 -0.022943348 0.03351579
-0.0148866465 -0.01520104 0.095828086 0.0029537308 -0.02301608 0.10415566 0.074432135 0.077585764
0.0032884295 0.058276508 0.06137559 0.0014859957 0.051944323 0.05201019 -0.033858817 0.05018223
0.11418071 -0.02882534 0.093190655 0.12147036 0.09893594 0.088987835 -0.008718795 0.053690843
0.042020515 -0.00453061 0.02554608 0.06185382 -0.06625893 -0.06293009 0.014714543 0.009593634
0.0021623727 -0.091776155 0.042679388 -0.04933625 -0.0047222744 -0.009960447 0.04569787 0.022672622
0.01233523 0.045640454 0.0443641 -0.06492779 0.046703566 0.014806449 -0.04493988 0.06107794
-0.0017073198 -0.028132368 0.022370111 0.0589832 0.06709462 0.08888105 0.058959574 -0.0309624
0.034800522 -0.00900481 0.009236908 0.0764757 0.012472455 0.07026991 -0.0030176023 0.046807602
0.0927338 -0.0070295245 -0.08891756 0.11103554 0.028551439 -0.021130143 0.0691739 -0.039687935

action_model._discrete_distribution.branches.1.bias f4 [13]
00000000: 537c 4b3d 909c d83c 5e74 39bc 0fc4 80bc
00000010: ef6f 4abd 7d25 493d 3312 523d be2f 1abc
00000020: 10fa 4fbd d196 a13b c01f 47bd 4dab 3c3d
00000030: c4e4 bdbc
0.04967911 0.026441842 -0.011319248 -0.015718488 -0.049423154 0.049108017 0.051286887 -0.009410797
-0.050775588 0.004931309 -0.048614264 0.046061803 -0.023180373

action_model._discrete_distribution.branches.2.weight f4 [13, 142]
00000000: 9ffc 623d a7c8 a1bc 8449 6bbd 8242 a13c
00000010: 96e6 c93a 88ce 90bd f872 8fbd 4e69 cc3d
00000020: c7d8 1d3d 897b c3bd e519 9cbd 227f a23d
00000030: 664a a33c 8d9a 25bd f441 c8bd 1438 d73b
00000040: f79e 4cbc ef22 8ebd d6de b7bd 21f6 3abc
00000050: 3927 30ba fa6b af3c 7c56 dc3c 9824 783c
00000060: c73d 0f3d c5c6 b0bc a858 e8bc 2437 563d
00000070: 22e2 ea3a 49e4 93bd 1597 e5bd f338 29bd
00000080: ebf6 f73c 56c2 02bd e804 933c d6fe 64bd
00000090: 8bf5 da3b ecdc 4ebd 589b c73c 4e35 d9bb
000000a0: 0924 9c3a 5961 233c aac7 653d cd8b 16bd
000000b0: f2e3 86bd 9b10 633d 0a42 ca3c 6221 eabd
000000c0: 4659 14bd ef16 6ebd 1a8e 0fbe dac7 f93b
000000d0: 56ff 85bd 0065 5e3d c889 1dbd ef42 6bbd
000000e0: 1429 95bb caf1 173d af92 f9bc 9ec6 be3c
000000f0: 1410 2fbd dd25 0bbd fef7 fc3c 5e06 77bc
00000100: 60b2 383d 085e b6bd 3e99 c2bd 2019 80bc
00000110: 0529 9dbd be79 a4bb 8dc6 093c e4ec 4dbc
00000120: 23e7 f9bd cb6a a7bd 9dc3 c4bd 1f84 883d
00000130: a370 83bd 8835 0d3d df2e 34bd 2e34 ebbc
00000140: 2403 97bd 1c5a 3a3d 78da bdbd a8e0 873b
00000150: c943 d9bd d6b6 633d 894c 9abd b720 e2bd
00000160: 1772 92bc ca9e 0f3d 96a6 4e3b ccc7 e63b
00000170: bacf 17bd f95c 653b 7331 febd 112d a5bd
00000180: a845 4bba a8f8 383d 1dff 923d 83f9 2fbd
00000190: b6f9 5d3d 4812 38bd 8008 53bd efb1 e93c
000001a0: 0555 c3bc 5a13 6a3d 5b51 2fbd 51d7 5e3c
000001b0: 5890 263c b9f8 3d3d 0824 37bc ab6d 863a
000001c0: c758 1a3b 3e30 823d 9ed7 243c 6c38 983c
000001d0: ee33 70bd 62e5 f8bc 05b0 3d3d 39f9 903d
000001e0: a6fb c4bd 6abe 59bd ffa3 28bd d9f5 edbd
000001f0: 4e7b 4e3d 81d6 693b 537c 80bd 16eb 28bb
00000200: 1ef3 37bc 9883 81bc 6e62 ee3c 281c 9fbd
00000210: 4165 aabd 59d7 8cbd 7d08 bdbb fed4 30bd
00000220: 415b e6bd 80cc 9b39 d691 2b3c 3876 a0ba
00000230: 9d95 513b 4d22 413d 2a60 fabb 5fdd 74bd
00000240: b75c dc3c 22ff 9fbc 196d 9e3d 4d98 80bd
00000250: ce26 8fbd 4cb3 45bc 40db 90bc aabd bc3d
00000260: 7ee6 373d eb82 0f3d f70a 193d 0b04 abbc
00000270: d7d1 183d 1752 5cbc bdf3 5f3c 2e84 d63d
00000280: 8b82 6c3d 2895 76bd 96ce a9bd 2f4a 6e3c
00000290: cc96 3cbd 73e4 983d 8d70 e6bc a864 4b3d
000002a0: 885b 58bd 6a39 67bb 859b 3bbd 31a6 fbbc
000002b0: 4b62 14bd be10 123d a4e8 b43d 26c6 203d
000002c0: c5ef 2dbd bea5 f4bc 4707 933d 59bd 17bd
000002d0: 24e8 07ba 61fd 9bbc c938 723d 0a7a 88bc
000002e0: ecf0 edbc 42ac 7b3d ba8f a6bc 0719 2abd
000002f0: acf0 c1bd 6630 233b 81c9 34bc a8ef 18bd
00000300: b420 ab3d 034c 46bd 94c0 3bbc a60c 6b3d
00000310: 2f22 03bd 2c7d 6d3c 8345 0c3d 1fc6 8d3c
00000320: cc38 75bd 7765 eb3d 5f72 69bc a709 1bbd
00000330: 6764 16bd 1582 c0bd 0d85 89bb 6d36 0fbc
00000340: 73dc 3dbd 8ebf 413d e1d1 833c a648 e1bb
00000350: 5e66 053d 9a74 28bd 87d6 143c 212c 86bd
00000360: ba34 a039 3f53 623c 6d31 0fbc a1fe 39bd
00000370: 5bf0 423d f23c 903a a994 33bd 974c 453c
00000380: d091 7ebc 77cf 8ebc aa77 233d 337f 673d
00000390: c135 e93c 25de cb39 ae53 40bd c69f 7ebb
000003a0: 624f 063d a4c6 39bd 7aea 203c 1c72 a03c
000003b0: 2e79 74bc ba77 b33a 0e17 ecbb c4f1 50ba
000003c0: afdf e8bd ad26 c53d 7459 40bd 1eda 58bd
000003d0: 1e08 b93c d3ca 93bd e082 ce3c 3ba5 dd3c
000003e0: afa9 bcbc 14b9 a9bc d525 583c bfaf cdbd
000003f0: dc34 e93c 1661 6abd 242f 1f3d 056f 333c
0.0554167 -0.019748999 -0.057443157 0.019685034 0.0015403803 -0.07070643 -0.070043504 0.09981023
0.038536813 -0.09545047 -0.076221265 0.07934405 0.019932937 -0.040430594 -0.097782046 0.0065679643
-0.012489072 -0.06940257 -0.089780495 -0.011411221 -0.0006719712 0.021413792 0.026896708 0.015145443
0.034971025 -0.021579156 -0.028362587 0.05229868 0.0017920176 -0.07221276 -0.11210457 -0.041314077
0.030269107 -0.031923614 0.017946675 -0.055907093 0.006682103 -0.050503656 0.024366066 -0.006628669
0.0011912595 0.00997194 0.056098618 -0.03675442 -0.06586446 0.055435758 0.024689693 -0.114321485
-0.03621795 -0.05812734 -0.14019051 0.007622701 -0.06542842 0.05429554 -0.038461477 -0.05743688
-0.004552016 0.037095822 -0.030465452 0.023288067 -0.042739943 -0.033971656 0.03087997 -0.015077202
0.045091987 -0.08904654 -0.09501885 -0.01563698 -0.076738395 -0.0050193956 0.008409155 -0.012568686
-0.12202289 -0.08174666 -0.09607623 0.06665825 -0.06417968 0.03447488 -0.043990012 -0.028711405
-0.07373646 0.04549609 -0.09270185 0.004146654 -0.10608632 0.055594288 -0.07534129 -0.11041396
-0.017876668 0.035063542 0.0031532398 0.0070428606 -0.037063338 0.0034998043 -0.124117754 -0.08065236
-0.0007754215 0.045159012 0.07177565 -0.042962562 0.05419322 -0.04493931 -0.051521778 0.028527228
-0.023844251 0.05714736 -0.042802196 0.01360114 0.01016625 0.04637978 -0.011178024 0.0010256072
0.002355145 0.06356858 0.010061173 0.018581592 -0.058643274 -0.030382816 0.046310443 0.070787854
-0.09618311 -0.05316011 -0.041172024 -0.11619157 0.05041056 0.0035680833 -0.06273713 -0.0025774888
-0.011227397 -0.01580982 0.02909967 -0.07769042 -0.08320094 -0.06877012 -0.005768834 -0.043171875
-0.11247874 0.00029716268 0.010471782 -0.0012242263 0.0031980046 0.047151852 -0.007640858 -0.05978143
0.026899679 -0.019530836 0.077356525 -0.06279049 -0.06989823 -0.0120666735 -0.017682672 0.09215863
0.04489755 0.035036962 0.037363973 -0.020875951 0.037309494 -0.013447306 0.013668952 0.1047443
0.057741683 -0.06020084 -0.08291356 0.014544054 -0.04604225 0.07465448 -0.02812984 0.04965654
-0.052821666 -0.0035282024 -0.04580261 -0.030718895 -0.036226552 0.035660498 0.08833435 0.03925147
-0.04246499 -0.029864188 0.071791224 -0.03704581 -0.0005184433 -0.019041719 0.059136186 -0.016659755
-0.029045545 0.061443575 -0.020332206 -0.041527774 -0.09469733 0.0024900674 -0.01103437 -0.03733793
0.08355847 -0.048412334 -0.011459488 0.05738511 -0.032015022 0.014495175 0.03424598 0.017306386
-0.05986862 0.11493962 -0.01424846 -0.037851002 -0.036716845 -0.09399811 -0.004196769 -0.008741003
-0.046352815 0.04730182 0.016091289 -0.0068751154 0.032568328 -0.041126825 0.00908435 -0.06551386
0.00030556862 0.013813793 -0.008739811 -0.04540885 0.047592502 0.0011004491 -0.043842945 0.012042186
-0.015537694 -0.017432911 0.039909042 0.05651779 0.028468015 0.00038884688 -0.046954803 -0.0038852557
0.03279055 -0.045355454 0.009821529 0.019585662 -0.01492147 0.0013692298 -0.007204897 -0.0007970596
-0.11370789 0.096265174 -0.04696031 -0.052942388 0.022586878 -0.0721642 0.02520889 0.027056327
-0.02303013 -0.020718135 0.013192614 -0.100432865 0.028467588 -0.057221495 0.038863316 0.010951762

action_model._discrete_distribution.branches.2.bias f4 [13]
00000000: 345f 063c 6e40 dcbb fb23 0d3d 95e5 67bc
00000010: 8805 423c da7b c0bc feed 23bd a749 083d
00000020: 74fb 46bd 6753 673d 2358 263c 3426 183c
00000030: c0eb 2f3b
0.008201409 -0.006721548 0.03445814 -0.014153858 0.011842139 -0.023496557 -0.04002189 0.033273365
-0.048579648 0.056476023 0.010152849 0.009286452 0.0026843399

action_model._discrete_distribution.branches.3.weight f4 [13, 142]
00000000: 1ffe f6ba df04 433d 0c58 8dbd 9fef 573c
00000010: 8252 52bc f6ff babc c73a 8d3c fa23 c7bc
00000020: 38c2 043e 537a 563d 8007 02bc 8463 37bd
00000030: 5b85 7f3c 957e 2cbd 4cd9 773d e083 6e3d
00000040: 182e ccbc 1f67 453b e678 20bd 8aa9 093c
00000050: a74b 243d 9229 72bd f57d a63c dea8 813d
00000060: 045c 70bd ba1f c43c c072 ac3c de1a 47bc
00000070: c06b e0bc a4c7 2e3d 5c39 38bc 2b00 00bd
00000080: 9612 5cbd bd12 00bd e023 5d3d 7d39 7a3b
00000090: a9b6 0ebd eba6 1d3d 8d63 22be 73b6 15bd
000000a0: 6aa4 45bc ea67 9ebd a0b2 44bc ef87 7f3c
000000b0: 9f20 a8bc d9d2 c7bc a1d0 8b3d 3832 243b
000000c0: dcc2 6f3d f462 65bc 6ec9 9dbd de9f 3e3c
000000d0: 4baa 85bd 96e6 90bc 1d5c b73d 8cab ba3c
000000e0: 285b 3abd 24d9 b0bd 9dcb cd3c ad6b 083d
000000f0: 1bb5 fd3c d452 79bd 0ffc 51bd 2b92 91bc
00000100: 2792 f9bc f4de 34bd 3649 f1bc 56d9 1d3d
00000110: 9697 27bd 88c2 4bbc b11c 743d e5f4 feba
00000120: 8e11 e3bc fdd7 923d 1070 dd3c 9121 8b3d
00000130: e295 7fbd f5e9 68bc 5d73 a03c d4ac f33c
00000140: 70d0 28bd e7d8 503d 0a20 25bd 51d8 65ba
00000150: dd19 fbbb 8ff2 383c c202 523d 4b1a 88bc
00000160: fb98 4cbd d736 27ba b8ce 393d 8026 a6bc
00000170: 63c5 c13d 8fe7 62bb 2839 2c3d 352e 5d3d
00000180: 7a86 65bc 345a 1b3c 6a8d 343a 20c7 2fbd
00000190: 3192 bebc 306e 473c b7c0 6e3c ecb6 a83c
000001a0: e2dd 553d c18b f2bc 79df 27bd fdfd ab3d
000001b0: 7f10 8cbc c6c5 80bc 4086 8e3c fd31 033e
000001c0: beb0 763d d605 ddbd 0c1d 07bd e203 86bd
000001d0: 0992 b33c 1096 5a3b 64cb 76bc be14 52bd
000001e0: 720f f2bb 0d2d 1b3d 4215 c2bc 9d9a 4c3a
000001f0: eab0 a4bd 5ecd edbc 6939 8f3d f73d 30bb
00000200: 5a16 f7bc f85d c43a 2f41 7bbc f7cf 4bbd
00000210: 685d d3bc ce08 3d3c 8aac a1bc 0c95 7dbc
00000220: 5652 a4bc a6ba 5b3c 865d 143d fba2 2abd
00000230: f83d 9e3c 20e2 7abd 175e 523d bde2 82bc
00000240: bc86 58bd ec5b e6bb 6c8a ae3b b0e1 363d
00000250: ea28 d83c c06f d53b c9df 80bc 3f4a d9bc
00000260: cc56 ccbd e5be 02bd 0891 efbb 61d8 cbbc
00000270: 824e 183d 4637 963d 2c03 b1bb 0b29 063b
00000280: e17d 2bbd c94e 533d 777a 4cbc 5604 6cbc
00000290: 54a4 403d 42a1 e33b df4e da3d b973 bc3d
000002a0: 770b f83c 91a7 fb3d 11c8 833d 8408 cf3b
000002b0: ccf2 9b3d 4832 8dbc db1b e43c b8ad 97bd
000002c0: 9a11 14bd 3cf0 8f3d 37fe 5cbd 70dd f7bc
000002d0: 99e1 00bd 3957 a13d 2290 503d d66e d73b
000002e0: 92b2 6cbd bb6f 7d3c 7d48 dbbc af90 43bc
000002f0: b2d2 6fbd cddc 47bd 6360 0fbd b2cf bc3c
00000300: 6043 d7bc e27a 7d3d 26c8 343d da3e 513d
00000310: c838 9bbd 8286 3e3b e77a f73d 28da 373d
00000320: fdfa b63a 4c39 01bd f1d8 87bd 9aa5 57bd
00000330: 7b08 66bd 5a1c d0bd 4a7b 3cbc b6f5 23bd
00000340: 3ccc d23c 9ba2 ea3b 2977 5e3d bd2a 113d
00000350: 6077 8ebd 6990 7e3d f862 f93c 3982 fc3b
00000360: 0bc3 97bd d1f3 b13c 8ad0 08bd 705d c03d
00000370: a6c2 b2bd e76e 94bd 48a8 453c 6029 883d
00000380: 28e7 3c3d cb6e 3c3c 78b7 c8bc ce5d 9b3d
00000390: 2f90 8e3d e83f 4bbc 2ccf 23bd 8347 793d
000003a0: 3174 2c3d 74ef 413c cfb7 ed3c bb68 1b3d
000003b0: d1db 0ebc 0680 4b3d 531a 843c cb08 b9bb
000003c0: e1da 5e3c 9fd4 7d3d 7459 a1bc 141e e2bc
000003d0: ca74 8cbd 8aab 3cbb e83a c13c 1902 f23c
000003e0: 3b70 533d ffde 00bd f21a 3cbc 9b3a 183d
000003f0: 022a 55bc 2013 523d 2f21 9ebd 86d7 cc3c
-0.0018844045 0.047612067 -0.06901559 0.013179689 -0.012837054 -0.02282713 0.017239941 -0.024309147
0.12964714 0.05236275 -0.007936358 -0.04477264 0.015595759 -0.042112906 0.060509965 0.058231235
-0.024924323 0.003012128 -0.039177798 0.008402238 0.04011121 -0.059121676 0.020323733 0.06331037
-0.058681503 0.02394091 0.02105081 -0.012152402 -0.02739513 0.04267086 -0.011244144 -0.03125016
-0.053728662 -0.03126787 0.05398929 0.0038181238 -0.034842167 0.038489264 -0.15858288 -0.03655095
-0.012063125 -0.07734664 -0.012005478 0.015596374 -0.020523367 -0.024392532 0.06826902 0.0025054347
0.05853544 -0.014000643 -0.07704435 0.011634795 -0.065266214 -0.017688077 0.08953116 0.022786878
-0.04549709 -0.08635166 0.025121504 0.033305813 0.030970147 -0.060870007 -0.051265772 -0.017769894
-0.030465199 -0.044157937 -0.029453855 0.038537346 -0.040916048 -0.012436517 0.059597675 -0.0019451646
-0.027718332 0.07170103 0.027030975 0.06793512 -0.0623988 -0.014215936 0.01958626 0.029745497
-0.041214406 0.050988104 -0.040313758 -0.00087678904 -0.0076629953 0.011288299 0.05127216 -0.0166141
-0.04995058 -0.0006378716 0.045363158 -0.02028203 0.09461477 -0.0034622883 0.042046696 0.053999145
-0.0140091125 0.009481955 0.00068875274 -0.04291451 -0.023263069 0.012172267 0.014572314 0.020595036
0.052213557 -0.029607655 -0.040984605 0.08398054 -0.01709771 -0.015719306 0.017398 0.12812038
0.06022715 -0.10792129 -0.032986686 -0.06543709 0.02192022 0.0033353604 -0.015063141 -0.051289313
-0.007387095 0.03788476 -0.023691777 0.00078050216 -0.08041556 -0.02902859 0.06993372 -0.0026892403
-0.030162025 0.0014981618 -0.015335365 -0.049758878 -0.025801376 0.011537744 -0.019735593 -0.01547743
-0.020058792 0.0134112 0.036222003 -0.041659337 0.019316658 -0.061250806 0.051359262 -0.015977258
-0.052862868 -0.007030001 0.0053265598 0.044648826 0.026386697 0.006513566 -0.01573171 -0.026524661
-0.09977493 -0.031920332 -0.0073109902 -0.024883451 0.037184246 0.07334761 -0.0054019894 0.002047124
-0.041868094 0.051588807 -0.01248037 -0.014405331 0.047031716 0.0069467137 0.10659575 0.0920176
0.030278904 0.1228782 0.06434644 0.006318154 0.07614669 -0.01723589 0.027845314 -0.07406181
-0.0361496 0.07028243 -0.053953376 -0.030256957 -0.031465147 0.078779645 0.050918706 0.006574492
-0.057787485 0.015468533 -0.026767964 -0.011936351 -0.058550544 -0.048794556 -0.03500403 0.023048256
-0.026277244 0.06188477 0.04413619 0.05108533 -0.075791895 0.0029071872 0.12083989 0.044885784
0.0013960298 -0.031548783 -0.06633175 -0.052648164 -0.05616043 -0.10161658 -0.011504004 -0.04002925
0.025732152 0.0071604974 0.05431286 0.03544115 -0.06956363 0.06214944 0.0304427 0.0077059534
-0.07410248 0.021722706 -0.033402003 0.09392822 -0.087285325 -0.072477154 0.012064047 0.06648517
0.046118885 0.0115010245 -0.024501547 0.07586251 0.069610946 -0.012405373 -0.039992496 0.060859215
0.042102996 0.011836875 0.02901831 0.037941676 -0.0087194005 0.04968264 0.016125834 -0.0056468
0.0136019895 0.06197035 -0.019695975 -0.027602233 -0.06858213 -0.0028788769 0.023587659 0.029542016
0.051620703 -0.031462666 -0.011481034 0.037165266 -0.013010504 0.05128777 -0.07721173 0.025005113

action_model._discrete_distribution.branches.3.bias f4 [13]
00000000: efa3 d3bb 428b 143d 9422 06bd 4ed9 de3c
00000010: 76b9 f6bc cb11 853c e90b e4bc f6f0 0a3d
00000020: acb0 7cbd 7559 063d b150 163d b8a1 4e3d
00000030: 2e1d 93bd
-0.0064587514 0.03626562 -0.03274782 0.027203228 -0.030117732 0.016243836 -0.02783771 0.033921205
-0.061691925 0.032800157 0.036698047 0.050447196 -0.071833
