results/JustWhite2-with-imitation-learning2/WhiteMLAgent.onnx (onnx, 126200 bytes, 15 tensors)

discrete_act_size_vector f4 [1, 5]
8.0 8.0 8.0 8.0 5.0
00000000: 0000 0041 0000 0041 0000 0041 0000 0041
00000010: 0000 a040

network_body._body_endoder.seq_layers.0.weight f4 [128, 64]
0.057535715 -0.12834355 0.13003151 0.19668399 0.23243877 -0.07291307 0.25151008 0.06813969
0.33172014 -0.35354778 0.11490463 0.078591235 -0.19224456 -0.0075750547 0.21119845 -0.47473946
-0.37396118 -0.1976006 -0.2813537 -0.04062587 0.050292958 0.02759959 -0.30929068 -0.19878548
-0.13115636 -0.31338885 -0.1457981 -0.3545877 0.034225557 -0.00022182536 0.20127961 0.10332725
-0.24061266 0.11776759 0.17967403 0.31695223 0.09568723 0.16328609 -0.08982347 -0.11309549
0.25106013 -0.04978123 -0.005895183 -0.07633612 0.40640658 0.37017378 -0.10541942 0.09506775
0.02533702 -0.115008295 -0.2749567 0.0893926 -0.1457119 -0.054804724 -0.3198481 0.16907395
-0.2149191 0.10241077 0.068331614 0.31892487 0.052003086 -0.012717147 -0.07664266 0.19980958
0.012012189 0.25587642 0.06872404 -0.033269066 0.09972385 0.07973021 0.0020600818 -0.24143817
0.31880993 -0.12182586 0.11498861 0.087707356 -0.19468388 -0.08844215 -0.13856412 0.13545483
0.16863394 -0.19349027 0.008414413 -0.0075791967 0.007945187 0.020052448 -0.61032486 0.040973533
0.16021883 0.013042602 0.11390793 0.22329156 0.07357521 -0.15679038 -0.058871146 0.046814144
-0.23627323 0.014320396 -0.23037544 -0.16681725 0.13973941 0.21441546 0.015710955 0.15918967
-0.02043252 0.06014558 0.5035533 0.21637784 0.05297097 0.19550462 0.15034465 0.16099322
-0.22478601 0.09273621 -0.4242843 0.13023986 -0.029469527 -0.21353938 -0.07242207 0.021312345
-0.016084151 -0.055407915 0.033852432 0.2542602 -0.01400432 -0.031034287 -0.18659778 0.0059878556
-0.057866212 -0.036405794 0.059250444 -0.27541494 0.13970211 -0.37968817 0.03521065 -0.012171055
0.1655415 0.21184786 0.18789364 -0.30380765 -0.12397729 -0.08236414 -0.16159275 0.38730323
0.004685652 -0.18286595 0.078852095 0.3279776 -0.119611554 0.011935657 -0.10087 0.1324811
0.04269565 0.01936789 0.2663302 0.32389975 0.22782682 -0.18270881 -0.1221039 0.20146765
-0.09121451 0.20668718 0.23970734 -0.28879607 -0.17467043 -0.17910618 0.18638203 -0.2223212
0.029733706 0.012032377 0.26402518 0.09618044 -0.25977227 -0.018861221 0.2514846 0.036264524
-0.055125747 0.14757442 0.16563416 -0.14970131 -0.20796943 0.25279057 -0.2596199 -0.101733014
0.13298112 -0.28876263 -0.069449894 0.09479924 0.22981915 0.04010962 0.29136 0.13536967
0.11280029 0.041531272 -0.17805654 -0.0810728 0.08359728 -0.009218252 0.1113276 -0.0024341992
0.3539301 0.21201558 0.12268589 -0.024902416 0.04249349 0.43151245 0.041636173 -0.30252364
-0.0892971 -0.2981018 0.12381931 -0.08893727 -0.0453632 0.1489091 -0.22677025 0.116555184
-0.006310302 -0.015353857 -0.13802509 -0.07825827 0.020176867 0.24720457 -0.050954845 0.17839696
0.24424756 -0.13222219 0.21265437 0.06152219 0.057656378 -0.14089176 -0.13672705 0.09710698
-0.11340417 0.052049417 -0.30837023 -0.00039850618 -0.056261882 0.11804228 -0.12122589 -0.112168625
0.10763482 -0.006963326 0.00969377 -0.11995692 -0.34374648 -0.05609076 -0.1711212 -0.12428784
-0.022830913 -0.06488077 0.053636488 0.30243963 -0.019988857 -0.16808778 -0.3452364 0.03776348
00000000: 92aa 6b3d 7e6c 03be fb26 053e 8767 493e
00000010: 6e04 6e3e 7353 95bd eec5 803e d28c 8b3d
00000020: 39d7 a93e 3704 b5be 1e53 eb3d 71f4 a03d
00000030: c2db 44be 2a38 f8bb 6844 583e 0d11 f3be
00000040: d777 bfbe d057 4abe 980d 90be 5067 26bd
00000050: fdff 4d3d 8918 e23c 595b 9ebe 6c8e 4bbe
00000060: da4d 06be 8174 a0be 194c 15be 858c b5be
00000070: 1930 0c3d cb99 68b9 3e1c 4e3e 3d9d d33d
00000080: 2a63 76be 2230 f13d 78fc 373e 9047 a23e
00000090: abf7 c33d 7834 273e 5ef5 b7bd 9c9e e7bd
000000a0: f48a 803e 67e7 4bbd 612c c1bb 1d56 9cbd
000000b0: 8614 d03e 6b87 bd3e 23e6 d7bd e1b2 c23d
000000c0: 958f cf3c 7889 ebbd 20c7 8cbe 7813 b73d
000000d0: 8035 15be eb7a 60bd 21c3 a3be b921 2d3e
000000e0: c113 5cbe bdbc d13d 72f1 8b3d 1f4a a33e
000000f0: 3001 553d 955b 50bc d4f6 9cbd e29a 4c3e
00000100: c6ce 443c 3c02 833e 31bf 8c3d 2545 08bd
00000110: 053c cc3d 9849 a33d 7002 073b 913b 77be
00000120: 0e3b a33e d67f f9bd 267f eb3d ea9f b33d
00000130: 365b 47be 2821 b5bd c1e3 0dbe acb4 0a3e
00000140: 60ae 2c3e 5022 46be 9bdc 093c e95a f8bb
00000150: 882c 023c 0845 a43c 403e 1cbf ddd3 273d
00000160: 6810 243e a3b0 553c 9048 e93d 8ba6 643e
00000170: 9aae 963d a88d 20be df22 71bd 30c0 3f3d
00000180: 9cf1 71be 18a0 6a3c 8ae7 6bbe 24d2 2abe
00000190: d917 0f3e ba8f 5b3e 43b4 803c 9e02 233e
000001a0: 1a62 a7bc 365b 763d dee8 003f 2792 5d3e
000001b0: 16f8 583d 5d32 483e f3f3 193e 68db 243e
000001c0: 4e2e 66be 7bec bd3d cb3b d9be 995d 053e
000001d0: 146a f1bc 11aa 5abe 0652 94bd 3a97 ae3c
000001e0: e9c2 83bc 69f3 62bd d9a8 0a3d 652e 823e
000001f0: 6072 65bc 9e3b febc 7d13 3fbe c635 c43b
00000200: 1f05 6dbd 3e1e 15bd 98b0 723d 3003 8dbe
00000210: 120e 0f3e 7d66 c2be 0b39 103d 1b69 47bc
00000220: b683 293e a5ee 583e 3167 403e ad8c 9bbe
00000230: cee7 fdbd 88ae a8bd 9278 25be 9c4c c63e
00000240: 198a 993b 3641 3bbe 357d a13d aeec a73e
00000250: e7f6 f4bd c68d 433c ee94 cebd 20a9 073e
00000260: a2e1 2e3d 69a9 9e3c 6f5c 883e 30d6 a53e
00000270: 6f4b 693e 0518 3bbe 9c11 fabd 894d 4e3e
00000280: acce babd cea5 533e d775 753e 14dd 93be
00000290: cedc 32be 9c67 37be eeda 3e3e 2ba8 63be
000002a0: 1a94 f33c 7223 453c 4f2e 873e 40fa c43d
000002b0: df00 85be d982 9abc 97c2 803e 1c8a 143d
000002c0: 89cb 61bd c01d 173e 009c 293e 4d4b 19be
000002d0: f0f5 54be c46d 813e e6ec 84be 6659 d0bd
000002e0: 342c 083e b2d8 93be bf3b 8ebd 1b26 c23d
000002f0: b655 6b3e fc49 243d 232d 953e 599e 0a3e
00000300: d703 e73d b21c 2a3d 7454 36be 7f09 a6bd
00000310: 0d35 ab3d 2708 17bc baff e33d 1687 1fbb
00000320: 5336 b53e 9d1a 593e bd42 fb3d 2700 ccbc
00000330: a70d 2e3d 33ef dc3e b18a 2a3d 61e4 9abe
00000340: 66e1 b6bd cda0 98be fa94 fd3d be24 b6bd
00000350: c3ce 39bd a17b 183e 7636 68be 7cb4 ee3d
00000360: a6c6 cebb be8e 7bbc 7356 0dbe df45 a0bd
00000370: f549 a53c 3223 7d3e 07b6 50bd b1ad 363e
00000380: 081c 7a3e 4165 07be 11c2 593e b1fe 7b3d
00000390: 1829 6c3d ee45 10be 2d02 0cbe 06e0 c63d
000003a0: 7240 e8bd c531 553d b4e2 9dbe 98ee d0b9
000003b0: dc72 66bd 27c0 f13d 4845 f8bd aab8 e5bd
000003c0: a56f dc3d 9d2c e4bb 9ed2 1e3c f9ab f5bd
000003d0: 8aff afbe 6dbf 65bd 653a 2fbe a08a febd
000003e0: e507 bbbc 36e0 84bd efb1 5b3d 5ed9 9a3e
000003f0: acbf a3bc 341f 2cbe d3c2 b0be e1ad 1a3d

network_body._body_endoder.seq_layers.0.bias f4 [128]
0.12793794 0.13649659 0.12542592 0.16487779 0.15943435 0.17797336 0.1373389 0.140083
0.07668204 0.14036344 0.10469287 0.07258041 0.13784765 0.08830704 0.21217278 0.16135414
0.15400772 0.082092635 0.14133151 0.21905689 0.13818817 0.12317943 0.22624847 0.17069842
0.19793159 0.102728195 0.08825132 0.1495923 0.102190144 0.1318247 0.13284916 0.18422472
0.15837099 0.1349048 0.1151311 0.16483225 0.13680314 0.18583752 0.1221092 0.13716331
0.09537081 0.21816911 0.24760339 0.1833538 0.13346295 0.110997684 0.17627516 0.16871898
0.14443655 0.14532013 0.15962142 0.16000755 0.13941458 0.19082047 0.14608063 0.1289206
0.0045894617 0.1779029 0.17715243 0.10731679 0.09459656 0.16113256 0.13043016 0.19964883
0.116286494 0.10312038 0.112082444 0.08240088 0.08126006 0.11195944 0.15888792 0.13245738
0.082219526 0.16665274 0.113045566 0.09102215 0.120632954 0.14316559 0.1710785 0.12188562
0.12316369 0.20610969 0.07487462 0.15583126 0.06509607 0.0020709003 -0.03245343 0.12222312
0.12755759 0.10908467 0.12809803 0.147855 0.110238895 0.1718813 0.22715746 0.12791912
0.13177453 0.12612173 0.16360053 0.17499378 0.12813307 0.08701207 0.14117767 0.0906596
0.10703476 0.18308419 0.08306835 0.06855848 0.07391168 0.24213524 0.16740929 0.08980729
0.14844559 0.09730082 0.109847575 0.114983976 0.047327753 0.056057446 0.08985298 0.035995916
0.15608272 0.09789185 0.058590844 0.16582064 0.10606224 0.1495147 0.115929715 -0.054257143
00000000: 2a02 033e c3c5 0b3e a76f 003e b9d5 283e
00000010: c242 233e a63e 363e 92a2 0c3e eb71 0f3e
00000020: 790b 9d3d 6fbb 0f3e 3769 d63d 0aa5 943d
00000030: ef27 0d3e 52da b43d d243 593e 053a 253e
00000040: 33b4 1d3e 2f20 a83d 35b9 103e 7350 603e
00000050: 3381 0d3e 7f45 fc3d aead 673e 91cb 2e3e
00000060: 94ae 4a3e 2963 d23d 1cbd b43d b92e 193e
00000070: 1149 d13d 0efd 063e 9c09 083e 68a5 3c3e
00000080: 012c 223e 7c24 0a3e dbc9 eb3d c9c9 283e
00000090: 1f16 0c3e 314c 3e3e 6314 fa3d 8a74 0c3e
000000a0: c551 c33d b967 5f3e be8b 7d3e 19c1 3b3e
000000b0: 83aa 083e c152 e33d 7a81 343e abc4 2c3e
000000c0: 2de7 133e cdce 143e cc73 233e 05d9 233e
000000d0: b2c2 0e3e 7166 433e 2996 153e c303 043e
000000e0: 3263 963b 2e2c 363e 7267 353e e8c8 db3d
000000f0: d7bb c13d efff 243e 7c8f 053e be70 4c3e
00000100: 9d27 ee3d c730 d33d 7b8b e53d cbc1 a83d
00000110: ad6b a63d fe4a e53d 84b3 223e e8a2 073e
00000120: b662 a83d 04a7 2a3e 6f84 e73d d269 ba3d
00000130: 690e f73d 009a 123e 342f 2f3e 2b9f f93d
00000140: 3f3d fc3d 6b0e 533e dd57 993d 3b92 1f3e
00000150: 1751 853d f1b7 073b e3ed 04bd 1d50 fa3d
00000160: 759e 023e c967 df3d 212c 033e 4d67 173e
00000170: eec4 e13d a701 303e f79b 683e 3bfd 023e
00000180: e7ef 063e 0e26 013e e686 273e 9231 333e
00000190: 5135 033e 6233 b23d e190 103e beab b93d
000001a0: 0a35 db3d 6c7a 3b3e bd1f aa3d 6368 8c3d
000001b0: 025f 973d 4df2 773e 576d 2b3e e2ec b73d
000001c0: 1f02 183e a745 c73d c4f7 e03d b87c eb3d
000001d0: bfda 413d 7e9c 653d d704 b83d 7470 133d
000001e0: 26d4 1f3e 867b c83d f4fc 6f3d e3cc 293e
000001f0: 2937 d93d 621a 193e 8f6c ed3d bd3c 5ebd

network_body._body_endoder.seq_layers.2.weight f4 [128, 128]
0.020040099 -0.0036051378 0.39303303 0.1438649 -0.08673382 -0.0152834095 0.1662202 0.06023491
0.09297157 0.031166738 -0.05920582 0.032078903 0.27331033 0.059890915 0.35570627 0.11341194
0.36494026 -0.14672437 -0.047020394 -0.26318 0.019830307 0.03620121 0.018593611 -0.15936913
0.026979413 -0.04388177 0.15183663 0.034791954 0.019121118 0.045439318 0.053720932 0.008871045
0.0064262757 0.23272145 -0.1770233 -0.17949125 0.11432246 -0.097726986 0.06758667 0.031870123
0.015783245 0.085010916 0.18334036 0.35639197 -0.13157845 0.1360849 0.1560066 0.25515038
-0.1346407 -0.024828244 0.31878826 -0.09499481 -0.21804054 0.24468385 -0.02896863 -0.04065572
0.02140558 0.06582291 -0.1382004 0.058269396 0.11528592 0.11437618 -0.07606954 0.15337905
0.06243693 -0.07601586 -0.016242886 -0.15765774 -0.05685868 0.1569692 0.010824466 0.017453086
-0.056855436 0.0020880974 -0.15640838 0.07275108 0.031738497 -0.09434553 -0.07015735 0.040901367
-0.11434766 0.086763404 -0.2406637 0.0007919453 0.056435227 -0.06549407 0.005173089 0.080392696
-0.09108791 -0.0839861 0.06859317 -0.1940114 -0.013947357 -0.038846366 -0.17106202 0.05485988
0.15308963 -0.082724005 0.04487549 0.4281619 0.03131128 0.09009006 0.08432098 -0.1960838
0.26263532 0.29155797 -0.029187253 0.20119394 -0.086164236 0.04608418 0.050899364 0.21885067
-0.0995959 0.08481084 -0.043679066 0.038007177 0.051826615 0.078085676 -0.00025904283 -0.0855941
0.083208874 0.081876226 0.18895026 0.016901923 0.030115947 0.11670838 0.117847666 0.22449109
-0.105137415 -0.143958 -0.06511857 -0.00050446927 0.3262774 0.10478242 0.07343818 -0.11269191
-0.05387304 -0.005427641 0.11832332 -0.14606686 -0.10553372 0.012302867 -0.23092388 0.18565015
-0.019458393 -0.011499056 0.07929813 0.104964465 0.0928234 0.11808455 -0.15958016 -0.21003042
0.12355632 0.15911494 -0.09522501 0.25094998 0.039928053 -0.013536637 -0.114643775 -0.0326599
0.37902412 0.05758215 0.24418905 0.19469163 -0.11716545 -0.096431054 -0.14564212 0.1706721
0.24421614 0.09246681 0.17910384 0.11352047 -0.31255162 -0.07687014 -0.10910597 0.46986648
-0.031924304 0.06460544 -0.01153892 -0.039495673 -0.006058969 0.10137153 -0.1488289 0.24176714
-0.022600887 0.17450713 0.06750646 0.02004464 0.14664492 -0.078304045 0.05350984 0.058873136
0.062170923 -0.052766033 -0.061779708 0.0017450489 0.060575 -0.0015454786 0.094556876 0.030102003
-0.12251738 0.13412666 0.108575895 -0.23130679 0.13586673 -0.08689913 -0.06008372 -0.11903948
0.010561125 0.063955 0.16556552 0.29119304 -0.1252584 -0.11439499 0.03961203 0.025274042
-0.08495817 0.10881181 0.1597476 -0.23535609 0.12384955 -0.35165158 0.14006674 0.110400915
0.18666638 0.034192767 0.07517681 -0.1671547 0.01925439 0.07710827 -0.0049578073 -0.30869395
0.14559954 -0.012015728 0.03204554 -0.05436076 0.18811637 0.19609316 0.20165013 0.034349326
0.10534418 -0.066066936 0.04296266 0.19134456 0.17054053 -0.07567728 0.03669445 0.023729624
-0.18645157 -0.07250951 -0.15820597 0.15242721 -0.20187423 0.09200564 -0.15543577 0.043180823
00000000: 222b a43c 2d44 6cbb a03b c93e 5251 133e
00000010: 80a1 b1bd 4467 7abc a135 2a3e e2b8 763d
00000020: e167 be3d 6351 ff3c cd81 72bd 2b65 033d
00000030: 55ef 8b3e 2d50 753d 221f b63e 8544 e83d
00000040: 73d9 ba3e ea3e 16be 7598 40bd 87bf 86be
00000050: 2b73 a23c b847 143d a151 983c a931 23be
00000060: ee03 dd3c 5fbd 33bd 107b 1b3e 0282 0e3d
00000070: e4a3 9c3c 941e 3a3d 7b0a 5c3d dc57 113c
00000080: 8293 d23b 884e 6e3e 9945 35be 8ecc 37be
00000090: e521 ea3d 1625 c8bd e16a 8a3d 3f8a 023d
000000a0: dd4b 813c 341a ae3d 93bd 3b3e 0279 b63e
000000b0: 80bc 06be d759 0b3e 32c0 1f3e 12a3 823e
000000c0: 40df 09be 9a64 cbbc 3738 a33e a48c c2bd
000000d0: 0546 5fbe 678e 7a3e 9f4f edbc 9d86 26bd
000000e0: c15a af3c 29ce 863d 6884 0dbe e4ab 6e3d
000000f0: 061b ec3d 0f3e ea3d 59ca 9bbd 660f 1d3e
00000100: debd 7f3d 34ae 9bbd cd0f 85bc 0871 21be
00000110: a6e4 68bd 89bc 203e 1a59 313c c6f9 8e3c
00000120: 3fe1 68bd 76d8 083b 8529 20be 85fe 943d
00000130: 3a00 023d 3b38 c1bd a8ae 8fbd 3188 273d
00000140: 1b2f eabd 03b1 b13d 8c70 76be 8d9a 4f3a
00000150: a028 673d c121 86bd 0483 a93b eda4 a43d
00000160: 4c8c babd e800 acbd 937a 8c3d edaa 46be
00000170: 7583 64bc 5e1d 1fbd e22a 2fbe c1b4 603d
00000180: 87c3 1c3e 346b a9bd 5dcf 373d 0938 db3e
00000190: 4240 003d 2381 b83d 7ab0 ac3d 31ca 48be
000001a0: 2378 863e 1647 953e 1b1a efbc c905 4e3e
000001b0: e076 b0bd c4c2 3c3d da7b 503d 641a 603e
000001c0: eff8 cbbd 4eb1 ad3d d2e8 32bd 6aad 1b3d
000001d0: 2548 543d 62eb 9f3d 24d0 87b9 f64b afbd
000001e0: 6a69 aa3d b9ae a73d 2d7c 413e e775 8a3c
000001f0: b8b5 f63c ce04 ef3d 1e5a f13d fee0 653e
00000200: 4952 d7bd ba69 13be e35c 85bd 5c3e 04ba
00000210: d50d a73e 2a98 d63d c266 963d 04cb e6bd
00000220: faa9 5cbd 5ada b1bb 7f53 f23d 8d92 15be
00000230: 1022 d8bd f791 493c 4f77 6cbe 131b 3e3e
00000240: 3567 9fbc 8966 3cbc 0f67 a23d 9cf7 d63d
00000250: 321a be3d 50d6 f13d fb68 23be 3712 57be
00000260: 190b fd3d 07ef 223e 5405 c3bd 847c 803e
00000270: 998b 233d c5c8 5dbc 5bca eabd 63c6 05bd
00000280: 730f c23e 43db 6b3d b20c 7a3e 3e5d 473e
00000290: 70f4 efbd a57d c5bd 3523 15be abc4 2e3e
000002a0: cc13 7a3e 3d5f bd3d ff66 373e 6c7d e83d
000002b0: c406 a0be 186e 9dbd f372 dfbd 5792 f03e
000002c0: 0fc3 02bd db4f 843d bd0d 3dbc 37c6 21bd
000002d0: 518a c6bb e09b cf3d 9a66 18be ce91 773e
000002e0: 7f25 b9bc ffb1 323e d440 8a3d a834 a43c
000002f0: 162a 163e df5d a0bd 222d 5b3d f524 713d
00000300: f0a6 7e3d 3221 58bd b80c 7dbd 20ba e43a
00000310: 7e1d 783d a891 caba 09a7 c13d 7a98 f63c
00000320: 64ea fabd 8058 093e 0a5d de3d b0db 6cbe
00000330: a620 0b3e 2cf8 b1bd 591a 76bd f9ca f3bd
00000340: 9208 2d3c d7fa 823d 028a 293e 4117 953e
00000350: bd43 00be ec47 eabd 3940 223d 820b cf3c
00000360: 8dfe adbd bad8 de3d e094 233e 3001 71be
00000370: d5a4 fd3d ad0b b4be a86d 0f3e e019 e23d
00000380: 7925 3f3e b70d 0c3d 4df6 993d 9a2a 2bbe
00000390: 62bb 9d3c f1ea 9d3d 1a75 a2bb 220d 9ebe
000003a0: 0c18 153e 9edd 44bc 2f42 033d 63a9 5ebd
000003b0: 94a1 403e a5cc 483e 5f7d 4e3e e1b1 0c3d
000003c0: b0be d73d 1a4e 87bd 9df9 2f3d d4ef 433e
000003d0: 2da2 2e3e b1fc 9abd eb4c 163d a164 c23c
000003e0: 29ed 3ebe de7f 94bd bf00 22be e115 1c3e
000003f0: 1eb8 4ebe 746d bc3d 8e2a 1fbe 60de 303d

network_body._body_endoder.seq_layers.2.bias f4 [128]
0.02286392 0.09996588 0.03765324 0.065841906 0.0389872 0.056982163 0.048562948 0.028151177
0.093456246 0.07564929 -0.006891807 0.093464606 0.05762535 0.07780767 0.09229021 0.06790661
0.06857397 0.019517932 0.039074704 0.06787334 0.05119242 0.025104709 0.024598142 0.036236417
0.084313706 0.04080491 0.059863035 0.06827305 0.07079189 -0.0010058101 0.023745976 0.114788696
0.02401587 0.06254968 0.057416856 0.0419123 0.036400862 0.07699433 0.043803748 0.05929872
0.090075254 0.043795526 0.024496498 0.10320646 0.042161673 0.05462887 0.053398743 0.05547961
0.026780417 0.063044064 0.04685505 0.0636237 0.0727738 0.07912385 0.07413287 0.06638983
0.057011124 0.057702865 0.06307834 0.064676866 0.051153187 0.023021717 0.04261846 0.022270067
0.05482037 0.032341562 0.03018031 0.042523526 0.06775324 0.027457412 0.01876878 0.058308188
0.11294333 0.058997676 0.04964521 0.047533963 0.051030368 0.012349212 0.03424735 0.015153643
0.06347366 0.077742785 0.04941877 0.041425783 0.063525975 0.09108134 0.04423116 0.06325238
0.070502706 0.055712912 0.04400805 0.07791476 0.07332516 0.04351252 0.093726225 0.1151769
0.02673031 0.049052157 0.090653725 0.07674495 0.071168035 0.04254334 0.037788205 0.033300187
0.06548672 0.028181572 0.01459046 0.0923606 0.10206373 0.05469641 0.102175966 0.07975618
0.053286146 0.07059797 0.09525426 0.082310505 0.062426604 0.04304825 0.08922405 0.084046476
0.02586053 0.07472788 0.041513246 0.051120088 0.054402716 0.053480987 0.048819233 0.073366895
00000000: 1e4d bb3c e9ba cc3d 493a 1a3d 1fd8 863d
00000010: 0bb1 1f3d 2166 693d f1e9 463d 4c9d e63c
00000020: fd65 bf3d 04ee 9a3d abd4 e1bb 5f6a bf3d
00000030: 8f08 6c3d a159 9f3d a602 bd3d 9f12 8b3d
00000040: 8270 8c3d 12e4 9f3c cc0c 203d 2d01 8b3d
00000050: 25af 513d 64a8 cd3c 0b82 c93c a36c 143d
00000060: aaac ac3d 0d23 273d f132 753d bed2 8b3d
00000070: 57fb 903d 63d5 83ba ec86 c23c 5616 eb3d
00000080: eebc c43c 0c1a 803d f02d 6b3d 3bac 2b3d
00000090: 1219 153d 34af 9d3d 8f6b 333d 37e3 723d
000000a0: 6079 b83d f062 333d e1ac c83c e95d d33d
000000b0: b8b1 2c3d 86c2 5f3d a4b8 5a3d 963e 633d
000000c0: 9b62 db3c 3f1d 813d 15eb 3f3d 244d 823d
000000d0: 6e0a 953d af0b a23d f9d2 973d 64f7 873d
000000e0: 7f84 693d d759 6c3d 372f 813d 4e75 843d
000000f0: 0186 513d 0a98 bc3c b290 2e3d b76f b63c
00000100: 538b 603d 9678 043d b33c f73c 262d 2e3d
00000110: 36c2 8a3d 5eee e03c fcc0 993c 91d4 6e3d
00000120: d54e e73d 8ca7 713d c758 4b3d f9b2 423d
00000130: 3805 513d 5954 4a3c f346 0c3d fc46 783c
00000140: 7afe 813d 9c37 9f3d 566b 4a3d 15ae 293d
00000150: e819 823d db88 ba3d bc2b 353d 778a 813d
00000160: b963 903d 3933 643d c941 343d c691 9f3d
00000170: 802b 963d 2f3a 323d 89f3 bf3d dee1 eb3d
00000180: 86f9 da3c eaea 483d a9a8 b93d 752c 9d3d
00000190: 8cc0 913d ed41 2e3d cec7 1a3d c765 083d
000001a0: e71d 863d 0add e63c d30c 6f3c 8e27 bd3d
000001b0: ca06 d13d 5809 603d a241 d13d 3557 a33d
000001c0: 9342 5a3d ab95 903d aa14 c33d 6992 a83d
000001d0: 0ab3 7f3d 5d53 303d 19bb b63d 8f20 ac3d
000001e0: 76d9 d33c ee0a 993d cb09 2a3d 4c63 513d
000001f0: 62d5 5e3d e10e 5b3d adf6 473d 6241 963d

action_model._discrete_distribution.branches.0.weight f4 [8, 128]
-0.011136639 -0.02518316 0.0050761946 -0.0027156 0.008090787 0.062254384 -0.008266205 0.013768842
-0.0032785882 -0.075298116 0.05207216 -0.04243696 0.10606528 -0.021255365 -0.013545459 0.08781879
0.06079963 0.08713478 -0.056303162 0.00017717254 0.034092 0.061974343 0.036537014 -0.0048207114
-0.33868295 0.11800954 -0.101689816 -0.04510679 -0.12779795 0.024422072 -0.018843962 -0.21374734
0.06416357 -0.15525755 0.0583135 0.106018975 0.07908435 -0.0030774984 0.114768185 0.06864492
-0.27692196 -0.020428507 0.03470695 -0.025687879 -0.035153497 -0.07571479 -0.019815536 0.06934418
0.08808292 0.11550449 -0.050051354 0.030121397 -0.039283175 0.02754377 -0.041194286 0.011385711
0.04905938 -0.062447883 0.10393701 -0.04941487 0.007313491 -0.0073674903 0.06182111 0.04903435
0.009031685 0.07716754 0.09043821 0.049839947 0.06548263 0.066531524 -0.025654865 0.051017545
-0.104356594 -0.05608456 0.02159339 0.022423767 0.0041450704 0.057315815 0.060093194 0.056507967
-0.015490047 0.052333727 0.05053561 0.0054848017 -0.15922074 -0.039531816 -0.101751976 0.08253923
-8.0311336e-05 0.030360047 0.06963337 -0.054466225 -0.067775026 -0.08486541 -0.10180279 -0.020000657
0.07553354 -0.1780637 0.053839397 -0.033364523 -0.045234434 0.08016287 -0.06892785 0.008971638
-0.07585256 -0.008759539 0.049324624 -0.1567286 0.023206346 -0.08063294 -0.29967743 0.067406155
-0.093458995 -0.16154751 -0.0024261228 -0.03763582 0.14968747 0.10073024 0.059206452 -0.0018420209
0.035967 0.059151832 -0.017337622 0.009547833 0.03153309 -0.09155063 0.06590405 -0.09082864
0.0078910645 -0.1006492 -0.026092533 -0.0722935 0.019098386 -0.007843112 -0.22899114 -0.019133072
0.06972038 0.14485078 -0.04635016 -0.0653232 0.09674093 0.11947463 0.05375714 -0.073241144
-0.08113811 -0.16788109 0.14586104 0.049270593 0.0881816 -0.022400914 -0.0661453 0.03262717
0.061057482 -0.009332479 -0.060428806 0.07844706 0.14205717 -0.049168415 -0.038579296 0.017580291
-0.03578016 0.23555312 -0.09083721 -0.021324707 -0.0800051 -0.044903155 0.03898036 -0.03864091
0.10401944 -0.05626973 0.043506466 -0.035184957 -0.06906209 0.056506626 0.024479063 -0.055300754
0.05775948 0.018490106 -0.08736885 -0.13483141 0.07376505 0.058230996 -0.0935243 0.01474197
0.050023876 -0.04672394 0.0031742265 -0.024757609 0.0140722 0.03809739 0.049820926 0.018327877
0.028567554 0.0013152404 0.02237681 -0.13464801 -0.03272649 0.014449533 0.04043209 -0.05530507
0.039521106 0.09813916 0.055409472 0.046067603 0.06694532 -0.0024629955 0.061069872 0.04012719
-0.0835256 0.00881773 -0.006515338 0.001345715 -0.21212064 0.1627586 0.035619844 0.040189233
0.013171008 0.045192756 0.044822313 -0.081191584 0.030507384 0.028656837 -0.1038943 -0.046266355
-0.09136413 -0.086271666 -0.13291028 0.11661258 -0.018541122 0.0528997 -0.055036437 -0.056282952
-0.106812716 -0.2143828 -0.05718458 0.07081013 0.05034916 -0.07262622 -0.085086554 0.096020855
0.11838806 -0.11555779 -0.051597293 -0.0097133545 -0.17395411 -0.09426606 0.074441336 0.095557146
0.0024552774 -0.020975534 0.04097152 0.07742262 0.0747054 0.032655217 -0.052568678 -0.06418122
00000000: 7376 36bc ea4c cebc 3556 a63b 35f8 31bb
00000010: 388f 043c 74fe 7e3d fa6e 07bc b696 613c
00000020: 95dd 56bb e635 9abd 9e49 553d 61d2 2dbd
00000030: c138 d93d bb1f aebc c6ed 5dbc 56da b33d
00000040: 0809 793d b873 b23d 259e 66bd 64c7 3939
00000050: 0ea4 0b3d cfd8 7d3d d6a7 153d 0ff7 9dbb
00000060: da67 adbe fcae f13d c042 d0bd e6c1 38bd
00000070: 77dd 02be cc10 c83c a75e 9abc 95e0 5abe
00000080: 3168 833d d6fb 1ebe 23da 6e3d 7a20 d93d
00000090: faf6 a13d dbaf 49bb 950b eb3d b595 8c3d
000000a0: b7c8 8dbe af59 a7bc e028 0e3d 636f d2bc
000000b0: 1dfd 0fbd 5b10 9bbd 3154 a2bc 5204 8e3d
000000c0: d164 b43d 9e8d ec3d a602 4dbd 26c1 f63c
000000d0: 65e7 20bd 79a3 e13c 57bb 28bd 228b 3a3c
000000e0: 7df2 483d 5ac9 7fbd eddc d43d 3f67 4abd
000000f0: 02a6 ef3b fd6a f1bb 2238 7d3d 3ed8 483d
00000100: a2f9 133c 040a 9e3d ab37 b93d f924 4c3d
00000110: c21b 863d ae41 883d 272a d2bc c6f7 503d
00000120: e9b8 d5bd ecb8 65bd 9fe4 b03c 0cb2 b73c
00000130: 5fd3 873b fdc3 6a3d 4824 763d e674 673d
00000140: f7c9 7dbc e45b 563d 6efe 4e3d dab9 b33b
00000150: c30a 23be 1dec 21bd 5763 d0bd 540a a93d
00000160: d26c a8b8 a2b5 f83c f19b 8e3d fa17 5fbd
00000170: a2cd 8abd ebcd adbd fb7d d0bd 6bd8 a3bc
00000180: 54b1 9a3d 5556 36be b386 5c3d 3da9 08bd
00000190: be47 39bd 6e2c a43d 0b2a 8dbd c7fd 123c
000001a0: 9658 9bbd 2b84 0fbc 9e08 4a3d 767d 20be
000001b0: 3c1b be3c e222 a5bd 526f 99be 3d0c 8a3d
000001c0: 6e67 bfbd b66c 25be 96ff 1ebb 0528 1abd
000001d0: ac47 193e a84b ce3d 7782 723d f76f f1ba
000001e0: 2252 133d 3149 723d a107 8ebc 846e 1c3c
000001f0: d728 013d e67e bbbd b4f8 863d 5e04 babd
00000200: 8649 013c 2b21 cebd 02c0 d5bc 9d0e 94bd
00000210: 3874 9c3c 6580 00bc a77c 6abe f6bc 9cbc
00000220: 8fc9 8e3d c353 143e aad9 3dbd 2bc8 85bd
00000230: 1c20 c63d 1daf f43d 7230 5c3d 74ff 95bd
00000240: bd2b a6bd 05e9 2bbe 995c 153e f6cf 493d
00000250: 8e98 b43d 1f82 b7bc 3077 87bd 11a4 053d
00000260: 6917 7a3d 41e7 18bc 3284 77bd daa8 a03d
00000270: 6f77 113e d264 49bd 5305 1ebd 8b04 903c
00000280: 388e 12bd d634 713e dc08 babd 27b1 aebc
00000290: b7d9 a3bd 5fec 37bd dfa9 1f3d ee45 1ebd
000002a0: 2508 d53d 177b 66bd d633 323d 1a1e 10bd
000002b0: 6d70 8dbd 7e73 673d 5188 c83c 0b83 62bd
000002c0: 3495 6c3d 9078 973c 71ee b2bd 3f11 0abe
000002d0: 2112 973d a083 6e3d ab89 bfbd 4e88 713c
000002e0: d6e5 4c3d 9a61 3fbd af06 503b 78d0 cabc
000002f0: 168f 663c 020c 1c3d 0711 4c3d 5824 963c
00000300: 8106 ea3c 2564 ac3a 924f b73c 2be1 09be
00000310: 360c 06bd bcbd 6c3c 1f9c 253d 9287 62bd
00000320: e2e0 213d 2ffd c83d 0bf5 623d 62b1 3c3d
00000330: a11a 893d 356a 21bb 6724 7a3d 695c 243d
00000340: 780f abbd 3d78 103c 9e7e d5bb b462 b03a
00000350: 2736 59be 31aa 263e 1de6 113d 779d 243d
00000360: 36cb 573c 0a1c 393d 9a97 373d c647 a6bd
00000370: 9fea f93c bec1 ea3c 89c6 d4bd ca81 3dbd
00000380: 1e1d bbbd 33af b0bd a219 08be 94d2 ee3d
00000390: 8de3 97bc 5bad 583d e36d 61bd f488 66bd
000003a0: a0c0 dabd 2a87 5bbe 613a 6abd e704 913d
000003b0: ec3a 4e3d 0ebd 94bd dc41 aebd 95a6 c43d
000003c0: 7075 f23d 90a9 ecbd af57 53bd c324 1fbc
000003d0: 0721 32be 900e c1bd b374 983d 77b3 c33d
000003e0: b8e8 203b e2d4 abbc c1d1 273d c08f 9e3d
000003f0: 25ff 983d 7ac1 053d 4152 57bd 7271 83bd

action_model._discrete_distribution.branches.0.bias f4 [8]
-0.03225828 0.03462357 0.016896565 0.025509944 0.009793658 0.007897281 -0.023396768 -0.024431573
00000000: 4221 04bd 72d1 0d3d aa6a 8a3c 3bfa d03c
00000010: 9475 203c 9963 013c 94aa bfbc b924 c8bc

action_model._discrete_distribution.branches.1.weight f4 [8, 128]
-0.0065787965 0.02766228 -0.010015499 -0.06977119 -0.03243935 -0.037338354 -0.0028687948 -0.10552052
-0.01799297 0.017817106 0.09432552 0.009977376 0.0353939 0.04337865 -0.039799377 -0.03669498
-0.009208782 0.012573714 -0.14502904 -0.0024831188 -0.060736172 0.034134883 0.06770514 0.077466644
0.084544055 0.052280948 0.13522851 0.036429282 -0.12441515 0.009495791 0.017169226 0.035456177
0.023562653 0.05960992 0.07278469 -0.010289079 0.06681539 -0.0010560111 0.07459557 -0.053374387
0.07566362 -0.14952464 0.03757833 -0.031272795 -0.0116264345 0.027288744 -0.0036373879 -0.09710441
-0.030472258 -0.031680826 0.0016590114 -0.016152307 -0.0737517 0.0067123035 -0.058294315 -0.01762051
-0.17438065 0.051672406 -0.060655598 0.029715113 -0.007710584 0.104346894 -0.036019564 0.07553837
0.014477965 -0.042275798 0.062255006 0.065038614 -0.035012186 0.051174227 0.07829369 0.029101953
-0.00093758147 0.107446656 -0.0034705307 0.02550233 0.07249129 0.04392593 0.08158291 -0.025282882
-0.12373287 -0.005758552 0.05538952 0.073844194 0.028487638 -0.17033143 -0.041794114 0.0120315915
0.01221275 0.03242183 -0.021095976 -0.11561473 -0.052525237 0.0052865325 -0.03035539 -0.25181606
0.087943666 -0.06057895 -0.03852999 -0.13051367 -0.003363335 0.014567782 0.107122794 0.08350455
0.11362283 0.114743546 -0.2620163 0.03401923 -0.0013449665 0.080496974 -0.029154234 0.0019699777
0.017447244 -0.024384497 0.044827525 -0.069109604 -0.16204885 -0.1382451 0.02673146 -0.048826847
0.07745746 0.0392428 0.007936832 0.052716102 -0.0085085165 -0.029311499 -0.010669361 0.10076561
-0.03143001 0.05711718 0.006497141 0.074728996 0.00041337564 0.0843562 -0.0040201377 0.035349224
0.091994174 0.0077041476 -0.121972375 0.08065983 0.025557334 0.06345902 0.06736438 0.09598074
0.08352979 -0.06185566 0.05461166 -0.0024974581 0.08764228 -0.012236566 -0.035104718 -0.01603025
-0.059035055 0.012899848 -0.104923226 -0.030089047 -0.008924562 -0.14503801 -0.009004578 0.082702585
0.012780493 -0.26358038 -0.21553762 0.11799715 -0.14877282 0.015073471 -0.062868096 0.039986596
-0.071823895 0.15311378 -0.06460191 0.12341356 -0.0068328413 -0.03326309 0.036243204 0.032325212
-0.08898829 0.080586515 -0.030764781 -0.10771398 0.06202502 0.01938935 0.059519503 0.019761434
-0.0769573 0.0329019 0.005709494 -0.14437103 -0.0020076206 -0.13750805 0.066546604 -0.07430348
0.005594533 0.07658623 0.002858065 -0.010608924 0.05180434 0.013618486 -0.10410987 -0.12577951
0.07162651 -0.066508844 0.023408402 0.08205478 -0.01953543 -0.02221148 -0.053803004 -0.004528687
-0.07633373 0.023823127 -0.010673743 -0.06797779 -0.13716826 -0.14511745 -0.0756537 0.04184973
0.06825437 -0.033782627 -0.18405302 0.031680364 0.1180336 -0.092501394 0.07118692 0.026711186
-0.21824637 -0.03805296 0.087064505 0.114360385 0.05651662 0.030579928 -0.14229631 -0.2119543
-0.060639784 -0.10903911 0.099624455 0.008450156 0.0454246 -0.11010969 0.05001369 0.07368712
-0.017358555 -0.010088105 0.048393305 0.06765968 -0.030164765 0.038395368 0.061868243 -0.008635822
-0.05876245 0.07248915 -0.06604776 -0.012955275 0.008369187 0.020346632 0.06769282 -0.038434535
00000000: f292 d7bb 019c e23c 0c18 24bc 33e4 8ebd
00000010: 20df 04bd 1af0 18bd 6402 3cbb 241b d8bd
00000020: fe65 93bc 2ef5 913c bd2d c13d 2678 233c
00000030: 32f9 103d d0ad 313d ac04 23bd 7a4d 16bd
00000040: 6ee0 16bc fb01 4e3c 7e82 14be d2bb 22bb
00000050: 7ec6 78bd 05d1 0b3d fea8 8a3d d5a6 9e3d
00000060: 6f25 ad3d 8c24 563d 5879 0a3e df36 153d
00000070: 5fcd febd 3c94 1b3c 7aa6 8c3c 7f3a 113d
00000080: 7706 c13c 8829 743d 2410 953d 8693 28bc
00000090: 82d6 883d da69 8aba 90c5 983d 1a9f 5abd
000000a0: 87f5 9a3d fd1c 19be bceb 193d e717 00bd
000000b0: cd7c 3ebc a58c df3c 3e61 6ebb adde c6bd
000000c0: f5a0 f9bc c1c3 01bd 2f73 d93a d851 84bc
000000d0: 220b 97bd e2f2 db3b 05c6 6ebd e358 90bc
000000e0: d790 32be 72a6 533d 0172 78bd 1c6d f33c
000000f0: 11a9 fcbb d3b3 d53d 4089 13bd dcb3 9a3d
00000100: fd34 6d3c 6329 2dbd 1bff 7e3d f732 853d
00000110: f068 0fbd 119c 513d 7158 a03d 3867 ee3c
00000120: 07c8 75ba fe0c dc3d d871 63bb 43ea d03c
00000130: 5076 943d adeb 333d f114 a73d 0c1e cfbc
00000140: a967 fdbd 3cb2 bcbb 1fe0 623d a03b 973d
00000150: e85e e93c 5d6b 2ebe 4e30 2bbd 2720 453c
00000160: fc17 483c c1cc 043d 78d1 acbc 6ac7 ecbd
00000170: b424 57bd a63a ad3b deab f8bc 09ee 80be
00000180: cf1b b43d a221 78bd 9fd1 1dbd 60a5 05be
00000190: 666b 5cbb b5ad 6e3c 3263 db3d 6f04 ab3d
000001a0: 16b3 e83d aafe ea3d 0027 86be c057 0b3d
000001b0: 9649 b0ba 99db a43d dcd4 eebc be1a 013b
000001c0: 86ed 8e3c ffc1 c7bc 119d 373d 5689 8dbd
000001d0: 22f0 25be 2090 0dbe effb da3c a9fe 47bd
000001e0: 04a2 9e3d 0fbd 203d 7c09 023c d7ec 573d
000001f0: 4e67 0bbc ab1e f0bc 8bce 2ebc 335e ce3d
00000200: c1bc 00bd b4f3 693d f8e5 d43b 840b 993d
00000210: 57ba d839 f2c2 ac3d 5cbb 83bb 59ca 103d
00000220: 7167 bc3d 1373 fc3b a7cc f9bd fb30 a53d
00000230: 9d5d d13c cdf6 813d 56f6 893d 8d91 c43d
00000240: ab11 ab3d 5c5c 7dbd 7ab0 5f3d 65ac 23bb
00000250: cc7d b33d e17b 48bc f7c9 0fbd df51 83bc
00000260: bece 71bd e259 533c fde1 d6bd 4e7d f6bc
00000270: 5338 12bc d884 14be f087 13bc f95f a93d
00000280: 4665 513c 02f4 86be e5b5 5cbe 7da8 f13d
00000290: e757 18be b8f6 763c fdc0 80bd fcc8 233d
000002a0: 6818 93bd dcc9 1c3e 024e 84bd 40c0 fc3d
000002b0: 07e6 dfbb e13e 08bd c173 143d 7167 043d
000002c0: 7e3f b6bd 8b0a a53d 6c06 fcbc 2699 dcbd
000002d0: f30d 7e3d 6ad6 9e3c b9ca 733d bbe2 a13c
000002e0: ca9b 9dbd 25c4 063d b516 bb3b 00d6 13be
000002f0: 4992 03bb e9ce 0cbe 9649 883d 6c2c 98bd
00000300: 5852 b73b 3ed9 9c3d 604e 3b3b 0dd1 2dbc
00000310: ca30 543d 1220 5f3c 8e37 d5bd 58cc 00be
00000320: ebb0 923d ca35 88bd fac2 bf3c 560c a83d
00000330: c408 a0bc daf4 b5bc 8a60 5cbd 6165 94bb
00000340: dc54 9cbd b828 c33c ece0 2ebc f137 8bbd
00000350: d675 0cbe ab99 14be 54f0 9abd 9f6a 2b3d
00000360: f2c8 8b3d a75f 0abd 6578 3cbe 45c3 013d
00000370: 9abb f13d 5f71 bdbd 73ca 913d 6bd1 da3c
00000380: fa7b 5fbe 6cdd 1bbd e04e b23d c735 ea3d
00000390: f97d 673d c282 fa3c 20b6 11be 8c0a 59be
000003a0: 6c61 78bd e64f dfbd e807 cc3d 8672 0a3c
000003b0: 250f 3a3d 3081 e1bd 28db 4c3d 46e9 963d
000003c0: 8733 8ebc 9448 25bc 0f38 463d 2991 8a3d
000003d0: 191c f7bc 7644 1d3d 8e69 7d3d 437d 0dbc
000003e0: e5b0 70bd 3175 943d 0c44 87bd 5d42 54bc
000003f0: ea1e 093c fbad a63c 89a2 8a3d 886d 1dbd

action_model._discrete_distribution.branches.1.bias f4 [8]
0.012853439 0.033165485 0.0008635689 -0.025115184 -0.0414286 -0.023226095 -0.015568788 -0.030953836
00000000: 3b97 523c 88d8 073d 2161 623a 5cbe cdbc
00000010: 09b1 29bd a744 bebc 3b14 7fbc e692 fdbc

action_model._discrete_distribution.branches.2.weight f4 [8, 128]
0.008574107 -0.16112824 -0.057425942 -0.09913599 0.057616964 -0.056334052 -0.009334476 -0.14383566
-0.03799355 -0.018786957 0.039279614 -0.01587885 0.13293035 -0.03323821 0.030167172 0.020419674
0.022310834 -0.101116166 0.12646052 0.0052339523 -0.00013522238 -0.008261409 0.008541442 0.011642014
-0.26090872 0.10593448 -0.31969973 0.014593763 0.056367297 -0.0063687214 -0.12245595 -0.23880526
0.048846528 -0.03264486 -0.003746284 0.005805315 -0.039605893 0.0055412618 -0.008527234 -0.045537975
-0.03438862 -0.050027154 0.043514024 -0.04272317 0.01373937 -0.026567558 -0.028558394 0.06719206
0.18716933 0.136795 -0.12213154 -0.029517766 0.047022704 0.057708148 -0.118445754 0.0014810882
-0.022709927 -0.11352963 0.10534627 -0.09974252 0.03898936 -0.007948352 0.032040972 0.022652283
0.069780365 0.09353934 0.09745419 -0.009017674 0.11886453 -0.03713325 -0.012716806 -0.15374061
0.031527333 0.021026865 0.06405615 0.008916033 0.07757774 0.026693083 -0.0013307809 -0.006044504
-0.06636655 0.05191279 0.06427475 0.048584092 -0.2918408 -0.086613774 -0.14192282 0.086657815
-0.05717216 -0.12364925 -0.10290723 -0.22663876 -0.13739188 -0.087237425 -0.079360984 -0.040020242
0.012280391 -0.09752399 -0.008182725 0.04910036 -0.11756866 0.07808223 -0.034396738 -0.1566951
-0.12716198 -0.09348032 -0.07181389 0.0030160712 0.05161853 -0.07755837 -0.26850572 0.14312471
0.05158874 -0.042923518 -0.019671028 -0.0493867 0.021781156 -0.07363097 0.098716415 0.059559498
-0.011441028 -0.021080865 -0.06178227 -0.11010463 0.07672645 -0.121454805 0.043571815 -0.1828685
0.014362273 0.024286477 -0.010527817 0.16808219 -0.1136696 0.036873993 0.07255587 -0.092430994
-0.003862891 -0.009514371 0.13028288 0.06846594 -0.041112203 0.07433827 0.09131989 -0.001159705
0.004712604 0.11400936 -0.046946317 -0.010624344 0.11887224 0.06378569 -0.043496702 -0.0040970366
-0.04506983 0.066860214 0.08261243 -0.06238736 -0.05282411 -0.15899108 0.007999563 -0.1729981
-0.0471997 -0.021957466 -0.0861044 -0.0023947307 0.026230682 -0.020536615 0.013734407 -0.020488422
-0.2213151 -0.15248859 -0.0148684895 0.06903478 -0.062177125 -0.06847918 -0.013723765 0.04867071
-0.09796399 0.0045097717 0.13434151 -0.06429669 -0.117785536 -0.10741826 -0.026310354 -0.16484489
0.007826524 0.057738308 -0.050966155 -0.0900152 -0.08297885 -0.09685889 -0.100261256 0.03472707
-0.1156206 -0.015014508 0.00687269 0.03154621 -0.0027473527 -0.011235115 -0.107201844 0.07447223
-0.16856514 0.018882528 -0.024034189 0.0662417 0.007528903 -0.018598128 0.02078728 0.04564104
-0.10217374 0.0010378298 -0.017426932 -0.03509436 -0.014735821 0.06608698 0.10307001 0.049112875
-0.023814993 0.15351042 0.120336615 0.21511249 -0.10851975 -0.04450622 -0.05233601 -0.07455197
-0.03405915 -0.07394657 0.09258009 -0.1605786 -0.08221009 0.06184719 -0.07333829 0.032156084
-0.152711 0.08608065 0.0140957935 -0.12374698 -0.013061081 -0.011995802 -0.011800182 0.049232017
-0.041993238 -0.007198217 0.051280353 -0.02742988 -0.13188428 0.128987 0.095703274 -0.04734579
-0.011905517 0.02998841 0.046371084 -0.15031056 -0.06368185 0.077515826 0.05317145 -0.053280786
00000000: 697a 0c3c cdfe 24be 7737 6bbd cf07 cbbd
00000010: c4ff 6b3d 89be 66bd a1ef 18bc a849 13be
00000020: 209f 1bbd 1be7 99bc a9e3 203d 5d14 82bc
00000030: e51e 083e ca24 08bd 2521 f73c 2947 a73c
00000040: 36c5 b63c fe15 cfbd de7e 013e 9381 ab3b
00000050: 7bca 0db9 dc5a 07bc 68f1 0b3c 25be 3e3c
00000060: d495 85be 2df4 d83d afaf a3be ae1a 6f3c
00000070: 65e1 663d b5b0 d0bb 2fca fabd 5e89 74be
00000080: 4c13 483d 9eb6 05bd 3784 75bb 833a be3b
00000090: ca39 22bd 7993 b53b d0b5 0bbc 0786 3abd
000000a0: 15db 0cbd 46e9 4cbd c33b 323d 7efe 2ebd
000000b0: 181b 613c 35a4 d9bc 4bf3 e9bc fe9b 893d
000000c0: 51a9 3f3e fd13 0c3e 1a20 fabd 3ecf f1bc
000000d0: e19a 403d 615f 6c3d b093 f2bd 1321 c23a
000000e0: 2b0a babc 3982 e8bd c9bf d73d ce45 ccbd
000000f0: 4fb3 1f3d ce39 02bc 653d 033d 4891 b93c
00000100: 02e9 8e3d 8e91 bf3d 1096 c73d debe 13bc
00000110: 3f6f f33d 0919 18bd 265a 50bc 2e6e 1dbe
00000120: ce22 013d 8840 ac3c df2f 833d 8e14 123c
00000130: 14e1 9e3d 74ab da3c 996d aeba fa10 c6bb
00000140: 30eb 87bd 81a2 543d 7ba2 833d 1d00 473d
00000150: 286c 95be 9062 b1bd 3754 11be a779 b13d
00000160: 5b2d 6abd d13b fdbd 07c1 d2bd fe13 68be
00000170: 75b0 0cbe 89a9 b2bd 0388 a2bd 44ec 23bd
00000180: b133 493c a8ba c7bd d610 06bc 761d 493d
00000190: d6c7 f0bd 94e9 9f3d 98e3 0cbd ae74 20be
000001a0: c036 02be 9c72 bfbd 2913 93bd 47a9 453b
000001b0: f46d 533d ecd6 9ebd 9579 89be 498f 123e
000001c0: b74e 533d 92d0 2fbd 2325 a1bc b549 4abd
000001d0: 656e b23c d6cb 96bd d52b ca3d a9f4 733d
000001e0: 2673 3bbc c7b1 acbc 680f 7dbd 897e e1bd
000001f0: c222 9d3d 4cbd f8bd 5c78 323d e141 3bbe
00000200: bd4f 6b3c 6ff4 c63c dd7c 2cbc bd1d 2c3e
00000210: 9bcb e8bd 2f09 173d 2c98 943d 764c bdbd
00000220: 8f28 7dbb 2ae2 1bbc e068 053e df37 8c3d
00000230: 4565 28bd aa3e 983d ec05 bb3d 3e01 98ba
00000240: 306c 9a3b bd7d e93d c84a 40bd bb11 2ebc
00000250: 4a73 f33d 12a2 823d 9929 32bd 6f40 86bb
00000260: 249b 38bd 02ee 883d b530 a93d e389 7fbd
00000270: 185e 58bd 8fce 22be 9910 033c 6a26 31be
00000280: 7954 41bd 25e0 b3bc 8157 b0bd eaf0 1cbb
00000290: bae1 d63c 673c a8bc 4706 613c 56d7 a7bc
000002a0: 6da0 62be f825 1cbe f79a 73bc 1b62 8d3d
000002b0: 71ad 7ebd d03e 8cbd a4d9 60bc f05a 473d
000002c0: 58a1 c8bd b5c6 933b d290 093e fcad 83bd
000002d0: 8b39 f1bd 1bfe dbbd d088 d7bc 19cd 28be
000002e0: d23a 003c 017f 6c3d e3c1 50bd e459 b8bd
000002f0: d1f0 a9bd f45d c6bd c655 cdbd f93d 0e3d
00000300: 7eca ecbd 69ff 75bc 4d34 e13b 9936 013d
00000310: ee0c 34bb 7d13 38bc a48c dbbd e684 983d
00000320: 579c 2cbe 88af 9a3c 59e3 c4bc baa9 873d
00000330: 04b5 f63b 1a5b 98bc 164a aa3c 19f2 3a3d
00000340: 7740 d1bd ca07 883a edc2 8ebc 1bbf 0fbd
00000350: 836e 71bc 9c58 873d 5f16 d33d 952a 493d
00000360: a917 c3bc d631 1d3e 0b73 f63d 7346 5c3e
00000370: 9a3f debd 274c 36bd 495e 56bd b4ae 98bd
00000380: 9b81 0bbd 4d71 97bd a19a bd3d b76e 24be
00000390: c35d a8bd 7b53 7d3d 6332 96bd 19b6 033d
000003a0: 4660 1cbe 0d4b b03d 0bf2 663c 0f6f fdbd
000003b0: 25fe 55bc 0a8a 44bc 8d55 41bc 83a7 493d
000003c0: 1a01 2cbd 05df ebbb 590b 523d a1b4 e0bc
000003d0: ac0c 07be 2b15 043e 1400 c43d a9ed 41bd
000003e0: 5c0f 43bc 41aa f53c 9bef 3d3d 03eb 19be
000003f0: a16b 82bd 9ec0 9e3d 4eca 593d f43c 5abd

action_model._discrete_distribution.branches.2.bias f4 [8]
-0.0022592086 -0.0089939535 2.4033027e-06 -0.008357019 0.026074402 0.000218454 0.004273783 -0.037583817
00000000: 3b0f 14bb 605b 13bc 6d48 2136 e1eb 08bc
00000010: fc99 d53c cd10 6539 170b 8c3b 7df1 19bd

action_model._discrete_distribution.branches.3.weight f4 [8, 128]
0.021523787 -0.13549113 -0.091632925 0.05380012 0.0024428407 0.089181274 -0.030548604 0.0096462425
0.021600166 -0.0017264998 -0.15412109 -0.0012426702 0.06115625 0.13961498 0.073885255 0.033946168
0.07827665 0.13535121 -0.01946354 -0.06085672 0.13143955 -0.014932363 -0.075602 -0.008371739
0.15026177 0.021499641 0.16162534 -0.05633273 0.01327132 -0.018462524 -0.0074063907 0.12646127
0.049761057 0.0081765 0.0016796605 0.048309848 0.013066572 -0.0043350086 -0.05993439 -0.020657899
0.16860509 0.05757578 0.01331213 0.17163761 -0.0028412223 0.03607518 0.02591097 -0.096974425
-0.07925219 0.021329302 0.088000774 -0.09626556 -0.07531645 -0.09489188 -0.061961874 0.0648818
-0.08378802 -0.0933499 -0.12968649 -0.03699279 -0.06896218 -0.03248095 0.014143913 0.0037851003
-0.049809244 0.0733094 -0.027182657 0.024858287 -0.032572225 -0.10507089 -0.06606209 -0.106467865
-0.00626523 -0.026222633 0.027251571 -0.0097270245 0.045596574 -0.011295925 0.023330364 -0.009661331
-0.20352192 0.02557512 0.04972515 0.04303618 -0.0451339 -0.0711634 -0.120364904 0.045849834
0.05759242 -0.12780632 -0.06936904 0.034955084 -0.02280409 -0.18938565 -0.023326416 -0.043152533
-0.0151114315 -0.10397286 0.05591551 -0.02113626 -0.050063487 0.041084684 0.043813504 -0.06002784
0.043439332 -0.074791394 -0.16418102 0.06541729 -0.01447356 -0.20305923 0.14563394 0.03577409
0.0046571223 0.11081821 0.09537152 -0.061830837 -0.00912135 -0.013686149 0.049888566 -0.11615071
0.096701644 0.07547145 -0.04891498 -0.173733 0.005523131 -0.004488382 0.057197805 0.13776837
0.014236174 0.0969747 0.0141632585 -0.062009476 -0.05078265 -0.03154153 0.046502706 -0.034490187
0.008106783 -0.048089307 0.068261966 0.035309676 0.03945241 -0.004765806 -0.18713538 -0.09377476
-0.141293 -0.024231624 -0.07497611 0.047768395 -0.24538484 0.015170097 0.057793085 0.03523787
0.1056161 0.057549827 -0.06417448 0.09502212 -0.18387586 0.034599565 0.06999859 -0.012969789
-0.0110478075 -0.11474971 -0.05496141 0.09140189 -0.03444644 0.05630015 0.010358241 0.004882521
-0.022342151 -0.17928404 -0.055215705 -0.15240721 0.04952614 -0.09129846 -0.009538568 0.0012375741
0.09626307 0.08735625 0.13854374 -0.08009865 0.016469592 0.09397244 -0.061358277 0.019778337
0.02887345 0.07390296 0.04551315 0.013921855 0.042005707 -0.054801263 -0.061378557 0.072071575
0.09857879 -0.17267896 0.070934266 -0.09288849 0.10256344 0.11517595 -0.15680219 0.09523785
0.11492101 0.013418039 -0.013966854 0.052481208 0.018730346 0.05000297 0.06319117 0.03322386
-0.15445873 -0.07949873 -0.006550701 -0.037939087 -0.06347137 -0.08191901 0.130486 -0.05882914
-0.082660526 0.041573774 0.13901474 -0.04155607 -0.18760723 0.05233541 -0.03516768 -0.053172342
-0.08227638 -0.120142385 -0.09326317 -0.04380731 -0.012604716 0.008074883 0.076442145 -0.06200962
0.00090555 0.051940665 0.18225373 -0.22279653 0.062148258 -0.012686618 -0.036978967 0.043171007
0.016422084 0.012050599 0.0635506 -0.046995133 -0.14723851 -0.17515007 -0.0018251464 0.017770434
-0.035974707 -0.012435418 0.1164362 0.03694796 0.004150945 -0.036717314 0.0058232676 0.081824414
00000000: a752 b03c 30be 0abe 0baa bbbd 845d 5c3d
00000010: 1118 203b aca4 b63d 1141 fabc 460b 1e3c
00000020: d5f2 b03c b84b e2ba ebd1 1dbe 18e1 a2ba
00000030: fa7e 7a3d 3bf7 0e3e 2751 973d 230b 0b3d
00000040: 824f a03d 8299 0a3e 0072 9fbc e544 79bd
00000050: 1798 063e dfa6 74bc 39d5 9abd 9e29 09bc
00000060: 39de 193e 0420 b03c 1d81 253e 26bd 66bd
00000070: f36f 593c b83e 97bc 4fb1 f2bb 107f 013e
00000080: 40d2 4b3d baf6 053c 0e28 dc3a 8ce0 453d
00000090: 2d15 563c b00c 8ebb c37d 75bd c13a a9bc
000000a0: d0a6 2c3e 95d4 6b3d 1f1b 5a3c c5c1 2f3e
000000b0: cd33 3abb 91c3 133d 3e43 d43c 879a c6bd
000000c0: f94e a2bd caba ae3c c039 b43d e126 c5bd
000000d0: 833f 9abd ad56 c2bd bccb 7dbd c0e0 843d
000000e0: 0e99 abbd 3b2e bfbd 89cc 04be c085 17bd
000000f0: 0b3c 8dbd bf0a 05bd dfbb 673c 720f 783b
00000100: c704 4cbd 3d23 963d 2aae debc 9ba3 cb3c
00000110: 746a 05bd 682f d7bd 904b 87bd d30b dabd
00000120: 8f4c cdbb d9d0 d6bc b03e df3c 195e 1fbc
00000130: 79c3 3a3d 8b12 39bc 521f bf3c 8f4a 1ebc
00000140: 0d68 50be ea82 d13c 99ac 4b3d b546 303d
00000150: 53de 38bd 1ebe 91bd e081 f6bd 09cd 3b3d
00000160: 08e6 6b3d a9df 02be 5b11 8ebd 102d 0f3d
00000170: a5cf babc 50ee 41be 0a17 bfbc b6c0 30bd
00000180: f095 77bc b9ef d4bd a907 653d f325 adbc
00000190: 5f0f 4dbd 6a48 283d ca75 333d c1df 75bd
000001a0: 71ed 313d 3b2c 99bd 121f 28be 80f9 853d
000001b0: 8322 6dbc c2ee 4fbe 1021 153e da87 123d
000001c0: c69a 983b a8f4 e23d 2552 c33d 5542 7dbd
000001d0: b771 15bc df3b 60bc f457 4c3d 6ce0 edbd
000001e0: 830b c63d c790 9a3d 135b 48bd 10e7 31be
000001f0: 62fb b43b 4713 93bb 3f48 6a3d 2713 0d3e
00000200: d73e 693c ac9a c63d 030d 683c a6fd 7dbd
00000210: 7801 50bd b131 01bd 9f79 3e3d 9545 0dbd
00000220: 50d2 043c 4bf9 44bd eecc 8b3d e1a0 103d
00000230: da98 213d 7a2a 9cbb 6ba0 3fbe fb0c c0bd
00000240: 1daf 10be 6681 c6bc 138d 99bd cba8 433d
00000250: 2a46 7bbe 008c 783c 71b8 6c3d 9655 103d
00000260: 414d d83d 5eb9 6b3d e96d 83bd f59a c23d
00000270: f449 3cbe 46b8 0d3d 6c5b 8f3d 3d7f 54bc
00000280: dd01 35bc e501 ebbd 371f 61bd ea30 bb3d
00000290: b617 0dbd fc9a 663d 9db5 293c 8efd 9f3b
000002a0: e306 b7bc 3c96 37be dd29 62bd a310 1cbe
000002b0: ecdb 4a3d b0fa babd a747 1cbc 1936 a23a
000002c0: 9325 c53d d5e7 b23d 69de 0d3e c30a a4bd
000002d0: 3deb 863c 9f74 c03d d152 7bbd 2e06 a23c
000002e0: 0388 ec3c 6f5a 973d ff6b 3a3d 7e18 643c
000002f0: 2d0e 2c3d 4a77 60bd 1568 7bbd 439a 933d
00000300: ade3 c93d c1d2 30be fc45 913d 523c bebd
00000310: c80c d23d 5ee1 eb3d c190 20be 100c c33d
00000320: b55b eb3d 56d7 5b3c 3bd5 64bc 89f6 563d
00000330: 6270 993c eacf 4c3d 5f6a 813d be15 083d
00000340: 6e2a 1ebe 3bd0 a2bd 43a7 d6bb 0466 1bbd
00000350: 47fd 81bd 27c5 a7bd 1f9e 053e d3f6 70bd
00000360: ec49 a9bd 4349 2a3d e159 0e3e b336 2abd
00000370: 1c1c 40be a85d 563d fc0b 10bd 3ecb 59bd
00000380: 8580 a8bd 360d f6bd c300 bfbd 4b6f 33bd
00000390: 0384 4ebc 844c 043c b38d 9c3d cdfd 7dbd
000003a0: 6f62 6d3a bcbf 543d b9a0 3a3e c624 64be
000003b0: 2c8f 7e3d 88db 4fbc 4277 17bd 15d4 303d
000003c0: 9b87 863c e06f 453c d126 823d f87d 40bd
000003d0: b1c5 16be 8a5a 33be c039 efba 4d93 913c
000003e0: 375a 13bd ecbd 4bbc 1a76 ee3d be56 173d
000003f0: a704 883b e564 16bd 1cd1 be3b 8f93 a73d

action_model._discrete_distribution.branches.3.bias f4 [8]
0.005770013 0.003698072 0.039617013 -0.038485978 -0.023003625 -0.008296077 -0.023610054 -0.030587176
00000000: 6112 bd3b 5a5b 723b 7345 223d 79a3 1dbd
00000010: 1972 bcbc 45ec 07bc df69 c1bc f591 fabc
