results/NewTwoAgents/WhiteMLAgent.onnx (onnx, 151064 bytes, 15 tensors)

discrete_act_size_vector f4 [1, 5]
8.0 8.0 8.0 8.0 5.0
00000000: 0000 0041 0000 0041 0000 0041 0000 0041
00000010: 0000 a040

network_body._body_endoder.seq_layers.0.weight f4 [142, 71]
-0.33588195 -0.17404711 -0.09923759 0.13705555 -0.09892168 0.046663463 -0.13495423 0.09899793
0.2758389 0.032328226 -0.15925625 0.23116969 -0.038658135 -0.1137207 -0.10606582 0.12309111
-0.15404955 0.24623597 -0.077350706 0.04951732 0.15976854 0.12560625 -0.062356465 -0.095149755
0.37313488 0.03296047 -0.1745877 0.17432071 0.14449824 0.3396526 0.005002775 -0.11098597
-0.0704632 0.005460429 0.22270636 0.05031243 0.008986784 -0.066740744 0.29739088 -0.08822416
0.38881007 0.011683521 0.1059688 -0.10008045 0.0029786173 0.0755707 0.15220888 -0.057682984
-0.00095547526 -0.0010516138 -0.11285184 -0.021206075 0.05301871 -0.064091645 -0.01373836 0.049659204
-0.18496919 0.17486303 0.26901 0.082101285 0.41892076 0.057523463 -0.10309537 0.1048519
0.06167034 -0.08785186 -0.056167353 0.013447201 -0.3386558 0.16163023 0.13045046 -0.011372854
0.06093968 0.035844732 -0.006885742 -0.18257186 -0.1777684 -0.034650546 -0.13364284 0.23747984
0.089171976 -0.08506137 0.050079722 0.011323914 -0.031507056 0.05597588 -0.23571582 -0.24643111
-0.23258828 -0.10020615 -0.1509447 0.12375422 0.14678577 -0.11960918 -0.17823662 -0.06167633
-0.030179502 0.011074846 -0.21065946 -0.040527537 -0.2518633 -0.24536292 -0.057866503 0.11902514
-0.13654324 -0.0372088 -0.48459703 -0.15460901 -0.15305595 -0.10568097 0.039114136 -0.20242609
0.012053313 -0.29894105 -0.033130527 -0.031246407 -0.05028389 -0.13104753 0.082963966 -0.08643917
-0.14381991 -0.05817401 -0.16902292 -0.08615306 -0.23289019 0.0027320753 -0.26813096 -0.12662058
0.062948614 0.15494272 -0.09275407 -0.11248684 -0.19388859 -0.23674996 -0.07651084 -0.07350553
-0.30158833 -0.26814458 -0.08552743 -0.20000458 0.053559534 -0.3068256 -0.057039775 0.061460514
-0.22595331 -0.025245681 0.0027208317 0.12758927 -0.16066043 -0.08161599 0.019118734 0.15210469
-0.23644911 0.16183414 -0.040217023 -0.3268598 -0.07651603 0.13003553 -0.13382679 -0.13925068
0.18751527 -0.15566924 -0.084114075 -0.08277718 0.014175923 -0.12093534 0.059292562 -0.038049597
0.25521907 0.05792858 -0.0043575955 -0.28232953 0.11842241 -0.13853481 -0.09055229 -0.18408369
0.13014507 0.20819192 0.09815993 0.28372478 0.2826796 -0.13484655 0.08637507 0.2021049
0.12843075 0.047418904 0.04597293 -0.101248056 0.21153097 0.16772228 0.060518775 -0.16786505
-0.3649979 0.46426085 0.016095113 -0.107117556 0.24423164 -0.057583306 -0.06745147 0.046691623
0.13470656 0.20493506 0.071589485 0.049260113 0.3299865 0.20902324 0.25379086 -0.21475546
0.13108781 0.05020103 -0.006923124 -0.02613112 -0.17686859 -0.03307513 -0.13184689 -0.013836428
-0.10900068 -0.11939626 -0.06558526 0.12531273 -0.26440012 0.005369551 0.01635707 0.0929582
-0.12525555 0.08464677 0.11867029 -0.025549494 -0.21893395 -0.017297424 -0.135408 0.07829373
0.094369374 -0.30557483 0.050221942 -0.104434825 0.2567878 -0.01650449 -0.08687776 0.09286366
0.037230164 -0.0035142223 -0.2429355 -0.134641 -0.2531001 0.12178543 -0.11822474 -0.012825621
-0.25943884 0.10782999 -0.13204527 0.04313796 -0.18068284 0.013130265 0.206533 -0.19904667
00000000: b8f8 abbe 6839 32be 143d cbbd 4a58 0c3e
00000010: 7397 cabd 3022 3f3d 7131 0abe 6dbf ca3d
00000020: c23a 8d3e 9a6a 043d 1214 23be bfb7 6c3e
00000030: fe57 1ebd 66e6 e8bd 0939 d9bd 3117 fc3d
00000040: 2abf 1dbe 4825 7c3e 0c6a 9ebd acd2 4a3d
00000050: 5d9a 233e ed9e 003e 7e69 7fbd e0dd c2bd
00000060: 890b bf3e 8f01 073d 1ec7 32be 2181 323e
00000070: 59f7 133e f2e6 ad3e 52ee a33b 9d4c e3bd
00000080: 034f 90bd 66ed b23b 230d 643e 6814 4e3d
00000090: 4e3d 133c 5faf 88bd 9e43 983e deae b4bd
000000a0: 1d12 c73e 3d6c 3f3c 2c06 d93d fbf6 ccbd
000000b0: e834 433b d0c4 9a3d a5dc 1b3e fe44 6cbd
000000c0: dc78 7aba 4ed6 89ba de1e e7bd 5db8 adbc
000000d0: 262a 593d 7b42 83bd dc16 61bc 7367 4b3d
000000e0: 9068 3dbe 4b0f 333e aebb 893e b824 a83d
000000f0: c87c d63e b99d 6b3d aa23 d3bd 98bc d63d
00000100: 0a9a 7c3d adeb b3bd bd0f 66bd a651 5c3c
00000110: 4b64 adbe 6582 253e ce94 053e 3555 3abc
00000120: e39b 793d edd1 123d caa1 e1bb 1ef4 3abe
00000130: eb08 36be bbed 0dbd abd9 08be ea2d 733e
00000140: cc9f b63d a834 aebd 6520 4d3d f087 393c
00000150: 8b0d 01bd f746 653d 7d5f 71be 7058 7cbe
00000160: 9f2b 6ebe e238 cdbd 3f91 1abe da72 fd3d
00000170: 024f 163e a8f5 f4bd a983 36be 52a0 7cbd
00000180: 013b f7bc 4573 353c 1db7 57be 3400 26bd
00000190: 3af4 80be 6b40 7bbe 6d05 6dbd 74c3 f33d
000001a0: fed1 0bbe 4168 18bd 1a1d f8be d351 1ebe
000001b0: b3ba 1cbe 446f d8bd 2536 203d c948 4fbe
000001c0: 427b 453c cd0e 99be e0b3 07bd 77f8 ffbc
000001d0: 7bf6 4dbd 5331 06be 03e9 a93d 0507 b1bd
000001e0: 8745 13be df47 6ebd 5814 2dbe 0471 b0bd
000001f0: c47a 6ebe 9e0c 333b 7648 89be d3a8 01be
00000200: 34eb 803d 4ea9 1e3e d9f5 bdbd 805f e6bd
00000210: bb8a 46be 956e 72be b7b1 9cbd 118a 96bd
00000220: c969 9abe 3f4a 89be 0129 afbd 00ce 4cbe
00000230: 3e61 5b3d 3f18 9dbe 8aa2 69bd 05be 7b3d
00000240: 4e60 67be 08d0 cebc fb4f 323b c3a6 023e
00000250: 2b84 24be 4926 a7bd e49e 9c3c 55c1 1b3e
00000260: b71f 72be d9b7 253e 9bba 24bd 2b5a a7be
00000270: 70b4 9cbd 0928 053e e409 09be bb97 0ebe
00000280: 0104 403e c267 1fbe 0044 acbd 1587 a9bd
00000290: 2142 683c f3ac f7bd c2dc 723d e5d9 1bbd
000002a0: 13ac 823e 8546 6d3d 29ca 8ebb 7f8d 90be
000002b0: 7387 f23d 12dc 0dbe 7b73 b9bd 6f80 3cbe
000002c0: c044 053e 4330 553e 1308 c93d 6044 913e
000002d0: 61bb 903e 3715 0abe 6ae5 b03d 96f4 4e3e
000002e0: 5a83 033e 533a 423d 1c4e 3c3d 245b cfbd
000002f0: 939b 583e 64bf 2b3e 89e2 773d d1e4 2bbe
00000300: 01e1 babe 99b3 ed3e e6d9 833c 7360 dbbd
00000310: dc17 7a3e 79dc 6bbd ff23 8abd b73f 3f3d
00000320: 84f0 093e 7fda 513e 829d 923d f9c4 493d
00000330: fef3 a83e 300a 563e e0f0 813e dbe8 5bbe
00000340: e23b 063e 989f 4d3d 60db e2bb ee10 d6bc
00000350: 0a1d 35be ca79 07bd df02 07be 2fb2 62bc
00000360: c03b dfbd 0786 f4bd 9151 86bd fb51 003e
00000370: 745f 87be 0ff3 af3b 43ff 853c de60 be3d
00000380: fe42 00be 495b ad3d 6909 f33d 2c4d d1bc
00000390: 3930 60be 54b3 8dbc 65a8 0abe 7758 a03d
000003a0: bb44 c13d 4e74 9cbe 86b5 4d3d ede1 d5bd
000003b0: b179 833e 6d34 87bc f8ec b1bd 4d2f be3d
000003c0: a87e 183d de4e 66bb 15c4 78be 55df 09be
000003d0: 5696 81be a46a f93d d01f f2bd 8e22 52bc
000003e0: 2bd5 84be f8d5 dc3d e036 07be 6eb1 303d
000003f0: ec04 39be 5320 573c 637d 533e e4d2 4bbe

network_body._body_endoder.seq_layers.0.bias f4 [142]
0.16221195 0.013490849 0.0651813 -0.0133634815 0.05334903 -0.020949773 0.068986334 0.08448598
0.021814097 -0.037835952 0.054374583 0.00029464607 0.03824973 -0.015169406 0.029584344 -0.021219218
0.0079802135 0.03428729 0.07201572 0.1330163 0.03939433 -0.027359407 0.07925528 -0.0068616522
-0.048053913 0.11189699 0.14076756 0.094175674 0.11173687 0.07718103 -0.03312828 0.024434932
0.02710901 0.101476006 -0.0028210073 0.08863385 -0.025859514 0.024655152 0.016661227 -0.0091322735
0.0063153226 0.0055751572 0.039126128 0.08237274 0.02470342 0.03806633 0.011330344 0.041312076
0.04427916 -0.0033887073 -0.042813156 0.042549767 -0.064574756 0.0051766047 0.10109556 0.17580596
0.045764457 -0.032208912 0.082138486 0.026871357 0.028302072 -0.028282575 0.05253827 0.003514971
-0.008494123 0.11475187 -0.022949874 -0.065220475 0.07451198 0.005849961 0.037369166 -0.015237026
-0.03274048 0.010533287 0.012330741 -0.030433744 -0.05984102 0.19007719 -0.05602458 0.020382335
0.02053924 -0.04642453 0.0068791076 -0.0043257307 -0.005248074 -0.025926232 0.14335495 0.03925996
0.19953153 0.11990679 0.0023259216 0.22791545 0.05345699 0.12933546 0.037217 0.12323431
0.061341044 0.09618565 0.039624408 0.049641453 0.015494161 -0.00046156833 0.033720493 -0.03295496
0.08821171 0.14397164 0.0020908555 -0.020608846 0.015437348 0.030771853 0.026279204 0.04992148
-0.016552579 0.023576468 0.06520121 -0.051555023 0.07146965 0.01875895 0.069213815 0.09552294
-0.016873278 0.043908972 -0.014158624 0.059570055 0.04121554 0.016157445 0.024489446 0.12473709
-0.049362697 -0.013069374 0.0788259 0.08204798 -0.068023264 0.06769626 -0.0106018605 -0.0042741415
0.051978353 -0.029224912 0.058928434 0.14931068 0.1346235 0.06793767
00000000: e41a 263e b908 5d3c c67d 853d 81f2 5abc
00000010: 8384 5a3d dc9e abbc b548 8d3d fc06 ad3d
00000020: 7ab3 b23c dff9 1abd e2b7 5e3d ba7a 9a39
00000030: c0ab 1c3d 1a89 78bc de5a f23c edd3 adbc
00000040: 71bf 023c d470 0c3d fa7c 933d 6d35 083e
00000050: f35b 213d d620 e0bc 9850 a23d b6d7 e0bb
00000060: 2ed4 44bd 402a e53d 5f25 103e 2ddf c03d
00000070: 4dd6 e43d 1611 9e3d 85b1 07bd c42b c83c
00000080: b713 de3c a7d2 cf3d a6e0 38bb aa85 b53d
00000090: 55d7 d3bc 9af9 c93c 207d 883c 889f 15bc
000000a0: c4f0 ce3b cfaf b63b b842 203d 0ab3 a83d
000000b0: d45e ca3c 71eb 1b3d e8a2 393c da36 293d
000000c0: 115e 353d 1315 5ebb d95c 2fbd aa48 2e3d
000000d0: c53f 84bd 82a0 a93b 300b cf3d 7a06 343e
000000e0: 8373 3b3d 7eed 03bd 3938 a83d 5221 dc3c
000000f0: bfd9 e73c dcb0 e7bc 5e32 573d 6d5b 663b
00000100: ef2a 0bbc 0703 eb3d 6001 bcbc 5092 85bd
00000110: bd99 983d 08b1 bf3b 6910 193d b8a4 79bc
00000120: e21a 06bd cf93 2c3c e006 4a3c 3050 f9bc
00000130: db1b 75bd 98a3 423e 087a 65bd dbf8 a63c
00000140: e941 a83c a627 3ebd 236a e13b dcbe 8dbb
00000150: 09f8 abbb 4063 d4bc a4cb 123e 0dcf 203d
00000160: fe51 4c3e b191 f53d 7d6e 183b ab62 693e
00000170: b7f5 5a3d 8470 043e da70 183d 4562 fc3d
00000180: bf40 7b3d fbfc c43d 344d 223d d654 4b3d
00000190: 39db 7d3c a7fe f1b9 801e 0a3d c8fb 06bd
000001a0: 57a8 b43d 4d6d 133e bc06 093b e2d3 a8bc
000001b0: eeec 7c3c 4115 fc3c 7c47 d73c 777a 4c3d
000001c0: 4699 87bc 7023 c13c 3688 853d 5c2b 53bd
000001d0: ae5e 923d 5fac 993c f9bf 8d3d 88a1 c33d
000001e0: d439 8abc e5d9 333d 93f9 67bc bbff 733d
000001f0: a0d1 283d 9e5c 843c 179e c83c 2976 ff3d
00000200: 8a30 4abd ed20 56bc 796f a13d c508 a83d
00000210: c84f 8bbd 56a4 8a3d 6db3 2dbc 190e 8cbb
00000220: 41e7 543d 1569 efbc f15e 713d e6e4 183e
00000230: beda 093e e822 8b3d

network_body._body_endoder.seq_layers.2.weight f4 [142, 142]
0.1264187 -0.0746306 0.1985879 0.1568323 -0.011724574 0.04062074 0.13269402 -0.127923
0.033087227 0.10356726 0.23939092 -0.06628176 0.07727196 0.11419866 -0.052445464 -0.0068047317
-0.09847065 0.09921393 -0.25770152 0.1429137 -0.13961893 -0.13520832 0.0049772197 0.23162514
-0.121576816 0.031588566 -0.01771209 -0.20981115 0.082395606 0.037266176 0.027543237 -0.045851227
-0.08417826 -0.11478253 0.2332814 0.18033285 0.0125117395 0.05539784 -0.052747652 -0.045557104
-0.12469626 -0.18447272 -0.22171853 0.0022842174 -0.11063016 -0.08162243 -0.021263814 -0.05108563
-0.10454215 0.085557416 0.14407101 -0.04453616 0.088601604 0.3088891 0.297704 -0.08724037
-0.16853933 0.044499416 0.05041295 0.06002526 0.06582593 -0.1584736 -0.22175571 0.03470069
0.050692014 0.07835367 -0.15542558 -0.01998249 -0.05380211 0.035386153 0.009793207 0.051880952
0.10486642 -0.31919482 -0.11197808 0.04057524 -0.12585405 0.08028421 -0.1515155 -0.18318924
0.04467943 -0.12902108 -0.13635503 0.089061715 0.08076736 0.1550372 0.0486013 0.082378045
-0.0319903 -0.039768428 -0.113508545 -0.00085523713 -0.23226899 0.10106624 -0.24778703 0.14734875
0.022798995 0.18281516 0.103939295 0.09570362 -0.05050032 -0.07739445 0.044259343 -0.029235916
0.06681422 0.019310208 0.1336378 0.09163541 0.012909518 0.24102625 0.032955337 0.033557616
-0.06350654 0.19652471 0.06552305 0.112264864 0.071576335 -0.09804691 0.1821205 -0.02208589
0.03306261 0.009169071 0.14282888 0.07233712 0.124740295 -0.026346989 -0.1675079 -0.123298936
-0.108538866 -0.049121585 -0.065802135 -0.11369273 -0.27091765 -0.04638667 -0.079784304 -0.06903519
0.112169065 0.027382342 0.069807604 -0.1952245 -0.019324142 -0.08893273 -0.04250643 -0.034194928
0.005990098 -0.041672006 -0.08509581 0.10638425 0.17259648 0.091657795 0.035581626 0.1567781
0.025841475 0.26165396 -0.09939025 -0.045108043 0.18504024 0.04460883 0.09215943 -0.18319666
0.0939428 0.047357537 -0.18097597 0.011515728 -0.1281977 -0.016213475 0.070598006 -0.07621851
-0.24160588 -0.27944258 0.07814044 0.15528531 -0.01909363 -0.10791946 0.011355451 0.103510454
0.14759314 0.011213455 0.20421039 0.0056679277 -0.09905518 -0.020236151 0.021189079 0.050717615
-0.10031819 0.0053496296 0.07118825 0.23638363 0.21447767 0.0040246937 0.05581703 -0.072779424
0.075841814 0.068064556 0.06588942 0.0633162 -0.086977586 -0.044414513 -0.19550164 -0.061117463
0.104681194 -0.1288014 -0.051038455 -0.06078537 0.33142424 0.07489722 -0.07169437 0.15786387
0.12009571 -0.15403387 0.10608198 0.14523356 0.2346801 0.13692068 0.13045391 0.09125727
0.09042718 -0.13656583 -0.08943293 -0.06737762 0.19327664 -0.1044535 0.0641875 0.17250587
0.029131576 -0.0128019685 0.14908217 0.14354862 -0.09026993 0.008143097 -0.11165024 0.13106461
-0.07743799 -0.10359932 0.021958254 -0.06363569 0.0808943 -0.06824067 0.051193237 -0.08416132
-0.06297961 -0.05410866 -0.040616155 0.17783062 0.16954598 0.051836304 0.31485218 0.1421388
0.16169995 -0.09355661 0.02927474 0.13985084 -0.022294298 0.06532928 -0.04849709 -0.09922609
00000000: e773 013e eed7 98bd a05a 4b3e a598 203e
00000010: 6d18 40bc ef61 263d f1e0 073e 3ffe 02be
00000020: 7986 073d 121b d43d e522 753e bbbe 87bd
00000030: c340 9e3d fde0 e93d 0ed1 56bd 3afa debb
00000040: fbaa c9bd ac30 cb3d 74f1 83be f857 123e
00000050: 44f8 0ebe 0d74 0abe f217 a33b 242f 6d3e
00000060: 44fd f8bd 0363 013d f218 91bc bcd8 56be
00000070: 07bf a83d 6ba4 183d 5ba2 e13c 7fce 3bbd
00000080: a765 acbd 1a13 ebbd 52e1 6e3e 2da9 383e
00000090: 0afe 4c3c d8e8 623d ec0d 58bd 169a 3abd
000000a0: c160 ffbd 6be6 3cbe 2f0a 63be cfb2 153b
000000b0: 1192 e2bd a929 a7bd 7331 aebc 2a3f 51bd
000000c0: 321a d6bd ba38 af3d 5a87 133e 8c6b 36bd
000000d0: c274 b53d b626 9e3e a96c 983e 14ab b2bd
000000e0: 9395 2cbe 0545 363d cf7d 4e3d 0cdd 753d
000000f0: bfcf 863d e746 22be ee13 63be 5022 0e3d
00000100: 6ea2 4f3d e477 a03d e227 1fbe 52b2 a3bc
00000110: 9a5f 5cbd 12f1 103d b073 203c 1f81 543d
00000120: 35c4 d63d 816d a3be c354 e5bd 3932 263d
00000130: e2df 00be 0c6c a43d e126 1bbe f695 3bbe
00000140: c701 373d 1a1e 04be a7a0 0bbe fd65 b63d
00000150: 5c69 a53d 12c2 1e3e 2812 473d d2b5 a83d
00000160: 4308 03bd 38e4 22bd 2b77 e8bd fe31 60ba
00000170: ecd7 6dbe d1fb ce3d e2bb 7dbe 97e2 163e
00000180: f5c4 ba3c e633 3b3e 20de d43d 4200 c43d
00000190: 6cd9 4ebd fb80 9ebd 4949 353d 2980 efbc
000001a0: e5d5 883d 7130 9e3c 59d8 083e 59ab bb3d
000001b0: 7182 533c 96cf 763e 2dfc 063d b673 093d
000001c0: b80f 82bd c63d 493e f330 863d 1feb e53d
000001d0: 9d96 923d d1cc c8bd cc7d 3a3e 78ed b4bc
000001e0: a96c 073d df39 163c bc41 123e 7c25 943d
000001f0: d777 ff3d a4d5 d7bc 3187 2bbe 2784 fcbd
00000200: a049 debd b733 49bd 45c3 86bd bcd7 e8bd
00000210: b8b5 8abe f3ff 3dbd f465 a3bd 5262 8dbd
00000220: e5b8 e53d ef50 e03c 4af7 8e3d eee8 47be
00000230: aa4d 9ebc 5d22 b6bd 391b 2ebd fb0f 0cbd
00000240: 9648 c43b 44b0 2abd b646 aebd fcdf d93d
00000250: 22bd 303e 15b7 bb3d 0abe 113d 708a 203e
00000260: 80b1 d33c 82f7 853e 1e8d cbbd 36c3 38bd
00000270: 307b 3d3e c0b7 363d 15be bc3d e897 3bbe
00000280: 1565 c03d faf9 413d c451 39be 77ac 3c3c
00000290: 4246 03be 1fd2 84bc b095 903d 7318 9cbd
000002a0: 8867 77be 1913 8fbe 1808 a03d 1d03 1f3e
000002b0: 3f6a 9cbc e104 ddbd 370c 3a3c 4afd d33d
000002c0: a822 173e a4b8 373c 871c 513e 06ba b93b
000002d0: 71dd cabd 49c6 a5bc b894 ad3c 46bd 4f3d
000002e0: a073 cdbd f24b af3b 25cb 913d 8d0e 723e
000002f0: 09a0 5b3e 94e1 833b 66a0 643d 610d 95bd
00000300: f452 9b3d 6e65 8b3d 08f1 863d edab 813d
00000310: 4e21 b2bd feeb 35bd 9531 48be 4e56 7abd
00000320: 1863 d63d 84e4 03be b30d 51bd 15fa 78bd
00000330: 70b0 a93e b763 993d 7fd4 92bd 11a7 213e
00000340: bdf4 f53d 0ebb 1dbe 8241 d93d 1bb8 143e
00000350: fb4f 703e ef34 0c3e b695 053e 17e5 ba3d
00000360: e331 b93d ead7 0bbe 9d28 b7bd 47fd 89bd
00000370: 50ea 453e b7eb d5bd bc74 833d 61a5 303e
00000380: 58a5 ee3c 59bf 51bc ffa8 183e 69fe 123e
00000390: 71df b8bd a06a 053c e2a8 e4bd cd35 063e
000003a0: cf97 9ebd e12b d4bd cce1 b33c 6e53 82bd
000003b0: e9ab a53d c4c1 8bbd 00b0 513d c55c acbd
000003c0: 74fb 80bd 0ba1 5dbd 205d 26bd 3b19 363e
000003d0: 769d 2d3e 4e52 543d 4e34 a13e d58c 113e
000003e0: ac94 253e 9c9a bfbd 94d1 ef3c 0f35 0f3e
000003f0: 88a2 b6bc 5ccb 853d e2a4 46bd 0c37 cbbd

network_body._body_endoder.seq_layers.2.bias f4 [142]
0.0081278635 0.0033543063 0.02887096 0.06757842 0.012870509 0.07005553 -0.070949584 0.017089892
-0.015391622 -0.062391184 0.030224178 0.033031862 -0.02991285 0.02039105 0.015138249 -0.049528766
-0.056369923 -0.044887006 0.002248597 0.065685675 -0.033603065 -0.018163376 -0.023062496 0.05454919
-0.006939409 -0.012618439 -0.00020329312 -0.04417371 0.02008497 0.08193206 0.028730229 -0.041430935
-0.03566872 -0.03852074 0.027814178 0.018020723 -0.005829263 -0.048854697 -0.010031246 -0.019500697
-0.048030302 0.011330217 -0.024771448 -0.025909908 -0.00016864529 -0.01005588 -0.0026283432 -0.011280701
-0.038596228 -0.059210524 0.022993045 0.041147843 -0.08559635 0.03517381 -0.03238406 0.049837478
-0.048855595 -0.09658546 0.023503155 0.07133445 0.0003163594 0.02432163 0.066451795 -0.0034034383
0.047072504 -0.0012169168 0.028833207 -0.055003047 0.022406055 0.016758606 0.017623717 0.04418879
-0.019153414 0.015277894 -0.017020255 -0.03734673 0.0026674706 -0.02155105 0.02183231 -0.008902012
-0.05193401 -0.095214255 -0.069858775 0.010190698 -0.044313747 -0.007944816 0.060788725 0.011320057
-0.011813281 -0.03715349 -0.066491894 -0.04785009 -0.07835362 -0.045486882 0.021207534 -0.03170216
0.008900478 -0.05307818 -0.06322041 0.028014846 -0.039627176 0.016224772 0.09433261 -0.03191375
-0.000107970605 -0.000118718526 -0.021442816 -0.028952261 0.022258505 0.018075248 0.039959047 -0.10321699
0.009874458 -0.0069534737 -0.031232856 0.0085361255 0.0018794814 -0.058341008 0.0024965096 0.045496434
0.014068237 0.0020076856 0.03170973 0.006701817 0.00966665 0.017498428 -0.0036649543 -0.028287122
0.006552967 0.01620682 -0.040308416 -0.03663278 0.024275104 -0.0058344435 0.00079414685 -0.07174171
0.035915095 -0.0745683 0.0014906105 -0.032662787 -0.005502352 0.011499192
00000000: bb2a 053c ecd3 5b3b cb82 ec3c 8e66 8a3d
00000010: d4de 523c 4679 8f3d 044e 91bd 1a00 8c3c
00000020: 242d 7cbc e68d 7fbd b298 f73c 6b4c 073d
00000030: cb0b f5bc 220b a73c 6b06 783c adde 4abd
00000040: 26e4 66bd 70db 37bd 335d 133b 3686 863d
00000050: 5ea3 09bd 5ccb 94bc 8fed bcbc f96e 5f3d
00000060: fb63 e3bb 92bd 4ebc 152b 55b9 7eef 34bd
00000070: 3c89 a43c ffcb a73d a85b eb3c 7cb3 29bd
00000080: 5d19 12bd ecc7 1dbd 8fda e33c 32a0 933c
00000090: 6703 bfbb dd1b 48bd 185a 24bc edbf 9fbc
000000a0: 6cbb 44bd 60a2 393c 7eed cabc 0441 d4bc
000000b0: 60d6 30b9 6bc1 24bc 4840 2cbb b0d2 38bc
000000c0: 1417 1ebd bc86 72bd e95b bc3c a48a 283d
000000d0: 244d afbd 6a12 103d 26a5 04bd 6222 4c3d
000000e0: ce1c 48bd 99ce c5bd b089 c03c cc17 923d
000000f0: 0add a539 283e c73c e117 883d 380c 5fbb
00000100: 19cf 403d f480 9fba 9e33 ec3c e04a 61bd
00000110: e78c b73c 5849 893c 9d5f 903c 4eff 343d
00000120: 9fe7 9cbc 2250 7a3c 106e 8bbc e2f8 18bd
00000130: bbd0 2e3b d48b b0bc acd9 b23c bfd9 11bc
00000140: c2b8 54bd b1ff c2bd 1e12 8fbd e3f6 263c
00000150: 5582 35bd f92a 02bc 99fd 783d c377 393c
00000160: 7e8c 41bc 422e 18bd e72c 88bd 75fe 43bd
00000170: dd77 a0bd 7450 3abd 6cbb ad3c 20da 01bd
00000180: 4fd3 113c 8168 59bd b479 81bd 647f e53c
00000190: 1b50 22bd d0e9 843c 7531 c13d feb7 02bd
000001a0: 476e e2b8 86f8 f8b8 d8a8 afbc 4b2d edbc
000001b0: 7857 b63c 8b12 943c 19ac 233d 6e63 d3bd
000001c0: 7bc8 213c f7d9 e3bb 0cdc ffbc 1bdb 0b3c
000001d0: ee58 f63a fbf6 6ebd 7b9c 233b 785a 3a3d
000001e0: 767e 663c 6093 033b 10e2 013d ea9a db3b
000001f0: de60 1e3c dd58 8f3c bb2f 70bb 65ba e7bc
00000200: 45ba d63b 2ac4 843c 701a 25bd 410c 16bd
00000210: 95dc c63c dc2e bfbb 4b2e 503a 51ed 92bd
00000220: b51b 133d 44b7 98bd 9760 c33a 6ac9 05bd
00000230: 134d b4bb 1b67 3c3c

action_model._discrete_distribution.branches.0.weight f4 [8, 142]
-0.06324301 0.18242155 -0.015578557 0.10186154 0.16775292 0.13528857 -0.04302074 0.0026177978
0.016087431 0.040814787 0.037477247 0.07558174 -0.026626429 0.15284754 0.085288 0.1015655
-0.029957838 0.057830427 -0.07087937 0.03403451 0.060642187 0.08037835 -0.02605209 -0.050369315
0.1566099 0.0057781027 0.06677573 0.05005554 0.016839284 -0.053681515 0.006532389 0.004386115
0.015486809 -0.022278136 -0.16475354 -0.08231696 0.07425509 -0.07273805 -0.06910277 0.10491706
0.009559964 -0.02733977 0.11800117 0.03225895 0.036245503 0.08382604 0.13864802 0.2599085
0.055361062 0.041787956 0.00076498097 0.11263453 -0.0034229914 -0.054528076 -0.11199589 0.0865824
0.056545798 0.023891993 0.120588295 0.09181685 0.10894352 0.074273646 -0.06862444 -0.11726731
0.08678564 -0.13377865 0.120295376 0.01281505 0.09975149 0.084853984 0.09475234 -0.19317019
0.04846135 -0.026253961 -0.01597572 -0.003713363 0.13292892 0.116505116 0.03720788 0.010665383
0.11209416 -0.05261031 -0.048474096 -0.02701702 0.037331156 0.1510165 0.07683907 0.1015563
-0.031949714 0.09914195 -0.10918406 0.07230777 -0.006472682 -0.029700855 0.031108953 -0.072313525
0.08353053 0.11872883 0.12792711 0.027922519 0.039655853 -0.1001914 -0.07379673 0.09355597
0.11195322 0.07052156 -0.105301075 0.071651384 0.1326105 0.12491886 -0.081134014 0.097470656
0.17660546 -0.03948736 -0.017965605 -0.025566451 -0.019712312 0.035291437 -0.04373805 -0.042556245
-0.06370162 0.0020408311 -0.04595161 0.091281004 0.12026717 -0.12301505 0.06122079 0.0930386
0.047781415 -0.054442737 0.0036935343 0.0036493146 0.07331461 -0.19085805 0.039493386 0.009113738
0.13988538 0.04880172 0.045346044 -0.042521905 0.04526653 0.031583585 0.08300047 0.025714783
-0.01128235 -0.09994621 -0.028568162 0.052407105 0.022410577 -0.12776352 0.033811845 0.008103254
-0.08427479 0.08129474 -0.008316842 0.062723495 -0.0019608838 -0.14875719 0.08436208 0.048134327
0.09965275 -0.13728954 -0.14187633 -0.031184398 0.041356675 -0.071873054 -0.10794759 -0.22095944
-0.030368267 0.037639756 -0.07776272 -0.057948153 -0.020675583 0.12976155 0.05134936 -0.007250289
0.05014517 -0.04147546 0.08894856 0.07187422 -0.099854864 -0.035604246 -0.00013526547 0.14500707
-0.058925927 -0.08853176 0.04365084 -0.18960135 -0.24364936 -0.17290431 -0.031189907 -0.028789341
-0.009132606 -0.017639723 -0.028682234 0.035561047 0.04550112 -0.0065599 -0.028531672 -0.11981952
0.083125785 -0.25449595 -0.034996998 -0.16859193 -0.06006997 0.03297367 0.041250397 -0.107189745
0.063430876 -0.2333709 -0.024639264 -0.08115483 -0.14943367 -0.027606491 -0.07854686 0.033878878
-0.008812961 -0.08699925 0.10098298 0.060612686 0.009571015 0.0898733 0.085342064 0.03017246
0.0131243905 -0.04707575 0.14842576 -0.06363167 -0.116661645 0.03004094 -0.047478605 -0.007537395
-0.18800096 -0.10099389 0.037057534 -0.2195425 0.009161646 0.06518397 -0.013929337 -0.12741138
-0.0066565997 -0.050847813 0.0433525 0.04806305 -0.18390672 0.060565826 0.0266105 -0.12663153
-0.029173955 0.07857039 -0.15761499 0.06555457 0.052941468 0.054409374 0.00560253 -0.049306687
00000000: 8d85 81bd b7cc 3a3e 343d 7fbc c89c d03d
00000010: 6cc7 2b3e 1689 0a3e 8436 30bd 5c8f 2b3b
00000020: cac9 833c 682d 273d be81 193d 99ca 9a3d
00000030: ab1f dabc 1184 1c3e 7aab ae3d 9301 d03d
00000040: 246a f5bc 99df 6c3d 3429 91bd c567 0b3d
00000050: f163 783d 689d a43d 316b d5bc 0e50 4ebd
00000060: 585e 203e 3d56 bd3b b7c1 883d 0a07 4d3d
00000070: 8af2 893c 26e1 5bbd a70d d63b 66b9 8f3b
00000080: 63bc 7d3c a380 b6bc 27b5 28be cb95 a8bd
00000090: 0d13 983d b0f7 94bd c185 8dbd c1de d63d
000000a0: 65a1 1c3c a7f7 dfbc 99aa f13d f621 043d
000000b0: 2a76 143d fdac ab3d bff9 0d3e ba12 853e
000000c0: 48c2 623d d929 2b3d 0189 483a efac e63d
000000d0: 4454 60bb d558 5fbd 1a5e e5bd 1d52 b13d
000000e0: 919c 673d 24b9 c33c fff6 f63d 790a bc3d
000000f0: c81d df3d c81c 983d f88a 8cbd d829 f0bd
00000100: abbc b13d 45fd 08be 6c5d f63d 37f6 513c
00000110: 824a cc3d edc7 ad3d 840d c23d 68ce 45be
00000120: 697f 463d 8c12 d7bc 83df 82bc e55b 73bb
00000130: 851e 083e 3c9a ee3d 4a67 183d dcbd 2e3c
00000140: 9f91 e53d e97d 57bd c68c 46bd cc52 ddbc
00000150: 8ee8 183d 12a4 1a3e cd5d 9d3d c0fc cf3d
00000160: b4dd 02bd ef0a cb3d e49b dfbd 1916 943d
00000170: cb18 d4bb 354f f3bc 34d8 fe3c 1d19 94bd
00000180: 0e12 ab3d 1a28 f33d 53ff 023e c4bd e43c
00000190: 2d6e 223d 2631 cdbd bd22 97bd 469a bf3d
000001a0: bb47 e53d 9c6d 903d 17a8 d7bd f6bd 923d
000001b0: 0ccb 073e 76d5 ff3d 9729 a6bd b29e c73d
000001c0: 10d8 343e 7fbd 21bd 9b2c 93bc bc70 d1bc
000001d0: b77b a1bc c18d 103d ab26 33bd 754f 2ebd
000001e0: ff75 82bd 77bf 053b c137 3cbd 89f1 ba3d
000001f0: a24e f63d 51ef fbbd a7c2 7a3d 068b be3d
00000200: 72b6 433d 59ff 5ebd 390f 723b 5729 6f3b
00000210: f825 963d 4b70 43be d1c3 213d ca51 153c
00000220: 1d3e 0f3e 50e4 473d c6bc 393d 732b 2ebd
00000230: 6669 393d ca5d 013d 27fc a93d cfa7 d23c
00000240: 9bd9 38bc 99b0 ccbd c707 eabc d5a8 563d
00000250: 6396 b73c 71d4 02be 4a7e 0a3d 83c3 043c
00000260: 4398 acbd db7d a63d 5d43 08bc 2d75 803d
00000270: 2c82 00bb ce53 18be 07c6 ac3d 8028 453d
00000280: be16 cc3d a195 0cbe 0748 11be 6c76 ffbc
00000290: 9e65 293d 2e32 93bd a013 ddbd 3143 62be
000002a0: dfc6 f8bc 252c 1a3d 1042 9fbd 0b5b 6dbd
000002b0: d75f a9bc 36e0 043e b553 523d d593 edbb
000002c0: 0665 4d3d 2ce2 29bd aa2a b63d cb32 933d
000002d0: b580 ccbd c2d5 11bd 0cd6 0db9 bc7c 143e
000002e0: 505c 71bd 2450 b5bd 39cb 323d db26 42be
000002f0: 387f 79be d40d 31be fa81 ffbc a0d7 ebbc
00000300: eda0 15bc 2e81 90bc 01f7 eabc 76a8 113d
00000310: 625f 3a3d 6ef4 d6bb 41bb e9bc f063 f5bd
00000320: da3d aa3d 4b4d 82be 0359 0fbd 5da3 2cbe
00000330: ee0b 76bd 660f 073d 2df6 283d 4c86 dbbd
00000340: 0ce8 813d c8f8 6ebe 48d8 c9bc 8134 a6bd
00000350: 2405 19be 0227 e2bc 2ddd a0bd 94c4 0a3d
00000360: 3d64 10bc aa2c b2bd 2ad0 ce3d 0245 783d
00000370: bfcf 1c3c 7e0f b83d d2c7 ae3d 3c2c f73c
00000380: af07 573c 80d2 40bd ecfc 173e 5251 82bd
00000390: 4dec eebd 6b18 f63c ed78 42bd 41fc f6bb
000003a0: 5383 40be e2d5 cebd a4c9 173d c0cf 60be
000003b0: ba1a 163c 2c7f 853d e037 64bc 2178 02be
000003c0: 9b1f dabb cc45 50bd 6492 313d c3dd 443d
000003d0: 0b52 3cbe df13 783d 43fe d93c b2ab 01be
000003e0: 38fe eebc 83e9 a03d d365 21be 7941 863d
000003f0: 27d9 583d 5ddc 5e3d 6e95 b73b cff5 49bd

action_model._discrete_distribution.branches.0.bias f4 [8]
0.012217518 0.044814657 0.03809067 0.05562978 0.017921114 0.045737267 0.08323986 -0.001808726
00000000: fc2b 483c 938f 373d f604 1c3d 0ddc 633d
00000010: 4dcf 923c 0057 3b3d a979 aa3d c612 edba

action_model._discrete_distribution.branches.1.weight f4 [8, 142]
0.124729656 0.017511373 -0.04695493 0.07842078 -0.012340955 -0.05087217 0.12250629 0.099303745
0.0906731 0.025069026 0.07124148 0.05144579 0.07529075 0.13650216 0.062348362 0.07543219
-0.046443358 0.0040343674 -0.028378563 0.019630492 0.13821214 -0.057025936 -0.0077789812 -0.027801009
0.09158364 0.089729756 0.27563596 -0.1025818 0.06427064 0.27685028 0.045422908 0.21100125
-0.10394106 0.09123308 0.13129151 0.19715926 -0.028342463 0.08487458 0.030508196 0.05431821
0.03489119 0.024402808 0.08993704 0.19028321 0.12084684 -0.0016258315 0.0642011 0.06573387
0.01567195 0.3047161 0.1175494 0.024887508 0.12571293 0.0060515357 -0.058091942 -0.011414722
0.1795317 -0.002519377 0.099130206 0.050871123 0.035852633 -0.08667131 0.040271748 0.060567472
0.088874124 0.03995212 0.20618334 0.13810632 0.01692992 0.21407287 -0.03897505 0.112250105
-0.057514444 0.021596067 0.076946564 0.12634379 -0.044964198 -0.051390678 0.061124835 0.06313255
0.15870343 0.100479566 -0.038600855 0.044304803 0.11805962 0.0014752018 0.034822866 0.0535051
0.009229306 0.052275736 0.084734336 0.062601924 0.025160717 0.011173007 0.059942823 0.11080055
0.04252378 0.051205896 0.039962433 -0.037709117 0.11346045 -0.02017772 0.08595832 0.052002497
0.0936514 0.035704628 0.052048266 -0.08931263 0.0050740647 0.022631234 0.15041026 0.14974038
0.1935732 0.024480026 0.16717042 0.03287645 0.044922292 0.024518702 -0.08662718 0.023063207
-0.00495707 -0.022192713 0.15578063 0.08985085 0.057244997 0.07804067 0.0411415 0.022605628
-0.12861225 -0.094891876 0.1707528 0.15944491 0.012843011 -0.0970685 0.25723392 0.2434602
0.013977973 0.10591076 0.03013778 0.002866384 -0.009227978 0.11774437 0.025033494 -0.041453373
0.06794942 -0.033801697 0.0126730455 -0.019287676 -0.00015894978 -0.10285886 -0.10660782 -0.05234014
0.03253413 -0.09888422 0.103586 -0.00709246 -0.13051663 -0.16588464 0.07593702 0.13083118
0.061859418 0.029458499 0.023857927 0.025914092 -0.010623096 -0.038401783 -0.14522208 -0.099798016
-0.019433001 0.093800485 0.003221011 -0.11536237 0.07402146 -0.04013087 0.15748057 -0.1217597
-0.03514533 0.019555317 0.045864783 0.106197596 0.048456736 0.099038996 0.017108683 0.03894308
-0.090073615 -0.04568717 -0.031367853 -0.10036744 -0.07781486 0.02839098 0.03910836 -0.08323539
0.018833619 0.023868231 0.0027674264 0.098990336 0.04038064 0.07135401 -0.15151186 0.07779271
-0.017740717 -0.031928107 0.037280723 -0.061861005 -0.027869772 0.060152 0.07220871 0.016674628
0.17900366 -0.05155125 0.07225829 -0.15706347 -0.02631716 0.024552207 0.014686131 0.09286265
0.00842416 -0.07020563 -0.04038404 0.047720715 -0.0569181 0.04158216 -0.032700796 0.047698252
0.019111812 0.046109814 0.0057080244 0.06564665 0.00016847778 0.010965306 0.0063863085 -0.10043593
-0.026040744 0.028074792 0.13459778 0.046987653 0.022618154 0.061850622 -0.005691142 -0.009417732
-0.0069507435 0.08294721 0.043818936 0.12744445 -0.15418394 -0.061854187 0.076173134 0.07686767
-0.016783196 0.124607205 -0.1503131 0.08903663 -0.07202858 -0.18530184 -0.07911561 0.042555887
00000000: 4372 ff3d 0374 8f3c d053 40bd 139b a03d
00000010: b831 4abc 565f 50bd 94e4 fa3d c35f cb3d
00000020: d1b2 b93d 8f5d cd3c 0ee7 913d d2b8 523d
00000030: 0932 9a3d 39c7 0b3e ff60 7f3d 317c 9a3d
00000040: 643b 3ebd ba32 843b 297a e8bc 20d0 a03c
00000050: 7c87 0d3e 0794 69bd d3e6 febb f1be e3bc
00000060: 3490 bb3d 3cc4 b73d 2820 8d3e 6816 d2bd
00000070: 53a0 833d 52bf 8d3e 5f0d 3a3d b610 583e
00000080: 0ddf d4bd 69d8 ba3d 4871 063e 1ee4 493e
00000090: 742e e8bc b9d2 ad3d 53ec f93c c57c 5e3d
000000a0: 10ea 0e3d 66e8 c73c e930 b83d 9ad9 423e
000000b0: 8c7e f73d da19 d5ba de7b 833d 7b9f 863d
000000c0: 7662 803c c003 9c3e bdbd f03d e3e0 cb3c
000000d0: e4ba 003e f64b c63b d1f1 6dbd d004 3bbc
000000e0: 28d7 373e 221c 25bb c704 cb3d 3d5e 503d
000000f0: 36da 123d ba80 b1bd fdf3 243d 9915 783d
00000100: a303 b63d d6a4 233d ba21 533e be6b 0d3e
00000110: 9eb0 8a3c eb35 5b3e 4da4 1fbd 62e3 e53d
00000120: 4494 6bbd 3cea b03c 2996 9d3d 4460 013e
00000130: 612c 38bd 087f 52bd 095e 7a3d a34b 813d
00000140: 2783 223e 3bc8 cd3d ee1b 1ebd f478 353d
00000150: 3ec9 f13d 8f5b c13a 6ca2 0e3d 2a28 5b3d
00000160: 8436 173c 151f 563d 3289 ad3d 7035 803d
00000170: d91d ce3c fd0e 373c 9b86 753d 66eb e23d
00000180: 6a2d 2e3d 46bd 513d a6af 233d e074 1abd
00000190: f45d e83d bf4b a5bc ea0a b03d 9200 553d
000001a0: 4ecc bf3d 043f 123d 9030 553d 8ae9 b6bd
000001b0: 5744 a63b 2365 b93c 2605 1a3e 8b55 193e
000001c0: 0e38 463e 568a c83c b92e 2b3e 75a9 063d
000001d0: 7000 383d 72db c83c 9769 b1bd 0def bc3c
000001e0: eb6e a2bb 7ecd b5bc f584 1f3e b903 b83d
000001f0: bb79 6a3d c9d3 9f3d fd83 283d 702f b93c
00000200: eeb2 03be ac56 c2bd d2d9 2e3e 8745 233e
00000210: 7e6b 523c dacb c6bd 2ab4 833e a14d 793e
00000220: de03 653c bee7 d83d 81e3 f63c f2d9 3b3b
00000230: f230 17bc f623 f13d 0b13 cd3c 03cb 29bd
00000240: 1129 8b3d a673 0abd 9ba2 4f3c 3001 9ebc
00000250: c2ab 26b9 aaa7 d2bd 3355 dabd 9d62 56bd
00000260: 8242 053d cf83 cabd e624 d43d de67 e8bb
00000270: 27a6 05be aadd 29be de84 9b3d 9cf8 053e
00000280: 4d60 7d3d f352 f13c b371 c33c ca49 d43c
00000290: 7e0c 2ebc 304b 1dbd 19b5 14be e762 ccbd
000002a0: f531 9fbc 781a c03d 9917 533b 1b43 ecbd
000002b0: 9098 973d 4460 24bd 9642 213e 265d f9bd
000002c0: 8df4 0fbd 7932 a03c b6dc 3b3d 207e d93d
000002d0: 927a 463d f5d4 ca3d 8227 8c3c c782 1f3d
000002e0: 8478 b8bd 7822 3bbd 947b 00bd 728d cdbd
000002f0: 665d 9fbd 3394 e83c 1630 203d 5177 aabd
00000300: f648 9a3c 4f87 c33c b65d 353b 72bb ca3d
00000310: 2c66 253d 0d22 923d ed25 1bbe c951 9f3d
00000320: fb54 91bc 0cc7 02bd acb3 183d f761 7dbd
00000330: 264f e4bc f261 763d 29e2 933d 3b99 883c
00000340: bc4c 373e 6727 53bd 28fc 933d 3fd5 20be
00000350: 1697 d7bc b621 c93c 199e 703c c62e be3d
00000360: 7d05 0a3c f8c7 8fbd bc69 25bd cc76 433d
00000370: f422 69bd 0e52 2a3d 45f1 05bd 3e5f 433d
00000380: 6090 9c3c a5dd 3c3d 610a bb3b c071 863d
00000390: 69a9 3039 d4a7 333c 3d44 d13b 5ab1 cdbd
000003a0: 6653 d5bc 1bfd e53c 00d4 093e 2076 403d
000003b0: b549 b93c 1457 7d3d c27c babb d54c 1abc
000003c0: 10c3 e3bb 3ae0 a93d 7c7b 333d cc80 023e
000003d0: 65e2 1dbe d15a 7dbd a900 9c3d cc6c 9d3d
000003e0: ea7c 89bc 1032 ff3d adeb 19be d658 b63d
000003f0: b883 93bd c4bf 3dbe 5d07 a2bd 154f 2e3d

action_model._discrete_distribution.branches.1.bias f4 [8]
0.0051470106 0.0063611297 -0.0091304295 0.07200454 0.08629453 0.05061269 0.05701819 0.086382724
00000000: 41a8 a83b 0671 d03b cc97 15bc 1e77 933d
00000010: 30bb b03d 414f 4f3d e88b 693d 6de9 b03d

action_model._discrete_distribution.branches.2.weight f4 [8, 142]
0.14641717 -0.119858205 -0.056244597 0.15303949 0.0049376213 0.16734412 -0.042608086 0.009926423
0.07449093 -0.07275771 0.021137439 -0.032945804 -0.024978194 -0.008272455 -0.08205117 -0.013809213
0.04800486 -0.17155115 0.10215583 -0.044246893 0.08033306 0.028781444 0.110051 0.091331124
0.13030796 -0.019517606 0.0024362532 -0.00012923076 -0.06997414 0.066596575 -0.17192593 -0.06790885
0.17292811 0.061527587 0.021147057 -0.12420421 0.13979805 -0.076501906 -0.100730956 0.12039712
0.004930643 0.09280559 -0.022603644 0.02309608 0.04723352 0.09700682 0.029589657 0.033865213
-0.1608934 -0.046477433 -0.20926517 0.03265005 0.05125538 -0.01110173 0.036640346 0.14513578
0.07715129 0.030665297 0.05961037 0.20138097 -0.0863629 0.018140139 0.0726091 -0.071377546
-0.052746262 -0.17992918 0.06251373 -0.006521363 -0.009398697 -0.012090817 -0.016824722 -0.015979111
0.12615532 0.037177127 -0.0070737572 -0.032195203 0.14600672 0.06582993 0.05037416 -0.034485668
0.05727774 0.119904846 0.045121044 0.027982345 0.06673345 -0.017543612 0.04664437 -0.021491833
0.05941607 -0.08253974 -0.253879 -0.07023324 0.005547917 -0.15620254 0.15522264 0.079254106
-0.12771413 0.027111005 0.035890516 0.049680382 0.04194954 -0.019355236 0.10116999 0.055380084
0.063391045 -0.0071305814 -0.015786385 0.06391035 -0.014886781 -0.0654115 -0.09838462 0.020572659
0.043613948 0.050948426 -0.10324422 0.07620089 0.13106652 0.06381525 -0.06827461 -0.0912855
-0.17629538 0.076023795 0.014999411 0.152276 0.0812922 0.07584759 -0.19789065 0.14999077
-0.01142198 0.020790556 0.056039024 -0.060781438 0.073182315 -0.043733045 -0.12868173 -0.038643043
0.05808697 -0.020645762 -0.013079469 0.13030745 0.057445522 -0.0794964 0.121005975 -0.035388384
-0.08793161 -0.031899683 -0.06896611 -0.1039934 0.0055223624 0.09468364 -0.071833394 -0.076864645
0.013061313 0.017873256 0.004772417 -0.2653177 -0.05500648 0.08593051 0.035958376 -0.10047736
0.23118134 0.009231351 0.0147984885 0.004623835 0.058575843 0.03010475 -0.010073809 0.040815126
-0.029343378 0.08593873 -0.033533968 0.09456339 0.0038053084 0.016672458 0.14301252 0.05948839
0.005398233 -0.033734873 0.08178737 -0.033873335 -0.14799419 -0.101789236 -0.022313114 -0.06005501
-0.026193118 -0.09639524 -0.03988484 0.0027317298 0.12626494 -0.027478386 -0.087992124 0.059493296
-0.08804832 0.07785442 0.022418965 -0.067853265 0.024623614 -0.19832043 -0.037105884 -0.24401213
-0.03319108 0.05896563 -0.20038472 0.09501634 0.06473353 0.116692096 -0.03817696 -0.009301682
-0.10489528 0.022903213 -0.057086222 -0.06916034 -0.034040783 -0.01442593 0.091190875 0.07650812
0.101588294 0.065708116 -0.06065442 -0.15871042 0.0310281 0.10380611 -0.030398043 -0.026105128
-0.060193893 0.012163527 -0.052211348 -0.029647438 -0.062378522 0.07217589 -0.05774549 -0.03457002
0.0119615 0.039092332 0.0086974045 0.10724899 0.053588435 -0.08299965 0.073208764 -0.07411425
-0.01142702 0.05578484 -0.021471059 -0.0048283935 -0.00032756137 0.026163058 -0.03467119 0.08497949
-0.06929301 0.13659106 0.024040524 -0.13414408 -0.0749973 0.031740647 0.12041548 -0.07113579
00000000: 62ee 153e 3878 f5bd bc60 66bd 62b6 1c3e
00000010: c5cb a13b 425c 2b3e d185 2ebd 70a2 223c
00000020: b38e 983d ff01 95bd 6c28 ad3c 2ef2 06bd
00000030: 129f ccbc 3189 07bc 720a a8bd 0a40 62bc
00000040: bea0 443d 1bab 2fbe 1337 d13d 3b3c 35bd
00000050: a985 a43d 10c7 eb3c 6b62 e13d d00b bb3d
00000060: 736f 053e 63e3 9fbc 8ca9 1f3b 1e82 07b9
00000070: 9a4e 8fbd c963 883d 5a0d 30be cc13 8bbd
00000080: 1114 313e 5a04 7c3d 983c ad3c c75e febd
00000090: 3827 0f3e 08ad 9cbd 084c cebd c492 f63d
000000a0: 3b91 a13b db10 be3d 472b b9bc fe33 bd3c
000000b0: ef77 413d 83ab c63d 0266 f23c 40b6 0a3d
000000c0: 3dc1 24be 1f5f 3ebd 9c49 56be 0fbc 053d
000000d0: 29f1 513d 08e4 35bc 3014 163d 799e 143e
000000e0: 7f01 9e3d ca35 fb3c 012a 743d d036 4e3e
000000f0: 08df b0bd a19a 943c 14b4 943d 642e 92bd
00000100: 770c 58bd 5b3f 38be 3307 803d 28b1 d5bb
00000110: fefc 19bc 9018 46bc 00d4 89bc a0e6 82bc
00000120: dc2e 013e 0b47 183d faca e7bb 1edf 03bd
00000130: c982 153e d8d1 863d 2355 4e3d d840 0dbd
00000140: 109c 6a3d ac90 f53d d8d0 383d 3b3b e53c
00000150: 8cab 883d 9fb7 8fbc 2b0e 3f3d a40f b0bc
00000160: 445e 733d 980a a9bd 6efc 81be 72d6 8fbd
00000170: 4dcb b53b 8ff3 1fbe aff2 1e3e fa4f a23d
00000180: 7ec7 02be e617 de3c ef01 133d a87d 4b3d
00000190: 48d3 2b3d df8e 9ebc 3632 cf3d 3ad6 623d
000001a0: 2ad3 813d a7a7 e9bb 7352 81bc 6ee3 823d
000001b0: afe7 73bc 77f6 85bd e07d c9bd fe87 a83c
000001c0: 8aa4 323d 4caf 503d b571 d3bd 360f 9c3d
000001d0: 4d36 063e 92b1 823d 8fd3 8bbd e4f3 babd
000001e0: c786 34be 5db2 9b3d 17c0 753c 3dee 1b3e
000001f0: 867c a63d fb55 9b3d d9a3 4abe 2e97 193e
00000200: 4223 3bbc f550 aa3c 2d89 653d f5f5 78bd
00000210: 9ce0 953d 6c21 33bd 25c5 03be 2b48 1ebd
00000220: 9aec 6d3d 4d21 a9bc 454b 56bc 516f 053e
00000230: ff4b 6b3d 02cf a2bd fbd1 f73d 69f3 10bd
00000240: 7d15 b4bd 3ea9 02bd 1b3e 8dbd 7efa d4bd
00000250: eff4 b43b 7fe9 c13d 631d 93bd 366b 9dbd
00000260: 1eff 553c ef6a 923c ef61 9c3b b9d7 87be
00000270: 7a4e 61bd 56fc af3d 1749 133d 13c7 cdbd
00000280: cdba 6c3e 183f 173c 5c75 723c 8a83 973b
00000290: 39ed 6f3d 3d9e f63c 9e0c 25bc c32d 273d
000002a0: 8661 f0bc a500 b03d ea5a 09bd 73aa c13d
000002b0: 7b62 793b ae94 883c e071 123e 19aa 733d
000002c0: a9e3 b03b 942d 0abd 2380 a73d c4be 0abd
000002d0: ca8b 17be e076 d0bd fec9 b6bc 3efc 75bd
000002e0: f392 d6bc de6a c5bd 495e 23bd d206 333b
000002f0: 994b 013e 5a1a e1bc 3735 b4bd 3eaf 733d
00000300: ad52 b4bd 2372 9f3d faa7 b73c a7f6 8abd
00000310: 76b7 c93c 8314 4bbe 57fc 17bd 51de 79be
00000320: 5ff3 07bd f285 713d a731 4dbe ed97 c23d
00000330: 0393 843d 44fc ee3d 725f 1cbd 1566 18bc
00000340: 56d3 d6bd 859f bb3c 3ed3 69bd f0a3 8dbd
00000350: 596e 0bbd bc5a 6cbc 48c2 ba3d 4ab0 9c3d
00000360: 860d d03d fa91 863d c570 78bd fc84 22be
00000370: a42e fe3c 4c98 d43d 5105 f9bc 6cda d5bc
00000380: df8d 76bd 8849 473c 91db 55bd 2fdf f2bc
00000390: 9f80 7fbd f4d0 933d 8986 6cbd 4b99 0dbd
000003a0: 2bfa 433c 481f 203d 8f7f 0e3c 5ca5 db3d
000003b0: 8c7f 5b3d b8fb a9bd 7aee 953d 36c9 97bd
000003c0: 6538 3bbc a57e 643d 13e4 afbc 8037 9ebb
000003d0: 8bbc abb9 e953 d63c 6103 0ebd ba09 ae3d
000003e0: 7ee9 8dbd 87de 0b3e a2f0 c43c 115d 09be
000003f0: 2f98 99bd 7b02 023d 649c f63d a4af 91bd

action_model._discrete_distribution.branches.2.bias f4 [8]
0.11742783 0.055176772 0.014129719 -0.034387704 -0.092282444 0.10823272 0.07973836 0.015695872
00000000: 017e f03d 0a01 623d 5680 673c 1fda 0cbd
00000010: 94fe bcbd 1ea9 dd3d de4d a33d a194 803c

action_model._discrete_distribution.branches.3.weight f4 [8, 142]
0.07537942 0.17587589 -0.06036395 -0.05555409 -0.045302764 0.08480985 -0.021811573 0.012213927
0.0064657945 0.05915373 -0.04906563 -0.030038642 -0.071473755 -0.11099201 0.021689951 -0.1306835
0.0642783 -0.03274623 0.12940526 0.06473166 -0.0997219 0.09362097 0.056706805 -0.03456444
-0.08728645 -0.033321362 -0.002162432 -0.0013986187 -0.022974923 0.056072976 -0.056052882 0.032738436
0.12092662 0.08512696 -0.16193864 0.08632744 0.042080253 -0.09048664 -0.15792106 -0.018627139
0.02044059 0.016396556 -0.041992202 -0.07699322 0.039462402 -0.2447472 -0.05032317 0.035881564
0.041994743 0.01564522 0.003985056 -0.030917712 -0.08963134 0.025498206 -0.17477378 0.12846118
0.0034804777 0.052684203 -0.040320333 0.09326762 0.015457616 0.09998399 0.049571328 -0.05004592
0.14554423 -0.026334556 0.03800629 0.01845405 -0.098596625 0.042839833 -0.096110865 -0.086061634
-0.045432195 0.07097368 0.073562466 0.018203435 -0.110521264 0.022430984 0.0002275362 -0.04470763
0.13513763 0.01469393 0.0506907 -0.020538265 -0.029008817 -0.107609496 -0.084971085 0.119645536
-0.019063104 -0.12123402 -0.011655562 0.0019251717 -0.17999648 0.07021008 0.06629173 0.11663788
0.0021941445 0.101376876 0.006797285 -0.20050323 -0.013332021 0.056123234 0.08758065 0.020536052
-0.055397864 0.12744191 0.15912311 0.030077342 -0.11107242 0.0018368152 -0.15508312 0.014535323
0.22733422 0.007323383 0.024569437 0.030202404 -0.043743223 -0.1170451 -0.0046534445 -0.057992645
0.004631483 0.026904503 0.0046703676 0.08984526 0.11504064 -0.03348569 -0.14967132 0.0024223928
-0.026353002 0.0850072 0.09099072 -0.12879425 0.15744954 0.12804852 0.012043307 0.0027858093
-0.011787159 -0.021039486 0.19807175 0.07619858 0.17955479 -0.004156784 0.13366155 0.09569019
-0.055660043 0.08656585 0.018283738 -0.14451405 -0.018419752 0.0027709182 -0.021979755 -0.099955805
0.09831362 -0.07684323 -0.000527893 -0.09913288 -0.040956236 -0.040959813 0.03652085 -0.029390993
0.12497301 -0.04140451 -0.047159377 -0.045207564 0.01217957 0.0205471 0.0373998 -0.011952884
-0.07890203 0.20343469 0.0032760699 -0.011882844 0.019134736 -0.07350566 0.073409796 -0.031814113
0.05712414 -0.02996454 0.114866786 -0.03526363 0.024233263 0.07734212 0.15264542 -0.006352116
0.06500144 -0.009555531 -0.076075844 -0.04311165 -0.049493734 -0.02507533 0.046963632 0.04582713
-0.07233432 -0.0877869 -0.01912919 0.012267904 -0.04618278 0.0705617 0.09243218 0.03812355
-0.08988091 -0.052890833 0.003588638 -0.17655747 0.060498625 0.011230443 -0.081241086 0.023178587
-0.13304898 -0.16378109 -0.037700713 -0.10563735 -0.091441244 0.1144495 0.08310279 0.04413264
-0.0056472234 -0.09061686 -0.07608763 0.04748616 0.22298877 -0.02132121 -0.047608625 -0.052038014
0.11409697 0.06648141 -0.023174455 -0.04325278 0.10235922 0.10678606 0.015576832 0.038018495
-0.17723526 0.040054716 -0.019640118 0.00042013585 0.042821433 -0.015916543 -0.051151652 -0.091120504
-0.063104324 -0.118071206 0.08505576 0.14448395 -0.10895475 0.20276578 -0.010607046 -0.19146022
-0.025158493 0.060692523 -0.13830222 -0.020549715 -0.12576686 0.019403672 0.08705577 -0.007975359
00000000: 8660 9a3d cf18 343e 3040 77bd af8c 63bd
00000010: 648f 39bd c9b0 ad3d 2fae b2bc ec1c 483c
00000020: 04df d33b 2e4b 723d 0bf9 48bd 9913 f6bc
00000030: d560 92bd c74f e3bd 20af b13c e5d1 05be
00000040: 57a4 833d e920 06bd d082 043e 0892 843d
00000050: ff3a ccbd 5abc bf3d 6545 683d 7193 0dbd
00000060: 3dc3 b2bd fb7b 08bd 97b7 0dbb db51 b7ba
00000070: e835 bcbc c7ac 653d b597 65bd bd18 063d
00000080: 60a8 f73d 0b57 ae3d 3ed3 25be 71cc b03d
00000090: 585c 2c3d 0f51 b9bd 0fb6 21be f197 98bc
000000a0: 0673 a73c 1252 863c 0400 2cbd 9fae 9dbd
000000b0: 54a3 213d 039f 7abe ab1f 4ebd 8cf8 123d
000000c0: ae02 2c3d 682a 803c 1395 823b 2447 fdbc
000000d0: a390 b7bd 9de1 d03c e6f7 32be 548b 033e
000000e0: ba18 643b 64cb 573d ef26 25bd 1803 bf3d
000000f0: f141 7d3c 68c4 cc3d 4e0b 4b3d f3fc 4cbd
00000100: 8c09 153e 91bb d7bc 7cac 1b3d f32c 973c
00000110: 07ed c9bd d278 2f3d c6d5 c4bd 1541 b0bd
00000120: 1c17 3abd a65a 913d eba7 963d 5f1f 953c
00000130: f958 e2bd 2fc1 b73c c996 6e39 591f 37bd
00000140: 8561 0a3e cfbe 703c 0da1 4f3d dd3f a8bc
00000150: e6a3 edbc 5e62 dcbd 5205 aebd b808 f53d
00000160: 3a2a 9cbc 8b49 f8bd f8f6 3ebc 0b56 fc3a
00000170: ff50 38be 4dca 8f3d f5c3 873d d7df ee3d
00000180: a3cb 0f3b ae9e cf3d c2bb de3b b850 4dbe
00000190: 8d6e 5abc 7ae1 653d 7c5d b33d 393b a83c
000001a0: dfe8 62bd 2280 023e 2bf1 223e c264 f63c
000001b0: f079 e3bd 4ac1 f03a 1cce 1ebe 9025 6e3c
000001c0: 4dca 683e fdf8 ef3b d845 c93c 086b f73c
000001d0: 182c 33bd 57b5 efbd ec7b 98bb b289 6dbd
000001e0: b2c3 973b d566 dc3c e209 993b cb00 b83d
000001f0: 6d9a eb3d 4a28 09bd 7043 19be 02c1 1e3b
00000200: 40e2 d7bc 4118 ae3d 5859 ba3d a4e2 03be
00000210: 743a 213e 271f 033e 4a51 453c 2092 363b
00000220: ee1e 41bc 005b acbc 52d3 4a3e 000e 9c3d
00000230: 36dd 373e a235 88bb 93de 083e 38f9 c33d
00000240: c9fb 63bd 7049 b13d c7c7 953c 7efb 13be
00000250: 05e5 96bc 4b98 353b e30e b4bc a1b5 ccbd
00000260: a758 c93d fc5f 9dbd 4d62 0aba 2e06 cbbd
00000270: bac1 27bd 7ac5 27bd e396 153d 61c5 f0bc
00000280: d9f1 ff3d c797 29bd 312a 41bd 912b 39bd
00000290: d28c 473c 6452 a83c 8830 193d 07d6 43bc
000002a0: 6397 a1bd 2f51 503e 55b3 563b 43b0 42bc
000002b0: 73c0 9c3c 238a 96bd e057 963d 844f 02bd
000002c0: 01fb 693d 3278 f5bc 473f eb3d 9970 10bd
000002d0: d684 c63c 8c65 9e3d 154f 1c3e 6925 d0bb
000002e0: 7a1f 853d cd8e 1cbc a7cd 9bbd d795 30bd
000002f0: f1b9 4abd c76a cdbc f05c 403d 3bb5 3b3d
00000300: 0424 94bd 9ec9 b3bd d2b4 9cbc 52ff 483c
00000310: 282a 3dbd a782 903d 154d bd3d 7127 1c3d
00000320: 7c13 b8bd 0fa4 58bd 5b2f 6b3b 7bcb 34be
00000330: 68cd 773d e4ff 373c ba61 a6bd 05e1 bd3c
00000340: fe3d 08be 3bb6 27be 106c 1abd 6558 d8bd
00000350: 8c45 bbbd 8064 ea3d cc31 aa3d 6dc4 343d
00000360: 580c b9bb 5595 b9bd d5d3 9bbd d980 423d
00000370: 2b57 643e d1a9 aebc 4301 43bd d025 55bd
00000380: acab e93d 6827 883d 5bd8 bdbc d429 31bd
00000390: b6a1 d13d a6b2 da3d f835 7f3c 48b9 1b3d
000003a0: 297d 35be 6a10 243d 50e4 a0bc ae45 dc39
000003b0: 8765 2f3d 6963 82bc 6584 51bd 639d babd
000003c0: d73c 81bd 51cf f1bd b731 ae3d 9af3 133e
000003d0: ab23 dfbd d5a1 4f3e 2dc9 2dbc 260e 44be
000003e0: 2f19 cebc b998 783d 199f 0dbe e057 a8bc
000003f0: 07c9 00be 73f4 9e3c 4c4a b23d 15ab 02bc

action_model._discrete_distribution.branches.3.bias f4 [8]
0.08827502 0.05130152 -0.004675703 0.05757531 0.062196005 -0.0921124 0.07498867 0.03842722
00000000: 89c9 b43d 8b21 523d a436 99bb 17d4 6b3d
00000010: 3dc1 7e3d 6da5 bcbd a993 993d dc65 1d3d
