results/TwoAgents1/BlackMLAgent/BlackMLAgent-192.onnx (onnx, 126200 bytes, 15 tensors)

discrete_act_size_vector f4 [1, 5]
000000 00 00 00 41 00 00 00 41 00 00 00 41 00 00 00 41
       8.0 8.0 8.0 8.0
000010 00 00 a0 40
       5.0

network_body._body_endoder.seq_layers.0.weight f4 [128, 64]
000000 f3 6e 89 bd 10 6f 09 3d be 34 05 3e 08 c4 3a bd
       -0.06710615 0.033553183 0.13008401 -0.045597106
000010 a9 35 3a 3b 1d 0c 62 3e 14 b7 20 be cc ca 2e 3e
       0.0028413332 0.22074933 -0.15694839 0.17069548
000020 80 32 92 3b 99 58 82 bd 53 15 e5 bd 41 95 c9 bd
       0.0044615865 -0.06364555 -0.11185708 -0.09842921
000030 7c b8 2a 3d b7 45 80 3d f8 ab 7d 3d fd f1 45 3e
       0.041679844 0.06263297 0.06193158 0.19330592
000040 00 c1 59 3d eb 92 fe bc dc b1 7e be 24 f6 3a 3b
       0.053162575 -0.031075915 -0.24872535 0.002852806
000050 e5 1c 6c 3a 1b ff 0e bd da 00 3c 3b 2b 90 9b bc
       0.0009006991 -0.034911256 0.002868703 -0.018989643
000060 de 59 98 be 00 9c e9 bc c2 d0 7f bd 3f a1 06 be
       -0.29756063 -0.02851677 -0.062454946 -0.13147448
000070 41 89 b7 3c 4d 0b 57 be db 55 aa bd 3c 3a 1d bd
       0.022404315 -0.21000405 -0.08317157 -0.038385615
000080 2c d5 3e 3b 68 37 ba 3c 0b a8 87 bc 6f 88 04 be
       0.002911876 0.022731498 -0.016559621 -0.1294267
000090 92 0a e2 bd 51 0e a4 bd 00 7c 09 3e 1f f5 83 3e
       -0.110371724 -0.08010543 0.13426208 0.2577295
0000a0 20 d8 db 3d 2e 2e 79 3d 04 07 1c bc b9 ba b3 3c
       0.10734582 0.060835056 -0.009523157 0.021939622
0000b0 86 93 9d 3d f5 46 f8 3d fb c3 c8 3d af 60 19 bd
       0.076941535 0.12122909 0.09803005 -0.03744572
0000c0 5f 95 fd bd b5 d0 13 3e 85 16 3a 3e cc 29 5e 3a
       -0.12382006 0.14435084 0.18172653 0.0008474856
0000d0 69 1f 86 3c c4 63 1e be 6d c2 c7 bd f3 45 86 3b
       0.0163724 -0.15467745 -0.09753881 0.004097694
0000e0 2d 90 3d 3e c3 54 ae bd 95 40 46 bd 22 53 00 bc
       0.1851203 -0.08512261 -0.048401434 -0.00783232
0000f0 ab 08 53 be 7a ce 04 3e a2 30 84 3e af ba 94 3c
       -0.20608775 0.1296939 0.25818354 0.018155424
000100 5e 90 8e bd 6a 02 56 bd 5c 17 ab bd 38 cc b2 3d
       -0.069611296 -0.052248396 -0.08354065 0.08730358
000110 79 d0 d1 bc ab 2d 49 3b 73 26 96 3d 7d d2 4a 3c
       -0.025612103 0.0030697386 0.07331552 0.012379286
000120 2e 5a 0d 3e 84 6e 0c 3e b3 d4 8e 3d 25 f6 23 3d
       0.13803932 0.13714033 0.06974163 0.040029664
000130 ab be b9 bc 11 02 6c 3e d8 b8 0f 3e b3 c7 4b 3e
       -0.022673925 0.23047663 0.14035356 0.19900398
000140 7c c9 04 be 52 b5 35 3e ff 7c 5f be 94 38 4c bd
       -0.12967485 0.1774495 -0.21825026 -0.049858645
000150 a3 71 da bb 9e ca a4 3d 38 ed 48 bc bb b7 ee 3d
       -0.0066663786 0.08046459 -0.012263589 0.116561376
000160 9f 72 06 be 5b f3 33 bd 0a 4a d5 bb ea 0b 38 be
       -0.13129662 -0.043933254 -0.0065090703 -0.17973295
000170 31 ee 14 3d a4 bc 2e 3d 16 01 5a be 2c e4 a3 3c
       0.03635997 0.04266037 -0.21289477 0.020006262
000180 b3 d3 6c 3d e1 4e 1d 3d 6c 9a 1e 3e 94 db 38 3e
       0.05781908 0.038405303 0.15488595 0.18052512
000190 f5 ab be bd 4b 34 f3 bd 14 f0 3f 3d d3 96 7c bd
       -0.09310142 -0.118752085 0.046859816 -0.061667275
0001a0 8d a6 4c 3d 77 a0 45 3e b5 ca b1 3d ee f3 7a 3d
       0.049963523 0.19299494 0.086812414 0.061267786
0001b0 cf a8 ff bd 11 50 57 be b1 5e ef 3b 8a 61 a3 bd
       -0.124833696 -0.21026637 0.0073049893 -0.079775885
0001c0 64 36 fd 3b ad 47 eb 3d 4f 29 20 be e9 ac 36 3e
       0.007727431 0.114882804 -0.15640758 0.17839397
0001d0 6e f0 2e 3e 0e 31 42 3e 25 d9 14 be 94 b9 d2 3d
       0.17083904 0.18964025 -0.14535959 0.102893025
0001e0 c9 ee ab bd 39 00 84 3c 1f 04 d4 bc a0 41 06 3e
       -0.08395154 0.016113387 -0.025880871 0.13110971
0001f0 95 12 3d bd f4 f9 c4 3d ec c9 43 3e e5 4c 32 bd
       -0.0461603 0.09617987 0.19119996 -0.043530364
000200 26 a3 3f bd e0 c3 87 3d 83 0e 3f bc 93 46 c2 3d
       -0.04678645 0.06629157 -0.011661175 0.09486117
000210 12 5f 24 bc b1 21 fc bc 89 d5 9c bd 4f 54 9a 3d
       -0.010032432 -0.030777784 -0.07657916 0.07535612
000220 e6 b5 4f 3e e0 2e 72 bd 12 0f 29 be 9d 30 22 3e
       0.20284232 -0.059126735 -0.16509655 0.15838857
000230 7e 58 41 3c 81 13 a9 bd d0 77 58 3e 2a d0 8e 3d
       0.011800883 -0.08255673 0.21139455 0.06973298
000240 42 6c d8 bd d9 a8 56 3d 46 1d fd 3d cf ec 3d be
       -0.105675235 0.05240712 0.12359099 -0.18547367
000250 d7 91 21 be de db 23 3e ae e3 59 bd 86 75 ed bd
       -0.1577829 0.16001841 -0.053195648 -0.115946814
000260 0a dc 0d bd 9a 01 2b 3d 2b 36 fa 3d be be 15 3e
       -0.034633674 0.041749574 0.12217363 0.14623544
000270 0d 74 fb bc ff 3f f4 3d 19 05 21 be d2 77 dd 3d
       -0.030694986 0.11926269 -0.15724601 0.108138695
000280 93 00 6e 3e ff f6 0c be 95 71 46 3d 22 fb 90 be
       0.23242407 -0.13766097 0.048448164 -0.283166
000290 8c fe 3f 3e 12 c6 7f 3d ac b8 c2 3d 8f 6a e2 bc
       0.18749446 0.062444754 0.095078796 -0.027638702
0002a0 6f 9e 8c bd 34 73 cb bd 17 af 5c bd c2 0d 2f 3c
       -0.06866156 -0.099340826 -0.053877916 0.010684432
0002b0 95 d3 8f 3a a2 63 d9 bd 31 72 71 3b 83 9f d9 3d
       0.001097309 -0.106147066 0.0036841745 0.106261276
0002c0 db 76 72 bd 0b 6a 02 be d7 83 ae bd 1d 0e 21 be
       -0.05919538 -0.12735765 -0.0852124 -0.1572804
0002d0 2f 7b 19 be f4 3c 55 bc 51 d5 9e 3d bc 8e b5 3d
       -0.14988397 -0.013015021 0.077555306 0.08865115
0002e0 6e 08 4d be ba 70 07 3d 46 4f 20 3e 47 d4 ec bd
       -0.20022747 0.03306649 0.1565524 -0.11563926
0002f0 60 ee 58 ba 0f 52 3d be 7d 35 27 3e ae cf fc bd
       -0.0008275267 -0.18488334 0.16328998 -0.12344299
000300 2d 39 70 bd 19 92 d1 bd 17 f3 a8 3d 1f a5 d2 3d
       -0.058648277 -0.10232944 0.08249491 0.102854006
000310 76 fc 0f 3d 62 41 84 be 54 f4 fa 3d bf 44 61 bd
       0.035152875 -0.25831133 0.12253633 -0.054997202
000320 b3 a5 8d 3e f9 dd 56 3e 16 b6 20 be a3 cc ab 3d
       0.2766548 0.20983113 -0.1569446 0.08388641
000330 2e d2 94 3d 93 c7 de 3d 84 f8 c3 3c 91 97 b8 3c
       0.07266651 0.108779095 0.023922212 0.02253321
000340 cc 78 4b be ed 55 67 be 18 fc 2d be 50 0c 37 be
       -0.19870299 -0.22591372 -0.16990697 -0.1787579
000350 0e 21 54 be 74 63 ac ba fb f8 93 3e 9e fc 33 bd
       -0.20715734 -0.0013152198 0.28900895 -0.043942086
000360 9b 21 4c 3d b7 b7 57 bd 47 21 c9 bc 92 74 38 3e
       0.049836736 -0.05266544 -0.024552 0.18013218
000370 80 52 b6 3b 18 47 b8 3d 80 25 a1 3d d0 47 f0 bd
       0.005564034 0.08997935 0.07868481 -0.11732447
000380 e8 c4 99 3c 65 be 37 be 85 c9 72 be ae f7 96 be
       0.01877065 -0.17943723 -0.23709686 -0.2948584
000390 47 a6 6f be ae 5a b9 bd e5 e5 75 3d 40 7d 7b 3d
       -0.23403274 -0.09050499 0.060033698 0.061398745
0003a0 b1 18 85 3e df 79 bb bd 8c fa 93 3d 21 dd c8 3c
       0.259954 -0.091541044 0.072255224 0.024519505
0003b0 0b 2f 14 3e ab dc 59 be ae a2 68 bd cf 6d 3a be
       0.1447107 -0.21275584 -0.05679577 -0.18205951
0003c0 16 31 2d 3e e3 a4 fa 3c 80 71 c3 3e 3f 44 88 3c
       0.16913256 0.030596202 0.3817253 0.016634105
0003d0 36 93 00 3d 73 2a 87 bd f9 24 17 3d dc 66 3b bd
       0.03139039 -0.065998934 0.036900494 -0.04575239
0003e0 ed bd 78 bd 6a f6 14 3d 90 c5 0d 3c 99 32 4c 3d
       -0.060728002 0.03636781 0.00865306 0.04985294
0003f0 93 35 aa 3e 04 07 bb bd ee 0b 5e 3b 8a 39 39 be
       0.33244 -0.091321975 0.0033881622 -0.18088356

network_body._body_endoder.seq_layers.0.bias f4 [128]
000000 c6 d4 6e 3b 73 cf 69 3b 41 cc 9c ba 94 3a c8 ba
       0.003644274 0.0035676628 -0.0011962728 -0.0015276247
000010 df a0 59 ba 6e 6b 5f 3b 14 0d c9 3a d8 d8 8b 39
       -0.0008301865 0.0034091133 0.0015338981 0.00026673707
000020 b1 2a f9 39 1f c8 5e bb 2d d7 ec b8 be 3a e1 ba
       0.00047524789 -0.0033993793 -0.000112934365 -0.0017183644
000030 73 09 57 3b 5e 3b c0 ba 13 fc 2f bb 0f e5 ec 3a
       0.0032812029 -0.001466613 -0.0026853129 0.0018073636
000040 14 51 0c 3b 8c 55 09 3b 23 a5 e9 3b 14 28 c2 39
       0.002141063 0.002095553 0.0071302815 0.00037032424
000050 64 c8 14 bb 47 8b fc 3a 10 86 94 3a b8 9e bf ba
       -0.002270245 0.0019267582 0.0011331458 -0.0014619445
000060 76 d0 82 b9 bf ad 15 3a 4e 45 68 bb 5e 32 31 3a
       -0.00024950848 0.0005709789 -0.00354417 0.00067595195
000070 1d 3d 9c 39 f9 5d 18 3b 83 bc 87 bb 46 ed ad ba
       0.00029800172 0.0023249371 -0.0041423454 -0.0013269566
000080 27 f4 71 3a 98 c4 fb 3a e7 03 d4 3a d6 f6 da b9
       0.0009229802 0.001920837 0.0016175479 -0.00041764107
000090 63 5a a2 3b f9 a6 8b b7 e8 84 cd 38 56 0f 95 b8
       0.0049546226 -1.6647844e-05 9.7999175e-05 -7.10773e-05
0000a0 4c dd ee 3a 06 84 9f 39 26 48 67 39 3a 25 65 3b
       0.0018223911 0.00030425208 0.00022056754 0.0034964816
0000b0 17 d8 be 3a e4 db e7 ba 91 76 3e bb 54 18 43 bb
       0.0014560249 -0.0017689434 -0.002906237 -0.002976914
0000c0 4e fa c8 3a e8 43 fe 39 19 c4 2f 3b 9d 50 21 3a
       0.0015333386 0.0004849725 0.0026819764 0.0006153675
0000d0 a1 5b 04 39 6a 5c e3 39 f2 25 46 bb f4 8a bd ba
       0.00012622635 0.00043365668 -0.003023502 -0.0014460967
0000e0 f5 9e f3 3a 2f 07 08 bb 34 07 2f bb 8a 07 b4 38
       0.0018586802 -0.0020756235 -0.0026707174 8.584473e-05
0000f0 0b 14 1e 3a 77 0c f3 ba 3b 77 08 3b ee 30 ee ba
       0.00060302083 -0.0018543144 0.002082302 -0.0018172541
000100 eb 07 cc b9 e6 0c 31 ba d1 02 96 3a d5 86 e3 3a
       -0.00038915811 -0.0006753936 0.0011444931 0.0017358909
000110 87 d8 04 3b 9b 53 7e 3a 9c 81 57 ba 4a 5d 2c 3b
       0.0020270662 0.0009701789 -0.00082209124 0.0026300722
000120 14 18 59 3a 99 2b 03 ba 7e 2c 98 3a 41 68 a0 3b
       0.0008281481 -0.000500375 0.0011609939 0.0048952405
000130 a2 85 49 ba e6 80 28 ba d1 8c 15 39 0b 65 02 3b
       -0.00076874543 -0.0006427899 0.00014262206 0.0019896652
000140 3e 2c d3 3a 53 4d 99 b9 e7 86 ed b9 12 a9 77 b9
       0.0016111208 -0.00029240045 -0.00045304673 -0.00023618739
000150 0e d8 15 b8 81 23 7d 3a 30 f6 34 3a 88 ff 23 3b
       -3.5725585e-05 0.00096564746 0.000690314 0.0025024135
000160 e4 a2 2c bb 11 50 ce ba 1f 23 ca b9 17 cd 1b ba
       -0.0026342208 -0.0015740414 -0.0003855461 -0.00059433415
000170 34 27 fb b9 93 4f d7 ba 54 b5 41 bb 19 a0 0f bb
       -0.0004790366 -0.0016426913 -0.0029557543 -0.0021915494
000180 2a 0c d0 ba 3c 47 35 3b 00 5e 0f ba c8 da 67 3a
       -0.0015872766 0.0027660867 -0.0005469024 0.00088445516
000190 7e 87 2a ba 91 fa ad ba 1f b5 89 bb f1 72 91 ba
       -0.0006505175 -0.0013273527 -0.0042024995 -0.0011096877
0001a0 a5 fe 6f ba b2 81 a2 3a b3 30 bf 3a 1e f0 a5 ba
       -0.00091550715 0.0012398271 0.0014586657 -0.0012660061
0001b0 8b 19 92 3a 17 9b e7 3a 3a 68 0d 3b 38 ba d7 37
       0.0011146528 0.0017670122 0.0021577016 2.5716712e-05
0001c0 bd 34 c2 ba c4 54 fe 3a dc 22 aa 39 2a c8 85 ba
       -0.0014816743 0.0019403924 0.000324509 -0.0010206748
0001d0 0d b9 83 bb 98 a5 7e 3b ad b3 f6 3a 09 70 07 bb
       -0.0040198625 0.0038856026 0.0018821858 -0.0020666143
0001e0 d8 0b a2 37 48 f1 1d ba 7c 85 0f 3a 79 d4 d8 3b
       1.931742e-05 -0.00060250284 0.0005474908 0.0066171256
0001f0 b0 b8 18 ba 3f 85 ef 3a 2f 0c 35 39 10 f5 1c b7
       -0.00058258604 0.0018273963 0.00017266044 -9.355383e-06

network_body._body_endoder.seq_layers.2.weight f4 [128, 128]
000000 35 6c 00 3d 94 25 40 3d 61 b1 41 ba 97 fc e4 bb
       0.031353194 0.046910837 -0.0007388797 -0.006988119
000010 05 22 49 3d 88 15 09 be 29 1a f3 bc 12 f0 17 3e
       0.04910471 -0.1338712 -0.02967556 0.14837673
000020 75 fc b9 bd 6d c4 b5 bd cb 65 96 bd dd 26 f9 3a
       -0.090813555 -0.08875356 -0.07343634 0.0019008775
000030 85 f0 7b bd b8 34 8e bd 35 33 61 bd 86 aa b5 bd
       -0.061508674 -0.06943649 -0.054980475 -0.088704154
000040 41 71 c3 bc 9b 3b 14 3d bd a6 f5 bc e2 0b 35 3d
       -0.023857715 0.036189657 -0.029986734 0.044200785
000050 c0 a1 37 3d 0f 3c 32 3d 35 91 09 3c dd 89 42 3c
       0.04483199 0.043514308 0.008396436 0.0118736895
000060 c0 c1 20 be d4 0e ce bd 1c 7c ee 3c 7c b1 4b bd
       -0.1569891 -0.10061422 0.029111914 -0.04972981
000070 9d 9a 17 bc c2 30 88 bd a8 83 1e bd 26 28 26 be
       -0.009253171 -0.06649925 -0.038699776 -0.16226253
000080 8a c1 88 bd 71 f7 33 bc 35 84 65 3d 3f df 4a 3d
       -0.0667754 -0.010984288 0.056034286 0.04952931
000090 2a 81 40 3e 36 61 0a 3c 39 08 6a 3d 7f fb 15 be
       0.18799272 0.008446028 0.057136748 -0.1464672
0000a0 09 8a e8 3d 0b 14 3d 3c 55 b2 ba bc 0a 7d a8 bc
       0.11354453 0.011540423 -0.022790113 -0.020567436
0000b0 60 46 1c be a8 af ec 3c b1 5f 17 be 86 ad 9a bd
       -0.15261221 0.028892353 -0.14782597 -0.07552628
0000c0 d8 fe a3 bd 30 fb 1d 3c 39 07 de 3d b3 29 db 3d
       -0.08007592 0.009642407 0.10841221 0.10701313
0000d0 a5 d3 ca 3d 17 d0 02 be f9 9b c7 bc f1 08 75 bd
       0.09903649 -0.12774692 -0.024366366 -0.05982298
0000e0 1a ba 0f 3e ca ca 0e bd 4b 86 6c bd 54 2a 68 3d
       0.14035836 -0.034861363 -0.05774526 0.056680992
0000f0 02 ce c6 3d 52 df 1d be bd 5b 4b bd b4 1b 17 3d
       0.097072616 -0.15417221 -0.049648035 0.036891654
000100 fa 7b 77 bd c6 89 14 be 83 a8 ad 3d 3a 27 d5 3d
       -0.060420968 -0.14505681 0.08479407 0.104078725
000110 0c 15 25 3e 50 ac 39 bd 1c a2 08 3d 40 48 ca bc
       0.1612131 -0.045330346 0.033357725 -0.024692655
000120 1d cc 4b 3e c2 e1 c9 3c 7a 6a eb ba 84 3a c6 3d
       0.19902082 0.024643783 -0.001796081 0.0967913
000130 86 a6 0d be 05 e6 a2 bb 52 b2 5d bd 95 0e d0 bd
       -0.13833055 -0.004971268 -0.054125138 -0.10159031
000140 57 b3 94 3d ad 05 61 3d f8 6b c9 bd 17 72 f3 bd
       0.07260769 0.054937053 -0.098350465 -0.11886995
000150 c8 2f a4 3d c7 2a e4 3c ff 4f 0c 3d 36 0e e5 3d
       0.08016926 0.02785243 0.034255978 0.11184351
000160 9a e7 16 3d 60 18 66 3d fb 2e 2d 3e cd ca 72 3e
       0.036841966 0.05617559 0.16912453 0.23710175
000170 e0 b1 4b 3e d7 4d 9a bd 25 9f 20 3c 6c 7a 1e 3d
       0.19892073 -0.07534378 0.009803568 0.03869097
000180 9d 4a 0d be 82 d1 87 bc e3 b3 21 be f1 c8 bd bc
       -0.13797994 -0.016579393 -0.15791278 -0.023167105
000190 81 f6 b8 bc 48 04 b5 3d 3e 91 f0 bd a2 bf aa 3d
       -0.02257848 0.08838707 -0.11746453 0.08337332
0001a0 f4 66 01 3d 3a e1 df bd a3 0c 3c 3d c9 e0 a5 3d
       0.031592324 -0.109316304 0.04591049 0.08099515
0001b0 be 96 85 3d 90 1f 6b 3c b6 72 68 bd 4c 61 f3 bd
       0.065228924 0.014350787 -0.056750022 -0.11883792
0001c0 6e 68 27 bd 6e b3 40 3d ff 8a fb 3d 17 20 28 be
       -0.040871076 0.047046117 0.12282371 -0.16418491
0001d0 f8 ec 23 3e 93 a8 e8 bd ac d8 ad 3d cb b6 24 be
       0.16008365 -0.11360278 0.084885925 -0.16085355
0001e0 8d 5f 0d 3d d3 35 11 be 40 36 71 3e 5f c0 dc bd
       0.034514952 -0.14180689 0.23555851 -0.107788794
0001f0 b2 ab c5 bd 50 68 38 3d f2 ef a6 bd 9f 41 c1 3a
       -0.09651889 0.045021355 -0.08151235 0.0014744288
000200 73 f2 ae 3c 40 ff 33 bd 5f 8e 15 bc b6 db a4 3d
       0.021355843 -0.043944597 -0.009128182 0.08049719
000210 00 28 f4 3d 9f b0 10 be 14 96 6a bd ba a4 e3 3d
       0.11921692 -0.14129876 -0.057272032 0.111154035
000220 41 37 6c bd 5d e6 72 bd 0e 61 50 bd 6b ea 1f 3e
       -0.05766988 -0.059301723 -0.05087381 0.15616767
000230 24 62 01 3e c7 2d f7 3c b6 a0 92 bc 18 05 22 3c
       0.12635094 0.030173196 -0.017898899 0.00988891
000240 85 10 bd bc 64 8e a7 bd 3a ae bf 3d 87 00 5c 3d
       -0.023079166 -0.08181456 0.09359403 0.05371144
000250 18 94 0e be 41 dc 2c be 65 d6 78 bc d4 76 36 3d
       -0.13923681 -0.16880895 -0.015187834 0.044546917
000260 98 13 ae 3d 37 f8 94 bd 6d 0e 9a bd 86 1f 1f 3d
       0.08499831 -0.07273906 -0.07522283 0.038848422
000270 af 19 ac bd 8b c6 89 3e fd 6c a7 3d 42 2e eb bd
       -0.08403336 0.2690929 0.08175085 -0.11483432
000280 2e 75 60 3d c6 de 6b 3d 04 3a b6 bd 0c 0d a5 bb
       0.05479925 0.0575855 -0.08897784 -0.0050369557
000290 ae 8e b3 3d 4c 7a 76 bd e6 fd 1e be 0c 6e f1 3b
       0.08767448 -0.060175225 -0.15526542 0.007367855
0002a0 b8 dc b8 3d ee 5a 9b bd b2 78 18 be d2 d4 24 bd
       0.09026474 -0.07585703 -0.14889792 -0.040242024
0002b0 32 e3 0a bd 08 e0 a7 3d 3a 77 08 3e 17 5a f4 bd
       -0.033908077 0.081970274 0.13326731 -0.11931246
0002c0 f7 eb 42 3d 1c a4 91 3c 5a 53 69 bc 76 86 14 bd
       0.047588315 0.017778449 -0.014241064 -0.036261044
0002d0 35 f6 ae 3d d5 44 0f 3e 6d cb 99 3d c4 1f 12 3d
       0.08543054 0.13991101 0.075095035 0.035674825
0002e0 f3 df ca 3c 6f c7 ac 3d b7 8d b5 3b 48 98 ad bd
       0.02476499 0.084364764 0.0055405754 -0.08476311
0002f0 32 e0 ee 3c a7 e8 b2 3d 72 cb 22 be a6 76 b4 bb
       0.029159639 0.08735781 -0.1589792 -0.005507308
000300 df b7 6d bd 8e 79 0a be 4b 3e 81 bc aa 60 52 bd
       -0.05803668 -0.13522932 -0.015776774 -0.051361717
000310 54 91 6f 3d 62 af 80 3d ea ed d7 bc ce f3 95 bd
       0.058488205 0.062834516 -0.026358563 -0.07321893
000320 90 21 28 3d e3 c9 07 3e 5a 7a 58 bd 2f 41 6c 3b
       0.041047633 0.13260607 -0.05285106 0.0036049595
000330 d0 a1 8f bc ba db 63 bd e7 25 a2 bd 75 16 19 3e
       -0.017533213 -0.05562947 -0.079173855 0.14949973
000340 28 6c 77 bd 37 22 c4 bd b5 1f 28 3e 1b c3 07 be
       -0.06040588 -0.095768385 0.16418345 -0.1325802
000350 36 9d 12 3e e2 2b ea bd 15 34 d1 3b 79 41 40 be
       0.14317784 -0.11434151 0.0063843825 -0.18774976
000360 7d 36 47 3d b8 04 c3 bc 73 6e d0 bd ad 93 05 3e
       0.04863595 -0.023805961 -0.101773165 0.13044615
000370 98 7a 72 3d ac 7a ca 3c 91 37 79 3d 4f f6 e0 bc
       0.059198946 0.024716698 0.060844008 -0.0274612
000380 d5 8c 3f bd 86 4e 21 bd 47 ad 2a bc 0c 93 f3 bd
       -0.046765167 -0.039381526 -0.010417289 -0.11893281
000390 0e 7e ab 3d cf 20 a6 3d 34 d1 cb 3c f1 3d 88 bd
       0.083736524 0.081117265 0.02488003 -0.066524394
0003a0 c6 71 8b 3a c8 ec 8a bd b3 bd 99 bd 01 80 70 bc
       0.0010638766 -0.06783444 -0.075068854 -0.014678956
0003b0 fc fc 28 3e 57 28 21 be d7 36 b9 3d 0c 88 48 3c
       0.16502756 -0.15738045 0.09043663 0.012239467
0003c0 af 4c cd 3d 95 29 b7 bd cb 10 54 3e 9f 09 62 3d
       0.10024392 -0.08943478 0.20709531 0.055184957
0003d0 01 2e 3b bd 3b 50 b0 bc 71 8d 91 bd d3 db 94 3d
       -0.04569817 -0.021522632 -0.07107056 0.07268491
0003e0 a3 53 1d bd 88 4d 6e bd b8 cb a0 3e 27 4b bd 3c
       -0.03840984 -0.05817941 0.31405425 0.023107124
0003f0 f4 48 18 3e ed 04 b6 bc 59 5d d8 bc cb 99 a4 bc
       0.1487158 -0.022219146 -0.0264117 -0.020092865

network_body._body_endoder.seq_layers.2.bias f4 [128]
000000 3b f0 32 3b 55 6b 29 bb 9c c2 0e 3b 27 7a 22 bb
       0.0027303833 -0.0025851328 0.0021783477 -0.0024792047
000010 d2 e8 86 3b 59 4d 91 ba 9a f2 97 3b eb 19 a3 bb
       0.00411711 -0.0011085673 0.0046370747 -0.004977455
000020 a5 1a 4c ba 9d d9 18 bb 76 61 7f 3b 69 60 38 3b
       -0.0007785953 -0.0023323067 0.0038968003 0.0028133637
000030 a7 74 bb 3a 2a 40 32 3b 2f b1 9a 39 59 cf ab bb
       0.0014301733 0.002719889 0.0002950518 -0.0052432236
000040 2d 22 58 bb 64 52 b2 3b f4 45 db 3a 33 e4 7a b9
       -0.0032979355 0.0054419506 0.0016729222 -0.00023926869
000050 69 1d 24 bb ce c6 2b bb 70 e9 40 ba 49 7e 6e 3a
       -0.0025041944 -0.0026211026 -0.00073590036 0.00090977974
000060 84 af 85 ba 61 d1 ea 3a a7 b8 9f 3a 82 0f 69 ba
       -0.0010199402 0.0017915183 0.0012185768 -0.00088905555
000070 ef bd 9a ba 02 57 c0 b8 b0 28 c6 ba ab 19 75 ba
       -0.0011805872 -9.17148e-05 -0.0015118327 -0.0009349833
000080 ca 29 25 bb 8e c5 9b 3a f2 8a 90 3a 66 89 47 3b
       -0.002520191 0.0011884437 0.0011027737 0.0030446886
000090 e4 ec 0e ba 4e da 10 bb d6 c7 2c 3b b7 b5 f7 ba
       -0.00054521696 -0.0022102776 0.0026364229 -0.001889876
0000a0 b9 cd 39 3b 28 2a 80 bb 18 84 fe 3a 35 57 9f bb
       0.002835138 -0.0039112754 0.0019418029 -0.004862691
0000b0 6d 9c b5 b9 8e 02 81 bb c0 28 86 3a 87 7f da b9
       -0.00034639557 -0.003937072 0.0010235533 -0.00041675215
0000c0 9e 87 51 3b e8 0a 65 39 f6 83 54 3b d8 c0 09 ba
       0.0031971703 0.00021843205 0.0032427288 -0.0005254871
0000d0 20 f8 29 bb 58 a4 3c b7 0b c0 f8 ba a1 81 b7 ba
       -0.0025935248 -1.12439375e-05 -0.0018978132 -0.0014000424
0000e0 d6 60 0d bb 18 3b a3 3b bf 86 28 bb e8 35 fa ba
       -0.0021572611 0.0049814098 -0.002571508 -0.0019089552
0000f0 b9 01 43 3b e9 1e 99 ba 00 af 57 3b ad 64 91 bb
       0.0029755665 -0.0011682186 0.0032910705 -0.0044370503
000100 51 79 88 ba fd b4 0c bb 26 52 aa 3a a9 05 00 3b
       -0.0010412132 -0.0021470182 0.0012994453 0.0019534624
000110 4b 55 2d bb 52 46 8c ba e1 2d 6a bb 50 72 02 bb
       -0.0026448544 -0.001070211 -0.0035732912 -0.0019904561
000120 fa 89 5a bb dd 80 8b bb 7f 7b 00 ba 03 1a 92 ba
       -0.00333464 -0.004257305 -0.0004901215 -0.0011146668
000130 99 e6 99 3b fa 79 52 b9 a8 3d fb 39 a2 7a 61 3b
       0.004696679 -0.000200726 0.00047920388 0.003440537
000140 d0 69 11 bb 3a 28 04 bb 8f f5 5f bb 60 e5 c8 b8
       -0.0022188313 -0.0020165578 -0.0034173464 -9.5794676e-05
000150 20 45 2d 3b 83 f2 81 bb 5c 07 7d ba 13 f5 b1 ba
       0.0026438907 -0.003965677 -0.0009652281 -0.0013577066
000160 4e 76 66 3a 70 10 57 3a eb 9b d1 3a eb 62 f1 3a
       0.00087914325 0.00082040485 0.0015991902 0.0018416321
000170 24 0d 20 3b 23 61 26 bb f1 f4 35 3a 8c e1 28 ba
       0.0024421895 -0.0025387488 0.0006941101 -0.00064423005
000180 84 1d ab 3a bb 4d b6 ba f5 db 1d bb 1a 9d d8 38
       0.0013055061 -0.0013908664 -0.0024087403 0.00010328945
000190 c8 0f c1 3a 59 70 06 b9 67 4a e8 ba 75 76 c5 ba
       0.0014729435 -0.00012821089 -0.0017722369 -0.001506521
0001a0 4d 46 eb ba 58 67 32 3b 1c f5 f6 b9 59 b7 43 3b
       -0.0017950028 0.0027222242 -0.00047103397 0.0029863922
0001b0 ec 51 06 ba dd db 0b ba 72 92 2d ba 3c cf a6 3a
       -0.00051239016 -0.00053351914 -0.00066212483 0.0012726556
0001c0 8e d9 23 bb 9c 1e 17 bb 73 72 14 ba 52 79 9a ba
       -0.00250015 -0.0023059016 -0.0005662806 -0.0011785424
0001d0 45 97 23 3a be 43 57 bb 64 db 1c ba ce 93 ca b8
       0.00062404975 -0.0032846774 -0.00059836195 -9.6596414e-05
0001e0 9b ad 7a ba b9 75 25 bb b2 78 35 bb 81 ee 28 3a
       -0.00095626124 -0.002524717 -0.0027690348 0.0006444231
0001f0 83 4a 8f bb c4 63 2b bb d9 80 60 3b 7b 07 8f b9
       -0.004372896 -0.0026151994 0.0034256487 -0.0002728066

action_model._discrete_distribution.branches.0.weight f4 [8, 128]
000000 e4 ed df ba 97 f7 1b 3b 78 df ca bb 0e 7d 1c bc
       -0.0017084447 0.0023798698 -0.0061911903 -0.0095513
000010 46 89 7f bb a3 f2 c9 3c 2f e3 74 3c 55 94 75 3b
       -0.0038991733 0.024651831 0.014946743 0.0037472446
000020 65 43 54 3c 3e 11 3f bc 77 ea f7 3b 97 8c b5 3b
       0.012955521 -0.011661826 0.007565792 0.0055404413
000030 d5 78 0e 3c 57 65 ec bb 74 35 00 3c 0a 46 30 3c
       0.008695801 -0.007214229 0.007825244 0.010758886
000040 63 a5 3c 3c b8 d9 59 3c 59 4d 5e bc 9a 22 d6 ba
       0.011514041 0.013296537 -0.013568246 -0.0016337216
000050 34 db fb ba 38 18 bf 3b 18 59 fe 3a 84 18 75 bb
       -0.0019215108 0.0058317445 0.0019405214 -0.0037398646
000060 eb 05 c8 3b 01 62 fe 39 18 d9 37 ba 92 52 32 3c
       0.006104221 0.00048519674 -0.00070132455 0.010883944
000070 1f 10 ec bb 96 59 fd bb 09 5f 7c bc 0b 52 d5 bc
       -0.00720407 -0.0077316267 -0.0154035175 -0.026040098
000080 8e 7f 54 3b ac 0b c9 3b 54 8d 03 3c 53 62 b9 bb
       0.0032424661 0.0061354246 0.008029301 -0.005657473
000090 a3 86 0c bd b3 20 7c bb f9 26 b8 3b 25 b3 a4 bb
       -0.034308087 -0.0038471639 0.0056198803 -0.0050262385
0000a0 e9 44 05 3c c4 d4 f8 bb f3 38 11 bb 2c 13 96 bb
       0.008134105 -0.007593723 -0.0022159189 -0.004579922
0000b0 c7 38 9c 3b 9a bf 07 bb 90 09 14 3c ed 79 7d 3b
       0.0047675106 -0.0020713569 0.009035483 0.003867741
0000c0 e6 01 3b 3b 88 27 9c 3c cd f9 51 3c fd 30 0a bc
       0.0028535067 0.019061819 0.012815905 -0.008434531
0000d0 41 65 1d 3c eb cb 63 3a d6 c9 af bb 99 eb 15 bc
       0.00960666 0.0008689749 -0.005364637 -0.009150409
0000e0 85 ea fa 3a a9 71 90 bc 7d 56 dc 3b 51 37 df bb
       0.0019143379 -0.017632322 0.0067241774 -0.006812014
0000f0 32 12 38 bc c5 72 d2 3b 43 11 76 bc c8 18 87 bb
       -0.011234807 0.006422373 -0.015018764 -0.004122827
000100 d3 5d dd bb 47 8b 96 bb 55 3b bd 3b 74 f2 6b 3b
       -0.0067555695 -0.00459424 0.005774895 0.0036002668
000110 c8 d3 7b bc d2 04 76 3c b7 92 a3 bb d4 a4 97 bc
       -0.015370317 0.015015798 -0.004991855 -0.018511213
000120 67 84 23 bb 58 ee 65 3b 09 32 c0 ba 31 66 9c bb
       -0.0024950744 0.003508469 -0.0014663349 -0.0047729244
000130 53 70 1c bc 88 a2 16 bb 91 e0 a3 3b 7f 75 f5 3b
       -0.009548265 -0.002298506 0.0050011356 0.0074908133
000140 4a 2f 19 bc f3 8a 84 3b 77 47 cd bc 4d dd 3d bc
       -0.0093496535 0.0040448844 -0.025058491 -0.011588407
000150 30 f0 10 3b 59 18 31 bc 20 b4 0c 3c 30 be 90 3c
       0.002211582 -0.010809028 0.008587867 0.017668813
000160 6f 28 c1 3b 9c b9 ef bb 6b f4 32 ba aa b9 af bb
       0.0058947126 -0.0073158275 -0.0006826582 -0.005362709
000170 81 ef ac b9 63 12 54 bc 79 1c 2a 3c 69 56 33 3a
       -0.0003298484 -0.012943837 0.010382765 0.0006841184
000180 af 73 31 3c 01 11 00 3b b3 a8 e5 3b 81 26 01 bc
       0.010830804 0.0019541385 0.007008636 -0.007882715
000190 c8 39 61 3c 8c 99 1d 3c cb f2 e1 ba 4d ed bf bc
       0.013746686 0.009619128 -0.0017238496 -0.023428584
0001a0 71 74 99 3a 57 10 b6 bb cb 2d 9a 3b 68 bf 64 3c
       0.0011707676 -0.005556147 0.004705166 0.01396165
0001b0 33 a2 d8 ba ea aa 20 bb c2 92 47 3c 35 08 0f 3b
       -0.0016527831 -0.0024515935 0.012180986 0.002182496
0001c0 32 65 b5 3a 09 25 9d bb e4 d8 37 3c 7b c2 a2 3c
       0.0013839363 -0.0047956747 0.011221144 0.019868126
0001d0 3d e1 ac bc ee b0 a2 bb 9b ca 7b bc 6e de 63 3b
       -0.021103496 -0.0049649393 -0.015368129 0.003477003
0001e0 7f 89 52 bb c6 f7 5a bb a4 4c 58 bc 69 dc e6 3b
       -0.003212541 -0.0033411845 -0.013201866 0.007045318
0001f0 3f 93 b2 3b 56 9d 01 38 25 61 b1 b9 5f 49 1a bc
       0.005449682 3.0902527e-05 -0.0003383245 -0.009416907
000200 f4 32 11 bb ea 65 ed 3b d5 78 e9 bb 32 a4 2c bc
       -0.0022155615 0.007244815 -0.007125 -0.010537194
000210 1e 1b 78 bb 8d b8 ca 3b 4a bc 3b 3c 52 d3 2c bc
       -0.003785796 0.006186551 0.011458466 -0.01054843
000220 ea 23 97 bb cd 88 66 bc 1d e6 11 3c 1c af e4 3a
       -0.0046124356 -0.014070702 0.008904961 0.0017447206
000230 30 3e 52 bc 05 e7 87 3c 65 b7 48 39 fc 87 63 bb
       -0.0128322095 0.01658965 0.00019141806 -0.0034718504
000240 38 08 99 ba 0c d1 3a 3c a6 35 6d 3b 20 75 ba 3b
       -0.0011675423 0.01140238 0.0036195307 0.005690232
000250 4e 24 48 3b 03 b2 9d 39 1e 51 0a 3c 83 df 9a b8
       0.0030539217 0.00030078003 0.008442191 -7.3849245e-05
000260 0c d1 2e 3c db 04 b0 3b 9b 2d 8b 3b b0 7f 02 3c
       0.010669958 0.0053716726 0.00424738 0.007965013
000270 75 ba ee bb 9d 7d a9 3a 4b c9 d2 bb b1 b7 9a 3a
       -0.007285411 0.0012931112 -0.0064326874 0.0011804012
000280 6b aa 31 bc fb 6d 21 3c da 52 a0 bc 0e 86 32 bc
       -0.0108438535 0.009852882 -0.019570757 -0.010896219
000290 30 b0 9d 3a ad e6 1d bc dd a6 a6 3b 88 9a 8b 3a
       0.0012030657 -0.009637517 0.0050858096 0.0010650912
0002a0 17 05 02 3b ec fc 30 bc 2d 88 99 bc b8 ae f3 b8
       0.001983946 -0.010802489 -0.018741691 -0.00011619687
0002b0 d7 ae 81 3a 8c f0 ce 3b 32 18 bd 3a f2 12 40 3c
       0.0009894025 0.0063152965 0.0014426766 0.011723267
0002c0 d1 58 3d 3b 42 4a 00 3c e8 34 6d b9 9c 0f f2 3a
       0.002889205 0.007830204 -0.0002262179 0.0018467787
0002d0 d0 3a 9e bc 7d 2e 47 bc 94 aa 73 3b 00 82 15 bc
       -0.019315153 -0.01215708 0.003718053 -0.009125233
0002e0 c2 d7 0c 3c 55 d3 0a bb 71 9d f6 3a 6a 35 fc 37
       0.008596363 -0.0021183093 0.0018815232 3.0065614e-05
0002f0 07 49 10 bc 6b b4 14 3c 8a 47 10 3c 86 bb 4f bb
       -0.008806474 0.009076218 0.008806119 -0.0031697466
000300 e4 4a f7 bb aa 39 47 3b ce e4 a9 bb 4e ec 15 3c
       -0.0075467695 0.003039936 -0.0051847463 0.009150578
000310 d2 74 20 bb 23 6c 06 bc 00 cd a3 bb 1f 1a 35 bc
       -0.0024483693 -0.008204493 -0.004998803 -0.011053591
000320 25 50 22 bc b3 b9 15 bc 72 38 8b bc f8 66 d4 bb
       -0.009906803 -0.009138512 -0.016994689 -0.0064820014
000330 82 38 86 3b e3 24 eb ba 31 be e5 bb f1 87 60 ba
       0.0040960917 -0.001794007 -0.007011198 -0.0008565179
000340 4b 4d 84 bb 0e 8d d9 39 7e 3f 24 bc 6c 69 f2 3b
       -0.0040375344 0.0004149456 -0.010024903 0.007397821
000350 c4 e2 ca bb 92 80 91 3b 09 d7 57 3b 4f 9b 3f bc
       -0.0061915834 0.0044403756 0.0032934567 -0.011694743
000360 65 25 a4 3c 87 c6 c4 bb ca 02 3b ba b8 9e c6 bb
       0.020037362 -0.0060051116 -0.00071338995 -0.006061401
000370 19 e3 0a bc 67 a9 13 bc 25 e7 24 3b a1 bb 6e 3c
       -0.008476996 -0.009012557 0.0025162187 0.014571101
000380 24 f5 2a 3b 66 d3 17 bc 68 4e 0d bc 63 7a 7e 3b
       0.0026086057 -0.00926671 -0.008624651 0.0038830272
000390 ae 2a 0a 3a ef ce 33 3c f6 05 6e bb da 97 53 bc
       0.0005270642 0.01097463 -0.003631947 -0.012914622
0003a0 e7 69 93 bc 4a 25 8c 3b 91 83 3f bb 81 ce cb ba
       -0.017994834 0.004276906 -0.0029222707 -0.0015549214
0003b0 85 46 a6 3b 2b dc 97 bb 17 9d 2b bc 94 1c 6c bb
       0.0050743246 -0.0046344004 -0.010474465 -0.0036027776
0003c0 ed fe af 3a 00 5c 54 ba fe e5 33 bc b3 b5 86 3c
       0.0013427414 -0.0008100867 -0.010980127 0.016444063
0003d0 5d 1b da bb cc 6b dc 37 9d af 89 3c 17 66 f1 ba
       -0.006656094 2.627624e-05 0.016807372 -0.0018417266
0003e0 2e e2 3a bc b0 86 1d bb ee 42 d4 3b fb 49 09 3c
       -0.0114064645 -0.0024036579 0.006477705 0.008379455
0003f0 37 57 84 3b 97 c2 19 3b 26 dd c5 ba b4 d8 9f 3b
       0.004038717 0.0023461932 -0.0015095815 0.004878128

action_model._discrete_distribution.branches.0.bias f4 [8]
000000 14 1f 27 3b 6f 6f 35 3b e5 a2 51 bb 8f d7 d9 3a
       0.0025500702 0.0027684828 -0.0031987962 0.0016620028
000010 6c 55 35 38 0b ac 86 bb 14 8e ce ba a2 75 73 3a
       4.3233318e-05 -0.0041098646 -0.0015758895 0.0009287243

action_model._discrete_distribution.branches.1.weight f4 [8, 128]
000000 2d c7 97 bc 55 71 2a 3a 0c 39 ad 3b f6 d8 31 3c
       -0.018527592 0.0006501873 0.0052863415 0.01085495
000010 ab 25 26 bc e8 91 9a bc f4 bb 74 bc 8d b4 0c 3c
       -0.010140817 -0.018868402 -0.01493739 0.008587969
000020 6d a6 05 bb db e1 be bb 36 39 90 3a cb e5 81 3b
       -0.0020393387 -0.005825264 0.0011003378 0.003964161
000030 a4 10 4d bc b0 52 0f 3b 13 91 8f 3b 53 07 8d bb
       -0.012516174 0.0021869354 0.004381308 -0.0043038516
000040 7a ec 19 bc e7 67 5c ba be 26 4b bc 5f 2a fb ba
       -0.009394759 -0.00084078166 -0.012399374 -0.0019162408
000050 b2 de 15 3b 4b 1d 05 3c 04 2a 77 bc 00 91 4a 3a
       0.0022868332 0.00812466 -0.015085701 0.0007727295
000060 a7 4b cb bb 22 51 9c bb 0a 08 a3 3c 12 4b 5c bc
       -0.006204087 -0.004770414 0.019901294 -0.0134456325
000070 26 aa 75 3b 17 cc 8f 39 42 7c 89 ba 52 4a 86 bc
       0.003748545 0.00027427144 -0.0010489302 -0.01639286
000080 23 ad a2 3b 67 89 27 ba f4 b7 fd bb d6 31 a2 bb
       0.004964487 -0.0006391019 -0.007742876 -0.0049497886
000090 43 e0 b8 3c 2b 8e 69 3c 54 65 31 3c 01 aa 0b 3c
       0.022567874 0.014255087 0.010827381 0.008524419
0000a0 fc 2c a7 3b f2 b0 14 bb bf f3 f8 39 c2 28 e6 3b
       0.005101798 -0.0022688475 0.0004748385 0.0070239017
0000b0 c5 70 a2 3b 7a 93 b3 3b 98 30 4c bc 5f f9 eb 3a
       0.004957291 0.005480227 -0.0124627575 0.0018003396
0000c0 71 0a b8 3b e0 1c 2e bc 2c 31 3d bb cd 98 3c bb
       0.005616479 -0.0106270015 -0.002886842 -0.00287776
0000d0 e9 71 d6 3a 66 1e b9 3b f6 54 81 3b d7 17 25 bc
       0.0016360852 0.0056493757 0.0039468957 -0.010076485
0000e0 9f 58 18 bc eb c4 9d ba 33 7f 1e 3c 7f d8 87 bc
       -0.009298473 -0.0012036836 0.009673881 -0.016582726
0000f0 0d 94 7c bb da b5 b9 bb f8 c3 97 ba f4 4b ac b9
       -0.0038540394 -0.0056674303 -0.0011578789 -0.00032862986
000100 6f 42 62 bc 43 e0 c1 bb 18 f7 19 ba 51 a0 fc 3b
       -0.013809784 -0.0059166267 -0.00058733067 0.007709541
000110 94 ad b7 bc 6e 81 8c 3b aa d0 02 bb 94 bd 89 39
       -0.022421636 0.00428789 -0.00199608 0.00026271923
000120 16 ad 5e 3a 35 cd 4e 3c 9f 98 5e bc d4 4f f7 3b
       0.000849442 0.012622167 -0.013586192 0.007547358
000130 97 a3 85 3b a0 c8 8c bb 3d 39 4c bc 2b 23 62 3c
       0.0040783393 -0.0042963773 -0.012464819 0.01380233
000140 36 be 39 3c c8 ff 82 b8 26 1d cc bb ad 5b 21 bc
       0.011336854 -6.246526e-05 -0.0062290607 -0.009848517
000150 a3 22 1b 3c 17 f5 84 bc a5 d3 6a ba 9b 5a d5 3b
       0.009468707 -0.01623015 -0.0008957929 0.006511045
000160 ce 1b 01 bc 14 5d 46 3c 2d a7 40 3c 3d d1 4f 3c
       -0.007880164 0.0121071525 0.011758608 0.012684164
000170 1c 1b 4e bc f0 3d 06 bc bf 73 3e 3a 2b 91 13 3c
       -0.012579706 -0.008193478 0.00072651723 0.009006779
000180 6f aa d6 bb c6 d6 16 3c 99 aa 14 3c 23 9f a4 bb
       -0.006551079 0.009206479 0.009073877 -0.0050238534
000190 13 83 15 bc ce b4 1c bb 9a a1 44 bc e4 d4 0d 3b
       -0.009125489 -0.002391148 -0.012001419 0.0021641785
0001a0 88 ba c3 38 f7 33 30 3b 7e d5 73 bb 78 2f fa bb
       9.333069e-05 0.0026886442 -0.0037206109 -0.0076350532
0001b0 39 26 39 bc 6c d2 35 3a bf 75 16 bb 59 8a 9c bb
       -0.011300617 0.00069359574 -0.0022958366 -0.0047772345
0001c0 1a 80 db 38 21 88 32 3b 8e a8 2a 3b ed 54 74 bc
       0.000104665945 0.0027241784 0.0026040408 -0.014912826
0001d0 ca 17 0e b9 55 c1 c4 3b 27 48 27 bc d2 a6 ec ba
       -0.00013551037 0.0060044923 -0.010210074 -0.0018055087
0001e0 a1 86 1e 3b 0a 59 a8 3c 92 7c 42 bb 2b 4f ac ba
       0.0024189132 0.02055027 -0.00296763 -0.0013146152
0001f0 56 60 c1 b9 c5 5a 25 bc 97 e3 59 3c 67 08 5e 3c
       -0.00036883604 -0.010092442 0.013298891 0.013551808
000200 b0 99 09 3c 83 03 f0 3b 06 89 ab 3c 4a 01 83 3c
       0.008398458 0.0073246374 0.020939361 0.015991826
000210 d1 cf 07 ba fa 59 0d 3c e9 99 5d 3b df 65 08 3c
       -0.00051808084 0.008627409 0.0033813661 0.008325069
000220 5c d2 02 3c 70 25 3c bb 74 0f bd 3b 31 d1 2b bc
       0.007984724 -0.0028708838 0.0057696644 -0.010486887
000230 8c 9a 80 3b f3 ed 34 3c bb f1 00 bc 8b 0b e4 ba
       0.0039246734 0.01104306 -0.007870133 -0.001739846
000240 5c ad 5d 3c e7 54 3e 3c 3b 6a 8f 38 2f 50 c6 bc
       0.013530102 0.011616922 6.838558e-05 -0.024208156
000250 07 6b 8c bb fd 07 ec ba d1 b9 9f bc 37 c8 8d 3b
       -0.0042852196 -0.0018007752 -0.019497784 0.004326846
000260 97 a7 da ba a1 e4 2e 3b 8b 4a 6f 3a c3 a4 f1 bb
       -0.0016682026 0.0026686566 0.0009128234 -0.0073743775
000270 de 1a 67 bc 4a ae 10 3c 11 87 1f bc 3f 1b 67 3c
       -0.014105527 0.008830616 -0.009736792 0.014105617
000280 9f 86 4a 3b 20 bc ad ba 15 01 d7 3b fa 48 a6 b8
       0.0030902994 -0.0013254918 0.0065614083 -7.92909e-05
000290 29 fa f7 ba 41 41 14 bc e1 af 78 bb bc 4a ad 3b
       -0.0018919158 -0.009048761 -0.003794663 0.00528845
0002a0 f2 a5 53 3b 76 b4 02 3c dd 79 44 bc 65 d4 e0 bb
       0.0032294956 0.007977596 -0.011991945 -0.006861257
0002b0 88 22 55 3b 99 6f a9 3b e4 7c 9b 3c 6e a4 c4 bb
       0.0032521803 0.005170774 0.01898045 -0.006001047
0002c0 3d 0d 2b 3c 52 19 fe 3a 6c eb 26 3c a5 24 22 bb
       0.010440168 0.0019386208 0.010187965 -0.002474108
0002d0 f3 96 60 bb f2 e8 19 bc 22 49 4d bc 6e f1 20 3b
       -0.003426966 -0.009393917 -0.012529643 0.0024557966
0002e0 43 82 57 bb e8 0b a9 bb 3c 65 98 bb 5d 53 54 3c
       -0.0032884039 -0.00515889 -0.00465074 0.0129593285
0002f0 e0 00 31 3c 27 08 0c bc e8 a0 37 bb 6a b7 ce bb
       0.010803431 -0.008546866 -0.0028019492 -0.0063084858
000300 89 8e a5 3c 9a bb 19 bb af b0 b2 3a 29 fd f0 3b
       0.020209568 -0.0023457767 0.0013632978 0.007354398
000310 37 da 3e 3c fb 52 51 3c 92 e3 5b 3c 39 4d 64 bc
       0.011648706 0.012776132 0.013420956 -0.013934427
000320 f0 e4 b5 bb bb d0 67 3c a6 67 f9 bb a1 b4 09 bb
       -0.005550973 0.014148886 -0.007611233 -0.0021012204
000330 8f 30 91 bc 5a f5 f9 3a a5 c5 7f 3b fe 3f 69 39
       -0.01772335 0.0019070313 0.0039027717 0.0002224445
000340 17 e5 16 bb ce 46 31 3c 03 29 85 3b c4 53 a8 bc
       -0.0023024732 0.010820104 0.004063727 -0.020547755
000350 9e af 09 bc f6 b0 56 bc e0 fc 66 bb 9c ac 4d bc
       -0.008403687 -0.013103714 -0.003524594 -0.01255336
000360 6f eb 68 bb bc 41 9a 3b 75 a9 9c bb 24 67 95 3c
       -0.003554072 0.004707543 -0.004780943 0.018237658
000370 f8 49 6b 3b 1b b7 d1 bb ab 91 8d 3b 6e 5d 99 bb
       0.0035902243 -0.0064000017 0.0043203435 -0.004680327
000380 03 f0 d5 3b 84 39 e4 bb f3 bd 97 bb a3 8f 72 bc
       0.0065288558 -0.006964864 -0.004630798 -0.0148047535
000390 f9 4e 84 3b 80 6a 26 bc 29 ac e3 3b ef 40 c3 bc
       0.0040377346 -0.0101572275 0.0069480133 -0.023834674
0003a0 ec cb 07 bc 39 2c 01 3c 17 d2 07 bc 1d 06 31 3c
       -0.008288365 0.007884079 -0.008289835 0.01080468
0003b0 68 f1 f0 ba eb f6 c4 b8 d5 c9 8d bc c3 1e 3a ba
       -0.0018382492 -9.392e-05 -0.017308155 -0.0007099921
0003c0 a2 45 40 bc 48 29 98 bb 03 7a dd 3b a8 d6 45 3b
       -0.011735352 -0.004643593 0.0067589297 0.003018776
0003d0 32 1f d6 3a 4f 0a 65 3c a1 63 dd bb 54 82 bc bb
       0.0016336201 0.013979509 -0.0067562615 -0.005752841
0003e0 0d 57 44 3c 41 d9 33 3b 37 b7 32 ba 7a a8 ff 3b
       0.011983645 0.0027442726 -0.0006817462 0.0078020664
0003f0 1b 57 36 3b cb 7c 03 39 d6 00 08 3c 58 44 c9 ba
       0.0027822915 0.00012539623 0.008300981 -0.0015355451

action_model._discrete_distribution.branches.1.bias f4 [8]
000000 ff 73 29 ba 74 d0 c1 3a ae d4 e3 3a c2 80 82 bb
       -0.0006464123 0.0014786855 0.0017382109 -0.0039826343
000010 a4 84 94 bb 45 ef f8 39 c2 c0 1a 3b 34 77 97 ba
       -0.0045324136 0.00047480516 0.0023613428 -0.0011555911

action_model._discrete_distribution.branches.2.weight f4 [8, 128]
000000 3b 94 92 3b 2e 0c d8 3b fa 01 2e 3c 89 31 17 bb
       0.004473237 0.006593249 0.010620588 -0.0023070297
000010 93 81 55 bc 99 04 d8 3a 1e ef bc bc 92 6b b2 b9
       -0.013031381 0.0016480862 -0.023063239 -0.00034030952
000020 0c bb 32 3c e6 92 a7 bb a9 58 a6 b8 c6 cb 3c 3c
       0.010908853 -0.005113947 -7.932011e-05 0.011523193
000030 83 ad 2d 3b aa 96 95 3b bc 40 36 bc 15 a1 fd ba
       0.0026501126 0.0045650797 -0.011123832 -0.0019350374
000040 65 3a d1 3b ed 80 81 bb e5 8a 7f bb 1e a9 df b9
       0.006385135 -0.0039521367 -0.00389927 -0.00042659877
000050 24 d1 4f 3c fe 43 fb 3a f6 ca c8 ba 96 89 a8 3a
       0.01268414 0.0019170044 -0.0015319276 0.0012858387
000060 0b 93 31 bc 2f 4f 88 ba 3d a8 58 3c c4 4f 5b bc
       -0.01083828 -0.0010399575 0.013223705 -0.013385717
000070 20 d4 cb bb f0 6d c3 bb 2f c6 a9 3b 04 0e 91 3b
       -0.0062203556 -0.0059640333 0.005181096 0.0044267196
000080 a1 48 88 3c f5 8d a0 3c 6f f6 a2 3a 01 3c 75 bb
       0.016636195 0.01959894 0.0012433062 -0.0037419798
000090 19 bb 7a bb f0 70 b2 3b 88 b2 1b 3c 48 cb 06 bc
       -0.0038258492 0.005445592 0.009503014 -0.008227177
0000a0 90 d1 38 bc 65 6f 02 3c 0f 5e c2 bb fb 08 2f 3c
       -0.011280432 0.007961129 -0.005931623 0.010683293
0000b0 8a 97 98 bb db 17 0e bc e0 9e 3d 3c 2d 08 15 bc
       -0.0046567367 -0.00867268 0.011573523 -0.009096188
0000c0 67 51 f0 bb 95 1f 5a 3b 54 6f c8 bb 74 7d f7 bb
       -0.0073339227 0.0033282985 -0.006116787 -0.007552797
0000d0 24 90 09 3c 7e 17 3c 3b 43 22 15 bc d4 1b 9a bb
       0.008396182 0.0028700526 -0.009102407 -0.0047030244
0000e0 f7 24 9b ba c8 50 82 bc 1d 0d 31 3c 63 97 83 bc
       -0.0011836578 -0.01590766 0.010806349 -0.016063398
0000f0 8c 59 cf 3b 42 e3 c5 ba e6 43 26 39 b3 b9 57 3c
       0.0063278135 -0.0015097635 0.00015856288 0.013166833
000100 09 49 11 3a 2b 2c 9a bb 1f 86 8e 3b bd c2 eb 3b
       0.0005542194 -0.0047049723 0.0043494846 0.0071948455
000110 4f b0 86 bb d2 38 7b bc c3 69 f5 3b ab fd 84 bb
       -0.004110373 -0.015333371 0.0074894144 -0.00405856
000120 5b 84 92 3b a7 6d b9 bb 7d 21 f1 3a 32 33 9c ba
       0.0044713444 -0.0056588235 0.0018396821 -0.0011917113
000130 ab ff a0 bb b9 fa 4f 3c 17 a5 c1 bb 96 7a 42 3c
       -0.0049132905 0.012694054 -0.005909573 0.011870047
000140 29 12 87 3c fb 30 a0 bb 28 03 8a 3b b9 6b ce ba
       0.016488152 -0.0048886514 0.004211802 -0.0015748657
000150 d8 42 22 bc 93 23 06 3c 90 15 5b ba 6d d7 ee 3a
       -0.009903632 0.0081871925 -0.00083574 0.0018222161
000160 a1 cf 08 3c 72 54 36 3b 76 c2 10 3c c4 18 e9 bb
       0.008350284 0.002782133 0.008835426 -0.007113548
000170 dd 97 d4 bb 84 bb 2b 3a 34 43 48 3b 4e df 8d 3c
       -0.00648783 0.00065510743 0.0030557634 0.017318394
000180 c8 86 1c 3c 09 ef 6e bc 4f 4a 1d bc 11 3e 41 bc
       0.009553619 -0.014583358 -0.009600236 -0.011794583
000190 35 17 a5 3c 8c 81 04 3c b8 47 41 bb 7d cb 44 3b
       0.020152668 0.008087527 -0.002949221 0.0030028515
0001a0 c4 5a 6f 3b f0 a1 86 3c 1a de d3 3b 11 01 9f ba
       0.0036522606 0.01643464 0.0064656856 -0.0012131055
0001b0 57 40 84 3b b6 d5 6d bb 03 2c 9a bb e1 98 86 bb
       0.00403599 -0.0036290712 -0.0047049536 -0.00410758
0001c0 0f 5d 24 3c d1 e2 15 3c 31 74 4b 3b 10 4d 1c 3b
       0.0100319525 0.0091483155 0.0031044597 0.0023849644
0001d0 4c 26 69 bb 91 60 9e 39 5f e4 1e bb da 9d 35 bc
       -0.0035575805 0.00030208056 -0.0024245006 -0.011084998
0001e0 ce 36 80 bb 88 d8 d9 ba 07 0d 19 3c 60 76 cc bb
       -0.003912783 -0.0016620317 0.009341485 -0.0062396973
0001f0 b8 ff 24 ba 9e f2 1e 3c a0 87 84 3b 59 07 4f bc
       -0.00062942086 0.009701399 0.004044488 -0.012636029
000200 d8 77 7a 3b 4b a6 a8 b8 d5 fe f7 ba 36 f3 61 bc
       0.0038218405 -8.041839e-05 -0.001892055 -0.013790896
000210 9a 5c 26 bb ae 25 c3 bb 61 30 ff 3a f2 55 f9 3a
       -0.0025384785 -0.0059554195 0.0019469374 0.0019022806
000220 96 57 44 bc 36 97 4c 3c 98 da 77 bb b5 d7 e0 ba
       -0.011983773 0.012487223 -0.00378195 -0.001715413
000230 cf ed 99 3c 12 9c 94 3b 92 bb d8 3a c7 44 51 bc
       0.018790154 0.0045352066 0.0016535392 -0.012772745
000240 ca ef 92 3c 56 fe c8 3a 57 ca 96 bc da f2 82 bb
       0.017936606 0.0015334587 -0.01840703 -0.0039962353
000250 b8 63 57 bc b7 ed 55 3b dc 18 4d bb 39 a9 fb 3b
       -0.013146333 0.003264291 -0.0031295335 0.007680085
000260 07 2e 47 3b 90 b4 e3 3b 24 70 f8 3a ca 5f 15 3b
       0.0030392425 0.006949015 0.0018954319 0.002279269
000270 52 62 aa 3b 99 7f 46 3c 4d 72 a6 3b 72 df 9a ba
       0.005199709 0.012115383 0.0050795437 -0.001181586
000280 49 4c e6 bb 3e c2 09 3c 75 3b db bb e1 a6 c8 bb
       -0.007028137 0.008408127 -0.0066904374 -0.006123409
000290 9a d0 31 bc cf c1 e4 bb ba cd d9 3b 9f 7c e4 3b
       -0.010852957 -0.0069811116 0.006646839 0.006972864
0002a0 46 cd 95 ba 55 75 94 bc 3f 9f 02 3c 16 7d 48 bc
       -0.0011428974 -0.018122355 0.007972538 -0.012236854
0002b0 18 f2 36 bb b8 0e 43 bb ea 20 02 3b c6 a5 18 bc
       -0.0027915295 -0.0029763412 0.0019856044 -0.009316867
0002c0 9b 3c 06 3c 75 9a 4c bc 62 43 7e 3c 30 ec 16 bc
       0.00819316 -0.012487997 0.015518995 -0.009211585
0002d0 1e 02 67 3a ec 0a bf bb ce eb 87 bc 01 8a 69 bc
       0.0008812266 -0.0058301594 -0.016591933 -0.014254094
0002e0 dd 49 7e 3c 6e 17 2e 3b b5 40 c6 3b 5b 4d 5e 3c
       0.01552054 0.0026564258 0.006050194 0.013568248
0002f0 50 f6 d6 39 e0 02 85 bc 47 8f b0 ba 95 b2 32 bc
       0.00041000778 -0.016236722 -0.0013470434 -0.010906835
000300 3f cb 8d 3b 41 66 45 ba ec d5 af 3b d4 d7 c6 3b
       0.0043272073 -0.00075301906 0.0053660776 0.006068209
000310 08 02 d5 bb 80 71 5b bc 88 7d bd bb e2 69 1b bb
       -0.0065004863 -0.01339376 -0.0057827868 -0.0023714234
000320 29 df 27 3b 74 14 d8 3b 8b 9c c3 3b de d4 43 3c
       0.0025615192 0.006594235 0.005969589 0.011952607
000330 3e eb cf ba 1f 25 31 bb 48 40 0f bb 90 df 8c bb
       -0.0015862954 -0.0027030183 -0.0021858383 -0.0042991117
000340 aa de 99 bc 3e 06 b8 bb d1 2d f8 ba 6d a5 9c 3c
       -0.018782932 -0.0056159785 -0.0018934553 0.01912185
000350 3e 31 13 bc 5a 03 b9 bb fb c2 1c bb 1f 41 83 3b
       -0.008983908 -0.0056461515 -0.0023919928 0.004005566
000360 da 87 40 bc da 10 45 3b 10 90 b1 3b 08 0b 1e bc
       -0.01175114 0.0030069859 0.005418785 -0.009646185
000370 7a cd de bb 2b 61 c6 bb d0 79 60 bb 8e f3 5c bc
       -0.006799397 -0.006054064 -0.0034252293 -0.013485802
000380 76 a6 26 bc ab e4 79 3b db 95 87 bb a6 7c 39 b8
       -0.010171523 0.0038130681 -0.004137737 -4.4223525e-05
000390 ea 1f 48 3b 2d f6 dd b8 00 59 df bb ee 56 5e bc
       0.00305366 -0.00010583955 -0.0068160295 -0.01357053
0003a0 52 ed 7d bb 29 33 60 bc e6 14 6c bb ac 68 a9 bb
       -0.003874619 -0.0136840725 -0.0036023199 -0.0051699486
0003b0 f9 20 fa bb 3d 34 5d 3b e9 a0 84 bc 11 8c 32 bc
       -0.007633325 0.003375306 -0.01619001 -0.010897652
0003c0 e6 6e ac 3b b9 49 53 3c 7e 2b 35 bc 44 88 ea 3b
       0.0052622436 0.012895995 -0.011057733 0.0071573574
0003d0 9d ad 35 bb 26 d2 dd ba d0 5b e1 b8 e6 be b4 3b
       -0.002772189 -0.0016923591 -0.000107459375 0.005515921
0003e0 f7 80 51 bc ee 05 62 3c 51 ca d8 bb 84 00 73 3b
       -0.012787095 0.013795359 -0.006615915 0.0037079165
0003f0 71 eb 0a bb 43 74 97 bb ca b9 bb 3b ff c5 ea 3a
       -0.0021197463 -0.004622014 0.005728935 0.0017911791

action_model._discrete_distribution.branches.2.bias f4 [8]
000000 60 12 31 bb c3 46 42 ba a8 cc 5a 3b f7 bd 56 ba
       -0.002701901 -0.0007411057 0.0033386145 -0.0008191759
000010 a2 75 60 bb 32 2b 90 ba 76 7e 06 3b 26 6e 37 3b
       -0.0034249802 -0.0010999201 0.0020522154 0.0027989238
