results/NewTwoAgentsTest/BlackMLAgent/BlackMLAgent-64.pt (torch, 275604 bytes, 20 tensors)

discrete_act_size_vector f4 [1, 5]
8.0 8.0 8.0 8.0 4.0
00000000: 0000 0041 0000 0041 0000 0041 0000 0041
00000010: 0000 8040

network_body._body_endoder.seq_layers.0.weight f4 [142, 71]
0.09866636 0.12854017 -0.02235684 0.15867749 -0.03633019 0.19953714 0.056809817 -0.05582053
0.018606422 0.18899913 0.1035955 -0.0034664336 0.028492905 0.002350381 0.10284978 0.048591044
-0.13073526 -0.18440385 0.09678676 0.019674432 -0.18177457 0.011537272 -0.2108516 -0.15266381
-0.034474667 -0.038154125 -0.045887712 -0.08447428 0.15345171 -0.119071685 -0.09470056 0.03937845
0.07234279 0.08418105 0.07028626 -0.11118257 0.014087554 -0.005579973 -0.09845035 -0.017848138
-0.018812297 -0.05903005 -0.2598162 0.17495811 -0.030817643 0.07560726 -0.03194066 0.18611932
0.0427501 -0.19690868 -0.29963094 0.1589297 -0.10122559 -0.05268342 0.05128505 0.07089642
-0.034065507 0.04945228 0.08701079 -0.0046700393 -0.15040813 0.119056545 -0.025649196 -0.2241775
0.009447893 -0.038822558 -0.04249085 0.0033638214 0.025078608 -0.32032716 -0.0026186812 -0.0645294
0.053692065 0.120781526 -0.0033395516 -0.29588243 -0.17214683 -0.18846595 0.027934091 -0.1596498
-0.11525315 0.012872069 -0.023445284 0.12182774 -0.25109738 -0.11999856 0.11313854 -0.16943811
0.1458307 0.18729702 0.18923397 -0.08937215 -0.07717345 -0.038570967 -0.0032519295 0.0553695
0.20887326 -0.0033874144 0.032760333 -0.19948699 0.132301 0.11975677 -0.14496052 -0.14683959
-0.051668916 -0.048942257 -0.20060751 0.07439443 0.1085297 -0.14507073 0.07320462 -0.019232946
-0.22320634 0.2084353 -0.09803734 -0.15642697 -0.01920485 -0.20684235 0.050363917 -0.15128635
-0.12225867 0.0067771003 -0.041266035 -0.13605475 -0.017909482 0.06950702 -0.070663996 -0.07936979
-0.054769084 -0.06293861 -0.03407347 -0.06449614 -0.07026744 0.07552466 -0.16903578 0.06295138
-0.06658921 0.10564274 -0.0951773 -0.14987272 -0.17163554 -0.09811044 0.06867268 -0.13444713
-0.11231622 0.027664714 0.21691431 0.03972516 -0.11297314 0.24514362 0.14306495 0.011662367
0.030102173 -0.23048314 0.047460042 -0.038157135 0.14309257 0.12229983 0.039370336 -0.08612063
-0.12070186 0.064044535 0.1059424 -0.09873345 0.0037941528 -0.067843065 -0.0994569 -0.09095091
-0.055354342 -0.01209492 -0.1264995 -0.1098593 0.118698865 -0.034545913 -0.026406353 0.18630269
-0.17167485 0.015218355 0.13231213 0.07937236 0.08755565 -0.039502785 0.0019992564 0.10294979
0.22027984 0.13863125 0.03524097 0.0930213 -0.028842838 -0.122535184 -0.030658716 -0.19326472
-0.021395674 0.051677104 0.1388665 -0.14427468 -0.0051170164 -0.12339567 -0.14757986 -0.052077785
0.15063444 -0.005848209 -0.029687222 -0.19360228 -0.19459659 -0.06226338 0.13295329 0.06427663
0.058982424 0.102149494 -0.030327272 -0.23407286 0.11407023 0.114931606 -0.045936376 -0.06791803
0.043454137 -0.15997465 -0.11385676 -0.120464094 0.09872948 0.00451177 -0.14629963 -0.082528114
0.06538572 0.03334918 0.10971751 -0.27958903 0.04941507 -0.09491549 -0.15601292 -0.022705993
0.10823246 -0.06609713 0.15633522 -0.10687872 -0.033741448 -0.114947155 0.18488987 -0.093190506
0.014611552 -0.071014814 0.06909424 0.011035827 0.018840507 0.2303645 -0.06320833 -0.09442874
-0.06357494 0.069164835 0.036403675 -0.006769881 0.010327215 -0.007828865 0.115341954 -0.0030767194
00000000: 9711 ca3d 09a0 033e b125 b7bc 5a7c 223e
00000010: f7ce 14bd 7753 4c3e 69b1 683d 11a4 64bd
00000020: 7f6c 983c fd88 413e e129 d43d 1b2d 63bb
00000030: f469 e93c da08 1a3b e8a2 d23d 6707 473d
00000040: 77df 05be 5dd4 3cbe 2338 c63d 462c a13c
00000050: 1d23 3abe d306 3d3c 7be9 57be e753 1cbe
00000060: 4f35 0dbd 8047 1cbd c1f4 3bbd da00 adbd
00000070: 7222 1d3e dbdb f3bd 5ef2 c1bd 4c4b 213d
00000080: 7528 943d 1d67 ac3d 3ef2 8f3d b0b3 e3bd
00000090: 7ccf 663c 35d8 b6bb 56a0 c9bd 4236 92bc
000000a0: 3f1c 9abc 7ec9 71bd a106 85be 3828 333e
000000b0: 4875 fcbc fbd7 9a3d 36d4 02bd 1096 3e3e
000000c0: bb1a 2f3d 6ea2 49be 3a69 99be 78be 223e
000000d0: 5d4f cfbd 92ca 57bd 4610 523d 2432 913d
000000e0: 4688 0bbd 798e 4a3d b732 b23d 2107 99bb
000000f0: 9704 1abe ebd3 f33d 431e d2bc c98e 65be
00000100: 56cb 1a3c 6704 1fbd e30a 2ebd 8f73 5c3b
00000110: a771 cd3c ec01 a4be 2e9e 2bbb fd27 84bd
00000120: 36ec 5b3d 4e5c f73d 61dc 5abb e77d 97be
00000130: 4247 30be 38fd 40be 09d6 e43c 3d7b 23be
00000140: d809 ecbd 5fe5 523c 5310 c0bc d280 f93d
00000150: d68f 80be cec1 f5bd 2eb5 e73d 2f81 2dbe
00000160: a554 153e caca 3f3e 8dc6 413e bf08 b7bd
00000170: 1d0d 9ebd 97fc 1dbd 531e 55bb 21cb 623d
00000180: dfe2 553e 62ff 5dbb b32f 063d 5146 4cbe
00000190: ea79 073e 0a43 f53d 8870 14be 1e5d 16be
000001a0: c9a2 53bd ad77 48bd 0e6c 4dbe 1b5c 983d
000001b0: d244 de3d 6c8d 14be 4eec 953d 698e 9dbc
000001c0: 3490 64be 1070 553e cdc7 c8bd 642e 20be
000001d0: 7d53 9dbc 7bce 53be 654a 4e3d cfea 1abe
000001e0: c162 fabd 7012 de3b 9306 29bd f051 0bbe
000001f0: e8b6 92bc b259 8e3d 49b8 90bd a18c a2bd
00000200: 8c55 60bd f5e5 80bd 9f90 0bbd 8d16 84bd
00000210: 60e8 8fbd acac 9a3d b717 2dbe a7ec 803d
00000220: ec5f 88bd 395b d83d 51ec c2bd 3c78 19be
00000230: 3ac1 2fbe 20ee c8bd 43a4 8c3d 82ac 09be
00000240: 0c06 e6bd 1ca1 e23c c91e 5e3e d9b6 223d
00000250: 765e e7bd ee06 7b3e 9e7f 123e 8313 3f3c
00000260: d598 f63c c603 6cbe 7665 423d a84a 1cbd
00000270: dc86 123e 5578 fa3d ca42 213d 0360 b0bd
00000280: 8932 f7bd c829 833d 54f8 d83d c334 cabd
00000290: 52a7 783b 4ef1 8abd 0fb0 cbbd 7844 babd
000002a0: 3cbb 62bd c529 46bc 1689 01be eafd e0bd
000002b0: 6418 f33d 0480 0dbd 2352 d8bc 22c6 3e3e
000002c0: 88cb 2fbe 6856 793c d57c 073e fa8d a23d
000002d0: 6050 b33d accd 21bd f505 033b 57d7 d23d
000002e0: 0a91 613e 5af5 0d3e d658 103d f481 be3d
000002f0: d147 ecbc baf3 fabd fd27 fbbc 30e7 45be
00000300: fb45 afbc 5fab 533d 0533 0e3e bebc 13be
00000310: a5ac a7bb deb6 fcbd 2d1f 17be 844f 55bd
00000320: ea3f 1a3e 55a2 bfbb 9e32 f3bc ad3f 46be
00000330: 5444 47be e307 7fbd e824 083e 77a3 833d
00000340: 8e97 713d c133 d13d e670 f8bc ccb0 6fbe
00000350: a79d e93d 4361 eb3d c827 3cbd 9c18 8bbd
00000360: f7fc 313d 65d0 23be bc2d e9bd e1b5 f6bd
00000370: ae32 ca3d 78d7 933b 92cf 15be 8004 a9bd
00000380: f3e8 853d 2699 083d 93b3 e03d 4b26 8fbe
00000390: 7567 4a3d 0d63 c2bd dac1 1fbe eb01 babc
000003a0: fba8 dd3d ef5d 87bd 5716 203e 3be3 dabd
000003b0: 7934 0abd 6a69 ebbd c553 3d3e aada bebd
000003c0: 4a65 6f3c 3770 91bd 4881 8d3d 9dcf 343c
000003d0: 6857 9a3c ace4 6b3e 5e73 81bd db63 c1bd
000003e0: 9433 82bd 4ba6 8d3d 051c 153d e1d5 ddbb
000003f0: 7b33 293c a444 00bc 6738 ec3d c9a2 49bb

network_body._body_endoder.seq_layers.0.bias f4 [142]
0.0 0.0 0.0 0.0 0.0 0.0 0.0 0.0
0.0 0.0 0.0 0.0 0.0 0.0 0.0 0.0
0.0 0.0 0.0 0.0 0.0 0.0 0.0 0.0
0.0 0.0 0.0 0.0 0.0 0.0 0.0 0.0
0.0 0.0 0.0 0.0 0.0 0.0 0.0 0.0
0.0 0.0 0.0 0.0 0.0 0.0 0.0 0.0
0.0 0.0 0.0 0.0 0.0 0.0 0.0 0.0
0.0 0.0 0.0 0.0 0.0 0.0 0.0 0.0
0.0 0.0 0.0 0.0 0.0 0.0 0.0 0.0
0.0 0.0 0.0 0.0 0.0 0.0 0.0 0.0
0.0 0.0 0.0 0.0 0.0 0.0 0.0 0.0
0.0 0.0 0.0 0.0 0.0 0.0 0.0 0.0
0.0 0.0 0.0 0.0 0.0 0.0 0.0 0.0
0.0 0.0 0.0 0.0 0.0 0.0 0.0 0.0
0.0 0.0 0.0 0.0 0.0 0.0 0.0 0.0
0.0 0.0 0.0 0.0 0.0 0.0 0.0 0.0
0.0 0.0 0.0 0.0 0.0 0.0 0.0 0.0
0.0 0.0 0.0 0.0 0.0 0.0
00000000: 0000 0000 0000 0000 0000 0000 0000 0000
00000010: 0000 0000 0000 0000 0000 0000 0000 0000
00000020: 0000 0000 0000 0000 0000 0000 0000 0000
00000030: 0000 0000 0000 0000 0000 0000 0000 0000
00000040: 0000 0000 0000 0000 0000 0000 0000 0000
00000050: 0000 0000 0000 0000 0000 0000 0000 0000
00000060: 0000 0000 0000 0000 0000 0000 0000 0000
00000070: 0000 0000 0000 0000 0000 0000 0000 0000
00000080: 0000 0000 0000 0000 0000 0000 0000 0000
00000090: 0000 0000 0000 0000 0000 0000 0000 0000
000000a0: 0000 0000 0000 0000 0000 0000 0000 0000
000000b0: 0000 0000 0000 0000 0000 0000 0000 0000
000000c0: 0000 0000 0000 0000 0000 0000 0000 0000
000000d0: 0000 0000 0000 0000 0000 0000 0000 0000
000000e0: 0000 0000 0000 0000 0000 0000 0000 0000
000000f0: 0000 0000 0000 0000 0000 0000 0000 0000
00000100: 0000 0000 0000 0000 0000 0000 0000 0000
00000110: 0000 0000 0000 0000 0000 0000 0000 0000
00000120: 0000 0000 0000 0000 0000 0000 0000 0000
00000130: 0000 0000 0000 0000 0000 0000 0000 0000
00000140: 0000 0000 0000 0000 0000 0000 0000 0000
00000150: 0000 0000 0000 0000 0000 0000 0000 0000
00000160: 0000 0000 0000 0000 0000 0000 0000 0000
00000170: 0000 0000 0000 0000 0000 0000 0000 0000
00000180: 0000 0000 0000 0000 0000 0000 0000 0000
00000190: 0000 0000 0000 0000 0000 0000 0000 0000
000001a0: 0000 0000 0000 0000 0000 0000 0000 0000
000001b0: 0000 0000 0000 0000 0000 0000 0000 0000
000001c0: 0000 0000 0000 0000 0000 0000 0000 0000
000001d0: 0000 0000 0000 0000 0000 0000 0000 0000
000001e0: 0000 0000 0000 0000 0000 0000 0000 0000
000001f0: 0000 0000 0000 0000 0000 0000 0000 0000
00000200: 0000 0000 0000 0000 0000 0000 0000 0000
00000210: 0000 0000 0000 0000 0000 0000 0000 0000
00000220: 0000 0000 0000 0000 0000 0000 0000 0000
00000230: 0000 0000 0000 0000

network_body._body_endoder.seq_layers.2.weight f4 [142, 142]
0.081253394 -0.03479027 0.01382816 -0.041725975 -0.025519367 0.049834877 -0.04324491 0.005405889
-0.13311805 -0.07250919 0.1706246 0.01089236 -0.095757015 0.06090777 0.1390125 -0.037992176
-0.032382023 0.036296315 0.02264833 -0.14871168 -0.117847554 -0.04631227 -0.07618694 0.17998676
-0.14279734 -0.036648013 -0.02109123 0.15823396 -0.05126455 -0.017898982 -0.055912342 -0.040552806
-0.090975106 -0.021849113 -0.1467591 -0.012039792 0.05369353 -0.19852374 0.09071903 0.003980019
0.10336455 0.0584347 0.010578364 0.105343185 -0.06978116 -0.03770145 -0.1745741 -0.12854184
-0.005122489 -0.12198568 -0.014701483 -0.114735514 -0.062326495 0.16310681 0.009466783 0.05456522
0.009919771 -0.19282162 -0.012576516 -0.1715092 0.051902905 0.10325058 0.0041327034 -0.047931623
-0.07735966 -0.034576386 0.0025275599 -0.12188838 0.0069068805 0.11307105 -0.013078625 -0.009019175
0.13743865 0.03699593 -0.088714 0.044899564 0.12737238 0.051210783 0.21633673 -0.054861672
0.11007369 0.11387581 0.013681028 -0.045557123 0.054009207 0.09481021 -0.09504492 -0.025956014
-0.039165225 -0.24735397 0.034395754 0.08829639 -0.04798893 0.04876557 -0.015134034 0.10642978
0.038995296 0.0036522888 -0.00481244 0.023515722 0.04102284 0.20820408 0.14484471 -0.0119167
0.026938042 -0.06276684 0.034268737 -0.063213974 0.09513104 0.068538144 0.0005628527 -0.031189978
0.047984067 -0.10041653 0.05338709 -0.069498755 -0.061546158 0.12207348 0.11345795 -0.06429455
0.06395984 -0.09325311 0.096777424 0.020317998 0.096768245 -0.07085152 -0.044123363 0.04495439
0.007566799 0.0016493083 0.022454625 -0.0364405 0.03605509 0.17472653 0.08004205 0.18846016
-0.049440924 -0.039762445 0.14130962 -0.14038512 0.04239603 -0.043235667 -0.06804643 -0.036503732
-0.079465866 -0.042409692 0.029991848 -0.04916219 -0.14104675 0.10361313 0.19268829 0.07687234
-0.18158258 0.081717245 0.10679243 -0.053218596 0.08463207 0.050418887 -0.010185342 -0.06846298
0.115551785 0.2634813 0.08604665 -0.025457056 -0.007447991 -0.0680943 0.04241554 -0.082772255
0.030739916 0.13276735 -0.093386374 0.09455044 0.10106074 0.017538859 0.059950363 -0.060177624
-0.06544711 -0.05172039 0.030095454 -0.053706367 0.08732287 -0.022735868 -0.11263687 0.01990468
0.116491504 -0.042099543 0.11827242 -0.00057062454 0.06693047 0.065818846 0.019796282 0.17137313
-0.04952274 0.054848485 0.20864587 0.09801427 0.069924906 -0.013056451 -0.18261601 -0.03380802
0.014249179 -0.019168478 -0.024279395 0.07502146 0.036312018 -0.11990641 0.054699257 0.07554783
0.08686758 -0.009758229 0.09162828 -0.03298558 -0.07238919 -0.12915348 0.068874836 -0.017236827
0.025507588 0.020274036 0.20664534 0.11938901 0.054814447 -0.0057705897 -0.09650233 0.14972351
-0.16092126 -0.05538824 0.06429092 0.081393205 -0.035895344 0.055854008 0.05486606 -0.05112152
-0.035169315 -0.10796045 -0.104840025 -0.004476524 -0.13884234 0.049277265 0.10032096 0.05539102
-0.11341884 0.2410743 -0.16803618 0.08297517 0.002202614 0.08023367 -0.027462618 0.030072408
0.006874438 -0.086102806 0.18298766 0.027782647 0.015503862 -0.035607953 -0.06496875 0.05651266
00000000: 2e68 a63d 3e80 0ebd 828f 623c dbe8 2abd
00000010: fe0d d1bc a81f 4c3d 9321 31bd e223 b13b
00000020: 1950 08be b37f 94bd 37b8 2e3e de75 323c
00000030: 411c c4bd 6d7a 793d 4b59 0e3e af9d 1bbd
00000040: 03a3 04bd 72ab 143d fe88 b93c e047 18be
00000050: 0f5a f1bd efb1 3dbd e607 9cbd 734e 383e
00000060: 7739 12be 3a1c 16bd 84c7 acbc 1508 223e
00000070: c7fa 51bd e3a0 92bc 5704 65bd b31a 26bd
00000080: 2851 babd e9fc b2bc 0448 16be 8c42 45bc
00000090: bfed 5b3d cf49 4bbe e6ca b93d d26a 823b
000000a0: cbb0 d33d 3959 6f3d e050 2d3c 2bbe d73d
000000b0: 6de9 8ebd d66c 1abd 8ec3 32be 79a0 03be
000000c0: 8dda a7bb a1d3 f9bd 7dde 70bc 74fa eabd
000000d0: 114a 7fbd 7905 273e 911a 1b3c c87f 5f3d
000000e0: 8986 223c 0873 45be bb0d 4ebc 1ca0 2fbe
000000f0: 2498 543d 0a75 d33d a16b 873b f353 44bd
00000100: be6e 9ebd f89f 0dbd 6ba5 253b 9da0 f9bd
00000110: 1d53 e23b cb91 e73d bb47 56bc 29c5 13bc
00000120: b8bc 0c3e 0b89 173d b0af b5bd 9be8 373d
00000130: e86d 023e 66c2 513d 6087 5d3e a2b6 60bd
00000140: 516e e13d b837 e93d 6426 603c 1b9a 3abd
00000150: c238 5d3d db2b c23d e9a6 c2bd b5a1 d4bc
00000160: b76b 20bd 5c4a 7dbe 90e2 0c3d bdd4 b43d
00000170: 0a90 44bd 68be 473d bdf4 77bc dbf7 d93d
00000180: 88b9 1f3d 3d5b 6f3b acb1 9dbb 0ba4 c03c
00000190: 9107 283d 7333 553e 2c52 143e 433e 43bc
000001a0: 2bad dc3c e78b 80bd 605d 0c3d 5476 81bd
000001b0: 10d4 c23d ba5d 8c3d 688c 133a 2082 ffbc
000001c0: f18a 443d 2fa7 cdbd 6cac 5a3d 5d55 8ebd
000001d0: d317 7cbd a901 fa3d a45c e83d dcac 83bd
000001e0: 60fd 823d 7dfb bebd 3e33 c63d ee71 a63c
000001f0: 6e2e c63d 9a1a 91bd b3ba 34bd 1822 383d
00000200: e9f2 f73b 9a2d d83a c3f2 b73c a242 15bd
00000210: 81ae 133d 83eb 323e 16ed a33d b3fb 403e
00000220: 9182 4abd f2dd 22bd 78b3 103e 1ec1 0fbe
00000230: 76a7 2d3d e217 31bd ed5b 8bbd f084 15bd
00000240: 00bf a2bd c9b5 2dbd 77b1 f53c 4b5e 49bd
00000250: 8f6e 10be 1f33 d43d 1450 453e 3f6f 9d3d
00000260: c9f0 39be 5f5b a73d fdb5 da3d befb 59bd
00000270: 9453 ad3d 0984 4e3d 6ce0 26bc 5236 8cbd
00000280: 6aa6 ec3d 05e7 863e 3a39 b03d 518b d0bc
00000290: 470e f4bb 0675 8bbd ebbb 2d3d 8084 a9bd
000002a0: 47d2 fb3c 2af4 073e 5b41 bfbd a9a3 c13d
000002b0: eff8 ce3d a7ad 8f3c 838e 753d d07c 76bd
000002c0: 2209 86bd c2d8 53bd be8a f63c 35fb 5bbd
000002d0: 55d6 b23d 9240 babc 29ae e6bd 240f a33c
000002e0: 1993 ee3d 9270 2cbd cf38 f23d f795 15ba
000002f0: d812 893d 08cc 863d d02b a23c 707c 2f3e
00000300: 5bd8 4abd cea8 603d 43a7 553e b5bb c83d
00000310: ca34 8f3d baea 55bc b1ff 3abe 477a 0abd
00000320: 6375 693c 3607 9dbc 95e5 c6bc daa4 993d
00000330: e9bb 143d 7e91 f5bd 540c 603d d2b8 9a3d
00000340: a1e7 b13d fbe0 1fbc 9ca7 bb3d e31b 07bd
00000350: c940 94bd cf40 04be 400e 8d3d 3f34 8dbc
00000360: 4af5 d03c bc15 a63c d69a 533e 3a82 f43d
00000370: 1d85 603d 3717 bdbb 03a3 c5bd 1f51 193e
00000380: 8bc8 24be c7de 62bd f5aa 833d 7bb1 a63d
00000390: ff06 13bd 2cc7 643d 3cbb 603d cd64 51bd
000003a0: b30d 10bd 5e1a ddbd 5eb6 d6bd ceaf 92bb
000003b0: b02c 0ebe f5d6 493d 1375 cd3d b2e1 623d
000003c0: 2348 e8bd 2edc 763e ad11 2cbe e3ee a93d
000003d0: bb59 103b 8d51 a43d 49f9 e0bc 695a f63c
000003e0: f742 e13b ab56 b0bd 1e61 3b3e 6f98 e33c
000003f0: e903 7e3c a5d9 11bd 560e 85bd d279 673d

network_body._body_endoder.seq_layers.2.bias f4 [142]
0.0 0.0 0.0 0.0 0.0 0.0 0.0 0.0
0.0 0.0 0.0 0.0 0.0 0.0 0.0 0.0
0.0 0.0 0.0 0.0 0.0 0.0 0.0 0.0
0.0 0.0 0.0 0.0 0.0 0.0 0.0 0.0
0.0 0.0 0.0 0.0 0.0 0.0 0.0 0.0
0.0 0.0 0.0 0.0 0.0 0.0 0.0 0.0
0.0 0.0 0.0 0.0 0.0 0.0 0.0 0.0
0.0 0.0 0.0 0.0 0.0 0.0 0.0 0.0
0.0 0.0 0.0 0.0 0.0 0.0 0.0 0.0
0.0 0.0 0.0 0.0 0.0 0.0 0.0 0.0
0.0 0.0 0.0 0.0 0.0 0.0 0.0 0.0
0.0 0.0 0.0 0.0 0.0 0.0 0.0 0.0
0.0 0.0 0.0 0.0 0.0 0.0 0.0 0.0
0.0 0.0 0.0 0.0 0.0 0.0 0.0 0.0
0.0 0.0 0.0 0.0 0.0 0.0 0.0 0.0
0.0 0.0 0.0 0.0 0.0 0.0 0.0 0.0
0.0 0.0 0.0 0.0 0.0 0.0 0.0 0.0
0.0 0.0 0.0 0.0 0.0 0.0
00000000: 0000 0000 0000 0000 0000 0000 0000 0000
00000010: 0000 0000 0000 0000 0000 0000 0000 0000
00000020: 0000 0000 0000 0000 0000 0000 0000 0000
00000030: 0000 0000 0000 0000 0000 0000 0000 0000
00000040: 0000 0000 0000 0000 0000 0000 0000 0000
00000050: 0000 0000 0000 0000 0000 0000 0000 0000
00000060: 0000 0000 0000 0000 0000 0000 0000 0000
00000070: 0000 0000 0000 0000 0000 0000 0000 0000
00000080: 0000 0000 0000 0000 0000 0000 0000 0000
00000090: 0000 0000 0000 0000 0000 0000 0000 0000
000000a0: 0000 0000 0000 0000 0000 0000 0000 0000
000000b0: 0000 0000 0000 0000 0000 0000 0000 0000
000000c0: 0000 0000 0000 0000 0000 0000 0000 0000
000000d0: 0000 0000 0000 0000 0000 0000 0000 0000
000000e0: 0000 0000 0000 0000 0000 0000 0000 0000
000000f0: 0000 0000 0000 0000 0000 0000 0000 0000
00000100: 0000 0000 0000 0000 0000 0000 0000 0000
00000110: 0000 0000 0000 0000 0000 0000 0000 0000
00000120: 0000 0000 0000 0000 0000 0000 0000 0000
00000130: 0000 0000 0000 0000 0000 0000 0000 0000
00000140: 0000 0000 0000 0000 0000 0000 0000 0000
00000150: 0000 0000 0000 0000 0000 0000 0000 0000
00000160: 0000 0000 0000 0000 0000 0000 0000 0000
00000170: 0000 0000 0000 0000 0000 0000 0000 0000
00000180: 0000 0000 0000 0000 0000 0000 0000 0000
00000190: 0000 0000 0000 0000 0000 0000 0000 0000
000001a0: 0000 0000 0000 0000 0000 0000 0000 0000
000001b0: 0000 0000 0000 0000 0000 0000 0000 0000
000001c0: 0000 0000 0000 0000 0000 0000 0000 0000
000001d0: 0000 0000 0000 0000 0000 0000 0000 0000
000001e0: 0000 0000 0000 0000 0000 0000 0000 0000
000001f0: 0000 0000 0000 0000 0000 0000 0000 0000
00000200: 0000 0000 0000 0000 0000 0000 0000 0000
00000210: 0000 0000 0000 0000 0000 0000 0000 0000
00000220: 0000 0000 0000 0000 0000 0000 0000 0000
00000230: 0000 0000 0000 0000

action_model._discrete_distribution.branches.0.weight f4 [8, 142]
-0.0003335778 -0.00779986 0.009755745 -0.014789385 -0.011768274 -0.0029355315 -0.0034947395 0.006413169
-0.0035280213 0.0032429767 -0.008734573 -0.0031856787 -0.007877762 0.00024163768 -0.02159416 0.0076613026
0.0025222546 -0.001357933 -0.0023046525 -0.0073010116 0.010547823 0.0020543798 0.019093813 -0.01183411
0.004498082 -0.018136911 -0.0036268344 0.0023498468 0.0024213807 0.0009507334 -0.003913818 -0.00057952554
-0.0018799242 -0.003277648 0.0056467573 -0.010219591 0.002290842 -0.000804587 -0.009390164 0.00034475728
-0.02122188 -0.013820276 -0.02452225 0.004730165 0.009917387 0.0018029234 0.0034306876 -0.00083169586
0.0049256287 0.012770359 -0.008597139 0.0072595626 0.007653132 -0.00797244 -0.0009988967 0.011823938
0.00037206008 0.010718734 0.007309904 -0.0040210257 -0.0033778537 -0.0037877269 0.015422294 -0.007578399
-0.0152547555 0.00925214 -0.015084095 -0.009822824 0.010972555 -0.0055970396 -0.0055675018 -0.0002456594
-0.0004213405 -0.0046393466 -0.0031510524 0.0018780635 0.007663277 0.0037410439 0.008233829 -0.001257565
-0.009346533 0.0076150894 -0.0066280575 0.0011786249 0.009350256 -0.0067571285 0.013651939 0.009017501
0.011739043 -0.0022555627 -0.0071024704 -0.00832976 -0.0013315243 -0.0007785699 0.008211679 0.007120972
0.0030783033 0.011260462 0.019974722 0.0054812552 0.0049812747 -0.003531326 0.0024894043 -0.0023077314
-0.0028679054 -0.016142577 0.009349667 0.010063694 0.0081528025 0.0023325782 0.014409062 -0.012082584
0.0030532193 0.001078981 0.012970428 -0.0039869733 -0.008738997 0.004255889 -0.0027274115 -0.006945874
0.00032272114 0.006954301 0.015892297 0.010543979 0.013105727 0.006483895 0.0006025615 0.013980368
-0.0015406277 0.00827869 -0.010145785 -0.012902332 0.010898204 -4.7256715e-05 -0.02914958 0.008445582
-0.0072043473 0.001898708 -0.012278069 -0.0025138876 0.0004994007 0.01428355 -0.0007821888 -3.5296856e-05
-0.0068415287 0.008557052 0.0052937632 0.010830614 0.005482759 -0.0066623883 -0.0038489557 -0.0049858405
0.0018793278 0.0025700391 0.013585693 -0.009705531 -0.0053677964 -0.010217411 -0.016846929 0.017763073
-0.004819283 -0.0020095203 -0.0054450603 -0.0037753545 0.013368097 -0.0027963275 -0.0078064227 -0.00928624
-0.010734017 0.0021351639 -0.004758462 -0.009706895 -0.0017084923 0.0065370626 0.00023044882 -0.0053848093
-0.0033147705 -0.0074890046 0.011084151 7.977763e-05 -0.010982047 0.003222654 -0.008857642 0.003606322
0.013344397 0.013594806 -0.0046698395 -0.00986741 0.0059419344 0.006665936 -0.012694229 -0.00047989073
-0.0014906736 0.0048057865 0.0014516695 0.000227059 0.013053425 0.002147272 -0.016596615 -0.0023098278
-0.01231931 0.012491598 -0.004740802 0.0010671197 -0.014341781 -0.012281454 0.0018690551 0.016294835
0.01685842 -0.011295924 0.0035829772 0.0004843826 -0.015477398 0.0020014585 -0.014703633 -0.010802906
0.0063151233 0.0037481212 -0.012050473 0.0071777552 0.008139837 0.011562792 0.0043347776 -0.00194077
-0.003014089 0.011698323 0.007694632 0.006601456 -0.019298129 -0.004607455 0.0141579285 0.00765343
0.0041509913 0.017573183 -0.0104420325 -0.00028115878 0.0015499645 0.0062247254 -0.005518512 -0.016617654
-0.004433391 0.016925415 0.017324772 -0.0072010867 -0.014958617 -0.008621751 -0.0027160314 -0.010843933
0.010751143 -0.0068740225 -0.0165685 0.027175099 -0.0074006133 0.0063543557 -0.013079407 0.0046675177
00000000: 0ee4 aeb9 f895 ffbb 8fd6 1f3c 2d4f 72bc
00000010: b8cf 40bc 0c62 40bb 0008 65bb 9025 d23b
00000020: 6036 67bb 1f88 543b 741b 0fbc d2c6 50bb
00000030: bb11 01bc 1f60 7d39 3ce6 b0bc aa0b fb3b
00000040: 694c 253b acfc b1ba a709 17bb 533d efbb
00000050: c7d0 2c3c c6a2 063b a16a 9c3c dbe3 41bc
00000060: a664 933b dc93 94bc 2fb0 6dbb e3ff 193b
00000070: 07b0 1e3b a33a 793a 7c3f 80bb 4deb 17ba
00000080: ca67 f6ba cfcd 56bb 6f08 b93b 1270 27bc
00000090: f321 163b ebea 52ba 34d9 19bc 8ac0 b439
000000a0: 82d9 adbc 706e 62bc e3e2 c8bc 80ff 9a3b
000000b0: 897c 223c 1250 ec3a 63d5 603b 2a06 5aba
000000c0: 2b67 a13b c53a 513c 04db 0cbc a0e1 ed3b
000000d0: 20c7 fa3b d69e 02bc 69ed 82ba 31b9 413c
000000e0: 0f11 c339 a19d 2f3c eb87 ef3b cfc2 83bb
000000f0: fb5e 5dbb 833b 78bb caad 7c3c 3854 f8bb
00000100: 15ef 79bc 4a96 173c 4823 77bc e9ef 20bc
00000110: 3bc6 333c 5f67 b7bb 976f b6bb d9cb 80b9
00000120: 5de7 dcb9 a905 98bb e381 4ebb 5b29 f63a
00000130: 3a1c fb3b 4d2c 753b 2fe7 063c e1d4 a4ba
00000140: 3322 19bc 0088 f93b 2d30 d9bb 177c 9a3a
00000150: d131 193c e76a ddbb 62ac 5f3c 24be 133c
00000160: 1d55 403c 10d2 13bb d7bb e8bb 8c79 08bc
00000170: 8b86 aeba f118 4cba 478a 063c 0b57 e93b
00000180: 5cbd 493b cd7d 383c 07a2 a33c 1a9c b33b
00000190: f639 a33b d26d 67bb 4625 233b 4f3d 17bb
000001a0: 78f3 3bbb 703d 84bc 582f 193c 31e2 243c
000001b0: 5593 053c 2bde 183b fd13 6c3c 08f6 45bc
000001c0: 8518 483b 986c 8d3a eb81 543c 28a5 82bb
000001d0: 032e 0fbc fc74 8b3b 5fbe 32bb 379a e3bb
000001e0: e632 a939 e8e0 e33b 9030 823c a7c0 2c3c
000001f0: 67b9 563c da76 d43b 38f5 1d3a ea0d 653c
00000200: e3ee c9ba 58a3 073c 823a 26bc 4d64 53bc
00000210: 618e 323c 8335 46b8 1acb eebc 575f 0a3c
00000220: 7212 ecbb 12de f83a f429 49bc 09c0 24bb
00000230: 37ea 023a 8d05 6a3c cd0b 4dba b60b 14b8
00000240: e72e e0bb e132 0c3c 4e77 ad3b e372 313c
00000250: b7a8 b33b 2a50 dabb c33e 7cbb 4360 a3bb
00000260: c753 f63a 1a6e 283b 8796 5e3c f303 1fbc
00000270: 57e4 afbb ee66 27bc 9202 8abc dd83 913c
00000280: 13eb 9dbb 28b2 03bb 7a6c b2bb f06b 77bb
00000290: dd05 5b3c 9742 37bb 05cd ffbb 5025 18bc
000002a0: bbdd 2fbc 1bee 0b3b dfec 9bbb ab09 1fbc
000002b0: 7def dfba db34 d63b a2a4 7139 0e73 b0bb
000002c0: 9f3c 59bb 5366 f5bb 4d9a 353c 4a4e a738
000002d0: 0bee 33bc 2a33 533b a51f 11bc 0b58 6c3b
000002e0: 75a2 5a3c c0bc 5e3c 7405 99bb ebaa 21bc
000002f0: 8fb4 c23b ed6d da3b 75fb 4fbc d899 fbb9
00000300: b562 c3ba dc79 9d3b f245 be3a b016 6e39
00000310: 08de 553c 3fb9 0c3b a0f5 87bc 7b60 17bb
00000320: eed6 49bc 8fa9 4c3c bb58 9bbb 98de 8b3a
00000330: caf9 6abc 2738 49bc 15fb f43a bf7c 853c
00000340: ab1a 8a3c 8a12 39bc 62d0 6a3b bbf4 fd39
00000350: ea94 7dbc e72a 033b 82e7 70bc acfe 30bc
00000360: 18ef ce3b 0aa3 753b 596f 45bc 6033 eb3b
00000370: f35c 053c dd71 3d3c c00a 8e3b 6f61 feba
00000380: 0688 45bb 53aa 3f3c 4023 fc3b 0751 d83b
00000390: 1c17 9ebc 22fa 96bb a8f6 673c a0c9 fa3b
000003a0: 0a05 883b a3f5 8f3c 0f15 2bbc 7e68 93b9
000003b0: 2e28 cb3a c8f8 cb3b a2d4 b4bb bf21 88bc
000003c0: fb45 91bb 2ba7 8a3c aeec 8d3c 18f7 ebbb
000003d0: fd14 75bc 3f42 0dbc 72ff 31bb c0aa 31bc
000003e0: 9025 303c 7b3f e1bb aaba 87bc 509e de3c
000003f0: d880 f2bb 3338 d03b 024b 56bc faf1 983b

action_model._discrete_distribution.branches.0.bias f4 [8]
0.0 0.0 0.0 0.0 0.0 0.0 0.0 0.0
00000000: 0000 0000 0000 0000 0000 0000 0000 0000
00000010: 0000 0000 0000 0000 0000 0000 0000 0000

action_model._discrete_distribution.branches.1.weight f4 [8, 142]
-0.0044724327 0.01093272 0.0015367584 0.0014645943 0.008893465 -0.00074442837 0.015180058 0.015601001
0.0016078362 -0.0030418362 -0.003402628 -0.015068873 0.004167016 0.012407347 0.015169511 0.009327492
-0.0024779176 0.013213496 0.010622426 -0.009353362 0.0075798095 0.0023881674 -0.012695022 0.0049449536
-0.014579932 0.010800299 2.1720856e-05 -0.0033911057 -0.003274611 0.005248583 0.0018903812 0.0009127402
-0.02260152 -0.014330889 -0.019331222 0.0019168251 -0.0064447387 0.009994127 -0.004982045 0.0053618
0.0050918283 -0.02296178 -0.00051934016 0.012836059 0.011375678 0.014121865 -0.0049739853 -0.0031623112
-0.0049924883 -0.001161064 0.009952708 0.006856958 0.0128810955 -0.009298469 -0.007752263 -0.0018992178
0.008384134 0.0014158259 -0.010439897 -0.006407847 -0.018654173 0.0045557027 0.0009284331 -0.0070268805
-0.0029880097 -0.011725235 -0.0021926255 -0.0002766186 0.0063597052 -0.01284603 0.009716586 -0.024982551
-0.00045991238 0.00202465 0.0031156472 0.010609646 0.0022693027 0.001981909 -0.002622483 0.006402266
0.007030728 0.0026111857 0.00047726868 0.009206803 -0.0029733877 -0.008966018 0.015419925 -0.010843645
-0.0054000085 0.0006010067 -0.0011364868 0.005409459 -0.005139595 -0.012322325 0.016871758 -0.0052695256
0.0035696388 -0.0076872855 0.0062760687 -0.0026562742 -4.428589e-05 0.0018837232 -0.0038497827 -0.002019084
-0.0019605686 0.019967547 0.003852034 -0.005161611 0.010947133 0.0076532545 0.0101809325 -0.011378131
0.022006398 0.003501587 -0.0018364048 -0.0010330038 -0.0053879106 -0.008824102 0.0027081685 0.0028244788
-0.0024407643 -0.014550516 -0.00043239738 0.0034118593 0.00790054 -0.0041184556 0.004315357 -0.011198855
-0.013872198 0.013821936 0.014701726 0.0043535675 -0.005998013 0.0026736846 0.005190899 0.0049682623
-0.0048888437 0.009181208 0.0056962124 0.0008001497 0.008330525 -0.0012300344 -0.017307261 0.008024474
-0.0060288566 0.00428603 0.008181491 -0.007227421 0.012192624 -0.002916543 0.014382571 0.003365263
0.0010794799 0.011834159 0.008394569 0.016247658 -0.0003795119 0.0038666811 -0.002281967 0.004713369
0.005068284 0.0010957774 -0.0007464472 -0.0067488975 0.0040718135 0.009003007 0.009479283 0.0011023119
0.0034636979 0.013541806 0.013407734 0.018034974 0.0070128785 -0.0066848896 -0.00036257648 0.0056512216
0.02009324 -0.0014194319 0.0004936987 -0.0014306008 0.00020246695 0.005422658 0.008654584 0.0059944317
-0.006488777 -0.007437008 0.0005223796 -0.016841112 0.004559381 0.011302255 0.0007267287 0.016613714
0.006903775 -0.0008468029 -0.0053158514 0.008020995 0.0059549566 -0.016275426 -0.005740691 0.0012740596
0.010279684 -0.013328308 -0.009376104 -0.00017304377 0.0008286947 0.008717841 0.008886967 -0.008938377
-0.011576521 -0.0107318405 -0.008737836 -0.0044801105 -0.0064346488 0.011225983 -0.0017178789 -0.020965666
0.00013771857 -0.006816057 -0.017981816 -0.0043573305 0.0026450944 0.0045340443 -0.00039859544 -0.015613056
-0.0006231765 5.2078198e-05 -0.021040073 0.0027194722 -0.00800661 0.0014002317 -0.0017317428 -0.00444665
0.0017839841 0.0032671497 -0.0012956016 -0.005182924 0.006091231 0.009703725 0.016176429 -0.007975008
-0.0028547903 -0.0060716174 -0.0029221983 -0.00689111 -0.01101588 0.007239185 0.009110215 -0.0042604087
-0.007686204 0.0049712453 0.005647102 0.00269546 0.0061742673 -0.0019014602 -0.005323001 -0.008663276
00000000: 7c8d 92bb 271f 333c 0e6d c93a a1f7 bf3a
00000010: e5b5 113c be25 43ba c7b5 783c 579b 7f3c
00000020: 08be d23a 8b59 47bb a0fe 5ebb 6fe3 76bc
00000030: 778b 883b 2f48 4b3c 8a89 783c 56d2 183c
00000040: 8f64 22bb 6b7d 583c af09 2e3c d83e 19bc
00000050: 0d60 f83b cd82 1c3b c8fe 4fbc 4709 a23b
00000060: abe0 6ebc bdf3 303c 2f35 b637 503d 5ebb
00000070: db9a 56bb 4efc ab3b abc6 f73a f544 6f3a
00000080: d326 b9bc 1bcc 6abc 835c 9ebc fa3d fb3a
00000090: 632e d3bb 68be 233c 6c40 a3bb 0ab2 af3b
000000a0: 5ad9 a63b 581a bcbc 5424 08ba 554e 523c
000000b0: 0d61 3a3c 655f 673c d0fc a2bb c73e 4fbb
000000c0: 0798 a3bb d82e 98ba af10 233c 55b0 e03b
000000d0: 3b0b 533c 9b58 18bc b206 febb 2def f8ba
000000e0: 9b5d 093c 3c93 b93a 1a0c 2bbc ebf8 d1bb
000000f0: a3d0 98bc 0148 953b 1762 733a bf41 e6bb
00000100: 7cd2 43bb 331b 40bc 27b2 0fbb 1f07 91b9
00000110: 1365 d03b 2878 52bc 5132 1f3c 35a8 ccbc
00000120: 6520 f1b9 feaf 043b e32f 4c3b 15d4 2d3c
00000130: 95b8 143b eae2 013b f7dd 2bbb 1aca d13b
00000140: 0562 e63b 6d20 2b3b eb39 fa39 21d8 163c
00000150: 2bdd 42bb 35e6 12bc daa3 7c3c 8ba9 31bc
00000160: 8ef2 b0bb e08c 1d3a 2bf6 94ba d541 b13b
00000170: 0c6a a8bb 94e3 49bc a436 8a3c fcab acbb
00000180: 9af0 693b a0e5 fbbb 7ba7 cd3b e314 2ebb
00000190: 9dbf 39b8 43e7 f63a a34c 7cbb 9c52 04bb
000001a0: e27c 00bb fb92 a33c 6872 7c3b bb22 a9bb
000001b0: 9b5b 333c 27c8 fa3b edcd 263c 576b 3abc
000001c0: c346 b43c e27a 653b 85b3 f0ba db65 87ba
000001d0: 128d b0bb f792 10bc 877b 313b e41a 393b
000001e0: 3bf5 1fbb 4a65 6ebc 65b3 e2b9 8099 5f3b
000001f0: 4471 013c 1cf4 86bb d767 8d3b 677b 37bc
00000200: 3748 63bc 6775 623c 82df 703c 5fa8 8e3b
00000210: fb8a c4bb fc38 2f3b 6b18 aa3b cecc a23b
00000220: 9832 a0bb c76c 163c 4ba7 ba3b 23c1 513a
00000230: c17c 083c 1b39 a1ba f5c7 8dbc 1579 033c
00000240: b78d c5bb d371 8c3b a90b 063c 00d4 ecbb
00000250: 92c3 473c 7923 3fbb e0a4 6b3c bf8b 5c3b
00000260: 567d 8d3a 0fe4 413c 6089 093c cf19 853c
00000270: 3af9 c6b9 2568 7d3b 0e8d 15bb 9b72 9a3b
00000280: d913 a63b 30a0 8f3a 39ad 43ba db25 ddbb
00000290: d96c 853b 5981 133c ff4e 1b3c 737b 903a
000002a0: 35ff 623b 73de 5d3c 1dac 5b3c 15be 933c
000002b0: 4acc e53b eb0c dbbb 3118 beb9 e22d b93b
000002c0: 949a a43c 3b0c baba 8f6b 013a ff82 bbba
000002d0: 4f4d 5439 8db0 b13b f5cb 0d3c f06c c43b
000002e0: cf9f d4bb 25b2 f3bb 4df0 083a 5ff6 89bc
000002f0: dc66 953b 182d 393c f081 3e3a 7c19 883c
00000300: 1039 e23b fbfb 5dba 9830 aebb 7e6a 033c
00000310: cc21 c33b 0b54 85bc 681c bcbb 59fe a63a
00000320: 1f6c 283c fa5e 5abc 3b9e 19bc 1573 35b9
00000330: c33c 593a 46d5 0e3c a49a 113c 4572 12bc
00000340: 73ab 3dbc 9ad4 2fbc 2429 0fbc e4cd 92bb
00000350: bfd9 d2bb 2fed 373c 732a e1ba 30c0 abbc
00000360: 8c68 1039 3b59 dfbb 9a4e 93bc f0c7 8ebb
00000370: 5259 2d3b 5292 943b 93fa d0b9 e7cd 7fbc
00000380: ab5c 23ba 8a6e 5a38 3b5c acbc 2c39 323b
00000390: 282e 03bc fb87 b73a a5fb e2ba 34b5 91bb
000003a0: 93d4 e93a ad1d 563b 2dd1 a9ba 85d5 a9bb
000003b0: f398 c73b 5ffc 1e3c 6e84 843c 9ca9 02bc
000003c0: 6f17 3bbb 6bf4 c6bb 5a82 3fbb d2ce e1bb
000003d0: f37b 34bc af36 ed3b 0343 153c e69a 8bbb
000003e0: 8ddc fbbb d4e5 a23b 530b b93b 51a6 303b
000003f0: 8251 ca3b 6b3a f9ba 926c aebb 6af0 0dbc

action_model._discrete_distribution.branches.1.bias f4 [8]
0.0 0.0 0.0 0.0 0.0 0.0 0.0 0.0
00000000: 0000 0000 0000 0000 0000 0000 0000 0000
00000010: 0000 0000 0000 0000 0000 0000 0000 0000

action_model._discrete_distribution.branches.2.weight f4 [8, 142]
0.010150813 0.0043610535 -0.0059263287 -0.004565221 0.0036684857 0.013162983 -0.011436292 -0.0009549667
-0.0074005434 0.022116283 0.003490039 0.007611049 -0.0031503856 -0.010189956 0.007238833 -0.001267429
0.0053145173 0.009809283 -0.009440678 -0.0031907258 0.0055149565 0.0022846067 0.0010450677 0.01321049
0.007848364 0.0036032496 0.0046718596 -0.008478984 0.011218894 -0.0062673925 0.013543606 0.0044703563
0.0021554364 -0.014538129 0.0110800965 -0.0089876875 0.0017310284 0.0006924169 -0.0023164141 0.0053620185
0.015255145 -0.0060377377 -0.0031388768 0.0025277361 0.0043780026 0.0050788186 -0.0018726664 0.007360115
0.0037291832 0.0019738423 0.019050967 5.293028e-05 -0.0013137053 -0.011256834 0.0039092605 -0.00606706
0.017645909 0.0022677395 -0.0007533244 0.0065183523 0.003575836 -0.009259129 0.016185151 0.0037088953
-0.008158111 0.0016926475 0.0062100496 0.0006710198 0.014173319 0.004427433 -0.0029762913 -0.0074763196
0.022709265 0.0053835465 -0.010206435 -0.0061903866 -0.006158385 0.014429715 0.0051862597 0.0139834685
-0.010703306 0.0071058655 -0.0020362928 -0.001019955 0.008101993 0.016418781 -0.0014672349 -0.007317241
-0.0208234 0.006390522 -0.00077687163 -0.001780288 0.0008637248 0.0008653298 -0.012514685 0.010829605
0.010776935 -0.016892463 0.0023626909 -0.01632655 -0.0088357935 0.012471104 -0.012207066 0.0039776633
0.004824538 0.016318612 0.0094045205 0.016835222 0.0052749235 -0.010113063 -0.0008930801 0.005061164
0.002965553 -0.00090279087 0.010328448 0.0009184723 -0.018418973 2.0471261e-05 -0.00031312436 0.002033211
-0.009278526 0.01440748 0.0035328052 -0.0013073449 -0.009643802 -0.0043668924 -0.006498842 0.026857957
0.0019095915 -0.007865002 0.005266192 0.005510916 0.0010071726 0.0052543986 -0.0080392165 0.0030935542
-0.0135734845 -0.0024408882 -0.0020102595 0.00067663105 -0.011434226 0.009576809 -0.012064381 0.0077505247
-0.009607516 -0.0032996684 -0.015041473 -0.0081199575 -0.016881315 0.0031128216 -0.0008561468 0.00455772
0.0061594783 0.00065238995 -0.013627558 0.013480696 0.0045715123 0.01716811 -0.003888006 -0.014797642
0.0071917684 0.008872303 -0.022859165 0.006631127 0.00035848483 0.018031342 0.020998593 0.011601507
-0.004518199 0.013774991 -0.016767798 -0.0053741354 -0.0047231265 -0.01397125 -0.0018069101 0.014139664
-0.0031215528 0.00065769785 0.0061085834 0.003316416 0.0076777423 0.010126857 0.0038065237 -0.012157877
7.880428e-05 0.007826908 0.008500266 -0.004028318 -0.0058007794 -0.009546432 -0.0015318939 0.0020893817
0.0033552002 0.0016299699 0.004574965 0.011247194 -0.006807163 -0.017548075 0.0025815465 -0.014163636
0.0003249783 -0.006346011 -0.002623941 -0.0022635546 0.009665217 0.0048502423 -0.0030693386 0.010822004
-0.0035654858 -0.016441256 -0.0049354825 0.0026302848 0.011060535 0.01433415 0.022048416 -0.0008367311
0.0027208084 0.0018040776 0.003308144 -0.00096502027 -0.005165181 0.007168859 -0.0016051123 -0.017972864
-0.0038665812 -0.007145893 0.006956015 0.003938896 0.0028582036 0.0062656193 0.0037625313 -0.00824594
-0.0031219588 0.012240123 -0.0016419027 0.004011405 0.01042382 -0.0057687745 -0.0049371063 0.009629261
-0.015956981 0.004272027 -0.0027114793 0.008507689 0.0017831322 -0.009863936 0.0059487433 -0.0043260176
0.003626718 -0.0011609292 -0.0011285105 -0.0047256444 0.00217356 -0.00058719725 -0.0058282167 -4.9818314e-05
00000000: 984f 263c 2be7 8e3b a631 c2bb d997 95bb
00000010: fa6a 703b 8da9 573c 495f 3bbc bb56 7aba
00000020: 4280 f2bb 352d b53c 23b9 643b 1b66 f93b
00000030: b376 4ebb c6f3 26bc bb33 ed3b dc1f a6ba
00000040: 6725 ae3b 1db7 203c 13ad 1abc 7f1b 51bb
00000050: cfb6 b43b 57b9 153b a7fa 883a d070 583c
00000060: 6d96 003c 7f24 6c3b 6616 993b 70eb 0abc
00000070: 74cf 373c b35e cdbb 00e6 5d3c 117c 923b
00000080: 3942 0d3b 5531 6ebc 4b89 353c 1841 13bc
00000090: ade3 e23a 5083 353a fbce 17bb dfb3 af3b
000000a0: b7f0 793c 37d8 c5bb 9db5 4dbb 60a8 253b
000000b0: 5975 8f3b 386c a63b 4274 f5ba 1f2d f13b
000000c0: 5065 743b 945b 013b c610 9c3c 7501 5e38
000000d0: a330 acba 956e 38bc 4119 803b 30ce c6bb
000000e0: 278e 903c 5b9e 143b bf7a 45ba e797 d53b
000000f0: 9358 6a3b 9ab3 17bc b996 843c f010 733b
00000100: 99a9 05bc d3db dd3a ac7d cb3b 60e7 2f3a
00000110: 3537 683c 0014 913b e20d 43bb eafb f4bb
00000120: c808 ba3c 7668 b03b e438 27bc bad8 cabb
00000130: 47cc c9bb 9d6a 6c3c 80f1 a93b eb1a 653c
00000140: eb5c 2fbc 52d8 e83b 5373 05bb 03b0 85ba
00000150: 39be 043c ae80 863c 3c50 c0ba 77c5 efbb
00000160: d695 aabc 9567 d13b f9a6 4bba 8d58 e9ba
00000170: 976b 623a 4dd7 623a 650a 4dbc a86e 313c
00000180: be91 303c 1062 8abc 60d7 1a3b 42bf 85bc
00000190: 01c4 10bc 9a53 4c3c 2500 48bc 0f57 823b
000001a0: 2817 9e3b 9cae 853c 6b15 1a3c 05ea 893c
000001b0: 44d9 ac3b 43b1 25bc 971d 6aba 1fd8 a53b
000001c0: b959 423b 45a9 6cba a738 293c a2c5 703a
000001d0: 63e3 96bc b3b9 ab37 d72a a4b9 9f3f 053b
000001e0: f504 18bc 5a0d 6c3c a386 673b 375b abba
000001f0: 0a01 1ebc 2618 8fbb 3df4 d4bb 3805 dc3c
00000200: 424b fa3a 36dc 00bc 0590 ac3b ea94 b43b
00000210: 1b03 843a 172d ac3b ebb6 03bc 3abd 4a3b
00000220: 5263 5ebc 4ff7 1fbb 8fbe 03bb f15f 313a
00000230: 9f56 3bbc 0ce8 1c3c aea9 45bc 1df8 fd3b
00000240: d868 1dbc 403f 58bb 8370 76bc 9209 05bc
00000250: af4a 8abc 7b00 4c3b 0a6f 60ba ed58 953b
00000260: 73d5 c93b 2605 2b3a 1f46 5fbc 23de 5c3c
00000270: a0cc 953b 23a4 8c3c ebcd 7ebb cf71 72bc
00000280: eda8 eb3b 235d 113c 2543 bbbc ed49 d93b
00000290: 05f3 bb39 77b6 933c 3e05 ac3c 3f14 3e3c
000002a0: 660d 94bb 80b0 613c 9f5c 89bc 8419 b0bb
000002b0: 75c4 9abb abe7 64bc d8d5 ecba 0daa 673c
000002c0: f792 4cbb 5b69 2c3a 832a c83b 3a58 593b
000002d0: 9295 fb3b 1eeb 253c df76 793b d531 47bc
000002e0: ba43 a538 6e3c 003c b344 0b3c fbff 83bb
000002f0: 7714 bebb a368 1cbc d4c9 c8ba 02ee 083b
00000300: ebe2 5b3b b7a4 d53a 97e9 953b 2746 383c
00000310: 9f0e dfbb fbc0 8fbc 2a2f 293b 980e 68bc
00000320: d961 aa39 33f2 cfbb 6df6 2bbb 2558 14bb
00000330: dc5a 1e3c c8ee 9e3b f526 49bb c64e 313c
00000340: edaa 69bb d0af 86bc d4b9 a1bb db60 2c3b
00000350: 3f37 353c c8d9 6a3c e19e b43c 1358 5bba
00000360: 974f 323b cd76 ec3a 72cd 583b 6af9 7cba
00000370: ae40 a9bb bfe8 ea3b a262 d2ba d43b 93bc
00000380: 7866 7dbb 1828 eabb 48ef e33b db11 813b
00000390: b350 3b3b d34f cd3b cd94 763b fb19 07bc
000003a0: c799 4cbb cc8a 483c 1d35 d7ba 1b72 833b
000003b0: abc8 2a3c fd07 bdbb 73c7 a1bb 0cc4 1d3c
000003c0: 37b8 82bc 5cfc 8b3b 13b3 31bb d663 0b3c
000003d0: fdb7 e93a 599c 21bc aded c23b 44c1 8dbb
000003e0: 3bae 6d3b 522a 98ba 87ea 93ba 94d9 9abb
000003f0: 4972 0e3b 24ee 19ba a0fa bebb 02f4 50b8

action_model._discrete_distribution.branches.2.bias f4 [8]
0.0 0.0 0.0 0.0 0.0 0.0 0.0 0.0
00000000: 0000 0000 0000 0000 0000 0000 0000 0000
00000010: 0000 0000 0000 0000 0000 0000 0000 0000

action_model._discrete_distribution.branches.3.weight f4 [8, 142]
-0.0037720394 0.013137613 -0.0010685527 -0.01599028 0.011004935 -0.00065045647 -0.01285433 -0.007815853
-0.0004462921 0.00544835 -0.00036636804 -0.007903307 0.002004582 0.012702793 0.0022143777 0.013141102
-0.004628368 0.011715317 -0.0047583147 0.007854942 -0.0026659928 0.0013003278 -0.00077725324 -0.0045156665
-0.008270378 -0.011533804 -0.020328386 0.0056804675 -0.0065369853 -0.00515914 0.0026013074 0.002700652
-0.0048418413 -0.014995189 0.008327923 -0.0008618652 -0.0047961976 0.0064208023 -0.0075162225 0.0062836222
0.004638358 -0.0032718626 0.0037216619 -0.012994877 -0.012315318 -0.010316541 -0.009445395 -0.0053124507
-0.0028206836 0.012677941 0.012816976 0.002609665 0.009142124 -0.007327929 0.009874421 0.0071143718
0.0043299734 0.0023632334 -0.009058224 0.008361741 -0.010428025 0.001061224 0.013906026 -0.0007058437
-0.0013236618 -0.004133928 0.0063708345 -0.0020921677 -0.0059733274 -0.005893063 -0.004955089 0.0012640286
0.0013897269 -0.0051063653 0.0017507498 0.009732124 -0.0057448926 0.007236066 -0.0025763635 -0.004177801
-0.0220316 -0.008757599 0.0027693643 -0.010139482 0.013450128 0.0021770522 0.004079521 0.008874389
-0.009268895 -0.007268502 -0.011971358 0.0042450884 -0.015048914 0.0041141445 0.0015892982 -0.007564032
-0.0028885256 -0.0034357333 -0.0078034713 0.010661836 0.0031154742 -0.00061775476 0.00063863926 0.001960874
-0.004710325 -0.005296534 0.0023522284 0.0041324194 0.0028965631 0.00041173166 -0.013332342 -0.009019892
-0.002930116 0.0044713574 -0.006030122 -0.006918758 0.009085086 0.004087398 0.00955835 0.0052582766
-0.0072981054 0.0029347546 -0.0030681032 -0.009597638 -0.004078534 0.014852153 -0.0080363685 0.00045521828
0.009117073 0.0011400569 -0.0019261446 -0.0041238056 -0.00038974645 -8.8499386e-05 -0.0006586689 0.009690061
-0.00022054816 0.0037291795 -0.0032940693 -0.0058983746 -0.0053898892 0.006377353 -0.002488338 -0.007169983
-0.005449408 -0.006380918 0.0010845548 -0.0060195834 -0.00056136335 -0.005760188 0.00078571466 -0.0012257494
-0.0034263693 0.0122534335 -0.010102089 0.004153903 0.006495662 0.011291697 0.0012703497 0.011012028
-0.011394104 -0.010820764 0.000557982 0.0019616415 0.0077807033 -0.00086074846 -0.0073283385 0.00039916896
0.003093369 0.00055463787 0.009921576 -0.0008309015 -0.010398048 -0.0022335562 0.008300651 -0.010701101
-0.02431796 0.0015701188 -0.0022626033 0.0022003313 -0.0017702915 0.015291119 -0.014824833 -0.002012457
0.0018532741 0.00041019288 0.0028832944 -0.0016663643 0.00042718262 -0.0046326215 0.0037553478 -0.0023790267
0.018160757 -0.003382288 -0.0005933868 0.000325151 -0.013186916 -0.005415901 0.008183687 -0.0036907464
0.00040544025 -0.003398002 0.0045702453 0.00064816204 -0.004092658 0.014230246 0.00036236676 -0.0082966415
-0.005651723 0.0014578776 -0.012070561 -0.009380256 -0.003633348 -0.00039560098 0.00042146185 0.00434477
-0.00759366 0.0120931 -0.0046748505 0.008796062 0.012078037 0.0042662537 -0.0024244552 0.005849162
-0.010230841 0.0052905707 -0.01866581 0.010120893 -0.012625413 -0.0030910017 -0.0030281343 0.00042329574
0.013626588 0.004785409 0.013340821 0.004640728 0.0019315443 0.00677858 -0.0050146948 -0.007996751
0.0023683584 -0.0020760663 -0.013338859 0.0028891175 -0.011762089 -0.0074461973 0.003875759 0.0026776567
0.0151082175 0.0031514484 0.009485995 0.0012482948 0.0015028405 0.008723366 -0.006860836 -0.003723954
00000000: 5234 77bb 253f 573c ae0e 8cba 0cfe 82bc
00000010: 0b4e 343c 6583 2aba f89a 52bc 100e 00bc
00000020: 50fc e9b9 1388 b23b 1615 c0b9 df7c 01bc
00000030: 4e5f 033b 601f 503c 181f 113b c74d 573c
00000040: 91a9 97bb 9af1 3f3c a3eb 9bbb 04b2 003c
00000050: f0b7 2ebb c36f aa3a 95c0 4bba 28f8 93bb
00000060: 7b80 07bc 48f8 3cbc b787 a6bc 3723 ba3b
00000070: 3534 d6bb 010e a9bb b27a 2a3b 6cfd 303b
00000080: 4fa8 9ebb 62ae 75bc d771 083c cbee 61ba
00000090: 6c29 9dbb 9865 d23b a54a f6bb d8e6 cd3b
000000a0: 5efd 973b bf6c 56bb 20e7 733b 77e8 54bc
000000b0: 30c6 49bc b606 29bc dcc0 1abc 1114 aebb
000000c0: 38db 38bb 23b7 4f3c 4bfe 513c ea06 2b3b
000000d0: d9c8 153c 201f f0bb 53c8 213c ad1f e93b
000000e0: 73e2 8d3b 7ae0 1a3b f268 14bc afff 083c
000000f0: 4fda 2abc c518 8b3a 1ad6 633c 5e08 39ba
00000100: b87e adba e775 87bb 6fc2 d03b c01c 09bb
00000110: e7bb c3bb 981a c1bb 4d5e a2bb c3ad a53a
00000120: 7f27 b63a 4c53 a7bb 6a79 e53a 7d73 1f3c
00000130: a73f bcbb 851c ed3b 35d8 28bb efe5 88bb
00000140: 9d7b b4bc 087c 0fbc 397e 353b 1220 26bc
00000150: ed5d 5c3c e0ac 0e3b 81ad 853b e365 113c
00000160: 90dc 17bc 9d2c eebb 8423 44bc 621a 8b3b
00000170: b88f 76bc f2cf 863b 0050 d03a b3db f7bb
00000180: 6b4d 3dbb 0a2a 61bb 43b4 ffbb fbae 2e3c
00000190: fc2c 4c3b d2f0 21ba 5b6a 273a 0282 003b
000001a0: 1259 9abb 8c8e adbb d827 1a3b 3f69 873b
000001b0: 44d4 3d3b b0dd d739 e56f 5abc 2bc8 13bc
000001c0: 3007 40bb 7784 923b 5498 c5bb c0b6 e2bb
000001d0: 9dd9 143c 94ef 853b a09a 1c3c 9f4d ac3b
000001e0: f224 efbb 0355 403b 3b12 49bb 693f 1dbc
000001f0: 39a5 85bb 7256 733c f9aa 03bc 5daa ee39
00000200: c75f 153c f66d 953a b076 fcba fd20 87bb
00000210: e256 ccb9 bf98 b9b8 86aa 2cba 10c3 1e3c
00000220: f242 67b9 4065 743b 50e1 57bb 2747 c1bb
00000230: ab9d b0bb 1df9 d03b 6213 23bb 2df2 eabb
00000240: f390 b2bb 0517 d1bb 9f27 8e3a ed3f c5bb
00000250: 7528 13ba f6bf bcbb 6bf8 4d3a 53a9 a0ba
00000260: f08c 60bb a0c2 483c 3b83 25bc 771d 883b
00000270: 90d9 d43b cf00 393c dd81 a63a cb6b 343c
00000280: 56ae 3abc 9349 31bc 8a45 123a e28e 003b
00000290: 45f5 fe3b daa3 61ba 8f22 f0bb 8d47 d139
000002a0: 1fba 4a3b 1e65 113a 1b8e 223c dbd0 59ba
000002b0: 935c 2abc db60 12bb 74ff 073c ac53 2fbc
000002c0: 7536 c7bc 72cc cd3a 2f48 14bb 6f33 103b
000002d0: 2009 e8ba 9a87 7a3c dbe3 72bc 6de3 03bb
000002e0: 8fe9 f23a 280f d739 a7f5 3c3b e869 daba
000002f0: 7bf7 df39 3fcd 97bb 481c 763b 72e9 1bbb
00000300: dec5 943c 60a9 5dbb 848d 1bba 0779 aa39
00000310: ef0d 58bc df77 b1bb df14 063c 73e0 71bb
00000320: 4591 d439 03b1 5ebb ffc1 953b 6be9 293a
00000330: b41b 86bb fa25 693c 0bfc bd39 a3ee 07bc
00000340: 1732 b9bb 4116 bf3a 9ac3 45bc a5af 19bc
00000350: 771d 6ebb aa68 cfb9 a7f7 dc39 935e 8e3b
00000360: 3dd4 f8bb 2322 463c 7d2f 99bb 5c1d 103c
00000370: f5e2 453c eecb 8b3b 9ce3 1ebb 54aa bf3b
00000380: 429f 27bc 865c ad3b 0ae9 98bc 1ad2 253c
00000390: d2da 4ebc 6792 4abb aa73 46bb cbed dd39
000003a0: 0d42 5f3c ecce 9c3b 7593 5a3c 3f11 983b
000003b0: df2b fd3a da1e de3b 4f52 a4bb ce04 03bc
000003c0: 7636 1b3b 9d0e 08bb 3b8b 5abc 5957 3d3b
000003d0: c7b5 40bc 3bff f3bb 7200 7e3b a07b 2f3b
000003e0: 7588 773c 8888 4e3b 266b 1b3c d39d a33a
000003f0: f6fa c43a 73ec 0e3c ddd0 e0bb 950d 74bb

action_model._discrete_distribution.branches.3.bias f4 [8]
0.0 0.0 0.0 0.0 0.0 0.0 0.0 0.0
00000000: 0000 0000 0000 0000 0000 0000 0000 0000
00000010: 0000 0000 0000 0000 0000 0000 0000 0000
