results/NewTwoAgentsFullBoardAction/BlackMLAgent/BlackMLAgent-112.onnx (onnx, 681198 bytes, 133 tensors)

discrete_act_size_vector f4 [1, 64]
13.0 13.0 13.0 13.0 13.0 13.0 13.0 13.0
13.0 13.0 13.0 13.0 13.0 13.0 13.0 13.0
13.0 13.0 13.0 13.0 13.0 13.0 13.0 13.0
13.0 13.0 13.0 13.0 13.0 13.0 13.0 13.0
13.0 13.0 13.0 13.0 13.0 13.0 13.0 13.0
13.0 13.0 13.0 13.0 13.0 13.0 13.0 13.0
13.0 13.0 13.0 13.0 13.0 13.0 13.0 13.0
13.0 13.0 13.0 13.0 13.0 13.0 13.0 13.0
00000000: 0000 5041 0000 5041 0000 5041 0000 5041
00000010: 0000 5041 0000 5041 0000 5041 0000 5041
00000020: 0000 5041 0000 5041 0000 5041 0000 5041
00000030: 0000 5041 0000 5041 0000 5041 0000 5041
00000040: 0000 5041 0000 5041 0000 5041 0000 5041
00000050: 0000 5041 0000 5041 0000 5041 0000 5041
00000060: 0000 5041 0000 5041 0000 5041 0000 5041
00000070: 0000 5041 0000 5041 0000 5041 0000 5041
00000080: 0000 5041 0000 5041 0000 5041 0000 5041
00000090: 0000 5041 0000 5041 0000 5041 0000 5041
000000a0: 0000 5041 0000 5041 0000 5041 0000 5041
000000b0: 0000 5041 0000 5041 0000 5041 0000 5041
000000c0: 0000 5041 0000 5041 0000 5041 0000 5041
000000d0: 0000 5041 0000 5041 0000 5041 0000 5041
000000e0: 0000 5041 0000 5041 0000 5041 0000 5041
000000f0: 0000 5041 0000 5041 0000 5041 0000 5041

network_body._body_endoder.seq_layers.0.weight f4 [142, 71]
-0.020956447 -0.17888284 -0.11920101 0.119989105 -0.12873653 -0.14034687 0.107465684 0.036924522
-0.035042472 0.09745925 0.008792838 0.09820167 -0.10954253 0.19470908 0.12228025 -0.0075387573
0.04564603 -0.11655191 -0.019036394 -0.28373733 -0.118116945 0.13149521 -0.11586461 0.09707381
-0.14732297 -0.24503396 0.12669453 -0.05379403 0.07538979 -0.083854325 0.13273714 0.018132528
-0.11172837 -0.06229311 0.09736075 0.03597541 0.0862149 -0.043542378 -0.07565273 -0.086920194
-0.0022361844 -0.11550277 0.17060241 0.02794085 0.013477315 0.08664614 -0.05522601 0.14308934
0.05204928 0.079017 -0.12991479 -0.061194528 -0.05138627 -0.07867155 -0.11198326 0.08886116
0.19342567 -0.19157694 0.10949422 -0.12834495 0.20881325 0.0429171 -0.039874632 -0.054750804
0.29475373 0.026986914 -0.01693325 0.07138286 -0.055830058 -0.115351975 -0.0007487025 0.042489037
0.0003002813 -0.014366137 0.055248965 -0.03619644 -0.07623539 0.17704661 -0.033042822 -0.0931897
0.089455605 -7.965698e-05 -0.10582575 -0.21809284 -0.028129673 -0.11322668 -0.14095294 -0.23959729
-0.08269634 -0.07011587 -0.11239603 0.0864897 -0.028877167 0.076251805 0.067587264 -0.17841846
0.21421461 0.01066219 -0.077297404 0.180078 0.08400794 -0.05025563 -0.30758968 0.006202371
-0.13442962 0.22519116 -0.07167918 0.10901332 -0.03118414 0.118716925 -0.19019239 0.14680773
0.09321144 0.050235204 0.09398787 -0.024015564 -0.19590166 0.15311204 -0.10755912 -0.041531328
0.015660837 -0.04032287 -0.09077307 0.13257743 -0.11806849 -0.19999768 0.035464525 -0.093316175
0.028160598 0.07559984 -0.118071795 0.06961756 0.027288431 -0.22054264 0.12486672 -0.06722886
-0.03212899 -0.046468798 0.130531 0.14288248 -0.08392656 -0.118020736 0.09879451 -0.07140231
0.20873699 0.045978613 -0.1457071 0.045999486 0.095934555 0.21712755 0.029303819 -0.047393452
0.17685999 -0.002722923 -0.036955692 0.05277388 0.09901279 0.03776785 -0.16911827 0.102811135
0.026979482 -0.14703763 0.02867544 -0.13051152 0.08067556 -0.17514421 -0.06657038 0.070807256
0.062328354 -0.055823866 0.1424617 0.07860223 -0.016516777 0.09683388 -0.14476444 -0.00032844866
-0.03040569 -0.13278268 -0.062372994 -0.014250948 -0.08478569 -0.19684955 -0.036177628 -0.054138545
0.1649399 0.15396371 0.20417617 0.16832078 0.09655845 -0.058142815 0.050955016 0.08504437
0.03185235 -0.016786512 -0.030272728 -0.070320465 -0.07280309 -0.025446387 -0.15086517 -0.048607927
-0.05298115 -0.15988173 -0.027845183 -0.107354894 0.052780177 -0.13383189 -0.08969844 -0.060056556
0.014326795 0.09141781 0.05623012 -0.04169676 0.039971292 -0.115685806 0.089651056 -0.1316183
0.2167222 0.18030633 0.016108051 -0.038712468 -0.0768967 0.1205174 -0.048362114 -0.15626268
-0.054281313 -0.0188333 -0.21810049 -0.0126216225 -0.03935745 0.22295599 0.12024336 -0.06979183
0.040637057 -0.08827422 0.18436404 0.19207239 -0.06183069 -0.04012959 -0.009126261 0.15090476
-0.07277814 0.055451967 -0.18828437 -0.020185972 0.102233365 0.031718362 -0.041182686 -0.051074754
0.014852353 0.14434427 -0.13850853 -0.2696016 -0.0077045974 -0.06828906 -0.033481073 -0.010613892
00000000: dbac abbc 102d 37be a91f f4bd d9bc f53d
00000010: 82d3 03be 17b7 0fbe f816 dc3d 2b3e 173d
00000020: b288 0fbd b798 c73d d60f 103c f51d c93d
00000030: d557 e0bd d161 473e 116e fa3d ae07 f7bb
00000040: 55f7 3a3d c5b2 eebd 36f2 9bbc 0546 91be
00000050: 4ce7 f1bd aea6 063e 6d4a edbd a2ce c63d
00000060: d5db 16be 2fea 7abe 36bc 013e 2157 5cbd
00000070: f665 9a3d d1bb abbd 3fec 073e ab8a 943c
00000080: d8d1 e4bd 0f27 7fbd 1365 c73d f45a 133d
00000090: 7091 b03d 7e59 32bd d2ef 9abd 3703 b2bd
000000a0: f38c 12bb b78c ecbd 66b2 2e3e 36e4 e43c
000000b0: f5cf 5c3c 8873 b13d ab34 62bd 0386 123e
000000c0: a031 553d aad3 a13d 6208 05be 1da7 7abd
000000d0: 697a 52bd 8d1e a1bd 7b57 e5bd d7fc b53d
000000e0: 6111 463e bf2c 44be 813e e03d dc6c 03be
000000f0: 24d3 553e d7c9 2f3d 9553 23bd 6142 60bd
00000100: f6e9 963e a913 dd3c 99b7 8abc 2d31 923d
00000110: 0fae 64bd a83d ecbd 9344 44ba fc08 2e3d
00000120: 136f 9d39 f25f 6bbc bd4c 623d b842 14bd
00000130: 4d21 9cbd b54b 353e e957 07bd 3eda bebd
00000140: 8034 b73d 840d a7b8 2cbb d8bd bb53 5fbe
00000150: 3370 e6bc 64e3 e7bd f855 10be fe58 75be
00000160: b35c a9bd e998 8fbd e42f e6bd 8321 b13d
00000170: cf8f ecbc e829 9c3d 316b 8a3d 54b3 36be
00000180: 135b 5b3e 77b0 2e3c 1a4e 9ebd 5e66 383e
00000190: 5b0c ac3d d9d8 4dbd 657c 9dbe 423d cb3b
000001a0: eba7 09be 8398 663e 89cc 92bd 6042 df3d
000001b0: e275 ffbc dc21 f33d cbc1 42be c454 163e
000001c0: a4e5 be3d 6ec3 4d3d b67c c03d 4abc c4bc
000001d0: 729a 48be 67c9 1c3e f547 dcbd c11c 2abd
000001e0: 284b 803c 9829 25bd 3be7 b9bd 61c2 073e
000001f0: e4cd f1bd 31cc 4cbe 4043 113d 8d1c bfbd
00000200: 0eb1 e63c 17d4 9a3d a0cf f1bd a793 8e3d
00000210: fd8b df3c eed5 61be 1fba ff3d 49af 89bd
00000220: b099 03bd 1156 3ebd eba9 053e c94f 123e
00000230: b0e1 abbd dbb4 f1bd c754 ca3d 603b 92bd
00000240: 26bf 553e 1254 3c3d 3e34 15be f569 3c3d
00000250: 5679 c43d af56 5e3e 900e f03c a31f 42bd
00000260: c91a 353e 1173 32bb da5e 17bd 6d29 583d
00000270: 38c7 ca3d 76b2 1a3d 572d 2dbe a58e d23d
00000280: 1304 dd3c 0891 16be c2e8 ea3c d0a4 05be
00000290: 3a39 a53d 0159 33be 0d56 88bd 6503 913d
000002a0: 044c 7f3d 91a7 64bd 7be1 113e 35fa a03d
000002b0: 314e 87bc d750 c63d 213d 14be a233 acb9
000002c0: 5b15 f9bc 2ff8 07be d37a 7fbd cf7c 69bc
000002d0: 1fa4 adbd ee92 49be fe2e 14bd 61c0 5dbd
000002e0: 01e6 283e aaa8 1d3e 8f13 513e 485c 2c3e
000002f0: 70c0 c53d 2927 6ebd 35b6 503d be2b ae3d
00000300: 9c77 023d de83 89bc 83fe f7bc 2d04 90bd
00000310: c919 95bd f174 d0bc 667c 1abe 1b19 47bd
00000320: c302 59bd 09b8 23be 951b e4bc e2dc dbbd
00000330: 0730 583d 3a0b 09be d1b3 b7bd ddfd 75bd
00000340: efba 6a3c 4339 bb3d 8e51 663d 39ca 2abd
00000350: f0b8 233d aeec ecbd f99a b73d f3c6 06be
00000360: 6dec 5d3e 39a2 383e 08f5 833c f790 1ebd
00000370: 047c 9dbd d4d1 f63d 5a17 46bd 5303 20be
00000380: 1556 5ebd 4b48 9abc bc55 5fbe ecca 4ebc
00000390: 4735 21bd 934e 643e 2742 f63d 05ef 8ebd
000003a0: 0b73 263d 1dc9 b4bd edc9 3c3e a0ae 443e
000003b0: 2d42 7dbd ed5e 24bd 5086 15bc c786 1a3e
000003c0: b50c 95bd 9a21 633d 9ecd 40be 0d5d a5bc
000003d0: ba5f d13d 1deb 013d 2daf 28bd c333 51bd
000003e0: 4957 733c fcce 133e 2ed5 0dbe 3909 8abe
000003f0: d976 fcbb 22db 8bbd 7323 09bd e4e5 2dbc

network_body._body_endoder.seq_layers.0.bias f4 [142]
-0.0025750785 0.0012123698 0.005593518 0.0013423541 -0.0027480791 -0.002721 0.0041193645 0.0021717302
0.0052072103 -0.005521178 0.0019378301 0.0019580855 0.0011304441 0.002962675 0.004228919 0.002277804
-0.0012396915 0.0058594164 0.006817655 0.00011212995 0.005793434 0.0045992625 0.0035501155 0.0027626168
0.0053444877 0.0041491073 0.0052131666 -0.0033628906 0.0054012085 -0.0048492234 6.612682e-05 0.0057059885
0.004632873 -0.004167573 0.0015082489 0.0054825176 0.004169637 0.0022814895 0.004762781 0.0018453321
-7.036215e-06 -0.0001966146 -0.0033111526 -0.002228238 0.005410396 0.002053155 0.0016483197 0.0032161076
0.004749369 0.0017412844 -0.0007816536 0.0022308119 -0.0010749951 0.0050845207 -0.00483668 -0.00061489386
0.000626014 0.0044472967 0.000105744955 -0.00204921 0.0058253645 0.0010228106 0.0033093472 0.00071359216
0.0041950177 -0.0024252392 -0.0016288181 0.005380681 0.00568989 0.00327189 0.0059001255 0.0013415084
0.0008960671 -0.002285566 -0.0018543868 0.0011345743 -0.0015902506 0.0037291253 0.005357969 0.0007226396
0.0027679247 0.00071945525 -0.0034721575 0.005422091 -0.0039639906 5.418276e-05 0.0056627286 -0.00080695096
0.0036191777 0.006599827 0.003259505 0.0063808905 0.0030303632 0.001437964 0.0019965514 0.0003749601
-0.0015182255 0.0020533141 -0.0026616256 0.0059260773 0.0029548968 0.00024210903 0.0008778697 0.004461278
0.0067823334 -0.0030966562 -0.0010599103 -0.000118912256 0.0058238627 0.0015001833 -0.00024822756 0.0010090476
0.0056820735 0.0057788114 0.0037650312 -7.1782924e-05 -0.00036956026 -0.004690988 0.0015890219 5.3037205e-05
0.004087254 -0.0016596705 0.0009947865 -0.0012532984 0.003348742 -0.001773806 0.0051687546 0.0056936955
0.0027363293 0.004244052 -0.00025105872 -0.001983699 0.004420881 -0.0007797345 0.002139853 0.0017562016
0.0034285046 -0.0011231506 -0.004225615 0.0054376726 0.003279758 0.0044609793
00000000: a6c2 28bb 61e8 9e3a d449 b73b eef1 af3a
00000010: 1e19 34bb ce52 32bb bcfb 863b 9653 0e3b
00000020: 3fa1 aa3b ffea b4bb cafe fd3a 3953 003b
00000030: 692b 943a 7029 423b be92 8a3b 3647 153b
00000040: 257d a2ba 5900 c03b a366 df3b 4f27 eb38
00000050: d9d6 bd3b 69b5 963b 0ea9 683b 050d 353b
00000060: d020 af3b 3cf5 873b 36d3 aa3b f163 5cbb
00000070: 9ffc b03b 3ce6 9ebb 91ad 8a38 4df9 ba3b
00000080: 5bcf 973b 2390 88bb 6fb0 c53a b1a6 b33b
00000090: 73a1 883b 0b85 153b 1a11 9c3b 12df f13a
000000a0: a018 ecb6 542a 4eb9 ecff 58bb a107 12bb
000000b0: b149 b13b 3a8e 063b 6e0c d83a 55c5 523b
000000c0: 98a0 9b3b cf3b e43a e3e7 4cba d032 123b
000000d0: dae6 8cba 0d9c a63b 037d 9ebb d430 21ba
000000e0: 171b 243a a1ba 913b 64c3 dd38 0a4c 06bb
000000f0: b3e2 be3b d40f 863a a2e1 583b 5c10 3b3a
00000100: 5c76 893b c3f0 1ebb 117e d5ba 6c50 b03b
00000110: 4272 ba3b 356d 563b d755 c13b 8dd5 af3a
00000120: 0ce6 6a3a 6fc9 15bb e50e f3ba ffb5 943a
00000130: f56f d0ba 5764 743b e791 af3b 866f 3d3a
00000140: 1266 353b d399 3c3a 238d 63bb ccab b13b
00000150: 5de4 81bb 4c42 6338 698e b93b 9089 53ba
00000160: ba2f 6d3b 5d43 d83b 6b9d 553b ca16 d13b
00000170: 0f99 463b 117a bc3a 93d8 023b 4b96 c439
00000180: 32ff c6ba e590 063b ab6e 2ebb 8a2f c23b
00000190: f1a6 413b a6de 7d39 d720 663a ea2f 923b
000001a0: 563e de3b 45f1 4abb b0ec 8aba 8860 f9b8
000001b0: 1ad6 be3b cca1 c43a 8a24 82b9 0542 843a
000001c0: b030 ba3b 2f5c bd3b bebe 763b 2a8a 96b8
000001d0: 8ac1 c1b9 dcb6 99bb ba46 d03a 4474 5e38
000001e0: 5fee 853b 4d89 d9ba 7f63 823a b745 a4ba
000001f0: 9176 5b3b 0e7f e8ba a85e a93b 2e92 ba3b
00000200: fd53 333b b011 8b3b 88a0 83b9 f200 02bb
00000210: 0add 903b 1967 4cba c73c 0c3b 5930 e63a
00000220: c3b0 603b ae36 93ba 0777 8abb 812e b23b
00000230: 35f1 563b 682d 923b

network_body._body_endoder.seq_layers.2.weight f4 [142, 142]
0.015351198 -0.04736135 0.11697961 0.22886205 0.030289488 -0.0481464 -0.103878446 -0.05561959
0.07070534 -0.016380036 0.01835566 0.022333452 0.04664793 0.06445022 -0.06105738 0.028992495
0.0015472451 -0.018768936 0.0029999313 0.08608408 0.033194393 -0.015752697 -0.046435 -0.09586189
0.10860395 -0.020362612 -0.1457131 0.07813286 0.094492815 0.16326237 0.06483001 -0.1736101
-0.053931616 -0.033086814 -0.045678385 -0.020707797 0.034617174 0.06685704 0.029294439 0.11945728
-0.08996405 -0.08968095 -0.0271193 0.084171884 -0.07294632 0.015175317 -0.098916315 0.03444699
0.03069946 -0.07989767 -0.053924657 0.06037607 0.07223138 0.042053964 0.016307421 0.054227654
-0.047417067 -0.06533826 -0.040347993 -0.14453624 -0.035491217 0.15386292 -0.00311439 -0.026456451
0.07084625 0.07754407 0.0769663 -0.08372238 -0.20678456 0.057558168 0.035590485 0.15522769
0.0069557917 0.10999299 0.026916953 0.03945263 0.040384203 -0.0025869892 -0.20639965 -0.04244303
0.04110758 -0.06292394 0.016425436 -0.08524533 0.10347364 -0.045041185 -0.05981012 -0.0084611
-0.010648074 0.0021549272 0.092586786 -0.11337855 -0.06648862 0.20111597 0.07403648 0.15905568
-0.064058945 0.0067692464 -0.19822662 -0.08749536 0.013697321 -0.067936644 -0.00433788 0.13995266
-0.11493367 0.16985437 0.13554953 0.08894593 0.06808903 0.035013705 0.019744476 0.029100807
-0.03359535 -0.19736253 -0.0010508137 -0.11192281 0.11654617 -0.025402375 0.1303726 -0.028495817
-0.0011421832 0.008761979 0.050535847 0.120276354 -0.12276471 -0.05383004 -0.03899184 0.04202668
-0.06934157 0.022200113 -0.095534764 -0.02422874 -0.0051857033 -0.15465379 0.07629595 -0.047185414
-0.089959845 -0.21622671 0.047101185 -0.095225565 0.047901507 0.1384937 -0.093565114 0.014978278
-0.098273024 0.09936462 0.18137895 -0.095174626 0.08593781 -0.15322171 0.105808295 -0.052226022
0.032898366 -0.039856054 -0.06451895 0.08159437 0.106310345 -0.12438436 -0.036140736 -0.08946395
0.0019851427 -0.1559823 0.08582898 0.016855609 -0.018840536 0.030816667 -0.05288817 0.14505666
-0.058906853 -0.065896645 -0.056139503 -0.036472384 -0.03374648 -0.05252682 0.05809112 0.04383144
0.05696665 0.035682116 0.14640693 -0.20099229 0.016200088 0.050528474 0.050869748 0.13075379
-0.15113406 -0.03180572 0.058160853 0.21337163 -0.11450553 0.09777409 0.02356114 -0.15073508
0.035722334 -0.07048469 -0.014710517 0.054923564 -0.068126544 -0.07587214 -0.017048761 0.016695036
-0.004153008 -0.04333676 0.058291484 -0.040287193 -0.0048186122 -0.08274024 -0.17218122 0.017379867
-0.13364474 0.08477074 -3.2369026e-05 -0.054452628 -0.114527084 0.03797691 0.047034424 -0.020615065
-0.0449673 0.004505913 -0.012243946 -0.023830619 -0.08189922 0.025588553 0.0513965 -0.031659346
0.089801855 -0.028006876 -0.03139637 -0.019472493 0.06891136 -0.00353078 -0.11724391 0.060033567
0.016789332 -0.1936434 0.15418185 -0.053140536 -0.007338191 0.027147975 0.05325546 0.04462908
-0.02935064 -0.09961809 -0.006439789 0.03412873 -0.14167473 -0.01187898 0.06295372 0.054642837
0.027469529 -0.04418238 -0.06531117 -0.039806463 0.09061468 0.022064738 0.043641735 -0.031765226
00000000: 9783 7b3c fafd 41bd 0193 ef3d d05a 6a3e
00000010: a921 f83c 2935 45bd 39be d4bd 5ed1 63bd
00000020: f6cd 903d 6d2f 86bc 9c5e 963c a5f4 b63c
00000030: e611 3f3d 7afe 833d 4e17 7abd ab81 ed3c
00000040: eecc ca3a 50c1 99bc 7f9a 443b da4c b03d
00000050: d8f6 073d cd0b 81bc a032 3ebd 3d53 c4bd
00000060: bf6b de3d 7ecf a6bc d135 15be 1f04 a03d
00000070: 7385 c13d 402e 273e 99c5 843d d9c6 31be
00000080: 66e7 5cbd 0a86 07bd 4219 3bbd 66a3 a9bc
00000090: bdca 0d3d 58ec 883d e4fa ef3c 05a6 f43d
000000a0: 123f b8bd a5aa b7bd 4b29 debc 4f62 ac3d
000000b0: e164 95bd e5a1 783c a394 cabd 4918 0d3d
000000c0: 6f7d fb3c 64a1 a3bd 1ae0 5cbd e64c 773d
000000d0: 0cee 933d c740 2c3d 2497 853c d11d 5e3d
000000e0: 6638 42bd 11d0 85bd f043 25bd 4f01 14be
000000f0: 3d5f 11bd 3e8e 1d3e cb1a 4cbb 33bb d8bc
00000100: d717 913d 6dcf 9e3d 82a0 9d3d a476 abbd
00000110: 55bf 53be 1dc2 6b3d 54c7 113d 02f4 1e3e
00000120: 69ed e33b 0144 e13d f180 dc3c 1599 213d
00000130: e869 253d 7a8a 29bb 6e5a 53be bed8 2dbd
00000140: 6c60 283d 44de 80bd a38e 863c 1b95 aebd
00000150: fde9 d33d 1b7d 38bd 75fb 74bd 6da0 0abc
00000160: 4275 2ebc ae39 0d3b 249e bd3d 0333 e8bd
00000170: 302b 88bd 58f1 4d3e 70a0 973d 7edf 223e
00000180: 5631 83bd 8ed0 dd3b ebfb 4abe c430 b3bd
00000190: ba6a 603c 5e22 8bbd c624 8ebb c04f 0f3e
000001a0: 5862 ebbd 4eee 2d3e 7fcd 0a3e 4929 b63d
000001b0: 4372 8b3d 886a 0f3d 2bbf a13c d164 ee3c
000001c0: 479b 09bd 6719 4abe 75bb 89ba c937 e5bd
000001d0: c2af ee3d a418 d0bc 6580 053e 0f70 e9bc
000001e0: 4fb5 95ba 678e 0f3c adfe 4e3d 7353 f63d
000001f0: 106c fbbd e37c 5cbd e8b5 1fbd 2b24 2c3d
00000200: f402 8ebd 03dd b53c bba7 c3bd 5a7b c6bc
00000210: d5ec a9bb 905d 1ebe 0d41 9c3d 7e45 41bd
00000220: de3c b8bd 896a 5dbe 2ced 403d 9f05 c3bd
00000230: 5f34 443d 4bd1 0d3e 119f bfbd 7467 753c
00000240: 5e43 c9bd ae7f cb3d 67bb 393e eaea c2bd
00000250: 2a00 b03d 27e6 1cbe 05b2 d83d f4ea 55bd
00000260: 70c0 063d 1a40 23bd 8322 84bd f31a a73d
00000270: 3db9 d93d 3abd febd 4f08 14bd e038 b7bd
00000280: 2b19 023b d3b9 1fbe 1bc7 af3d c614 8a3c
00000290: 7857 9abc 3c73 fc3c 44a1 58bd bc89 143e
000002a0: 5048 71bd d2f4 86bd 89f2 65bd 1164 15bd
000002b0: c039 0abd 5d26 57bd f4f0 6d3d 9988 333d
000002c0: dd55 693d 6927 123d b3eb 153e ecd0 4dbe
000002d0: 0cb6 843c f2f6 4e3d cc5c 503d 52e4 053e
000002e0: e3c2 1abe b746 02bd 133a 6e3d 187e 5a3e
000002f0: e081 eabd c83d c83d 4b03 c13c 4c5a 1abe
00000300: 9551 123d 475a 90bd 6104 71bc 88f7 603d
00000310: ee85 8bbd da62 9bbd d8a9 8bbc 07c4 883c
00000320: f515 88bb e381 31bd 0dc3 6e3d 2f04 25bd
00000330: 73e5 9dbb b773 a9bd 4650 30be 3960 8e3c
00000340: 2bda 08be 489c ad3d fac3 07b8 b809 5fbd
00000350: 2d8d eabd ad8d 1b3d 2ba7 403d ede0 a8bc
00000360: a22f 38bd 56a6 933b d59a 48bc 6e38 c3bc
00000370: c7ba a7bd 169f d13c 2385 523d 3bad 01bd
00000380: 09ea b73d ad6e e5bc 7b99 00bd c784 9fbc
00000390: 6621 8d3d a964 67bb 931d f0bd c2e5 753d
000003a0: c889 893c 754a 46be d9e1 1d3e e4a9 59bd
000003b0: 3575 f0bb 6e65 de3c 6622 5a3d fbcc 363d
000003c0: c170 f0bc 9204 ccbd de04 d3bb 91ca 0b3d
000003d0: 2e13 11be 0ea0 42bc e1ed 803d 2bd1 5f3d
000003e0: c707 e13c 95f8 34bd ddc1 85bd 1a0c 23bd
000003f0: 3094 b93d 1cc1 b43c adc1 323d 411c 02bd

network_body._body_endoder.seq_layers.2.bias f4 [142]
0.0011394975 0.0033561636 -0.0012652875 0.0022182453 5.6370467e-05 -0.004854109 0.0047336635 0.0055003576
-0.0016450534 0.0009323066 0.005730695 0.0061320076 0.0025965285 0.00045242175 0.005706604 0.0044822516
0.0021196783 0.005708424 -0.00072699034 -0.0019002781 0.005749567 0.0002659246 0.004085656 0.0033106965
0.0035392677 0.0032990875 -0.0027868145 0.0023854403 0.0024075138 0.00013810833 0.0055453205 0.0012866533
0.0065775323 0.00016386712 0.00045527026 -0.00333005 -0.0048083547 -0.0029134126 0.0019585423 0.0045552673
0.004133594 0.0014403163 0.005543925 -0.0040100464 0.00417083 0.0025181535 -0.001576706 -0.0011594212
0.0045856913 0.00064002624 0.0028604453 0.0007279896 0.001401619 -0.0009460732 0.003908973 0.002231853
0.0016606372 0.003055746 0.004430523 -0.00046341712 0.0045765834 0.0048125973 -0.0012696981 0.004199159
0.005520983 0.004063298 -0.00012448708 0.0024099818 0.0022070769 0.0063751875 0.00048426705 0.0039449795
0.0024202259 0.0015319574 0.0031882403 0.0025347595 0.007245162 0.0016831866 0.0011806781 0.0024242327
0.0006459235 -0.00034266635 0.0002441698 -0.001587887 0.0027099845 -0.000639166 0.005994304 0.0044494667
-0.0004002608 0.0029666836 0.0032197472 0.0053215227 0.005092879 -0.0021213214 0.0021054232 0.0030418749
-7.800159e-05 0.0033089493 0.0043542003 0.0035208582 0.005972979 0.0040555513 0.0030452118 0.0048716897
-0.0017282421 0.0023501965 0.0030920205 0.004597455 0.0022440834 0.003580061 0.004931846 0.0035013566
-0.00501708 0.0063000913 0.0023117817 0.0028563377 -0.00027370927 0.006579117 0.0012533003 0.004870023
0.00043266144 -0.001622008 0.0035371534 0.0030506114 0.00066488 -8.031451e-05 0.004519536 0.0034545886
0.0033558996 0.0032955112 0.002096204 0.0048814425 0.0003497657 0.0021794664 -0.003488202 -0.002690774
0.00495473 0.0058062254 0.004773348 0.0049746158 0.004146503 0.004987475
00000000: 315b 953a 15f3 5b3b 01d8 a5ba fb5f 113b
00000010: 546f 6c38 380f 9fbb d91c 9b3b 583c b43b
00000020: d59e d7ba 0966 743a 8ec8 bb3b 02ef c83b
00000030: 852a 2a3b 0533 ed39 77fe ba3b dadf 923b
00000040: 4dea 0a3b bb0d bb3b 7f93 3eba c112 f9ba
00000050: dd66 bc3b cc6b 8b39 f7e0 853b 45f8 583b
00000060: 0ff3 673b 8135 583b fda2 36bb 0c55 1c3b
00000070: 61c7 1d3b 2cd1 1039 85b5 b53b eca4 a83a
00000080: 5788 d73b bfd3 2b39 57b1 ee39 f83c 5abb
00000090: 678f 9dbb f4ee 3ebb e35a 003b 5a44 953b
000000a0: 1a73 873b ffc8 bc3a d0a9 b53b b566 83bb
000000b0: 75ab 883b 9b07 253b 79a9 ceba b8f7 97ba
000000c0: 9143 963b 6fc7 273a 4f76 3b3b 8ed6 3e3a
000000d0: 88b6 b73a e601 78ba d816 803b 4844 123b
000000e0: bda9 d93a e942 483b ec2d 913b cbf6 f2b9
000000f0: 2af7 953b feb2 9d3b 006c a6ba 1999 893b
00000100: 5de9 b43b 6a25 853b bf88 02b9 c9f0 1d3b
00000110: 9ba4 103b f3e6 d03b 39e5 fd39 e344 813b
00000120: a79c 1e3b f6cb c83a ccf1 503b 351e 263b
00000130: d368 ed3b 5f9e dc3a fcc0 9a3a e0df 1e3b
00000140: 3153 293a e6a7 b3b9 ea03 8039 a520 d0ba
00000150: ff99 313b b48d 27ba de6b c43b d5cc 913b
00000160: 18da d1b9 b16c 423b 6502 533b 2b60 ae3b
00000170: 2ae2 a63b de05 0bbb 24fb 093b 315a 473b
00000180: c994 a3b8 f5da 583b aead 8e3b 33be 663b
00000190: fbb8 c33b 6ee4 843b 2d92 473b b2a2 9f3b
000001a0: 2f86 e2ba c105 1a3b 7fa3 4a3b 3fa6 963b
000001b0: 7911 133b 759f 6a3b 539b a13b 0477 653b
000001c0: 5166 a4bb ff70 ce3b 4381 173b 6531 3b3b
000001d0: a380 8fb9 a295 d73b c845 a43a b794 9f3b
000001e0: d6d6 e239 8f99 d4ba 96cf 673b c4ec 473b
000001f0: 574b 2e3a 866e a8b8 9e18 943b 6166 623b
00000200: a7ee 5b3b 81f9 573b 7860 093b 82f4 9f3b
00000210: c260 b739 61d5 0e3b 529a 64bb b257 30bb
00000220: 4a5b a23b 2642 be3b bf69 9c3b 1a02 a33b
00000230: 63df 873b f96d a33b

action_model._discrete_distribution.branches.0.weight f4 [13, 142]
-0.0013105129 -0.008102926 -0.0020846995 -0.0032749637 -0.0030813012 -0.0013940192 -0.00957829 0.015001878
0.001338999 -0.0031028572 -0.017249007 -0.000599768 0.0017942216 -0.013906573 0.014646276 0.00854693
0.0040094103 -0.004460272 0.007654228 0.004568561 0.009345594 0.008360723 0.0048514437 0.011851314
0.0131595675 0.0013141268 -0.012110056 0.00078435853 0.0044117863 -0.0039310586 -0.0041230633 -0.0011371119
-0.011771834 -0.009526625 0.0037174278 0.0025956489 -0.001634023 0.011329028 -0.0046647135 0.016183184
0.006079331 -0.013292936 0.00040831728 0.011028772 -0.008479469 -0.009481649 0.0051384587 0.006914363
0.0060459347 0.0010329166 -0.004134787 -0.007957595 -0.0091726305 -0.003035914 0.006405645 -0.00665581
-0.006847806 -0.0015386365 0.0038468963 -0.0024170834 0.0120962905 -0.010283895 -0.010555182 0.0036846886
0.0014893304 0.002551686 -0.0033115519 -0.010711764 -0.017635878 0.009086697 0.0035946989 0.007077291
-0.009282073 0.022857396 0.011619245 0.01647127 0.0051012496 0.0074330387 -0.01578417 0.012102282
-0.0013855263 -0.010644827 -0.008348711 0.007890966 -0.0045434884 -0.0113798175 0.009052562 0.007415024
-0.011548838 0.015232543 -0.0026181382 -0.0003311988 0.008667034 -0.0029047173 0.005433472 0.0030139447
0.011555071 -0.0055901534 0.02227725 0.004503331 -0.0016993899 0.0040446618 0.010787794 -0.011568152
0.0070443237 0.0009244591 0.00080195925 0.010476663 0.013210954 -0.0014497291 -5.1893076e-06 -0.006798849
-0.00946031 0.007083848 -5.9234302e-05 -0.0048087835 0.004330452 -0.0028711439 -0.021789854 0.0042101573
0.009736041 -0.019484334 0.0010219708 -0.0047177644 -0.010469573 -0.010855504 0.0025396813 -0.0048022075
0.00038607154 -0.001882198 0.011695202 4.5826855e-05 -0.026158847 -0.015162366 -0.014143434 -0.0011329119
0.0081435535 -0.0011863719 -0.013463099 0.0012156693 -0.010511186 0.003709486 -0.008396561 0.0043381765
0.015240363 0.0060590073 -0.0062406855 0.00095475407 0.00808727 -0.01809132 -0.0020292515 0.0031245644
-0.0028334705 0.011153732 -0.005141818 -0.0093951775 -0.014173933 -0.0012050065 -0.0034219075 -0.008196467
-0.0007315477 0.0019890273 -0.0145077035 -0.0072994754 -0.0013701549 0.0024815565 -0.0033291196 -0.014111994
-0.008870554 0.00391901 0.007638357 -0.00014166746 0.007835811 0.009101178 -0.010496315 0.00021244129
0.003310634 0.0094367955 0.0060208337 -0.003505207 0.010044642 0.0053676986 0.005033915 0.009716484
-0.001720819 0.011854692 0.002862069 0.01171988 -0.011557791 -0.0023806966 -0.0017744015 0.012431686
0.007027495 -0.0041271206 -0.0050109318 -0.006474225 -0.007184541 -0.011532076 0.005035244 -0.006512658
0.015093265 0.0044513885 -0.003898778 -0.0016322336 -0.008775882 -0.010237237 -0.009491379 0.007858207
-0.0031494407 -0.010802475 0.011964821 0.0030286561 0.0043519037 -0.002975172 -0.009859306 0.004537381
0.005784667 -0.006169002 -0.0069854273 0.0025148655 -0.0070395507 -0.006743061 0.0076451045 0.018866494
-0.005194129 -0.0070040887 0.0034970762 0.0057082735 0.002305359 -0.002320012 0.0025654363 -0.0107468255
0.0010115838 -0.005195018 -0.00023886417 0.00651134 0.008818783 0.00012774869 0.016888151 -0.013032252
0.00470053 -0.0033520504 0.012972466 0.00010108404 0.0004073203 -0.014196512 0.0001342378 0.012689556
0.0020642933 -0.0032751553 -0.019798186 0.0045427885 -0.0028002844 -0.0066277576 0.0048113535 -0.00032449825
00000000: 84c5 abba 23c2 04bc 749f 08bb c6a0 56bb
00000010: a8ef 49bb 86b7 b6ba 43ee 1cbc 70ca 753c
00000020: 5a81 af3a 4e59 4bbb ca4d 8dbc c039 1dba
00000030: 162c eb3a 65d8 63bc eff6 6f3c 6c08 0c3c
00000040: 5f61 833b 7927 92bb 51d0 fa3b deb3 953b
00000050: 431e 193c 6afb 083c dcf8 9e3b 042c 423c
00000060: 3a9b 573c c73e ac3a 4269 46bc 699d 4d3a
00000070: bf90 903b 1cd0 80bb c31a 87bb 250b 95ba
00000080: a7de 40bc 9015 1cbc 17a0 733b c31b 2a3b
00000090: b72c d6ba 639d 393c 74da 98bb 9992 843c
000000a0: 2035 c73b 9dca 59bc 6b13 d639 06b2 343c
000000b0: 79ed 0abc eb58 1bbc 8460 a83b e191 e23b
000000c0: fa1c c63b ee62 873a 1b7d 87bb 9360 02bc
000000d0: cd48 16bc 2ff6 46bb 72e6 d13b fb18 dabb
000000e0: 8f63 e0bb 13ac c9ba 361c 7c3b ee67 1ebb
000000f0: 852f 463c c87d 28bc a4ef 2cbc d17a 713b
00000100: a335 c33a 303a 273b 9f06 59bb 6580 2fbc
00000110: 1e79 90bc 5fe0 143c 0a95 6b3b 9fe8 e73b
00000120: d613 18bc 6f3f bb3c a55e 3e3c c2ee 863c
00000130: 6228 a73b d990 f33b ce4d 81bc a648 463c
00000140: 8c9a b5ba a467 2ebc 08c9 08bc 1c49 013c
00000150: 8be1 94bb 6a72 3abc 3251 143c bbf9 f23b
00000160: 5637 3dbc eb91 793c 1295 2bbb c0a4 adb9
00000170: 2d00 0e3c 125d 3ebb 440b b23b 9a85 453b
00000180: 7b51 3d3c 9b2d b7bb c87e b63c ae90 933b
00000190: 10be deba 1589 843b 4abf 303c 5988 3dbc
000001a0: 12d4 e63b 6657 723a 933a 523a 4fa6 2b3c
000001b0: c272 583c d604 beba d01f aeb6 e1c8 debb
000001c0: 6bff 1abc a01f e83b 5972 78b8 0093 9dbb
000001d0: 77e6 8d3b cd29 3cbb a380 b2bc 5cf5 893b
000001e0: ea83 1f3c 9c9d 9fbc a6f3 853a 7a97 9abb
000001f0: 9288 2bbc 49db 31bc c870 263b d65b 9dbb
00000200: a569 ca39 16b4 f6ba 3c9d 3f3c 3636 4038
00000210: 144b d6bc 936b 78bc ddb9 67bc 377e 94ba
00000220: 8a6c 053c 0980 9bba 5494 5cbc 1857 9f3a
00000230: 1c37 2cbc d91a 733b bb91 09bc 4327 8e3b
00000240: b7b2 793c a38a c63b aa7e ccbb 7648 7a3a
00000250: 7880 043c 3f34 94bc 31fd 04bb 7ec5 4c3b
00000260: bfb1 39bb 25be 363c b27c a8bb 3bee 19bc
00000270: c939 68bc 4ff1 9dba 1542 60bb 794a 06bc
00000280: 56c5 3fba 575a 023b b8b1 6dbc 7030 efbb
00000290: c596 b3ba 9ca1 223b 5c2d 5abb fe35 67bc
000002a0: cd55 11bc 0a6b 803b 2f4b fa3b 928c 14b9
000002b0: c661 003c 1b1d 153c bcf8 2bbc c6c2 5e39
000002c0: 39f7 583b ca9c 1a3c 6a4a c53b 9db7 65bb
000002d0: 4892 243c 85e3 af3b 8af3 a43b e331 1f3c
000002e0: 1b8d e1ba 2f3a 423c 8d91 3b3b bd04 403c
000002f0: e45c 3dbc 7605 1cbb 0993 e8ba 45ae 4b3c
00000300: e746 e63b cc3c 87bb be32 a4bb bc25 d4bb
00000310: 4c6c ebbb 08f1 3cbc b0fe a43b 2368 d5bb
00000320: be49 773c f4dc 913b a482 7fbb acf0 d5ba
00000330: b8c8 0fbc 16ba 27bc bb81 1bbc b6bf 003c
00000340: d966 4ebb ddfc 30bc 1908 443c 6b7c 463b
00000350: 6a9a 8e3b 1afb 42bb ed88 21bc 50ae 943b
00000360: 4e8d bd3b 5725 cabb 03e6 e4bb 71d0 243b
00000370: 08ac e6bb e5f4 dcbb c983 fa3b e88d 9a3c
00000380: 8333 aabb 8e82 e5bb 342f 653b 780c bb3b
00000390: 8215 173b 580b 18bb e120 283b 7413 30bc
000003a0: 1f97 843a f83a aabb 9d77 7ab9 145d d53b
000003b0: a87c 103c 47f4 0539 0559 8a3c 3a85 55bc
000003c0: e706 9a3b 13ae 5bbb 778a 543c 15fd d338
000003d0: 9b8d d539 7d98 68bc 2fc2 0c39 dbe7 4f3c
000003e0: 1849 073b fda3 56bb ce2f a2bc acdb 943b
000003f0: fa84 37bb a92d d9bb 8fa8 9d3b 6b21 aab9

action_model._discrete_distribution.branches.0.bias f4 [13]
0.00543294 -0.0001965027 -0.0034839003 0.0032298274 -0.00089291163 0.00255098 0.002143252 0.0048271166
6.7778514e-05 -0.0032748312 -0.0008549004 -0.0037561127 -0.001953631
00000000: ce06 b23b 4b0c 4eb9 2652 64bb 83ab 533b
00000010: 4912 6aba 582e 273b cd75 0c3b ca2c 9e3b
00000020: 5024 8e38 8d9e 56bb 651b 60ba 1d29 76bb
00000030: 7d08 00bb

action_model._discrete_distribution.branches.1.weight f4 [13, 142]
0.007868326 0.0035592236 0.01631362 0.00359045 -0.008037308 0.008006193 0.01986598 -0.006572591
-0.014798108 0.005341008 0.0005001446 -0.008556931 -0.008887777 -0.0076182457 -0.008551421 -0.004975689
0.00044648116 -0.01916171 0.0019077131 0.004355279 0.017890062 0.0048591644 0.0033415083 -0.012603392
-0.029083345 0.0006987724 0.006536689 -0.0028362763 -0.0037859073 -0.008159565 -0.010175967 -0.0018379526
-0.00048630725 0.018449152 0.0032044542 -0.009875507 0.0017792518 0.014571918 0.005982657 0.0070695686
0.00015237386 0.013635662 -0.011417367 0.014680127 0.0045377286 -0.010407297 0.0010047341 -0.0040814374
-0.014122203 -0.006210897 0.005841733 -0.0021058223 0.0030100504 -0.007976743 -0.013381346 -3.662703e-05
0.0017062882 -0.005270912 -0.00012450817 -0.002770943 -0.010325239 -0.003536723 0.0054409886 -0.012170424
-0.004257026 -0.001383339 -0.010310937 -0.013105531 0.0018572569 -0.004047715 -0.013292544 -0.004023979
-0.0034344485 0.0038944355 0.0184549 -0.001206628 0.0070344065 0.0035251398 -0.0018200238 -0.009010902
0.004013084 0.0034797643 -6.886091e-05 0.0053556655 -0.009744931 0.008975544 -0.0016615774 4.0825136e-05
0.0052624117 -0.019307854 -0.008732135 0.008065208 0.00090663414 0.0058238613 0.008012918 0.015828516
-0.013444998 -0.010489426 -0.0020740675 -0.008229229 -0.0031235584 -0.005344548 -0.0051050796 0.0039757276
0.0016727609 0.0041912226 -0.008313685 -0.0042462 -0.015245711 0.00487453 0.003266968 0.011687362
-0.0067053065 -0.01792882 -0.020147594 0.0023273393 -0.004400088 -0.004131752 0.0010795582 -0.005113603
0.01199548 0.0068530804 2.7945818e-05 0.0024570536 0.017183578 0.003919472 -0.033970166 0.024443358
-0.00018554016 -0.017338896 0.009133164 -0.0005533315 -0.0005005854 -0.013028319 0.01029294 -0.008868841
0.0059958193 0.011711783 0.000914792 -0.0036085758 -0.01123394 0.0021074207 0.017719261 0.0131993955
0.009267466 -0.0074938717 0.0015347961 -0.0015888968 0.016400822 0.0052488856 -0.006490807 -0.0015018147
0.002145219 0.0022591222 -0.004741315 0.0065414906 0.029401507 -0.007974703 2.6260226e-05 -0.0017239937
0.004628811 -0.011614881 0.002403091 -0.010473658 0.0015296807 -0.00016929721 0.00056589075 0.004919557
-0.011020424 0.013601701 0.005436941 -0.00351296 0.0073389327 0.005495529 -0.012065413 -0.00849706
-0.002277711 0.011287132 0.0052261236 -0.016354198 0.0048925974 0.00052557216 0.017423151 0.0071606254
-0.0018232283 0.00017285226 0.00018107548 -0.011945791 -0.0017699902 -0.00081399095 0.012331199 -0.008611484
-0.010296405 0.0058601582 0.0067643863 0.004887372 -0.0021652456 -0.009750099 -0.00097411027 0.0036949187
-0.007829038 0.008158479 -0.012211882 0.010552653 0.00086655084 0.013816025 0.006530992 0.0035165122
0.0086238 -0.0056118877 0.00073621003 -0.0059442404 0.0021417316 -0.0104996115 -0.005325476 0.004607185
-0.0046711634 -0.008632441 0.009603855 -0.003206396 0.0019365799 0.0037915898 -0.0068527404 0.007583078
-0.008385757 0.0010950727 0.0006064859 -0.010770148 -0.008698869 0.001509592 -0.0012874374 -0.002957167
0.00785157 0.01688438 -0.010540469 -0.007473392 0.008219441 0.00893205 -0.0011943979 0.019983366
-0.007035853 -0.005713974 0.007705883 -0.002679933 0.0019440101 0.0011966802 -0.0027276117 -0.005031276
-0.002755646 0.009102473 -0.003773489 0.012116331 -0.008191336 -0.009151858 -0.0141624315 -0.019308543
00000000: 27ea 003c dd41 693b 24a4 853c c14d 6b3b
00000010: eaae 03bc 682c 033c fbbd a23c e45e d7bb
00000020: c373 72bc 9f03 af3b 231c 033a 5f32 0cbc
00000030: 0a9e 11bc 7aa2 f9bb 421b 0cbc 1b0b a3bb
00000040: b015 ea39 05f9 9cbc 3b0c fa3a bab6 8e3b
00000050: 2e8e 923c a039 9f3b 35fd 5a3b 757e 4ebc
00000060: 3240 eebc d22d 373a b931 d63b d2e0 39bb
00000070: fc1c 78bb b2af 05bc 19b9 26bc 75e7 f0ba
00000080: 0ef7 feb9 ad22 973c d201 523b e1cc 21bc
00000090: c935 e93a 0ebf 6e3c 2a0a c43b d7a7 e73b
000000a0: 8cc6 1f39 1d68 5f3c e80f 3bbc ea84 703c
000000b0: 3ab1 943b 5e83 2abc 48b1 833a 94bd 85bb
000000c0: d060 67bc c884 cbbb 026c bf3b d601 0abb
000000d0: 4444 453b e3b0 02bc 6f3d 5bbc f99f 19b8
000000e0: 88a5 df3a 9db7 acbb 688e 02b9 b698 35bb
000000f0: 312b 29bc 5ec8 67bb 524a b23b 7566 47bc
00000100: 867e 8bbb 2851 b5ba 34ef 28bc 95b8 56bc
00000110: 336f f33a b2a2 84bb f8c8 59bc 95db 83bb
00000120: 7c14 61bb c939 7f3b bb2e 973c b827 9eba
00000130: e180 e63b 0806 673b dd8d eeba 76a2 13bc
00000140: 3080 833b c20c 643b 6b69 90b8 947e af3b
00000150: 34a9 1fbc 290e 133c 49c9 d9ba a83b 2b38
00000160: 4f70 ac3b 812b 9ebc 3b11 0fbc ef23 043c
00000170: 30ab 6d3a 17d6 be3b 9d48 033c ceaa 813c
00000180: 6948 5cbc d7db 2bbc 14ed 07bb e3d3 06bc
00000190: 9db4 4cbb 5121 afbb 8348 a7bb d246 823b
000001a0: 8b40 db3a 8656 893b 1f36 08bc b523 8bbb
000001b0: 26c9 79bc 85ba 9f3b a11a 563b 597c 3f3c
000001c0: 30b8 dbbb 76df 92bc 910c a5bc 4686 183b
000001d0: 9d2e 90bb a663 87bb f67f 8d3a 0390 a7bb
000001e0: b188 443c ce8f e03b 306d ea37 8506 213b
000001f0: 93c4 8c3c ea6e 803b 4d24 0bbd 703d c83c
00000200: 8f8d 42b9 4d0a 8ebc 44a3 153c 730d 11ba
00000210: b839 03ba bb74 55bc b8a3 283c 9e4e 11bc
00000220: 9478 c43b c7e2 3f3c a7ce 6f3a db7d 6cbb
00000230: 8f0e 38bc a71c 0a3b fc27 913c 4742 583c
00000240: 92d6 173c 278f f5bb 362b c93a 8842 d0ba
00000250: 045b 863c d8fe ab3b d6b0 d4bb 8ad8 c4ba
00000260: cd96 0c3b c80d 143b 085d 9bbb 005a d63b
00000270: 6edb f03c 54a8 02bc 6849 dc37 a1f7 e1ba
00000280: 48ad 973b 584c 3ebc 2d7d 1d3b b599 2bbc
00000290: 917f c83a 6085 31b9 4958 143a 3c34 a13b
000002a0: 028f 34bc abd9 5e3c 5e28 b23b b039 66bb
000002b0: 6e7b f03b d713 b43b 03ae 45bc 4137 0bbc
000002c0: a645 15bb aaed 383c e73f ab3b 3df9 85bc
000002d0: 1552 a03b 8dc6 093a ffba 8e3c aea3 ea3b
000002e0: 64f9 eeba ad3f 3539 14df 3d39 47b8 43bc
000002f0: 04ff e7ba 0262 55ba cc08 4a3c 2f17 0dbc
00000300: 41b2 28bc 9206 c03b c9a7 dd3b 3f26 a03b
00000310: cbe6 0dbb e1be 1fbc 6f5b 7fba 7326 723b
00000320: 5e45 00bc 24ab 053c 5814 48bc 09e5 2c3c
00000330: 3e29 633a 9c5c 623c ef01 d63b 4975 663b
00000340: d74a 0d3c ede3 b7bb 38fe 403a e7c7 c2bb
00000350: 4b5c 0c3b 9006 2cbc 5581 aebb def7 963b
00000360: 8f10 99bb 156f 0dbc 7d59 1d3c 6622 52bb
00000370: d7d4 fd3a 527c 783b f48c e0bb 787b f83b
00000380: 6a64 09bc 8b88 8f3a 94fc 1e3a 4675 30bc
00000390: b385 0ebc 81dd c53a 3bbf a8ba 08cd 41bb
000003a0: dfa3 003c 1c51 8a3c eeb1 2cbc 5be3 f4bb
000003b0: d6aa 063c bc57 123c 588d 9cba 28b4 a33c
000003c0: 038d e6bb 4a3c bbbb a281 fc3b d1a1 2fbb
000003d0: 28ce fe3a edd9 9c3a bbc1 32bb 67dd a4bb
000003e0: 1198 34bb 8a22 153c a44c 77bb 9383 463c
000003f0: f434 06bc adf1 15bc 8b09 68bc f32c 9ebc

action_model._discrete_distribution.branches.1.bias f4 [13]
-0.0043588635 0.003216223 -0.0026057123 4.135022e-05 0.0033998054 0.0013763073 0.0030985882 0.0018680071
-0.0014271743 0.0033428168 -0.0025537095 0.0039824867 -0.00049322477
00000000: ccd4 8ebb 45c7 523b 99c4 2abb 766f 2d38
00000010: 45cf 5e3b 3665 b43a af11 4b3b ebd7 f43a
00000020: 0610 bbba 2913 5b3b 235c 27bb 857f 823b
00000030: c14b 01ba

action_model._discrete_distribution.branches.2.weight f4 [13, 142]
0.015367331 0.010682158 -0.011786452 -0.005584728 0.0012417304 0.00711243 -0.0077606807 -0.015994456
0.00048592122 0.004881237 0.009146089 -0.005301252 0.014307983 -0.0043104338 -0.016127545 0.014339907
-0.00076911075 0.004023571 -0.00016815895 0.0054475376 -0.004159285 -0.0034005977 -0.015476107 -0.016664695
0.009157554 0.00034821607 -0.004078563 0.0018482696 0.002299678 0.021176443 0.013605003 0.009315521
0.0029287399 0.010183381 0.0053182486 -0.001204315 0.0076839933 -0.0036869948 -0.014270979 -0.0011729174
-0.00036160275 -0.0053354832 -0.010421327 0.0037526274 0.009263288 0.0019421133 0.009371072 0.0069991015
-0.0024169986 0.010037292 0.0051892013 -0.00957964 0.004601908 -0.0012068981 0.0053124656 -0.0058892197
-0.010458271 -9.093189e-05 -0.0022233764 -0.012397186 0.0034353144 -0.009473213 0.005148222 -0.0017535605
-0.001605119 -0.0030618426 0.0012679696 0.011062298 0.0057167923 -0.005143313 0.011819204 -0.0052305884
0.0015111758 0.0119536035 0.0024098295 0.00087968475 0.00030522823 0.004147917 0.0039097257 -0.012239065
-0.023024423 -0.0019999216 -0.009219802 0.005888459 0.0033297392 0.0014572346 0.010851169 -0.011771536
-0.009335455 -0.0012210031 0.006257545 0.008523829 -0.008412315 0.00109174 -0.018245097 -0.0014336519
0.003968441 -0.0034012895 0.016412811 0.015340426 0.002382432 0.017088037 0.005426879 -0.008479646
-0.008970234 0.008628447 0.006464651 0.0016367434 -0.014215098 -0.0027622008 -0.009609629 0.0056900126
0.00014510016 -0.0013202736 0.009594077 -0.0016995696 -0.008015664 0.0073996377 -0.014669958 -0.0063957614
0.004820362 0.019529035 0.004531962 0.008527099 0.018435828 0.0027954304 -0.006987979 -0.001410269
-0.009629075 -0.006938145 -0.00018625337 -0.018240334 -0.0046437257 -0.015062084 0.0022039202 0.0017450574
0.0050161667 0.00173232 0.0093553625 -0.005129303 0.007935151 0.006094998 0.012492687 0.007377934
0.003790787 0.015441612 -0.005718029 -0.001065114 -0.008030772 -0.001048549 -0.007207236 -0.010266357
0.00064200466 -0.011106663 -0.010820854 0.016022498 0.0025767873 0.014476764 -0.0020558017 0.00702174
0.0016834771 0.008948645 0.014157046 -0.01428887 0.0057304297 0.012671084 -0.004093479 -0.0016684795
0.0066512367 0.013197761 0.010442625 -0.00073641073 0.012545495 0.0040111854 0.01668547 -0.0049566166
0.001285833 -0.005878811 -0.0029993188 -0.016583662 0.013231067 -0.0020790654 -0.01311538 -0.0007734956
0.0068024653 0.0053803395 -0.00943554 -0.0055274973 0.012621441 -0.004848799 -0.001891397 -0.00522287
-0.009285162 0.0052932943 0.009562742 -0.020101285 0.0011227276 -0.0021154243 0.0004563168 -0.003176438
0.011989922 -0.004026662 0.009472709 0.0029726254 -0.0074118357 0.0019239152 -0.012242838 -0.018884292
0.0021456103 0.006046363 0.0051562362 -0.008349527 0.0019999433 -0.0010312372 -0.00062845415 0.01456766
-0.00675124 -0.005970737 -0.018247608 0.016244749 -0.015282231 0.0012327478 -0.008385559 0.002318493
-0.00020043 -0.0063864198 -0.007891485 -0.012530715 0.0054941936 -0.014775716 0.0137509145 0.013322279
-0.0016964262 -0.010355808 0.010172649 -0.0068131266 5.7541278e-05 0.013924051 -0.001476634 -0.005723335
0.0018532958 -0.0030846146 0.010759988 0.0012360062 0.0020399117 -0.0074514933 -0.009001573 0.0019483409
-0.009917889 0.0076750168 0.004025352 -0.0029473952 -0.0036876164 0.0026781033 -0.0020579633 -0.006733078
00000000: 42c7 7b3c 3804 2f3c f61b 41bc 1800 b7bb
00000010: 8fc1 a23a 630f e93b 4f4d febb ce06 83bc
00000020: 3ec3 fe39 c9f2 9f3b 7ad9 153c 20b6 adbb
00000030: 086c 6a3c 8a3e 8dbb ea1d 84bc eef1 6a3c
00000040: 269e 49ba 29d8 833b d353 30b9 4281 b23b
00000050: 9d4a 88bb 90dc 5ebb 7f8f 7dbc 6684 88bc
00000060: 9109 163c c590 b639 77a5 85bb a341 f23a
00000070: 32b6 163b 387a ad3c 85e7 5e3c 21a0 183c
00000080: 1af0 3f3b 32d8 263c b444 ae3b 1bda 9dba
00000090: 02ca fb3b 82a1 71bb d3d0 69bc 94bc 99ba
000000a0: 8095 bdb9 47d5 aebb 37be 2abc a4ee 753b
000000b0: 0cc5 173c 828e fe3a 2089 193c b858 e53b
000000c0: 8266 1ebb 7473 243c 2d0a aa3b ecf3 1cbc
000000d0: 9acb 963b c830 9eba 3114 ae3b 5bfa c0bb
000000e0: 2b59 2bbc b0b2 beb8 11b6 11bb 911d 4bbc
000000f0: 0323 613b 8935 1bbc 6bb2 a83b bad7 e5ba
00000100: db62 d2ba 32a9 48bb 0032 a63a a43e 353c
00000110: ee53 bb3b 3d89 a8bb 56a5 413c 5b65 abbb
00000120: a512 c63a 0cd9 433c 3bee 1d3b a59a 663a
00000130: 0a07 a039 40eb 873b 281d 803b 5c86 48bc
00000140: b79d bcbc 1e11 03bb a70e 17bc f9f3 c03b
00000150: c137 5a3b ae00 bf3a 1ac9 313c 67dd 40bc
00000160: bcf3 18bc 110a a0ba 180c cd3b 88a7 0b3c
00000170: ced3 09bc b718 8f3a be76 95bc 60e9 bbba
00000180: b209 823b 2be8 5ebb 2974 863c 6956 7b3c
00000190: 9422 1c3b 36fc 8b3c f6d3 b13b 37ee 0abc
000001a0: e3f7 12bc 545e 0d3c 6cd5 d33b ff87 d63a
000001b0: 71e6 68bc 0a06 35bb b571 1dbc 4973 ba3b
000001c0: 0726 1839 080d adba 7a30 1d3c 18c4 deba
000001d0: 2254 03bc a978 f23b 435a 70bc 8993 d1bb
000001e0: 21f4 9d3b 5bfb 9f3c da80 943b 3fb5 0b3c
000001f0: bc06 973c 8a33 373b 6bfb e4bb c6d8 b8ba
00000200: 45c3 1dbc 6159 e3bb 024d 43b9 c16c 95bc
00000210: 652a 98bb f6c6 76bc a56f 103b 69ba e43a
00000220: a85e a43b 030f e33a 3c47 193c b613 a8bb
00000230: 7002 023c 8db8 c73b 21ae 4c3c 99c2 f13b
00000240: da6e 783b d1fe 7c3c 4e5e bbbb 4c9b 8bba
00000250: 8093 03bc 776f 89ba ad2a ecbb 3934 28bc
00000260: 344c 283a b9f8 35bc f449 31bc 9d41 833c
00000270: 51df 283b f32f 6d3c a1ba 06bb a016 e63b
00000280: 1ea8 dc3a 569d 123c f4f2 673c dd1b 6abc
00000290: 54c6 bb3b 619a 4f3c 9722 86bb e2b0 daba
000002a0: 9ef2 d93b 6c3b 583c 8b17 2b3c b00b 41ba
000002b0: 9f8b 4d3c 4370 833b f7af 883c 1d6b a2bb
000002c0: 6589 a83a 0aa3 c0bb 3890 44bb 76da 87bc
000002d0: 1ec7 583c ee40 08bb e4e1 56bc 69c4 4aba
000002e0: 37e7 de3b 8f4d b03b 8697 1abc 0220 b5bb
000002f0: 29ca 4e3c ade2 9ebb c1e8 f7ba 9c24 abbb
00000300: cb20 18bc 5f73 ad3b 0cad 1c3c 73ab a4bc
00000310: 7d28 933a eea2 0abb ce3d ef39 c92b 50bb
00000320: 6171 443c 17f2 83bb 6c33 1b3c 61d0 423b
00000330: fcde f2bb e22b fc3a 2f96 48bc 3bb3 9abc
00000340: 5e9d 0c3b 9220 c63b a5f5 a83b 74cc 08bc
00000350: 7b11 033b 942a 87ba d8be 24ba 32ad 6e3c
00000360: 8239 ddbb 2ca6 c3bb 027c 95bc b513 853c
00000370: 5362 7abc 2794 a13a 9563 09bc dcf1 173b
00000380: 852a 52b9 2c45 d1bb 494b 01bc a14d 4dbc
00000390: a308 b43b d815 72bc 844b 613c b045 5a3c
000003a0: 9e5a deba 68ab 29bc 2fab 263c a640 dfbb
000003b0: 7a58 7138 b421 643c 9d8b c1ba d08a bbbb
000003c0: 4aea f23a 3f27 4abb a94a 303c 7c01 a23a
000003d0: 0ab0 053b a82b f4bb 557b 13bc 795f ff3a
000003e0: a47e 22bc b57e fb3b 1ae7 833b 1629 41bb
000003f0: f0ab 71bb 1e83 2f3b e5de 06bb 27a1 dcbb

action_model._discrete_distribution.branches.2.bias f4 [13]
0.0007568447 0.0027699687 0.00083887216 0.0056003057 -0.004431596 -0.0029967753 -0.004386724 0.002417532
-1.1231128e-05 0.002791439 0.00415827 -0.0036593843 0.0011550087
00000000: fd66 463a 5d88 353b c2e7 5b3a c582 b73b
00000010: ec36 91bb 8c65 44bb 82be 8fbb 756f 1e3b
00000020: 546d 3cb7 93f0 363b 1942 883b 48d2 6fbb
00000030: a963 973a

action_model._discrete_distribution.branches.3.weight f4 [13, 142]
0.006209512 -0.009728277 -0.00093052804 -0.010865187 0.012797645 0.00908556 -0.012208609 0.0021064882
0.005167248 8.275318e-06 -0.014220102 0.00084228173 0.007647145 -0.011985604 -0.0012311877 0.005528029
-0.005411457 -0.0063898847 0.008689688 0.00060249475 7.90332e-06 -0.0025820658 0.001261703 -0.01489672
-0.0011903823 -0.010662991 -0.0011126775 -0.0128161395 0.014237381 0.0004555995 0.0041729836 0.012160497
-0.003091667 -0.0026810102 0.010655499 0.0042213 -0.0034050888 0.0012252857 0.0110823605 0.007761272
0.010957143 0.005641625 -0.0027290764 0.0023295984 -0.0018949154 0.0070594205 0.014213321 -0.0085341185
-0.0070661344 0.0021803186 0.003460219 -0.005697769 0.0123433145 -0.0077302842 0.0020900941 0.010548855
-0.0011134729 -0.00059601397 0.012513032 0.0137239555 -0.0049808854 -0.010307377 -0.0032052347 -0.005157906
0.0027472402 -0.003211532 0.011531802 0.002388739 -0.0041223965 0.002918921 -0.004080492 0.004792773
0.005530455 -0.0005205159 0.008331 -0.012367423 0.00067898235 0.0066416035 -0.019490533 0.02115187
0.015707849 0.00907517 0.00749564 -0.0007040634 -0.0104005495 0.00495047 0.0047868704 -0.009960431
0.00917401 -0.004980483 -0.01278418 -0.000429796 -0.018491514 -0.0028496904 0.0043862206 -0.012716983
0.000114670154 -0.017926252 -0.0028850606 0.008206785 -0.015332125 -0.017254598 0.0066950326 -0.0063614957
0.01422804 0.007344891 0.0043802112 -0.0031970297 -0.0034535562 0.013884144 0.0044534565 0.008420124
-0.0008385744 -0.008554036 -0.011396803 -0.004798584 0.0045457925 -0.00884069 -0.0057059214 0.008552486
-0.0170074 -0.0003704984 -0.00014402099 0.011508728 -0.003250283 0.00896787 0.0031884303 -0.008419019
0.0069420976 0.008505255 6.899674e-05 -0.0041423645 -0.0042145257 -6.941823e-05 -0.0016852961 0.009311546
0.0022288498 -0.0014313298 -0.00066475786 -0.0035716614 -0.007582411 -0.015998324 0.00023317103 0.0033613418
0.0048985854 0.017226493 0.011317914 0.001709559 0.004312523 -0.023395779 -0.0035178855 0.0029699074
0.0042506894 -0.003107673 0.0045589884 0.002975913 -0.0013507244 0.004775924 0.008416364 -0.0012503281
-0.01662296 -0.015334578 0.00075030955 -0.013215056 0.014927207 -0.0050681685 -0.00037788652 0.0035951429
0.008303527 0.0014019065 0.012247047 -0.011379405 0.0061883926 0.0054181498 0.0022319886 0.013110617
-0.00217639 0.0053805388 0.013556353 -0.0066433568 0.014054334 0.003311065 0.011947463 -0.00072509696
-0.009130439 -0.008973395 0.007987526 -0.005589303 0.0062459903 -0.003731605 0.00721742 -0.009987958
-0.01305123 0.0055910926 0.0032536609 -0.0017919885 -0.01124792 -0.001288374 -0.0054349806 -0.009046027
0.004527558 0.0038525788 -0.011822694 0.005075692 0.0063133948 0.0011645097 -0.003028662 -0.015314259
0.00028537898 -0.0008201294 -0.002922257 -0.016488878 -0.006235303 -0.00018922609 -0.0025017636 -0.004028197
0.001786217 -0.00260549 -0.014131354 -0.0046534706 -0.00070362235 0.0042093904 0.0056239013 -0.008073894
-0.0050649284 -0.0026822174 -0.008012316 0.009664079 0.021052048 0.002651263 0.007182543 0.0093635805
0.0040008207 -0.01760782 -0.012553602 0.010469107 0.006261713 -2.911205e-05 0.0105236 -0.00854169
0.0019076747 -0.0146046085 -0.0012735784 0.012348331 0.012624674 0.0019820682 0.0006491398 0.0007406324
-0.009716501 0.00316281 0.00062045414 -0.018136855 0.0075548715 -0.0035088537 0.0062359367 -0.000433776
00000000: 2979 cb3b 5a63 1fbc aeee 73ba e603 32bc
00000010: 37ad 513c 9adb 143c 9e06 48bc 020d 0a3b
00000020: 0552 a93b 38d6 0a37 6efb 68bc 92cc 5c3a
00000030: e794 fa3b 445f 44bc ce5f a1ba 7824 b53b
00000040: 9752 b1bb 3d62 d1bb 315f 0e3c bdf0 1d3a
00000050: 8098 0437 e037 29bb ba5f a53a 5f11 74bc
00000060: 9a06 9cba d3b3 2ebc 43d7 91ba c9fa 51bc
00000070: e743 693c 88dd ee39 86bd 883b d23c 473c
00000080: 919d 4abb e3b3 2fbb 6794 2e3c d552 8a3b
00000090: e927 5fbb c499 a03a ca92 353c 4552 fe3b
000000a0: 9785 333c 61dd b83b 4eda 32bb 2dac 183b
000000b0: cf5e f8ba b652 e73b fdde 683c b0d2 0bbc
000000c0: 088b e7bb ade3 0e3b d7c4 623b 5ab4 babb
000000d0: 9d3b 4a3c 534e fdbb f6f9 083b 1bd5 2c3c
000000e0: f3f1 91ba d23d 1cba 7603 4d3c 71da 603c
000000f0: b236 a3bb 46e0 28bc ea0e 52bb a703 a9bb
00000100: 0b0b 343b 9178 52bb e2ef 3c3c 648c 1c3b
00000110: 2b15 87bb 5e4b 3f3b a6b5 85bb b20c 9d3b
00000120: d238 b53b 3b73 08ba bf7e 083c bba0 4abc
00000130: bcfd 313a cfa1 d93b 9caa 9fbc b046 ad3c
00000140: bfad 803c 06b0 143c fc9d f53b e590 38ba
00000150: 1167 2abc 8d37 a23b 2edb 9c3b 1331 23bc
00000160: 964e 163c 5233 a3bb bd74 51bc 3e56 e1b9
00000170: 847b 97bc dfc1 3abb 49ba 8f3b e55a 50bc
00000180: 127b f038 13da 92bc 4913 3dbb c075 063c
00000190: 9833 7bbc 8459 8dbc 0162 db3b 1874 d0bb
000001a0: ba1c 693c 69ad f03b e087 8f3b 4285 51bb
000001b0: 0f55 62bb 527a 633c 4dee 913b 8ff4 093c
000001c0: c6d3 5bba 3a26 0cbc a8b9 3abc 713d 9dbb
000001d0: dff4 943b 8bd8 10bc bdf8 babb ba1f 0c3c
000001e0: 1a53 8bbc 743f c2b9 5704 17b9 1b8f 3c3c
000001f0: b302 55bb f9ed 123c fcf4 503b edef 09bc
00000200: 897a e33b a059 0b3c 58b2 9038 acbc 87bb
00000210: 011a 8abb a194 91b8 27e5 dcba 748f 183c
00000220: e511 123b 759b bbba 2543 2eba 8912 6abb
00000230: e075 f8bb eb0e 83bc 5f7f 7439 f549 5c3b
00000240: 5084 a03b 931e 8d3c c66e 393c 4813 e03a
00000250: 1150 8d3b 81a8 bfbc 538c 66bb c7a2 423b
00000260: 5e49 8b3b 1aaa 4bbb 9163 953b 8907 433b
00000270: ca0a b1ba 5b7f 9c3b cae4 093c 0de2 a3ba
00000280: e02c 88bc e23d 7bbc 6cb0 443a f683 58bc
00000290: 3e91 743c e112 a6bb 121f c6b9 7d9c 6b3b
000002a0: 840b 083c 2dc0 b73a d7a7 483c af70 3abc
000002b0: 00c8 ca3b bc8a b13b 8e46 123b eacd 563c
000002c0: c4a1 0ebb 3b4f b03b 771b 5e3c 84b0 d9bb
000002d0: 2644 663c 74fe 583b 4bbf 433c 6f14 3eba
000002e0: d697 15bc 2605 13bc 1dde 023c 7926 b7bb
000002f0: 2aab cc3b f18d 74bb 1b80 ec3b 88a4 23bc
00000300: d4d4 55bc 7c35 b73b 5f3b 553b 28e1 eaba
00000310: 3249 38bc a8de a8ba ec17 b2bb ca35 14bc
00000320: e95b 943b 8c7b 7c3b f9b3 41bc fe51 a63b
00000330: 98e0 ce3b 76a2 983a 847c 46bb a8e8 7abc
00000340: eb9e 9539 f4fd 56ba 5683 3fbb af13 87bc
00000350: 8351 ccbb fe6a 46b9 a1f4 23bb f7fe 83bb
00000360: 7f1f ea3a dec0 2abb 3287 67bc 247c 98bb
00000370: 4c73 38ba edee 893b b448 b83b 5e48 04bc
00000380: b3f7 a5bb 24c8 2fbb 1746 03bc 1656 1e3c
00000390: 5875 ac3c d0c0 2d3b 8a5b eb3b b469 193c
000003a0: 5119 833b 463e 90bc a0ad 4dbc 9e86 2b3c
000003b0: 0e2f cd3b a735 f4b7 2d6b 2c3c 72f2 0bbc
000003c0: f10a fa3a 2b48 6fbc 33ee a6ba a750 4a3c
000003d0: b8d7 4e3c 96e5 013b 092b 2a3a 0027 423a
000003e0: f631 1fbc 2647 4f3b f9a5 223a be93 94bc
000003f0: db8e f73b ccf4 65bb d456 cc3b 6e6c e3b9

action_model._discrete_distribution.branches.3.bias f4 [13]
-0.0034372087 -0.00084136066 -0.001917276 0.0033073877 -0.000623926 0.0041588238 -0.0025067606 0.005040408
0.0027930494 0.0010848847 0.001091437 -0.000954486 -0.002679348
00000000: cb42 61bb c28e 5cba 1b4d fbba c2c0 583b
00000010: f78e 23ba be46 883b 7748 24bb 022a a53b
00000020: 980b 373b b132 8e3a 8c0e 8f3a 7936 7aba
00000030: 0098 2fbb
