results/NewTwoAgentsFullBoardAction/BlackMLAgent/BlackMLAgent-299.onnx (onnx, 681198 bytes, 133 tensors)

discrete_act_size_vector f4 [1, 64]
000000 00 00 50 41 00 00 50 41 00 00 50 41 00 00 50 41
       13.0 13.0 13.0 13.0
000010 00 00 50 41 00 00 50 41 00 00 50 41 00 00 50 41
       13.0 13.0 13.0 13.0
000020 00 00 50 41 00 00 50 41 00 00 50 41 00 00 50 41
       13.0 13.0 13.0 13.0
000030 00 00 50 41 00 00 50 41 00 00 50 41 00 00 50 41
       13.0 13.0 13.0 13.0
000040 00 00 50 41 00 00 50 41 00 00 50 41 00 00 50 41
       13.0 13.0 13.0 13.0
000050 00 00 50 41 00 00 50 41 00 00 50 41 00 00 50 41
       13.0 13.0 13.0 13.0
000060 00 00 50 41 00 00 50 41 00 00 50 41 00 00 50 41
       13.0 13.0 13.0 13.0
000070 00 00 50 41 00 00 50 41 00 00 50 41 00 00 50 41
       13.0 13.0 13.0 13.0
000080 00 00 50 41 00 00 50 41 00 00 50 41 00 00 50 41
       13.0 13.0 13.0 13.0
000090 00 00 50 41 00 00 50 41 00 00 50 41 00 00 50 41
       13.0 13.0 13.0 13.0
0000a0 00 00 50 41 00 00 50 41 00 00 50 41 00 00 50 41
       13.0 13.0 13.0 13.0
0000b0 00 00 50 41 00 00 50 41 00 00 50 41 00 00 50 41
       13.0 13.0 13.0 13.0
0000c0 00 00 50 41 00 00 50 41 00 00 50 41 00 00 50 41
       13.0 13.0 13.0 13.0
0000d0 00 00 50 41 00 00 50 41 00 00 50 41 00 00 50 41
       13.0 13.0 13.0 13.0
0000e0 00 00 50 41 00 00 50 41 00 00 50 41 00 00 50 41
       13.0 13.0 13.0 13.0
0000f0 00 00 50 41 00 00 50 41 00 00 50 41 00 00 50 41
       13.0 13.0 13.0 13.0

network_body._body_endoder.seq_layers.0.weight f4 [142, 71]
000000 72 ea 82 bd 1c 37 8f bd ab 48 ac 3d e0 ed 75 3d
       -0.06392373 -0.06992933 0.08412298 0.06004131
000010 de c2 c8 bd 0f b1 6f bd a8 9e 5f 3e 14 6e 3d bd
       -0.09802793 -0.058518466 0.21837866 -0.046247557
000020 94 ef 85 3c a9 aa c7 3d 37 5e b6 3d 5f 8d 93 3d
       0.016349591 0.09749348 0.08904689 0.07204699
000030 20 39 49 3c 18 21 a1 3d 93 88 21 be 17 05 6a bd
       0.012281686 0.0786764 -0.15774755 -0.05713376
000040 26 82 14 be 50 f5 13 bb dc 33 12 3e 41 5e 0e be
       -0.14502773 -0.0022576638 0.14277595 -0.13903143
000050 d0 45 d7 3d 77 cb c3 3d 7e 0d 02 3c cd eb 06 be
       0.105113626 0.09560292 0.007937787 -0.13175888
000060 53 3d 6a 3e 19 dd 48 3d e6 4b 17 bd ef b1 6f bd
       0.22874956 0.04903898 -0.036937617 -0.0585193
000070 87 3c 97 3d 98 bd 48 3e 9f 11 31 bb 2d 76 52 3d
       0.073845915 0.19603574 -0.002701856 0.051382232
000080 a1 3a 0d 3e c9 98 64 3e 04 6d d4 3c 6f 51 0c 3e
       0.13791896 0.22323908 0.025930889 0.1370294
000090 53 65 0e be 4a eb ca bc 77 11 8a bd eb 8b 41 3e
       -0.1390584 -0.024770398 -0.067416124 0.1890103
0000a0 50 fd 97 3b 8c 12 45 be 46 eb 8a 3b e6 29 80 3d
       0.0046383515 -0.19245356 0.0042394726 0.062579915
0000b0 bc 01 fe 3c a6 c7 38 3c 39 8b d4 bc ca 18 0e bd
       0.031006686 0.011278069 -0.025945293 -0.03469161
0000c0 9c 8b 5f 3d eb 98 8b be c3 34 e0 3d 06 18 3f 3d
       0.0545765 -0.27265105 0.109475635 0.04665377
0000d0 80 8d 6c 3d 68 6f 60 3d 47 76 2f 3e 0d 4a 0c bd
       0.057752132 0.054793745 0.17134963 -0.034250308
0000e0 11 09 07 be 73 3c 2f be c1 67 71 3e 6a 6b 35 be
       -0.13187052 -0.17112903 0.23574735 -0.17716756
0000f0 5c b5 0c 3e c4 8f 18 3e 48 2f 1a be 1f e4 3e 3e
       0.13741058 0.14898592 -0.15057099 0.18641709
000100 8d b9 80 3c a3 23 f8 3d d0 0c 8b bd b8 f9 54 3e
       0.015713478 0.12116172 -0.06789553 0.20798385
000110 73 dd 8e 3e e9 88 cd 3c 4a 2e 8e bd 4b cc 06 bd
       0.27903327 0.025089698 -0.06942423 -0.032909673
000120 ad 59 79 bd 95 0f ca bd 7a ce 14 be c0 af 18 be
       -0.060876537 -0.09866253 -0.1453189 -0.14910793
000130 d7 17 03 be fe 18 3c bd c8 ae ee bd 91 c8 f4 bc
       -0.12802063 -0.045922272 -0.11654431 -0.029880794
000140 27 46 b9 3c e1 7b c1 3a f7 bb 0e bd 1b 84 d2 bd
       0.022616459 0.001476165 -0.034847226 -0.10279103
000150 77 47 8e bd 3f 0e 32 be e4 c7 d9 bd b5 b7 5c be
       -0.069472246 -0.17388247 -0.10633829 -0.21554454
000160 30 41 df bd 48 21 07 be ee d2 83 3e bf 09 86 bc
       -0.109011054 -0.1319629 0.25746864 -0.01636207
000170 75 74 83 3e c7 1a 00 be 16 ad 49 3c bb 7f 92 bc
       0.25674787 -0.12510215 0.012309333 -0.017883172
000180 69 72 24 bc 44 e4 0a 3d 71 fb 44 be a1 3e 4b be
       -0.010037043 0.033909097 -0.19236542 -0.1984811
000190 97 a9 a8 bd b5 72 b6 3c d5 fa 4f 3e 66 88 31 3e
       -0.08235472 0.022271493 0.20310529 0.17337188
0001a0 dd 06 4e bd 71 be 71 3e 02 ca f0 bb b7 13 c6 3d
       -0.050299514 0.23607804 -0.0073483 0.09671729
0001b0 12 44 58 3d 38 17 d1 bd a1 b8 7f bd 88 99 83 39
       0.052799292 -0.10209507 -0.062431935 0.00025100657
0001c0 a6 f0 0a 3e e2 60 86 bd a4 e4 c3 3b 66 7d aa 3d
       0.13568363 -0.06561448 0.005978184 0.08324699
0001d0 c3 95 03 bc 6e 14 d3 bd a7 66 57 3e 64 6b 71 be
       -0.008031311 -0.10306631 0.21035253 -0.23576123
0001e0 4e b6 36 be f8 86 18 be 73 01 1f 3e 65 18 29 be
       -0.17842981 -0.14895236 0.15527897 -0.16513212
0001f0 14 e2 31 bd 34 a9 4a be c2 35 0f 3d d5 0e 43 3e
       -0.043428496 -0.19791108 0.034963377 0.19048627
000200 0f f6 de 3d 72 f8 10 3e 17 36 3d be 7d a5 fa 3d
       0.10886776 0.14157274 -0.18477665 0.12238596
000210 e7 9f c6 3c d2 cb d0 3d c4 0b f2 3d a3 a4 a6 bd
       0.02424617 0.10195126 0.1181865 -0.08136871
000220 6d d3 c9 3d 5a ab ce bc 8f f0 aa bc ad 72 44 3d
       0.098547794 -0.025228191 -0.02086666 0.047960926
000230 7c 52 91 bc 44 ea 5b 3e 86 a6 af be 29 e2 d2 bc
       -0.017739527 0.21476084 -0.34306735 -0.025742607
000240 7e 9f 11 bc b4 6d e7 3b 06 35 0a 3e 0b 26 9d bc
       -0.008888124 0.007062638 0.1349679 -0.01918318
000250 ff d5 d9 3d 70 d8 68 bd e2 0d 9c 3d 5d e3 07 be
       0.1063652 -0.056847036 0.076198354 -0.13270326
000260 dc 85 bb 3d e1 c7 43 3c b9 b1 ab 3d e8 10 91 bd
       0.09156391 0.01194951 0.08383507 -0.07083303
000270 00 31 1a bd 62 42 db 3d a9 20 37 bd 24 29 c2 3d
       -0.037644386 0.10706021 -0.04470888 0.09480503
000280 13 dd e9 bd 94 77 ae 3d 17 02 12 bc ac 98 01 3e
       -0.1141912 0.085189015 -0.008911631 0.12655896
000290 11 75 0c be fb f1 7c be 15 bc 0e 3d e9 d6 9f 3d
       -0.13716532 -0.24701683 0.034847338 0.07804663
0002a0 91 fa 16 be 35 57 00 3d a0 82 7c 3d 83 34 07 be
       -0.14744021 0.031333167 0.06164801 -0.13203625
0002b0 f7 85 00 be 71 c4 ab be f6 26 3d be 04 65 c3 3d
       -0.12551104 -0.3354831 -0.18471894 0.095407516
0002c0 70 d9 20 bd e0 cf 64 3e 47 74 03 3e ba 06 fe bd
       -0.039269865 0.22344923 0.12837325 -0.12403627
0002d0 52 c4 a4 3d c1 e9 1a 3d cb 52 b8 3c b9 8a a8 bd
       0.08045258 0.03782058 0.022500416 -0.08229584
0002e0 15 95 cd 3d f4 da 92 bb f0 a6 86 3e 7f a9 31 be
       0.10038201 -0.0044816677 0.26299238 -0.17349814
0002f0 b8 d7 75 3e 22 32 c5 3d ce b6 f7 bd 2b f2 1d be
       0.24008071 0.09628703 -0.12095414 -0.15424411
000300 4f 37 5a 3d 4e 68 57 3e fa ba 42 bd 0e 91 26 be
       0.053275403 0.21035883 -0.047541596 -0.16266271
000310 72 27 d9 3c 61 87 fd bc f3 00 7c bd 3f 16 0b be
       0.026508067 -0.030948343 -0.061524343 -0.13582705
000320 86 fc 6d bc 7d 4b 42 3c 28 90 92 bd 6e 26 93 be
       -0.014525538 0.011858818 -0.07156402 -0.28740257
000330 0c 9c d1 3d c7 d9 82 bd 9e df 57 3e 7b 21 48 3d
       0.10234842 -0.06389194 0.21081397 0.048860054
000340 f5 cf 12 be cb d7 88 bd 44 62 71 bd f2 20 a1 3c
       -0.14337142 -0.06681784 -0.058931604 0.01966903
000350 80 ea 1f bd 91 b2 e4 bb 78 36 17 3e 0e 55 53 3c
       -0.039041996 -0.0069792946 0.14766872 0.012898697
000360 f1 8a f9 ba 72 1a c1 bc 71 3d 33 bc 2a 9e 5d bd
       -0.00190386 -0.02357218 -0.010939942 -0.054105915
000370 fd 4c 03 3e a6 a6 1f bd 02 fd a5 3c 6c c1 15 bc
       0.12822337 -0.038977288 0.020262245 -0.009140354
000380 00 3b 81 3c 0e 84 10 be c5 17 87 3d 89 19 12 bd
       0.015775204 -0.14112875 0.065963306 -0.035668883
000390 68 65 75 3c 1e 06 88 bb d8 3e 13 3d 97 cc 81 bd
       0.01497779 -0.00415112 0.035948604 -0.063378505
0003a0 7c 62 6e 3e dc 5b f6 3d 24 3f 19 bd f5 08 b1 bd
       0.23279756 0.120292395 -0.03741373 -0.086442865
0003b0 7f a4 3f be 39 14 2b 3e f6 49 d3 bc be 92 ef 3d
       -0.18715094 0.16706933 -0.025792103 0.11697911
0003c0 ad e9 4a 3c d7 24 3b 3d e2 e0 01 3e ac bc 94 bd
       0.012384814 0.04568943 0.12683442 -0.07262549
0003d0 5c e1 03 3e b7 e2 62 bc a0 ee 6b bd da 42 16 3e
       0.12878937 -0.013847998 -0.057600617 0.1467394
0003e0 96 45 4f 3d f4 d6 b4 bc 2e 4b e4 3d 4c bc d1 3c
       0.05060347 -0.022075154 0.11147152 0.025602482
0003f0 3d 20 f5 3d 93 28 1a bd fd 29 cd bd d1 f3 fd bd
       0.119690396 -0.03763635 -0.10017774 -0.1240002

network_body._body_endoder.seq_layers.0.bias f4 [142]
000000 8e da 0a 3c 96 1b c5 3b 33 6e 05 3c f8 66 64 3a
       0.008474959 0.0060152514 0.008143949 0.00087128533
000010 c3 26 69 3b a6 f4 e3 3b 6d 10 36 3c 02 7e 0f bc
       0.0035576082 0.0069566546 0.011112315 -0.00875807
000020 e1 0f 4c ba 55 dd 01 3c 60 bf 5a 3c b7 ec 0b 3c
       -0.00077843486 0.007926305 0.013351291 0.008540324
000030 96 fd 04 3c 7c 6a 08 3c 88 b1 4e 3c a3 8e 49 3c
       0.0081171 0.008326169 0.012615569 0.012302074
000040 e1 55 e6 3b 85 82 c8 bb b6 df 1d bb 9b 59 50 bb
       0.0070292805 -0.0061190748 -0.002408964 -0.003179169
000050 2b d9 3b 3c d3 2f 15 3c fb 85 d4 3b c3 00 e7 3b
       0.011465351 0.00910564 0.0064856983 0.0070496514
000060 69 c7 1d 3b 4a a4 c1 3b 51 72 7f 3b a2 42 80 3b
       0.0024075157 0.0059094774 0.003897805 0.0039141933
000070 89 0f b2 3a 6e ab 48 3b a7 ff 1c 3c e6 95 13 3c
       0.0013584952 0.0030619758 0.009582437 0.009007907
000080 0f 3b 44 3c e2 29 0f 3c 23 5d 40 3c e5 4c 60 3c
       0.011976971 0.008738013 0.0117409555 0.013690208
000090 5c 89 c7 3b 2d 4d c8 3a 51 40 0b 3a 39 31 3d 3c
       0.0060893726 0.0015281789 0.0005312013 0.01154738
0000a0 bd b6 4d ba ff f9 c6 bb ef d5 58 3c bb a0 40 3c
       -0.00078473595 -0.0060722823 0.0132345995 0.011757071
0000b0 b1 6f 08 3c 11 7b 83 3b 50 df 6b bb e7 09 26 3b
       0.008327411 0.0040124734 -0.003599126 0.0025335492
0000c0 33 ff 23 3c 3d 89 3b 3c b3 d5 27 3c ac c8 37 3a
       0.010009575 0.011446294 0.010243821 0.00070107984
0000d0 5a fd d4 3b aa 81 19 3c ee e5 0a 3c 03 9c 47 3c
       0.0064999284 0.009369293 0.008477671 0.012183192
0000e0 64 a3 b1 3b 3c 4f 47 3c e4 43 d3 bb 44 8f 41 3c
       0.005421089 0.012164887 -0.006447302 0.011813942
0000f0 87 6f 37 bb 53 1f 80 3b da 69 1d 3c db 2f 0f 3c
       -0.002799006 0.003909984 0.0096077565 0.008739437
000100 b2 08 f4 3a 5f b2 27 3c 72 5f 27 3c 73 79 fa 3b
       0.0018618314 0.010235398 0.010215627 0.0076438724
000110 57 ea 32 3c f2 f3 30 3c bf 2d 99 3a 14 c8 07 3a
       0.010920129 0.010800349 0.0011686607 0.0005179655
000120 a4 c0 79 3c ae 1b 59 bb 8b 92 d4 3b 5b 73 7e 3b
       0.015243683 -0.003312807 0.006487196 0.0038826081
000130 96 0f c3 ba 6b 22 77 3a 5c 0c 3d 39 b6 7b a5 bb
       -0.0014881964 0.0009427431 0.00018029049 -0.005050148
000140 27 f4 dd 3a 91 f2 c5 3b af 5f cf ba 8b 45 2f 3c
       0.0016933725 0.006040879 -0.0015821363 0.010697733
000150 5e 0a 2a 3c b5 7f 39 3c 18 18 8b 3b 9a 43 be 3b
       0.010378448 0.011321952 0.0042448156 0.0058063986
000160 3d bc 32 3c e7 73 65 bb 51 10 e3 3b 65 18 30 3c
       0.010909137 -0.003501171 0.0069294353 0.010748004
000170 c6 7b ba bb 23 11 b8 ba d1 01 ae 3b 87 d3 10 3a
       -0.0056910245 -0.0014043193 0.005310275 0.0005524684
000180 97 38 34 3c 6a 89 0f 3c 67 ba 78 3a 75 14 c9 3a
       0.01099982 0.008760789 0.00094882253 0.001534118
000190 17 5a 61 3b 3e 7a dc 3b 05 36 21 bc f2 c2 ca ba
       0.0034385973 0.0067284396 -0.009839539 -0.0015469475
0001a0 33 5b 95 bb 8a 38 36 bb 13 36 17 3c ec 61 0b 3c
       -0.004557991 -0.0027804696 0.009229201 0.008507233
0001b0 8a 45 08 3c 6d 70 01 bc 16 e7 ac 3b 2b bb 21 3c
       0.008317361 -0.00790034 0.005276571 0.0098712845
0001c0 55 43 7e 3b fc f6 b5 bb 5f b2 8c 3b f2 f1 a2 b9
       0.0038797457 -0.0055531245 0.0042937244 -0.0003107931
0001d0 56 c4 33 3c 81 3a 38 3c 4b e3 eb 3b f4 e6 35 3c
       0.010972103 0.011244417 0.0071987263 0.011102427
0001e0 81 76 05 39 42 9d 16 3c e6 09 3c 3c b7 b5 30 bc
       0.00012728015 0.009192767 0.011476969 -0.010785512
0001f0 ff 36 e5 3b a8 0f 62 3c 3d ee 7d b9 51 50 d4 3b
       0.0069950814 0.013797678 -0.00024216711 0.006479301
000200 99 ab a6 bb 38 2c 21 3b 57 24 10 3c b3 9f 32 3c
       -0.005086374 0.0024593007 0.008797727 0.010902333
000210 12 f7 65 3c ed 21 2b bb e4 f3 33 3a f1 c5 cc 3b
       0.014035957 -0.002611275 0.00068646506 0.0062491824
000220 21 47 b9 bb 5d 9e 97 3a 6e 88 20 3c 11 39 65 bb
       -0.005654231 0.0011567582 0.009798152 -0.0034976641
000230 10 33 56 3c 23 0c e3 3b
       0.013073698 0.006928937

network_body._body_endoder.seq_layers.2.weight f4 [142, 142]
000000 95 36 05 3e 22 7e 1b be 93 e1 5a bb 4e d9 55 be
       0.13009103 -0.15184835 -0.0033398613 -0.20883676
000010 35 20 5d bd b2 77 17 3c b5 25 fc 3d 4f fb 1d bd
       -0.053985793 0.009244846 0.123118795 -0.038569745
000020 e5 30 e3 3d 38 54 a3 bc ad 90 c6 3d 02 e3 d9 3d
       0.1109331 -0.01993762 0.096955635 0.106390014
000030 61 f3 bd 3c 8b 02 56 3d 80 97 84 bd 22 93 b4 3d
       0.023187341 0.05224852 -0.06474209 0.08817126
000040 09 32 97 bd 1e 85 c6 bd 8b da 09 3c 37 4a 48 be
       -0.0738259 -0.09693359 0.008413921 -0.1955956
000050 fd 66 01 3e ce ec 78 bd 1e dc 18 bd 69 c0 f0 bd
       0.12636943 -0.06077271 -0.037319295 -0.11755449
000060 7c c6 51 bd 35 1a 98 bd 57 bd 03 bd c0 35 2b 3d
       -0.05121468 -0.074268736 -0.03216299 0.041799307
000070 f8 1a ac bd 4f a0 02 3e 96 65 63 3c 7f 37 6b bd
       -0.084035814 0.12756465 0.0138792 -0.057425972
000080 1c 04 70 3c 46 00 f4 bc c2 42 0a 3d 9b 5a 84 3c
       0.014649417 -0.029785287 0.03375507 0.016156485
000090 29 57 23 3e da 8c 2b 3e 24 c0 b6 3c eb 69 7f ba
       0.15951218 0.1675295 0.022308417 -0.0009743261
0000a0 68 81 68 bd 1b e9 48 3d 38 20 db 3d 1c 43 6b bc
       -0.056764036 0.04905043 0.106995046 -0.014359262
0000b0 29 83 d2 3d 9b 5b a7 3d fe 6c d5 3d 9f fb 3a 3e
       0.10278923 0.08171769 0.10421179 0.18260048
0000c0 14 84 62 bd a9 f8 97 bd 8d 1b a4 bc f4 73 95 3d
       -0.05530174 -0.07420475 -0.020032668 0.07297507
0000d0 e2 05 62 3b b3 b6 53 bd 88 25 a1 3d 46 4e f2 3d
       0.003448837 -0.051687907 0.07868487 0.11831336
0000e0 ed 76 15 be 54 b1 4a bb 83 e2 15 bc f7 b5 f3 bd
       -0.14596148 -0.003092845 -0.009148243 -0.118999414
0000f0 13 dd 1a bd c9 8b 35 bd 74 6c 45 bd e4 5c de bd
       -0.03780849 -0.044322763 -0.048199132 -0.10857561
000100 f3 e2 7c 3d ad db 80 bc ba 09 06 bd 56 e2 07 3d
       0.061739873 -0.01572975 -0.03272412 0.033174835
000110 91 65 fa 3d 05 0f 5b bc d6 05 01 be b4 77 dd 3c
       0.122264035 -0.01337028 -0.12599882 0.027034618
000120 e4 29 70 bb d2 a9 7d 3d 97 60 af bc f9 c8 01 bd
       -0.0036646063 0.06192953 -0.021408362 -0.031685803
000130 f3 52 ea 3c 9c 15 2a be 44 be 3a bd 3a 6f 2a bc
       0.028604006 -0.16609806 -0.045591608 -0.010402495
000140 eb d7 c4 bc 4a 01 29 bd 89 fa 3e bd 15 83 45 3e
       -0.024028739 -0.041260995 -0.046625648 0.19288285
000150 f6 26 93 bc 4b ed 19 3d 9f 71 f1 3d c6 20 ac bd
       -0.017962914 0.037579816 0.1178925 -0.084046885
000160 73 f4 92 bb 6e 81 11 bd dc 0b ec bd c8 cc 2c 3b
       -0.004484707 -0.035523824 -0.115256995 0.0026367176
000170 61 f5 02 be 0c 55 11 3e 18 1f 14 be ec 44 d2 bd
       -0.12788917 0.14192599 -0.14464986 -0.10267052
000180 79 31 ab bd b1 7c cf 3d c1 e7 cb 3c 03 84 38 be
       -0.083590455 0.10131205 0.024890782 -0.18019108
000190 bd b2 79 3c 57 89 92 3d 76 7f 43 3d 8a 2e c5 3c
       0.015240368 0.07155102 0.047728978 0.024070043
0001a0 8f 2f 44 3d 11 57 39 3e ab a1 62 bd 89 c3 15 bd
       0.047896918 0.1809962 -0.05532996 -0.03656343
0001b0 16 cb f7 bd e6 6f 39 bd 1e 4e a4 bc 53 5b 2f 3e
       -0.120992824 -0.04527273 -0.02005678 0.17124681
0001c0 79 0d 98 bd f9 c2 9e bc da f8 f8 bc f4 07 db 3d
       -0.07424445 -0.01938008 -0.0303921 0.10694876
0001d0 e9 e5 03 bd b1 87 e7 bd f5 d0 5e 3c 33 0b 91 bc
       -0.03220168 -0.11305178 0.013599624 -0.017705536
0001e0 11 d2 95 bd be 80 3b bd f9 55 96 bd 47 98 bc bd
       -0.073154576 -0.045777075 -0.07340617 -0.09208732
0001f0 9f c9 25 3e 66 ed 76 3d 9f 00 cc bd c8 f7 12 bd
       0.16190194 0.060284995 -0.09961056 -0.035880834
000200 bf 2f 14 be a5 87 bb bc f5 4c c5 bd 07 c0 99 bd
       -0.14471339 -0.022891829 -0.09633819 -0.075073294
000210 d9 04 66 be bf 1d 10 3e 07 2d 14 3e c5 ca ee bd
       -0.22462787 0.14073847 0.14470302 -0.11659769
000220 ae 9d 20 bd 4c e3 8e bd 83 34 ba 3d 7e a4 1d 3d
       -0.039212875 -0.06976947 0.09092047 0.03848695
000230 ba 6d 65 3d 9d d5 72 3d 8f 17 39 bd d1 a0 fe bd
       0.056012847 0.05928575 -0.045188483 -0.12433017
000240 af 5c d4 bd 65 ff 43 3d 65 d8 15 be 8e 23 c4 bd
       -0.103692405 0.047850985 -0.14633329 -0.09577094
000250 48 61 06 3d 6d 9a 85 3d d1 2e f8 3d 3d 4b fe 3b
       0.03280762 0.06523595 0.121183045 0.007760434
000260 9e eb 85 bc 77 42 e8 bd ea 54 28 3e cd c1 74 3d
       -0.016347703 -0.11340802 0.16438642 0.059755135
000270 9d df b2 bd e0 d5 29 3d dc 85 71 3d 6c aa c3 bd
       -0.08734057 0.041463733 0.05896555 -0.0955399
000280 15 87 6d 3a c2 76 70 3d b1 4c f2 bd e2 fa 02 be
       0.00090609613 0.058707006 -0.11831034 -0.12791017
000290 68 33 0d 3a 0e 3a d7 3d dc 54 61 bd 11 06 2d bd
       0.0005386383 0.1050912 -0.05501257 -0.042242114
0002a0 6b 7e ce 3d 75 24 c1 bd bb dd a5 3d b9 83 95 bd
       0.10082706 -0.09430782 0.08098932 -0.07300515
0002b0 87 4e aa 3c cf fb b4 bc 23 3d ea 3c bb 77 9c bd
       0.020789398 -0.022092728 0.028593605 -0.07640024
0002c0 2e 2e 8d 3b f9 1e a8 bd c5 15 0b 3d e7 74 1d 3e
       0.0043084836 -0.082090326 0.033956308 0.15376626
0002d0 d9 b7 4d 3d f5 c4 3e be 0c cc a1 3d 0f e5 5b bd
       0.05022416 -0.1862982 0.07900247 -0.053685244
0002e0 7f 05 58 bd 2f 4f bc 3d ce fd 9b bd 7d 1e d9 3b
       -0.052739616 0.091947906 -0.07616769 0.006625949
0002f0 8f f4 c4 3c f2 b2 ae 3c 53 ff 1d 3e 5d 3c f6 bd
       0.024042396 0.021325562 0.1542943 -0.12023232
000300 51 13 be bd 02 3c 3a be 02 cb ea bc a2 e7 93 3c
       -0.09281028 -0.18186954 -0.028661255 0.018054787
000310 9a 58 75 3b e8 b7 c8 bd dd 88 2a bd 52 09 e7 bb
       0.0037436844 -0.09800702 -0.04163443 -0.0070506716
000320 0a d6 a6 3d 85 61 23 bc db d7 0c 3e 22 7c 4e bb
       0.081462935 -0.009971981 0.13754217 -0.0031507094
000330 a4 0f a3 bd d9 c9 c0 bd c8 3a 1c 3d f2 a7 92 bc
       -0.079619676 -0.094134994 0.038141996 -0.017902348
000340 98 4b cd 3c f4 40 39 bd 3d 2e 34 bc d3 2d d8 bc
       0.02506046 -0.04522796 -0.010997352 -0.026389038
000350 42 3b 9d bd 82 df af 3d 05 d8 04 be 1d 36 cf 3d
       -0.07677318 0.085875526 -0.1297303 0.10117743
000360 05 e0 0b be c2 ef 6f 3c 13 5a f6 bd ea 21 c7 3d
       -0.13659675 0.014644565 -0.12028899 0.097232655
000370 05 be e5 3d 66 77 9e 3c 02 a3 92 3d c1 99 c7 bc
       0.11217884 0.019344043 0.071599975 -0.024365308
000380 c3 20 38 3b 4d 14 d1 bd d7 30 fa 3b 12 16 5c 3d
       0.00280957 -0.1020895 0.0076352167 0.053731985
000390 3e f3 a1 be 82 9a 24 bd 4c d0 98 bb d2 8d be bc
       -0.31630892 -0.040186413 -0.004663503 -0.023260985
0003a0 87 d0 d4 bd d7 44 50 bd 7f 21 0c 3b 8b 49 45 bd
       -0.10391336 -0.0508469 0.002138227 -0.04816584
0003b0 6b 13 e7 3d 7c c3 0b be 8f 78 ad bb ed bf 72 bc
       0.112830006 -0.1364879 -0.0052939127 -0.0148162665
0003c0 9d 2d ac bd 2c 49 90 3d 12 e9 d4 3c 22 ef 0a 3d
       -0.084071375 0.070452064 0.025990043 0.03391946
0003d0 dc 45 b3 3d 6b f4 02 bd b3 8d 8b bd fd 53 a8 3d
       0.08753559 -0.031971376 -0.06814136 0.082191445
0003e0 4a db 11 bd 67 b5 bc bd 79 d2 52 bb cb 1b b3 3c
       -0.03560952 -0.09214287 -0.0032168909 0.021863839
0003f0 f9 84 89 3d 27 5c 05 be 02 29 8f 3d 2c 8f 6c 3d
       0.06714816 -0.13023435 0.069902435 0.057753727

network_body._body_endoder.seq_layers.2.bias f4 [142]
000000 b0 01 08 3b be 5d 0f bc c4 fe 59 3c b5 68 97 3b
       0.002075296 -0.008750377 0.01330537 0.0046206363
000010 4e 97 1a 3c 0b d9 e3 3b c6 b0 79 3a f8 1a 30 3c
       0.009435488 0.006953364 0.00095249375 0.010748617
000020 32 4a bc 3b de 9d a5 3b 76 bc a6 3b 46 26 f9 3a
       0.0057461495 0.0050542196 0.0050883843 0.0019008599
000030 b5 38 2e 3c d6 f0 8f 3b 3d 66 96 3b f4 49 59 bb
       0.010633637 0.0043927236 0.0045898245 -0.0033155652
000040 6d 2c 1a bc 18 80 de bb 22 63 2d 3c 15 c9 e4 3b
       -0.009410006 -0.0067901723 0.010582717 0.0069819787
000050 fb a1 b4 3b 15 62 2b 3c fd 71 8f 3b cf 71 07 3c
       0.0055124736 0.010460396 0.004377602 0.00826688
000060 5e fa 1c 3c ff 51 30 3c 4f d6 27 3c 13 e8 1a bb
       0.009581177 0.010761737 0.010243966 -0.0023636862
000070 62 df 7c 3b 13 2c c5 3b b3 e7 19 3c 28 e8 a9 3b
       0.0038585295 0.006017217 0.00939362 0.005185146
000080 e1 c1 6a 3c 65 48 6a 3c 51 30 0a 3c 29 a6 e1 bb
       0.014328451 0.014299487 0.008434371 -0.006886263
000090 82 a5 17 3b 29 2a b0 3b 7e ee 8f 3b 95 e1 f9 3b
       0.0023139422 0.0053761196 0.004392444 0.0076257684
0000a0 64 cd cc 3b 7d 40 08 3c b9 9a 97 3a 05 0a de 3b
       0.0062500704 0.008316156 0.0011566497 0.0067760968
0000b0 54 7d 08 3c d8 5f b0 3b 48 da 2d 3c 85 a5 a6 b9
       0.008330662 0.005382519 0.010611124 -0.0003178531
0000c0 28 a7 af 3b cd b9 27 3c f7 05 67 3c 42 a6 6f bb
       0.0053605027 0.010237169 0.014100543 -0.0036567603
0000d0 0b 9e b7 3b e4 91 93 3b 9a 30 fb 3b 8e 8f 6c 3b
       0.005603557 0.0045034755 0.007665706 0.0036096307
0000e0 72 5a 7b 3b 96 7b 28 3b aa 1e cb 3b 1c c4 88 bb
       0.003835347 0.0025708429 0.006198724 -0.0041737687
0000f0 91 21 23 3c 9f d0 13 3c 3f a9 14 3c 46 75 59 3c
       0.009956733 0.009021907 0.009073555 0.013272589
000100 3e 31 0b 3c fc c4 9a ba a0 1f be 3a f0 7b a7 39
       0.008495627 -0.0011807973 0.0014505275 0.00031945063
000110 f4 b3 3b bb b8 a6 01 3c 05 2d 51 3c 0a 14 b5 3b
       -0.0028641196 0.007913284 0.012767081 0.0055260705
000120 6f da 88 3b 15 d5 86 3b 31 4b da 3b eb 1b db 3b
       0.00417643 0.004114757 0.0066617955 0.0066866777
000130 54 c9 d9 3b 54 c4 49 3b 9e 15 06 3c 01 6e c8 3b
       0.0066463146 0.0030787187 0.008183865 0.006116629
000140 ba f1 0e 3b ec b0 de 3b 20 51 93 bb a8 d9 04 3c
       0.002181156 0.006795993 -0.004495755 0.008108534
000150 a9 91 41 3c c4 79 a9 3b a7 79 07 3c 41 1d d0 3b
       0.011814513 0.0051719863 0.00826875 0.0063511436
000160 0a ee 90 3b 3b 24 26 3c d0 8d e5 3b 58 1b 35 3c
       0.0044229077 0.010140474 0.0070054308 0.011053883
000170 38 80 89 bb 15 16 32 3c ac cb 07 3b d9 59 06 3c
       -0.004196193 0.010869523 0.0020720763 0.008200132
000180 d8 f9 5d 3c b5 11 e4 3b 8f e3 49 3b 2d 34 9e 3b
       0.013548337 0.0069601187 0.0030805802 0.004827997
000190 65 6d 20 3c 97 8a fd 3b 6b 98 f4 3b bd 0b 11 b9
       0.009791707 0.0077374685 0.0074644587 -0.0001383265
0001a0 d3 fa f7 bb a5 db 3d 3c 09 d5 3e 3c 34 0f 53 3b
       -0.0075677424 0.011588012 0.011647471 0.0032205107
0001b0 ec 36 2a 3b 09 d2 0c 3c ae f9 2d ba d4 58 d1 b9
       0.0025972677 0.008594998 -0.00066366314 -0.00039929769
0001c0 8d 95 e1 3b 89 ab e6 3b 1f 99 dd 3a c9 08 26 3c
       0.006884283 0.0070394916 0.0016906596 0.0101339305
0001d0 cc 2f 01 3c e4 8a 23 3c bc b2 33 3c 44 5a db ba
       0.007884931 0.009981845 0.010967907 -0.0016735275
0001e0 3e e3 0f 3c d3 85 20 3b f7 17 35 3b d2 16 7f 3b
       0.008782206 0.0024493828 0.0027632692 0.0038923514
0001f0 45 8e 36 3c 50 0b 37 3c 37 73 94 3b e9 b4 27 3c
       0.011142318 0.011172131 0.0045303362 0.010236003
000200 6a bb 85 3b da 9e df 3b 23 70 bc 3b dd fc 05 3b
       0.0040811794 0.0068243565 0.0057506724 0.0020444908
000210 56 aa b6 3b 3e 18 c8 b9 4d 14 d0 3b f3 3d 84 3a
       0.005574505 -0.00038165034 0.0063500763 0.0010089263
000220 96 aa 4d 3c 5a 69 ef 3b db 21 26 3c be b9 1e 3c
       0.012552878 0.00730626 0.010139908 0.009687839
000230 f0 1f 64 3c 95 59 20 3c
       0.01392363 0.009786983

action_model._discrete_distribution.branches.0.weight f4 [13, 142]
000000 1b c4 72 3c bf 87 b3 3b f0 cb 2f bc 05 00 41 bc
       0.014817263 0.0054788287 -0.010729775 -0.01177979
000010 cf 9b 93 3c 53 6f d9 bb 19 8f be ba 81 09 09 3a
       0.018018631 -0.0066355853 -0.0014538496 0.00052275514
000020 ca f6 9d 3b 82 c2 11 3c 45 3f 04 bc ac 82 1c 3c
       0.0048206793 0.008896472 -0.008071725 0.009552639
000030 3d 5f af 3b 76 1d 25 3c 5a 09 26 bc 08 f1 65 bb
       0.0053519295 0.010077825 -0.0101340655 -0.0035086293
000040 54 21 9a 3c de f1 89 3b b9 1e 38 bc be c0 42 bc
       0.01881472 0.004209741 -0.011237794 -0.011886774
000050 c9 04 6e 3c c9 c4 53 3b 6c fa 4f bb 64 78 c7 bc
       0.014527508 0.0032313338 -0.0031734956 -0.024349399
000060 ad e1 ec 3b 90 88 1a bb ce 82 83 3b 23 af 84 bb
       0.007229051 -0.0023579933 0.004013396 -0.0040491982
000070 c3 e6 da bb ee d8 0b bc f0 8f 9a bc 91 97 f0 39
       -0.006680341 -0.008535607 -0.018867463 0.00045889293
000080 ee d9 47 bb 7f f2 fa 3b 3d 7d e8 3c 1c f6 07 3c
       -0.0030494886 0.0076583023 0.02838003 0.008298423
000090 bf 6e 8a 3c 6a c0 c5 bc ff 95 1c 3c f9 4b 77 3a
       0.016898511 -0.024139602 0.009557246 0.0009433623
0000a0 f5 30 cf bb 34 1a 3d bc 51 00 31 3c 44 0c 2c 3c
       -0.006322975 -0.011541892 0.010803298 0.010500971
0000b0 8f f4 cc bb ec f9 97 bb 2e 71 71 b9 5a b4 58 bc
       -0.0062547396 -0.0046379473 -0.00023025714 -0.013226593
0000c0 15 ad 4d 3c c0 3c 31 bc c5 28 1c bc 1c 2d 51 b9
       0.012553473 -0.010817707 -0.009531205 -0.00019948598
0000d0 b7 e1 9c 3c 6a 53 2e ba 31 5a 56 bc 3e eb bd 3a
       0.019150598 -0.0006650003 -0.013083027 0.0014489663
0000e0 6f 5d 10 bc 6f 23 b9 bc 32 5f 5c 3c 5c d2 0b 3c
       -0.008811339 -0.022599904 0.013450431 0.00853404
0000f0 db b8 67 bb e3 63 45 3c 79 7f 5d 3c d2 bb 46 bc
       -0.0035357985 0.012047741 0.013519161 -0.012129741
000100 04 e3 32 3c fc d0 64 bc cf b5 04 3c 2c cf 28 bc
       0.010918383 -0.013965841 0.008099987 -0.0103033
000110 5e c5 42 bc f6 21 88 bc 3a a1 0e bb 00 52 d6 bb
       -0.011887876 -0.016617756 -0.002176358 -0.006540537
000120 f1 fc bd ba 16 a6 51 bb a9 0e 06 bc cf 2b 7e bc
       -0.0014494938 -0.0031989864 -0.008182206 -0.0155133745
000130 bd 9b 34 3c bd a7 05 3b ac 3a 06 bb 4c 23 b2 3b
       0.011023459 0.002039417 -0.0020481749 0.0054363366
000140 a1 38 89 3b 81 14 6b bc 99 95 80 bb 0c 1c 9f bb
       0.004187659 -0.01434815 -0.0039240834 -0.0048556384
000150 83 fa 02 bc 33 84 4e 3b 89 c7 38 bb 8f 13 44 bb
       -0.007994297 0.0031511902 -0.0028195104 -0.0029918884
000160 6a 78 17 bc 73 11 46 3c fb 63 ef 3a 90 f9 a9 3c
       -0.009245018 0.012089121 0.001826405 0.020748883
000170 7f 62 09 39 ab 8b 56 3c 06 3b d6 bb 72 e4 aa bb
       0.00013102031 0.013094823 -0.006537798 -0.005215221
000180 50 a8 24 3c 80 1e 2f bc f3 4d 85 3c 03 f9 35 3c
       0.010049894 -0.010688424 0.01627252 0.011106732
000190 27 c9 08 3b 50 0c 0a bc 13 6b 85 3c 58 10 3f bc
       0.002087185 -0.008425787 0.016286409 -0.0116616115
0001a0 44 01 a8 3b db 86 56 3c 35 b3 3e bb 77 f5 56 3c
       0.005127104 0.0130936755 -0.0029098515 0.013120047
0001b0 68 84 d2 3b 5e 32 3c bc a7 79 36 3c e4 05 a0 bc
       0.0064244755 -0.011486618 0.011137403 -0.019534059
0001c0 98 5c 89 3b cc b0 02 bc 71 c3 3c bc 72 9f 91 3c
       0.0041919462 -0.007976722 -0.011521206 0.017776225
0001d0 29 12 97 3c 98 c8 89 3b a8 c9 c4 3b 75 99 be 3b
       0.018441277 0.004204821 0.0060054846 0.0058166333
0001e0 12 dc 0d ba a4 a2 ca 3b 13 87 f8 3a af 70 6b 3c
       -0.0005411516 0.006183939 0.0018961154 0.014370128
0001f0 76 5d c6 bb 0f 65 06 bc 2a d0 a9 bc 82 e1 a3 3c
       -0.006053622 -0.008202805 -0.020729143 0.020004991
000200 7f b9 c9 3b 6b c6 0d bc dd 1b 26 3b 9f c1 95 bc
       0.006156146 -0.008653264 0.0025346198 -0.018280802
000210 fd e1 3e bc bb f8 5d bc 41 f0 e2 3b 4d bf 27 3c
       -0.0116505595 -0.0135480715 0.006925613 0.010238481
000220 17 b6 2f bc 60 37 a3 bb 9a c6 73 3c ec 7e eb 3a
       -0.010724566 -0.0049809664 0.014878893 0.0017966903
000230 d7 50 d7 bb 9c e1 56 bb d8 4d ad 3b b9 d9 7a 3b
       -0.006570916 -0.0032788282 0.0052888207 0.0038276745
000240 40 fe 40 b6 7d 1a 93 bb c4 1f a0 ba aa 9e 5e 3c
       -2.8758222e-06 -0.0044892416 -0.0012216498 0.013587633
000250 38 81 17 bc 49 cc 2c bb 1f c1 f1 bb 22 fd 98 bc
       -0.009247117 -0.002636688 -0.007377758 -0.01867539
000260 a8 ff 99 3b a1 14 5e 3b af 22 06 3c 34 8b c8 bb
       0.004699666 0.0033886808 0.00818698 -0.00612011
000270 1b ba 73 3b b9 57 d4 3b 2a 4c 65 3a 72 9f 3a 3c
       0.0037189785 0.006480184 0.0008747006 0.011390554
000280 ae 7c 59 3a e8 57 ae ba b6 af f4 ba 13 be 46 3b
       0.0008296472 -0.0013301345 -0.0018668089 0.0030325695
000290 03 45 84 3b f4 b4 65 bb 57 51 90 ba c8 8c d2 3b
       0.004036547 -0.0035050483 -0.0011010569 0.006425474
0002a0 a3 b2 82 3c ae 28 94 3b f4 34 a8 bb d8 0a db bb
       0.015954321 0.004521451 -0.0051332656 -0.0066846423
0002b0 a8 45 b6 3c 6b 9b 56 3b dd d1 36 3c 89 01 0c bc
       0.022250012 0.0032746445 0.011158434 -0.008545288
0002c0 bf 6b d5 3b 7d d2 a0 bc b3 82 f8 bb 4c 2d 3f 3b
       0.0065130885 -0.019631619 -0.00758394 0.0029171286
0002d0 84 c6 a2 bc 4f 57 8a bb 83 ad f8 3a 5d 43 aa 3c
       -0.01987005 -0.004221834 0.0018972609 0.020784074
0002e0 d0 27 a9 3b 55 cc d7 3b f8 39 4e 3b e6 22 6e bb
       0.0051622167 0.0065856376 0.0031467658 -0.003633672
0002f0 5e aa ce 3b 57 49 2a b8 72 b7 91 3b 4f 57 0a 3c
       0.0063069304 -4.059946e-05 0.004446917 0.008443668
000300 f7 a8 84 3c fb 66 cc 3b 48 9c 2e bb df 0d 29 3c
       0.01619385 0.006237862 -0.0026643444 0.0103182485
000310 32 f7 7b 3b ca f0 62 bb 5f 14 99 ba 0d 37 f4 3b
       0.00384469 -0.0034628385 -0.0011679045 0.0074528516
000320 ac 93 ce 3b 27 0a 7d 3c bb f8 b3 ba 93 25 87 bb
       0.006304225 0.015444315 -0.0013730744 -0.0041243522
000330 12 30 1c 3c 14 41 88 3b ea 30 c5 bb 06 68 2b 3b
       0.009532945 0.0041581485 -0.006017794 0.0026154532
000340 bb 26 c5 bb 9c c3 bb bb dd 51 1d 3b 5f 92 09 bc
       -0.00601658 -0.0057301056 0.0024005093 -0.008396714
000350 29 1a 42 bb 24 60 5d ba 28 eb 21 3c 9a 3b 10 bb
       -0.0029617643 -0.0008444807 0.009882726 -0.0022008182
000360 c6 c8 14 3a c3 56 8b 3b af 32 41 bc a4 e1 6d ba
       0.00056756695 0.004252286 -0.011791869 -0.00090744556
000370 fd d9 76 ba b0 d4 cf 3a 6f 66 07 3c 31 d6 60 bc
       -0.0009416638 0.0015856232 0.008264168 -0.013722942
000380 2f e8 84 3a b2 8b f0 bb 91 f4 41 3b 96 45 bb 3b
       0.0010139997 -0.0073408717 0.0029595236 0.0057150824
000390 35 3e 90 bb 92 b1 f1 3a b1 39 81 3b 47 99 07 bc
       -0.004401947 0.0018439761 0.003943645 -0.00827629
0003a0 3a 16 62 bb eb 0d 2c 3a 71 b8 0d 3c b4 6e 15 3c
       -0.0034498111 0.0006563353 0.008649931 0.009120632
0003b0 8a 30 9c 3b f9 90 58 3c 78 8a 6c bc 64 00 3f 3c
       0.0047665285 0.013218158 -0.01443731 0.011657808
0003c0 d5 c6 0e 3c ba 22 99 bb fd 4b 3d bb af 47 19 3b
       0.008714397 -0.004673329 -0.0028884404 0.0023388674
0003d0 9d d1 91 3a aa 00 23 bb 4a ba 4c 3c 39 65 a0 bb
       0.0011125092 -0.0024872222 0.012495587 -0.004894879
0003e0 d8 6a c0 3b 39 d2 bb bb 6a fe c8 3a b9 2a 2a bc
       0.005872112 -0.0057318476 0.001533461 -0.010386162
0003f0 48 64 d3 3a 13 2b 82 3c ef 27 55 3a c0 c7 09 bc
       0.0016127909 0.01588968 0.0008131256 -0.0084094405

action_model._discrete_distribution.branches.0.bias f4 [13]
000000 5f 52 ea 3a c8 2f 24 bb e4 0a a2 ba 25 95 d1 3b
       0.0017877332 -0.0025052894 -0.0012362865 0.0063959532
000010 28 9e 71 39 87 15 da bb 10 b5 6f bb 34 cf b9 bb
       0.00023042469 -0.0066553983 -0.0036576428 -0.0056704525
000020 a8 39 e2 3b 60 06 08 bc 26 e0 29 3b 63 ba cc 3b
       0.006903846 -0.008302301 0.0025920956 0.006247805
000030 98 de af 38
       8.3861116e-05

action_model._discrete_distribution.branches.1.weight f4 [13, 142]
000000 b5 59 2f 3c 46 8e 02 3c 90 e9 47 3c 18 50 38 bc
       0.01070254 0.007968491 0.012201682 -0.011249565
000010 44 da c1 bb f8 20 c9 bb c0 8f 0f 3c e5 ac 16 bc
       -0.005915912 -0.0061379634 0.0087623 -0.009196495
000020 f2 1b 10 3c 4e 25 09 3c 42 bc d6 bb e5 8f 3d bb
       0.008795725 0.008370711 -0.006553204 -0.002892488
000030 30 7e 69 bb 81 63 20 bb a1 c5 ef 3b a4 ea 34 3b
       -0.0035628192 -0.0024473371 0.0073172604 0.0027605677
000040 c6 f8 d0 38 bf 26 8d 3b e5 30 08 3c 60 23 59 3b
       9.9645506e-05 0.0043075974 0.008312439 0.0033132657
000050 a1 02 f4 bb 00 ce 15 3c 77 b4 49 3b 5c 85 d8 bb
       -0.0074466025 0.0091433525 0.0030777731 -0.0066076946
000060 ad 7a d6 b8 43 11 96 3b 67 71 1e bc 4d 6b 2c bc
       -0.00010227165 0.0045796945 -0.009670592 -0.010523629
000070 3a cb b4 bb 12 ab 27 3c 8b 22 09 bb 72 99 b9 bb
       -0.0055173906 0.010233657 -0.002092513 -0.005664044
000080 3e f5 b7 bb b3 ca aa 3b ac 0b 42 bc ae 93 80 ba
       -0.005613952 0.005212152 -0.011843603 -0.0009809637
000090 6f 29 8d 38 16 56 92 3b 9b bf b0 39 8b e3 dd bb
       6.7311215e-05 0.0044658286 0.00033712093 -0.00677151
0000a0 dd de 26 bc 1c f2 b3 bb d2 d3 9e bb d5 55 38 3b
       -0.010184971 -0.005491508 -0.0048470283 0.0028127332
0000b0 79 4d 8c ba 62 5a 5d bc 3a 3a fe bb 75 f9 a1 bb
       -0.0010704241 -0.0135103185 -0.007758406 -0.0049430677
0000c0 f3 7e 55 3c 35 db 96 ba 40 c5 9b bc b9 df dd 3b
       0.013030755 -0.0011509421 -0.019014955 0.0067710546
0000d0 dc 04 11 3c b0 92 9b 3c 1c 8e 8f bb 93 b9 27 bb
       0.008851256 0.018990844 -0.0043809544 -0.0025592789
0000e0 fe d0 2d 3c 67 02 42 bc 1c ca 65 3c 03 00 7d 3c
       0.01060891 -0.011841393 0.014025237 0.015441897
0000f0 05 65 e8 39 3a 61 00 3c ac 48 6c 3b 14 b5 b5 bb
       0.00044325754 0.007835681 0.0036054058 -0.005545268
000100 26 22 0e bb 6f 1d cd bb 63 75 e2 3b 5d 63 21 3c
       -0.0021687835 -0.0062596123 0.0069109662 0.00985035
000110 76 b3 38 bb 34 a2 da 3b 30 bf 42 bc d3 b0 9a 3a
       -0.002818314 0.006672168 -0.011886403 0.0011801965
000120 69 d8 4f 3a fe ca 66 3c 58 1f 94 b9 e1 dc 3e 3b
       0.0007928671 0.014086483 -0.00028252113 0.0029123353
000130 57 0e d9 b9 42 18 c0 3b 04 e0 c9 3b f3 73 3b 3b
       -0.0004140015 0.0058622668 0.006160738 0.0028603047
000140 66 30 c3 3b 62 6a 53 bc 88 e4 c7 3b 24 90 01 3c
       0.0059566973 -0.012903782 0.006100241 0.007907901
000150 06 1d 66 3c f5 cf 83 bb 4e 97 09 bb 0c e3 a0 3b
       0.014045006 -0.004022593 -0.0020994726 0.0049098786
000160 ef e0 a2 bc 53 d6 70 3c 93 94 9a bb 6c db 7e 3b
       -0.019882647 0.014699536 -0.0047174185 0.003888811
000170 99 01 22 3c 6d da da ba cf 68 40 bc 72 66 49 bc
       0.009888076 -0.0016697176 -0.011743738 -0.012292491
000180 5d 9d 94 3c 1f fa 93 3c 38 4d 30 3b 77 62 b2 3b
       0.018141443 0.018063603 0.0026901495 0.005443867
000190 a5 8f af 3b 37 0c 29 ba 00 7e ff bb 05 74 37 3c
       0.0053577 -0.00064486585 -0.007797003 0.011197095
0001a0 0a 7e 6e bc 41 9b f7 3a 2f 14 24 bc 90 bd ff 3b
       -0.014556417 0.0018890874 -0.010014578 0.00780458
0001b0 cc 7a fd 3a c7 9f e8 bb bf 91 59 3c 1e f1 20 3c
       0.0019338964 -0.007099125 0.0132793775 0.009823112
0001c0 83 83 89 3c 32 d3 b2 bb 81 f8 80 bb 5a 8a 3b 3b
       0.016786342 -0.0054573053 -0.003935874 0.00286164
0001d0 08 07 cd 3b f5 ce d2 3b e0 97 0a 3c 98 7e 58 bc
       0.0062569417 0.0064333626 0.008459061 -0.013213776
0001e0 ff e7 c9 3a fe a8 da 3b 32 50 e5 3b d5 05 99 3c
       0.0015404223 0.0066729775 0.0069980854 0.018679539
0001f0 ce e7 37 ba 72 99 8b 3b dc 3f 11 bc 19 3c 58 bb
       -0.00070154376 0.0042602355 -0.008865323 -0.0032994805
000200 b7 6a 0c bb 7c 1d 03 3b 3b 44 47 3c 41 73 86 3c
       -0.0021425912 0.0020006588 0.0121622635 0.01641238
000210 02 4b 82 3b 1f 06 3f 3c f1 0a 3d 3b e8 bd ba 3b
       0.003976227 0.011659174 0.0028845633 0.005698908
000220 e1 85 19 3c 31 bb b8 bb 0f 3c 3e bb 72 64 8c b9
       0.009370298 -0.0056375493 -0.0029027497 -0.00026777718
000230 8d 83 02 bc de 51 c0 bb 28 e2 86 3c f8 39 4f bb
       -0.007965934 -0.0058691343 0.016465262 -0.0031620245
000240 c0 61 2c bb 27 1e 34 bb 9c 10 1f bb a4 a4 91 3b
       -0.002630338 -0.0027483793 -0.0024271375 0.0044446755
000250 cf 00 71 bc f1 ae 1e bc bc 8c 44 bc 18 9c bb 3b
       -0.014709665 -0.009685264 -0.011996444 0.005725395
000260 dc 34 ee ba ba 3a dd ba 19 35 dc b9 ac e9 d8 bb
       -0.0018173712 -0.0016878464 -0.0004200123 -0.0066196527
000270 13 1e ea 3a ed 94 2e bb 04 3d 74 bb 8f 86 88 bc
       0.0017861746 -0.002663906 -0.0037267813 -0.016665725
000280 f4 98 d7 3b ea e6 38 bc ac 02 2b bc 27 44 21 3c
       0.0065795127 -0.011285523 -0.010437649 0.009842909
000290 32 40 53 bc bf db 77 bc 7f 18 9d b9 b8 6e 1d 3c
       -0.012893723 -0.015128075 -0.00029963625 0.009608917
0002a0 ab 38 c1 3b db fa 12 bb 9e 31 da 3b 10 bc 44 3b
       0.005896648 -0.0022427354 0.006658747 0.003001932
0002b0 a9 de 6f bb 27 4f 24 bb 39 01 c7 3b 5c c2 23 3b
       -0.0036601222 -0.0025071593 0.006073144 0.0024987673
0002c0 b0 6e 32 bc 79 91 ff bb 57 2f 2d 3c 32 4e b4 3b
       -0.010890648 -0.007799324 0.010570369 0.0055024857
0002d0 1b b6 1d 3c d1 20 70 3b 1f f7 f1 3b 17 79 06 bc
       0.009625937 0.0036640654 0.0073841955 -0.008207581
0002e0 0c 11 c5 3b a0 d3 17 3c 4e b7 0b bc ef aa df ba
       0.006013995 0.009266764 -0.00852759 -0.0017064492
0002f0 84 67 60 3b 91 dd 18 bc 01 19 42 bc 6e 29 b3 bb
       0.0034241388 -0.009330169 -0.011846782 -0.0054675853
000300 d9 87 a9 bb c7 25 cf 3b 5a ae 7d 3c e1 86 5e bb
       -0.005173665 0.006321642 0.015483463 -0.0033954906
000310 09 86 3c 3a ba b2 8f 3c 4c 8d 09 bc 73 c3 98 bb
       0.00071916037 0.017541278 -0.008395504 -0.0046619712
000320 a2 4c 95 3b c0 a5 f1 ba 92 61 26 ba 99 03 50 3c
       0.0045562545 -0.0018436238 -0.00063469366 0.01269617
000330 e2 4f 51 3c e7 e4 d6 39 39 96 85 3c f2 f8 75 3a
       0.012775393 0.00040987806 0.016306983 0.0009383104
000340 03 c8 8f 3b a5 d7 48 3c 7a fa 4e bb da bf c1 3b
       0.004387857 0.012258445 -0.00315824 0.005912763
000350 e4 41 c4 3b d7 8b 5e bb 31 a4 db bb 8d d7 bd bb
       0.0059893 -0.0033957863 -0.0067029228 -0.005793518
000360 60 8d df ba 06 eb b0 3b bf 31 ab 3a 53 3f fb 3a
       -0.0017055683 0.0053991107 0.001306109 0.0019168652
000370 55 17 02 3b 03 c8 48 ba 08 e8 4c 3c 97 4c 6b bc
       0.0019850333 -0.00076591986 0.012506492 -0.014361522
000380 ac 5f 1f bc 38 dc 66 3b 85 1a 35 3c 17 0a 51 bc
       -0.0097274 0.0035226475 0.011053686 -0.012758753
000390 42 da 61 bb 7f 4b bc 3c 13 60 fb 3b 01 5f 11 bb
       -0.0034462367 0.022985218 0.007671365 -0.002218187
0003a0 f9 28 7e bb 2d 6a 5f 3c 26 3f ca 3b 14 e8 29 3c
       -0.0038781746 0.013636154 0.0061720787 0.010370273
0003b0 8f e5 01 bc 52 13 3d 3a 0c 72 09 3b 0d df d0 ba
       -0.007928266 0.0007212657 0.0020972518 -0.0015935615
0003c0 59 2e 80 bc 93 9a 4a bc 10 21 48 3a f5 10 3d bb
       -0.0156471 -0.012365955 0.0007634321 -0.0028849219
0003d0 2d e6 59 ba 20 70 21 bc 5b 72 2d 3c 78 a9 37 3c
       -0.0008312192 -0.009853393 0.0105863465 0.011209838
0003e0 15 00 0a 3c 59 8e 06 3c a6 15 c3 3b 4d dd c0 bb
       0.008422871 0.008212649 0.0059535084 -0.005885756
0003f0 3f f4 fc 3b 06 8e b6 3b 55 87 57 3b 98 6a e1 3b
       0.007719546 0.0055711297 0.003288706 0.006879162

action_model._discrete_distribution.branches.1.bias f4 [13]
000000 e0 d9 48 bb b4 83 51 3b 9f 2d 54 bb 6c d4 fe bb
       -0.0030647442 0.003196937 -0.0032375825 -0.0077767875
000010 74 75 d6 3a 5f cb bb 3a 4e c0 2f bb 0d 90 54 3a
       0.0016361908 0.0014327577 -0.0026817503 0.00081086234
000020 2b 2d 9e bb 27 20 92 3b 91 a2 c9 ba 76 fd 13 3c
       -0.004827162 0.0044593993 -0.0015383532 0.009032598
000030 77 bc 23 3b
       0.002498416

action_model._discrete_distribution.branches.2.weight f4 [13, 142]
000000 7d 5f db 3b 30 12 9b ba 2d 03 93 bc cb 48 2b 3b
       0.0066947327 -0.0011830982 -0.01794585 0.0026135917
000010 90 2b 6a bc 08 cf cc 3b c5 52 89 3b c8 38 9e bc
       -0.014292613 0.006250266 0.004190775 -0.019314185
000020 4e 64 27 3b 45 e7 04 bc f8 f5 a2 3b 4a 59 27 3a
       0.0025541964 -0.00811178 0.0049731694 0.00063838495
000030 3c 1d c3 3a 7e 41 c0 3b 8c 9f 83 bc 62 92 e0 3b
       0.0014886032 0.0058671823 -0.016067289 0.0068533877
000040 18 b5 60 bc 62 e4 46 3c 1a b0 30 bc 8a 44 0e 3c
       -0.013715051 0.012139412 -0.010784173 0.008683333
000050 8d ee 9d bc c1 03 ba ba ad f2 06 bc 83 0f 51 3c
       -0.019278789 -0.0014191793 -0.008236569 0.012760046
000060 90 65 76 bc de 85 30 3a ed 31 9a bc fd e2 53 b9
       -0.015038863 0.0006733815 -0.018822635 -0.00020207088
000070 9b 86 cf 3b 61 b6 b0 3b 16 e8 e5 bb 72 4b e1 3b
       0.006333185 0.005392835 -0.007016192 0.006875449
000080 f3 74 82 bc 8a 37 9c bb 29 f2 a2 bc 25 90 d3 3b
       -0.015924906 -0.004767363 -0.019890862 0.0064563924
000090 ae 82 44 bc 71 59 a9 3c dc 39 fb bb 25 09 8a bc
       -0.011994047 0.020672532 -0.0076668095 -0.016850064
0000a0 b0 10 d0 b9 74 28 08 3c 5c 2b eb 3b 89 52 99 3b
       -0.00039685285 0.008310426 0.0071767997 0.0046790284
0000b0 3c 24 c1 3a fe 12 00 bc 24 0a a8 3b fc 48 c1 3b
       0.001473553 -0.007817028 0.005128162 0.005898593
0000c0 4b 8c f8 3b f9 4a f7 bb d6 47 14 bc ef e5 87 3c
       0.0075850836 -0.0075467792 -0.00905033 0.016589133
0000d0 20 65 3e 3b e4 7d 7c bb 1b f8 24 bc d5 61 7b bc
       0.0029051974 -0.0038527185 -0.010068919 -0.015343149
0000e0 5b 7d 31 3b 92 d3 88 38 70 f2 09 bb 3a bc 72 bc
       0.0027082774 6.5243934e-05 -0.0021049045 -0.0148153845
0000f0 73 d0 08 3b db 77 1a 3b 4e 35 1c bc e8 e3 a4 bb
       0.0020876199 0.0023569975 -0.009534193 -0.0050320514
000100 1b 2c d9 bb d3 f5 0e 3b e6 da 8e 3a 66 05 d1 bb
       -0.0066275722 0.0021814003 0.0010898977 -0.0063788174
000110 96 8e e2 3b 5b 70 bb bc 66 a5 03 3c 65 c8 5d bc
       0.00691397 -0.022880724 0.0080350395 -0.013536547
000120 6f d7 93 3b 24 ba 02 3c ab 30 de 3b 7a d5 a7 bc
       0.0045117657 0.00797895 0.006780704 -0.020487536
000130 bb e6 21 bb 66 98 52 bb 28 68 44 3c 85 1d 82 3c
       -0.0024704176 -0.0032134294 0.011987723 0.015883217
000140 17 07 ae 3a 26 09 98 bb 5b 9b 23 3c ba 5a e6 3b
       0.001327726 -0.0046397625 0.00998577 0.0070298584
000150 21 a3 ab ba fa 08 59 3c 07 4f 33 bc 65 86 c0 3b
       -0.0013094881 0.013246769 -0.010944135 0.005875396
000160 4c 30 28 3a 5f 2a 5f bc fe e1 4b bc 9a 2b ba ba
       0.0006415888 -0.013620942 -0.012444017 -0.0014203668
000170 6c 10 21 3c 0d 89 eb bb 66 1f 83 bc d6 37 a9 3b
       0.009830575 -0.0071879686 -0.016006183 0.005164127
000180 8a a6 16 bb 14 32 62 38 d8 2d be bb c2 9a 54 bc
       -0.0022987449 5.3929238e-05 -0.005803805 -0.01297635
000190 86 7d 03 bc f5 1b 9d bc d4 26 97 bc c7 22 79 3a
       -0.008025533 -0.01917837 -0.018451132 0.00095037784
0001a0 f3 ec af 3b 62 5f 03 3b fb eb 89 bc f4 c0 a6 bc
       0.0053688227 0.0020045866 -0.016836157 -0.02035568
0001b0 ec 9a c3 ba ec 10 82 bc 5a 75 e1 ba d8 fc d9 39
       -0.001492349 -0.01587721 -0.0017201111 0.0004157785
0001c0 d1 b9 ae bb 28 c0 9f bb f7 b9 01 3d 02 56 3b b9
       -0.0053322096 -0.0048752017 0.03167149 -0.0001786575
0001d0 fe 3f 9c ba c4 63 77 bb 03 88 2d bc b9 ed 8a 3c
       -0.0011920927 -0.0037748674 -0.01059151 0.016959058
0001e0 cc 85 58 bb b0 f3 b6 3c f5 56 5a bc 3f ff 6b bc
       -0.0033038734 0.022332996 -0.013326396 -0.014404117
0001f0 c9 e3 98 b9 bd 39 22 3b 95 67 92 bc 92 89 53 ba
       -0.00029161412 0.0024753653 -0.017871657 -0.0008069511
000200 d7 3e 76 3c 5f 96 19 bc 2a 69 93 bb 95 9d b7 bb
       0.015029631 -0.00937423 -0.0044986205 -0.005603502
000210 ac 13 15 bc 8e b3 93 3a 04 0d 05 3b bb 2d 14 bc
       -0.009098928 0.0011268721 0.0020301947 -0.009044106
000220 d1 6b 22 bc 94 09 aa bb 3a 77 83 bb 1a d7 53 3b
       -0.009913401 -0.00518913 -0.0040120156 0.0032324255
000230 6f 4d ea bb 11 f6 3d bb db b7 9f 3c 25 fd 83 bc
       -0.007150344 -0.0028985778 0.019496849 -0.01611192
000240 85 ab 50 bc 48 58 5a bc 2b ee 62 3c b6 e9 6e bc
       -0.012736206 -0.013326712 0.013850729 -0.014582088
000250 6e 2d 4c bc 1b 93 b1 bb c1 2e 9e 39 bd 71 5d 3c
       -0.012462003 -0.0054191477 0.00030170943 0.013515887
000260 78 6c d5 ba 91 13 d1 3c 10 55 89 bb 9f 3a fe 3a
       -0.0016282937 0.025522025 -0.0041910484 0.0019396133
000270 46 82 4b bc b2 03 be ba 2b 7d 3e 3c 22 05 06 bc
       -0.012421196 -0.0014496951 0.011626522 -0.008179935
000280 5b a7 65 3b f3 4c a3 bc 4d 0d b8 bc 2c f5 7b 3c
       0.0035042379 -0.019934153 -0.02246728 0.015378278
000290 88 6f c0 bb 24 01 42 ba e0 e2 d9 ba c8 82 62 bc
       -0.0058726706 -0.00074006827 -0.00166234 -0.013825126
0002a0 eb b0 9b 3b b5 e5 52 3b 83 48 c3 3a 9c 55 9d bb
       0.004751315 0.0032180373 0.001489893 -0.004801465
0002b0 69 e7 79 bb be a9 a0 39 f8 0c 96 3b 7c 67 56 bb
       -0.0038132316 0.00030644046 0.0045791827 -0.003271549
0002c0 02 c5 88 3b 8d 06 c2 3c c0 af b2 3a 34 88 1c 3c
       0.004173876 0.023684764 0.00136327 0.009553958
0002d0 b4 30 dc 3a da 90 0f bc 37 4a cd bb e4 21 32 bb
       0.0016799183 -0.008762563 -0.0062649506 -0.0027180845
0002e0 86 ee 2c ba 90 e6 da 3a 2e 79 80 3b 7b 7d d7 bb
       -0.0006596822 0.0016700793 0.0039206957 -0.0065762377
0002f0 0d 07 4a bc cf d6 02 bc 56 65 e1 bb 74 a2 b9 3b
       -0.012330783 -0.007985785 -0.0068785353 0.005665118
000300 08 4d 9f 3b 07 4a 1d 3c 4d d8 0f bc b7 b9 30 3c
       0.0048614778 0.009600169 -0.0087795975 0.010786465
000310 c6 13 59 bb 00 39 ba bb 61 c7 65 bb f2 7f b2 39
       -0.0033123358 -0.0056830645 -0.0035061466 0.00034046132
000320 e6 ee 1e bb 64 a2 d1 3a 13 cb 82 ba 9e 46 96 3b
       -0.0024251281 0.0015993831 -0.0009978734 0.004586055
000330 86 de a6 3a 2f bc 2b 3b ad fd 77 3b 7f b2 b1 bc
       0.0012731112 0.0026204695 0.0037840412 -0.021691559
000340 b5 e0 bc 3b 91 f7 e0 b9 d0 4e 02 3b 11 50 65 3b
       0.005764092 -0.0004290906 0.0019883402 0.003499035
000350 fb 23 92 bb dc ed 66 bc e6 9e 96 bb eb 51 5e bc
       -0.0044598556 -0.014094796 -0.004596579 -0.013569335
000360 37 97 43 3c 1c 35 2a 3b 13 0e b1 3b 53 a3 3c 3c
       0.011937908 0.0025971597 0.005403289 0.011513549
000370 8f 91 ea 3b 04 a6 5e 3c 13 40 d9 bb cf fb 07 bc
       0.007158465 0.013589386 -0.0066299527 -0.008299782
000380 ea 33 6e 38 c2 b3 7b 3b 55 cd 7e bc a5 d9 cc bb
       5.679197e-05 0.0038406705 -0.015551885 -0.006251531
000390 96 93 34 bc 38 f5 26 3c de bb ef bb 16 a6 55 bc
       -0.011021515 0.010190301 -0.0073160967 -0.013040086
0003a0 2b 8f 82 bc a2 4c 5b bb f2 aa 08 3c 80 19 8d 3c
       -0.015937408 -0.0033462425 0.008341538 0.017224073
0003b0 6e 9c 1b bc f7 87 c0 ba f5 a0 a3 3a 0d d8 37 bb
       -0.009497745 -0.0014688958 0.0012483882 -0.002805236
0003c0 13 0a de bb dd 1f 14 bc 51 7d c6 bb 89 09 71 bb
       -0.0067761033 -0.0090408 -0.0060574193 -0.0036779365
0003d0 61 e3 08 bc d9 5f 92 3b 47 56 87 bc 4d 7c 94 3b
       -0.008354993 0.0044669923 -0.016520632 0.0045314194
0003e0 ad 06 86 3b 28 41 7c 3b b7 e7 ba bb 68 70 aa 3c
       0.0040901513 0.0038490985 -0.005703892 0.020805553
0003f0 a4 49 24 3c b8 18 13 3b c8 dd 33 ba 40 8d 87 ba
       0.010027323 0.0022445153 -0.0006861356 -0.0010341778

action_model._discrete_distribution.branches.2.bias f4 [13]
000000 96 47 e4 bb bf 82 8c 3b 10 c0 d5 3b 73 95 ae bb
       -0.0069665415 0.004288047 0.00652314 -0.0053278743
000010 d1 c7 d4 3b 88 75 10 bb 7f d9 81 3b a3 4e b7 bb
       0.0064935465 -0.002204271 0.003962695 -0.005594091
000020 b0 09 09 3b fd b4 fe 3a 58 8e d4 bb 27 7c 6a bb
       0.0020910315 0.0019432601 -0.0064866953 -0.0035779567
000030 6c 86 46 bb
       -0.0030292524
