results/NewTwoAgentsFullBoardAction/BlackMLAgent/BlackMLAgent-154.onnx (onnx, 681198 bytes, 133 tensors)

discrete_act_size_vector f4 [1, 64]
000000 00 00 50 41 00 00 50 41 00 00 50 41 00 00 50 41
       13.0 13.0 13.0 13.0
000010 00 00 50 41 00 00 50 41 00 00 50 41 00 00 50 41
       13.0 13.0 13.0 13.0
000020 00 00 50 41 00 00 50 41 00 00 50 41 00 00 50 41
       13.0 13.0 13.0 13.0
000030 00 00 50 41 00 00 50 41 00 00 50 41 00 00 50 41
       13.0 13.0 13.0 13.0
000040 00 00 50 41 00 00 50 41 00 00 50 41 00 00 50 41
       13.0 13.0 13.0 13.0
000050 00 00 50 41 00 00 50 41 00 00 50 41 00 00 50 41
       13.0 13.0 13.0 13.0
000060 00 00 50 41 00 00 50 41 00 00 50 41 00 00 50 41
       13.0 13.0 13.0 13.0
000070 00 00 50 41 00 00 50 41 00 00 50 41 00 00 50 41
       13.0 13.0 13.0 13.0
000080 00 00 50 41 00 00 50 41 00 00 50 41 00 00 50 41
       13.0 13.0 13.0 13.0
000090 00 00 50 41 00 00 50 41 00 00 50 41 00 00 50 41
       13.0 13.0 13.0 13.0
0000a0 00 00 50 41 00 00 50 41 00 00 50 41 00 00 50 41
       13.0 13.0 13.0 13.0
0000b0 00 00 50 41 00 00 50 41 00 00 50 41 00 00 50 41
       13.0 13.0 13.0 13.0
0000c0 00 00 50 41 00 00 50 41 00 00 50 41 00 00 50 41
       13.0 13.0 13.0 13.0
0000d0 00 00 50 41 00 00 50 41 00 00 50 41 00 00 50 41
       13.0 13.0 13.0 13.0
0000e0 00 00 50 41 00 00 50 41 00 00 50 41 00 00 50 41
       13.0 13.0 13.0 13.0
0000f0 00 00 50 41 00 00 50 41 00 00 50 41 00 00 50 41
       13.0 13.0 13.0 13.0

network_body._body_endoder.seq_layers.0.weight f4 [142, 71]
000000 95 6e 36 3d 40 5a a5 b9 57 b6 04 bd 02 34 91 b9
       0.044539053 -0.00031538494 -0.032400455 -0.00027695304
000010 f8 bd a9 3d 8a 7f bd bd e5 68 e3 bc df c6 82 3d
       0.08288187 -0.09252842 -0.027759979 0.06385588
000020 e8 a5 da 3d 06 15 f6 3d 57 4c f5 3d 88 01 eb 3d
       0.10676175 0.12015729 0.11977451 0.114749014
000030 5a 3e 89 3d b9 29 a0 be c2 a4 ac bd 91 ac 09 3e
       0.06701346 -0.31281832 -0.084298626 0.13444735
000040 a0 bb 8c bd f8 00 a3 3d 34 26 fa bc c8 82 49 bd
       -0.06871724 0.07959169 -0.030535795 -0.04919699
000050 49 8a ce 3d 03 6e 40 be 84 65 28 bb 69 68 e8 b9
       0.100849696 -0.18791966 -0.0025695274 -0.0004432828
000060 29 b8 81 bd 9c f8 43 bd 90 dd 1b bb d3 d9 81 3d
       -0.06333954 -0.047844514 -0.0023783185 0.06340375
000070 56 a3 d4 ba 14 4a 26 3e e1 7f 9a 3b 9e 40 8c bd
       -0.0016222994 0.16239196 0.0047149514 -0.06848262
000080 d3 4c bf 3d 9d d4 f5 bc 2c c7 03 be b8 8d a7 bc
       0.09340825 -0.030008608 -0.12868947 -0.020453319
000090 02 e4 9f bd 9e be b8 3c 2e 72 98 3d 1e 5c ab bd
       -0.07807161 0.02255183 0.07443653 -0.08367179
0000a0 fc ff a7 3e a5 e3 dd bd 55 17 7a 3d 1b 1c 00 bc
       0.32812488 -0.108344354 0.061057407 -0.007819201
0000b0 6a d7 84 bc 3f cc b5 3c 70 fa 2e bd 1e 17 45 3e
       -0.016215999 0.022192119 -0.042719305 0.192471
0000c0 1f b2 78 3d 67 56 44 be 10 fe 83 3c 52 51 c8 bc
       0.060716745 -0.19173585 0.016112357 -0.024452839
0000d0 c4 f2 19 be 86 e4 13 3d 9c f0 29 3e 10 16 d8 bd
       -0.15034014 0.03610661 0.16595691 -0.10551083
0000e0 9d 79 12 3e 4d 5f ac be 87 23 27 bd bd 05 ca 3c
       0.14304204 -0.3366646 -0.040805366 0.02466094
0000f0 8d 0d 5b 3d 90 35 af 3c 39 c3 49 be d4 f2 ff bb
       0.05347972 0.021387845 -0.19703378 -0.00781093
000100 1e fb 1b 3d d1 0e 00 be 9f 0a ee 3d 77 4a 7d 3e
       0.03808128 -0.12505652 0.116231196 0.24735437
000110 6a 32 2b 3a 79 31 22 3d 95 c9 22 bd 99 dc 30 3d
       0.00065306446 0.039597962 -0.039743025 0.04317913
000120 32 f2 cc 3d 7a 6e 4a 3e ca 31 81 3d 28 56 4e be
       0.100071326 0.19768706 0.06308325 -0.20150054
000130 46 fd 84 3e 94 ea 5a bb 9a 00 19 3c a7 e9 c2 bd
       0.25974482 -0.003340398 0.009338522 -0.09517222
000140 44 b6 31 3d 93 9f 57 be 05 ce 1d 3e b4 bf 8e bd
       0.043386713 -0.21056966 0.15410621 -0.06970158
000150 f4 98 77 3d 0f 8d 09 3e 9f af 5f be b8 6f e5 3d
       0.0604486 0.13432716 -0.21844338 0.11202949
000160 e9 4b 3e bd 5c 17 07 3e 81 4a 03 3d 95 65 1e be
       -0.046459112 0.13192505 0.032053474 -0.15468438
000170 bb d9 4e 3e e6 ad ce b9 de db ed 3c e3 36 d8 bc
       0.20200245 -0.00039420946 0.029035505 -0.02639336
000180 d4 60 10 3e b5 db 51 3e 8a 3c 50 3c e4 9c 3f 3e
       0.14099437 0.20493968 0.012709746 0.18712193
000190 ed 6a 6e be 8f eb a2 bc f7 3d 9d 3e 14 d4 98 bb
       -0.23282976 -0.019887714 0.30711338 -0.0046639536
0001a0 c5 b5 1d 3d f0 72 12 be ed 12 50 bc ef be 05 3d
       0.038503427 -0.14301658 -0.012699825 0.03265279
0001b0 d8 73 49 3d fa fd 43 be c6 85 1a 3c af de 6a bd
       0.049182743 -0.19139853 0.009431308 -0.057341274
0001c0 84 50 99 bd ec 20 1d bd d0 b4 88 3d 21 07 2d 3e
       -0.0748606 -0.038361475 0.06675112 0.1689725
0001d0 50 02 18 3e 09 e0 dd 3c d3 15 f8 3d 3c 30 21 3e
       0.14844632 0.027084367 0.12113538 0.15741056
0001e0 3b 89 43 bd 65 79 07 3e ce 73 00 3e 13 7a 07 bd
       -0.047738295 0.13229902 0.12544176 -0.033075403
0001f0 bb a6 d2 bd 76 75 d6 bd 87 b0 2f 3e 4d 26 b9 3d
       -0.102857076 -0.10471623 0.17157184 0.090405084
000200 93 51 e4 3b 98 1a c0 3c 8c 50 2a 3d 17 a0 59 3e
       0.006967732 0.02345018 0.04158072 0.21252476
000210 82 dd 60 be 48 a4 1f 3d 5b ce c2 ba db a6 b4 3d
       -0.21959499 0.03897503 -0.0014862524 0.08820888
000220 94 78 18 3d 40 26 4e be 0b 8b d4 bc 89 59 49 3e
       0.037224367 -0.20131779 -0.025945207 0.19663061
000230 60 94 31 be cf 25 25 bd 51 c6 56 3e 3d b9 3c 3e
       -0.17341757 -0.04031926 0.20974089 0.18430038
000240 c7 8b ad 3c 6d 4e 4b 3d 99 4a 90 3c 39 3c 0f bd
       0.021184815 0.04963534 0.017613696 -0.034969542
000250 cb f1 08 be ca 29 f9 3a 58 37 fd bd 5f 68 91 3d
       -0.13373487 0.0019009646 -0.123640716 0.07099985
000260 89 7c 7d 3e 79 7f fd bc 77 61 18 3d f4 e0 59 3c
       0.24754538 -0.030944573 0.037202325 0.013298262
000270 ba 70 ca 3b df d2 26 bd aa 6a c7 bc 0f 79 09 bd
       0.006177989 -0.040728446 -0.024342854 -0.033562716
000280 fa 3a 68 3d c9 1f 70 be 94 8a 38 3d 32 d9 e0 bd
       0.05669687 -0.23449625 0.045054033 -0.10978927
000290 c2 88 66 be e8 77 30 bd 2c c8 41 bd 20 30 8e 3a
       -0.22513106 -0.0430831 -0.04731004 0.0010848083
0002a0 59 75 46 be ce 04 1a 3c 71 0d 0b bc b3 62 58 bd
       -0.19380702 0.00940056 -0.008487091 -0.052828502
0002b0 b1 2c 8e 3d cc 9f df bd b1 4f 16 3e 80 8b 3a 3d
       0.06942118 -0.10919151 0.14678837 0.045543194
0002c0 42 ff 6b be c6 8f 00 3e f6 b7 1a be 4c f0 85 3d
       -0.23046592 0.12554845 -0.15109238 0.065399736
0002d0 47 8f f0 3d 0f 24 f6 3d 9c 25 d6 3c 47 29 04 3c
       0.11746078 0.120185964 0.02614098 0.008066482
0002e0 9a 6c 64 be 98 88 28 3e e0 a5 f9 bc 89 c6 30 3d
       -0.22307053 0.16458356 -0.030474603 0.043158088
0002f0 e1 e9 c0 39 4a 03 6b 3e 3c ea 6f 3d b8 f2 da bd
       0.00036795347 0.22950473 0.058572993 -0.10690826
000300 68 ff 95 3d 3c 68 8e 3e be 5d 50 be be ac 66 3e
       0.073241055 0.278139 -0.2034826 0.22526833
000310 9b 22 21 3e cf a5 fc 3d b0 26 62 bc 0a 51 9f bc
       0.15735857 0.12336313 -0.013803169 -0.019447822
000320 68 4a 86 3e b3 fa 10 3e e5 41 83 bd 99 33 10 be
       0.26228642 0.14158134 -0.06409053 -0.14082183
000330 8c 0a 4d bd 5b 20 8c bc 8c cf 53 be 75 01 0c bd
       -0.050058886 -0.017105272 -0.20684642 -0.034181077
000340 40 52 c8 3b 5d d5 1d be 26 f7 b4 bd 10 61 3a 3e
       0.0061133206 -0.15413423 -0.08836202 0.18201089
000350 97 32 0c 3d 20 d5 a3 bb fc 5f 37 be 96 e5 3f bd
       0.034227934 -0.0049997717 -0.17907709 -0.04684981
000360 bd 02 6c 3c 5f d3 0b 3e 22 c5 7f 3d 37 e5 50 bd
       0.01440495 0.1365485 0.06244386 -0.050999846
000370 9b 14 d4 3d 79 bd 56 3d 12 60 7b 3d 0a bd 91 3d
       0.10355493 0.05242679 0.061370917 0.071161345
000380 bd 20 a6 3e 24 44 f1 bd 1e d7 08 be c9 34 7a 3d
       0.32446852 -0.11780575 -0.1336331 0.061085496
000390 b8 48 18 bd 69 9e dc bd 6a e5 44 bd 74 d4 a5 3d
       -0.037178725 -0.10772402 -0.04807035 0.08097163
0003a0 d3 ca b0 3d da 0d 1a be ee 84 33 3e 1b bc 20 bd
       0.08632436 -0.15044346 0.17531177 -0.03924189
0003b0 29 f8 42 bd 92 61 0f be ad be 52 3c 3b 7d e6 3d
       -0.047599945 -0.14002064 0.012862843 0.112543546
0003c0 ed 3f 50 be 0b cf c8 3c 45 63 30 3e fd 75 c8 3a
       -0.20336886 0.024512788 0.17225368 0.0015293952
0003d0 17 71 6a 3d 00 f3 01 3e 5e 1a 82 be 3d 4a 32 3d
       0.057236757 0.12690353 -0.25410742 0.04352783
0003e0 5b b5 90 bd 65 bf a4 bd 47 5d 01 3d 8e 1e 51 3c
       -0.07065841 -0.08044318 0.031583097 0.012763632
0003f0 c0 f7 d3 3c 3d a7 b5 3c d6 c8 0a be 8b ff 59 3e
       0.025874972 0.022174472 -0.13553175 0.21288888

network_body._body_endoder.seq_layers.0.bias f4 [142]
000000 d1 60 78 3b fc 32 b7 3b 84 d8 9b 3b 2e 1f 66 3b
       0.0037899504 0.0055907946 0.0047560353 0.00351138
000010 36 fa 50 3b 16 a7 e6 38 08 6f c4 3b b7 51 fb 3a
       0.0031887419 0.00010998377 0.0059946813 0.0019174133
000020 9d 24 dc 3a 1d 05 c0 3b bb f6 e5 3b 22 22 ec 3a
       0.001679558 0.0058599846 0.007017938 0.0018015543
000030 4b ff 7a 3b 15 0d da 3b fb 6e bc 3b f3 d1 f2 3b
       0.003829914 0.0066543915 0.0057505346 0.007410282
000040 6e 57 06 3c 92 6b b0 3a a4 37 73 bb be 78 ed ba
       0.008199556 0.0013459793 -0.0037112022 -0.0018117649
000050 3f 0c 04 3c f0 04 cd 38 cd 19 87 ba c0 29 af 3b
       0.00805956 9.7760814e-05 -0.0010307372 0.005345553
000060 16 5d 8e 3b 8a bb db 3a 00 15 09 bb 2c 5b 64 ba
       0.004344593 0.0016764265 -0.0020917058 -0.00087110954
000070 ed 54 b1 3b 79 08 03 3c 72 3c c6 3b 8f e3 82 3b
       0.0054117353 0.0079976255 0.006049686 0.0039944123
000080 8f 46 c1 3a 7a 42 0b 3c cc e5 0b 3c db c9 f9 3a
       0.001474576 0.008499736 0.008538675 0.001905735
000090 93 45 f7 3b 9c 51 50 3b 82 28 f4 3a 4b da 7f 3b
       0.0075461357 0.0031786924 0.0018627795 0.0039040025
0000a0 07 ff f2 3b 63 c9 2c b9 3c af 93 bb 65 48 a6 3b
       0.0074156555 -0.0001647822 -0.0045069735 0.005074548
0000b0 d0 64 15 3c f5 d0 07 3c 7a c6 8a 3b 51 d6 cf 3b
       0.009118274 0.008289565 0.004235086 0.006342687
0000c0 13 5a 02 3c 9b 46 38 bb 82 10 9e 3b 2a 3f 29 3b
       0.007956046 -0.0028118256 0.004823745 0.0025825002
0000d0 b5 e9 85 3b 31 f8 ae 3b c2 4d d5 3b 01 b9 cc 3a
       0.004086698 0.0053396453 0.0065095136 0.00156191
0000e0 90 8d bd 3b c7 a0 b0 3a 74 aa ad 3b 42 7d 1e 3c
       0.005784698 0.001347565 0.0052998606 0.0096734185
0000f0 da a4 93 3b cd 44 23 3c 9a f4 9f 3b 2f 05 61 3b
       0.004505736 0.009965134 0.0048814537 0.0034335365
000100 4b 34 cd bb 9b 2d 8e bb 4c f3 cf 3b ee c6 7c 3b
       -0.0062623373 -0.0043389327 0.006346142 0.003857072
000110 28 27 5b 3b 97 6a ce 3b e3 09 b7 3a 94 09 95 ba
       0.0033440087 0.0062993276 0.0013964738 -0.0011370652
000120 d4 f9 5b 3b 0f 73 0c 3c 75 a4 14 bb 71 59 82 3b
       0.0033565657 0.008572354 -0.0022681032 0.0039779474
000130 b5 64 d3 bb cc f2 66 3b e8 5e 5c 3a 95 e7 79 bb
       -0.006451214 0.0035239933 0.0008406476 -0.0038132418
000140 01 e8 f3 3b 3b 06 48 3b 4b f5 7b 3b 1f 52 62 3b
       0.0074434285 0.0030521292 0.0038445767 0.0034533811
000150 cd 76 0a 3b 9f 67 ca 3b 35 29 3c 3b 21 71 0c 3b
       0.002112794 0.0061769034 0.0028711085 0.0021429735
000160 07 3d dc bb 84 3e 18 3b 7c 00 9e 3b 1e bf 9a 3b
       -0.006721142 0.0023230622 0.004821835 0.00472249
000170 b9 04 88 3b 37 7f f4 3b 7e 9e 1b 3c a3 3d 70 3b
       0.0041509536 0.0074614543 0.009498237 0.0036657832
000180 2d 14 46 3b ec 7b f8 3b 04 f2 dd ba bf 58 b5 3b
       0.0030224428 0.007583132 -0.0016933088 0.005534261
000190 b9 79 05 3c 98 0e 70 bb d2 26 df 3b df d1 1a 3c
       0.008146697 -0.0036629792 0.0068100477 0.009449451
0001a0 b8 2c 85 3b 1f 8a fa ba 01 4d c0 3b a0 1f ea bb
       0.004064169 -0.001911465 0.0058685546 -0.0071448833
0001b0 50 cc 8a bb 1b 12 53 3b 24 28 c1 bb 30 37 cb 3b
       -0.0042357817 0.0032206837 -0.0058946777 0.006201647
0001c0 81 7d 34 3b 1f c5 01 3c cf b2 df 3b 52 d6 81 3b
       0.0027540626 0.0079205325 0.0068267356 0.0039623166
0001d0 12 0d 47 3b b0 fd fa 3a a2 23 84 3b da ea 13 bb
       0.003037278 0.0019149091 0.004032568 -0.0022570402
0001e0 d4 41 8c 3b 3d 62 b4 3b 8c 46 94 b9 1a f3 4a bb
       0.0042803083 0.005504875 -0.0002828132 -0.0030967654
0001f0 4c 9c c9 3b 21 94 5b 3b ed eb bd 3b 39 b5 89 3b
       0.0061526652 0.003350504 0.005795947 0.0042025116
000200 ec 94 3e 3b 8d 88 04 3c 1d 9b 16 3b e4 76 c4 b8
       0.0029080464 0.008089197 0.0022980638 -9.3681534e-05
000210 48 a7 f7 3b 21 f0 0f ba 9e 80 e1 3a 5d 1c 0a 3c
       0.0075577833 -0.0005490799 0.0017204469 0.008429614
000220 38 6e d8 3b 81 99 49 3b 9f b6 3a 3b 48 5b 9a 3b
       0.006604936 0.0030761661 0.0028490198 0.0047105886
000230 f4 4f 2f 3c e4 4a c1 3b
       0.010700215 0.0058988202

network_body._body_endoder.seq_layers.2.weight f4 [142, 142]
000000 fb d2 01 3e c8 11 7b bd 4f 11 ec bd 7b dd 1a 3e
       0.12678139 -0.061296254 -0.11526739 0.1512355
000010 bf 7d 5c bd 8f 00 d8 bb 0f da 4d 3c 6d 9b 48 3e
       -0.05383086 -0.0065918635 0.012564196 0.1959054
000020 67 5f 9c 3d d1 95 5e bd aa cc 8c 3d f4 21 3e 3d
       0.07635384 -0.054342095 0.06874974 0.0464191
000030 d0 0b b2 bd f3 0d ac 3d e0 26 94 bc c3 db d9 3d
       -0.08693659 0.08401098 -0.018084943 0.10637619
000040 86 fe f7 bc 40 d1 74 3d 03 91 b5 3a 75 ac 04 3e
       -0.030272733 0.05976987 0.0013852421 0.12956412
000050 11 d0 ce 3b eb 6f 84 bd ef 37 c0 3d d8 6b 3f 3e
       0.0063114245 -0.06466659 0.093856685 0.18693483
000060 41 c4 de bd 5f 1d df bb 74 fe b5 3b 07 b8 e4 bd
       -0.10877276 -0.006808921 0.005554015 -0.11167913
000070 d4 eb f4 bd 1b 93 2c bd c3 d5 0c 3e ae 3c f6 bd
       -0.11959043 -0.04213248 0.13753419 -0.120232925
000080 89 e3 ce bd 24 d2 c5 3c e6 6f 05 3e dc ae 8d bc
       -0.10101993 0.024148054 0.13030967 -0.017295294
000090 52 ff 77 3e 8e fb cc 3d 6c 40 a6 bd 9b 91 14 bc
       0.2421849 0.10008918 -0.08117756 -0.009067918
0000a0 9c 25 a8 3d 32 4e 03 be 26 38 56 3d ad 40 17 3d
       0.082102984 -0.12822798 0.05229964 0.036926914
0000b0 2a 5e 0b 3e f3 dc 3b bd a0 ce f8 3c 93 ec 20 3e
       0.1361014 -0.04586501 0.030371964 0.15715246
0000c0 7e 96 d5 3d ce b6 71 bb 00 c6 3d 3d 6a 51 a3 3c
       0.10429095 -0.0036882642 0.046331406 0.019936282
0000d0 98 33 69 3d d6 51 c3 bd d4 65 9a 3d f8 10 07 be
       0.05693397 -0.09537093 0.075389534 -0.13190067
0000e0 af c7 0c 3d 3f f4 da bd 31 ca ca bd e1 0c 5e 3c
       0.03437012 -0.106911175 -0.09901846 0.013552875
0000f0 00 7d 29 3e e1 73 05 3e a8 75 4e bd b7 dc 1d be
       0.1655159 0.13032486 -0.050405174 -0.15416227
000100 73 ef bf bd 53 70 6a bd ed 26 ad bd e6 c3 8e 3c
       -0.09371843 -0.057236027 -0.0845469 0.017427396
000110 17 04 a4 bc d6 ca d1 bb 39 79 28 bd cb dd f9 3d
       -0.020021481 -0.0064023538 -0.041131232 0.12200507
000120 43 63 93 bc 7b 69 22 3e 9d 8a bd 3d 1e c6 0c be
       -0.017991668 0.1586055 0.09254954 -0.1374745
000130 e6 38 30 bc 59 2f 81 3b cb b5 c5 bc 27 32 da bd
       -0.010755753 0.003942412 -0.024134537 -0.10654097
000140 04 f5 6a bd 66 8e d5 bd 18 0f ba 3d 60 8b d7 bc
       -0.05736257 -0.10427551 0.0908491 -0.026311576
000150 1b 85 08 bd a8 17 7f 3b 10 77 e2 bd 86 0e 13 3c
       -0.033330064 0.0038924012 -0.110578656 0.008975631
000160 8f 39 43 3d 12 0a c8 bd f9 e1 44 3e bf 21 fa 3c
       0.047662314 -0.09767546 0.19226827 0.03053367
000170 dd 75 a9 3c 01 07 e2 ba 1b 09 ac 3d f9 4d 96 3d
       0.020686084 -0.0017244519 0.08400174 0.07339091
000180 8c 1d 26 bd 93 9e f5 3c 48 ae 2b be cc f2 ab 3d
       -0.04055552 0.02998284 -0.16765702 0.08395919
000190 cf 09 62 bd e8 fa 69 3d 87 92 bb bc 60 c8 a8 3d
       -0.055185135 0.05712405 -0.022897018 0.082413435
0001a0 bd e6 fa 3d 06 c4 0f 3c 0c 25 75 3d 43 04 85 bd
       0.12251041 0.008774763 0.059849784 -0.064949535
0001b0 c3 76 ee 3c ae b1 d3 bc 37 7d 2c 3e 9f 19 28 3d
       0.029109364 -0.02584156 0.1684464 0.04104006
0001c0 aa 14 4a 3d b1 94 b8 bc 33 42 13 bd d6 d5 1c bd
       0.049336113 -0.02253184 -0.035951804 -0.038289867
0001d0 e1 f9 39 bd 93 38 e6 bc ce c5 fc 3d 80 0b 70 3d
       -0.04540432 -0.028103149 0.12342416 0.058604717
0001e0 b2 a0 8b bd 3b 3b e1 3d 72 6c 41 3c d0 e0 01 bd
       -0.068177596 0.109976254 0.0118056405 -0.03170854
0001f0 2f d8 02 3e 5b 2c b6 3d 25 f8 15 bd 77 f4 6b 3c
       0.1277778 0.08895179 -0.036613602 0.014401547
000200 f4 30 fa bc c9 4b 5d bb 3c c5 05 3d 74 fe 39 3d
       -0.03054092 -0.0033767095 0.0326588 0.04540868
000210 ef 3a e2 3d a7 4b 54 3c 34 aa 84 3c d5 ea 91 bc
       0.11046397 0.01295749 0.01619444 -0.017812172
000220 9b b2 12 3e 48 c7 0e 3b 54 f2 d7 3b 4a 4d 7e bc
       0.14325945 0.0021786261 0.006590167 -0.015521357
000230 19 e4 4e 3d 30 0a 32 3d e8 0c ad 3d 3c b5 86 3d
       0.0505105 0.043466747 0.08449727 0.065775365
000240 75 84 14 3d 7d e2 67 3c 34 b4 ea 3d b4 22 e3 bc
       0.036259133 0.01415312 0.11460152 -0.027726509
000250 4b fa 48 3d 78 0d a4 3d 67 f2 1b 3e 4b 0d 43 3d
       0.049066823 0.080103815 0.15229188 0.0476201
000260 d8 81 71 3c 0a d5 30 bd 3a fd 01 3e 4a 9d 63 39
       0.01474043 -0.04317192 0.12694255 0.00021707002
000270 1d 4d 99 3d e5 50 db 3d 01 ba 3c bd f8 41 83 3d
       0.07485411 0.10708789 -0.046075825 0.06409067
000280 b7 ae c3 3d b7 c2 f8 bc 4c 6a b5 bc b0 be a7 bd
       0.095548086 -0.030366285 -0.022145413 -0.08190668
000290 13 5e 42 3e 23 1d c5 bc d0 28 a7 3c fa 93 bc bd
       0.18981199 -0.024061745 0.020405203 -0.09207912
0002a0 79 35 3a bd 50 94 5b bd 17 bf b0 3d ad 45 32 3c
       -0.04546115 -0.05360824 0.086301975 0.01088087
0002b0 3d 7b 11 bc 30 41 05 3c 35 be cf bd c4 26 b3 3d
       -0.00887948 0.008133218 -0.10143701 0.08747628
0002c0 75 c5 e9 bd 6a 16 d7 bd e3 61 df bd 6c cd 32 3d
       -0.11414615 -0.10502322 -0.10907342 0.043652937
0002d0 1f b7 24 bd fc a8 b1 3c c2 18 08 3e ba 21 e7 bd
       -0.0402137 0.021687023 0.13290694 -0.1128573
0002e0 be 14 02 be bd 7f 5b bd 4d 0c fc 3b 9f 74 81 bd
       -0.12703225 -0.053588618 0.007691896 -0.06321072
0002f0 61 33 8c 3d 11 67 57 3d 38 ab 78 bd 82 d7 52 3e
       0.06845737 0.052588526 -0.060710162 0.20590022
000300 cb 9b ae bb ee 5f 93 bd 04 99 e5 3b 03 7d f5 3d
       -0.0053286306 -0.071960315 0.0070067663 0.11986735
000310 c4 7f 99 bd 10 fa 16 3d 52 66 b9 bb 4a 62 6d 3b
       -0.074950725 0.036859572 -0.0056579495 0.0036221915
000320 ea 1f 90 3d 41 43 de bd 09 db 09 be 8f 1f 7e bd
       0.07037337 -0.108526714 -0.13462462 -0.062041815
000330 49 bc 9b 3c f1 f4 b8 3d 5c 59 c5 bd 7e 8a 13 3d
       0.01901068 0.09031094 -0.096361846 0.03602075
000340 71 b8 ae bc c9 82 b9 3c cc 52 80 3d da 1e 8f bc
       -0.021328183 0.022645371 0.06265792 -0.017470766
000350 bd f8 73 3e e9 46 18 bc 98 54 26 bd 86 e4 91 3d
       0.23825355 -0.00929425 -0.04060802 0.071236655
000360 90 25 2d 3b a3 a7 e7 3c 4a ba 67 bc 68 4b 8a bc
       0.0026420094 0.028278178 -0.014143536 -0.01688166
000370 70 d9 0b be a4 0e 14 3e 92 71 13 bc 1d 4d cb 3d
       -0.13657165 0.1445871 -0.008999245 0.099268176
000380 cf 1d 26 ba 4e 13 14 be 89 ca 8e 3b e4 e1 db 3c
       -0.0006336839 -0.14460489 0.00435764 0.026841111
000390 8a dd 2e bd 81 0d 8b 3d 5d f1 fc bd 6f 0e bd 3c
       -0.042691745 0.06789685 -0.12350724 0.023078172
0003a0 7f f8 b5 bc ae 0a ad bc 1c a3 af 3d 47 de ad 3d
       -0.022213219 -0.021123257 0.085760325 0.08489662
0003b0 6a 11 df b8 0c da ce 3d 7c 38 94 bd af 3b dc bd
       -0.00010636712 0.10100183 -0.07237336 -0.10753571
0003c0 f2 a5 12 bd 00 70 a1 3d cb d2 0d bd 17 23 83 3d
       -0.03580279 0.078826904 -0.034624856 0.06403177
0003d0 7d d8 ab bd dc ea 71 bc 5e f6 9d 3d 42 d1 30 3d
       -0.08390901 -0.0147654675 0.077130064 0.043168314
0003e0 86 e4 27 3d 8b 43 96 3c 14 68 3e be ee c0 8e 3d
       0.04098942 0.018342754 -0.1859439 0.06970392
0003f0 67 bf 38 3d 35 9e 22 3d 1b 32 88 3e 7f 45 e2 ba
       0.04510441 0.03970166 0.26600727 -0.0017263143

network_body._body_endoder.seq_layers.2.bias f4 [142]
000000 59 2e 0b 3c 8d c9 22 3b 51 9e 67 3b 56 fa a0 3b
       0.008494937 0.0024839372 0.0035342167 0.004912655
000010 bc a7 76 3b aa fb 34 3b 2a 2d b2 3b 16 1f 01 3c
       0.0037636599 0.0027615824 0.005437513 0.007880947
000020 d8 e2 63 3b e0 70 e6 3b 91 45 98 3b 1c c6 0b 3c
       0.003477266 0.0070324987 0.004646965 0.00853112
000030 a3 d8 b9 3b 0d 51 73 3b 55 46 47 3b 83 9f a7 3b
       0.005671577 0.0037127167 0.0030406911 0.005115451
000040 c0 72 9e bb 10 1d 86 3a 41 5e 7f ba 4b 91 a4 3b
       -0.0048354566 0.001023205 -0.0009741523 0.005022203
000050 ad ce d4 3b 54 ee 88 3b ee 57 16 3b 7a b8 ae 3b
       0.0064943642 0.0041788016 0.0022940594 0.00533205
000060 50 9c f4 3b 1e 6a 3c 3b d7 d5 03 3c ac 42 02 3b
       0.007464923 0.0028749774 0.008046589 0.0019876165
000070 42 67 da 3b 88 33 6f ba 18 74 ac 3b 11 ec 5d 3b
       0.0066651413 -0.0009124805 0.005262863 0.003386263
000080 c4 b5 ad 3b f0 91 aa 3b 12 e4 e8 3b ac f4 af 3b
       0.005301209 0.0052053854 0.007107266 0.0053697433
000090 34 ca cd 3b 86 3f cc 3b df 9a 8a 3b 48 83 27 3a
       0.006280208 0.0062331585 0.004229888 0.0006390107
0000a0 cb a7 11 3c 81 a9 64 39 91 4f c2 3b 6e f6 9c 3b
       0.008890103 0.0002180692 0.005929895 0.004790119
0000b0 08 7c fd 3a b0 74 31 39 51 47 80 3b 9e 46 6b 3b
       0.0019339332 0.00016923505 0.0039147516 0.0035900245
0000c0 89 ad e6 3b 3b 14 dc 3b c5 55 bb 3b 5b e4 14 3b
       0.00703973 0.006716279 0.0057170116 0.0022719118
0000d0 f0 af 6a 3b 78 93 e0 3b c2 75 9d 3b e8 5f 57 3b
       0.0035810433 0.006853517 0.0048052976 0.003286356
0000e0 ae cc 9b 3b 76 46 fb 3a fb eb a9 3b 33 a2 ac 3b
       0.0047546243 0.0019170779 0.0051856018 0.005268359
0000f0 01 0a f2 3a ae d2 32 3b ec d7 30 b8 0e 7e e6 3b
       0.0018466116 0.002728622 -4.2162763e-05 0.00703407
000100 9d af f7 3b b9 17 29 3b 90 23 84 3b 83 28 ae 3b
       0.0075587765 0.0025801493 0.0040325597 0.005314888
000110 65 aa d5 3b cc ea c9 39 d2 cb 56 3a a5 99 8d 3b
       0.0065205568 0.00038512645 0.0008193824 0.0043212944
000120 02 6f 37 3b da 0a f4 3a 2b 75 0b 3c 7b 1e 06 3c
       0.002798975 0.0018618957 0.008511822 0.008185978
000130 c3 d6 a5 3b ca b9 05 3c ed 0a 35 3b d4 50 ba 3b
       0.005061002 0.008161971 0.002762492 0.005685905
000140 18 1f cb 3b 3b e5 1c 3a 93 26 af 3b f2 82 96 3b
       0.006198775 0.0005985086 0.0053451746 0.0045932466
000150 f4 98 8e 3b 41 a3 d5 3b a1 0c 52 3b d7 8c 9e 3b
       0.0043517295 0.0065197055 0.0032050984 0.0048385668
000160 b0 45 03 3b 45 2b d9 3b eb 45 f8 3a 16 23 b6 39
       0.002003055 0.0066274726 0.0018941736 0.00034739886
000170 ed af 80 3b 59 6f dc 3b 44 4d d4 3a e8 82 16 3b
       0.003927222 0.006727141 0.0016197343 0.002296621
000180 36 ff d5 39 e5 ad 86 3b 71 67 57 3b 84 5b ca 3b
       0.00040816673 0.0041100853 0.0032868052 0.0061754603
000190 56 10 46 3b 52 35 ab 3b db 9d bb 3b eb 95 05 b9
       0.003022214 0.005224862 0.005725605 -0.00012739717
0001a0 af 48 fc 3b 98 40 a0 b9 cc 5b 4c 3b 7a ba 40 3b
       0.0076990942 -0.00030565704 0.0031182645 0.0029408024
0001b0 d4 98 1e 3b f6 fa d4 3b 78 c9 f2 3b e7 7a 0d 3c
       0.002419998 0.0064996434 0.007409271 0.008635259
0001c0 33 3e 88 3b 3b 5f e7 3b 51 e5 1c bb be 00 01 3c
       0.0041578053 0.007060913 -0.0023940394 0.007873712
0001d0 b3 d6 93 3b 31 58 a6 3b 5a f9 3d bb a2 13 a3 3b
       0.004511678 0.005076431 -0.0028987736 0.0049767056
0001e0 a5 f1 a5 3b cc 6a 5d 3b a5 48 14 3b 62 8d 68 3b
       0.0050642067 0.003378558 0.0022626307 0.0035484661
0001f0 8d 4a e6 3b f2 14 82 3b ea 68 99 3b c2 86 dc 3b
       0.00702793 0.003969782 0.004681696 0.0067299316
000200 07 34 96 3b be 08 ec 3b c7 95 96 3b cc 6f 91 3b
       0.004583839 0.0072031906 0.0045954916 0.004438376
000210 da 45 d8 3b 5b 7e 3b 3b a6 04 3f 3b 16 e3 50 3b
       0.006600124 0.002860925 0.0029147058 0.0031873635
000220 81 9d 75 3b b5 22 9c 3b da f3 fb 3a d3 75 b1 3b
       0.0037477913 0.0047648796 0.0019222454 0.005415657
000230 94 de 6b 3b ff a3 16 3b
       0.0035990821 0.0022985933

action_model._discrete_distribution.branches.0.weight f4 [13, 142]
000000 c4 2c 0b bb 53 f0 1a 3c b4 cb 4a bb 3d fa 4b bc
       -0.00212364 0.009456712 -0.003094417 -0.012449798
000010 f1 22 91 bb c7 46 a4 3a 6b 9d 2b 3a a4 70 31 3c
       -0.004429214 0.00125333 0.00065465894 0.010830078
000020 0f d5 ee 3b a7 cb 22 3c d6 ca b4 b9 56 1a 7c bc
       0.007288582 0.00993625 -0.000344834 -0.015387138
000030 05 64 2e 3b 72 cf 5b 3b 71 2d 2f 3a fc 88 9a bb
       0.002660991 0.0033540395 0.00066824915 -0.004716037
000040 cb 7d 19 3c cf ae 1e bb e7 a9 96 bb 8a 2f 38 3c
       0.00936837 -0.002421308 -0.0045978907 0.011241803
000050 56 05 03 3c a5 75 5b bb 94 d5 8f 38 cb db c2 bb
       0.007996878 -0.003348687 6.8585534e-05 -0.0059466115
000060 8b d8 9c 3b cc eb 54 bb cd f3 dc 3b 13 bd 59 3b
       0.004786556 -0.0032489179 0.0067429305 0.003322427
000070 fc 3a 01 3a 9a 2e a2 3b 0b 0f b7 ba 73 bf a0 3b
       0.0004929749 0.004949403 -0.0013966275 0.004905635
000080 17 8d 4a bb f4 9c 54 3c 6e c7 d0 bb ca ce e3 3b
       -0.003090685 0.012976874 -0.00637143 0.0069521414
000090 a8 43 d5 3b 64 19 82 bc d5 cc 31 bc 0b c4 dc bc
       0.0065083094 -0.015881248 -0.010852058 -0.02694895
0000a0 37 02 a8 bc 2d 78 23 bc b1 7e d7 bc 33 84 24 bc
       -0.020508869 -0.009977383 -0.026305528 -0.010041284
0000b0 28 5f c1 bb c4 be 77 bc 18 52 98 3a 09 f7 b5 3b
       -0.005901236 -0.015121166 0.0011621146 0.0055531305
0000c0 69 38 95 3b 9a c4 a3 bb 76 a4 2d 3c 75 24 48 3b
       0.0045538438 -0.004997802 0.010598293 0.0030539308
0000d0 1f 63 28 bb 81 8e e6 b9 a4 d8 03 3c 1e 9e 8f b8
       -0.0025693846 -0.00043975192 0.008047257 -6.848223e-05
0000e0 d6 0d 8c bb e5 b6 58 bb d1 0d 2e 3c 5f 7f 98 bb
       -0.0042741103 -0.0033067998 0.010623411 -0.0046538557
0000f0 c0 2f 5d bc 65 93 30 3b 19 e4 52 bb 81 93 22 bc
       -0.013500154 0.0026943323 -0.0032179414 -0.009922863
000100 db 0a 0d 3b 5e 51 42 3c 2b ca 37 bc 32 9e 63 bc
       0.0021521363 0.01186022 -0.011217634 -0.013892697
000110 9d 0c 19 39 b2 94 90 bc a3 7e ab bb 22 75 2d 3a
       0.00014595916 -0.017649028 -0.005233602 0.00066168804
000120 4c db 6e 3b 44 f6 5f bb 80 5b a3 3a 05 b3 e4 bb
       0.003644663 -0.0034173885 0.0012463182 -0.0069793486
000130 be 9b 1e bc d2 da bd 3a 7a aa a4 bc d9 02 1b 3a
       -0.0096806865 0.0014484769 -0.02010082 0.0005913205
000140 80 49 2f bc 0b ab aa 3a b8 42 6f bb 19 8b 30 3b
       -0.010698676 0.0013020945 -0.0036508273 0.0026938377
000150 41 77 4f ba 02 7c 8c 3b 59 9c 25 3c 87 34 68 bb
       -0.00079141936 0.004287244 0.010108077 -0.00354317
000160 58 fe 66 3b 85 31 a2 3b 75 73 22 3c 2d cd 28 3c
       0.0035246816 0.004949751 0.009915222 0.010302824
000170 59 77 ec bb 75 ff 2f bc d6 30 b6 bb d8 d8 21 3c
       -0.007216376 -0.010742058 -0.005560021 0.00987836
000180 ac 9e 0a bc 15 b7 95 3a 64 e0 c1 3b 2b f8 8c 3a
       -0.008460682 0.001142236 0.005916642 0.0010755112
000190 8e d7 ac bb cd e5 15 bb 04 bd f0 b9 a2 5e f4 3b
       -0.0052747196 -0.0022872568 -0.00045917195 0.00745757
0001a0 21 52 97 bc b5 03 a0 bc c9 ea 18 3c 52 32 9c 39
       -0.01847178 -0.019533018 0.009333321 0.0002979213
0001b0 2a 77 8f bb 5b 44 ce b9 d5 d6 2b bc 21 e6 31 3c
       -0.004378219 -0.0003934231 -0.010488232 0.01085809
0001c0 3c ed 1b 3c 85 bd 83 bc 3a ea 08 bc 4b 86 b1 3c
       0.00951701 -0.01608158 -0.008356625 0.021670481
0001d0 b2 54 d3 3b a2 01 0c bc 80 e7 cc bb c3 12 b8 3a
       0.0064493055 -0.008545311 -0.006253183 0.0014043677
0001e0 ae a1 2b 38 0e e6 91 bb 95 af bc 3a f7 52 ed 3b
       4.0920153e-05 -0.0044524735 0.0014395589 0.007242556
0001f0 c2 ae 2b 3c c4 b9 f1 bb 08 2e 34 3a 4e 13 5d 3a
       0.010478677 -0.0073768813 0.0006873314 0.00084333576
000200 54 e8 26 3b 7f 72 14 3b 30 92 5e 3b 04 95 c2 bb
       0.0025468068 0.0022651253 0.0033961646 -0.005938174
000210 28 48 0f 3c a5 19 12 3c 09 c7 09 bb 29 0d 7e bc
       0.008745231 0.008917247 -0.0021023175 -0.015506067
000220 65 fc 7d bb 5b bf cd 3b ae 6c 8b bc 9b 15 92 3c
       -0.0038755175 0.006278915 -0.017019596 0.017832568
000230 05 f7 71 3b a9 04 ca b9 04 5e d3 ba 00 2f 0d 3c
       0.0036920917 -0.00038531914 -0.0016126041 0.008617163
000240 75 4e 27 bb 9a 5f 34 3c 02 0e 86 ba 5c 00 a1 bb
       -0.0025528942 0.011009121 -0.0010227563 -0.004913373
000250 15 af 7c 3c 64 5e 89 3b 25 32 08 3b 43 de 09 bc
       0.015422602 0.0041921604 0.0020781842 -0.008414808
000260 9f 75 a7 ba ab 52 8b ba df 28 cc 3b 23 39 65 3b
       -0.0012776143 -0.0010629495 0.006230458 0.0034976683
000270 3c 02 25 3c 29 61 42 bb 26 9b 49 bc 91 0c 00 3b
       0.0100713335 -0.0029659963 -0.012305057 0.001953874
000280 8a 38 0e 39 4f 42 3d bb 38 bf f2 ba e8 70 24 bc
       0.00013563238 -0.0028878634 -0.0018520122 -0.010036685
000290 fa 81 8a 3c 02 3d b9 bb 75 b7 8d bb e1 ec a9 3b
       0.01690768 -0.0056530247 -0.0043248483 0.005185709
0002a0 09 29 17 bc 4b 69 73 bb 05 4b b4 bb a1 73 b5 3b
       -0.009226092 -0.0037141617 -0.005502107 0.0055374657
0002b0 bb de 13 bb 9d f1 d3 ba ae a6 64 3b b0 31 b0 bb
       -0.0022563178 -0.0016170029 0.0034889388 -0.005377017
0002c0 41 4c cb bb cb 67 5e bc c5 ea 29 3c 15 28 d3 3b
       -0.0062041585 -0.013574551 0.010370915 0.006443987
0002d0 66 2a 42 bb ce dd 03 3c 2c 89 89 bb 1e bb 84 3a
       -0.0029627322 0.008048488 -0.0041972604 0.0010126566
0002e0 14 2a 2e bc 4d ed fc bb 52 92 42 3b 2d 26 ee 3b
       -0.010630149 -0.007718718 0.0029689264 0.0072677345
0002f0 46 13 ff bb 40 f0 ec 3a 97 e9 3d bc 07 67 e0 3c
       -0.00778428 0.0018076971 -0.011591337 0.027392877
000300 6d de e0 3b c9 07 76 3c ca f0 95 bb 22 17 d6 b9
       0.0068624527 0.015016505 -0.0045758234 -0.00040834496
000310 9e 12 37 bc b7 d1 ca 3a e7 f8 01 3a fc 37 e1 bb
       -0.011173872 0.0015473877 0.0004958049 -0.006873129
000320 53 af 8d 3b ce b3 07 3c 85 8c a2 ba ce 97 93 ba
       0.004323879 0.008282615 -0.0012401497 -0.0011260451
000330 28 03 c4 3b 4c 5d 53 3b 52 4a db 3b 03 bd 09 3c
       0.0059818216 0.0032251654 0.0066922093 0.00840688
000340 59 cd 13 ba df e5 73 bc d8 00 1a bb 9e 31 dc 3b
       -0.0005638204 -0.0148863485 -0.0023499038 0.006719782
000350 42 7c 8b bb e0 bd b9 bb 4d 07 61 bb 72 54 64 39
       -0.004256756 -0.005668387 -0.0034336627 0.00021775233
000360 53 36 1f ba 93 eb 4f bc df 8f 44 3c 2a 47 24 3c
       -0.00060734636 -0.012690443 0.011997192 0.010026732
000370 cb 14 81 3b 76 a9 5d ba 84 5d 0c 3c 03 fc 99 3c
       0.0039392463 -0.00084557326 0.008567218 0.018796926
000380 18 7a fe bb 96 9a 8a 3a fe 62 09 ba f8 5e 07 bb
       -0.0077660196 0.0010574635 -0.0005240886 -0.002065597
000390 a8 00 d0 3b 11 d6 78 bc 3b 82 4b 3b 43 cf 76 bc
       0.0063477345 -0.015187756 0.0031052965 -0.0150640635
0003a0 cc 55 92 bc 8c c7 9c bc 73 bf 2a 3c f0 9f 26 3c
       -0.017863177 -0.01913812 0.010421622 0.010169968
0003b0 4a 75 7f bb d1 67 11 bc 2f 1b 74 bc ce 43 09 3c
       -0.0038979822 -0.008874849 -0.014899059 0.008377982
0003c0 14 aa 32 3c 64 df 1a 3c 6a a3 d6 3b 00 63 9e 3c
       0.010904808 0.009452675 0.006550242 0.019334316
0003d0 b7 f2 1f bc 57 77 27 3b 9b 04 bd 3c 6d aa db 3b
       -0.009762458 0.002555331 0.023073485 0.006703666
0003e0 2f 30 b4 3b b2 30 a1 3b d7 7e 67 3c 92 dc 06 bc
       0.005498908 0.004919135 0.014129362 -0.008231299
0003f0 ae 76 05 3c e3 8d 6f 3b 15 0e d9 3b b5 b1 58 bc
       0.008145971 0.0036553077 0.006623993 -0.013225962

action_model._discrete_distribution.branches.0.bias f4 [13]
000000 a9 ac 29 bb 26 2f 68 3a 3f 0f 51 bb cc 94 ea 3b
       -0.0025890267 0.00088571233 -0.0031899957 0.0071588513
000010 bd e4 e8 3a c7 c8 33 3b 52 84 19 3b 9f 08 88 3a
       0.0017768365 0.0027432905 0.0023424816 0.0010378546
000020 2f 0d 5d bb d4 42 c9 b9 8a 9b 61 ba 0a a7 c0 ba
       -0.0033729782 -0.00038387498 -0.0008606246 -0.0014698219
000030 8f e4 52 3b
       0.0032179689

action_model._discrete_distribution.branches.1.weight f4 [13, 142]
000000 67 b3 d4 b9 1b d9 af bc 1c 9f 1b bb c5 6f 42 bc
       -0.00040569456 -0.021465829 -0.002374596 -0.011867468
000010 23 de af bc 05 4f 81 3c a8 20 81 bb 55 e5 1c bc
       -0.021468228 0.01578475 -0.0039406605 -0.009576161
000020 1e 3b 3e bc ea 67 d1 3b 0c be 58 3c d3 51 04 3c
       -0.011610774 0.0063905613 0.013228904 0.008076149
000030 33 97 8b 3b a2 54 e6 bb be 85 37 3c 2e b1 f9 ba
       0.0042599677 -0.007029132 0.01120132 -0.0019049996
000040 2b 77 21 3b 8e 5a f3 bb 9b bd 6b 3b 15 6f ba ba
       0.002463768 -0.0074265664 0.0035971168 -0.0014223779
000050 f3 e8 28 bc 09 13 2c 3c fc c0 85 3c df e4 80 bb
       -0.010309446 0.010502585 0.016327374 -0.0039335336
000060 2a 7c b0 3b fa 72 70 bc cd 3b 6e 3b 18 33 cc ba
       0.0053858953 -0.01467585 0.0036351562 -0.0015579192
000070 17 c6 85 3b 96 1a 0d 3c d0 18 8e 3b dc 0d 7a 3b
       0.004082452 0.008612296 0.004336454 0.0038155233
000080 fa 80 2d 3c 38 03 02 3c da c6 e2 ba 38 a4 5c bc
       0.010589832 0.007935338 -0.0017301694 -0.013466887
000090 65 82 e9 3a b3 50 f9 bb be 0a ac 3c a3 30 ee bb
       0.001781535 -0.007608497 0.021001216 -0.0072689815
0000a0 ca 53 71 bc 40 b9 e1 bb aa c7 2b bb b8 a9 a7 bc
       -0.0147294495 -0.0068885386 -0.0026211538 -0.02046667
0000b0 66 bc 0a bc d9 16 ac bb 1d 46 d9 bb 50 8d 08 3b
       -0.008467769 -0.005251747 -0.0066306726 0.0020836182
0000c0 5e af 61 3c bc 16 4f 3c 1a 4b 7e bc b3 6a a8 3a
       0.013774721 0.012639698 -0.015520835 0.0012849182
0000d0 78 18 42 3c 83 8f 6c 3b 4f 49 89 3b 7c e8 84 3b
       0.011846654 0.0036096282 0.0041896473 0.0040560346
0000e0 7d cf 82 3b 24 f9 41 3c ef 1b 30 3c 41 a5 d7 3b
       0.0039920197 0.011839185 0.010748847 0.006580979
0000f0 d4 48 00 3c e6 43 e1 3b 6d 18 f6 bb 87 8e 0a 3c
       0.007829864 0.006874549 -0.007510236 0.008456833
000100 e0 b2 e2 3c d8 75 81 bc 25 8e 61 3a 3d 24 41 3b
       0.027673185 -0.015803263 0.000860425 0.0029471063
000110 80 64 5b bb cc 8b b0 bb bd 74 63 bb d1 34 c8 ba
       -0.003347665 -0.005387759 -0.0034707033 -0.001527453
000120 d4 3a da 3a 5c c1 83 bc 4b 63 ad 3b 18 cd 64 3c
       0.0016649612 -0.016083412 0.0052913777 0.013964914
000130 6a a2 e4 3b 30 4b 09 3b be 06 38 3c 5d 45 46 39
       0.006977369 0.0020949356 0.011232076 0.00018908591
000140 2e 38 16 bc 58 6e 91 3c c2 d1 45 3b d8 43 46 3b
       -0.009168668 0.017752811 0.003018484 0.003025284
000150 04 bb ca 3c 09 ae 59 3c af 88 1a 3c 49 73 52 bb
       0.02474738 0.013286122 0.009432002 -0.0032112172
000160 aa 48 b1 3b 7a b2 00 bb de f8 5d 3b 5b e5 dc 3b
       0.0054102736 -0.001963763 0.003387026 0.0067412085
000170 e0 eb 0d bc 11 9e 11 bc 53 32 a6 3b e4 f2 e3 3b
       -0.008662194 -0.008887784 0.005071917 0.006956445
000180 21 60 50 bc 6b 99 44 bc 6b dc 9d 3c bf c0 44 bc
       -0.012718231 -0.011999468 0.019270143 -0.012008845
000190 c5 8d 66 bc 3a 29 c7 3a 43 3d 85 3c cd 41 2c bc
       -0.014071886 0.0015194782 0.016264563 -0.010513735
0001a0 55 88 83 bb d7 7b c7 3b 5b b9 e6 3b 49 b3 99 3b
       -0.004014055 0.006087761 0.007041139 0.004690562
0001b0 cc a3 51 bb 17 57 0f 3c 39 ac 50 3b 0b cc d4 bb
       -0.00319885 0.008748791 0.0031840934 -0.0064940504
0001c0 78 77 64 3c 16 56 b9 ba eb ad fe bb ec 46 97 bb
       0.013944499 -0.0014140035 -0.0077721975 -0.004616609
0001d0 3b 7b 76 3c eb 47 ab 39 4a d1 c4 ba 9c 09 68 bb
       0.015044029 0.00032669245 -0.0015015986 -0.0035406118
0001e0 a9 3a 62 3b 62 a4 3e 3c 63 93 89 bc 5b 42 14 bc
       0.0034519827 0.011635872 -0.016793912 -0.0090490235
0001f0 4f 47 52 3c db 18 24 bc 95 70 95 3c 92 3b 28 bb
       0.012834384 -0.010015692 0.01824216 -0.0025670272
000200 40 19 4a 3c ae a7 39 3c 3b b6 89 3c 9b f0 8e bb
       0.012335122 0.011331482 0.016810527 -0.0043621785
000210 b9 e1 9b 3a 2b 43 8c 3b 3f a0 62 3c 24 28 91 bc
       0.0011892832 0.004280468 0.013832151 -0.017719336
000220 fe c0 eb 3b 84 50 2d bc a3 5c b5 3b 8f f0 2e 3c
       0.0071946373 -0.010578278 0.005534725 0.010677471
000230 f6 0d ef ba 2f cd 0b 3c a4 b7 95 b9 d6 27 2e bc
       -0.0018238414 0.008532806 -0.00028556318 -0.010629615
000240 7a df f3 bb c7 32 41 3b 0c bf 7c bc 1b 19 89 bc
       -0.007442412 0.0029479729 -0.0154264085 -0.016735604
000250 f2 98 5b bb d3 06 1f bb 75 3b 85 38 60 9d 24 bc
       -0.003350791 -0.0024265542 6.353009e-05 -0.010047287
000260 19 08 34 3c f8 e1 4b 3b fc 9d 2d bc ee d6 4d 3b
       0.010988259 0.003111003 -0.010596748 0.0031408626
000270 59 8e 1e 3a 67 54 05 bb 15 83 2c bc c9 8a 27 bc
       0.0006048433 -0.0020344497 -0.010529299 -0.01022596
000280 4e 0b 5e bc 74 d3 ec ba 0a f5 75 bc 19 1a 1f bc
       -0.0135525 -0.0018068389 -0.015012035 -0.009710812
000290 ae 54 7a 3b 32 87 07 3b b4 7f 09 bb 17 9d f5 bb
       0.0038197446 0.0020679948 -0.0020980658 -0.007495533
0002a0 b1 86 44 ba 52 a2 20 bb d2 f2 38 ba 4d 2e 78 bc
       -0.0007496877 -0.0024510813 -0.0007055226 -0.015147758
0002b0 15 be e5 3b 24 d5 9d bb 36 14 05 bc f4 2a 14 3c
       0.007011185 -0.004816668 -0.008122494 0.009043444
0002c0 52 aa 5d 3b 0c 32 be 3b 29 ed af b9 69 60 5e 3c
       0.0033823443 0.005804306 -0.000335553 0.013572791
0002d0 db 6b 1a 3c fb e9 54 3c b3 7b 58 3c 62 58 20 3c
       0.009425129 0.012995238 0.013213086 0.009786697
0002e0 94 df 97 3b 30 79 fd bb fc 0a 5a bb 0b 73 ee ba
       0.004634807 -0.007735394 -0.0033270707 -0.0018192244
0002f0 a3 18 c0 3b 73 5b ab bb 66 f0 11 3a bc ea 3a bb
       0.005862312 -0.0052294075 0.0005567133 -0.002852126
000300 08 b0 68 3b cd bb 1e bc 39 b6 6c bb 8c f4 1a bc
       0.0035505313 -0.00968833 -0.0036119355 -0.009457719
000310 ca d8 97 3c d2 02 a5 ba 88 08 a2 bc b8 48 a2 3b
       0.01853599 -0.0012589341 -0.019779459 0.0049525164
000320 30 dd 8b 3b 62 a7 46 3c d7 ed 5e 3b 88 0e 54 3c
       0.004268311 0.012124868 0.0034016275 0.012942918
000330 ee 80 93 ba ea 35 96 3b bd d3 b9 bb dd 89 60 3c
       -0.0011253634 0.004584064 -0.005670993 0.013704744
000340 d7 2a c8 3b 98 70 9d bb 00 c3 22 3b 06 3e 9c 3c
       0.0061086225 -0.004804682 0.0024835467 0.019072544
000350 f0 b9 6d 3b 1e cc 31 3b e6 a6 f2 3a a1 f7 30 bc
       0.0036274157 0.002712972 0.0018512874 -0.010801227
000360 3f 0d 46 3c ca 74 1f 3c 08 d8 63 bc 78 12 e3 3b
       0.012088119 0.0097324345 -0.013906486 0.006929692
000370 e3 cd 62 ba 2e c4 9b bb 9e 88 d9 3c bf 05 03 bc
       -0.00086518953 -0.004753611 0.026554402 -0.007996975
000380 d4 0e 03 3c f5 02 5f 3c 02 d1 7d bc 75 31 0c bc
       0.007999141 0.013611545 -0.015491726 -0.008556713
000390 0d 6c 65 3b 0f 8d 2a 3c 94 3d 20 bc 6c 38 f0 bb
       0.003500703 0.010409608 -0.009780306 -0.0073309448
0003a0 cf 00 2c 3c e5 53 93 bc 45 4f 0e 3a ac 3f 97 bc
       0.01049824 -0.01798434 0.0005428682 -0.018462978
0003b0 84 32 ed 3b eb 0f e4 bb 64 01 0a 3c 34 c9 c9 3b
       0.007238688 -0.0069599054 0.008423183 0.0061580185
0003c0 44 47 88 ba 49 b7 d6 bb 4a 7b 9c bb 25 07 62 bc
       -0.0010397215 -0.006552611 -0.0047754394 -0.013795649
0003d0 a2 88 01 3c 06 39 7f bb 15 0b a1 3b dd e5 7d 3c
       0.007906111 -0.00389439 0.004914651 0.015496698
0003e0 3e 81 7f 39 25 f6 fb bb d3 6e 5e 3b 9c b9 76 bc
       0.00024366842 -0.007689255 0.0033940568 -0.015058901
0003f0 50 99 8c 3b 2e 81 66 3b 67 ef b1 bb e6 a8 0e 3c
       0.004290737 0.0035172212 -0.0054301503 0.008707261

action_model._discrete_distribution.branches.1.bias f4 [13]
000000 ee 1f f2 3b 94 f5 44 3b 3e 42 20 bb d5 ce 5b bb
       0.00738906 0.0030053603 -0.0024453546 -0.003354003
000010 97 57 1f b9 05 ef 02 3c 0b da 92 3a 7d e1 91 bb
       -0.00015196051 0.007991557 0.0011203898 -0.004451929
000020 b9 36 d5 3a 54 18 de ba 7d 11 2c bb d1 a8 b7 ba
       0.0016266919 -0.0016944506 -0.002625554 -0.0014012103
000030 9c 31 0d 3b
       0.0021544462

action_model._discrete_distribution.branches.2.weight f4 [13, 142]
000000 3e 4c 6b bc d1 8c 29 3c a8 ff d6 3b 50 b8 66 3c
       -0.014361439 0.010348515 0.0065612383 0.014082029
000010 6a 46 ce bb dd fc 68 bc 3a 1a dd 3b 01 37 2f bc
       -0.006295015 -0.014220444 0.006747511 -0.010694266
000020 13 41 2e bb 59 4a 4d ba 76 ff e9 3a 03 99 9b bc
       -0.002658908 -0.0007831208 0.0017852623 -0.01899386
000030 8c c3 c2 ba 4d 5d 42 bc bb f2 51 3c f6 c1 83 bb
       -0.0014859303 -0.011863065 0.012814219 -0.0040209247
000040 63 df 83 3b 03 b5 61 3b 1e ec c6 3a 2a 63 bb bb
       0.0040244325 0.0034440167 0.001517657 -0.0057186084
000050 0a 12 02 3c bf bd ee bb bd c0 c7 3b ec 09 d8 3b
       0.007938871 -0.007285803 0.0060959742 0.0065929797
000060 7c 50 29 bc 76 f3 b7 bb a9 7e 94 bc 08 ca 91 bb
       -0.01033413 -0.0056137396 -0.018126803 -0.004449133
000070 1e 6e bd 3b 55 be c6 3b 30 64 84 bb 3b 9c 74 bb
       0.0057809493 0.00606517 -0.0040402636 -0.0037324566
000080 e6 81 80 bb 70 1a 55 bc 28 a4 1e bc 00 b5 1e 3c
       -0.003921735 -0.0130067915 -0.009682693 0.009686708
000090 78 9b 31 bc d2 87 65 bc ad 21 13 3b 64 09 cf bb
       -0.010840289 -0.014009433 0.0022450492 -0.006318258
0000a0 e6 ee 97 ba 92 11 c5 bb 1b 32 1d bc 95 df 4d bb
       -0.0011591583 -0.0060140574 -0.009594466 -0.0031413783
0000b0 b5 0b 41 3b fc fc 0d bb 39 b8 91 bb cf 93 94 bc
       0.002945644 -0.0021665683 -0.00444701 -0.018136887
0000c0 89 2f 2e bc 58 80 02 ba 3d 49 e3 3b 6b 02 78 3c
       -0.01063145 -0.0004978231 0.006936221 0.015137295
0000d0 e3 5d 49 bc 5b 68 0e bc 5e 1f 47 3b fc f0 a9 bb
       -0.012290451 -0.0086918725 0.0030383687 -0.0051861983
0000e0 43 9f 0f bb 78 5d 64 bb 9d c8 0f 3c 9b 8a 83 ba
       -0.0021914996 -0.003484575 0.008775857 -0.0010035814
0000f0 51 d2 42 3b 92 13 0a 3c 98 73 76 bc 6c be 77 bb
       0.002972741 0.0084275175 -0.015042208 -0.003780271
000100 95 37 72 3c 93 a8 76 3b 0a 7c bf bb c3 60 80 bb
       0.01478376 0.00376371 -0.005843644 -0.003917785
000110 e4 e9 08 bc fe 7d 0d ba 81 65 90 bc 9a 5b c5 39
       -0.008356545 -0.00053974974 -0.017626526 0.00037643017
000120 97 03 b0 3b c2 36 56 b8 b1 b7 34 bc 5c da c0 bb
       0.0053715217 -5.1072573e-05 -0.011030124 -0.0058854055
000130 0e 97 cc 3a 9d db ec bb 95 5f 55 bb f1 2c b7 3b
       0.0015608983 -0.0072283284 -0.0032558192 0.005590074
000140 2a 58 ea 3b b3 80 4f bb 82 08 ee 3b c7 f2 96 3b
       0.0071516233 -0.0031662404 0.007264198 0.004606578
000150 65 e3 d1 b8 0e 67 95 bc 00 ca b1 3b 7e 09 83 bb
       -0.00010008252 -0.018237617 0.0054256916 -0.0039989343
000160 2b 5e cb 3b 0f bd 02 3c 2b 90 4a bc 75 81 00 3b
       0.006206294 0.007979645 -0.012363474 0.0019608412
000170 74 7c ff 3b 44 fe af 3b 1e 1d 90 b8 69 db 32 3c
       0.0077968184 0.005370887 -6.8718786e-05 0.010916569
000180 e7 a8 15 bc d0 91 29 3b 22 ee 07 3c 3d 29 3e 3b
       -0.009134508 0.0025874265 0.008296521 0.002901628
000190 92 e4 ec 3a 81 9a 92 ba 97 b1 4e bb aa 8e 5b bb
       0.001807349 -0.0011184962 -0.0031538957 -0.0033501782
0001a0 0d 26 95 bc 9d 1c 02 b9 43 f1 af 3b 9f c1 8f 3c
       -0.01820662 -0.00012408425 0.005369337 0.01754838
0001b0 4a 85 1c 3b 72 5c 35 3c 50 cd fa b9 d3 6e 24 bb
       0.0023883157 0.011069404 -0.00047836686 -0.002509047
0001c0 97 34 ac 3c aa 62 44 3b bf 4e 3c bc 09 95 8a 3b
       0.02102117 0.0029966035 -0.011493384 0.004229192
0001d0 bf 05 97 ba 4f 65 98 bb fc 61 d3 bb 4b 3a 86 bc
       -0.0011522098 -0.004650749 -0.0064508896 -0.016385218
0001e0 f9 fd 20 bc 04 44 02 3b 19 25 ab 3a a2 5f 5c 3c
       -0.009826177 0.0019876966 0.0013057321 0.013450535
0001f0 35 13 07 bc 13 0e 0a 3c 67 d9 89 bc 3b 4d 6c 3c
       -0.008244325 0.008426207 -0.016827298 0.01442271
000200 6f 3a bb 3b 86 0d 9e 39 49 b2 45 3c 16 71 9c bb
       0.005713753 0.00030146184 0.012066432 -0.004774223
000210 41 e2 18 bc 68 c5 f1 bb 88 53 25 3a aa 64 5b 3b
       -0.009331287 -0.007378269 0.00063066976 0.0033476749
000220 fd a0 16 3b 0e e5 ab 3b 78 d2 17 bc 6a 98 e1 ba
       0.002298414 0.0052458113 -0.009266488 -0.0017211561
000230 56 45 13 3c 47 32 c5 3c a8 2c e3 3b 09 9b d0 3a
       0.008988699 0.024071826 0.0069328137 0.0015915345
000240 aa b4 43 3c 49 a5 05 bc aa 71 73 3a b8 69 59 bb
       0.011944929 -0.008157083 0.00092866516 -0.0033174586
000250 c1 81 8b bc 28 73 8e bc 0d ba 66 3b f1 69 c7 bb
       -0.017029645 -0.017388895 0.003520611 -0.0060856272
000260 e6 d1 67 bb 13 2f 61 3c b4 1e 92 3a f9 95 3c bc
       -0.0035372912 0.0137441335 0.0011148066 -0.011510366
000270 c2 c2 a4 b9 c7 7b 54 3b 70 ce aa 3b af 25 33 bc
       -0.00031425623 0.003242241 0.0052125975 -0.010934277
000280 4d db ca 3b 0c aa 75 bb f3 eb b8 bb 1b 59 ba 3b
       0.0061906935 -0.003748539 -0.0056433617 0.0056868917
000290 ca d7 18 bc 7a 15 19 b9 9c 09 cf bb 2c fa 33 3b
       -0.009328792 -0.00014599218 -0.006318284 0.0027462346
0002a0 e5 8c 9a bc c2 e9 fe ba bf a8 19 bc f1 7e 02 3c
       -0.018866012 -0.0019448327 -0.009378611 0.0079648355
0002b0 9d 67 14 3b ec 6b c7 3b fc e3 c7 b9 94 5f 6d 3c
       0.0022644766 0.0060858633 -0.000381261 0.01448812
0002c0 16 7b 2d bc 1a 5f 4e bc a8 04 e9 b9 8f 71 48 bb
       -0.010588428 -0.012595916 -0.00044444692 -0.0030585264
0002d0 35 6f 1c 3c 3f d5 32 bc bf 4b c2 bb 3e f5 19 3c
       0.009547998 -0.0109151 -0.00592944 0.009396849
0002e0 a1 9a 39 3b f0 eb 36 3c 63 d3 d7 3b d6 7d a8 b9
       0.0028320926 0.01116465 0.0065864786 -0.00032137212
0002f0 42 ef d6 bb c3 9b c1 3b e6 c5 44 3c 02 26 86 3b
       -0.0065592835 0.005908461 0.012010073 0.0040938864
000300 23 ba 0f bc ae b7 08 3b 25 d9 29 3c 33 05 d6 3a
       -0.008772406 0.0020861435 0.010366713 0.0016328454
000310 c5 1e ab 3b 50 c0 19 3c 88 00 9a bc 0d 84 b5 b9
       0.005222174 0.00938423 -0.018799081 -0.00034621396
000320 be 42 67 3b f4 19 35 ba d5 88 b7 bb d8 55 e9 3b
       0.0035287584 -0.00069084694 -0.0056010284 0.007120829
000330 04 93 7e bb e7 c6 14 bb 3a 2e 17 3c 1b 46 05 bc
       -0.0038844952 -0.0022701563 0.00922733 -0.00813439
000340 16 62 09 3c 2b a1 e9 bc f7 99 81 3c 83 8b cc bb
       0.008385202 -0.028519234 0.015820486 -0.006242217
000350 48 03 99 3b 88 7a 25 3c 1b 8b 56 3c 40 bc d2 bc
       0.0046695806 0.0101000145 0.013094689 -0.02572453
000360 6f 27 8e 3c a5 77 0e 3b 18 dc 83 bc cd a3 f9 bb
       0.017352788 0.0021738794 -0.01609616 -0.0076184035
000370 06 e1 0e bc ae cc 63 3b 6c b4 c3 bb a5 46 c7 3b
       -0.008720642 0.003475945 -0.0059724357 0.0060814195
000380 e7 04 17 3c dd e8 cf 3b 3b ed 6f 3b d5 9c dd 3a
       0.009217477 0.006344898 0.0036609906 0.0016907702
000390 06 88 3c bc 10 75 0b 3b 64 9c 02 39 1f 3b 59 3c
       -0.01150704 0.0021279491 0.00012456026 0.0132587245
0003a0 6e 18 cb b8 a8 52 62 bc ad 1d f4 3b 57 15 c7 3a
       -9.684345e-05 -0.013813652 0.0074498267 0.0015188855
0003b0 e4 0c 98 3a b4 8c 77 3c fd 37 40 bc d1 28 9c 3b
       0.0011600521 0.01510923 -0.011732099 0.004765608
0003c0 63 56 ef bb 3b 59 b6 bb 69 bc 57 3b be 9a ae bb
       -0.0073039993 -0.0055648363 0.0032918698 -0.0053285053
0003d0 c0 77 67 3b c2 11 07 3c c6 50 17 3c c0 8d cc 39
       0.003531918 0.00824398 0.0092355665 0.00039015524
0003e0 01 db 39 bc e0 89 63 bb 44 b4 27 bb 1b 28 c9 ba
       -0.0113437185 -0.003471963 -0.0025589624 -0.0015347035
0003f0 4e c7 0b 3c 0d d0 07 3c 83 30 51 bb 8c a5 7d 3c
       0.008531405 0.008289349 -0.0031919784 0.015481364

action_model._discrete_distribution.branches.2.bias f4 [13]
000000 81 e6 10 bb 2c eb f5 3a ed df e2 ba fa 7c 96 bb
       -0.0022110047 0.0018762103 -0.0017309167 -0.004592535
000010 3a 63 40 ba 68 f0 c8 b8 5f 56 80 3b c8 a1 62 3b
       -0.00073390047 -9.581522e-05 0.0039165462 0.0034581292
000020 62 c6 a9 3b 6b 07 17 39 c0 e8 3e bb f1 f8 a1 3a
       0.00518112 0.00014403246 -0.002913043 0.0012357516
000030 b3 75 f6 3a
       0.0018803388
