results/NewTwoAgentsFullBoardAction/WhiteMLAgent/WhiteMLAgent-4356.onnx (onnx, 681198 bytes, 133 tensors)

discrete_act_size_vector f4 [1, 64]
13.0 13.0 13.0 13.0 13.0 13.0 13.0 13.0
13.0 13.0 13.0 13.0 13.0 13.0 13.0 13.0
13.0 13.0 13.0 13.0 13.0 13.0 13.0 13.0
13.0 13.0 13.0 13.0 13.0 13.0 13.0 13.0
13.0 13.0 13.0 13.0 13.0 13.0 13.0 13.0
13.0 13.0 13.0 13.0 13.0 13.0 13.0 13.0
13.0 13.0 13.0 13.0 13.0 13.0 13.0 13.0
13.0 13.0 13.0 13.0 13.0 13.0 13.0 13.0
00000000: 0000 5041 0000 5041 0000 5041 0000 5041
00000010: 0000 5041 0000 5041 0000 5041 0000 5041
00000020: 0000 5041 0000 5041 0000 5041 0000 5041
00000030: 0000 5041 0000 5041 0000 5041 0000 5041
00000040: 0000 5041 0000 5041 0000 5041 0000 5041
00000050: 0000 5041 0000 5041 0000 5041 0000 5041
00000060: 0000 5041 0000 5041 0000 5041 0000 5041
00000070: 0000 5041 0000 5041 0000 5041 0000 5041
00000080: 0000 5041 0000 5041 0000 5041 0000 5041
00000090: 0000 5041 0000 5041 0000 5041 0000 5041
000000a0: 0000 5041 0000 5041 0000 5041 0000 5041
000000b0: 0000 5041 0000 5041 0000 5041 0000 5041
000000c0: 0000 5041 0000 5041 0000 5041 0000 5041
000000d0: 0000 5041 0000 5041 0000 5041 0000 5041
000000e0: 0000 5041 0000 5041 0000 5041 0000 5041
000000f0: 0000 5041 0000 5041 0000 5041 0000 5041

network_body._body_endoder.seq_layers.0.weight f4 [142, 71]
-0.0599202 -0.16483495 -0.19430572 0.09129776 0.34124243 -0.09108365 -0.0041252035 -0.17423826
0.041792437 0.05271026 -0.08233345 -0.18075025 -0.31483933 0.023402052 0.21162225 0.018181657
-0.03809424 0.04741514 0.1997991 -0.03367973 -0.0062084026 -0.13746424 -0.050021384 -0.008475584
0.01411162 -0.14193137 0.09847332 -0.14518651 0.117687814 0.06610886 0.14842838 -0.095924474
0.032203417 0.025709752 -0.15700887 0.04190913 0.003970046 -0.16025752 -0.028328847 -0.16814554
0.013775577 -0.13678934 -0.2074336 -0.11438474 -0.09858767 -0.117522 -0.033616822 -0.08503836
-0.0012972216 0.09538617 -0.059007164 -0.14081235 -0.0267789 -0.017880462 0.03112885 -0.109959856
-0.19175296 0.15493731 -0.010781073 -0.03312899 0.038371798 0.13893512 0.01762594 -0.21074961
-0.18321264 -0.015673708 0.010701778 -0.17409752 -0.27517575 0.03379493 -0.14547487 0.048019074
-0.08215791 0.040003166 -0.08079822 -0.004042148 -0.16979407 0.00698787 -0.0095649045 -0.22048002
-0.04386964 0.055987436 -0.19027999 -0.022318631 0.07669531 -0.098388076 -0.1530379 -0.03418744
-0.16308296 -0.23085696 0.035085768 -0.166944 -0.032246523 -0.05875928 0.1120182 -0.121368125
-0.14838958 -0.18869144 -0.2211883 0.059038803 0.06508927 0.15035874 0.34320018 -0.025526114
-0.016086498 -0.08160277 -0.15048331 0.06060243 -0.008096884 -0.07484302 -0.014239137 -0.06747178
-0.0145242615 -0.047949962 0.040465638 0.11643456 -0.100373834 0.16691372 0.0219072 0.14657581
0.08097614 0.09571236 0.14985123 0.15704218 0.04621787 -0.0508813 0.16182634 -0.08530572
0.041642755 -0.12994641 0.096076615 -0.10629908 -0.13808537 0.2277229 0.15072587 0.00615693
0.22326776 0.08376766 0.0020446351 0.018060397 -0.12867217 -0.03637015 -0.026232943 0.2529378
0.15940219 0.23066746 -0.028718963 -0.06140576 0.1490811 -0.22833495 -0.055569164 -0.10493308
-0.21957782 -0.033081036 -0.039054364 -0.032322492 0.05048535 -0.0753211 -0.22064336 -0.024577228
-0.12581646 0.023473142 0.050865088 -0.04983015 -0.077010386 -0.102596916 -0.008813807 0.044574294
-0.091632344 0.06162284 0.07819859 0.13510004 0.08998323 -0.01730172 0.084929265 -0.12716345
-0.11382253 0.17359637 -0.24779311 0.15927686 0.038130302 0.13218449 0.010914165 -0.026399424
0.085781224 -0.14797278 -0.0919544 -0.13505536 0.09105719 0.04301488 0.1433716 -0.118787564
0.062039115 -0.00085653644 0.08459639 -0.21634106 -0.06763923 0.103071205 -0.16450234 0.031135077
0.20685683 -0.098877616 0.06938966 -0.09779359 0.1527883 0.18144475 0.076416545 -0.2994735
0.01666613 -0.24386704 -0.29645067 -0.058736965 0.032283917 -0.05855317 -0.25501803 -0.23207746
0.09202764 0.07776832 -0.081274964 0.16988225 0.015565819 0.055759653 0.027430596 0.07047576
-0.008094041 0.061850417 -0.0019681957 -0.021560578 0.10613139 -0.11052476 0.15147002 0.19388725
0.14906058 -0.22757892 0.15375258 -0.10477462 -0.04389748 -0.037933376 -0.19129696 -0.08520579
0.12687753 0.14841866 -0.00692739 0.025022974 -0.0020490482 0.28704685 -0.030716205 0.09830688
0.095816135 -0.14326708 0.064006485 -0.03296108 -0.05541677 -0.11187763 -0.10267146 0.13266656
00000000: e26e 75bd 7eca 28be 14f8 46be 52fa ba3d
00000010: 54b7 ae3e 118a babd b72c 87bb 846b 32be
00000020: 8c2e 2b3d b7e6 573d 719e a8bd 9816 39be
00000030: 9f32 a1be a9b5 bf3c 81b3 583e b3f1 943c
00000040: b508 1cbd 6136 423d 2398 4c3e c2f3 09bd
00000050: db6f cbbb 6dc3 0cbe 39e3 4cbd 2ddd 0abc
00000060: 6d34 673c 7556 11be 61ac c93d c6ab 14be
00000070: 4f06 f13d 1564 873d 9cfd 173e 0d74 c4bd
00000080: bbe7 033d 429d d23c efc6 20be e8a8 2b3d
00000090: 2917 823b 8c1a 24be e611 e8bc 582e 2cbe
000000a0: f5b2 613c 8112 0cbe 7969 54be 8c42 eabd
000000b0: 55e8 c9bd 60af f0bd cbb1 09bd 9728 aebd
000000c0: 8907 aaba d359 c33d 7fb1 71bd 1d31 10be
000000d0: 6c5f dbbc 0c7a 92bc ee01 ff3c a232 e1bd
000000e0: e35a 44be e3a7 1e3e 19a3 30bc 44b2 07bd
000000f0: bf2b 1d3d 0245 0e3e 4664 903c bfce 57be
00000100: 189c 3bbe 2666 80bc 8356 2f3c 9f46 32be
00000110: d6e3 8cbe 8d6c 0a3d 5df7 14be a6af 443d
00000120: 6842 a8bd 5cda 233d 8a79 a5bd ff73 84bb
00000130: 7fde 2dbe 81fa e43b 1eb6 1cbc 84c5 61be
00000140: a7b0 33bd 1553 653d c2d8 42be 90d5 b6bc
00000150: 6e12 9d3d b07f c9bd f8b5 1cbe 2108 0cbd
00000160: 38ff 26be c465 6cbe 18b6 0f3d 5ef3 2abe
00000170: ee14 04bd 92ad 70bd cc69 e53d da8f f8bd
00000180: 70f3 17be 5438 41be 307f 62be acd2 713d
00000190: 864d 853d a4f7 193e efb7 af3e 241c d1bc
000001a0: d5c7 83bc 5a1f a7bd 4c18 1abe 413a 783d
000001b0: cba8 04bc 4c47 99bd 454b 69bc a52e 8abd
000001c0: 2bf7 6dbc 2e67 44bd 4cbf 253d 3e75 ee3d
000001d0: cc90 cdbd 6eeb 2a3e ba76 b33c f817 163e
000001e0: d2d6 a53d d804 c43d 9a72 193e aacf 203e
000001f0: f34e 3d3d e968 50bd ceb5 253e c4b4 aebd
00000200: 9891 2a3d ac10 05be d1c3 c43d 55b3 d9bd
00000210: 4066 0dbe 3130 693e e257 1a3e 12c0 c93b
00000220: 4ea0 643e 618e ab3d 49ff 053b 66f3 933c
00000230: a3c2 03be def8 14bd 78e6 d6bc 1081 813e
00000240: 543a 233e 1734 6c3e 0844 ebbc 9b84 7bbd
00000250: b7a8 183e a3d0 69be 7e9c 63bd 28e7 d6bd
00000260: 02d9 60be fb7f 07bd 78f7 1fbd 9764 04bd
00000270: bac9 4e3d f341 9abd 55f0 61be 2f56 c9bc
00000280: 08d6 00be bf4a c03c e957 503d b31a 4cbd
00000290: 9fb7 9dbd 551e d2bd c967 10bc 8993 363d
000002a0: bda9 bbbd 3b68 7c3d 9526 a03d aa57 0a3e
000002b0: 2149 b83d 56bc 8dbc 65ef ad3d 2337 02be
000002c0: c91b e9bd 3fc3 313e 7abd 7dbe 7919 233e
000002d0: 852e 1c3d 5f5b 073e 53d1 323c 9b43 d8bc
000002e0: 11ae af3d 2d86 17be 9752 bcbd f44b 0abe
000002f0: 317c ba3d 5f30 303d 01d0 123e e546 f3bd
00000300: ba1c 7e3d 3089 60ba df40 ad3d 8388 5dbe
00000310: 7086 8abd ff16 d33d 4d73 28be fd0e ff3c
00000320: 47d2 533e 5980 cabd 2b1c 8e3d 0148 c8bd
00000330: 8974 1c3e a7cc 393e 4780 9c3d 9754 99be
00000340: 6887 883c 48b8 79be 62c8 97be 2c96 70bd
00000350: 243c 043d 73d5 6fbd b991 82be b7a5 6dbe
00000360: fd78 bc3d ff44 9f3d 7d73 a6bd 9df5 2d3e
00000370: c707 7f3c 3c64 643d 21b6 e03c 9855 903d
00000380: de9c 04bc dd56 7d3d d8fc 00bb cf9f b0bc
00000390: 6a5b d93d ce5a e2bd f51a 1b3e 618a 463e
000003a0: 56a3 183e 730a 69be 5171 1d3e 1394 d6bd
000003b0: d8cd 33bd 0760 1bbd 5ae3 43be 6080 aebd
000003c0: 2fec 013e 10fb 173e 29ff e2bb fbfc cc3c
000003d0: 5349 06bb cef7 923e 8da0 fbbc 1e55 c93d
000003e0: 403b c43d 9bb4 12be d515 833d 3302 07bd
000003f0: b2fc 62bd 1920 e5bd 6a45 d2bd bed9 073e

network_body._body_endoder.seq_layers.0.bias f4 [142]
-0.0019064074 -0.003519981 -0.00881377 0.0058018924 -0.0067798467 -0.00015001731 0.004473161 -0.0057359794
-0.0049843434 -0.0029899802 -0.006976986 -0.0003433443 -0.005523267 0.0024382847 -0.0074289027 -0.0057179094
-0.0003655937 -0.002871433 -0.016371837 0.0006997618 -0.0036262136 0.0040515997 0.0025272067 0.003409727
-0.0016249323 -0.0001355499 -0.00032182538 -0.003524464 -0.002648389 0.0052367467 -0.0058481647 0.0012594886
0.0012022522 -0.005065654 -0.0076892055 -0.007051931 0.0033760571 -0.0041764206 0.00072276127 -0.0054373965
0.0063686264 -0.0021370756 -0.004974797 -0.003080265 -0.0006926909 -0.007238442 -0.010237731 -0.0051114797
-0.0069328547 -0.0048825485 -0.005771255 0.0035646986 -0.0057697324 0.010409414 -0.0021618386 0.008276889
-0.0010440125 0.00309869 -0.0005489016 -0.0032559952 -0.007659004 0.0024276418 -0.00068756886 -0.0013947566
-0.008055122 -0.003597612 0.00048436518 -0.008445121 -0.0017288311 -0.008550659 -0.012274159 -0.008176902
0.0012045244 -0.0076815584 -0.0026811468 -0.008176417 0.00019425228 -0.008067693 -0.0019836267 0.00077004096
-0.006239642 0.0018680734 -0.0077949525 0.00068416126 -0.0062500997 -0.0053891954 -0.0071360413 -0.002737974
-0.007119848 -0.007478286 -0.004881217 -0.004172317 -0.0054378305 -0.0017578006 0.00013821168 -0.0015001929
0.0018400451 0.008479293 -0.007091324 0.006412432 -0.00017618763 -0.0073746694 0.007871902 -0.0034080816
-0.0071103387 -0.0022869916 -0.00306036 -0.0041429396 -0.002819087 -0.008277815 -0.0025543084 -0.006244254
-0.0017434316 -0.0037317807 -0.00031484631 -0.0075615607 -0.004853428 0.0018813742 0.0027557518 -0.007603888
-0.004938017 0.001967052 -0.0018529714 0.0023819844 0.0015086652 -0.0055720136 -0.0064906087 -0.003958084
-0.006924595 -0.0060537895 -0.006781974 -0.008777615 0.0011912396 0.0010314098 -0.006061681 -0.0057599745
-0.0038615677 0.0032130466 -0.010171055 -0.0058067236 -0.0024798696 0.006411514
00000000: 6be0 f9ba 7baf 66bb a167 10bc cd1d be3b
00000010: 7a29 debb f74d 1db9 9893 923b e2f4 bbbb
00000020: b453 a3bb 8bf3 43bb 339f e4bb e402 b4b9
00000030: 86fc b4bb a1cb 1f3b 276e f3bb 4d5d bbbb
00000040: 28ad bfb9 a72e 3cbb 3b1e 86bc 3870 373a
00000050: c5a5 6dbb 48c3 843b 7e9f 253b ba75 5f3b
00000060: aefb d4ba 6622 0eb9 acba a8b9 b2fa 66bb
00000070: 9890 2dbb 0499 ab3b f6a1 bfbb 6d15 a53a
00000080: e494 9d3a c9fd a5bb bbf5 fbbb e313 e7bb
00000090: d740 5d3b 5bda 88bb b077 3d3a 302c b2bb
000000a0: e9af d03b 2e0e 0cbb 9f03 a3bb 45de 49bb
000000b0: b395 35ba 7430 edbb 28bc 27bc 337e a7bb
000000c0: 002d e3bb c9fd 9fbb cc1c bdbb b89d 693b
000000d0: 0610 bdbb 3f8c 2a3c a2ad 0dbb ca9b 073c
000000e0: 3fd7 88ba 6413 4b3b 2ae4 0fba 8962 55bb
000000f0: 62f8 fabb 1219 1f3b f73d 34ba 44d0 b6ba
00000100: a1f9 03bc eac5 6bbb 65f2 fd39 685d 0abc
00000110: f299 e2ba 1018 0cbc 8e19 49bc 6af8 05bc
00000120: 22e1 9d3a 95b5 fbbb 2eb6 2fbb 61f6 05bc
00000130: 33b0 4b39 5b2e 04bc bcff 01bb 93dc 493a
00000140: e975 ccbb 24da f43a cd6c ffbb 4959 333a
00000150: a3cd ccbb d997 b0bb 74d5 e9bb 956f 33bb
00000160: 9d4d e9bb 690c f5bb 9ef2 9fbb efb7 88bb
00000170: d42f b2bb 0066 e6ba eaec 1039 1fa2 c4ba
00000180: ab2d f13a bcec 0a3c 565e e8bb 611f d23b
00000190: 02bf 38b9 36a7 f1bb 26f9 003c 1f5a 5fbb
000001a0: d8fd e8bb 5ae1 15bb 5290 48bb 7fc1 87bb
000001b0: 6ec0 38bb ac9f 07bc 2f66 27bb 999c ccbb
000001c0: db83 e4ba e490 74bb f511 a5b9 f8c6 f7bb
000001d0: 8109 9fbb 7198 f63a d899 343b 092a f9bb
000001e0: 17cf a1bb a8e9 003b 67df f2ba 111b 1c3b
000001f0: 67be c53a 7095 b6bb 2caf d4bb d1b2 81bb
00000200: b7e7 e2bb de5e c6bb 523b debb fccf 0fbc
00000210: 5e23 9c3a 5f30 873a 11a1 c6bb 2bbe bcbb
00000220: 5b12 7dbb fa91 523b 7fa4 26bc 5446 bebb
00000230: 4f85 22bb ad17 d23b

network_body._body_endoder.seq_layers.2.weight f4 [142, 142]
0.14778097 -0.047780212 0.012903687 -0.04298944 -0.11956041 0.015953938 -0.009580666 0.14845109
0.061441813 0.012272992 -0.0073063956 -0.09247974 0.058206853 -0.050808046 0.066615 -0.10793666
0.01691686 0.09142062 -0.1466527 -0.17011374 0.0627113 -0.006643203 -0.11752416 0.023813006
0.016434567 0.028087387 0.017843321 0.062036954 0.031768844 -0.10393997 -0.105917215 -0.037548
0.12094837 0.038597424 -0.035020225 0.094189875 0.09921524 0.17032667 -0.030566016 0.07869496
0.05240387 -0.08350569 -0.08514951 -0.010904274 -0.11312634 0.024334906 -0.028675012 0.04765831
0.2097356 0.08056117 0.037302706 0.12985429 0.049590334 -0.027721254 0.1725746 -0.010983078
0.06425588 -0.09281824 0.044515718 -0.04792572 -0.05019176 0.05311303 0.13855955 0.081713006
-0.010898036 0.087764874 0.15151392 0.09365511 -0.005462563 0.036117636 -0.055082165 -0.09323156
-0.03419033 -0.071526684 -0.0802644 0.11300199 -0.028808491 -0.028792275 -0.13240133 -0.05699873
-0.02990378 -0.10261696 0.08177877 0.090097055 0.008379279 0.080835715 0.070720434 -0.033698034
-0.18201655 -0.118528806 0.2463043 0.034242727 -0.12465325 -0.0015592861 0.039523385 -0.12935595
0.062622085 0.12502877 0.09958802 -0.045950167 -0.015287487 0.14826196 0.06244274 -0.009056835
0.019740492 -0.04471112 0.05189494 0.08215012 -0.059808023 -0.026070883 0.13594379 0.052114133
0.101823404 -0.03159436 -0.07780853 -0.010018758 -0.11226995 -0.06495585 0.098314926 -0.09964926
0.121890366 -0.032061424 0.16832657 0.053502344 -0.018590236 -0.048264723 -0.050580274 -0.08837024
0.04547185 0.025638914 -0.06780897 0.0646099 0.0926966 -0.14295039 -0.07296292 -0.05628416
0.04879414 0.04317745 0.14521825 -0.025201574 -0.04496256 -0.06585265 -0.18444976 0.024046483
-0.089071564 0.096801296 -0.014385204 0.06981848 -0.058986556 0.015984973 -0.037627432 -0.14311752
0.0963767 -0.002328916 0.056174766 0.02294237 -0.08635841 -0.050466344 0.06397384 -0.07105545
-0.036335945 0.058458377 -0.13262367 -0.033106156 0.019956073 0.011003224 0.06579308 0.075521156
0.11750708 -0.09537184 0.17880559 0.109272406 -0.045220267 0.08459737 0.04744069 0.046032224
0.0811355 0.029153585 -0.043059297 -0.033133496 -0.10489502 0.1524207 0.072675906 -0.13815565
-0.026374238 -0.06433484 0.09549991 -0.09115304 0.0555207 0.123282395 -0.051873446 -0.042783577
-0.05295409 0.11127992 -0.06347472 0.010903136 0.017574348 0.063591294 -0.05898931 0.06948266
-0.030808512 0.14570253 -0.08797585 0.022239951 0.095882885 -0.1188915 0.050439008 0.046101853
0.10581162 0.02570863 0.014452085 0.08449141 -0.026368985 0.041482236 0.027084563 -0.10416745
0.036986414 0.06976442 0.06609412 -0.021597818 -0.09273449 -0.025115563 -0.09804269 0.047374934
0.04548366 -0.054269265 -0.09945339 -0.05983157 -0.033320926 -0.034276653 0.024003137 0.12821181
-0.15501241 -0.036266934 0.083801314 0.06533548 0.0077528157 -0.0039362945 -0.044451214 0.020641875
0.053884372 0.007996357 -0.015136521 0.1302112 -0.06340349 -0.10173301 0.12788726 0.06989318
0.001105997 0.15744671 -0.045277815 -0.056587096 -0.056612805 -0.10063431 -0.06332446 -0.042387217
00000000: e553 173e 2fb5 43bd fc69 533c b215 30bd
00000010: 17dc f4bd d5b1 823c 3af8 1cbc 9003 183e
00000020: 69aa 7b3d a914 493c 7d6a efbb 0566 bdbd
00000030: 4f6a 6e3d 191c 50bd 726d 883d e50d ddbd
00000040: 3a95 8a3c bc3a bb3d 202c 16be 4c32 2ebe
00000050: c86e 803d 3aaf d9bb 82b0 f0bd 7e13 c33c
00000060: c9a1 863c 8517 e63c 282c 923c 761a 7e3d
00000070: 0c20 023d 7bde d4bd 20eb d8bd efcb 19bd
00000080: c7b3 f73d 5518 1e3d 5e71 0fbd 9fe6 c03d
00000090: 5c31 cb3d 1d6a 2e3e 9565 fabc d32a a13d
000000a0: 71a5 563d 0805 abbd de62 aebd d7a7 32bc
000000b0: c8ae e7bd ff59 c73c dce7 eabc 5c35 433d
000000c0: eec4 563e 41fd a43d b9ca 183d 86f8 043e
000000d0: 3c1f 4b3d af17 e3bc 65b7 303e 5ef2 33bc
000000e0: 9698 833d 7d17 bebd 1d56 363d c34d 44bd
000000f0: e095 4dbd 0c8d 593d 8ee2 0d3e 2659 a73d
00000100: ad8d 32bc 12be b33d 7726 1b3e 40ce bf3d
00000110: 4dff b2bb 16f0 133d d69d 61bd 30f0 bebd
00000120: 290b 0cbd 957c 92bd a961 a4bd 966d e73d
00000130: c9ff ebbc c7dd ebbc 3794 07be 8077 69bd
00000140: c6f8 f4bc d728 d2bd a17b a73d ce84 b83d
00000150: 3e49 093c 328d a53d e0d5 903d f306 0abd
00000160: 8c62 3abe 3bbf f2bd 3237 7c3e 1a42 0c3d
00000170: 344a ffbd f660 ccba 46e3 213d e375 04be
00000180: 0240 803d 8b07 003e cef4 cb3d 3e36 3cbd
00000190: 5e78 7abc fcd1 173e f5c3 7f3d 1f63 14bc
000001a0: d0b6 a13c 0223 37bd ca8f 543d 523e a83d
000001b0: 42f9 74bd 9b92 d5bc d934 0b3e a175 553d
000001c0: ca88 d03d 1669 01bd 145a 9fbd b725 24bc
000001d0: caed e5bd 9307 85bd 5659 c93d e914 ccbd
000001e0: a8a1 f93d d752 03bd cd5d 2c3e 4625 5b3d
000001f0: 8d4a 98bc 3bb1 45bd 432d 4fbd 75fb b4bd
00000200: b140 3a3d b308 d23c 6edf 8abd 3252 843d
00000210: b7d7 bd3d 9661 12be 956d 95bd 388a 66bd
00000220: 5ddc 473d d6da 303d 18b4 143e 8873 cebc
00000230: a92a 38bd c1dd 86bd 66e0 3cbe 21fd c43c
00000240: 276b b6bd c23f c63d ebaf 6bbc fefc 8e3d
00000250: e39b 71bd ebf2 823c 391f 1abd 668d 12be
00000260: 2661 c53d baa0 18bb 8317 663d a3f1 bb3c
00000270: aedc b0bd ccb5 4ebd b704 833d 8585 91bd
00000280: 00d5 14bd 0d72 6f3d 80ce 07be 529a 07bd
00000290: eb7a a33c de46 343c 86be 863d d6aa 9a3d
000002a0: 8da7 f03d 5052 c3bd d018 373e 36ca df3d
000002b0: e338 39bd 6341 ad3d 2b51 423d 498c 3c3d
000002c0: 5e2a a63d 80d3 ee3c f25e 30bd fdb6 07bd
000002d0: 33d3 d6bd 2c14 1c3e 1bd7 943d ad78 0dbe
000002e0: c90e d8bc fcc1 83bd 7595 c33d 72ae babd
000002f0: ac69 633d 7b7b fc3d 4079 54bd d53d 2fbd
00000300: 63e6 58bd bae6 e33d 09ff 81bd 11a3 323c
00000310: 14f8 8f3c 273c 823d c69e 71bd ed4c 8e3d
00000320: 2262 fcbc 0b33 153e af2c b4bd 8f30 b63c
00000330: 3f5e c43d 637d f3bd 2299 4e3d 4cd5 3c3d
00000340: c3b3 d83d e89a d23c 70c8 6c3c d509 ad3d
00000350: c503 d8bc 47e9 293d 72e0 dd3c be55 d5bd
00000360: 117f 173d a6e0 8e3d 5b5c 873d e8ed b0bc
00000370: 95eb bdbd 27bf cdbc 9bca c8bd 380c 423d
00000380: 134d 3a3d 7349 5ebd 38ae cbbd f311 75bd
00000390: 867b 08bd ad65 0cbd 3aa2 c43c f549 033e
000003a0: 93bb 1ebe a38c 14bd 06a0 ab3d 9cce 853d
000003b0: 550b fe3b 08fc 80bb 7a12 36bd 2619 a93c
000003c0: dcb5 5c3d 2703 033c 2cff 77bc 1656 053e
000003d0: b0d9 81bd 6559 d0bd e1f4 023e 2824 8f3d
000003e0: 1af7 903a b639 213e 3b75 39bd dfc7 67bd
000003f0: d4e2 67bd 5c19 cebd 41b0 81bd 389e 2dbd

network_body._body_endoder.seq_layers.2.bias f4 [142]
-0.001779653 0.0072169323 -0.0020658702 -0.0033863045 0.010162856 -0.0048231673 0.00859339 0.00035118285
0.0050342698 0.0051339767 0.0022316042 -0.007033067 -0.0018118086 -0.0006353823 0.009765864 -0.0048770206
0.0009467613 -0.007588182 0.0077917953 0.0028732466 -0.002598929 0.0099684475 0.003959418 -0.0008046361
0.0081333155 -0.0021633008 -0.0015627717 -0.0033444448 0.0004826787 -0.0042976765 0.00012417517 0.005629822
-0.0041264286 -0.0069614016 0.009758488 -0.0028426512 -0.0039442466 0.011374899 0.0012660377 0.0045644687
-0.00076529756 0.013946822 0.0012807677 0.008244036 0.0014461083 -0.0038763063 -0.002932824 -0.0034638313
-2.3487186e-05 0.0017352746 0.0031691806 -0.0038747182 -0.0018867786 0.0043104165 -0.0013790822 0.0016731641
-0.007892533 -0.0020929675 -0.005544941 0.00063056574 0.006599665 0.0021885696 -0.0040950263 -0.0012826094
0.0004756932 0.008056762 0.0061829924 0.005668109 -0.00031512402 0.0037119575 0.014378772 -0.0060871514
0.0017423417 -0.0028329152 0.004864303 -0.00060095824 -0.0012686829 -0.004877496 0.008681284 0.0039018048
0.006989191 0.0041883932 -0.0058983695 0.0026180253 0.0038863241 0.009137207 -0.006534407 -0.008065776
-0.0004047603 -0.0022593143 -0.0020475348 0.008462297 -0.00094049564 -0.0073587215 0.0072379643 0.0009263005
0.004213633 0.0005276732 -0.003104039 0.003152709 0.004561431 -0.00038531845 -0.0015201798 0.004290803
0.0066681616 -0.009150554 -0.0021873498 -0.00544937 0.0036939015 0.0031905794 -0.0020125099 0.0033856307
0.0008899137 -0.0053617596 0.00046439274 0.0014360141 0.010577181 -0.0030812854 -0.0013191546 0.012274246
0.00453103 0.00538247 0.0049046287 -0.0009615033 0.010294623 -0.0060367826 -0.004002999 0.0026411403
1.9209847e-05 -0.002346236 -0.0032352135 -0.001357328 -0.0033059686 -0.00080643425 -0.00046854795 -0.008709732
-0.0064418525 0.0002836589 0.0076817097 0.009161251 -0.0029976966 0.0009632257
00000000: 3f43 e9ba 047c ec3b 8d63 07bb c3ec 5dbb
00000010: 1c82 263c a90b 9ebb 4acb 0c3c f71e b839
00000020: 84f6 a43b eb3a a83b 1b40 123b a475 e6bb
00000030: 357a edba c98f 26ba 0101 203c 6acf 9fbb
00000040: 1330 783a 49a6 f8bb 5152 ff3b 144d 3c3b
00000050: cb52 2abb b352 233c 01be 813b 37ee 52ba
00000060: 9941 053c 2ac6 0dbb ebd5 ccba 792e 5bbb
00000070: 0a10 fd39 86d3 8cbb 0535 0239 5f7a b83b
00000080: fe36 87bb 781c e4bb 11e2 1f3c c64b 3abb
00000090: bd3e 81bb c95d 3a3c 2df1 a53a 8a91 953b
000000a0: 409e 48ba 3681 643c 6fdf a73a fe11 073c
000000b0: 588b bd3a a109 7ebb 9f34 40bb 7201 63bb
000000c0: 5906 c5b7 2772 e33a 07b2 4f3b fcee 7dbb
000000d0: c94d f7ba 653e 8d3b 52c2 b4ba 124e db3a
000000e0: af4f 01bc 2b2a 09bb 56b2 b5bb 8d4c 253a
000000f0: 0142 d83b 1b6e 0f3b 922f 86bb 3b1d a8ba
00000100: 7666 f939 8200 043c b39a ca3b 8bbb b93b
00000110: 3b37 a5b9 5044 733b f194 6b3c ba76 c7bb
00000120: 495f e43a 6ea8 39bb bb64 9f3b a089 1dba
00000130: ef49 a6ba 67d3 9fbb f23b 0e3c 6cb5 7f3b
00000140: 9505 e53b ca3e 893b 1c47 c1bb 2d93 2b3b
00000150: b3b1 7e3b 39b4 153c 941e d6bb 5126 04bc
00000160: 0236 d4b9 0111 14bb ef2f 06bb 72a5 0a3c
00000170: 988b 76ba 6e21 f1bb 722c ed3b f9d2 723a
00000180: 8412 8a3b 8d53 0a3a 226d 4bbb ae9d 4e3b
00000190: 0e78 953b 9104 cab9 c540 c7ba dd99 8c3b
000001a0: 9880 da3b 35ec 15bc a459 0fbb a190 b2bb
000001b0: 6215 723b 0a19 513b 50e4 03bb 75e1 5d3b
000001c0: 1949 693a b3b1 afbb bd79 f339 a338 bc3a
000001d0: ea4b 2d3c 64ef 49bb 7ce7 acba eb19 493c
000001e0: 0979 943b 6e5f b03b 02b7 a03b 650d 7cba
000001f0: c7aa 283c 34d0 c5bb 972b 83bb fb16 2d3b
00000200: d524 a137 4fc3 19bb e005 54bb 5fe8 b1ba
00000210: f3a8 58bb e366 53ba 71a7 f5b9 44b3 0ebc
00000220: 2d16 d3bb 0eb8 9439 dab6 fb3b 1219 163c
00000230: 0175 44bb fc80 7c3a

action_model._discrete_distribution.branches.0.weight f4 [13, 142]
0.013227834 0.010186303 -0.016200615 -0.005522543 0.007858733 -0.022284918 -0.015096766 0.0049438425
-0.0011171865 0.008614886 -0.001582718 0.0048240637 -0.0034273383 0.008049814 0.012944616 -0.007009089
-0.005637151 0.0062755584 0.010364302 0.0012195111 0.011682984 0.0047732336 0.010251762 -0.0043891654
0.009029545 -0.0060316287 -0.0048750043 -0.015139351 0.0050150747 -0.021373227 0.0069356803 0.007849068
-0.0050486918 -0.012119858 -0.009057936 -0.009678833 -0.0030454071 0.010723542 -0.014526876 -0.014081099
-0.0017212211 0.0045862393 0.009997704 -0.005434917 -0.0059310906 -0.001716288 -0.0043196953 0.010237823
0.005020799 0.0075779697 -0.007339385 -0.0001423498 -0.009161825 0.0048537166 0.0021240031 -0.008482113
-0.002634693 0.0060538673 -0.0077801654 -0.005157709 -0.013733532 -0.0055806166 -0.005968209 0.009235939
-0.0045593856 -0.004042974 -0.00035179665 0.005538126 0.012805541 -0.0026554945 0.008575006 0.0008940304
0.0015310287 0.004348662 -0.005864934 0.014732616 0.0022756262 0.0041544633 0.0080347145 0.009785749
0.014345957 -0.005991013 -0.017919606 -0.0034342622 -0.012296354 0.00020314005 -0.004926347 0.00030362062
-0.007783229 0.004137793 -0.024562743 -0.0015373667 -0.0056697684 0.0005979789 -0.004714463 -0.004047839
-0.0004037346 0.0022547606 -0.016885135 -0.009709085 -0.013309639 -0.0109709725 0.011273567 -0.008253128
0.005404207 -0.003470503 -0.014846082 0.0061995494 -0.0042488603 0.0055069583 -0.0060288697 0.010643305
-0.004745024 0.010369947 -0.010140268 -0.006532957 -0.002851951 -0.00636143 -0.013145287 -0.01252331
-0.014914951 0.013049413 -0.028017057 -0.014207528 -0.003545457 -0.0036993842 -0.026861047 -0.0012801777
-0.0030656275 -0.0025333907 -0.000766048 0.0001430098 -0.010569319 -0.0021188587 0.013546341 0.009693362
0.006638391 3.4799363e-05 -0.00079086196 -0.0017749167 0.0007174723 -0.014190236 -0.0011308246 0.01583598
-0.00472418 0.012602534 -0.009501876 -0.0033630615 -0.0017795599 0.0041760798 -0.017493408 0.0005691151
-0.0066810446 -0.00011121486 0.0023319782 0.012780483 -0.0036025245 -0.010299692 0.0013028972 0.0029523345
-0.0013467062 0.0060995272 0.00035930122 0.00995765 0.0015554777 -0.011697157 -0.0017828115 0.008485472
0.0030701715 0.0027944443 -0.0066165216 0.005413617 0.001658941 0.006061042 0.0006784162 0.0007219979
0.0009900088 0.010635845 -0.013204157 8.601434e-05 0.00067337585 -0.0025959613 0.017015401 -0.001939592
-0.01971754 0.0047732093 -0.013836177 0.00043084708 0.016041357 0.0040989234 0.0008910552 0.013488906
-0.008175388 -0.014309412 0.0045755715 0.008359505 0.009912881 0.0047667166 0.00085819414 -0.0024805372
-0.014795669 0.010697602 0.0005636211 -0.00391716 0.007892487 -0.016979935 0.00241889 0.021088565
-0.005035816 -0.000998174 -0.0015152525 0.010353257 0.007042608 0.0045091105 -0.0025625946 -0.013293205
-0.011602187 -0.0013143653 1.695516e-05 0.0025489442 -0.006562105 0.0007942437 -0.0049976013 0.006290465
0.0023016457 -0.0035491071 -0.0029392233 -0.018186016 0.008355142 -0.0073892353 0.010397181 0.023709534
0.0005937626 -0.0017796131 0.005287481 -0.019246114 -0.019422676 -0.008767295 -0.006853158 -0.0069325715
-0.0038406688 0.0035838892 -0.013671297 -0.015709532 0.00021602138 -0.0111901 -0.009368488 0.006339947
-0.014405994 -0.0028225724 -0.00014105016 -0.005352491 0.0077552726 0.0056346892 -0.0028813866 -0.00018665614
00000000: 8fb9 583c 74e4 263c 27b7 84bc 73f6 b4bb
00000010: eac1 003c dc8e b6bc 6d58 77bc f5ff a13b
00000020: 8f6e 92ba 7325 0d3c 3473 cfba 2e13 9e3b
00000030: 329d 60bb 5ee3 033c a815 543c 80ac e5bb
00000040: dab7 b8bb 33a3 cd3b 09cf 293c 01d8 9f3a
00000050: fd69 3f3c c968 9c3b 02f7 273c fdd2 8fbb
00000060: a8f0 133c f8a4 c5bb 80be 9fbb 0a0b 78bc
00000070: 7f55 a43b e816 afbc b444 e33b 6199 003c
00000080: 7f6f a5bb 5e92 46bc bd67 14bc f893 1ebc
00000090: 7495 47bb ccb1 2f3c 2202 6ebc 69b4 66bc
000000a0: 999a e1ba 2a48 963b 69cd 233c 6317 b2bb
000000b0: 9859 c2bb 12f5 e0ba 3b8c 8dbb 8bbc 273c
000000c0: 8485 a43b 9e50 f83b 397f f0bb bc43 15b9
000000d0: 7b1b 16bc ed0b 9f3b dc32 0b3b 8ff8 0abc
000000e0: d0aa 2cbb 855f c63b c2f0 febb 0002 a9bb
000000f0: 9c02 61bc 9bdd b6bb f790 c3bb 5652 173c
00000100: e666 95bb ed7a 84bb 5971 b8b9 2b79 b53b
00000110: 55ce 513c ce07 2ebb 2f7e 0c3c 5d5d 6a3a
00000120: ccac c83a 397f 8e3b a22e c0bb 1261 713c
00000130: ac22 153b 2a22 883b 09a4 033c 6854 203c
00000140: 4e0b 6b3c 4250 c4bb 23cc 92bc 5c11 61bb
00000150: a676 49bc fe01 5539 326d a1bb 452f 9f39
00000160: 750a ffbb 5396 873b ce37 c9bc 7781 c9ba
00000170: 77c9 b9bb afc1 1c3a c87b 9abb bca3 84bb
00000180: 57ac d3b9 9bc4 133b b252 8abc db12 1fbc
00000190: ac10 5abc 98bf 33bc c4b4 383c 2138 07bc
000001a0: c615 b13b 6171 63bb fb3c 73bc 9725 cb3b
000001b0: 063a 8bbb b773 b43b d38d c5bb 4261 2e3c
000001c0: 257c 9bbb b6e6 293c 5e23 26bc 6a12 d6bb
000001d0: cce7 3abb 8b73 d0bb 545f 57bc 922e 4dbc
000001e0: d75d 74bc 35cd 553c 0784 e5bc b1c6 68bc
000001f0: e65a 68bb 5e71 72bb b30b dcbc a3cb a7ba
00000200: b2e8 48bb 3e07 26bb 9cd0 48ba e7f4 1539
00000210: f02a 2dbc 8ddc 0abb 79f1 5d3c e8d0 1e3c
00000220: dc86 d93b 88f5 1138 d951 4fba 52a4 e8ba
00000230: c014 3c3a 2a7e 68bc 2d38 94ba 75ba 813c
00000240: 4bcd 9abb dc7a 4e3c c2ad 1bbc cf66 5cbb
00000250: 1f40 e9ba 7fd7 883b 564e 8fbc ab30 153a
00000260: aaec dabb 063c e9b8 1ad4 183b 3b65 513c
00000270: 5518 6cbb 0ac0 28bc fac5 aa3a f47b 413b
00000280: f683 b0ba 8bde c73b 9860 bc39 6925 233c
00000290: 2ce1 cb3a 6fa5 3fbc 3aad e9ba a606 0b3c
000002a0: ee34 493b ff22 373b 68cf d8bb b664 b13b
000002b0: d370 d93a b59b c63b bed7 313a 7544 3d3a
000002c0: 2fc3 813a f841 2e3c 4056 58bc 9962 b438
000002d0: 7d85 303a 0121 2abb e263 8b3c e839 feba
000002e0: ae86 a1bc 9568 9c3b 22b1 62bc 51e3 e139
000002f0: 2a69 833c 4350 863b b495 693a 9300 5d3c
00000300: 10f2 05bc 0672 6abc adee 953b 4ef6 083c
00000310: a369 223c 1e32 9c3b 6ff8 603a 8290 22bb
00000320: 8969 72bc ff44 2f3c f9bf 133a 855b 80bb
00000330: 7d4f 013c 8119 8bbc 3d86 1e3b edc1 ac3c
00000340: 7d03 a5bb 29d5 82ba 709b c6ba b5a0 293c
00000350: aec5 e63b 29c1 933b 34f1 27bb becb 59bc
00000360: 1917 3ebc c846 acba ee3a 8e37 300c 273b
00000370: ed06 d7bb cb34 503a ebc2 a3bb 3f20 ce3b
00000380: 35d7 163b 2398 68bb fc9f 40bb d7fa 94bc
00000390: 01e4 083c 6621 f2bb f058 2a3c 7f3a c23c
000003a0: bca6 1b3a e841 e9ba 9b42 ad3b 07aa 9dbc
000003b0: 4e1c 9fbc b3a4 0fbc 7590 e0bb a02a e3bb
000003c0: bbb3 7bbb afdf 6a3b 93fd 5fbc 47b1 80bc
000003d0: cc83 6239 ae56 37bc 497e 19bc 55bf cf3b
000003e0: 1e07 6cbc e8fa 38bb dde6 13b9 f363 afbb
000003f0: f11f fe3b 33a3 b83b a5d5 3cbb 20b9 43b9

action_model._discrete_distribution.branches.0.bias f4 [13]
0.00071984093 -0.0002680919 -0.003423271 0.0029957213 -0.00033403942 -0.00819345 -0.0048669633 -0.008211601
0.019694975 -0.0016825446 -0.0010516503 -0.0026485748 0.0016344527
00000000: b5b3 3c3a b08e 8cb9 f558 60bb dd53 443b
00000010: 0322 afb9 d23d 06bc 0c7b 9fbb f389 06bc
00000020: 5b57 a13c d488 dcba 87d7 89ba b693 2dbb
00000030: 223b d63a

action_model._discrete_distribution.branches.1.weight f4 [13, 142]
0.008317865 0.011257319 0.0012042655 0.00017515206 0.00388165 3.6911253e-05 -0.0012454984 -0.0039236723
-0.0057998146 0.0025457528 -0.0063265027 0.013483442 -0.0038736868 -0.022708572 -0.0008593986 0.005919238
-0.0021753232 -0.012468624 -0.007826126 -0.017577782 -0.0008866614 -0.00087965874 0.0038930932 -0.0011034295
0.011454413 -0.0011453306 0.0032195714 -0.001260543 0.0010379128 0.0025352351 -0.0031649387 0.0055607664
-0.0029931453 -0.0052108583 -8.0585494e-05 -0.009013607 -0.0030088574 0.015948657 0.006630973 -0.009117718
0.009533685 0.0073366896 0.014049497 0.0026384727 0.016793644 0.0038327016 0.0015369264 0.024353227
0.00557024 -0.0036596498 -0.014345381 0.012432291 0.003857712 0.0054685217 -0.0052892417 0.0029951287
0.001747621 -0.021413652 -0.007755565 -0.020485066 -0.0028358651 0.009284588 -0.00025743112 -0.0069433646
-0.0010349809 -0.00623611 -0.004422559 -0.0020680039 0.0027501273 -0.0036854518 -0.012347347 -0.004409779
-0.00092030386 -0.006289638 0.0052270186 0.0018228209 0.014639813 -0.0069089 -0.005956285 0.0028897051
0.0027854051 0.00076817663 0.015154444 0.004886414 -0.004254128 0.01390564 -0.0013221711 0.008330226
0.0035857195 -0.0049386746 0.011817885 0.0042545754 -0.0044289455 0.0028036048 0.008435201 -0.0087189395
-0.014664909 -0.011612566 -0.008957857 0.018719295 0.011591183 -0.0020585132 0.008034384 -0.008710463
0.006813578 -0.0012253982 -0.0011905495 -0.017046338 -0.0013773945 -0.005640939 -0.0077378433 0.0050501297
-0.003019152 -0.015171611 0.012503694 -0.010363831 0.01152727 -0.009866276 -0.004205152 -0.0031294238
0.008046941 0.008181961 -0.011086332 0.012900737 -0.014575633 0.0013702341 0.009605342 0.001340533
-0.0046317545 -0.00466022 -0.015021639 0.0021879375 0.013973792 -0.018021492 0.008065464 -0.002415579
0.0016727976 -0.0036637632 0.005184273 0.0069776326 0.00084040384 -0.0020056858 0.022900984 -0.0048143123
-0.017671933 -0.018331021 0.005432308 0.013869997 0.0109108295 0.0009991028 0.0066981968 -0.0096839685
-0.0024094796 0.0014287055 0.010706021 -0.0039695892 -0.015863217 0.0054977015 0.008418459 0.012930711
-0.0048318487 0.0061913677 -0.008873894 -0.016286222 0.0016875955 0.0072711874 -0.012492149 0.012098432
0.010876175 -0.014031827 -0.015606264 0.0047672368 0.008562064 -0.0018451327 0.0073578903 -0.009339054
-0.0009911295 -0.004361563 -0.007978176 -0.016164254 0.0023181408 -0.0010795523 -0.006424387 -0.018420653
0.013098019 -0.016161697 -0.0040906244 0.0061374977 0.0037933006 0.0013801059 0.0010704496 -0.0012351153
-0.0008639092 0.0066953986 -0.014077029 0.010958417 -0.008698442 0.0009455013 0.010971111 0.011335617
-0.0021862756 0.00025095584 0.004580167 0.005032524 -0.005107187 -0.0053581838 0.007796859 -0.011602322
-0.0052416325 0.004664329 0.0067484886 0.0021070594 -0.0001904051 -0.0035855789 -0.012643578 0.015637971
0.006612718 0.005341804 0.0025991234 0.017737953 0.001732011 -0.0038548843 -0.0031457706 0.00066316983
-0.006132876 -0.004874267 0.014860667 0.005027456 -0.008658148 -0.016083099 0.00028553323 -0.0025401947
0.003988282 0.01244777 -0.00089847314 -0.0137252975 -0.01791339 0.0040788255 0.012731136 0.016802028
0.018577673 -0.010916201 -0.009279747 0.0072794375 -0.0012870063 0.0041140583 -0.0064233416 -0.0042005177
-0.01911624 0.0030245483 -0.008841735 0.006084802 0.007013465 -0.007234141 0.006215304 -0.0036643543
00000000: a847 083c 9e70 383c 72d8 9d3a 06a9 3739
00000010: 4863 7e3b 28d1 1a38 fe3f a3ba 2692 80bb
00000020: 5f0c bebb a5d6 263b 8d4e cfbb a8e9 5c3c
00000030: aedd 7dbb 5407 babc 4449 61ba 2bf6 c13b
00000040: de8f 0ebb 3349 4cbc 2739 00bc 48ff 8fbc
00000050: d76e 68ba e698 66ba 4423 7f3b f3a0 90ba
00000060: 4aab 3b3c eb1e 96ba 72ff 523b ce38 a5ba
00000070: 930a 883a 3026 263b dc6a 4fbb 1737 b63b
00000080: a528 44bb d9bf aabb 0200 a9b8 cfad 13bc
00000090: 4030 45bb c2a6 823c a248 d93b 7b62 15bc
000000a0: 2c33 1c3c 9d68 f03b dd2f 663c 3aea 2c3b
000000b0: d392 893c 102e 7b3b b172 c93a 6b80 c73c
000000c0: 8f86 b63b bcd6 6fbb e408 6bbc cfb0 4b3c
000000d0: abd1 7c3b 4931 b33b 6051 adbb ec49 443b
000000e0: 6e10 e53a af6b afbc 6522 febb 4cd0 a7bc
000000f0: ecd9 39bb 621e 183c d2f7 86b9 2a85 e3bb
00000100: 32a8 87ba 4858 ccbb 1deb 90bb 5987 07bb
00000110: 7b3b 343b 9f87 71bb 874c 4abc e87f 90bb
00000120: 8c40 71ba 4f19 cebb 6947 ab3b b8eb ee3a
00000130: d4db 6f3c 0e64 e2bb f12c c3bb 3561 3d3b
00000140: 588b 363b 765f 493a 584a 783c 361e a03b
00000150: 3666 8bbb 7bd4 633c b34c adba 807b 083c
00000160: 64fe 6a3b 9bd4 a1bb cd9f 413c f769 8b3b
00000170: b020 91bb afbc 373b cc33 0a3c e2d9 0ebc
00000180: 1645 70bc a242 3ebc fac3 12bc 3559 993c
00000190: f2e8 3d3c 1fe8 06bb a6a2 033c 54b6 0ebc
000001a0: 6f44 df3b 8a9d a0ba 360c 9cba c3a4 8bbc
000001b0: b189 b4ba a0d7 b8bb bc8d fdbb 8f7b a53b
000001c0: f7dc 45bb 5992 78bc 4bdc 4c3c 0fcd 29bc
000001d0: e0dc 3c3c 29a6 21bc 5fcb 89bb 0517 4dbb
000001e0: 51d7 033c a20d 063c 72a3 35bc 9d5d 533c
000001f0: a3ce 6ebc 6d99 b33a b95f 1d3c d3b4 af3a
00000200: f9c5 97bb c2b4 98bb 521d 76bc 8063 0f3b
00000210: 55f2 643c cfa1 93bc 0225 043c b14e 1ebb
00000220: c641 db3a bf1b 70bb d5e0 a93b a0a4 e43b
00000230: 8c4e 5c3a d371 03bb d89a bb3c 61c1 9dbb
00000240: bbc4 90bc f02a 96bc 8101 b23b fc3e 633c
00000250: 56c3 323c 54f4 823a 8c7c db3b 82a9 1ebc
00000260: 5ce8 1dbb 6743 bb3a 4f68 2f3c 5413 82bb
00000270: 94f3 81bc 1026 b43b 94ed 093c 55db 533c
00000280: 7c54 9ebb f5e0 ca3b cf63 11bc af6a 85bc
00000290: 4f32 dd3a 2443 ee3b dfab 4cbc 8038 463c
000002a0: fc31 323c c0e5 65bc 6ab1 7fbc 7b36 9c3b
000002b0: e647 0c3c 61d8 f1ba 751a f13b d502 19bc
000002c0: cae8 81ba 71eb 8ebb e5b6 02bc e66a 84bc
000002d0: f3eb 173b c47f 8dba aa83 d2bb e9e6 96bc
000002e0: 1399 563c 8965 84bc a50a 86bb 101d c93b
000002f0: 0699 783b abe4 b43a 544e 8c3a 98e3 a1ba
00000300: f777 62ba 1365 db3b 57a3 66bc ef8a 333c
00000310: e983 0ebc 85db 773a 2dc0 333c 06b9 393c
00000320: 9e47 0fbb b992 8339 3a15 963b dfe7 a43b
00000330: 315a a7bb b493 afbb cb7c ff3b aa17 3ebc
00000340: 00c2 abbb 3ad7 983b 6d22 dd3b 9716 0a3b
00000350: 7ba7 47b9 08fc 6abb 0327 4fbc 341b 803c
00000360: 80af d83b 4d0a af3b 0e56 2a3b 2f4f 913c
00000370: a504 e33a 3aa2 7cbb 4629 4ebb 93d8 2d3a
00000380: 4bf6 c8bb 51b8 9fbb 287a 733c 5cbd a43b
00000390: e8da 0dbc b4c0 83bc 9fb3 9539 6579 26bb
000003a0: 22b0 823b bbf1 4b3c 8387 6bba 12e0 60bc
000003b0: 1abf 92bc aba7 853b 4196 503c 68a4 893c
000003c0: 3430 983c ded9 32bc 140a 18bc 5988 ee3b
000003d0: c4b0 a8ba 39cf 863b e57a d2bb 7fa4 89bb
000003e0: a999 9cbc 8037 463b eddc 10bc 0563 c73b
000003f0: 35d1 e53b 600c edbb c0a9 cb3b aa25 70bb

action_model._discrete_distribution.branches.1.bias f4 [13]
0.0019475091 -0.007173857 -0.0030958483 -0.0010958461 -0.005355435 -0.0016839694 -0.008186376 1.7269536e-05
-0.005447306 0.021517497 -0.0044308957 -0.0039359163 -0.010228665
00000000: 9043 ff3a ad12 ebbb b7e3 4abb 7ea2 8fba
00000010: a57c afbb a3b8 dcba 2620 06bc 0cde 9037
00000020: 517f b2bb 7645 b03c 0c31 91bb dcf8 80bb
00000030: 2196 27bc

action_model._discrete_distribution.branches.2.weight f4 [13, 142]
-0.009407501 0.006721047 -0.0024366733 -0.0033766208 -0.015355583 0.0088305855 -0.00042310145 0.009529048
0.016956288 -0.0052624415 0.0027425557 -0.02089454 0.008259352 -0.022606375 0.002351378 -0.0023595921
0.008355738 0.012133557 -0.0020205108 0.013996953 0.015580166 -0.009049301 0.00819968 0.0027902965
-0.0065048193 0.0022508127 -0.01156438 -0.017562745 -0.025815098 0.01047323 -0.0060700723 -0.006685635
-0.002675812 5.585303e-05 -0.014631253 -0.0056255395 -0.004079707 0.002142484 -0.0074420357 0.015400075
0.0063688853 0.0074361414 0.0011564661 -0.0016402558 0.008590608 0.012129231 0.005799027 0.011643397
-0.010482318 0.0124415 0.010905962 -0.008737224 -0.0024844615 0.017038822 -0.003224512 0.009449356
-0.014780679 -0.0074286344 -0.007636618 -0.0012485037 -0.00051979086 -0.0033480327 0.006216778 -0.018601846
0.004443843 -0.0021994433 -0.00081484136 -0.007997351 0.0067803278 0.009397995 -0.01668439 -0.0026481752
-0.013684352 0.001368012 0.003490349 -0.0009980358 -0.0023045957 0.015410534 0.009312302 -0.0040980135
0.00495369 -0.0025043937 -0.0070186704 0.0072254026 0.014381679 -0.0011931418 -0.017748615 -0.0054390305
0.0035058688 -0.0029387963 0.018053269 -0.0031961517 -0.012751725 0.009301572 0.0017194728 0.00390655
-0.0044704964 0.009476271 -0.0056725116 0.002440428 -0.004214048 0.0050209556 -0.0088680675 0.0034380262
-0.005723703 0.00412686 0.011758197 0.011249591 -0.0028953147 0.022031827 0.005011702 0.0006249725
0.0105908895 -0.012842634 0.008679094 -0.00046828223 -0.004383216 -0.0063785845 0.0027062888 0.0034274184
-0.012355912 0.0012731138 0.013668235 -0.008386389 0.010134157 -0.010595714 0.002573262 0.0023024562
-0.00043963882 -0.008925516 0.0033291278 -0.0076957266 0.0062330314 0.007998574 0.010414702 -0.004275332
0.009894396 -0.0035485981 0.003894742 0.0038318788 0.004377712 0.0010967051 0.01242689 -0.012297708
0.0038896843 -0.00800127 -0.0038262776 0.010231608 0.008629784 0.008356017 0.01155858 -0.0027027167
-0.003966063 -0.011758973 0.005442648 0.0040383646 0.0059201457 0.0102856895 0.023741659 -0.0014940391
0.004467227 0.0033507154 -0.0005139585 0.0038430458 -0.0107796965 0.008890475 -0.007378247 0.02045419
0.006858534 0.017198637 -0.002651776 -0.0043892097 0.0027576268 -0.0026846195 0.019355886 0.011624293
-0.021557672 -0.0022210449 0.017495723 -0.0015252366 0.0027209432 -0.0031600427 -0.0068833847 -0.0016434652
-0.00203811 -0.012757128 -0.0066266125 0.018889798 0.007202346 -0.0016585236 -0.015259551 0.018940324
0.008007733 0.007487424 -0.0006524865 0.0006368916 -0.0019568396 -0.0030718185 0.00385829 -0.0015970286
-0.009297422 0.009899338 -0.0003963673 0.016930964 0.008087454 -0.0054371553 0.015820123 0.0062274123
0.008907845 0.00890818 0.004281682 -0.001562344 0.01695845 0.004442302 0.02147295 0.005496881
-0.0025400894 0.008499512 -0.00116654 0.0023115284 -0.0006339304 -0.0011464113 0.0048174825 -0.005488198
0.009184269 0.0022426257 -0.0033368578 -0.011534407 -0.0028480312 -0.0046297996 0.004822528 0.012125044
0.004961288 0.0055584842 0.016398529 0.0014097693 -0.009223043 0.0015573441 0.008939984 0.0052801333
-0.0043754163 -0.006856154 -0.005102407 0.011475035 -0.006537092 -1.1900216e-05 -0.006889443 0.0006886902
-0.0005213011 0.0065403567 -0.019452482 0.006214346 0.006519922 0.010535669 -0.009944487 -0.0021008623
00000000: eb21 1abc 3b3c dc3b 98b0 1fbb 4c4a 5dbb
00000010: fc95 7bbc 29ae 103c b7d3 ddb9 b91f 1c3c
00000020: eae7 8a3c 8f70 acbb 73bc 333b 072b abbc
00000030: 3c52 073c 0131 b9bc 9419 1a3b 63a3 1abb
00000040: 81e6 083c d4cb 463c 8c6a 04bb 7a53 653c
00000050: f443 7f3c 8543 14bc f357 063c 68dd 363b
00000060: 6126 d5bb 5f82 133b 8678 3dbc bfdf 8fbc
00000070: 2f7a d3bc e997 2b3c 75e7 c6bb 2c13 dbbb
00000080: ad5c 2fbb bc43 6a38 ecb7 6fbc 7256 b8bb
00000090: 10af 85bb eb68 0c3b 52dc f3bb 9950 7c3c
000000a0: 15b2 d03b e0aa f33b 9094 973a dafd d6ba
000000b0: 9fbf 0c3c afb9 463c c405 be3b f2c3 3e3c
000000c0: 07be 2bbc 6fd7 4b3c ecae 323c 9326 0fbc
000000d0: 59d2 22bb 0095 8b3c 5652 53bb 79d1 1a3c
000000e0: a92a 72bc e76b f3bb 983c fabb d5a4 a3ba
000000f0: 9342 08ba ab6a 5bbb 1db6 cb3b e662 98bc
00000100: a89d 913b 8924 10bb 149b 55ba 5207 03bc
00000110: 832d de3b 0cfa 193c b4ad 88bc 028d 2dbb
00000120: 5534 60bc de4e b33a 57be 643b 86d0 82ba
00000130: b308 17bb 777c 7c3c a092 183c a148 86bb
00000140: 9052 a23b c120 24bb e0fc e5bb 12c3 ec3b
00000150: 22a1 6b3c 3263 9cba 8b65 91bc e539 b2bb
00000160: b8c2 653b d298 40bb 73e4 933c 8776 51bb
00000170: 9cec 50bc 9f65 183c ef5f e13a 8402 803b
00000180: 3e7d 92bb 5d42 1b3c 7ae0 b9bb 96ef 1f3b
00000190: ff15 8abb d486 a43b 5f4b 11bc 8250 613b
000001a0: e78d bbbb 9c3a 873b 74a5 403c 3450 383c
000001b0: 52bf 3dbb 177c b43c 3439 a43b 32d5 233a
000001c0: 6985 2d3c e969 52bc c232 0e3c c783 f5b9
000001d0: 15a1 8fbb 7203 d1bb fe5b 313b 8a9e 603b
000001e0: 7370 4abc 9cde a63a bcf0 5f3c 1167 09bc
000001f0: bc09 263c a599 2dbc 2ca4 283b cee4 163b
00000200: 537f e6b9 543c 12bc 7f2d 5a3b 6f2c fcbb
00000210: 753e cc3b 730c 033c 6da2 2a3c 1618 8cbb
00000220: 1b1c 223c 998f 68bb ee3e 7f3b 4220 7b3b
00000230: e972 8f3b 51bf 8f3a 289a 4b3c 537c 49bc
00000240: 13ea 7e3b c217 03bc 49c2 7abb 79a2 273c
00000250: f063 0d3c ade7 083c 3360 3d3c 1020 31bb
00000260: bff5 81bb b5a8 40bc 3e58 b23b 4254 843b
00000270: c8fd c13b 4f85 283c de7d c23c a2d3 c3ba
00000280: d161 923b ad97 5b3b 2cbb 06ba 9cdb 7b3b
00000290: 539d 30bc 5ba9 113c 39c5 f1bb 8c8f a73c
000002a0: 8ebd e03b 28e4 8c3c 6bc9 2dbb 5cd3 8fbb
000002b0: 4db9 343b 71f0 2fbb 3c90 9e3c d273 3e3c
000002c0: b799 b0bc f38e 11bb 3153 8f3c 73ea c7ba
000002d0: da51 323b b818 4fbb 048e e1bb 8b69 d7ba
000002e0: d091 05bb 4603 51bc 0e24 d9bb c7be 9a3c
000002f0: a801 ec3b d162 d9ba 3203 7abc bd28 9b3c
00000300: de32 033c 1159 f53b a10b 2bba 12f5 263a
00000310: 523e 00bb 9050 49bb 5ddb 7c3b 6353 d1ba
00000320: 3754 18bc d530 223c 85cf cfb9 ceb2 8a3c
00000330: 3e81 043c 2a2a b2bb 3499 813c 520f cc3b
00000340: 36f2 113c 9df3 113c 5a4d 8c3b 91c7 ccba
00000350: 73ec 8a3c bb90 913b 0ae8 af3c 2e1f b43b
00000360: a177 26bb 8a41 0b3c 96e6 98ba 037d 173b
00000370: 592e 26ba 2e43 96ba f9db 9d3b 57d6 b3bb
00000380: 9e79 163c 04f9 123b 2faf 5abb cffa 3cbc
00000390: 09a6 3abb 93b5 97bb 4c06 9e3b 1fa8 463c
000003a0: 4d92 a23b f223 b63b 3556 863c 02c8 b83a
000003b0: 3f1c 17bc cc1f cc3a 0379 123c f804 ad3b
000003c0: a75f 8fbb 97a9 e0bb 1832 a7bb c901 3c3c
000003d0: 1a35 d6bb 0aa7 47b7 d6c0 e1bb 3889 343a
000003e0: eda7 08ba 7d50 d63b d05a 9fbc b6a1 cb3b
000003f0: 12a5 d53b cc9d 2c3c 34ee 22bc 9fae 09bb

action_model._discrete_distribution.branches.2.bias f4 [13]
-0.0039418847 -0.005029393 -0.0032011673 -4.877739e-05 -0.00021449456 -0.002312061 -0.007479682 0.0012437761
0.0010244687 -0.012464363 0.022762574 -0.004693828 -0.0003230405
00000000: ed2a 81bb 9bcd a4bb adca 51bb 5396 4cb8
00000010: f2e9 60b9 f285 17bb 1f18 f5bb 3306 a33a
00000020: 7747 863a 5437 4cbc 9478 ba3c afce 99bb
00000030: c35d a9b9

action_model._discrete_distribution.branches.3.weight f4 [13, 142]
-0.007131989 -0.0005359818 -0.0037454213 0.011020026 0.012169185 -0.0086672455 -0.0035370681 -0.0068786787
-0.008376486 0.0005791133 0.0064124893 0.0033419284 -0.010032799 -0.006246614 0.000691334 -0.0027288403
0.0027630017 0.0018207518 -0.0033907003 0.001189942 -0.0120147625 0.0035082053 0.010049712 -0.00445811
-0.0016947042 -0.013604432 0.0028247738 -0.009656727 -0.008164628 -0.012587276 0.0051426385 -0.00023545948
-8.599776e-05 -0.00089316553 0.0004730744 -0.002009612 -0.010831654 -0.0079252375 0.0052606324 0.010604089
-0.00080305286 0.013908183 -0.014578215 -0.0052554617 0.005825099 -0.00873193 -0.00872429 -0.013003921
0.008753313 -0.004732561 0.0027438384 -0.0052397903 -0.007277909 0.0005140698 0.0057140295 0.01208557
0.0005901792 0.0136142 -0.006826093 0.009018837 -0.00922514 -0.002095088 -0.009696892 -0.013621792
-0.010437034 -0.01675769 -0.013532364 -0.006328486 -0.00068935927 -0.006594592 -0.0070401393 -0.0018442168
-0.013962527 -0.009368448 0.012159472 -0.004705672 0.0011802799 0.006851093 -0.029007137 -0.0074058883
-0.003979182 -0.0022221694 -0.0037198532 -0.004277171 0.0076720305 -0.0114814695 -0.0019973782 -0.007485755
0.016700758 -0.0021861638 0.0008126657 -0.011704237 -0.0101059405 0.0079131825 0.014071429 -0.0053660856
-0.005603545 -0.00012194786 0.0032103306 0.006315435 -0.016033513 0.0009018636 0.015927084 0.009921725
0.021681178 -0.008324047 0.0189813 -0.011627463 -0.0038127515 -0.0076757544 -0.006221571 -0.013167528
0.0010719731 0.0063517424 -0.008509785 -0.0096127335 0.009392971 0.00073436607 -0.0073792157 0.0007742155
0.010656558 0.014469093 -0.0066262595 0.00776977 0.008691335 -0.012592475 0.005479553 0.0043287817
0.0010340621 -0.0028303834 -0.0016674572 -0.008050392 0.0018007649 0.0011584443 -0.015704384 -0.0015972189
-0.0005546988 0.010831181 -0.0045696893 -0.0069138706 -0.0048472052 -0.003662934 -0.00741645 0.014244512
0.002135751 -0.019346261 0.0052872533 0.019663503 0.014320536 0.0041407025 0.014354017 -0.009825757
0.0071085803 -0.0035468258 0.014252023 -0.012296496 -0.009371985 -0.0068476545 0.0029809414 0.005261926
0.0064946036 -0.008732561 0.0009919949 0.003911491 -0.013135815 -0.0010922222 -0.014894236 0.0028157106
0.0075254347 0.010595131 -0.0131179085 0.012391846 0.0001104015 -0.0056761024 -0.0052475296 -0.007876364
0.006305837 -0.00800099 -0.004989605 0.0002529742 0.0016637105 0.0083113415 0.008751614 -0.0065921242
0.0122171445 0.020077096 0.001976415 -0.006845226 0.0069671934 0.00088243524 0.012082529 -0.013104455
0.009885689 0.009792304 0.013570653 0.010463154 0.009912433 0.0016402728 0.004170721 -0.0037604447
-0.0021144052 -0.0069123423 0.008358304 -0.008803388 0.0076395962 0.0024257016 0.011539766 -0.004107009
0.0063519743 0.00011762012 0.006933723 0.010907024 0.0038060206 0.010349734 -0.0019228854 0.00963426
0.0036419006 -0.0039365306 -0.013986945 -0.0119594345 -0.015152019 -0.0025803861 0.0037416932 -0.006544551
-0.006351091 -0.010612842 0.003629292 0.004710835 0.0025306956 -0.0025382414 -0.007875001 0.0019114077
-0.0010608815 -0.0047764448 0.0060155992 -0.00040970155 -0.0027676236 -0.0069491556 0.0005353498 0.0159934
0.0030163242 -0.005900492 -0.009579295 0.0031560878 -0.0064538624 -0.009466698 0.0050847414 0.00041580133
-0.00026464165 0.005233468 0.004763144 0.004712177 0.006647628 0.00275311 0.0057519316 0.009999491
00000000: 76b3 e9bb 2181 0cba be75 75bb 578d 343c
00000010: 4361 473c 1001 0ebc 28ce 67bb 8a66 e1bb
00000020: 873d 09bc a3cf 173a dc1f d23b 4104 5b3b
00000030: 9c60 24bc 65b0 ccbb a43a 353a 58d6 32bb
00000040: 7a13 353b 4ba6 ee3a 8336 5ebb d4f7 9b3a
00000050: 91d9 44bc ebe9 653b 8ca7 243c 5615 92bb
00000060: d620 deba 20e5 5ebc d71f 393b 4037 1ebc
00000070: efc4 05bc dd3a 4ebc 9483 a83b ace5 76b9
00000080: b259 b4b8 5323 6aba f906 f839 b2b3 03bb
00000090: 4077 31bc dbd8 01bc 6261 ac3b c6bc 2d3c
000000a0: f783 52ba 26df 633c 77d9 6ebc 0236 acbb
000000b0: 79e0 be3b 5e10 0fbc 53f0 0ebc 660e 55bc
000000c0: 0e6a 0f3c 9913 9bbb f8d1 333b 8cb2 abbb
000000d0: 877b eebb a4c2 063a c13c bb3b 8e02 463c
000000e0: 41b6 1a3a 180e 5f3c 6bad dfbb bec3 133c
000000f0: 0b25 17bc be4d 09bb b7df 1ebc f02d 5fbc
00000100: 1800 2bbc 6c47 89bc d9b6 5dbc 305f cfbb
00000110: 1eb6 34ba 7217 d8bb f8b0 e6bb a6b9 f1ba
00000120: 15c3 64bc 1e7e 19bc 8638 473c 0a32 9abb
00000130: 9fb3 9a3a 227f e03b 60a0 edbc 18ad f2bb
00000140: cc63 82bb d1a1 11bb c8c8 73bb 8327 8cbb
00000150: a865 fb3b c61c 3cbc 72e6 02bb 104b f5bb
00000160: 07d0 883c be45 0fbb 1209 553a 21c3 3fbc
00000170: 6393 25bc 4ba6 013c da8b 663c fdd5 afbb
00000180: f19d b7bb 42be ffb8 6964 523b b5f1 ce3b
00000190: b758 83bc 0b6b 6c3a 8479 823c bb8e 223c
000001a0: ba9c b13c 9561 08bc ac7e 9b3c 1d81 3ebc
000001b0: 5bdf 79bb e584 fbbb 52de cbbb 9ebc 57bc
000001c0: 7381 8c3a 4722 d03b a06c 0bbc ba7e 1dbc
000001d0: fae4 193c 7982 403a 59cd f1bb b9f4 4a3a
000001e0: d898 2e3c c60f 6d3c 1821 d9bb 8e99 fe3b
000001f0: 1a66 0e3c ab50 4ebc d28d b33b 74d8 8d3b
00000200: 5e89 873a f47d 39bb 948e daba cbe5 03bc
00000210: a507 ec3a f1d6 973a 7ba6 80bc c659 d1ba
00000220: 3569 11ba 4475 313c 55bd 95bb c08d e2bb
00000230: 4ed5 9ebb d60d 70bb b105 f3bb d061 693c
00000240: f5f7 0b3b 0d7c 9ebc b240 ad3b 5b15 a13c
00000250: aea0 6a3c bbae 873b 1c2d 6b3c 36fc 20bc
00000260: 18ef e83b dd71 68bb 5181 693c 3e77 49bc
00000270: f48c 19bc 4a62 e0bb e65b 433b 3c6c ac3b
00000280: afd0 d43b 0413 0fbc d305 823a f72b 803b
00000290: 9a37 57bc e528 8fba f406 74bc c987 383b
000002a0: ec97 f63b 3397 2d3c 7fec 56bc 2b07 4b3c
000002b0: 5b87 e738 99fe b9bb 78f3 abbb dd0b 01bc
000002c0: 32a1 ce3b 9616 03bc d77f a3bb 9fa1 8439
000002d0: dc10 da3a 4b2c 083c ee62 0f3c bf02 d8bb
000002e0: 6b2a 483c b978 a43c be86 013b eb4d e0bb
000002f0: 0e4d e43b 3a53 673a cdf5 453c 11b4 56bc
00000300: 96f7 213c e66f 203c 7257 5e3c a66d 2b3c
00000310: c267 223c 6cfe d63a 8baa 883b cb71 76bb
00000320: d591 0abb ee80 e2bb 45f1 083c 163c 10bc
00000330: 9455 fa3b 85f8 1e3b 4911 3d3c 1794 86bb
00000340: 3924 d03b d2aa f638 4934 e33b 60b3 323c
00000350: 6e6e 793b ee91 293c 5409 fcba 04d9 1d3c
00000360: f4ac 6e3b 03fe 80bb 8029 65bc 81f1 43bc
00000370: 2d40 78bc b21b 29bb 3237 753b ac73 d6bb
00000380: d01c d0bb 7ce1 2dbc 6ad9 6d3b 595d 9a3b
00000390: 07da 253b a058 26bb 2606 01bc 3388 fa3a
000003a0: 470d 8bba b983 9cbb 811e c53b 36cd d6b9
000003b0: 0561 35bb beb5 e3bb b856 0c3a 9704 833c
000003c0: 86ad 453b ea58 c1bb 7af2 1cbc 5ed6 4e3b
000003d0: ec7a d3bb 361a 1bbc e79d a63b e9ff d939
000003e0: 9abf 8ab9 837d ab3b 2614 9c3b 9b68 9a3b
000003f0: 58d4 d93b 856d 343b b37a bc3b e8d4 233c

action_model._discrete_distribution.branches.3.bias f4 [13]
0.0018066016 -0.004191326 -0.0055319816 -0.002557179 -0.0036178685 0.0006809575 -0.0053635156 0.0019478275
-0.005780442 -0.009131073 -0.0027281633 0.021580612 -0.002243855
00000000: 7ecb ec3a 6457 89bb a045 b5bb 5896 27bb
00000010: c319 6dbb 4982 323a 6ec0 afbb 3f4e ff3a
00000020: dd69 bdbb 7f9a 15bc fcca 32bb d3c9 b03c
00000030: a40d 13bb
