results/NewTwoAgentsFullBoardAction/WhiteMLAgent/WhiteMLAgent-582.onnx (onnx, 681198 bytes, 133 tensors)

discrete_act_size_vector f4 [1, 64]
000000 00 00 50 41 00 00 50 41 00 00 50 41 00 00 50 41
       13.0 13.0 13.0 13.0
000010 00 00 50 41 00 00 50 41 00 00 50 41 00 00 50 41
       13.0 13.0 13.0 13.0
000020 00 00 50 41 00 00 50 41 00 00 50 41 00 00 50 41
       13.0 13.0 13.0 13.0
000030 00 00 50 41 00 00 50 41 00 00 50 41 00 00 50 41
       13.0 13.0 13.0 13.0
000040 00 00 50 41 00 00 50 41 00 00 50 41 00 00 50 41
       13.0 13.0 13.0 13.0
000050 00 00 50 41 00 00 50 41 00 00 50 41 00 00 50 41
       13.0 13.0 13.0 13.0
000060 00 00 50 41 00 00 50 41 00 00 50 41 00 00 50 41
       13.0 13.0 13.0 13.0
000070 00 00 50 41 00 00 50 41 00 00 50 41 00 00 50 41
       13.0 13.0 13.0 13.0
000080 00 00 50 41 00 00 50 41 00 00 50 41 00 00 50 41
       13.0 13.0 13.0 13.0
000090 00 00 50 41 00 00 50 41 00 00 50 41 00 00 50 41
       13.0 13.0 13.0 13.0
0000a0 00 00 50 41 00 00 50 41 00 00 50 41 00 00 50 41
       13.0 13.0 13.0 13.0
0000b0 00 00 50 41 00 00 50 41 00 00 50 41 00 00 50 41
       13.0 13.0 13.0 13.0
0000c0 00 00 50 41 00 00 50 41 00 00 50 41 00 00 50 41
       13.0 13.0 13.0 13.0
0000d0 00 00 50 41 00 00 50 41 00 00 50 41 00 00 50 41
       13.0 13.0 13.0 13.0
0000e0 00 00 50 41 00 00 50 41 00 00 50 41 00 00 50 41
       13.0 13.0 13.0 13.0
0000f0 00 00 50 41 00 00 50 41 00 00 50 41 00 00 50 41
       13.0 13.0 13.0 13.0

network_body._body_endoder.seq_layers.0.weight f4 [142, 71]
000000 fc 0d 68 bd c1 6d 25 be c9 97 43 be b9 c0 c1 3d
       -0.05665396 -0.16155149 -0.1910087 0.09460587
000010 2f 6a b0 3e a1 c9 b3 bd 97 bc 5c ba 5a 13 2f be
       0.34456012 -0.08778692 -0.0008420436 -0.17097226
000020 d4 78 38 3d ff 30 65 3d 50 f9 a1 bd 00 c4 35 be
       0.045037106 0.05595493 -0.07908881 -0.1775055
000030 4c 89 9f be 4f 4a da 3c 19 06 5c 3e 58 86 af 3c
       -0.31159437 0.026646761 0.21486701 0.021426365
000040 02 dc 0e bd 14 63 4f 3d 4a e3 4f 3e 1d 8e f9 bc
       -0.034877785 0.050631598 0.20301548 -0.030463273
000050 6a 14 44 bb 46 78 09 be 86 b6 3f bd d0 54 ac bb
       -0.0029919394 -0.13424787 -0.046804927 -0.005259134
000060 93 f3 8d 3c 4e 0b 0e be b7 42 d0 3d 9f 60 11 be
       0.01732806 -0.138715 0.10168975 -0.14197014
000070 a5 9c f7 3d 6b fa 8d 3d c3 48 1b 3e b7 dd bd bd
       0.120904244 0.06932529 0.15164475 -0.092708044
000080 6e 14 11 3d 93 f6 ec 3c c8 7b 1d be 9b d5 38 3d
       0.035419874 0.02892617 -0.1537925 0.045125585
000090 ce 7c eb 3b 65 cf 20 be 95 b8 cd bc 31 e3 28 be
       0.0071865087 -0.15704115 -0.02511243 -0.16492917
0000a0 da 32 8b 3c 5a c7 08 be 52 1e 51 be 36 ac e3 bd
       0.016992021 -0.13357297 -0.20421723 -0.11116831
0000b0 ff 51 c3 bd 0a 19 ea bd 2e 0a f9 bc 41 92 a7 bd
       -0.09537124 -0.11430557 -0.030400362 -0.081821926
0000c0 d6 7d f6 3a ec db c9 3d 55 ad 64 bd 03 f0 0c be
       0.0018805813 0.098564 -0.055829365 -0.13763432
0000d0 09 57 c1 bc 57 e3 70 bc 20 85 0c 3d 89 b0 da bd
       -0.023601072 -0.01470264 0.034306645 -0.10678203
0000e0 8f 28 41 be e7 c2 21 3e f0 9e 01 bc 3a 1e fb bc
       -0.18863128 0.15797006 -0.007911429 -0.030654062
0000f0 bf 2b 1d 3d 3c 35 11 3e 05 3c a9 3c 6a 9c 54 be
       0.038371798 0.14180464 0.020658502 -0.20762792
000100 4d 13 39 be a5 3f 58 bc 2e e3 57 3c d4 bd 2f be
       -0.18073769 -0.013198768 0.013176722 -0.17162257
000110 7d 9f 8b be 66 49 00 3d 28 80 17 be 7d 38 47 3d
       -0.27270117 0.03132 -0.14794981 0.048637856
000120 21 fe a6 bd 37 63 26 3d 27 35 a4 bd 6b 5b 60 bb
       -0.0815394 0.040621962 -0.080179505 -0.0034234177
000130 54 3c 2d be 1a 41 f9 3b cd 92 12 bc 47 23 61 be
       -0.16917545 0.0076066377 -0.008946133 -0.21986113
000140 cf 27 31 bd ee db 67 3d 85 36 42 be e2 c3 b1 bc
       -0.043250855 0.056606226 -0.1896611 -0.02169985
000150 cc 56 9e 3d 52 3b c8 bd bb 13 1c be 58 7f 09 bd
       0.07731399 -0.097769395 -0.15241902 -0.03356871
000160 03 5d 26 be 8e c3 6b be e5 3e 12 3d 29 51 2a be
       -0.16246419 -0.23023817 0.035704512 -0.16632523
000170 1c 8c 01 bd c5 24 6e bd 31 ae e6 3d 75 4b f7 bd
       -0.03162776 -0.058140535 0.11263693 -0.12074939
000180 3a 51 17 be 1f 96 40 be fa dc 61 be 79 5b 74 3d
       -0.14777079 -0.18807267 -0.22056952 0.059657548
000190 eb 91 86 3d d9 99 1a 3e 02 09 b0 3e 73 0a cc bc
       0.065708004 0.1509775 0.34381872 -0.024907326
0001a0 3d 6c 7d bc f5 da a5 bd 16 76 19 be 02 c3 7a 3d
       -0.015467701 -0.08098403 -0.14986452 0.06122113
0001b0 d1 0a f5 bb e7 02 98 bd e1 27 5f bc 40 ea 88 bd
       -0.007478096 -0.074224286 -0.013620348 -0.06685305
0001c0 c7 d3 63 bc 61 de 41 bd 19 48 28 3d a3 b9 ef 3d
       -0.013905472 -0.047331218 0.041084383 0.11705329
0001d0 67 4c cc bd a3 8d 2b 3e 6a 88 b8 3c 2c ba 16 3e
       -0.0997551 0.16753249 0.022525985 0.14719456
0001e0 3d 1b a7 3d 44 49 c5 3d cd 14 1a 3e dd 71 21 3e
       0.08159492 0.09633115 0.15046997 0.15766092
0001f0 dc d7 3f 3d 00 e0 4d bd 01 58 26 3e 57 70 ad bd
       0.04683672 -0.05026245 0.16244508 -0.08468693
000200 94 1a 2d 3d 71 6e 04 be 8d 08 c6 3d 55 b3 d9 bd
       0.042261675 -0.12932755 0.096696 -0.10629908
000210 05 c4 0c be 6a d2 69 3e 24 fa 1a 3e 81 0b de 3b
       -0.1374665 0.22834173 0.15134484 0.0067762737
000220 ae 42 65 3e 1f d3 ac 3d 3a 96 2e 3b 3f 06 99 3c
       0.22388718 0.08438706 0.0026639835 0.018679736
000230 03 65 04 be 4c 82 17 bd 1c d5 ab bc 24 32 84 3e
       -0.12929158 -0.036989495 -0.020975642 0.25819504
000240 8b 9c 28 3e 4e 96 71 3e a2 32 c0 bc f0 fb 65 bd
       0.16465966 0.23592493 -0.023461644 -0.05614847
000250 ee 0a 1e 3e 6c 6e 64 be d5 13 4e bd d1 22 cc bd
       0.15433857 -0.22307748 -0.050311882 -0.09967578
000260 cb 76 5b be 95 ee e3 bc cf 6e 0a bd d0 b7 dd bc
       -0.21432035 -0.027823726 -0.03379708 -0.027065188
000270 63 52 64 3d 9c 7d 8f bd 1e 8e 5c be db 44 9e bc
       0.055742633 -0.0700638 -0.21538588 -0.019319942
000280 b8 e7 f6 bd 13 5c eb 3c 90 e0 65 3d 0c 92 36 bd
       -0.120559156 0.028730428 0.056122363 -0.044572875
000290 47 f3 92 bd fd 59 c7 bd 44 14 69 bb 30 1c 4c 3d
       -0.07175308 -0.09733961 -0.0035565058 0.04983157
0002a0 66 e5 b0 bd 75 f8 88 3d ed ea aa 3d e1 b9 0f 3e
       -0.08637504 0.066880144 0.0834559 0.14035751
0002b0 79 0d c3 3d 0b 56 45 bc bc b3 b8 3d e8 a9 f9 bd
       0.09524054 -0.01204444 0.090186566 -0.1219061
0002c0 71 57 de bd 76 25 37 3e 43 5b 78 be b0 7b 28 3e
       -0.10856522 0.17885384 -0.24253564 0.16453433
0002d0 2c b7 31 3d 96 bd 0c 3e 07 7a 84 3c 47 32 ad bc
       0.043387577 0.13744196 0.016171468 -0.021142138
0002e0 68 72 ba 3d f6 23 12 be 40 8e b1 bd bd e9 04 be
       0.091038525 -0.1427153 -0.0866971 -0.12979789
0002f0 89 40 c5 3d 06 b9 45 3d 38 32 18 3e 8d 82 e8 bd
       0.0963145 0.048272155 0.14862907 -0.113530256
000300 b7 d2 89 3d 2f 34 90 3b 37 05 b8 3d 4c 26 58 be
       0.06729644 0.004400752 0.0898537 -0.21108359
000310 2b 84 7f bd 57 db dd 3d 16 11 23 be 14 10 15 3d
       -0.062381905 0.108328514 -0.15924487 0.036392286
000320 75 34 59 3e 27 bc bf bd 2b 1c 8e 3d bd 83 bd bd
       0.21211417 -0.09362059 0.06938966 -0.09253643
000330 bf d6 21 3e de 2e 3f 3e 79 44 a7 3d 8d a3 96 be
       0.15804575 0.18670222 0.08167357 -0.29421654
000340 37 98 b3 3c 1a 56 74 be 58 17 95 be 49 0f 83 bd
       0.021923168 -0.2386097 -0.29119372 -0.063994
000350 89 67 dd 3c 66 3c 7b bd 97 fe 83 be 74 7f 70 be
       0.027026908 -0.061336897 -0.25780174 -0.2348612
000360 80 c5 b6 3d 7f 91 99 3d f9 26 ac bd e3 1b 2b 3e
       0.08924389 0.07498454 -0.08405871 0.16709857
000370 f8 6b 51 3c 48 fd 58 3d 3f e8 c9 3c 1d a2 8a 3d
       0.012782089 0.052975923 0.024646876 0.06769202
000380 b3 38 32 bc f6 ef 71 3d 0a b6 9b bb b2 6d c7 bc
       -0.010877776 0.059066735 -0.0047519254 -0.024344299
000390 ef a7 d3 3d 47 0e e8 bd 39 41 18 3e a5 b0 43 3e
       0.10334765 -0.11330848 0.1486863 0.19110353
0003a0 9a c9 15 3e 2f e4 6b be 95 97 1a 3e 8c 47 dc bd
       0.14627686 -0.23036264 0.15096886 -0.10755834
0003b0 cd 34 3f bd fc c6 26 bd 16 bd 46 be d9 33 b4 bd
       -0.046681214 -0.04071711 -0.19408068 -0.08798952
0003c0 cf 24 fe 3d 54 21 15 3e 63 1b 1f bc 19 2f b6 3c
       0.124093644 0.14563495 -0.009711119 0.022239255
0003d0 43 5c 9e bb ee 8a 91 3e 3a 37 09 bd a5 a1 c3 3d
       -0.004832776 0.28426307 -0.033499934 0.095523156
0003e0 c7 87 be 3d 57 8e 15 be cd c4 7a 3d 2b 69 12 bd
       0.09303241 -0.1460508 0.06122284 -0.035744827
0003f0 a7 63 6e bd 92 d3 ea bd e3 f8 d7 bd 02 00 05 3e
       -0.058200505 -0.11466135 -0.10545518 0.12988284

network_body._body_endoder.seq_layers.0.bias f4 [142]
000000 ed 08 15 3a 95 18 3e bb 6d 18 69 bb 34 ce 45 3b
       0.0005685229 -0.0029006351 -0.0035567537 0.003018272
000010 d6 28 19 bb a3 1c fd 39 ba ae 87 3b a1 d6 03 bb
       -0.0023370287 0.00048277256 0.004140702 -0.0020116942
000020 a8 e2 31 bb 2d e4 dd ba 69 7b 3e bb cc 5e 06 bb
       -0.0027143154 -0.0016928964 -0.0029065257 -0.002050328
000030 d8 1e c1 ba da 0d f5 ba bc 12 a5 ba e1 e4 34 bb
       -0.0014733924 -0.0018696145 -0.0012594084 -0.0027602243
000040 c8 f8 c6 ba d6 a8 97 3a 82 49 b1 bb 5f 0b 05 3b
       -0.0015180344 0.0011570703 -0.005410374 0.0020300967
000050 22 68 c2 3a a1 de 96 ba d6 57 35 bb ad 2c 90 b9
       0.0014832059 -0.001151044 -0.0027670763 -0.00027499106
000060 76 f2 65 ba ce 20 ac bb b9 76 18 bb c8 e2 ac 39
       -0.0008771786 -0.005252934 -0.0023264124 0.00032975362
000070 01 de bd ba 7e f2 38 ba 9a 2c 65 3a 1d 23 5d ba
       -0.0014485718 -0.0007055177 0.0008742303 -0.0008435713
000080 76 81 40 bb c7 97 c1 ba 16 cd 62 bb 87 57 0c ba
       -0.002937404 -0.0014769965 -0.0034607104 -0.0005353619
000090 c6 4d 1c bb 43 e1 18 38 43 53 2e ba ef df 84 ba
       -0.0023850068 3.6449415e-05 -0.000664998 -0.0010137538
0000a0 d4 ec 07 bb c2 e8 b3 ba cb b6 37 bb b8 39 0d bb
       -0.0020740526 -0.0013725983 -0.0028032537 -0.0021549296
0000b0 23 5e 23 bb 0b c0 65 bb d2 c2 1e bb ab 80 49 bb
       -0.0024927936 -0.0035057093 -0.0024225009 -0.0030746858
0000c0 c6 71 48 bb 1b f0 00 bb 22 f9 aa ba d1 ca 0b 3b
       -0.0030585392 -0.0019674364 -0.0013044218 0.0021330605
0000d0 f5 7e e2 39 b3 7e e3 3a 68 39 9b 39 7e bb 63 3b
       0.0004320067 0.0017356485 0.00029606675 0.0034749205
0000e0 2a 78 7a 3b d3 30 0f bb 43 f2 c8 ba a8 af 00 3a
       0.0038218596 -0.002184917 -0.0015330989 0.00049089873
0000f0 af 0c e1 ba d9 ea d5 3a 7a c6 2e 39 77 e4 b6 ba
       -0.0017169918 0.00163206 0.00016667871 -0.0013953586
000100 c5 f2 84 bb e0 7c 18 39 0a 1b 5f 3a 33 4e 11 bb
       -0.0040572607 0.00014542369 0.0008510804 -0.0022171855
000110 22 1f 3a bb c5 b9 8a bb 18 4a 23 bb 39 e4 34 bb
       -0.0028399904 -0.0042335712 -0.002491599 -0.0027601852
000120 8b b9 3f 3a 16 26 b5 ba af 61 32 bb 3f ee 6a bb
       0.000731372 -0.0013820555 -0.0027218868 -0.0035847572
000130 f6 2f dc ba ff 9e 1c 3b 01 fa 01 bb 16 50 6d ba
       -0.0016798961 0.002389848 -0.0019832852 -0.0009052766
000140 fe 05 8d b9 32 57 2b bb b3 e3 39 ba e0 23 be 3a
       -0.0002689808 -0.0026144502 -0.000709112 0.0014506541
000150 50 6e 5e bb 9c 07 b7 ba 0e 8d 5f bb ef 8e 2c bb
       -0.0033940263 -0.001396406 -0.0034111175 -0.0026330312
000160 96 77 0a bb 7c aa 00 bb 02 00 10 3a cc 29 c1 ba
       -0.0021128408 -0.0019632867 0.0005493165 -0.0014737188
000170 1d 48 53 bb 6a 90 2d b9 e2 d4 d5 38 67 d6 c7 ba
       -0.0032239028 -0.00016552364 0.00010196284 -0.0015246392
000180 fe cb ae 3a 31 fc dd 3a f4 94 a0 bb 05 a4 c3 3a
       0.0013335941 0.0016936121 -0.004900569 0.0014926201
000190 e0 31 10 bb 28 8d 8e bb 7e 9b 68 3a 60 dc 21 ba
       -0.0022002384 -0.004350323 0.0008873268 -0.0006174501
0001a0 f4 2a 2c 3a ca fc d4 3a ee 69 ac ba 84 a4 86 bb
       0.000656768 0.0016249653 -0.0013154128 -0.0041089673
0001b0 0d 5b 00 bb f3 61 16 bb 60 b4 20 b9 95 76 61 bb
       -0.001958552 -0.0022946566 -0.00015325984 -0.0034402956
0001c0 ed c9 c1 b8 40 7f 57 3a 09 b6 2d 3b e1 2b 1d bb
       -9.240569e-05 0.0008220561 0.0026506206 -0.0023982453
0001d0 c8 85 18 bb 2d 4a 9d bb 38 0e 4a bb 88 7c d5 ba
       -0.00232731 -0.004800102 -0.003083123 -0.0016287724
0001e0 f2 c6 69 39 0b 94 37 bb ea e7 a8 ba 84 fb b8 3b
       0.00022294724 -0.0028011824 -0.0012886499 0.0056452174
0001f0 7b 5b 87 ba 6d 7c 9f bb c9 a5 b4 3a 94 15 20 bb
       -0.0010326946 -0.0048671276 0.0013782318 -0.0024426924
000200 87 74 65 bb 33 e4 39 bb 5a 96 47 bb 9a ba b5 bb
       -0.0035012083 -0.0028364777 -0.0030454607 -0.0055459263
000210 e9 67 25 3b c9 b6 6f bb ff a6 17 bb 57 4a 89 bb
       0.0025238937 -0.0036577454 -0.002314031 -0.00418977
000220 2d 25 16 bb 78 39 13 bb 0a 1c ef bb 05 72 12 bb
       -0.0022910342 -0.0022464674 -0.0072970437 -0.0022345793
000230 37 9a 97 3a 52 eb 59 3b
       0.0011566345 0.0033251834

network_body._body_endoder.seq_layers.2.weight f4 [142, 142]
000000 10 af 15 3e 0e 7a 4d bd ad dc 6b 3c ec 38 21 bd
       0.14617562 -0.05016523 0.014395875 -0.039360926
000010 fc de f7 bd a9 2a 9d 3c 13 1e 65 bc 66 b9 16 3e
       -0.12103078 0.019185381 -0.013984221 0.14719161
000020 dc 69 7e 3d 42 53 34 3c 74 18 0e bc 9d b6 b6 bd
       0.062112674 0.011006178 -0.008672822 -0.089215495
000030 19 8a 69 3d 17 89 40 bd 42 db 84 3d 9c 25 e8 bd
       0.057016466 -0.04700574 0.064871326 -0.113352984
000040 d5 dc aa 3c 7d d5 b5 3d 18 62 14 be 46 02 2e be
       0.020857254 0.0887861 -0.14490545 -0.16993055
000050 05 07 76 3d b0 1a 93 bb 18 8e e9 bd 39 39 d8 3c
       0.060065288 -0.0044892654 -0.11404055 0.026394473
000060 39 bf a2 3c 09 37 02 3d ec 44 9f 3c 8e ec 76 3d
       0.019866573 0.031790767 0.019442044 0.06028419
000070 a4 82 fb 3c dd 19 cd bd f4 f7 d5 bd b3 01 0f bd
       0.030701943 -0.10014699 -0.10447684 -0.03491373
000080 55 8e fe 3d 65 db 18 3d 29 ed 14 bd 90 06 b9 3d
       0.124294914 0.037318606 -0.036358986 0.09034455
000090 1a eb d1 3d 58 94 2f 3e f9 6b eb bc 74 76 9f 3d
       0.1024992 0.17146432 -0.028738009 0.07786265
0000a0 ea e0 65 3d 9f 81 b3 bd 94 b5 b2 bd f9 64 32 bc
       0.056122698 -0.08764958 -0.087260395 -0.010888332
0000b0 27 3d e4 bd 42 f0 be 3c f3 ba de bc 12 3a 4c 3d
       -0.111444764 0.023307923 -0.027188754 0.049860068
0000c0 22 bf 55 3e 21 c0 a6 3d f0 c5 0a 3d 3f d1 07 3e
       0.20873693 0.081421144 0.033880174 0.13263415
0000d0 5e 4c 54 3d cc 95 c6 bc f4 55 2d 3e 52 f7 e4 bb
       0.051830642 -0.02424135 0.1692732 -0.0069874907
0000e0 69 be 6d 3d 44 97 b6 bd 50 b7 45 3d 12 30 3b bd
       0.058042917 -0.089155704 0.048270524 -0.04570014
0000f0 2b 4f 56 bd 6a fc 65 3d 8e 8f 08 3e 03 fe 9e 3d
       -0.052321594 0.056148924 0.13336012 0.07763293
000100 55 54 55 bc 54 3f af 3d 33 c1 16 3e e9 e2 bb 3d
       -0.013020595 0.08557001 0.14722137 0.09174139
000110 a7 7c 87 bb 6e b4 0d 3d 39 90 6f bd d1 d2 c5 bd
       -0.0041347328 0.0345959 -0.05848715 -0.09659351
000120 13 ca ff bc 4e 98 8b bd 0c 93 9e bd 65 de e3 3d
       -0.031224286 -0.06816159 -0.07742891 0.11126403
000130 a8 6b dd bc 31 15 ce bc 52 c3 0b be c6 81 60 bd
       -0.027028874 -0.02515659 -0.13648728 -0.05481126
000140 27 91 f6 bc d2 c4 cd bd 3e 21 a2 3d 05 f9 c0 3d
       -0.03009851 -0.10047306 0.07916497 0.09422497
000150 e8 ec 35 3c 8c 6e a2 3d c7 bb 8b 3d 31 07 1c bd
       0.011103846 0.079312414 0.06822925 -0.038092796
000160 30 46 3a be f8 69 f6 bd 83 cb 78 3e e2 3f 08 3d
       -0.18190837 -0.12031931 0.24296384 0.03326405
000170 98 9f 00 be c7 79 54 3a 52 f8 10 3d da 29 09 be
       -0.1256088 0.00081053044 0.035393067 -0.13394871
000180 31 fb 86 3d db 28 03 3e 05 ec cf 3d 64 28 30 bd
       0.0659088 0.12808554 0.10152439 -0.04300727
000190 0f f2 94 bc a9 c5 14 3e 09 b6 86 3d 75 60 1e bc
       -0.018181829 0.14528526 0.06577689 -0.009666552
0001a0 aa ed 6d 3c 73 84 23 bd bd 9e 5f 3d f0 70 ac 3d
       0.014521996 -0.039921235 0.054594744 0.084199786
0001b0 15 2d 85 bd 22 5f b7 bc fe 29 08 3e f7 bd 50 3d
       -0.06502739 -0.02238423 0.13297269 0.050962415
0001c0 56 1b d8 3d 78 00 02 bd 01 00 a3 bd d3 bf 45 bc
       0.10552089 -0.03173873 -0.07958985 -0.01206966
0001d0 f0 d6 e7 bd 1e c8 7a bd b3 83 cf 3d 0c 4a c3 bd
       -0.11320293 -0.061226003 0.101325415 -0.09535608
0001e0 c0 58 ff 3d 35 3d ed bc ab 95 27 3e 7e 94 72 3d
       0.124680996 -0.02895985 0.16365688 0.059223644
0001f0 ce df 77 bc 71 f4 45 bd 07 e7 5a bd 9c 19 b6 bd
       -0.015129043 -0.04832882 -0.05344298 -0.08891603
000200 5d 17 34 3d 34 c3 c5 3c eb 11 8e bd 84 3f 82 3d
       0.043967593 0.024140932 -0.06937011 0.06359771
000210 3d de c4 3d 4e f8 0e be 78 78 9b bd 4d 64 6b bd
       0.09612701 -0.13961908 -0.07591337 -0.0574687
000220 2d 85 52 3d 5a 99 3c 3d aa 5d 17 3e 8d 92 d8 bc
       0.051396538 0.046044685 0.14781824 -0.026437068
000230 53 73 2c bd 3e b8 90 bd 02 5d 37 be 08 9d a4 3c
       -0.04210217 -0.070663914 -0.17906573 0.02009441
000240 0c c6 ba bd 91 b3 b7 3d 04 1f 6f bc 70 8c 82 3d
       -0.09119806 0.089697964 -0.014594797 0.063744426
000250 e0 1b 4d bd f9 74 8d 3c 20 b8 07 bd 56 96 0f be
       -0.05007541 0.017267691 -0.03313458 -0.14022192
000260 74 0a cc 3d 36 8c 0f bc 13 d9 60 3d 71 f0 74 3c
       0.09962931 -0.008761456 0.054894518 0.014949904
000270 69 2e a7 bd 74 71 17 bd e5 00 60 3d 69 e3 85 bd
       -0.08163149 -0.03697343 0.054688353 -0.06537516
000280 ce 07 1d bd 36 b1 5e 3d 0e 50 ff bd 47 eb 12 bd
       -0.03833752 0.05436822 -0.12466441 -0.03586891
000290 66 e2 50 3c 51 a5 e6 3b 11 a5 6c 3d dc 40 8b 3d
       0.01274929 0.00703875 0.057774607 0.0679948
0002a0 67 25 ea 3d 71 0c b9 bd 36 79 39 3e db ed d0 3d
       0.11432915 -0.09035576 0.18112645 0.10201617
0002b0 d8 a0 3f bd 73 c8 a3 3d a3 04 26 3d 3e 25 70 3d
       -0.046784252 0.07997217 0.040531766 0.058629267
0002c0 4e 10 b0 3d 26 f7 11 3d 51 70 4a bd ec 9a 0d bd
       0.0859686 0.03563609 -0.04942352 -0.034571573
0002d0 99 d9 da bd 51 cb 1f 3e 15 b3 85 3d b7 16 05 be
       -0.10686035 0.15604903 0.06528298 -0.12996946
0002e0 4c ae c6 bc b3 b8 74 bd 58 b0 c6 3d 4e f6 ba bd
       -0.024253033 -0.059746455 0.09701604 -0.0912901
0002f0 41 86 59 3d 46 38 f9 3d 24 6a 54 bd 30 d1 27 bd
       0.05310655 0.121689364 -0.051859036 -0.04097098
000300 e8 1d 3c bd 22 87 db 3d b8 9d 8c bd f8 e6 99 3b
       -0.04592696 0.10719134 -0.0686602 0.004696723
000310 c9 93 c4 3c 51 86 62 3d 54 02 36 bd 36 3e 7e 3d
       0.02399625 0.055303875 -0.044435814 0.062071048
000320 3f e0 1f bd 1b 0c 0e 3e e6 4e a7 bd 44 94 88 3c
       -0.039032217 0.13871805 -0.081693456 0.016672261
000330 3d 06 e0 3d fc 63 e1 bd 34 22 62 3d 9f dd 5f 3d
       0.1093869 -0.11005399 0.0552084 0.054654714
000340 bf 8d ee 3d 91 b8 03 3d e4 8e 96 3c 0d a9 af 3d
       0.1164813 0.032158438 0.018378682 0.08577166
000350 12 c4 9d bc 5c 36 3b 3d 17 16 ab 3c 41 22 e4 bd
       -0.019258533 0.045706138 0.020884557 -0.11139346
000360 e6 c2 01 3d ab 27 9d 3d 03 9a 82 3d d7 df d8 bc
       0.03168001 0.07673582 0.06377032 -0.026473923
000370 d9 cf ab bd 3b 92 f5 bc 1a 81 c4 bd 03 ca 30 3d
       -0.08389253 -0.029976955 -0.09594937 0.043161403
000380 e7 f7 52 3d f2 b2 82 bd 6d 65 d9 bd f4 13 6a bd
       0.05150595 -0.06381787 -0.106150486 -0.057147935
000390 61 20 d9 bc 3f 40 bf bc cc 71 dc 3c e3 84 0a 3e
       -0.026504697 -0.023346065 0.026909731 0.13527255
0003a0 5d 4c 1a be fa 62 20 bd 00 54 a8 3d 67 1a 85 3d
       -0.15068193 -0.03915689 0.08219147 0.064991765
0003b0 eb e8 87 3c 55 8c a2 3b 7c f5 52 bd 05 ee 80 3c
       0.016590556 0.0049605765 -0.051503643 0.015738497
0003c0 99 1f 59 3d ab f6 52 3b 81 dd 27 bc d4 fe 0c 3e
       0.05300865 0.0032190483 -0.010245682 0.13769084
0003d0 44 e7 8e bd c9 ea c9 bd be 3f 0c 3e b8 51 6b 3d
       -0.06977704 -0.09859235 0.1369619 0.05745098
0003e0 1c 32 86 bb fe 8d 1e 3e e8 d8 13 bd 10 57 81 bd
       -0.004095329 0.15483853 -0.03609553 -0.06315434
0003f0 dd 3c 5e bd ab 66 d0 bd 48 c3 8d bd 69 11 21 bd
       -0.054257262 -0.10175832 -0.069220126 -0.039323244

network_body._body_endoder.seq_layers.2.bias f4 [142]
000000 01 81 16 3b 2f ae d2 ba 90 f4 18 bb 72 75 2f ba
       0.0022965076 -0.0016073639 -0.002333913 -0.0006693221
000010 14 d3 87 b9 a1 c3 1d ba b3 68 e4 3b e6 ad 30 bb
       -0.00025906472 -0.00060182257 0.006970489 -0.002695912
000020 85 40 8c ba 0b 8e 1b ba 63 39 1d b9 85 3c c1 ba
       -0.0010700381 -0.0005933947 -0.00014994065 -0.0014742768
000030 fa db 40 39 7a a7 9a ba bb a8 82 ba 71 6a cc ba
       0.00018392495 -0.001179918 -0.0009968498 -0.0015595687
000040 db b5 55 bb f4 98 cb 38 df ff 25 3b 05 a4 3a bb
       -0.0032609615 9.708284e-05 0.0025329513 -0.002847911
000050 8b b6 11 ba 8f 51 14 bb c9 c6 3c bb 94 5b a5 bb
       -0.0005558512 -0.002263162 -0.0028805009 -0.0050463174
000060 d8 f3 b2 ba 8d 07 3a ba 3e 2d 96 bb 9e c4 94 bb
       -0.0013652993 -0.0007096462 -0.00458303 -0.00454004
000070 6b 94 54 bb 71 22 54 bb 47 7c 34 3a 2f 98 e3 ba
       -0.0032437097 -0.0032369161 0.0006884974 -0.001736408
000080 5b f6 b7 ba a7 2b 7c bb f5 a0 22 bb 93 66 9c bb
       -0.0014035212 -0.0038478167 -0.0024815176 -0.00477297
000090 97 62 bd bb e8 d5 18 3a 99 de 76 bb 90 5b b4 ba
       -0.005779575 0.00058302144 -0.00376693 -0.0013760198
0000a0 ad e4 79 bb 8c 3f 7a 3b 8e 73 c8 b9 19 1d bb 3a
       -0.0038130686 0.003818485 -0.00038233068 0.001427564
0000b0 cb 19 58 bb f1 5c cf bb 3c d5 b5 bb 62 77 ae ba
       -0.0032974358 -0.006328218 -0.005549101 -0.0013310725
0000c0 3a 19 24 ba 53 cb e1 b9 88 62 36 bb db 55 3e bb
       -0.00062598626 -0.00043066833 -0.0027829725 -0.0029042873
0000d0 69 a7 a5 b9 c8 0f ea 3a d9 e6 3e bb b0 15 7a b9
       -0.00031595983 0.0017857486 -0.0029129295 -0.00023849937
0000e0 08 29 ae bb df e7 44 bb 40 07 e9 bb 66 29 32 bb
       -0.00531495 -0.0030045433 -0.00711146 -0.002718532
0000f0 4c 5d f6 ba a3 e7 e7 ba c3 cf 09 bb 5e 4c e9 ba
       -0.0018796115 -0.0017692934 -0.0021028377 -0.0017799248
000100 14 98 54 ba f4 ae bd ba 4d 5f e8 3a ca 25 67 b9
       -0.00081098196 -0.0014471696 0.0017728597 -0.00022043954
000110 0b c4 db ba b2 f7 65 ba 0e 27 00 39 d4 d2 63 bb
       -0.0016766799 -0.0008772566 0.0001222158 -0.0034763115
000120 5d 15 09 bb 7b 1f 77 bb ee da 2b 38 cf d9 1c bb
       -0.0020917275 -0.0037707973 4.097347e-05 -0.0023933535
000130 13 e5 72 b9 d2 a0 bf bb 1a da 1f bb 74 ea d6 ba
       -0.00023164255 -0.0058480287 -0.0024391473 -0.0016396777
000140 b6 67 64 3a 93 4e 03 3b 60 8d d6 ba 76 14 16 bb
       0.0008712964 0.0020035848 -0.0016369037 -0.002290038
000150 68 90 93 38 e3 db 0d 3a 17 e8 9b ba d6 73 c9 bb
       7.036404e-05 0.0005411489 -0.001189473 -0.006147842
000160 a2 47 26 bb 98 1d 21 bb a5 fb 2e bb 6a ef fb ba
       -0.0025372286 -0.002458429 -0.0026700285 -0.0019221131
000170 55 65 ff ba 5d 7f 84 bb 1b 86 bf ba a4 e6 77 3a
       -0.0019485155 -0.004043503 -0.001461211 0.00094566704
000180 f5 14 a2 ba ec c2 b0 ba 8e ae 0f bb a1 1d d2 ba
       -0.0012365865 -0.0013485826 -0.002192411 -0.0016030559
000190 93 80 60 38 66 ca e5 bb b2 03 52 3a 26 2c b1 bb
       5.3525506e-05 -0.007012653 0.0008011415 -0.005406874
0001a0 0b 03 a3 3a 2f cf 6e bb b8 28 53 bb c0 ac f7 ba
       0.001243682 -0.003643941 -0.0032220315 -0.0018896088
0001b0 fc b1 9e bb 9f b2 cc ba 16 21 92 ba 42 06 bf ba
       -0.0048429947 -0.0015617198 -0.0011148776 -0.0014574009
0001c0 6e c7 b1 ba fe c0 75 bb c5 86 d9 3a 36 33 79 bb
       -0.0013563463 -0.0037499066 0.0016595951 -0.003802491
0001d0 ac 80 82 ba d4 52 fa bb c6 da 02 bb 06 c4 df 3a
       -0.000995656 -0.0076392684 -0.0019966825 0.0017071969
0001e0 e7 69 36 bb b0 c5 0b 3a 61 7b 40 bb 74 3b ba ba
       -0.0027834119 0.0005331887 -0.0029370415 -0.0014208392
0001f0 89 f8 cd b9 52 05 4c bb a4 b1 02 bb db 5f 9e bb
       -0.0003928582 -0.00311311 -0.0019942308 -0.004833204
000200 d0 85 93 ba f7 be 9f ba 66 0f 98 bb e2 0f c0 bb
       -0.0011255089 -0.0012187649 -0.0046405075 -0.0058612684
000210 01 46 b6 ba ea b5 09 b9 9d c6 95 bb 72 92 99 bb
       -0.0013906361 -0.00013133106 -0.0045707957 -0.004686647
000220 74 59 24 bb c0 02 66 bb df c2 c9 3a 7a 66 35 39
       -0.0025077732 -0.0035096854 0.0015393159 0.0001729968
000230 7f f9 f4 ba b3 41 4d bb
       -0.0018690078 -0.0031319677

action_model._discrete_distribution.branches.0.weight f4 [13, 142]
000000 98 3c 1d 3c c8 9c 45 3c ff 7e 81 bc bb f2 30 3b
       0.009596966 0.012061305 -0.015807627 0.0027000147
000010 2d 58 2d 3c 71 41 d2 bc 63 e6 9d bc 7c 58 fa 3a
       0.010580105 -0.02566597 -0.019274896 0.0019099857
000020 bd bd c4 bb 40 6b 34 3c 20 09 60 bb 9a 3d d8 3b
       -0.006004064 0.0110118985 -0.0034185126 0.0065991404
000030 ff c1 e1 bb a9 cb 5c 3c 87 34 77 3c 01 8b 01 bc
       -0.006889581 0.013476291 0.015088207 -0.007906676
000040 49 d1 08 bc 6a d9 85 3a 3d b8 01 3c 6e db 64 bb
       -0.008350679 0.0010211889 0.007917461 -0.003492083
000050 db ed 8f 3c e2 ff 02 3c 47 6c 18 3c e9 ef f0 b9
       0.017569473 0.0079955775 0.009303159 -0.00045955114
000060 98 f1 48 3c 1b 4f 15 bc 39 8b 03 bc 0b 3a 99 bc
       0.012264632 -0.0091130985 -0.008028799 -0.018704435
000070 01 21 f0 3b ce 4d c5 bc f5 48 1c ba a2 4c 2f 3c
       0.007328153 -0.024084952 -0.0005961799 0.010699423
000080 f9 3f 56 bb 4f 35 24 bc f4 35 d4 bb fb eb 47 bc
       -0.003269194 -0.010022475 -0.0064761583 -0.012202258
000090 ea c1 7f bb 00 29 5e 3c 6d b4 88 bc 74 16 73 bc
       -0.0039025494 0.01355958 -0.016687596 -0.014836896
0000a0 4a 46 97 bb 0f ec cb 3b ac 95 af 3b 86 ab 8d bb
       -0.0046165334 0.0062232087 0.0053584184 -0.0043234257
0000b0 23 e7 1d bc dc f0 d2 bb 17 ee e3 bb ca 7d b2 3b
       -0.009637627 -0.006437404 -0.0069558728 0.005447124
0000c0 09 2d 18 3c 13 66 fa 3b ab 2b 30 bc 34 00 60 ba
       0.009288081 0.0076415627 -0.010752599 -0.0008544952
0000d0 33 7d 59 bc fd 58 43 39 bc 5d a2 3b c6 f7 1f bc
       -0.013274479 0.000186298 0.0049550217 -0.009763664
0000e0 e6 e0 65 bb ef 26 e5 3b 19 f8 e1 bb 4e 7e db bb
       -0.0035076677 0.0069931666 -0.0068960306 -0.0066984063
0000f0 14 8c 3b bc c1 40 df bb 37 36 0a bc 12 86 de 3b
       -0.011446971 -0.006813139 -0.008435777 0.006790885
000100 bc 1e 13 bc b8 f8 9b bb d6 88 9c bb d6 6b af ba
       -0.008979496 -0.004759874 -0.0047770543 -0.0013383578
000110 02 13 14 3c d2 96 b3 bb 31 69 3e 3c e7 5c 60 bb
       0.009037735 -0.0054806257 0.011621759 -0.0034235062
000120 cb e5 8d 3b ae 3d c1 39 e4 51 41 bb 8d b4 26 3c
       0.004330372 0.00036857784 -0.0029498274 0.010174883
000130 8a 83 a9 3b 52 73 51 3b 15 76 99 3b 44 4b 35 3c
       0.0051731514 0.0031959605 0.004683266 0.011065308
000140 16 85 3d 3c 10 a8 22 bc c9 6a 9c bc f6 cc 00 b9
       0.011567375 -0.009927765 -0.019093888 -0.00012283385
000150 32 34 7d bc bb a6 84 3b c8 7f 8f bb 8c 69 08 39
       -0.015454339 0.004048196 -0.0043792464 0.0001300929
000160 47 f5 c5 bb ca 5a a7 39 bb cc ac bc 8f 87 02 3a
       -0.006041202 0.00031920365 -0.021093717 0.0004979306
000170 9d ff 16 bc a0 0b 84 3b 83 56 0c bb 6c 21 9b bb
       -0.009216216 0.004029706 -0.002141387 -0.004734209
000180 d5 48 f6 ba fb 96 04 bb 29 96 a2 bc de bf 04 bc
       -0.0018790016 -0.0020231593 -0.019846993 -0.008102385
000190 ab dd 24 bc cc b2 51 bc 15 f0 54 3c dd 87 ea bb
       -0.010062615 -0.012798976 0.012996693 -0.0071573094
0001a0 55 f0 0d 3c 49 6d ed bb 44 58 2a bc 11 4a 99 3b
       0.008663257 -0.007245694 -0.010397021 0.004678019
0001b0 ba 9d 8a ba 20 21 22 ba 13 a5 10 bc 3a 08 ec 3b
       -0.0010575571 -0.00061847456 -0.008828419 0.007203129
0001c0 88 bc 17 bc 26 ef cf 3b 0e f2 5e bc 92 54 6a bb
       -0.009261258 0.0063456474 -0.013607515 -0.0035755974
0001d0 17 d6 bd 38 bc 04 17 bc c3 72 8f bc f4 89 24 bc
       9.0520996e-05 -0.009217437 -0.017510777 -0.010042656
0001e0 38 e0 3d bc 98 87 88 3c 93 ac df bc 5d d1 5d bc
       -0.011589102 0.016666219 -0.02730397 -0.013538686
0001f0 62 75 d2 bb f1 fb f6 bb 1c b0 fd bc fd b8 78 3b
       -0.0064226845 -0.007537358 -0.030967765 0.0037952058
000200 c2 00 d4 bb 16 4f ce bb 65 c7 d3 ba 75 6f 3d ba
       -0.006469817 -0.006296049 -0.0016157447 -0.0007226386
000210 12 5a 89 bc 83 ce a0 bb 4f 71 0c 3c ae cf d3 3b
       -0.016766582 -0.0049074306 0.008571937 0.0064639663
000220 7e c1 77 3b 38 21 91 bb 9b 0e e8 3a 5b 8f 71 3a
       0.003780454 -0.004429009 0.0017704548 0.0009214782
000230 fc 8f e6 3a c4 eb 85 bc 9f 75 43 bb c4 88 90 3c
       0.0017590518 -0.016347773 -0.0029824746 0.01764334
000240 dc 0b e2 bb 70 0a 36 3c ef a3 ec bb a6 91 94 bb
       -0.0068983864 0.011110887 -0.007221691 -0.004533964
000250 cd c6 2f bb cf 0a 16 3b 9a 3d 9d bc 82 6a 12 3b
       -0.0026821375 0.0022894626 -0.019194413 0.0022341316
000260 9e 76 1c bc 2c 54 1f bb 58 60 fc 39 dc 44 30 3c
       -0.009549765 -0.0024311645 0.00048136967 0.010758605
000270 bb 8e bc ba ee 93 b0 bb 50 33 53 ba 90 a4 ad 39
       -0.0014385799 -0.0053887283 -0.00080566574 0.0003311974
000280 6b d2 71 bb 0d a1 91 3b 93 aa e6 3a 69 3c 45 3c
       -0.00368991 0.0044442476 0.0017598443 0.012038329
000290 27 f7 48 bb b5 99 6c bc 1b c6 04 39 c6 c2 04 3c
       -0.0030664892 -0.0144409435 0.00012662301 0.008103078
0002a0 6d 2e e6 3a 9f f4 fb 3a e3 20 97 bb b8 ee bc 3b
       0.0017561443 0.0019222683 -0.0046120747 0.005765762
0002b0 5d 93 4b ba e0 f5 fd 3b 29 cc 99 3a d2 b3 6b ba
       -0.0007765794 0.007750258 0.0011733818 -0.0008991334
0002c0 51 21 47 3b e2 b2 11 3c ce 97 74 bc 54 5b ee 3a
       0.0030384848 0.008892747 -0.014928771 0.0018185177
0002d0 49 ba 9f ba f8 5a 01 bc 94 9f 7d 3c 02 d5 82 ba
       -0.0012186255 -0.007895224 0.015479941 -0.0009981694
0002e0 8c 63 ac bc fa ab ed 3b 5d 5f 7d bc de fb 8f bb
       -0.021043561 0.007253167 -0.015464631 -0.0043940386
0002f0 e5 a1 59 3c 0d 60 cf 3a 86 64 4e 3b d5 1b 59 3c
       0.013283228 0.0015821472 0.0031493022 0.013251265
000300 d2 f8 20 bc 3e 1d 68 bc f6 07 43 3b ac c1 c4 3b
       -0.009824948 -0.014167128 0.0029759384 0.006004533
000310 b3 e1 33 3c c7 94 5a bb ea 3e 38 ba 3e 10 e7 bb
       0.010979104 -0.0033352838 -0.0007028418 -0.0070514968
000320 ed 7e 64 bc da a6 25 3c 70 30 74 3a 87 b2 92 bb
       -0.013946277 0.010110581 0.0009315079 -0.0044768485
000330 72 ea cb 3b 75 49 9d bc 77 58 fa 39 49 f5 99 3c
       0.0062230164 -0.019200066 0.00047749627 0.018793719
000340 a3 37 b7 bb 6d cc c2 ba d2 6e 54 bb 68 44 1d 3c
       -0.005591349 -0.0014861949 -0.0032414687 0.009598829
000350 89 62 11 3c 69 0d 75 3b 17 d5 8e ba e8 09 7d bc
       0.00887359 0.0037392026 -0.0010897246 -0.015444256
000360 18 28 16 bc 50 4f 8c bb 84 3b 99 b9 42 88 04 ba
       -0.0091648325 -0.0042819157 -0.00029226777 -0.00050557044
000370 7e a1 d2 bb d0 4f 86 bb 57 63 b5 bb cc 78 a3 3b
       -0.006427943 -0.00409887 -0.005535524 0.0049887653
000380 55 91 50 b9 dc 0f ee ba a5 fc b4 bb 3b af 86 bc
       -0.00019890566 -0.0018162685 -0.0055232816 -0.016440978
000390 bd 14 cb 3b 50 98 bc bb 5b 3d 3f 3b 65 48 b3 3c
       0.0061975406 -0.0057554618 0.0029180858 0.021885106
0003a0 f4 2d 6d ba 60 74 43 bb 74 b3 67 3b 12 7e a1 bc
       -0.000904768 -0.0029824004 0.0035354765 -0.019713435
0003b0 0b 76 8c bc 12 8a 61 bc 3f b8 3b bc fb 46 0f bc
       -0.017146131 -0.013765829 -0.011457502 -0.00874495
0003c0 2f 60 bd bb 52 2b 38 3b 14 ee 41 bc 0e b9 8d bc
       -0.0057792882 0.0028101993 -0.011836547 -0.017300155
0003d0 d7 fe bd bb d0 0d 82 bc ef 56 da bb cc a8 9a 3b
       -0.0057982015 -0.015875727 -0.0066631953 0.004719829
0003e0 76 42 7c bc 6b 8c 2c bb cb a6 fb 3a 5f 83 10 bc
       -0.015396705 -0.0026328813 0.0019199488 -0.008820384
0003f0 9b b4 f8 3b 06 03 48 3b 88 b1 95 bb 95 22 b5 ba
       0.007589889 0.003051938 -0.0045682825 -0.001381951

action_model._discrete_distribution.branches.0.bias f4 [13]
000000 c0 b1 8b 3b bf 49 d1 3a c3 70 c9 3a 8c 6d ac bb
       0.004263133 0.0015967413 0.0015368689 -0.0052620824
000010 75 90 c4 3b f8 cf 83 bb b6 3d e3 ba a9 16 22 bb
       0.005998666 -0.0040225945 -0.0017337117 -0.0024732745
000020 7e 59 99 3b 18 df da ba 36 99 0f bb 02 98 50 bb
       0.0046798578 -0.0016698567 -0.002191139 -0.0031828885
000030 94 86 71 bb
       -0.0036853896

action_model._discrete_distribution.branches.1.weight f4 [13, 142]
000000 e3 43 85 3b 3a c7 f9 3b 5c 80 80 39 96 45 78 3b
       0.0040669306 0.0076226266 0.00024509698 0.0037883273
000010 2b 0e b1 3a 27 1b 06 3b f8 ad 5a 38 55 3a 55 bb
       0.0013508251 0.0020462961 5.213727e-05 -0.003253599
000020 8b 2c a4 bb a2 8c 59 ba aa 90 2e bb ee b2 3d 3c
       -0.0050101927 -0.0008298849 -0.002663652 0.011578305
000030 11 49 2e bb 65 8f cc bc d1 bf 84 bb b3 5b fc 3b
       -0.0026593844 -0.02497072 -0.0040511866 0.007701361
000040 4b f5 3f ba e5 b1 35 bc 78 1e b5 bb 19 5a 8a bc
       -0.0007322623 -0.011089777 -0.005527314 -0.016888665
000050 b0 b4 78 b6 2b 43 6c bb 66 3e e6 3b 44 7c 36 ba
       -3.7060054e-06 -0.0036050777 0.0070264814 -0.0006961266
000060 6a bb 1d 3c 30 45 cf 3a 3b d4 81 3b ba 93 26 b9
       0.0096272025 0.0015813466 0.0039620674 -0.00015886026
000070 95 63 a8 ba f4 3a 96 3b 20 67 85 bb ce 67 6a 3b
       -0.001284706 0.0045846645 -0.0040711313 0.0035767439
000080 a1 aa f5 ba 69 a4 d1 bb 43 aa 42 bb 13 e9 05 bc
       -0.0018742868 -0.006397773 -0.0029703535 -0.008173245
000090 47 99 b3 ba 5a 0a 51 3c 10 e5 1a 3c 88 b0 8b bb
       -0.0013702296 0.012758816 0.009454027 -0.0042629875
0000a0 f0 03 19 3c d6 ac 36 3b 7e d3 63 3c d8 a1 35 ba
       0.009339318 0.0027874014 0.013905404 -0.00069287186
0000b0 ae b0 8b 3c 2c 94 f3 3b 2d 1d 1a 3b 20 22 d8 3c
       0.01705202 0.007433435 0.0023515925 0.02638346
0000c0 50 9e b4 3b ff 00 d7 bb a9 41 6c bc 5e 0e 2e 3c
       0.0055120364 -0.006561398 -0.0144199515 0.010623543
0000d0 8a af 94 3b 18 5e e1 3b 7a 4e 97 bb 99 68 2a 3b
       0.0045375274 0.006877672 -0.0046175094 0.0026002286
0000e0 26 e7 6d 3b de 5d ab bc e6 52 b9 bb 97 f7 ae bc
       0.0036301105 -0.020918783 -0.005655634 -0.021358294
0000f0 f7 32 88 3b e1 55 31 3c 16 f2 8e 3b 30 66 95 bb
       0.004156466 0.010823698 0.004362355 -0.004559301
000100 0c 29 f7 b8 6a 09 0e bb d1 2b 99 bb 89 7e 6b bb
       -0.000117855234 -0.0021673092 -0.004674413 -0.0035933575
000110 05 f4 50 3b 8e 92 59 bb af 91 84 bc f6 74 83 bb
       0.0031883728 -0.0033198926 -0.016182749 -0.0040117456
000120 5a ff 73 bb 2a 75 bd bb 1b f3 2a 3b 05 bc 8d 3b
       -0.0037231059 -0.0057817893 0.0026084844 0.004325392
000130 c5 94 4b 3c 78 41 9d bb 00 e7 97 bb ee fc 2c 37
       0.012425606 -0.0047990642 -0.0046356916 1.0310889e-05
000140 da ec e0 3b 35 99 04 3b f4 6d 81 3c f0 d0 e6 3a
       0.0068641724 0.002023292 0.0157995 0.0017609876
000150 a8 c4 50 bb ea b4 37 3c 75 e6 93 3b 3f 0c 09 3c
       -0.0031855498 0.011212567 0.0045135566 0.008364736
000160 98 cb 2c bb e6 8f 88 bb 9d ca 5f 3c 4f ac 45 3c
       -0.0026366469 -0.0041675447 0.013659147 0.012065007
000170 91 b0 66 bb 51 88 18 3b f8 35 bd 3b 10 85 21 bc
       -0.0035200457 0.002327461 0.005774256 -0.009858385
000180 24 ac ff bb d7 b3 2e bc 60 31 f3 bb e5 fb 4d 3c
       -0.007802503 -0.010662994 -0.0074216574 0.012572263
000190 a9 4c 27 3c 7f 69 9c ba f7 5a c6 3b e3 37 cb ba
       0.010211148 -0.0011933296 0.0060533243 -0.0015504326
0001a0 fe 75 89 3b 12 cc 15 ba fb 0b 67 3a de 0b 61 bc
       0.004194974 -0.0005714308 0.0008813736 -0.0137357395
0001b0 c3 6d 45 bb 8f 0e 7a bb c6 77 d4 bb 6c f9 bc 3b
       -0.0030125238 -0.003815565 -0.0064840047 0.005767038
0001c0 be 7a 8e bb 06 84 71 bc 37 21 53 3c a8 72 47 bc
       -0.004348128 -0.0147409495 0.012886337 -0.012173332
0001d0 63 83 fe 3b 24 55 03 bc d2 54 55 bb a1 2e e6 bb
       0.0077671274 -0.008015905 -0.0032551778 -0.0070246016
0001e0 9b ac a0 3b 7b 88 99 3b a8 1b e6 bb e4 88 09 3c
       0.0049033887 0.004685459 -0.00702234 0.008394454
0001f0 de d1 21 bc 4c a4 1e bb 5a 0c 2d 3c 25 a6 3d ba
       -0.009876696 -0.0024206815 0.010562027 -0.00072345353
000200 8a 6d a1 bb 87 81 22 bb 1b 2e 4f bc 69 93 b7 3b
       -0.004926388 -0.0024796443 -0.01264527 0.0056022895
000210 9d 44 75 3c 7b e0 83 bc 30 cb fa 3b 0d 65 da ba
       0.014969972 -0.016098252 0.0076536164 -0.0016662196
000220 b9 9b 3f 3b 6c a9 85 bb 61 ed 64 3b 5a 46 2e 3b
       0.0029237105 -0.0040790346 0.0034931528 0.0026592226
000230 4f ae 8d 39 6d 28 82 b9 62 93 7d 3c 22 f3 e2 3a
       0.00027023486 -0.00024825652 0.015477033 0.0017314891
000240 a4 55 73 bc 28 e7 2c bc d1 4e 45 3c 70 75 1c 3c
       -0.014851961 -0.010553159 0.012042717 0.009549484
000250 e0 7e 72 3b 0b a5 91 bb 34 b1 fa ba a8 22 5b bb
       0.0037001893 -0.0044447235 -0.0019126297 -0.0033437405
000260 78 b3 05 bc f0 25 f3 3a 32 4f 8d 3b db 51 87 bb
       -0.008160464 0.0018550735 0.0043124193 -0.004129631
000270 2f 52 23 bc c5 bc 09 3c e2 00 5a 3b 41 cc 92 3b
       -0.009968325 0.008406823 0.0033264686 0.0044799154
000280 31 9c 19 bc 3f 35 f5 ba f8 66 9f bb 96 61 15 bc
       -0.009375618 -0.0018707885 -0.0048645698 -0.009117505
000290 ac 20 25 bb 76 58 39 3c e6 13 b8 bb c1 3e c8 3b
       -0.0025196476 0.011312595 -0.0056176065 0.0061109965
0002a0 c5 0d bf 3b 14 2a a4 bc c8 64 30 bc 10 88 0c 3b
       0.005830499 -0.020039596 -0.010766216 0.0021443404
0002b0 40 31 69 3a c9 fa 9e 3b 90 7b 9d 3b b2 5f cd bb
       0.00088955835 0.0048516733 0.0048059896 -0.0062675113
0002c0 38 c2 ad 3b 59 55 06 bc bc 71 33 bc 5f d5 1a bc
       0.0053026937 -0.008199059 -0.010952409 -0.009450286
0002d0 12 ec d1 ba 7d 46 ec bb 87 bb 84 bb 5d 3e 2f bc
       -0.0016015789 -0.0072105513 -0.0040506753 -0.010696021
0002e0 e3 fa 3b 3c 06 01 20 bc e9 61 2c bc b0 55 e2 ba
       0.01147339 -0.009765869 -0.0105213905 -0.0017267969
0002f0 e9 6b 18 bb 51 f7 04 bb 86 5a cd 3b f3 30 13 38
       -0.002325768 -0.0020289014 0.0062668948 3.509312e-05
000300 bf 24 b0 bb 85 e5 0a 3c f5 6b ac bc c7 06 60 3b
       -0.005375474 0.008477573 -0.021047572 0.0034183727
000310 e2 dd a5 bb 06 22 97 3a b6 00 23 3c b2 b7 f7 3b
       -0.005061851 0.0011530526 0.0099489 0.00755974
000320 e1 e9 11 bb 6f 22 79 ba aa 11 d5 39 bf fd 86 ba
       -0.0022264647 -0.0009503727 0.00040639687 -0.0010299011
000330 71 f7 f2 bb b9 ba 1e bc 60 1b 8a 39 4f ce 8f bc
       -0.007414751 -0.009688073 0.00026341807 -0.01755443
000340 f3 fb 3d bc 4c 5a 6b bb 36 e4 81 38 ad 2b cc ba
       -0.011595714 -0.0035911975 6.193707e-05 -0.0015576981
000350 01 a6 0b 3c 77 12 29 bc 69 d7 d4 bb e0 20 0e 3c
       0.008523465 -0.010319344 -0.0064954055 0.00867483
000360 81 c3 57 3c 26 68 49 bb a7 18 d1 3b 88 37 54 3c
       0.01316917 -0.0030732243 0.0063811126 0.012952693
000370 a7 71 90 bb 98 58 57 ba d8 f2 10 bc 76 4d db bb
       -0.0044080797 -0.00082148006 -0.008846961 -0.0066925837
000380 18 ed 13 bc 79 83 38 3b 4e 64 0b 3c aa 46 5d 3c
       -0.0090286955 0.0028154536 0.008507801 0.013505617
000390 10 1e 40 bc 7e 60 73 bc 6d ea 6e 3b fb f3 ed bb
       -0.011725917 -0.0148545485 0.0036455647 -0.0072617508
0003a0 e8 31 28 3b db 22 eb 3b 01 a4 ec bb 16 56 37 bc
       0.0025664512 0.007175786 -0.007221699 -0.011189958
0003b0 77 26 3b bc b9 e9 b6 3b 46 17 9e 3b fb 91 11 3c
       -0.011422745 0.005582061 0.0048245518 0.008884902
0003c0 03 be 45 3c 70 52 8d bb fe f7 3b bb 6a 6e 2e 3b
       0.012069228 -0.004312806 -0.002868175 0.0026616105
0003d0 0d bd 16 3b c2 b8 f9 ba ed 3d 82 3a 32 09 33 bc
       0.0023000867 -0.0019052255 0.0009936668 -0.010927485
0003e0 f8 f4 69 bc 3b 4c 26 bb 4f 0b 37 bb 25 68 54 bb
       -0.0142795965 -0.0025375027 -0.0027930324 -0.0032410708
0003f0 b8 53 e0 3a 3d 7c 5e bc 45 a2 99 b9 2a 76 f0 bb
       0.0017114794 -0.013579425 -0.00029303334 -0.007338305

action_model._discrete_distribution.branches.1.bias f4 [13]
000000 25 6d 98 3a cc 8b 34 ba 85 4f 37 bb 17 ea 3b 3a
       0.0011629207 -0.00068872864 -0.0027970981 0.0007168366
000010 2b c4 8b bb 21 fd 0c 3b 63 55 bd bb 95 af ee b9
       -0.0042653284 0.0021513181 -0.005778001 -0.00045525716
000020 16 a9 40 bb 6b b5 07 3c 41 bb 97 bb 3c 04 96 39
       -0.0029397658 0.0082829995 -0.0046304767 0.00028613384
000030 2a 3b 52 b9
       -0.00020049201

action_model._discrete_distribution.branches.2.weight f4 [13, 142]
000000 09 ad 2c bc ab 87 2c 3c 3f d6 68 bb 54 5d 81 3a
       -0.010539302 0.010530393 -0.0035528091 0.0009869733
000010 47 d1 43 bc 4b d2 96 3b 0a b4 7f bb 8e ba d9 3b
       -0.011951751 0.0046027056 -0.0039017224 0.0066445535
000020 ff 1c 59 3c 4a ba 02 bb a2 5f 61 ba d5 d8 9b bc
       0.013251542 -0.0019947463 -0.0008597319 -0.019024292
000030 5a 18 a3 3b 8a 9d be bc 02 9f c6 3b a1 b9 58 bb
       0.004977268 -0.02326848 0.0060614357 -0.0033069628
000040 c1 f2 9a 3b c4 27 06 3c 7a 66 9e bb 26 3b 25 3c
       0.0047286456 0.008188192 -0.0048339935 0.010084903
000050 5d bb 83 3c cf fc ab bb 68 5c d2 3b 31 a9 a9 3b
       0.016080553 -0.005248643 0.006419707 0.00517764
000060 b6 3d 58 bb 1f 96 14 b8 61 17 63 bc 32 05 ac bc
       -0.0032995767 -3.542576e-05 -0.013860554 -0.020998571
000070 b0 36 bb bc e0 7f 08 3c 27 41 42 bc ae 16 5a bb
       -0.022853225 0.008331269 -0.011856354 -0.0033277678
000080 5e be 32 bb 5a 5f e5 3a 1a 6e 37 bc d3 29 e3 bb
       -0.0027274112 0.001749973 -0.011195684 -0.006932476
000090 75 2b b5 bb 43 1b d3 3b b9 08 18 bc 00 23 57 3c
       -0.005528862 0.006442459 -0.009279423 0.013130903
0000a0 c5 c0 e8 3b 7e 84 43 3c 3e 5e 3c bb de 0e e9 39
       0.007103058 0.011933444 -0.0028742696 0.000444523
0000b0 f8 82 a9 3b e0 14 f7 3b 33 c9 81 3b 5b 5d 96 3b
       0.0051730834 0.0075403303 0.0039607524 0.0045887656
0000c0 73 93 14 bc fd 0b 36 3c 72 21 09 3c c2 42 0d bc
       -0.009068358 0.011111257 0.00836979 -0.008621873
0000d0 5d ad cb bb 02 38 4e 3c 0c 9d f2 b9 cc 15 c8 3b
       -0.006215735 0.0125865955 -0.00046274846 0.006106114
0000e0 05 64 80 bc 63 6c ae bb 91 47 eb bb e0 47 3f bb
       -0.015672693 -0.0053229793 -0.0071801622 -0.0029187128
0000f0 1b 78 4a bb 4e bd b0 bb b2 28 56 3b 3f 9c af bc
       -0.0030894342 -0.0053936606 0.0032678065 -0.021436809
000100 ac 00 95 3a d1 3d b5 bb fc 77 c5 bb 4c eb 66 bc
       0.0011367998 -0.0055310507 -0.006026266 -0.014094185
000110 c8 4d 58 3b ea a5 0d 3c f5 ac 46 bc c8 68 cb bb
       0.0033005346 0.008645514 -0.012126197 -0.0062075593
000120 5b 2c 2e bc da d3 fd ba 3e 43 ec 3b 95 d8 90 bb
       -0.010630692 -0.0019365505 0.0072101643 -0.00442035
000130 2f 0f 00 bb 72 c1 55 3c 9e 4b bb 3b 26 c0 d6 bb
       -0.00195403 0.013046609 0.0057158014 -0.0065536676
000140 b0 94 de 3a e9 c7 b0 bb 75 09 00 bc ca 91 36 3c
       0.0016981568 -0.005394925 -0.007814755 0.011143157
000150 5a b0 37 3c f6 c4 63 3b e5 f4 6a bc 16 13 b3 bb
       0.011211479 0.003475485 -0.014340614 -0.0054649217
000160 b0 66 da 3b 15 e8 66 bb 46 81 b1 3c c5 14 b9 bb
       0.0066650733 -0.0035233547 0.021668088 -0.005648228
000170 95 c2 81 bc b7 13 05 3c 47 f6 b1 3b 9a 70 3d 3b
       -0.015839854 0.008122376 0.00543097 0.0028906227
000180 52 93 0a bc 9a 0e c2 3b 47 65 05 bc 2f 82 b4 3b
       -0.008457975 0.005922151 -0.008141822 0.005508683
000190 4c 32 93 ba 88 f3 4b 3b 95 6c 1f bc dd 65 32 3a
       -0.00112302 0.0031120498 -0.009730478 0.000680534
0001a0 8a f6 11 bb e1 d8 b3 b8 f5 8c 58 3c e1 41 08 3b
       -0.0022272193 -8.575782e-05 0.0132172005 0.002079122
0001b0 00 03 af 3a dc 82 9e 3c c6 05 1b 3b 7d 45 1d bb
       0.0013352334 0.019349508 0.0023654564 -0.0023997717
0001c0 4d 55 fe 3b 2c 08 84 bc 96 70 bb 3b 8e 13 33 3b
       0.0077616335 -0.016117178 0.0057202084 0.0027324888
0001d0 33 1a bf b9 6c 81 1a bc 37 1c 16 ba 93 66 c6 3b
       -0.0003644988 -0.009430271 -0.000572625 0.0060547083
0001e0 0e fb 04 bc 6c 82 92 3b d8 b7 5b 3c 27 70 c1 bb
       -0.008116497 0.004471114 0.013410531 -0.005903262
0001f0 5e d7 9c 3b 04 7d 48 bc 85 d9 3e ba 00 17 db 3b
       0.004786416 -0.012236837 -0.0007280338 0.0066860914
000200 41 dd 11 bb 83 b7 35 bc 6b e2 ec 3a 69 9a 11 bc
       -0.0022257122 -0.011091116 0.0018072849 -0.008886912
000210 9e 34 09 3b 9c 92 9d 3b 38 e0 c0 3b 61 19 e0 bb
       0.0020935903 0.004808737 0.005886104 -0.006838963
000220 d9 46 cd 3b e2 c6 84 bb 6a 05 e6 3b f8 ff 07 3c
       0.006264549 -0.004052029 0.0070196884 0.008300774
000230 d5 48 ac 3b d5 41 57 ba d0 a5 a1 3b 84 5b 00 bc
       0.0052577057 -0.0008211409 0.0049330965 -0.007834319
000240 57 20 02 3c 74 c0 1b bb 28 fc 11 3a a8 f2 df 3b
       0.007942281 -0.0023765834 0.0005568885 0.006834347
000250 24 ec 4e 3b 03 a1 9c 3b 43 4e d1 3b 7e a1 eb 3a
       0.0031573856 0.0047799363 0.0063875034 0.0017977206
000260 06 1e d9 bb 5a b6 4d bc c9 23 8a 3a 54 bf 61 3b
       -0.0066258935 -0.012555683 0.0010539229 0.0034446316
000270 b0 61 1d 3c 69 6a 02 3c 12 47 a3 3c 02 26 9c bb
       0.00960581 0.0079599405 0.01993135 -0.004765273
000280 ce 87 df 3a a1 44 c3 ba 24 50 4a 3b 3d f2 0a 3c
       0.0017054023 -0.0014897772 0.0030870521 0.008480606
000290 a3 47 5e bc fb 31 39 3c 5a 33 36 bb fe 43 8c 3c
       -0.013566884 0.01130342 -0.0027801604 0.017122265
0002a0 5d 39 53 3b c3 13 55 3c 11 56 0e 3a 77 2e b2 bb
       0.0032230236 0.0130052 0.0005429695 -0.005437668
0002b0 e1 e2 db ba 59 ef eb 3a 27 15 92 3c 23 c7 53 3c
       -0.0016775989 0.0018000408 0.017832352 0.012925896
0002c0 ab 8a 8d bc af ab a7 bb 91 f6 7d 3c 28 d7 3f 3b
       -0.017278036 -0.005116902 0.015500681 0.002927253
0002d0 1a d0 b0 39 f0 59 d0 bb 2f e4 f5 bb be dd 74 3b
       0.00033724384 -0.0063583776 -0.0075040082 0.0037363614
0002e0 7a c1 a3 bb f5 c8 0c bc e5 40 39 bc 0c b8 82 3c
       -0.0049974294 -0.008592834 -0.011306976 0.015956901
0002f0 27 30 4f 3b fa fc 76 bb 80 7a 44 bc ff ad a0 3c
       0.0031614394 -0.0037687407 -0.011992097 0.019614218
000300 53 9d 58 3b 10 ac dd 3b a9 db ae bb 18 fb 8a bb
       0.0033052757 0.006764896 -0.005336244 -0.0042413585
000310 a6 9a 32 3a b7 d0 a6 bb b9 15 b2 3a ec 78 b0 38
       0.00068132055 -0.0050907987 0.0013586796 8.4148574e-05
000320 7e d9 25 bc ab 27 0a 3c 1b 66 a6 bb 86 51 69 3c
       -0.010122655 0.008432309 -0.00507809 0.014240628
000330 33 7f e7 3b dd 32 0c bc ae 26 2e 3c 87 bf f4 3a
       0.007064724 -0.008557049 0.010629339 0.0018672802
000340 24 cb 9f 3b b8 58 6b 3b 99 f5 22 b9 4e ef 6e bb
       0.004876511 0.0035911035 -0.00015541016 -0.0036458555
000350 d5 00 b9 3c 26 5d 16 3a 22 ab d0 3c 63 a9 f7 39
       0.022583405 0.0005735926 0.025472227 0.00047237714
000360 3d 57 e6 3a 53 42 65 3b 82 49 fb ba f0 0c d0 ba
       0.0017573606 0.003498216 -0.0019171687 -0.0015872996
000370 65 c7 9b bb 66 b4 fb 3a b7 80 2c 3a 0e 78 25 bc
       -0.0047539943 0.0019203543 0.00065804593 -0.010099424
000380 e2 a8 c2 3b 60 7d d9 3b 89 f2 e5 bb 10 28 d6 bb
       0.0059405426 0.0066372603 -0.007017438 -0.0065355375
000390 69 f8 b2 bb cb 67 b3 bb 15 a4 0a 3c 5a b8 0e 3c
       -0.0054617417 -0.0054750196 0.008461972 0.008710945
0003a0 30 7a 9f 3b 6d 4a b0 3a f0 5c 48 3c 09 2c d9 3a
       0.004866861 0.0013449915 0.012229189 0.001656891
0003b0 77 ac a0 bb 40 bb 34 3b d5 06 b7 3b 5c 1a b9 b9
       -0.004903372 0.002757743 0.0055855312 -0.0003530559
0003c0 2a 07 0a bc ca c5 23 bb 20 cb 70 ba fa af 15 3c
       -0.00842456 -0.0024989718 -0.00091855414 0.009136194
0003d0 41 42 56 bb cb 44 7f bb 2f 43 1b bb 64 75 8f bb
       -0.00326933 -0.0038950916 -0.0023691168 -0.0043780077
0003e0 6e 80 32 3b c6 68 9b 3b c4 9f 70 bc 68 ac 8a 3a
       0.0027237195 0.0047427146 -0.014686529 0.0010579946
0003f0 ac 4b 5f 3b 8a 28 d0 3b 8a 6f 79 bc b5 9c af bb
       0.0034072204 0.006352489 -0.015224347 -0.005359257

action_model._discrete_distribution.branches.2.bias f4 [13]
000000 3b 43 67 ba ae 2c 5e ba 00 37 1f bb fe 2f 9a 3b
       -0.0008821969 -0.0008475286 -0.0024294257 0.004705428
000010 db 96 fa ba cb 5b d1 3a b2 d2 64 bb 68 e9 2b bb
       -0.0019118445 0.0015972791 -0.0034915623 -0.002623165
000020 8d 82 9a b9 19 83 96 bb 1f c5 d9 3b fd 78 41 bb
       -0.00029470437 -0.004593265 0.006645813 -0.0029521578
000030 85 c3 25 3b
       0.002529354
