results/NewTwoAgentsFullBoardAction/WhiteMLAgent/WhiteMLAgent-113.onnx (onnx, 681198 bytes, 133 tensors)

discrete_act_size_vector f4 [1, 64]
13.0 13.0 13.0 13.0 13.0 13.0 13.0 13.0
13.0 13.0 13.0 13.0 13.0 13.0 13.0 13.0
13.0 13.0 13.0 13.0 13.0 13.0 13.0 13.0
13.0 13.0 13.0 13.0 13.0 13.0 13.0 13.0
13.0 13.0 13.0 13.0 13.0 13.0 13.0 13.0
13.0 13.0 13.0 13.0 13.0 13.0 13.0 13.0
13.0 13.0 13.0 13.0 13.0 13.0 13.0 13.0
13.0 13.0 13.0 13.0 13.0 13.0 13.0 13.0
00000000: 0000 5041 0000 5041 0000 5041 0000 5041
00000010: 0000 5041 0000 5041 0000 5041 0000 5041
00000020: 0000 5041 0000 5041 0000 5041 0000 5041
00000030: 0000 5041 0000 5041 0000 5041 0000 5041
00000040: 0000 5041 0000 5041 0000 5041 0000 5041
00000050: 0000 5041 0000 5041 0000 5041 0000 5041
00000060: 0000 5041 0000 5041 0000 5041 0000 5041
00000070: 0000 5041 0000 5041 0000 5041 0000 5041
00000080: 0000 5041 0000 5041 0000 5041 0000 5041
00000090: 0000 5041 0000 5041 0000 5041 0000 5041
000000a0: 0000 5041 0000 5041 0000 5041 0000 5041
000000b0: 0000 5041 0000 5041 0000 5041 0000 5041
000000c0: 0000 5041 0000 5041 0000 5041 0000 5041
000000d0: 0000 5041 0000 5041 0000 5041 0000 5041
000000e0: 0000 5041 0000 5041 0000 5041 0000 5041
000000f0: 0000 5041 0000 5041 0000 5041 0000 5041

network_body._body_endoder.seq_layers.0.weight f4 [142, 71]
0.01898903 0.019975377 -0.08459757 0.14400245 0.25185052 0.14626145 -0.033776164 0.013168403
0.02234485 0.076492906 -0.11761059 0.057260253 -0.06832006 -0.022509841 0.15022106 -0.13531315
0.06284156 -0.018731916 -0.12331367 0.15047206 -0.0151960915 0.27361682 0.026265819 0.39370465
-0.04357741 -0.0027337107 0.0039176275 0.057912517 -0.027399428 -0.0026511839 0.25421095 -0.18474868
0.10125053 1.2773882e-05 0.046042208 0.27837327 -0.03699083 0.011209538 0.07644719 0.06261758
0.14510971 -0.13318804 -0.14488627 -0.19002268 0.14338139 0.123813145 0.021776741 -0.1834397
0.31329566 0.2788195 0.11292321 0.15265349 0.0382936 -0.15182315 -0.16289285 0.13787174
0.02970119 -0.31012657 -0.10749562 0.09212373 -0.03987957 0.059862353 0.09604284 0.03689726
0.16418312 -0.018497033 -0.079235606 -0.121507406 -0.022410255 0.06185356 -0.105137385 0.13018188
-0.08259331 -0.13285744 0.15326098 0.22963952 -0.15851742 0.17409065 -0.05389482 0.012678102
0.06674354 0.1101986 0.11068546 0.14324279 -0.1301923 -0.024901997 -0.02025521 0.1542386
-0.08357032 0.002489062 -0.1657807 0.019978745 -0.07808282 0.03280076 0.106545545 -0.071768224
-0.18386401 0.014455594 0.077554576 0.015913242 -0.13266498 0.2227635 -0.14363258 0.035144534
0.07222386 -0.18271725 -0.21236117 0.11994438 0.08150574 0.18955702 0.04036969 0.04324154
0.15638588 0.08330558 0.0902008 -0.1433393 0.006515203 -0.030654268 -0.06839773 -0.12273209
0.0059651923 0.079317056 0.11430852 -0.01057657 0.18669681 0.15969765 0.088264525 0.06094809
-0.043127097 -0.008380108 0.069558404 -0.052892435 -0.09506777 -0.03369124 0.12743577 0.08594313
-0.1568609 -0.16367175 0.04401738 -0.19616248 0.08882139 0.024366181 0.050472546 -0.06460805
-0.106947415 -0.082615376 -0.05435578 -0.0709367 0.17582008 0.010942678 -0.02645236 0.17497167
-0.061541308 0.034696545 -0.1423069 0.095963076 0.11078814 -0.08362102 0.04007223 -0.00971063
-0.2647659 -0.069110535 0.14620347 0.039125666 0.08544022 -0.0015168174 0.19178629 -0.0098703075
0.19649889 0.024447367 0.10005791 0.0142173525 0.26664335 0.031266924 -0.0034124535 0.16104743
0.15933378 0.0061424924 0.12080381 0.039693616 0.0008878409 -0.016832208 0.023494609 -0.23255849
-0.113685854 -0.0049950154 0.044771943 -0.15604807 -0.008310326 -0.028811438 -0.18658534 -0.010564882
0.14005904 -0.16278875 -0.12038165 0.0049600382 -0.098734535 -0.048085086 0.019372169 0.17549552
0.015874185 0.038924586 -0.12434884 -0.15235355 0.0009305186 -0.036877714 -0.056755334 0.08496411
0.0051746606 0.097885825 -0.10151779 -0.1614081 -0.03350817 0.024572616 0.10985727 0.19188212
0.1430348 -0.06554499 0.09536571 -0.22847064 0.25538284 -0.11662526 -0.12217459 -0.07539456
0.009726386 -0.1221984 0.023652522 -0.041348416 0.05606333 -0.15343103 0.17073983 0.08489509
-0.12798518 0.07753985 0.04682629 0.07043461 0.012503216 -0.0863107 -0.26330465 0.029689321
-0.111160785 0.056790736 0.08698852 0.0029654305 0.07850996 0.10885733 0.21349122 -0.0007534413
0.048909422 -0.003326613 -0.013698346 -0.048397183 0.06329321 0.09377612 -0.08589072 -0.007528301
00000000: e28e 9b3c 67a3 a33c 7e41 adbd 6175 133e
00000010: 8df2 803e 90c5 153e e058 0abd 49c0 573c
00000020: 8c0c b73c 50a8 9c3d d2dd f0bd ba89 6a3d
00000030: 63eb 8bbd 8f66 b8bc 8dd3 193e 888f 0abe
00000040: 13b3 803d ad73 99bc e18b fcbd 5915 1a3e
00000050: 07f9 78bc 8117 8c3e 6a2b d73c a893 c93e
00000060: 3a7e 32bd 0e28 33bb 715f 803b ad35 6d3d
00000070: c474 e0bc 7cbf 2dbb f027 823e c22e 3dbe
00000080: 705c cf3d 684f 5637 c196 3c3d f186 8e3e
00000090: b283 17bd 36a8 373c 5890 9c3d a53d 803d
000000a0: a497 143e 7262 08be 115d 14be 4e95 42be
000000b0: 92d2 123e bf91 fd3d 2365 b23c 9ed7 3bbe
000000c0: 4a68 a03e 6ec1 8e3e 4944 e73d 3251 1c3e
000000d0: c0d9 1c3d 8777 1bbe 62cd 26be 402e 0d3e
000000e0: e94f f33c e9c8 9ebe aa26 dcbd 5eab bc3d
000000f0: c358 23bd 3a32 753d 1cb2 c43d 9521 173d
00000100: 9f1f 283e 1787 97bc 4746 a2bd e0d8 f8bd
00000110: b695 b7bc 295a 7d3d 4552 d7bd 664e 053e
00000120: ae26 a9bd c80b 08be 72f0 1c3e 9f26 6b3e
00000130: 6452 22be d244 323e d1c0 5cbd d0b7 4f3c
00000140: d6b0 883d ceaf e13d 0faf e23d 3dae 123e
00000150: 2151 05be 46ff cbbc 41ee a5bc b9f0 1d3e
00000160: ea26 abbd 881f 233b 6ac2 29be 77aa a33c
00000170: e3e9 9fbd 175a 063d 8d34 da3d 38fb 92bd
00000180: d946 3cbe 28d7 6c3c efd4 9e3d 7d5c 823c
00000190: 54d9 07be 1d1c 643e 6b14 13be b7f3 0f3d
000001a0: 1aea 933d 3b1a 3bbe 3575 59be 66a5 f53d
000001b0: 7bec a63d 3c1b 423e b05a 253d 0b1e 313d
000001c0: 9f23 203e 1e9c aa3d 32bb b83d 8ac7 12be
000001d0: 7c7d d53b a91e fbbc 1c14 8cbd f65a fbbd
000001e0: a977 c33b fb70 a23d 961a ea3d 5a49 2dbc
000001f0: 732d 3f3e c887 233e 08c4 b43d b4a4 793d
00000200: 0aa6 30bd b84c 09bc a374 8e3d bda5 58bd
00000210: e4b2 c2bd d3ff 09bd 867e 023e f402 b03d
00000220: 25a0 20be 9199 27be 914b 343d d1de 48be
00000230: fde7 b53d 969b c73c 4dbc 4e3d 3a51 84bd
00000240: 3f07 dbbd 4032 a9bd 2ba4 5ebd 4347 91bd
00000250: 2e0a 343e eb48 333c 9fb2 d8bc c62b 333e
00000260: bd12 7cbd f71d 0e3d e6b8 11be 4a88 c43d
00000270: e4e4 e23d 7f41 abbd c722 243d 5619 1fbc
00000280: 658f 87be d389 8dbd 5db6 153e 3c42 203d
00000290: 48fb ae3d f2cf c6ba a063 443e 12b7 21bc
000002a0: 0137 493e d845 c83c 29eb cc3d e6ef 683c
000002b0: 7a85 883e bf11 003d 78a3 5fbb 9ee9 243e
000002c0: 6528 233e f646 c93b fd67 f73d c695 223d
000002d0: ffbd 683a b3e3 89bc c477 c03c d023 6ebe
000002e0: 21d4 e8bd 3aad a3bb c962 373d 11cb 1fbe
000002f0: 0928 08bc f705 ecbc 3a10 3fbe 5418 2dbc
00000300: a36b 0f3e 18b2 26be a88a f6bd d187 a23b
00000310: 5535 cabd def4 44bd 62b2 9e3c 19b5 333e
00000320: 940a 823c 636f 1f3d 9baa febd 9202 1cbe
00000330: 0cee 733a 160d 17bd 4878 68bd aa01 ae3d
00000340: 3390 a93b 5d78 c83d 8fe8 cfbd 2a48 25be
00000350: dd3f 09bd 834c c93c d9fc e03d bf7c 443e
00000360: b777 123e 743c 86bd 194f c33d 35f4 69be
00000370: 8ac1 823e 39d9 eebd ac36 fabd 7768 9abd
00000380: 6b5b 1f3c 2843 fabd efc2 c13c f55c 29bd
00000390: aaa2 653d 061d 1dbe 6cd6 2e3e 7add ad3d
000003a0: 8c0e 03be 36cd 9e3d edcc 3f3d 0540 903d
000003b0: 4ada 4c3c aac3 b0bd decf 86be 0537 f33c
000003c0: 44a8 e3bd 679d 683d 0a27 b23d ab57 423b
000003d0: d4c9 a03d 98f0 de3d 719d 5a3e 9782 45ba
000003e0: 3f55 483d 4e03 5abb 076f 60bc 203c 46bd
000003f0: df9f 813d b20d c03d 79e7 afbd f7af f6bb

network_body._body_endoder.seq_layers.0.bias f4 [142]
-0.0004174493 -0.006961596 0.0014999507 -0.004816989 0.0042505804 0.005928592 -0.004868069 0.0060063936
0.0067270366 0.0019016938 -0.0012024282 -0.00123836 0.0059417393 -0.0018611011 0.00401633 0.002885705
0.0020192198 0.0060071438 0.00637426 -0.0025086123 0.0022373607 0.0039478713 7.5567346e-05 0.0040171114
0.0052036424 0.00028527132 0.0020322097 0.0009948753 0.0024739273 -0.0013678889 0.0017160203 0.002793186
-0.0051706643 -0.0009229099 -0.0009001834 0.0061547197 0.0055155787 0.004630901 0.0022201883 -0.005750739
-9.243976e-05 0.0027222529 -0.0047524935 -0.0021075953 0.0049000946 -0.0030967637 -0.000299659 0.0044889925
0.0062959422 -0.000689468 -0.00040396463 -0.0018436019 -0.0015707229 0.0026706664 0.005074087 -0.0014128328
0.002970225 -0.0048512705 -0.006546869 -0.0019144653 -0.00080446666 0.0016787305 0.005847047 0.0038299852
0.0044977013 0.00054128846 -0.0038322376 0.002571476 -0.0015920565 -0.0027385876 0.006196704 8.7882945e-05
0.0038379037 0.0037413822 0.0036178138 0.0033054403 0.00017553715 0.0035183197 0.0021440238 -0.0013103506
-0.004705704 0.0055466965 0.0009880182 0.0014693714 0.006735695 -6.396371e-05 -0.0015409489 0.0050465018
0.0037214889 0.0026072215 0.007014234 0.0057833446 0.004518831 0.004249151 0.0019263005 0.0007772501
0.0006962867 0.0056924396 -0.0042554797 0.0021879482 -0.003647705 0.0035938714 0.003289995 0.00282617
-0.0031500398 0.004412867 0.00087027735 -0.0047646714 0.0072252187 0.0039312704 0.003199347 0.0032632186
0.0062332 -0.00045555786 0.0052672545 -0.0030250049 0.0020754624 0.0051023257 0.0015840889 -0.00020580117
-0.003919141 0.002367563 0.0035449064 0.0070392685 0.006003186 0.0049724444 0.0031999422 0.006712767
0.0021206823 0.003588003 0.0038653575 0.006327719 -0.00024686902 -0.0054790713 0.001006604 0.0050638304
0.0006170571 -0.0011741526 0.0034590058 0.0029859499 0.0035727741 -0.0042834375
00000000: 19dd dab9 1a1e e4bb fe99 c43a d5d7 9dbb
00000010: 7448 8b3b a244 c23b 5384 9fbb 48d1 c43b
00000020: 796e dc3b 4142 f93a cc9a 9dba 7750 a2ba
00000030: ecb2 c23b 31f0 f3ba 6b9b 833b 191e 3d3b
00000040: e354 043b 93d7 c43b 2bdf d03b 8867 24bb
00000050: afa0 123b 255d 813b e979 9e38 f9a1 833b
00000060: 5183 aa3b 7890 9539 d22e 053b 7a66 823a
00000070: 9d21 223b bc4a b3ba 16ec e03a e30d 373b
00000080: ad6e a9bb 6fef 71ba 49fa 6bba 88ad c93b
00000090: 07bc b43b d0be 973b 9480 113b b270 bcbb
000000a0: 38dc c1b8 d367 323b ceba 9bbb 951f 0abb
000000b0: f990 a03b 13f3 4abb 8d1b 9db9 6618 933b
000000c0: 314e ce3b 6abd 34ba 37cb d3b9 04a5 f1ba
000000d0: b7e0 cdba 5906 2f3b 8744 a63b cd2e b9ba
000000e0: 1ba8 423b 68f7 9ebb 1e87 d6bb ccee faba
000000f0: d8e2 52ba d908 dc3a 9698 bf3b 7d00 7b3b
00000100: 7461 933b 41e5 0d3a 4726 7bbb 3586 283b
00000110: 8dac d0ba e079 33bb b90d cb3b cc4d b838
00000120: 5785 7b3b fa31 753b d818 6d3b 16a0 583b
00000130: 6510 3839 9c93 663b c082 0c3b 12c0 abba
00000140: 4e32 9abb 10c1 b53b 6480 813a ec97 c03a
00000150: 1bb7 dc3b 4124 86b8 aaf9 c9ba 205d a53b
00000160: 39e4 733b ebdd 2a3b a9d7 e53b 3682 bd3b
00000170: b412 943b 763c 8b3b eb7b fc3a 5fc0 4b3a
00000180: 0287 363a a587 ba3b 8d71 8bbb ae63 0f3b
00000190: 560e 6fbb 2887 6b3b f59c 573b 4437 393b
000001a0: e670 4ebb d099 903b 5323 643a f620 9cbb
000001b0: 87c1 ec3b e3d1 803b 23ac 513b b9db 553b
000001c0: df3f cc3b f1d7 eeb9 ef98 ac3b 293f 46bb
000001d0: 7b04 083b 6931 a73b 34a1 cf3a 55cc 57b9
000001e0: 236c 80bb 1e29 1b3b a951 683b aaa9 e63b
000001f0: 60b6 c43b e3ef a23b 1fb6 513b c5f6 db3b
00000200: 25fb 0a3b b424 6b3b f051 7d3b c158 cf3b
00000210: 336e 81b9 c889 b3bb 07f0 833a 7dee a53b
00000220: 00c2 213a 06e6 99ba 7db0 623b edaf 433b
00000230: 3425 6a3b 145c 8cbb

network_body._body_endoder.seq_layers.2.weight f4 [142, 142]
-0.0033426434 0.03398706 -0.09669543 0.027313098 0.12030099 0.11612486 0.16295515 -0.060702026
0.061604448 -0.09568984 0.04399885 0.07347567 0.032885373 0.027403435 -0.0872629 0.019692529
-0.10167884 0.010341813 0.11674736 -0.10144435 -0.11375707 -0.07281871 0.011068352 -0.009823856
0.18911001 -0.110452786 0.031752177 -0.15326291 0.06920791 -0.10916229 -0.050107464 -0.093068615
-0.14315407 -0.126443 0.020451028 -0.024355745 0.15218788 -0.03458929 0.11946009 -0.013486807
-0.08089312 -0.14199795 -0.007965048 0.020714466 0.081285425 -0.061750118 -0.08700236 -0.0007067062
-0.049415845 0.06790598 0.040433187 -0.07678522 0.049297266 -0.070840634 -0.023659192 0.056334715
-0.12953524 0.0873762 -0.109900594 -0.061337426 0.078006014 -0.016392289 0.18154144 0.06770542
0.08617056 -0.05715824 -0.030500017 0.042188562 0.073279105 -0.04116096 -0.0048605674 0.03209234
0.07369001 0.22237091 0.06750678 0.034385864 -0.0029533093 -0.18182589 -0.072484545 0.0026874796
0.04629903 0.058596637 0.14147216 0.07008093 0.047765303 -0.043163333 -0.10543052 -0.013563981
-0.13356918 0.03375088 0.18788505 0.013451828 0.12779969 0.11095546 -0.1454475 0.09722968
-0.008814971 0.04878172 -0.10653592 -0.13145392 -0.07129221 0.09870007 -0.14515972 0.016705122
0.07256401 0.07455069 -0.08033622 -0.017489124 -0.011912298 0.13358928 0.008832831 0.0444917
-0.050389588 0.09102888 0.04213497 0.0112540675 0.120586775 0.016472714 -0.12178407 0.2239543
-0.058796924 -0.026864467 -0.05517319 -0.035881806 0.07899258 0.07958525 0.023607688 0.021863598
0.044988476 0.08875999 0.0072605815 -0.11683171 -0.10784302 -0.044379845 0.054015778 0.042251047
0.06669037 0.07411071 0.12921843 0.22803217 -0.010089488 0.024881098 -0.085166685 0.011485293
-0.0128971385 -0.058260847 0.03297842 0.040812522 0.12992191 0.10433746 0.039804775 0.102711804
0.050965622 0.08307377 0.023088885 -0.039613828 -0.059357245 -0.036069125 0.0065312707 -0.11522398
0.037721623 0.0362168 -0.12748931 0.053762734 0.015540537 0.15029612 -0.043428373 -0.03767043
-0.1934419 0.06414345 -0.07984275 -0.007224653 -0.07661648 -0.047099184 0.1128293 0.028125685
-0.0078226505 0.04022543 0.021699546 -0.09499277 -0.0406902 -0.0071662245 0.026072288 0.22070529
-0.051018335 -0.11018249 -0.043615468 -0.010180242 0.04064466 -0.059654694 -0.020691847 -0.10192777
-0.08421595 0.06508633 0.00019222956 -0.044780783 -0.083058126 -0.022195224 -0.02645343 0.020474395
0.0021903992 -0.09055496 -0.08843325 -0.056169588 -0.085565366 -0.11411359 0.030750824 -0.10977916
-0.0663036 -0.07538923 0.043454334 -0.040400617 0.02447892 0.006455743 0.084836304 -0.16886795
-0.049825806 0.034306683 0.009914132 0.032347534 -0.021376701 0.027103461 0.012403169 0.10338252
-0.048598107 -0.056721654 -0.06880161 0.045412954 0.03132889 -0.103948735 -0.009588057 -0.118079625
-0.13375135 -0.08781866 -0.02394553 0.014261233 -0.021210441 0.06183577 -0.03906015 0.055610433
-0.09094131 0.020640563 -0.031827986 0.092783794 -0.039434496 -0.054327965 -0.0052019125 -0.016314682
0.0041366527 -0.024850477 0.035463627 0.075619146 -0.03567811 -0.045481253 0.054324612 -0.014431958
00000000: 4010 5bbb 0436 0b3d 4108 c6bd b8bf df3c
00000010: 5e60 f63d dfd2 ed3d b7dd 263e b0a2 78bd
00000020: f254 7c3d 09f9 c3bd 2338 343d 697a 963d
00000030: d0b2 063d 2b7d e03c e4b6 b2bd 3a52 a13c
00000040: ff3c d0bd b570 293c 3d19 ef3d 0ec2 cfbd
00000050: 77f9 e8bd fa21 95bd 0858 353c 3df4 20bc
00000060: 0ea6 413e 1235 e2bd 920e 023d f4f0 1cbe
00000070: e0bc 8d3d 7b90 dfbd 7c3d 4dbd c29a bebd
00000080: fb96 12be 467a 01be ea88 a73c b385 c7bc
00000090: 24d7 1b3e 80ad 0dbd 7ea7 f43d c5f7 5cbc
000000a0: 4bab a5bd e967 11be d57f 02bc 62b1 a93c
000000b0: f978 a63d b1ed 7cbd 4b2e b2bd 4042 39ba
000000c0: 4568 4abd 4a12 8b3d 459d 253d 9241 9dbd
000000d0: eeeb 493d e514 91bd ecd0 c1bc 3bbf 663d
000000e0: e3a4 04be 4bf2 b23d 9013 e1bd f43c 7bbd
000000f0: 9ec1 9f3d 1f49 86bc 00e6 393e 24a9 8a3d
00000100: 317a b03d c21e 6abd 2cdb f9bc eacd 2c3d
00000110: 5b13 963d 6598 28bd 6545 9fbb 4273 033d
00000120: caea 963d 33b5 633e ff40 8a3d 31d8 0c3d
00000130: 4f8c 41bb 9130 3abe c772 94bd 6d20 303b
00000140: 0da4 3d3d 0703 703d 14de 103e 9786 8f3d
00000150: 8da5 433d 09cc 30bd f5eb d7bd 763b 5ebc
00000160: 5cc6 08be 5d3e 0a3d f064 403e 0e65 5c3c
00000170: ecdd 023e 9e3c e33d 30f0 14be 5b20 c73d
00000180: ab6c 10bc 57cf 473d 812f dabd db9b 06be
00000190: a601 92bd 4323 ca3d c0a4 14be 2ed9 883c
000001a0: 719c 943d 08ae 983d 5187 a4bd 5a45 8fbc
000001b0: cd2b 43bc a1cb 083e 94b7 103c ee3c 363d
000001c0: 5065 4ebd 596d ba3d b895 2c3d fb62 383c
000001d0: 33f6 f63d c9f1 863c ed69 f9bd 4754 653e
000001e0: 0bd5 70bd df12 dcbc 48fd 61bd cdf8 12bd
000001f0: ddc6 a13d 97fd a23d e964 c13c 4a1b b33c
00000200: d645 383d ccc7 b53d 2cea ed3b 7745 efbd
00000210: cddc dcbd a4c7 35bd a63f 5d3d 6f0f 2d3d
00000220: f694 883d 5bc7 973d d651 043e 4481 693e
00000230: 614e 25bc 72d3 cb3c df6b aebd cf2c 3c3c
00000240: 854e 53bc eda2 6ebd 6114 073d 082b 273d
00000250: 400a 053e e1ae d53d 550a 233d 915a d23d
00000260: 54c1 503d 9522 aa3d e724 bd3c 1c42 22bd
00000270: 9520 73bd 38bd 13bd 4504 d63b 8dfa ebbd
00000280: fd81 1a3d 1158 143d 8f8c 02be 5036 5c3d
00000290: bd9d 7e3c 3ae7 193e f3e1 31bd 4f4c 1abd
000002a0: a215 46be a45d 833d 9984 a3bd c8bc ecbb
000002b0: 1ae9 9cbd 13eb 40bd 0c13 e73d d667 e63c
000002c0: 932a 00bc 6cc3 243d 3fc3 b13c 928b c2bd
000002d0: c4aa 26bd a6d2 eabb 8d95 d53c 9100 623e
000002e0: 9af8 50bd 5ba7 e1bd 22a6 32bd 08cb 26bc
000002f0: 047b 263d 7b58 74bd f381 a9bc 82bf d0bd
00000300: 6979 acbd fb4b 853d 3b91 4939 0e6c 37bd
00000310: 611a aabd c2d2 b5bc ddb4 d8bc ebb9 a73c
00000320: cd8c 0f3b e174 b9bd 7e1c b5bd 1512 66bd
00000330: e53c afbd 63b4 e9bd 27e9 fb3c e5d3 e0bd
00000340: 2fca 87bd ab65 9abd 2cfd 313d 1e7b 25bd
00000350: 0488 c83c b38a d33b a8be ad3d b8eb 2cbe
00000360: 2516 4cbd 2a85 0c3d e26e 223c d97e 043d
00000370: 311e afbc 1408 de3c a936 4b3c 37ba d33d
00000380: cf0e 47bd f754 68bd dce7 8cbd ef02 3a3d
00000390: b952 003d 13e3 d4bd 3a17 1dbc bbd3 f1bd
000003a0: 1df6 08be 45da b3bd 6b29 c4bc f2a7 693c
000003b0: 85c1 adbc 8147 7d3d 89fd 1fbd c4c7 633d
000003c0: 703f babd 6616 a93c 105e 02bd 6e05 be3d
000003d0: 1186 21bd 0087 5ebd ce74 aabb 5ea6 85bc
000003e0: c28c 873b 3a93 cbbc 4f42 113d 36de 9a3d
000003f0: 3623 12bd 8d4a 3abd 7c83 5e3d 0574 6cbc

network_body._body_endoder.seq_layers.2.bias f4 [142]
0.00579963 -0.0005122392 0.006814215 0.0034403328 0.0002504153 -4.512695e-05 0.0053584576 0.00021552212
0.0038258897 0.004866883 0.0017492359 0.0018231061 0.002060326 0.0014706381 0.0044694375 0.003694241
0.005608753 0.00364162 -0.0016206682 0.002742527 -0.00054039276 0.0054774396 0.0044114594 0.00019525902
0.0050807823 0.0026284966 0.0012464366 0.0068058055 0.0004999832 0.0029091826 0.0028369706 0.0034581162
-0.00044186006 0.006001806 0.0032528092 -0.00088213204 0.004208735 -0.0027902294 0.00025525375 0.0026626373
0.000686658 0.0019605525 0.0014342414 0.0010831252 0.0009998374 0.002636723 0.0049746754 0.0013796806
2.371733e-05 -6.094099e-05 -0.0033943893 0.0031968667 0.005330723 0.0014900828 0.006880017 0.0051495275
-0.0019711182 0.0034388043 0.0016950775 0.001113034 0.0029373001 0.002911231 0.0054807304 0.0062666377
0.0025621522 0.0060951686 0.0050199265 0.0050758794 0.0008190291 0.006501919 0.0010449615 -0.00082065014
0.0043712356 -0.0045330343 -0.00020540328 0.0031893412 0.0021410175 0.00463418 0.0016192357 0.006341359
0.0041620657 0.005056692 -0.002689721 0.0024789853 0.0018490145 0.0021811721 0.00384479 0.00409332
-0.0010058006 0.0032652577 0.0028087087 0.0041187922 0.0040139146 0.0029158539 -0.0022084161 0.0038126411
0.003235479 -0.00018789805 0.00557421 0.002025828 0.002130325 0.0022126536 -0.0021480927 0.0031357335
0.0003100413 0.0039865235 -0.00043505826 0.003654815 0.001783008 0.007619428 0.0012750659 0.0016956844
0.00062327046 0.0055120904 0.0046643605 0.0039324337 0.0051270504 0.0074825003 0.0054658544 0.006325844
-0.0004796441 0.0074410816 -0.0009352512 0.001209719 -0.0010664113 0.0038980178 0.0017541298 0.00045613415
0.0070203724 0.0063989917 0.004404953 0.0046198037 0.0012197067 0.0062906966 0.0037840793 0.0040960847
0.0062741656 0.0051443237 -0.0024956432 0.0005053832 0.00459517 0.005392411
00000000: d30a be3b ca47 06ba c749 df3b 3577 613b
00000010: 2c4a 8339 b246 3db8 0096 af3b c7fd 6139
00000020: c7bb 7a3b 607a 9f3b 9e46 e53a 4af5 ee3a
00000030: 8906 073b 6dc2 c03a 5c74 923b 141b 723b
00000040: a1c9 b73b 3fa8 6e3b 9a6c d4ba f8bb 333b
00000050: 25a9 0dba 187c b33b 018e 903b 72be 4c39
00000060: b17c a63b db42 2c3b 795f a33a 3c03 df3b
00000070: 4e11 033a fca7 3e3b 78ec 393b 90a1 623b
00000080: 74a9 e7b9 ccaa c43b 152d 553b e13e 67ba
00000090: 6ee9 893b 48dc 36bb 94d3 8539 a47f 2e3b
000000a0: d700 343a 9d7c 003b 28fd bb3a a7f7 8d3a
000000b0: fa0c 833a dfcc 2c3b 9a02 a33b 66d6 b43a
000000c0: 94f4 c637 e49a 7fb8 6774 5ebb 8682 513b
000000d0: 58ad ae3b e24e c33a c471 e13b 5ebd a83b
000000e0: e02d 01bb 905d 613b 5d2d de3a 39e3 913a
000000f0: b87f 403b 5aca 3e3b b397 b33b 5e58 cd3b
00000100: c8e9 273b fbb9 c73b 327e a43b 9053 a63b
00000110: 1db4 563a 0d0e d53b 17f7 883a e620 57ba
00000120: 953c 8f3b d989 94bb 8661 57b9 4404 513b
00000130: 5050 0c3b 52da 973b 893c d43a 2dcb cf3b
00000140: f061 883b 9bb2 a53b 0846 30bb 7976 223b
00000150: a25a f23a fff1 0e3b dff8 7b3b 4221 863b
00000160: 11d5 83ba effd 553b 5012 383b eff6 863b
00000170: 2887 833b e917 3f3b 13bb 10bb 81dd 793b
00000180: 540a 543b 8006 45b9 dda7 b63b c1c3 043b
00000190: ec9c 0b3b 2b02 113b 04c7 0cbb e180 4d3b
000001a0: 0a8d a239 62a1 823b 8818 e4b9 9f85 6f3b
000001b0: d2b3 e93a 65ac f93b 1d20 a73a ba41 de3a
000001c0: f962 233a c49e b43b 7ed7 983b a5db 803b
000001d0: d100 a83b c32f f53b e91a b33b 0749 cf3b
000001e0: be78 fbb9 51d4 f33b a52b 75ba 6f8f 9e3a
000001f0: d3c6 8bba e375 7f3b d4ea e53a 4a25 ef39
00000200: 270b e63b a2ae d13b 6d57 903b b961 973b
00000210: 91de 9f3a 3022 ce3b 51fe 773b 7338 863b
00000220: 8497 cd3b b791 a83b f28d 23bb b17b 043a
00000230: 1493 963b d2b2 b03b

action_model._discrete_distribution.branches.0.weight f4 [13, 142]
0.00036395702 -0.009010763 0.008146579 -0.012967899 0.012583312 0.007400652 -0.013660195 0.011724606
0.011615223 0.007119913 -6.463161e-05 0.011898137 0.004420335 0.014986054 0.0046831714 0.010993644
0.021146778 0.010473013 -9.622928e-05 0.0008448497 0.008802425 0.011456197 0.0016282682 -0.011239441
-0.005311731 0.007271657 0.006010135 -0.007237329 0.0001674099 -0.006665116 0.010006284 0.0038370427
-0.0019504038 -0.00076023 -0.0059570004 0.0021842823 -0.0021889266 -0.011005273 0.008995438 0.0035911629
0.011658521 0.012289104 -0.0014622052 -0.004104594 0.0058285487 0.0029567175 0.015481358 -0.0051781135
0.000800224 -0.0005766844 0.0017728959 0.0013876975 0.0042783734 0.009101917 0.0016634696 0.0073323683
-0.006294564 0.0068394514 0.00522899 0.01647261 0.002801859 0.005177787 0.003924951 0.00665256
0.019315522 0.004401802 0.007859759 -0.0027974246 -0.0077320524 0.01850831 -0.008943231 -0.013344558
-0.0072993925 0.0019523316 0.0010540931 0.0012152352 0.0010884061 0.017814832 0.017778173 0.0019125323
0.002224218 -0.0045201904 -0.0036644298 -0.010486736 0.0005710934 -0.00044609606 -0.0110931 0.010706743
-0.00823795 0.003747192 0.0020439362 -0.0010089001 0.008592904 0.005257838 -0.0026502814 0.0050648227
-0.013072063 0.0063821315 0.02093278 -0.00022422327 -0.0075904126 0.005332165 -0.008573697 0.003719493
0.0023820254 -0.009834243 -0.00036804902 0.013843309 0.009408342 0.012794277 -0.00047922507 0.0033393267
-0.011812528 -0.0058550667 -0.0081910435 -0.0019672445 0.001054514 -0.0001307795 0.0021837566 -0.009369854
-0.001395134 0.012575324 0.004826137 -0.0046742503 0.0111655155 0.010472036 -0.0006023844 0.0071754553
0.0028273156 -0.0033208702 0.0089766765 -0.0050186203 -0.006850818 0.013182634 -0.0066065234 0.0011219613
0.0049921433 -0.002775261 -0.006434416 0.008145778 -0.009734987 0.0065618665 0.011808062 -0.007903122
0.0064073736 0.006064869 -0.008027078 0.0033430534 -5.1304916e-05 0.0076311287 0.0063688033 -0.00444713
0.011052775 0.010096334 0.0077334396 0.0060992436 0.00792916 -0.0013178429 -0.010206267 -0.0021291135
0.015969893 -0.00347651 -0.0028087967 -0.0047270716 0.007409944 0.004587377 0.007150895 -0.0043187905
0.0061098193 -0.008689702 -0.004546966 -0.0052790088 -0.00704728 -0.0035085275 -0.013778856 -0.013714906
-0.006055069 0.011211549 -0.0068921107 -0.013474346 -0.012660346 0.005117637 0.0041807536 -0.011314585
0.0069760103 -0.005700841 0.015423228 0.0045194137 0.011519024 -0.003581391 0.0179293 0.014465773
0.0068732677 0.00736836 -0.009693139 -0.0013362975 -0.0017056859 -0.008159692 -0.018272437 0.0016429572
-0.013453416 0.0027690283 -0.003774834 0.013163191 0.0110347215 -0.013427472 0.00068477326 -0.008802963
0.0040962403 -0.0060459976 0.010813303 -0.0042337817 0.0028633503 0.014328938 -0.004646142 -0.0014035732
-0.002817053 0.0064415103 -0.0062724566 -0.0054228464 -0.017290348 0.0022936016 0.017979179 -0.0094622355
-0.0067287246 -0.014152427 0.0073067527 -0.005637341 -0.009536594 0.008391688 0.0036224774 0.0063473177
0.0076173325 0.002793485 -0.0056538614 -0.0037873413 0.0007074002 -0.0011923382 -0.0045590843 0.0141282445
0.014427665 -0.01114212 0.0015582765 -0.002806081 0.0012145647 0.009491983 0.005026858 -0.009843209
9.10989e-05 0.0021885168 -0.0051645855 -0.0022427456 0.008412199 -0.017675651 -0.0036808164 -0.014205
00000000: 7cd1 be39 e1a1 13bc 3b79 053c 5077 54bc
00000010: 3c2a 4e3c 2b81 f23b 03cf 5fbc 9018 403c
00000020: c74d 3e3c 294e e93b d58a 87b8 67f0 423c
00000030: 75d8 903b 1188 753c 4a75 993b af1e 343c
00000040: 023c ad3c 0097 2b3c b4ce c9b8 e778 5d3a
00000050: 0c38 103c c6b2 3b3c 9d6b d53a a225 38bc
00000060: 070e aebb 1547 ee3b abf0 c43b 1e27 edbb
00000070: c18a 2f39 0c67 dabb 66f1 233c e576 7b3b
00000080: b1a4 ffba 2c4a 47ba f132 c3bb 2d26 0f3b
00000090: 1874 0fbb 764f 34bc 9a61 133c b759 6b3b
000000a0: 6203 3f3c 3d58 493c 77a7 bfba d47f 86bb
000000b0: 69fd be3b 7dc5 413b 86a5 7d3c 2aad a9bb
000000c0: 20c6 513a a32c 17ba 8460 e83a 67e3 b53a
000000d0: 9931 8c3b 3520 153c c708 da3a 5d44 f03b
000000e0: a142 cebb 7a1d e03b f357 ab3b 91f1 863c
000000f0: 659f 373b 6daa a93b e09c 803b b8fd d93b
00000100: 963b 9e3c fe3c 903b 38c6 003c ff54 37bb
00000110: 285d fdbb bd9e 973c a186 12bc 22a3 5abc
00000120: be2f efbb 61e5 ff3a 7f29 8a3a 8748 9f3a
00000130: d9a8 8e3a 69f0 913c 88a3 913c efad fa3a
00000140: 30c4 113b 1b1e 94bb ee26 70bb 8fd0 2bbc
00000150: 6eb5 153a 00e2 e9b9 d5bf 35bc 566b 2f3c
00000160: 77f8 06bc 7393 753b 8ff3 053b 123d 84ba
00000170: 40c9 0c3c f149 ac3b 58b0 2dbb d0f6 a53b
00000180: 352c 56bc 3321 d13b 397b ab3c 7a1d 6bb9
00000190: ffb8 f8bb 71b9 ae3b b178 0cbc bdc2 733b
000001a0: c11b 1c3b ce1f 21bc b4f6 c0b9 0ccf 623c
000001b0: 7225 1a3c 169f 513c 8040 fbb9 9bd8 5a3b
000001c0: 5589 41bc dcdb bfbb ba33 06bc e3ec 00bb
000001d0: 9e37 8a3a db21 09b9 5b1d 0f3b 0484 19bc
000001e0: eedc b6ba bb08 4e3c 9224 9e3b 742a 99bb
000001f0: 91ef 363c e792 2b3c 55e9 1dba 1520 eb3b
00000200: 7c4a 393b f5a2 59bb e912 133c 3d73 a4bb
00000210: d47c e0bb f9fb 573c 897b d8bb c60e 933a
00000220: 2295 a33b 27e1 35bb cbd7 d2bb df75 053c
00000230: 7f7f 1fbc ed04 d73b 9a76 413c 197c 01bc
00000240: f2f4 d13b cfbb c63b 0184 03bc 2117 5b3b
00000250: 3c30 57b8 8c0e fa3b 65b1 d03b 3bb9 91bb
00000260: b316 353c 186b 253c cb68 fd3b 2adc c73b
00000270: 4fe9 013c 78bb acba 3038 27bc 9988 0bbb
00000280: 4bd3 823c 29d6 63bb ca13 38bb 8de5 9abb
00000290: 1ecf f23b b551 963b 0e52 ea3b a484 8dbb
000002a0: e134 c83b 405f 0ebc b7fe 94bb 89fb acbb
000002b0: dfec e6bb 53ef 65bb b6c0 61bc 7cb4 60bc
000002c0: 9a69 c6bb a5b0 373c 37d7 e1bb 81c3 5cbc
000002d0: 576d 4fbc dab1 a73b b4fe 883b cf60 39bc
000002e0: 0497 e43b 1fce babb b5b1 7c3c 9717 943b
000002f0: 4aba 3c3c c5b5 6abb 78e0 923c d901 6d3c
00000300: 2639 e13b 4972 f13b f9cf 1ebc b426 afba
00000310: 5291 dfba 3bb0 05bc 14b0 95bc 7f58 d73a
00000320: b76b 5cbc 9678 353b 3563 77bb 6daa 573c
00000330: faca 343c e6fe 5bbc 5b82 333a 4e3a 10bc
00000340: c139 863b 811d c6bb 482a 313c 89bb 8abb
00000350: 0ca7 3b3b ecc3 6a3c aa3e 98bb 1af8 b7ba
00000360: 4f9e 38bb 4e13 d33b 2e89 cdbb 22b2 b1bb
00000370: 7da4 8dbc 4050 163b 1249 933c 7e07 1bbc
00000380: a27c dcbb 95df 67bc 7c6d ef3b 72b9 b8bb
00000390: 603f 1cbc 4a7d 093c 1667 6d3b 29fd cf3b
000003a0: d19a f93b e712 373b 0744 b9bb 0b35 78bb
000003b0: d370 393a 3b48 9cba 5f64 95bb 277a 673c
000003c0: 0362 6c3c 708d 36bc 153f cc3a 3ae6 37bb
000003d0: 0732 9f3a 4384 1b3c 57b8 a43b 6945 21bc
000003e0: 590c bf38 386d 0f3b af3b a9bb 07fb 12bb
000003f0: 52d3 093c 87cc 90bc da39 71bb 17bc 68bc

action_model._discrete_distribution.branches.0.bias f4 [13]
0.001045317 -0.001384559 -0.00056464184 -0.0037466038 -0.001372204 0.0025194336 -0.0003017595 -0.00013158943
0.00036224746 0.0036840185 -0.0014759919 -0.0031876704 0.0038272915
00000000: 0503 893a 177a b5ba 7904 14ba 9589 75bb
00000010: 87db b3ba 151d 253b 7935 9eb9 45fb 09b9
00000020: 08ec bd39 936f 713b 1276 c1ba 3ce8 50bb
00000030: 4cd3 7a3b

action_model._discrete_distribution.branches.1.weight f4 [13, 142]
0.0062315455 0.0008450499 -0.005451821 0.012818267 -0.005876798 0.007008225 -0.013726517 -0.015305094
0.0010082952 -0.0046483916 0.018592294 -0.003979765 -0.0058893445 -0.0033862118 -0.009445707 -0.0074459687
0.004487592 -0.011005177 -0.0025497791 0.005953116 0.005819861 0.001327927 0.005549944 0.005330046
-0.0021195966 -0.002207513 -0.000640759 0.0077892477 -0.0017698334 -0.0033051248 -0.0023709373 -0.0044035604
0.00015620174 -0.011170585 0.015345598 -0.0034252713 -0.003117315 0.004572601 -0.00091582164 0.008509362
0.0010655103 0.0020916006 0.0001766732 0.0037638324 0.0054444945 -0.004761104 -0.025105836 -0.00020842643
-0.01275202 -0.011588961 0.021082623 -0.01011269 -0.003024191 0.0035240292 -0.007980326 0.0022467661
0.02426603 -0.006064018 -0.020657325 0.009254957 -0.004685231 -0.015841333 0.018629886 0.0094051715
0.016740048 -0.0028196923 -0.00433229 -0.0026557278 -0.0019969079 -0.002247117 -0.003579316 0.011458378
-0.0023841662 0.010875456 -0.0020972285 -0.0063079013 0.0037236544 0.004182595 -0.0013764205 -0.013364756
0.0006690933 -0.018286366 0.0032155146 0.0139123695 0.023513991 -0.012434464 -0.0049489024 -0.006779741
-0.0022152998 -0.007817859 -0.00041314325 -0.00431103 -0.005391434 0.0051610083 0.009922088 -0.00961183
-0.009908395 0.012864377 -0.0055058994 -0.00027304713 -0.010958752 0.010736087 0.015671743 0.009283423
-0.0025664193 0.0062646805 -0.00620958 -0.0066758846 0.0012788769 0.0030358725 0.0036989134 0.016112939
-0.0009876421 0.0024846923 -0.013059053 0.005770191 -0.003195717 -0.015028569 0.008552166 0.011414664
0.02150486 -0.00020051913 0.001751982 -9.148866e-05 0.0016490745 0.00075967785 -0.0015264932 -0.009329554
0.0068508857 -0.003000788 -0.003499218 0.0055543776 0.008608863 -0.02126793 0.01226836 -0.00060903997
-0.01588271 -0.011642293 0.0032801898 -0.008037474 -0.015682304 0.002036139 -0.000918485 0.0063436027
-0.007889666 0.007908605 0.011084035 0.014269123 -0.016052518 0.0006626966 -0.010812182 -0.012211457
-0.008552371 0.00088547124 -0.008375287 -0.021880401 0.003538303 -0.01480962 -0.008890171 -0.0024916965
0.007252732 0.01139871 0.010945258 0.004848646 0.009928548 0.0024358314 0.0072813667 -0.0007819318
0.003651207 -0.01207975 -0.0067660147 0.00072319934 -0.008642145 0.0038155052 -0.006191881 -0.0028065764
0.0038071924 0.009899828 0.0056833304 -0.00479722 -0.007166454 0.00016103263 0.019128164 0.02441817
0.02037771 0.0011015694 -0.002805305 0.0027922767 -0.012921418 -0.003407007 0.0025261508 -0.011594762
-0.0040054196 0.008531057 0.00043141842 -0.0011890391 0.008173185 -0.0062335054 0.005354156 0.0023770507
0.0004315748 -0.0035884976 0.012072606 -0.005535116 -0.0010566302 -0.006396433 0.0043388163 -0.00846103
-0.0056209387 0.0020843432 0.0057211225 0.0061777607 0.004909383 0.0016128471 -0.0054753223 -0.006153098
0.020453872 0.016787417 -0.00012095986 0.005135554 -0.010016942 -0.0081274295 0.004995723 0.0080732135
0.0032201677 0.00475257 -0.0036443484 0.009106005 0.0065289987 -0.0067525962 0.003798278 -0.01292064
0.019200955 -0.0033315464 0.0013786335 0.0013557451 -0.006794131 0.013335294 0.014691737 0.015957424
-0.012539834 -0.0074280608 -0.008414014 -0.010708144 -0.002165202 -0.006027338 0.00749163 -0.007969839
-0.0035499288 -0.0020795527 0.010829232 -0.0050351373 0.0019298035 0.009824975 0.014134025 0.005603907
00000000: fe31 cc3b 5786 5d3a 30a5 b2bb b503 523c
00000010: 2892 c0bb 41a5 e53b 2fe5 60bc 38c2 7abc
00000020: c628 843a 8951 98bb de4e 983c b068 82bb
00000030: 67fb c0bb 35eb 5dbb 2bc2 1abc 50fd f3bb
00000040: a60c 933b 0f4f 34bc 321a 27bb 5b12 c33b
00000050: 88b4 be3b d60d ae3a 4edc b53b aba7 ae3b
00000060: eee8 0abb ecab 10bb 9cf8 27ba f23c ff3b
00000070: c1f9 e7ba cb9a 58bb ba61 1bbb be4b 90bb
00000080: 16ca 2339 d404 37bc 1a6c 7b3c 847a 60bb
00000090: de4b 4cbb c2d5 953b c013 70ba da6a 0b3c
000000a0: 98a8 8b3a 3c13 093b 5a41 3939 a1aa 763b
000000b0: bb67 b23b 0903 9cbb c1aa cdbc 0b8d 5ab9
000000c0: d9ed 50bc a0df 3dbc 77b5 ac3c b2af 25bc
000000d0: 8131 46bb 66f3 663b eabf 02bc 7b3e 133b
000000e0: 8ec9 c63c abb4 c6bb 8d39 a9bc 1aa2 173c
000000f0: 9186 99bb afc5 81bc b49d 983c 2618 1a3c
00000100: 6d22 893c 96ca 38bb e2f5 8dbb b80b 2ebb
00000110: 8ede 02bb 5e44 13bb f592 6abb ecbb 3b3c
00000120: ac3f 1cbb f82e 323c a871 09bb 83b2 cebb
00000130: 8e08 743b 260e 893b 0269 b4ba d9f7 5abc
00000140: 1766 2f3a 4acd 95bc 62bb 523b b5f0 633c
00000150: 6aa0 c03c ecb9 4bbc 672a a2bb 9728 debb
00000160: 902e 11bb 7a16 00bc 269b d8b9 8a43 8dbb
00000170: a0aa b0bb ad1d a93b 4190 223c f07a 1dbc
00000180: d256 22bc 1cc5 523c d56a b4bb c427 8fb9
00000190: 568c 33bc 6ae6 2f3c 0762 803c 8019 183c
000001a0: 5f31 28bb f347 cd3b bc79 cbbb 61c1 dabb
000001b0: fd9f a73a 7df5 463b 7869 723b 48ff 833c
000001c0: c573 81ba 38d6 223b a3f5 55bc df13 bd3b
000001d0: 3c6f 51bb 633a 76bc 621e 0c3c 9204 3b3c
000001e0: f62a b03c 7242 52b9 c3a2 e53a 9add bfb8
000001f0: c225 d83a 1e25 473a 9d14 c8ba fcda 18bc
00000200: 657d e03b dea8 44bb 2353 65bb 7f01 b63b
00000210: 300c 0d3c 153a aebc 3b01 493c fba7 1fba
00000220: 751c 82bc 51bf 3ebc 74f8 563b 9caf 03bc
00000230: 2d78 80bc be70 053b 7cc6 70ba ffdd cf3b
00000240: a843 01bc 1893 013c d099 353c 0ac9 693c
00000250: 9280 83bc d1b8 2d3a 9425 31bc 9012 48bc
00000260: 3e1f 0cbc f81e 683a 8038 09bc 873e b3bc
00000270: e0e2 673b 0ca4 72bc 14a8 11bc bb4b 23bb
00000280: 53a8 ed3b a8c1 3a3c bd53 333c 64e1 9e3b
00000290: 59ab 223c 78a2 1f3b 8898 ee3b 8efa 4cba
000002a0: 1749 6f3b 25ea 45bc 72b5 ddbb 1695 3d3a
000002b0: c997 0dbc 8e0d 7a3b 43e5 cabb 8aee 37bb
000002c0: 1782 793b e332 223c 3b3b ba3b 0032 9dbb
000002d0: 93d4 eabb deda 2839 abb2 9c3c 9d08 c83c
000002e0: 28ef a63c 8962 903a 35d9 37bb a1fe 363b
000002f0: 5bb4 53bc 1848 5fbb c78d 253b f5f7 3dbc
00000300: e53f 83bb d9c5 0b3c 0030 e239 88d9 9bba
00000310: d3e8 053c 6f42 ccbb ea71 af3b 4bc8 1b3b
00000320: fd44 e239 002d 6bbb 2ecc 453c eb5f b5bb
00000330: a07e 8aba 2b99 d1bb a12c 8e3b 22a0 0abc
00000340: da2f b8bb 7a99 083b 4178 bb3b d06e ca3b
00000350: e4de a03b 2b66 d33a 556a b3bb ed9f c9bb
00000360: e18e a73c c485 893c d5ab fdb8 2648 a83b
00000370: 1a1e 24bc e928 05bc 29b3 a33b 8345 043c
00000380: 7309 533b 72bb 9b3b 05d6 6ebb 5a31 153c
00000390: 36f1 d53b e244 ddbb 88ec 783b 18b1 53bc
000003a0: 524b 9d3c 1356 5abb 44b3 b43a 42b3 b13a
000003b0: 4da1 debb 477c 5a3c 9cb5 703c 25b9 823c
000003c0: e073 4dbc 1767 f3bb efda 09bc 3671 2fbc
000003d0: 10e6 0dbb fa80 c5bb 597c f53b ed93 02bc
000003e0: eca5 68bb 1b49 08bb 176d 313c cbfd a4bb
000003f0: 76f1 fc3a eff8 203c 6692 673c fba0 b73b

action_model._discrete_distribution.branches.1.bias f4 [13]
-0.0049960366 -0.0009718872 -6.582926e-05 -0.0029998375 -0.00085276825 0.0010551903 0.0044014505 -0.0005558915
0.0030968846 0.0041654552 0.0020558552 0.002387914 -0.0027536966
00000000: cbb5 a3bb 3fc6 7eba d10d 8ab8 ec98 44bb
00000010: 4f8c 5fba 504e 8a3a 0b3a 903b 3fb9 11ba
00000020: 1af5 4a3b 5f7e 883b 87bb 063b 8d7e 1c3b
00000030: 5d77 34bb

action_model._discrete_distribution.branches.2.weight f4 [13, 142]
-0.0020766822 0.00039462012 -8.3891166e-05 -0.001309564 0.0066841166 0.014052959 -3.3492815e-05 -0.016029153
-0.0032446885 0.007438645 0.0042252773 0.005397899 -0.0041308547 0.0068840818 0.001380337 0.005306499
0.008072563 0.0065700435 0.0070789526 -0.00089257734 -0.0013195997 -0.012071327 -0.0031766763 0.010696249
-0.013474781 -0.007024214 -0.015255402 -0.0046520936 0.018787295 0.004229161 -0.012533438 -0.012330462
0.008092865 0.0018346274 0.00725151 -0.017392902 -0.0068497583 0.00527388 0.0012386425 -0.0016455664
0.008879935 -0.013443802 0.004144556 -0.0070879427 -0.013911406 0.007659421 -0.0032936411 -0.002693854
-0.011138928 0.009159231 0.006370237 -0.00673278 -0.0009444915 0.008666713 0.0062451437 0.0021895098
0.009822253 -0.0057289293 -0.0059600826 0.013420218 -0.0070653413 0.0059149135 -0.0022375963 0.0006491735
0.024816222 -0.0021593398 -0.00029377532 0.001204314 -0.006155539 -0.001075584 -0.0014116123 0.013777092
-0.006073502 0.008847841 0.00433647 0.0046504443 0.004949576 -0.00087356934 -0.008173628 -0.009903795
0.0015495945 -0.006189172 0.0013023191 -0.0056012203 0.006561204 -0.0031158135 0.0065210583 -0.006032578
0.004525887 -0.0020007524 0.013679949 -0.0032430396 0.0004131707 -0.0008503313 -0.0030289355 -0.0011533102
0.0030419687 -0.017359897 0.002983054 2.2176238e-05 0.008886403 -0.00041971257 0.005147154 -0.005371669
-0.00305204 0.003568073 -0.017051483 -0.0066300095 0.0055580297 -0.0013585028 -0.0096229175 -0.007938511
0.016204955 -0.0227625 -0.0137906205 0.007376507 0.015623087 -0.0029254025 -0.006007101 -0.014977895
0.003777584 0.0015880468 0.00840165 -0.0038779154 0.00845713 -0.0049683778 -0.016215207 -0.014451934
-0.0013161058 -0.011455307 -0.007909432 -0.0062565207 -0.021221448 0.003918247 -8.300574e-05 0.009594124
-0.004917242 -0.012675229 0.0036594726 0.008230403 -0.0014210509 0.006780434 -0.0033517354 -0.0035442729
0.0040597185 -0.00782364 0.0067917896 0.007318735 -0.010394047 0.00027019746 -0.0037380776 0.00014469637
0.013575651 0.010830997 -0.012103659 -0.007850764 0.0061625834 0.00092282204 -0.007996096 -0.003078457
0.016655128 0.003507121 -0.002751179 -0.0071082683 0.010129749 -0.005255915 0.0071187676 0.0051742555
0.0006785743 -0.004467357 -0.013555958 -0.008590402 0.01167603 -0.0076563223 0.0071740914 -0.003157218
-0.013474354 -0.00054852356 0.0011924015 0.005119262 0.016086366 -0.009028861 -0.008251265 0.0012839325
0.0070411237 -0.0088208 0.0072286497 0.0075859497 -0.011146599 0.022099862 -0.010106443 -0.0012783615
-0.0008546802 -0.0061898013 -0.011779187 -0.010022701 0.012814269 -0.011005197 0.0033625532 -0.010947943
-3.7957434e-06 0.009782994 -0.0084483335 -0.004226331 0.0058085546 -0.0031119597 -0.013430594 -0.007264164
0.0024396812 0.00053040875 0.016815234 0.009457743 0.0017513583 0.009217261 -0.010419314 -0.012485887
-0.0102002295 0.021889016 -0.00014592736 -0.008607022 -0.0061922166 -0.0008242243 0.0018126728 0.0015262361
-0.0034082462 -0.0040399977 -0.00974507 -0.006387016 0.0052951756 0.010978678 0.010181492 -0.0048951926
0.0014308781 -0.02130351 -0.0013100409 0.012148715 0.007916722 -0.007509318 0.0039467365 0.012929126
-0.0029341565 -0.007920713 -0.009927247 -0.0037641306 0.013432894 0.0005485418 0.0028638507 0.0034939286
-0.015018127 -0.009841283 -0.0014507519 -0.0043608216 -0.004877895 0.008591084 0.0048831753 -0.0017169163
00000000: f218 08bb 04e5 ce39 baee afb8 ada5 abba
00000010: 6f06 db3b 623e 663c a37a 0cb8 924f 83bc
00000020: d7a4 54bb e1bf f33b 3274 8a3b dce0 b03b
00000030: 1f5c 87bb dd93 e13b 6dec b43a 24e2 ad3b
00000040: c942 043c 8549 d73b 8ff6 e73b dafb 69ba
00000050: 6bf6 acba d1c6 45bc c92f 50bb 523f 2f3c
00000060: 54c5 5cbc 612b e6bb cbf1 79bc 9770 98bb
00000070: d0e7 993c c694 8a3b 0d59 4dbc b505 4abc
00000080: f097 043c e177 f03a 139e ed3b 8f7b 8ebc
00000090: f073 e0bb 83d0 ac3b f259 a23a 0cb0 d7ba
000000a0: 267d 113c 6443 5cbc 0ecf 873b f941 e8bb
000000b0: aaec 63bc e1fb fa3b 21da 57bb 5f8b 30bb
000000c0: 0d80 36bc 9910 163c 6cbd d03b a79e dcbb
000000d0: c097 77ba d4fe 0d3c 10a4 cc3b e17d 0f3b
000000e0: 84ed 203c beb9 bbbb cc4c c3bb 79e0 5b3c
000000f0: 6184 e7bb e4d1 c13b a3a4 12bb 4c2d 2a3a
00000100: 644b cb3c b683 0dbb db05 9ab9 12da 9d3a
00000110: 67b4 c9bb 9cfa 8cba d905 b9ba 50b9 613c
00000120: 3a04 c7bb 89f6 103c f218 8e3b c162 983b
00000130: 0e30 a23b 3f00 65ba aeea 05bc 8743 22bc
00000140: c31b cb3a 8ace cabb 94b2 aa3a 718a b7bb
00000150: 5eff d63b ad32 4cbb 9aae d53b efac c5bb
00000160: e44d 943b 0e1f 03bb dd21 603c 2d89 54bb
00000170: d59e d839 c4e8 5eba 1b81 46bb ab2a 97ba
00000180: c45b 473b 5836 8ebc 577f 433b 1c07 ba37
00000190: 4798 113c de0c dcb9 75a9 a83b d304 b0bb
000001a0: bc04 48bb 55d6 693b 8daf 8bbc 8d40 d9bb
000001b0: 2220 b63b ca0f b2ba 71a9 1dbc 8710 02bc
000001c0: 41c0 843c 6c78 babc 0ef2 61bc a0b6 f13b
000001d0: faf7 7f3c 1cb8 3fbb 37d7 c4bb d865 75bc
000001e0: 5891 773b 0226 d03a 13a7 093c a024 7ebb
000001f0: c68f 0a3c c6cd a2bb c1d5 84bc cec7 6cbc
00000200: 2f81 acba 0aaf 3bbc 9096 01bc 8003 cdbb
00000210: 9ad8 adbc a364 803b 5e13 aeb8 ac30 1d3c
00000220: d120 a1bb c4ab 4fbc c3d3 6f3b d0d8 063c
00000230: 8e42 baba 672e de3b caa8 5bbb 0847 68bb
00000240: 6307 853b b92e 00bc a98d de3b 00d2 ef3b
00000250: cb4b 2abc 4aa9 8d39 89fa 74bb a3b9 1739
00000260: 686c 5e3c 7e74 313c 6d4e 46bc 7ea0 00bc
00000270: 7fef c93b 8ae9 713a 0f02 03bc f0bf 49bb
00000280: 5670 883c bad7 653b 204d 34bb 7aec e8bb
00000290: 3ff7 253c d039 acbb 8d44 e93b cd8c a93b
000002a0: 5ae2 313a e862 92bb cf19 5ebc c2be 0cbc
000002b0: d24c 3f3c e3e1 fabb a414 eb3b 54e9 4ebb
000002c0: 89c3 5cbc cbca 0fba 5b4a 9c3a 7bbf a73b
000002d0: 8ec7 833c caed 13bc 5030 07bc a049 a83a
000002e0: 3ab9 e63b 1e85 10bc 4fde ec3b 8f93 f83b
000002f0: 3aa0 36bc c50a b53c 7f95 25bc b28e a7ba
00000300: 9e0c 60ba d1d3 cabb 7efd 40bc 4136 24bc
00000310: f1f2 513c 244f 34bc 485e 5c3b 005f 33bc
00000320: 60ba 7eb6 da48 203c e16a 0abc 097d 8abb
00000330: b055 be3b 05f2 4bbb fe0b 5cbc 3908 eebb
00000340: 0fe3 1f3b 210b 0b3a 1ac0 893c a6f4 1a3c
00000350: d58d e53a ff03 173c c5b5 2abc 9b91 4cbc
00000360: dd1e 27bc 9850 b33c 1404 19b9 7804 0dbc
00000370: 14e8 cabb c210 58ba 3597 ed3a fc0b c83a
00000380: e25c 5fbb f561 84bb c9a9 1fbc 2c4a d1bb
00000390: 2783 ad3b eadf 333c 46d0 263c da67 a0bb
000003a0: 4d8c bb3a b384 aebc aeb5 abba 670b 473c
000003b0: 24b5 013c ba10 f6bb a053 813b afd4 533c
000003c0: fa4a 40bb e1c5 01bc e4a5 22bc a2af 76bb
000003d0: a415 5c3c 04cc 0f3a 71af 3b3b 65fa 643b
000003e0: 970e 76bc 553d 21bc 2827 beba 39e5 8ebb
000003f0: c0d6 9fbb 9ec1 0c3c 0b03 a03b 270a e1ba

action_model._discrete_distribution.branches.2.bias f4 [13]
-0.0050930153 -0.0026540963 -0.00066183857 8.350498e-05 0.0005380406 0.00500491 -0.0021368887 0.0021338551
0.0018130679 0.00024644454 -0.00034335247 -0.003171513 0.0037379854
00000000: 4fe3 a6bb 59f0 2dbb 3c7f 2dba 651f af38
00000010: 4b0b 0d3a 3a00 a43b 0b0b 0cbb 26d8 0b3b
00000020: 77a4 ed3a 3a35 8139 fd03 b4b9 29d9 4fbb
00000030: fdf8 743b

action_model._discrete_distribution.branches.3.weight f4 [13, 142]
0.011067799 -0.011172262 0.010447782 0.006989837 -0.0057015875 -0.017124021 0.018760517 0.011687061
-0.005122654 0.0069840024 -0.017596524 -0.0048327832 0.013682629 -0.020039752 -0.00014842745 -0.007990422
-0.015689172 0.0032270944 -0.011506303 0.012807682 -0.0024919873 0.013735168 0.0064422917 0.0031244657
-0.004209157 -0.0054884395 0.011126968 0.006239167 0.0018905138 -0.0028312812 0.004389061 0.0037251771
0.004349908 0.015797108 -0.0071354727 0.001465054 -0.004651544 0.003485403 -0.004595863 0.0065848525
0.00882048 0.013417841 0.002974955 0.0070107398 0.006778099 -0.005804401 -0.008445388 -0.017161429
-0.0066591143 0.004673234 -0.011970294 0.0066207345 -0.0020253954 0.006652366 -0.00489725 -0.0023394285
-0.0019274503 0.018379986 0.0018540027 0.014857714 -0.010011351 -0.019044753 0.0028723113 -0.010017346
0.0134031335 -0.01720949 -0.002058416 0.0062916474 0.008395841 -0.008341932 -0.0015465626 -0.009839617
0.0052782283 -0.016424296 0.0021441914 0.015482487 -0.003838551 -0.016895397 0.0011113507 0.009618207
-0.011759949 -0.009179865 -0.0056375135 0.0030444672 -0.0035987375 0.012737888 0.0139943985 -0.00085867767
-0.005960294 -0.012583026 0.003609882 0.0064839628 -0.017534012 0.011391188 -0.00842442 -0.004167048
-0.0038903854 -0.0006471328 -0.010395101 0.0012663773 0.0066934484 0.012340032 -0.00466457 -0.0014018109
0.000219157 -0.0011688214 -0.0027658343 0.0029773924 0.009824493 -0.0057636765 0.014711507 -0.0009121288
0.0010434879 -0.0023443422 0.001592048 0.00023710752 -0.006035536 0.012045725 -0.009430674 0.0055438085
-0.0067117913 0.007916047 -0.006735654 -0.0014933322 -0.010507626 -0.00906012 -0.0042700474 -0.0044063455
-0.0036888653 0.0009342206 0.003025298 -0.0046136235 0.0006622401 0.0068087955 -0.0031322844 0.0010342113
-0.019211266 -0.0006337684 0.0005889075 -0.0056867395 0.0011342504 0.008002191 0.00623874 -0.0051971246
0.008230874 0.006520407 0.005444139 0.0011453368 -0.010220737 0.02049325 -0.0036882856 0.007499048
-0.013214534 0.001591514 0.01357933 0.0015256113 0.016793692 -0.0072550443 -0.008218185 -0.0011177609
-0.006945764 -0.0025474092 -0.0059381067 0.013900498 0.0097782295 0.0049455054 0.011417573 0.006089517
0.016965825 0.009930657 -0.0130779715 0.002109887 0.002393436 -0.016513115 0.013953594 0.0055375365
-0.0030333623 0.000393637 0.0068487525 -0.0017639555 -0.0063713957 0.014092878 -0.011348948 -0.010839259
-0.011081975 0.0032702726 -0.003701336 0.021267617 -0.001438922 -0.0038524696 0.004516263 0.0035452042
-0.0051528667 0.0017623416 -0.0035400314 -0.015667455 0.0041592163 0.013411689 0.0025322235 0.00028295885
-0.0030758409 -0.02000173 0.006450893 0.0013232878 0.0030387288 -0.0021895987 -0.019834409 -0.011033969
0.010074458 -0.008061398 0.004620178 0.013390308 -0.016908702 -0.0066066924 -0.010356135 -0.0044382354
-0.0008670117 0.0030566158 0.0012212064 -0.0021346668 -0.016626662 0.0078676725 0.00046272605 0.01268303
-0.00045839287 -0.004939736 -0.012146252 0.0023123971 0.0038929307 -0.0037357367 -0.0017842522 0.011066669
0.0009848719 -0.0064968197 0.0012856894 -0.0021363364 0.0022926864 0.0036507922 -0.0009041445 -0.002110948
-0.00806498 0.0067247334 0.0071145613 0.0013495743 -0.01569482 0.0021923366 0.018741494 0.00043781858
0.0037926945 0.004407068 -0.009912347 0.013312795 -0.0021272192 0.010080753 -0.005323891 0.0022748199
00000000: b755 353c dd0b 37bc 2d2d 2b3c 010b e53b
00000010: 62d4 babb ad47 8cbc a8af 993c 167b 3f3c
00000020: f0db a7bb 0fda e43b 9626 90bc 535c 9ebb
00000030: 1b2d 603c 682a a4bc 31a3 1bb9 42ea 02bc
00000040: 9486 80bc a97d 533b ef84 3cbc 50d7 513c
00000050: 9c50 23bb 7809 613c dc19 d33b d6c3 4c3b
00000060: f8ec 89bb 5ed8 b3bb e34d 363c ed71 cc3b
00000070: 1ecb f73a 048d 39bb 1dd2 8f3b 1a22 743b
00000080: ac89 8e3b f068 813c afd0 e9bb 0e07 c03a
00000090: fb6b 98bb 5c6b 643b e598 96bb bfc5 d73b
000000a0: c683 103c 81d6 5b3c 76f7 423b 59ba e53b
000000b0: d11a de3b d832 bebb 865e 0abc 2096 8cbc
000000c0: b334 dabb ee21 993b 0d1f 44bc bff2 d83b
000000d0: 7fbc 04bb 17fc d93b 1c79 a0bb 1951 19bb
000000e0: 80a2 fcba a091 963c 0202 f33a c56d 733c
000000f0: a606 24bc be03 9cbc 633d 3c3b cb1f 24bc
00000100: d198 5b3c ebfa 8cbc 7de6 06bb 2a2a ce3b
00000110: b68e 093c 99ac 08bc 08b6 caba 5836 21bc
00000120: fdf4 ac3b 3f8c 86bc 9085 0c3b 42aa 7d3c
00000130: 3390 7bbb 3768 8abc beaa 913a af95 1d3c
00000140: cdac 40bc 2567 16bc e4ba b8bb af85 473b
00000150: ccd8 6bbb 93b2 503c c348 653c e218 61ba
00000160: 924e c3bb 0929 4ebc c593 6c3b 6c77 d43b
00000170: 7da3 8fbc 1ba2 3a3c 9406 0abc bb8b 88bb
00000180: d6f5 7ebb 59a4 29ba 3750 2abc 92fc a53a
00000190: b754 db3b d82d 4a3c 40d9 98bb f8bc b7ba
000001a0: 82cd 6539 2333 99ba 0043 35bb 5b20 433b
000001b0: e9f6 203c 39dd bcbb 8808 713c ed1b 6fba
000001c0: a5c5 883a 89a3 19bb 44ac d03a 11a0 7839
000001d0: bfc5 c5bb 6f5b 453c 1d83 1abc d6a8 b53b
000001e0: 96ee dbbb 4fb2 013c c3b6 dcbb eabb c3ba
000001f0: 2e28 2cbc e670 14bc c1eb 8bbb 1b63 90bb
00000200: e4c0 71bb 7ce6 743a 1444 463b e12d 97bb
00000210: 2e9a 2d3a 511c df3b 0347 4dbb 5f8e 873a
00000220: f260 9dbc 7a23 26ba ea60 1a3a d457 babb
00000230: 21ab 943a 9f1b 033c 586e cc3b a44c aabb
00000240: cada 063c 23a9 d53b bf64 b23b 201f 963a
00000250: e174 27bc 76e1 a73c 2ab7 71bb 93ba f53b
00000260: c681 58bc 599a d03a d77b 5e3c 05f7 c73a
00000270: ed92 893c b9bb edbb 91a5 06bc d581 92ba
00000280: 4b99 e3bb 6ff2 26bb 7394 c2bb eabe 633c
00000290: de34 203c e80d a23b c610 3b3c 928a c73b
000002a0: eafb 8a3c 32b4 223c fd44 56bc 0846 0a3b
000002b0: 31db 1c3b 8346 87bc 9d9d 643c 3974 b53b
000002c0: 60cb 46bb 1061 ce39 806b e03b 8634 e7ba
000002d0: 24c7 d0bb d1e5 663c f0f0 39bc 2697 31bc
000002e0: 2c91 35bc 1252 563b 1d92 72bb 6d39 ae3c
000002f0: 369a bcba b779 7cbb 29fd 933b a856 683b
00000300: 61d9 a8bb 5ffe e63a dfff 67bb 0959 80bc
00000310: 094a 883b b3bc 5b3c a9f3 253b 185a 9439
00000320: 0c94 49bb abda a3bc 0362 d33b 2c72 ad3a
00000330: 6925 473b 5f7f 0fbb c57b a2bc d2c7 34bc
00000340: 570f 253c f413 04bc dd64 973b 0663 5b3c
00000350: 1e84 8abc f47c d8bb c7ac 29bc 9e6e 91bb
00000360: 2c48 63ba 8151 483b e310 a03a c4e5 0bbb
00000370: a334 88bc 69e7 003c 0a9a f239 7ccc 4f3c
00000380: 7354 f0b9 82dd a1bb 1301 47bc 968b 173b
00000390: 8a20 7f3b 43d3 74bb 92dd e9ba f950 353c
000003a0: d116 813a 46e3 d4bb 9484 a83a c701 0cbb
000003b0: e540 163b 2142 6f3b 1c04 6dba d557 0abb
000003c0: fa22 04bc 275b dc3b 4421 e93b 33e4 b03a
000003d0: 6c92 80bc 4ead 0f3b c387 993c 048b e539
000003e0: db8e 783b 2a69 903b 6667 22bc e91d 5a3c
000003f0: d168 0bbb be29 253c 0974 aebb 2515 153b

action_model._discrete_distribution.branches.3.bias f4 [13]
0.0038526407 0.0035945666 -0.003197757 -0.0015866593 -0.0027041617 -0.0010946661 -0.0007114355 0.0029724953
-7.822542e-06 -0.0017594115 -0.0005423482 -0.003254866 0.0040127677
00000000: 967c 7c3b d292 6b3b 7691 51bb 74f7 cfba
00000010: 4e38 31bb e67a 8fba a17f 3aba 32ce 423b
00000020: 903d 03b7 0e9c e6ba 5f2c 0eba 974f 55bb
00000030: 897d 833b
