results/NewTwoAgentsFullBoardAction/WhiteMLAgent/WhiteMLAgent-4402.onnx (onnx, 681198 bytes, 133 tensors)

discrete_act_size_vector f4 [1, 64]
000000 00 00 50 41 00 00 50 41 00 00 50 41 00 00 50 41
       13.0 13.0 13.0 13.0
000010 00 00 50 41 00 00 50 41 00 00 50 41 00 00 50 41
       13.0 13.0 13.0 13.0
000020 00 00 50 41 00 00 50 41 00 00 50 41 00 00 50 41
       13.0 13.0 13.0 13.0
000030 00 00 50 41 00 00 50 41 00 00 50 41 00 00 50 41
       13.0 13.0 13.0 13.0
000040 00 00 50 41 00 00 50 41 00 00 50 41 00 00 50 41
       13.0 13.0 13.0 13.0
000050 00 00 50 41 00 00 50 41 00 00 50 41 00 00 50 41
       13.0 13.0 13.0 13.0
000060 00 00 50 41 00 00 50 41 00 00 50 41 00 00 50 41
       13.0 13.0 13.0 13.0
000070 00 00 50 41 00 00 50 41 00 00 50 41 00 00 50 41
       13.0 13.0 13.0 13.0
000080 00 00 50 41 00 00 50 41 00 00 50 41 00 00 50 41
       13.0 13.0 13.0 13.0
000090 00 00 50 41 00 00 50 41 00 00 50 41 00 00 50 41
       13.0 13.0 13.0 13.0
0000a0 00 00 50 41 00 00 50 41 00 00 50 41 00 00 50 41
       13.0 13.0 13.0 13.0
0000b0 00 00 50 41 00 00 50 41 00 00 50 41 00 00 50 41
       13.0 13.0 13.0 13.0
0000c0 00 00 50 41 00 00 50 41 00 00 50 41 00 00 50 41
       13.0 13.0 13.0 13.0
0000d0 00 00 50 41 00 00 50 41 00 00 50 41 00 00 50 41
       13.0 13.0 13.0 13.0
0000e0 00 00 50 41 00 00 50 41 00 00 50 41 00 00 50 41
       13.0 13.0 13.0 13.0
0000f0 00 00 50 41 00 00 50 41 00 00 50 41 00 00 50 41
       13.0 13.0 13.0 13.0

network_body._body_endoder.seq_layers.0.weight f4 [142, 71]
000000 4c ee 62 3c da 92 1d 3c 74 28 ec 3b 61 2f a2 3d
       0.01385076 0.009617532 0.007206971 0.07919193
000010 32 b0 05 be 69 eb ca bd 7a fd 5f 3d 95 df 96 bc
       -0.13055494 -0.09908182 0.054685093 -0.01841716
000020 6f 7e 13 3d 25 59 24 3d 9c 56 8e 3d f7 fc 05 be
       0.03600925 0.040124077 0.06950113 -0.1308478
000030 6f 9a bd 3d 6f 98 56 bd 3d ce 6e bc 0d 99 59 3d
       0.092579715 -0.052391466 -0.014575538 0.053124476
000040 4e 77 7e 3c d0 01 6b 3e 92 00 b1 bd 38 f0 07 3e
       0.015531374 0.2294991 -0.08642687 0.1327523
000050 ad 4e 9a bd 06 3f 6f be e0 5c 0a be 74 8f fa 3c
       -0.075345375 -0.23363885 -0.13511992 0.030585982
000060 16 61 a6 3d e7 44 ee bd 20 7c 0b be 88 1a 82 3e
       0.081239864 -0.11634236 -0.13621569 0.25410867
000070 6b 1a 74 3d ab ea 3b 3c 62 a4 1a be d9 b2 3e 3d
       0.059595507 0.011469523 -0.1510177 0.04655728
000080 b9 ae 9b bd ff fc a6 bd a1 43 29 bd 5d 08 8c 3c
       -0.07601685 -0.08153724 -0.04132426 0.017093832
000090 08 96 28 3e ef c3 ae 3a 9e 59 e1 bd 97 ab 8e 3d
       0.16463482 0.0013333539 -0.11003421 0.06966322
0000a0 f1 78 08 bd d8 fb 0e 3e cd 48 bb 3c 34 09 90 3d
       -0.033318464 0.13963258 0.022861863 0.07033005
0000b0 04 19 3d 3e 04 81 71 3e fb 35 f7 3d 2c fb 10 3e
       0.18466574 0.23584372 0.12070843 0.14158314
0000c0 ad 44 16 be b7 6b 18 3e f9 6b b4 3d 53 ca 64 be
       -0.14674635 0.1488484 0.08809657 -0.22342806
0000d0 97 04 ff bd 17 fc f8 bd 41 7b f6 bc ec 03 c3 bc
       -0.12452047 -0.12157457 -0.030088069 -0.023805581
0000e0 34 b7 21 bd aa ba 84 be ec 3c 83 bd 9e e2 d6 ba
       -0.039481357 -0.25923663 -0.06408104 -0.0016394441
0000f0 96 95 8c bc d5 34 16 bb bd e8 09 be d9 46 03 be
       -0.017161172 -0.0022919674 -0.13467689 -0.12819995
000100 fa 31 df bc c3 a2 37 bd f3 8a 07 3d ab 9f 8f 3c
       -0.02724551 -0.044832956 0.033091497 0.01753219
000110 27 de 11 bd f6 ce 69 be 0a 98 1b be d2 7d 7c 3d
       -0.03561225 -0.22832856 -0.15194717 0.06164343
000120 55 6f 10 bb 5f 1c cc 3d f6 6e 98 3d 7e eb db 3c
       -0.0022039015 0.09966349 0.07443039 0.02684569
000130 75 9c d7 3d b4 70 30 3c d0 a4 9b 3d 7d d3 96 3d
       0.10527889 0.010769058 0.07599795 0.07364557
000140 7a f8 3c bc 9c 12 30 be e0 44 65 bd b1 c0 16 bc
       -0.011533851 -0.17194599 -0.055973887 -0.009201215
000150 ab 96 94 bd d4 4f 59 be 65 cd 9f 3d f1 4b 4b bd
       -0.072553 -0.21221858 0.07802848 -0.04963297
000160 d1 b5 00 3d 5b 20 e5 bc 9b a3 fd bc cd 4d b5 bd
       0.031423394 -0.02796953 -0.030961802 -0.0885273
000170 cf 15 af 3c 36 fe a4 3d 95 c0 1a bd 55 20 a3 bc
       0.021372704 0.080562994 -0.037781317 -0.019912878
000180 ec c3 6e 3d b8 2f 0c bd 34 e3 aa 3d d5 e2 d6 bd
       0.058292314 -0.034225196 0.08344117 -0.104924835
000190 5a 1e 69 3e 13 9f 1a 3d b7 5a e7 3c 1b 0f a9 bd
       0.22765484 0.03774936 0.028241498 -0.08254834
0001a0 d2 87 e0 bd 68 4a 22 3e f6 dd 0c bd 20 38 f5 3d
       -0.10963406 0.15848696 -0.034391366 0.119735956
0001b0 6c f9 8b 3b ff 16 cd 3d 24 1b 90 3d a9 7c 35 3d
       0.0042716768 0.10014152 0.07036427 0.04430834
0001c0 15 6a 17 bd 22 02 33 3e 7d ed 2f 3d 3f fa 9b bd
       -0.036966402 0.17481282 0.042951096 -0.0761609
0001d0 cb ee 41 be 5c 12 07 bd 2d 0c 14 3e 83 4d fe bd
       -0.18938749 -0.032976493 0.1445777 -0.12417128
0001e0 7e 84 f6 3d 59 02 ad bc a7 4e f5 bd 90 5b 18 be
       0.1203699 -0.021119284 -0.11977892 -0.14878678
0001f0 77 70 88 3c 26 c6 91 3b cb dc d7 3c 5c b0 49 bc
       0.01665519 0.00444867 0.0263504 -0.012310114
000200 5c e5 77 bd 0f f0 ff 3c 89 ab 45 bc ab f0 bd bd
       -0.06052147 0.031242399 -0.012064823 -0.092744194
000210 00 26 6c 3e 45 a2 de 3c b1 4f 0f 3d ff 5a 43 be
       0.23061371 0.027176986 0.03498811 -0.19077681
000220 65 2f 5c bd fd 4f 5b 3d 50 81 10 bd 2b 53 43 3b
       -0.053756136 0.05354308 -0.035279572 0.002980421
000230 06 cb 9d bd 5e e1 92 bd 72 c3 bc 3d ba 13 ac bd
       -0.07704739 -0.07171892 0.09216966 -0.084022
000240 33 10 2d 3d e7 bc 02 3e 0d f3 ba bd 94 7e cd 3d
       0.042251777 0.12767373 -0.091283895 0.100339085
000250 20 55 cd 3c 74 70 cf 3d f4 38 f3 3d 06 72 80 bd
       0.025065005 0.101288706 0.11876097 -0.06271748
000260 7d 5f 6a 3e ce 1b f5 bd 01 e8 b9 3b fa 2d 91 bd
       0.22887988 -0.11968194 0.005673409 -0.070888475
000270 e8 8a a1 bc 17 b4 6a be 71 6b 98 bd 53 01 c7 bd
       -0.019719556 -0.22920261 -0.07442368 -0.097170494
000280 48 c5 2f 3d c4 63 27 be 73 de 2f be 8e e9 e7 3d
       0.04291275 -0.16346651 -0.17174701 0.11323844
000290 9b 89 01 be f6 3d 9d bd 54 7a 16 3d 04 c6 9d 3b
       -0.12650149 -0.07677834 0.036737755 0.004814865
0002a0 54 b9 1b 3a 22 bb 06 3e 39 50 01 3e 5c 41 9f 3d
       0.0005940397 0.13157323 0.12628259 0.07776138
0002b0 b2 ef d5 3d 71 b0 23 3e 07 d6 b1 bd 50 33 02 3d
       0.10446109 0.15985276 -0.086834006 0.031787217
0002c0 28 0f 5e bd 69 46 e2 bc 24 5b 73 3e f0 a2 39 bd
       -0.054213673 -0.027621465 0.23765236 -0.045321405
0002d0 9f 75 e1 3d 70 83 ff bc 16 98 68 3e e2 a9 69 3e
       0.110087626 -0.031190604 0.22714266 0.22818711
0002e0 e8 c6 6a bd 50 57 3e be c4 73 03 3d f0 ac 19 3c
       -0.057318598 -0.18587995 0.032092825 0.00937961
0002f0 bf 9f f8 bc 40 1c f0 3d bb df 3f 3e 9b e6 d0 3c
       -0.03034961 0.11724138 0.1873769 0.025500586
000300 29 23 0f bd 64 4f 37 bd df 60 1a be 0c 40 f1 bd
       -0.03494564 -0.044753447 -0.15076016 -0.11779794
000310 a6 e2 3f bd ea 95 29 3e 64 44 99 be 90 50 fe 3d
       -0.04684701 0.16561094 -0.2993499 0.1241771
000320 d4 e3 45 3e 5a b0 cd 3d db d1 d1 3d 05 9a c0 3d
       0.19325191 0.10043402 0.10245105 0.09404377
000330 7b f3 02 bd 98 20 5a bd 98 67 15 3d 9a 92 fa 3d
       -0.031970482 -0.05325374 0.036475748 0.12234993
000340 34 24 0d be 3c 25 9c 3d 20 3f 27 be 6a e2 9e 3c
       -0.13783342 0.076242894 -0.16332674 0.019395072
000350 64 7f cb 3d 2b 50 56 bd 52 ef 73 bd fd a5 bf bc
       0.09936407 -0.052322548 -0.059554406 -0.023394579
000360 10 27 8e 3e 6a 2a 95 be 9c 6d 89 be 79 b0 2d 3e
       0.27764177 -0.29133922 -0.26841438 0.1696185
000370 19 fc 64 3d 1d 25 9c bd 31 17 c5 bd 19 20 6b bd
       0.05590448 -0.07624266 -0.09623564 -0.057403658
000380 b9 55 0a be 1d 5f 30 3c c2 7e 53 be 86 f7 8d bd
       -0.13509263 0.010764864 -0.20653823 -0.06931977
000390 c3 67 2a bd 0c d4 67 3d 0d 7d 66 3e 06 cf 14 bc
       -0.04160286 0.056598708 0.2250864 -0.009082561
0003a0 23 a5 6d 3e b3 11 09 3d 8c 75 73 3d d1 62 a8 bd
       0.23207526 0.033464145 0.059438273 -0.08221973
0003b0 f3 b6 10 be d8 aa 94 bd 4c a5 2a 3e 8c fa 88 bd
       -0.1413229 -0.07259148 0.16664618 -0.06688413
0003c0 b4 b4 0f 3c 02 ad 3b bc 19 ee 2e be c5 7c 04 be
       0.00877111 -0.0114548225 -0.17083015 -0.12938221
0003d0 e4 23 58 bd d2 a3 f0 3c f3 ef 9a bc 81 63 24 be
       -0.052768603 0.02937499 -0.018913245 -0.16053583
0003e0 e0 16 b7 3a 45 b3 34 3d b3 cf dd bd ae 0a 1d bd
       0.0013968609 0.044116277 -0.10830631 -0.038340263
0003f0 a9 36 e5 bd f7 98 c0 bb 1c c3 4d 3c 85 a1 56 be
       -0.11192066 -0.00587761 0.012558725 -0.20960052

network_body._body_endoder.seq_layers.0.bias f4 [142]
000000 8a 16 b1 ba 1b fc 18 bc a8 e5 38 bc 33 be 11 bc
       -0.0013510745 -0.00933745 -0.011285223 -0.008895445
000010 e8 41 9d bb 05 83 85 bb b0 fc 04 37 07 60 9d bb
       -0.0047991164 -0.0040744566 7.9266465e-06 -0.004802707
000020 5b 39 99 bb 2b 65 01 ba fe 51 32 3b e4 f5 7c ba
       -0.0046760268 -0.00049360347 0.0027209516 -0.00096496777
000030 f9 9e d9 bb 1c df ad bb 12 74 51 bb ba 6e 6a b9
       -0.0066412655 -0.0053061377 -0.0031960052 -0.00022357228
000040 fc 7e 98 bb 21 4d 12 3b b8 cc 99 bb 5c 72 9b bb
       -0.0046538096 0.0022323804 -0.004693594 -0.0047438573
000050 ad c5 7f 3a 79 07 09 bc d6 4d 0f bb bc c6 f2 bb
       0.0009756934 -0.008363598 -0.0021866462 -0.007408945
000060 2e d2 6b 3b de d3 a6 bb 42 5c 35 bb a9 f5 a3 bb
       0.003598343 -0.0050911745 -0.0027673398 -0.00500365
000070 25 9f d5 bb 70 46 ae bb a6 c2 0e bc b7 b2 ac bb
       -0.0065192156 -0.0053184554 -0.0087134 -0.005270328
000080 53 23 de bb d3 c3 9e ba 33 16 70 bb 35 83 7d bb
       -0.0067791133 -0.0012112804 -0.0036634326 -0.0038682942
000090 e0 a0 80 bb 0c 15 06 bc 9a d8 3f b9 d9 8d ab bb
       -0.003925428 -0.008183729 -0.0001829587 -0.0052354154
0000a0 1c 5f ff bb f8 36 94 bb 7c 41 0f 37 fb e1 9f bb
       -0.0077933203 -0.0045231543 8.538711e-06 -0.004879234
0000b0 cc 9c da bb c6 df b2 bb df 95 1d bc c1 77 c4 39
       -0.0066715237 -0.005458805 -0.009618252 0.00037473257
0000c0 bb de 87 35 72 5f 2b bc 7c 9e 92 b9 bf 09 14 bc
       1.0123107e-06 -0.010459768 -0.0002796537 -0.009035527
0000d0 01 cc 2d bb ea 58 06 bc 6c 41 29 bb 1f a9 97 39
       -0.00265193 -0.00819991 -0.0025826348 0.0002892697
0000e0 a5 99 ca bb 49 75 25 bb e4 3b b7 bb a1 02 20 bb
       -0.0061828666 -0.002524691 -0.0055918563 -0.002441563
0000f0 d7 47 89 3a ec 8e 33 bb a3 31 c3 bb 95 a5 91 bb
       0.001047368 -0.002739842 -0.005956845 -0.0044447877
000100 b2 18 88 bb 47 09 79 bb a7 e7 b1 bb d0 f3 1a bc
       -0.0041533345 -0.0037999914 -0.0054292264 -0.0094575435
000110 e7 ab e1 bb 77 2e 03 bb f2 0e bd bb 01 2e e8 bb
       -0.0068869474 -0.002001671 -0.005769604 -0.007085562
000120 1f 65 c8 bb 9f f5 5d 3b 17 b8 1b bc dc 07 40 bc
       -0.00611557 0.0033868325 -0.00950434 -0.011720624
000130 cb 29 a9 3a 7d ca a7 bb 6f d9 1f bc c4 d2 04 bc
       0.0012906132 -0.005120574 -0.00975643 -0.008106891
000140 ca dd 9f 3b 02 a4 9f bb f7 04 ae 3a fa 22 f6 bb
       0.0048787342 -0.004871846 0.0013276626 -0.0075114937
000150 a7 49 ea ba ca cd 05 bc e2 f1 9f bb 6c 0c ea bb
       -0.0017874733 -0.00816674 -0.0048811296 -0.007142594
000160 aa 26 eb 3b 5b 20 db bb df da e2 bb ed c9 29 bc
       0.00717624 -0.0066872067 -0.006923064 -0.010363084
000170 da 4a 87 bb 17 ca 1e bc e0 8b 7b bb 7e 97 b1 ba
       -0.004128796 -0.009691737 -0.0038382933 -0.0013549177
000180 2f 3b f2 bb bd 3e 38 bb 8f fd 03 bb 64 66 00 bc
       -0.007392309 -0.0028113567 -0.0020140146 -0.007836912
000190 ef dd c9 bb 8d ee c0 bb 23 c9 b6 b9 18 8a ba bb
       -0.0061604897 -0.0058878125 -0.00034863604 -0.0056927316
0001a0 75 33 65 bb 7b f0 90 ba a9 de f3 bb fb dc 42 bc
       -0.0034973298 -0.0011057997 -0.0074423146 -0.011893506
0001b0 40 3d 30 3a 1c ff 1a bc 3b b2 0d bc 66 4a 68 ba
       0.0006722994 -0.009460237 -0.0086484505 -0.0008861184
0001c0 39 fe b7 bb 39 0c bb bb 28 69 20 bc 26 81 a2 ba
       -0.0056150225 -0.005708244 -0.009790696 -0.0012398108
0001d0 06 7b 55 bb fd c1 1e bc 9a 3c 49 bb 64 12 c9 bb
       -0.0032574548 -0.009689805 -0.0030706287 -0.0061362255
0001e0 9c 4c 14 bc 00 51 eb bb 4c a9 e6 bb 94 d1 c2 bb
       -0.009051468 -0.007181287 -0.0070392247 -0.005945394
0001f0 c1 37 b2 bb d4 2a 15 3a 77 83 bf bb a1 64 43 bb
       -0.0054387753 0.0005690281 -0.0058445293 -0.0029814618
000200 59 52 b0 ba 38 11 ef bb 1f df f2 bb b1 9d 96 bb
       -0.0013452276 -0.007295754 -0.007411852 -0.004596435
000210 44 e9 95 bb 6b be 9c bb b2 db 02 bc 1c 99 a2 bb
       -0.0045749266 -0.004783442 -0.00798695 -0.0049620997
000220 62 d4 ec bb 9f 00 61 3b 33 32 04 bc f0 8f ec bb
       -0.0072274664 0.0034332646 -0.008068609 -0.007219307
000230 3f bd fb ba b5 36 ca bb
       -0.001920618 -0.0061710724

network_body._body_endoder.seq_layers.2.weight f4 [142, 142]
000000 38 4e 7b 3e 97 30 d8 3d f2 42 56 3d e6 c4 c6 bb
       0.24541557 0.10556143 0.052309938 -0.0060659526
000010 be 52 06 bd a0 3b 4b be b8 65 12 be ca d9 b1 3d
       -0.032793753 -0.19846964 -0.14296615 0.08684118
000020 bf 52 3c bd cd 58 99 3d 0a 1a 63 3d 82 5e a9 bd
       -0.04597735 0.074876405 0.055444755 -0.08269979
000030 0a 0b 3a bd 12 75 65 be 8d 11 91 3c 8f 91 65 3d
       -0.045420684 -0.2240794 0.017708564 0.05604702
000040 7c 84 ab 3d 67 f9 6b bd d2 da 8f bd 69 ec 09 3d
       0.08374879 -0.057610895 -0.070241585 0.033672724
000050 35 15 33 bd 58 aa 97 3c 2a a1 b8 3d 2a 6a fb ba
       -0.043721396 0.018513843 0.090151146 -0.001918142
000060 6c b7 cd bd 54 f5 ad bd 75 ed b2 3d 2a b1 12 be
       -0.100447506 -0.08494058 0.087366976 -0.14325395
000070 4a 59 7d bd f6 d5 ad bd a0 ad 64 3d 84 bb c6 3d
       -0.06185273 -0.084880754 0.055829644 0.097037345
000080 26 e7 d4 3c 9a ec b3 bd 4d 48 90 3c 39 d3 1c be
       0.025989126 -0.087853625 0.0176126 -0.1531495
000090 a0 1d ab 3d 70 9c 43 bc bb ab d7 bd 72 04 e6 bc
       0.0835526 -0.011939153 -0.10530802 -0.028078292
0000a0 55 b2 04 bd b0 b2 87 bd f2 f9 26 be 5d 52 b3 bd
       -0.032396633 -0.06625879 -0.16306284 -0.08755944
0000b0 2b a2 aa bd ce 9a 08 be 31 a3 42 3d a0 36 b9 bd
       -0.08331712 -0.13340303 0.047518913 -0.09043622
0000c0 a0 d6 4e be bc ef 08 bd 3b 5d 36 3d cf aa 0b bc
       -0.2019906 -0.033431754 0.044522505 -0.008524611
0000d0 e3 ca d5 3d b3 84 14 3e 11 e3 09 be 50 6c 8b 3b
       0.10439088 0.14503746 -0.13465525 0.004254855
0000e0 df 9d eb 3c 77 6a 14 be 8d c1 8b 3d c7 57 a0 bd
       0.028761802 -0.14493738 0.06824026 -0.07829242
0000f0 3b 89 60 bb ef fe c6 3d 71 b4 e3 bc 17 1f 03 bd
       -0.0034261483 0.097165935 -0.027796002 -0.03201207
000100 0b 48 13 be 7c 39 17 bd d7 88 00 3d 66 b3 82 bd
       -0.14382951 -0.036920056 0.0313805 -0.06381874
000110 bb a4 63 bd cc 8d d6 bb c5 d2 92 bd 60 c3 e7 bd
       -0.05557702 -0.006547665 -0.07169107 -0.11316562
000120 18 ce 3b bb 00 cb a7 bb 1c 40 19 be 6c 72 13 be
       -0.0028656777 -0.005120635 -0.14965862 -0.14399117
000130 95 c9 6a 3d f1 24 a0 bb 14 40 8d bd 84 5d 86 3d
       0.05732115 -0.0048872163 -0.068969876 0.065608054
000140 2a fa a8 3c 9b 85 14 3d d1 de bc bd 2f 94 26 bc
       0.0206271 0.03626023 -0.09222186 -0.010167166
000150 fa 10 8f 3c dc 79 01 bd 2e 9d be 3c 6d f4 d0 3d
       0.01746415 -0.031610355 0.023268308 0.102028705
000160 3b b1 03 be b5 08 67 3c a2 d0 d0 bc 96 81 b9 bd
       -0.12860577 0.014101197 -0.025490109 -0.0905792
000170 9a b6 e8 3d 7c d7 f6 bb 43 27 80 3d d9 d3 1b be
       0.113629535 -0.007533012 0.062574886 -0.15217532
000180 6a 6f 83 3d 9a 22 53 3d 30 f1 b0 bc f9 8e 2f 3e
       0.06417735 0.05154667 -0.021599382 0.17144383
000190 dd 10 ef 3d 0b ee 04 3d 5e 08 84 3d f2 16 e7 bd
       0.11673138 0.032453578 0.064469084 -0.11283673
0001a0 b0 02 a1 bd 8d 6f 03 3d df 4a 20 3d a9 6a 0a 3e
       -0.07861841 0.032088805 0.039133903 0.1351725
0001b0 31 37 c1 bc 30 06 1e 3d 6c f1 e8 3c e5 92 58 bc
       -0.023585888 0.03858012 0.028435431 -0.013218616
0001c0 e9 f7 dc bc 7c cc 96 bd 27 7a d4 bd d1 d6 8f bd
       -0.026973682 -0.07363221 -0.10374861 -0.07023395
0001d0 8f d4 5d 3d 57 ee 3f be 63 a3 8e bc c8 fd c5 3d
       0.05415779 -0.18743263 -0.017411893 0.096675456
0001e0 34 44 da bd bb 21 0d 3e 65 c6 ac 3d 2e 70 5d 3e
       -0.1065754 0.13782398 0.08436278 0.21624824
0001f0 eb 9f 07 3d 7b 86 fa 3d 99 cc 36 be 25 78 94 3d
       0.033111494 0.12232681 -0.17851485 0.07249478
000200 74 bd 86 bd 31 e0 0c be 97 44 5e be 70 0e f0 3d
       -0.06579104 -0.13757397 -0.21705852 0.11721504
000210 b9 36 a1 bd a2 b0 03 3d d8 ae 48 b9 bc 9f d6 bd
       -0.07871766 0.032150872 -0.0001913862 -0.10479686
000220 6e 29 a0 3d a0 9d 39 3d 02 d6 ac 3d 5d b2 96 3d
       0.07820402 0.04531634 0.08439256 0.07358239
000230 e4 ad 1c 3c 07 b0 1c bc 34 10 36 be 56 ef 06 3e
       0.009562943 -0.009563453 -0.17779619 0.13177237
000240 da de 3d bd 91 67 d1 3b e1 00 dc bb 78 04 f8 bd
       -0.046355106 0.00639052 -0.006713972 -0.12110227
000250 7e 98 a8 bd 33 d7 e5 bd 1d c6 95 bd fb 56 06 3d
       -0.082322106 -0.112226866 -0.07313178 0.032797795
000260 c6 d4 86 3d 31 ec 1d 3c 95 39 2e be 8b 32 fe bc
       0.06583552 0.009638832 -0.17014153 -0.03102996
000270 67 14 6c bd b0 a6 94 3d 10 2f 83 bd c5 dd f4 3d
       -0.057636645 0.072583556 -0.06405461 0.11956362
000280 7d 12 6a bd 89 06 8f bb 48 38 ac 3d c3 c8 19 bd
       -0.057146538 -0.0043647927 0.08409172 -0.037544977
000290 fd 75 12 3d d8 d6 f7 bc b7 ec df 3c 24 f3 f3 3c
       0.035757054 -0.030253813 0.027334554 0.029779024
0002a0 e9 f6 8c 3d be a0 9b bc 73 63 22 3d 20 58 c8 bd
       0.06883032 -0.018997546 0.039645623 -0.097824335
0002b0 e4 7f d8 3d 5e 61 d1 3d 08 c2 b0 bd 72 74 03 3e
       0.10571268 0.102236494 -0.086307585 0.12837389
0002c0 17 a7 8e 3d a8 92 9b 3d d0 a4 38 be 51 32 3c bd
       0.069654636 0.07596332 -0.18031621 -0.045946423
0002d0 ed bb 02 3d 66 9d 07 3d 15 58 38 3c 42 1d dc 3d
       0.0319175 0.03310909 0.011251469 0.10747768
0002e0 c5 9d a7 bd 5d 68 d4 bd 45 dc 72 bd 6d cd 1f 3d
       -0.08184389 -0.10371468 -0.059292097 0.03901427
0002f0 5e 78 5c 3e d4 2a 91 3d 60 03 a5 bb a9 4d 78 3c
       0.21530291 0.07088247 -0.0050358027 0.015155234
000300 75 d1 63 bd 74 d6 eb bd a9 b3 d9 3d 28 da 13 bd
       -0.055619676 -0.11515513 0.106299706 -0.036096722
000310 98 fc cc 3d 0e 34 28 3e 1e 18 66 3d 84 9f df bd
       0.10009116 0.16426107 0.056175344 -0.10919097
000320 d2 d8 e3 bc 17 93 46 bd 56 9c 77 bb ea aa 84 bd
       -0.027813349 -0.04848012 -0.0037782392 -0.06477912
000330 d6 d4 ce 3d 54 25 16 3c 74 59 c0 bd 92 f1 1b 3d
       0.10099189 0.009164173 -0.09392062 0.038072176
000340 74 4f a0 3d 84 c3 b5 3d 6e 7d af 3d 9d 92 8f be
       0.078276545 0.08875182 0.08568846 -0.28041545
000350 6f d6 76 bd e6 94 79 bd 10 dc cb bd c4 4d 93 3c
       -0.060263094 -0.060933016 -0.09954083 0.017981417
000360 67 52 78 3d b2 36 56 3c 8b b4 c1 bd c6 f3 ba 3d
       0.06062546 0.013074564 -0.09458264 0.09128527
000370 82 1d 17 be b4 fc 66 be 19 51 81 3d 24 4a 07 3d
       -0.1475735 -0.22557336 0.06314296 0.03302969
000380 aa 46 29 be 13 05 05 bd 8c 7d d3 bd 04 7a 97 3d
       -0.16530862 -0.032475542 -0.103266805 0.073963195
000390 56 66 50 be 04 4e 86 bd 18 92 86 3d 60 3b 4a 3d
       -0.20351538 -0.06557849 0.06570834 0.04937303
0003a0 aa 3a 55 3d 38 95 98 bd 81 82 f2 3d db a8 22 3d
       0.0520579 -0.07450336 0.11841298 0.039711814
0003b0 95 3c 37 3b 20 c6 83 bc 69 fe 8c bd d0 02 95 3d
       0.0027959694 -0.016085684 -0.068844624 0.07275927
0003c0 a8 ca 82 bd 71 4d 02 3d f1 c5 85 3d f9 37 54 bd
       -0.0638631 0.031812135 0.06531895 -0.051811192
0003d0 c2 8f 8e 3d 0c fd 81 3c 81 15 b8 3d 27 2b da bc
       0.069610134 0.015867732 0.089884765 -0.026631905
0003e0 7c 99 49 3d 6b 0d 0b bd 86 85 2f bd 41 8e d1 bd
       0.04921864 -0.033948343 -0.042851947 -0.10232211
0003f0 9e eb 31 bd 07 5e c8 bd 5e 84 70 be d4 46 b9 bb
       -0.043437593 -0.09783559 -0.23487994 -0.0056541953

network_body._body_endoder.seq_layers.2.bias f4 [142]
000000 d3 27 36 3b 2c df a8 bb 82 f4 2f bc dc 72 07 bc
       0.0027794733 -0.0051535573 -0.010739448 -0.008267131
000010 2f c1 4a bc d7 cd 3f 3b 78 d4 2c b9 21 d7 cc bb
       -0.01237516 0.0029266977 -0.00016482349 -0.0062512313
000020 57 8c 80 3b 27 69 c8 b8 fe 11 ac ba fa 8d 76 3b
       0.00392298 -9.556329e-05 -0.0013127921 0.0037621246
000030 9a 4a 58 bb 2d 7f db bb 79 f0 80 3b 79 22 0f bc
       -0.003300345 -0.00669851 0.0039349166 -0.008736246
000040 7f 00 d0 3b 13 42 f3 3b 9d de 97 bb 8e 17 2a bb
       0.0063477154 0.007423648 -0.004634692 -0.002595398
000050 33 ce ef ba a9 c5 a0 bb 94 1b a7 b8 0c da bd bb
       -0.0018295705 -0.0049063754 -7.9683174e-05 -0.0057938155
000060 17 9a c6 3a fe 7a 05 bc b4 ea 2c bc 3e 8f 29 bb
       0.0015152124 -0.008146999 -0.010554004 -0.0025872733
000070 f7 a9 08 bc 93 94 1e bc 8a 3f 83 bb a3 49 53 bb
       -0.008341304 -0.009678978 -0.004005377 -0.0032239936
000080 58 db d6 ba fc 25 0b bb 26 f5 b4 ba fa 8c 2a bc
       -0.0016392274 -0.0021232357 -0.001380597 -0.010409588
000090 fc 6a 07 bc fc 48 2f 3b f7 ca 87 3b 5c d5 10 bb
       -0.008265253 0.0026746383 0.0041440683 -0.0022099828
0000a0 e8 3e e6 bb 80 0e d9 ba 72 f9 4d 3a ac 93 25 3b
       -0.007026542 -0.0016560107 0.00078572996 0.0025265021
0000b0 35 fa 9e bb c6 76 c0 bb 55 cf c8 bb 3d f2 f7 bb
       -0.0048516043 -0.005873534 -0.0061282315 -0.007566719
0000c0 df 00 04 bc 83 d2 98 39 03 2a 15 bb 25 da 5a bb
       -0.008056848 0.00029148543 -0.0022760637 -0.0033394184
0000d0 cb 8b b5 3b 64 bb 5b ba fe 73 0d bb 2c d0 b3 3a
       0.0055403463 -0.00083821104 -0.002158403 0.0013718656
0000e0 e0 1b b6 bb 8a 45 ae ba ee fa 82 ba ba 40 de ba
       -0.005557522 -0.0013295871 -0.0009992996 -0.0016956546
0000f0 e2 26 8d ba 53 a2 9d 3a 15 fa c1 3a 2f f3 88 3b
       -0.0010769034 0.0012026526 0.0014799262 0.0041793804
000100 1d e1 50 bb fc 98 4e bb b4 a5 05 bc ea f3 4f 38
       -0.003187246 -0.0031524291 -0.0081571825 4.957981e-05
000110 3b 14 e9 3a 91 77 b3 3b 42 15 10 b9 11 b3 4f bb
       0.0017782518 0.0054769 -0.0001374083 -0.0031692425
000120 d6 5a 58 37 34 3b 90 bb 2b b1 12 bc 5d 71 f2 3a
       1.2895753e-05 -0.004401589 -0.008953373 0.001849692
000130 ac b3 ea 3b ce b2 f5 b9 c2 4d 18 3b b6 bc cf 3b
       0.007162532 -0.0004686326 0.0023239707 0.006339635
000140 2a 9f 98 3b f1 48 7d bb 97 fd 1e bc fc 69 65 bb
       0.0046576457 -0.0038648213 -0.009704015 -0.0035005799
000150 b9 45 dd bb 94 9f ea bb 31 3b 0a bc 81 6a 15 bb
       -0.0067526964 -0.0071601365 -0.008436964 -0.0022799077
000160 2b 43 c2 bb 52 5e 3c bb e7 65 60 3b 7b 11 b2 ba
       -0.005928417 -0.0028742743 0.0034240426 -0.0013585532
000170 51 b6 03 3a 30 f9 8f bb fe 81 cc 3b 09 2f 97 bb
       0.00050244207 -0.004393719 0.006241082 -0.0046137613
000180 04 85 0a bc 94 d5 1b bb 49 aa 09 3b 53 e0 9e bb
       -0.008454565 -0.0023778426 0.002100604 -0.004848519
000190 31 06 ae bb c1 23 c6 3a 7f ab 89 b8 c4 e4 64 ba
       -0.0053107967 0.0015116857 -6.564613e-05 -0.00087315985
0001a0 81 56 0d bc bb cf 21 bb 8e 9a ab bb ef e4 1c 3b
       -0.008626581 -0.0024690467 -0.00523693 0.0023940166
0001b0 78 be 04 bb ae 89 c9 3a 3f d8 ba 3b a0 af ca bb
       -0.002025513 0.0015376115 0.005702048 -0.006185487
0001c0 19 a7 72 3b 34 80 fb 3a 01 e5 23 3c aa bd 01 bb
       0.0037025867 0.0019187988 0.010003329 -0.0019796886
0001d0 fe 83 9f 3b 00 5e 7f 3a e5 b6 aa bb 2b 2f 8f 3a
       0.0048680296 0.0009741485 -0.005209791 0.0010924091
0001e0 ba 02 ff bb ec 74 f2 3b 64 2a 20 bc dc 90 f9 3a
       -0.0077823075 0.007399192 -0.009775732 0.0019040364
0001f0 70 db ee 3b 13 65 08 ba 5e 2f 61 39 07 d7 2e 3c
       0.0072893426 -0.00052030495 0.00021475318 0.010671384
000200 dc a0 c3 bb 25 34 95 bb 02 65 e7 3a c3 4c 91 3b
       -0.0059701037 -0.0045533353 0.0017654004 0.0044341995
000210 e1 d4 80 bb c7 bd dc b9 b2 03 9b bb 7c 17 1f 3a
       -0.003931627 -0.00042103065 -0.004730665 0.0006068868
000220 04 21 68 3b f8 0d 94 bb bb f3 6e 3b 8c 69 c4 ba
       0.003542007 -0.004518267 0.0036461193 -0.0014985069
000230 4b 75 29 3a 97 7c d6 3a
       0.00064643164 0.0016364035

action_model._discrete_distribution.branches.0.weight f4 [13, 142]
000000 85 99 95 3c 82 08 b1 3b 45 d4 00 bc 3a 12 87 3c
       0.01826168 0.0054026255 -0.007863109 0.016488183
000010 23 53 55 bc 97 68 33 bc ed 01 19 3b 73 fa e3 3b
       -0.01302031 -0.010950229 0.0023347095 0.006957346
000020 d9 ce a1 3c 6a 59 7c 3c 6c 3b 51 3b 37 8b a6 bc
       0.019751953 0.015402177 0.0031926287 -0.020330055
000030 1b 04 ba 3c 93 ec 81 bb ee 92 31 3c d3 26 53 3a
       0.022707036 -0.0039649694 0.010838253 0.00080547965
000040 fc b7 1e 3c 54 8b 10 3c 9e 24 81 bb 34 88 7d bb
       0.00968742 0.008822281 -0.0039411327 -0.003868592
000050 be f4 b3 3c f5 17 65 bc 16 6d c0 3b 40 3a 4f ba
       0.021967288 -0.013982763 0.005872379 -0.0007905103
000060 4b 5d 20 bc 6c 05 b4 bb a6 08 73 3b af e2 10 bc
       -0.009787868 -0.0054938104 0.0037084012 -0.008843108
000070 0f b5 1c 3c 82 71 63 3a cb 84 ba 3b e7 f8 c8 3c
       0.009564652 0.0008676277 0.0056920997 0.024532748
000080 b5 06 ac 3a e5 17 05 3c 82 fe 5b 3c cb 44 a3 3b
       0.0013124557 0.008123373 0.013427379 0.004982566
000090 51 6c 57 bc 55 d0 a3 3c 94 fb 48 bb f9 59 09 ba
       -0.013148383 0.019996801 -0.003066753 -0.0005239542
0000a0 67 4b d0 3a 1c 27 1d 3c db 09 6b bc 25 a9 05 bc
       0.0015891612 0.009591844 -0.014345611 -0.008158003
0000b0 13 1e 0b bc ef b3 df bc de 72 6c bb f5 cf 25 bb
       -0.008491057 -0.027307479 -0.0036079208 -0.0025300954
0000c0 01 84 61 ba ae 0f 20 bc 0c c5 8d 3a 1b 0b 78 3c
       -0.0008602739 -0.009769363 0.0010816171 0.0151393665
0000d0 2b ba 37 bc cf ac 13 bc 40 9f a1 3c b0 7b fc 3b
       -0.0112138195 -0.009013369 0.019729257 0.0077051744
0000e0 74 76 9d bb a6 e9 b4 3b c8 8c ab 3c ab 67 a1 3b
       -0.0048053805 0.005521017 0.020941153 0.0049256883
0000f0 d9 a9 ce bb fc 3a 3d bc 52 73 8b 3c 8a b8 44 bc
       -0.0063068685 -0.0115497075 0.017022762 -0.012006888
000100 ea e8 f8 3b c8 b1 33 3c 3f 09 a7 bb db ad 2c 3c
       0.007596125 0.010967679 -0.0050975378 0.010539497
000110 1d 24 12 3c e0 de 58 bc ac 3c 5e 3c 54 a9 fb 3b
       0.008919743 -0.013236731 0.01356427 0.0076800976
000120 1f 4d 0c bc 4b 97 ca bb d4 2d 65 3c a6 64 74 3b
       -0.008563309 -0.0061825863 0.013987977 0.0037291436
000130 73 e9 11 bc d1 05 82 3c 09 64 17 bc 15 3b c8 3c
       -0.008905756 0.015871914 -0.009240159 0.024442235
000140 87 0a 62 bb b4 ee a6 3c a2 58 2b 3c e6 e6 46 b9
       -0.0034491138 0.020377494 0.010458143 -0.00018968768
000150 db 58 27 3b 3e 74 f4 ba 50 b8 05 bb cd b3 e0 3b
       0.002553514 -0.0018650366 -0.0020404048 0.0068573714
000160 00 2d d3 39 9e a1 91 3c 5e 97 0b bc bb 3f 90 bc
       0.00040278584 0.01777726 -0.0085199755 -0.017608514
000170 86 98 0a 3a 67 ca 90 3c 71 bc 3a 3b 1d 43 1f 3c
       0.000528701 0.017674638 0.0028493667 0.009720591
000180 ca 61 c5 3c 46 66 20 3a 21 fd 0f 3c 1e e5 1b 3c
       0.024094481 0.00061187556 0.008788378 0.009515075
000190 fe c9 90 39 0f 31 51 bc c3 5e 17 bb b9 43 11 ba
       0.00027616316 -0.012768044 -0.0023097254 -0.00055414025
0001a0 43 0f 81 ba a8 0e 56 bb 70 12 ef bb dd 6e 41 3c
       -0.0009846467 -0.0032662544 -0.007295899 0.011806217
0001b0 b5 6c bf ba 53 26 9a 3c 67 8a 05 3b 41 01 a0 3c
       -0.0014604541 0.018817103 0.0020376684 0.019531848
0001c0 0d 22 6e bb ea a6 b6 bb 52 38 3b 3c 4c 26 01 3c
       -0.0036336214 -0.005574097 0.011427002 0.007882666
0001d0 08 5a 1d bc 3d 3f d9 ba a5 a1 09 3c a2 bd 7d bb
       -0.009603985 -0.0016574633 0.0084003555 -0.0038717766
0001e0 4f 58 9a 3c 4e 8f 40 bc fb dc 85 3c 68 14 9e 3c
       0.018840937 -0.0117529165 0.016340723 0.01929684
0001f0 bd 07 88 3c 40 a6 91 3b 99 9e 1f bc ec 39 31 bc
       0.016605252 0.0044448674 -0.0097424025 -0.010817032
000200 09 38 db 3b b7 b5 0e bc da ef 86 ba c7 64 60 ba
       0.0066900295 -0.008710316 -0.001029487 -0.0008559939
000210 1e 47 0f bb 00 d2 1c bc 4c a8 75 bb d2 3d 8c 3c
       -0.0021862458 -0.009571552 -0.0037484346 0.017119322
000220 f3 46 a8 3b 47 a7 03 3c 25 b6 a2 3b 48 1c aa bb
       0.005135411 0.0080354875 0.004965561 -0.0051913597
000230 a5 e6 3d bc 1e c0 d6 3b 7c 27 6e 3b d0 77 d5 ba
       -0.0115906345 0.006553664 0.0036339452 -0.0016286317
000240 2f f8 1f 3c e1 21 73 bc c6 c3 ba bb 11 d8 bc bb
       0.009763761 -0.01483962 -0.0056996075 -0.005763062
000250 28 05 bf bb fd 15 12 bc 9f b7 63 3c 10 a9 2b 3a
       -0.005829472 -0.008916375 0.013898759 0.00065483246
000260 02 1d b1 3b 40 53 00 3c 3c 8a b7 bb 40 29 7f bc
       0.0054050693 0.007832348 -0.0056011956 -0.0155738
000270 dc 80 3d bc 75 a3 2b bb af eb 74 ba 73 bb 8e 3c
       -0.011566367 -0.0026189957 -0.0009342981 0.017423367
000280 e8 fb 41 3b ed 9c 27 bb 0e 27 39 3b 0a 40 5a 3b
       0.002959961 -0.0025575713 0.0028252038 0.003330233
000290 cb d0 41 bc f5 46 13 3c 53 00 7f ba 3c 7b 29 3b
       -0.011829565 0.008989085 -0.00097275263 0.0025860807
0002a0 66 7e 35 3b 34 68 cb bb d5 37 88 3b 63 a1 90 bb
       0.0027693748 -0.0062074903 0.0041570463 -0.00441377
0002b0 75 fb 2c bb 07 22 a0 3c 22 cb 8f bb dd bf 34 bc
       -0.0026394997 0.019547476 -0.004388229 -0.011032072
0002c0 86 b2 62 bc eb 77 a0 bb 6a d9 5e 3b 2a 0c 9d bb
       -0.013836509 -0.004897108 0.00340041 -0.00479271
0002d0 13 ee 06 3c a4 7f ec ba f5 2c 73 3b ab 70 33 3c
       0.008235472 -0.0018043411 0.0037105654 0.010952155
0002e0 70 3e eb bb 4b 39 d8 3a 1d c9 98 3b df 3d 78 bb
       -0.007179074 0.0016496567 0.0046626464 -0.0037878675
0002f0 b1 c5 50 bb ba 5b 1b 3c 39 63 3f 3c a5 6f 96 3c
       -0.0031856115 0.009482319 0.011681371 0.018363783
000300 72 54 bf bb 95 fa c2 bb 65 2d 47 3b 91 0b 10 bc
       -0.005838924 -0.005950282 0.0030392047 -0.00879182
000310 50 0e b4 bb cf b6 58 bc ed 09 21 3c 1b b1 6a 3c
       -0.0054948702 -0.013227179 0.009829027 0.014324452
000320 e5 5f ad 3b 86 b1 ce 3b 62 a1 0c 3b 5b fc b7 3b
       0.0052909725 0.0063077835 0.0021458496 0.0056148
000330 b7 24 30 bb 09 4e 45 bc be c1 e3 bb 89 ac 82 bb
       -0.0026877353 -0.012042531 -0.006950586 -0.003987853
000340 93 a2 14 3b 6b 26 34 bc 85 5b b0 3b 58 7d b7 bb
       0.002267991 -0.010995488 0.0053820037 -0.005599659
000350 dc 81 19 bc 88 93 cf 3a 6a a9 4d 3a 49 c3 40 bc
       -0.00936934 0.0015836814 0.0007845374 -0.01176531
000360 f3 92 d9 bb 9e 12 03 bb c2 c4 d5 ba 02 79 8e 3b
       -0.006639832 -0.002000011 -0.0016309249 0.0043479213
000370 44 74 8c ba 28 a8 c2 ba 43 36 90 3b 07 f7 93 ba
       -0.0010715802 -0.001485114 0.0044009998 -0.001128883
000380 cb 5a eb ba d6 0a c5 3b d1 ab 0d 3c 4a aa 91 3b
       -0.0017956136 0.0060132546 0.008646921 0.004445349
000390 58 46 d9 bb 92 24 ad 3b b6 7f 7f 3c ae c8 1b 3c
       -0.0066307 0.0052839005 0.0155944135 0.009508295
0003a0 09 2f 08 3c 32 0a d5 bb 29 02 e0 ba d5 33 e7 ba
       0.008311995 -0.0065014595 -0.0017090488 -0.0017639349
0003b0 77 a9 70 bc b1 08 d4 bc 8d b2 3a 3c a7 c5 79 3c
       -0.014688841 -0.02588305 0.011395109 0.015244878
0003c0 57 8d 28 bc 01 af b8 3c e6 ec 4b bb 29 80 19 3b
       -0.010287604 0.022544386 -0.0031116544 0.0023422337
0003d0 70 bb e0 3b 34 e7 64 bc 72 91 5b 3c 38 16 b0 3b
       0.006858282 -0.013971139 0.013401376 0.0053737424
0003e0 f6 5f 54 39 3d 6a cd 3b 1a d3 a5 3a 93 38 6a 3c
       0.00020253644 0.006268768 0.0012651414 0.014295715
0003f0 c7 c3 f9 3a 1b 8f 6e 3b d1 c8 06 3c 02 64 dc 3b
       0.0019055539 0.0036401215 0.008226589 0.006725789

action_model._discrete_distribution.branches.0.bias f4 [13]
000000 ea bf ea bb b5 33 ca ba 21 39 aa bb 55 88 bc bb
       -0.007163991 -0.0015426787 -0.0051947986 -0.0057535567
000010 d6 63 e0 bb 79 71 d6 bb be 20 3c 3c 65 64 12 bb
       -0.006847839 -0.0065442887 0.011482416 -0.0022337672
000020 4a ff c8 3c b4 7d 44 bc c0 cf d3 bb e3 65 56 bc
       0.024535794 -0.011992861 -0.0064639747 -0.013085815
000030 3b 82 31 bc
       -0.010834272

action_model._discrete_distribution.branches.1.weight f4 [13, 142]
000000 ba 4b 06 3c 84 34 52 3b b9 e0 5b 3c 2c 58 2e 3b
       0.008196766 0.0032074759 0.013420277 0.0026602848
000010 d0 71 0a 3b 3f db 84 3b 85 7f 85 3b dd cb d5 3b
       0.0021124966 0.0040544565 0.0040740394 0.0065245465
000020 b6 8f 85 3c 92 9d 6d bc 68 0b 12 bc aa 12 aa 3a
       0.016303878 -0.0145029 -0.008913852 0.0012975533
000030 bc 41 9c 39 89 0e e1 3a 43 6d 0c 3c 6b 6e b5 38
       0.00029803615 0.001717047 0.008570972 8.6513195e-05
000040 a8 5f 62 3c c2 49 63 3c a7 9f 24 3c cf 0a bc bb
       0.013816752 0.013872566 0.01004783 -0.005738593
000050 11 1b 52 ba 6f 1b 16 3c 52 8e 44 ba 40 62 dc 38
       -0.00080148975 0.009161814 -0.0007498014 0.00010508718
000060 b4 08 52 bc d1 55 1c 3b 8b c3 5f 3b 8c 6a 29 3c
       -0.012819458 0.0023854862 0.0034143652 0.010340344
000070 13 02 aa bb 72 81 1b 3c 8f f4 3e bb d6 65 02 bc
       -0.0051882355 0.009491311 -0.0029137467 -0.00795885
000080 58 e0 85 3c 6d e0 d5 bb 3c 6c 67 3c 86 fe 23 bc
       0.016342327 -0.006526998 0.014124926 -0.010009414
000090 ae 7f 2c 3c 91 0b 8b 3c 04 84 14 3c 60 86 f9 3a
       0.010528488 0.016973289 0.009064678 0.0019037239
0000a0 4e 34 f7 ba c9 4d 27 3c ba b5 e5 bb eb d4 f6 3a
       -0.0018860193 0.0102114165 -0.007010189 0.0018831765
0000b0 70 a8 cf 3b 8f 47 e9 bb f6 d4 82 3a 10 b7 2d 3b
       0.006337218 -0.007119126 0.000998168 0.0026506819
0000c0 b8 4d 38 3c ca f4 aa 3b d1 9f a3 ba 41 0b 43 3c
       0.011248998 0.0052171694 -0.0012483542 0.011904539
0000d0 04 5d d4 bc e4 e4 01 bb a5 70 08 bb 9c 31 69 3c
       -0.02592326 -0.0019820267 -0.0020819094 0.014233019
0000e0 6e 27 27 3c e2 32 15 3b 84 51 e3 b9 3c f3 5f 3b
       0.010202272 0.0022765924 -0.00043357548 0.0034172079
0000f0 dd 28 88 3b de fb 22 bc 8e db 1b 3c 2c a2 4b bc
       0.004155262 -0.009947745 0.009512795 -0.0124288015
000100 ff f5 0d 3c 86 d5 05 bc 43 db 6a 3c 8b a5 da bb
       0.008664607 -0.008168584 0.014334503 -0.0066725663
000110 3b 51 0c 3b 70 50 33 bc 4e 08 44 bb 32 5a af 3b
       0.0021410722 -0.010944471 -0.0029912177 0.0053513283
000120 98 88 c6 bb 46 6e 1e 3c a5 91 df bb b2 35 12 3b
       -0.0060587637 0.009669846 -0.006822782 0.0022309837
000130 0c 35 3d bc c2 d8 16 3c 4f 1b 89 bc b7 d2 53 bc
       -0.011548292 0.0092069525 -0.016736655 -0.012928656
000140 5a c2 f2 ba 63 51 0b 3c b8 18 ce bb 59 63 57 3b
       -0.0018521056 0.008503291 -0.006289568 0.0032865612
000150 46 42 65 3b d9 5e 5b 3c bf be 3b bc af 07 c9 3c
       0.003498213 0.013389313 -0.011459052 0.024539797
000160 bf 37 09 3c 46 a5 54 3c 06 22 a9 bc b9 c2 61 bb
       0.008375107 0.012978857 -0.020646106 -0.003444834
000170 82 7d d4 ba d3 7e 17 3c 93 28 f8 3b c7 f6 68 3c
       -0.0016211721 0.009246546 0.007573196 0.014218993
000180 c5 ab 09 3c 4c 8f 3b 3c 5c b0 4a 3c ab 93 49 3c
       0.008402769 0.011447739 0.012371149 0.012303273
000190 cd 2f 8e 3b be 31 2d 3c b6 af 6a ba 88 f8 b5 3b
       0.0043391944 0.0105709415 -0.00089525746 0.005553309
0001a0 c5 a8 ec 3b 9c 36 85 bb 5f 90 55 3c 66 95 34 bc
       0.0072222673 -0.004065348 0.013034909 -0.0110219475
0001b0 9d df 3b bb 11 0d 5e 3c 90 22 69 bc 76 88 55 3c
       -0.002866722 0.01355292 -0.014229432 0.013033023
0001c0 dd df ae 3b 85 eb 34 bc 5b 5a 09 bc 97 ef 99 b9
       0.005336745 -0.01104248 -0.008383359 -0.00029360942
0001d0 59 b6 36 bc f3 04 42 3c 87 01 eb 3b da 23 9d bb
       -0.0111518735 0.011842 0.007171813 -0.0047955336
0001e0 71 41 3d bb 7c a7 5d bc 13 8f 0f 3c d4 c8 be ba
       -0.0028878117 -0.013528701 0.008762139 -0.0014555701
0001f0 0a cb 1f 3c 65 ea 0d bc 2a 65 07 bc 2d 1a 4e bb
       0.009752998 -0.008661841 -0.0082638655 -0.0031448707
000200 3b 45 53 bc e7 c5 4a 3c 88 5e 5b b9 0d 87 d3 3b
       -0.012894924 0.012376285 -0.00020920683 0.0064553083
000210 18 93 14 bb e9 b5 64 bc 46 8a 0e bc 27 fe 84 bb
       -0.0022670683 -0.013959386 -0.008699959 -0.0040586176
000220 88 1a 56 3c 13 2a 83 bb eb 9f b7 3b ba 6d eb 3b
       0.013067849 -0.0040028184 0.0056037805 0.0071847113
000230 21 8c 92 3b 44 22 b4 bb 12 09 f1 3b c5 8b ec 3b
       0.004472271 -0.005497249 0.0073558176 0.0072188103
000240 53 15 3e 3c 21 a5 e9 3b 2c da 46 3b c2 fa 68 bc
       0.011601764 0.0071302806 0.0030342443 -0.014219942
000250 b8 98 d2 ba 04 6c b8 3c 4c 12 4a ba 1a 31 9d 3b
       -0.0016067242 0.022512443 -0.0007708415 0.004797113
000260 00 fa 23 bc bf 23 5f 3a cd 03 56 3c 85 56 ba 3b
       -0.010008335 0.00085121015 0.01306243 0.0056865835
000270 7a 7f 22 3c 52 01 34 3c 32 63 bc 3b c1 24 d5 3c
       0.009918088 0.010986643 0.0057491297 0.026018502
000280 28 0e c0 b8 37 0c 70 3c 3d b6 ed 3b 9f 5e 13 3c
       -9.15791e-05 0.01465135 0.0072543905 0.008994727
000290 58 6f a8 ba 31 7b 81 3c 53 9e 8b bb 59 6a 83 b9
       -0.0012850566 0.015805813 -0.004260817 -0.00025065502
0002a0 f8 48 24 3c 50 48 d7 3b 38 1f 54 3c cc d3 0e 3b
       0.010027163 0.0065698996 0.012946896 0.0021793721
0002b0 48 8e 60 3b d4 83 44 3c ac 9e 28 3c 86 31 b9 3b
       0.0034264494 0.011994321 0.010291737 0.0056516556
0002c0 da 44 e3 3a 9b 2d f5 bb a7 d2 b9 3a 27 dc dd 3b
       0.0017339245 -0.0074822432 0.0014177159 0.006770629
0002d0 62 98 e0 bb e3 5c af bb d5 37 01 3c ab c0 32 bc
       -0.006854103 -0.005351649 0.007886847 -0.010910193
0002e0 e6 aa ac bb 5c 1b 84 3c 5d 63 8f 3b a6 4a 95 bc
       -0.005269396 0.016126327 0.0043758587 -0.018224072
0002f0 76 75 a4 3c 86 bb 74 3c 30 20 9c ba 48 d7 8f 3c
       0.020075541 0.014937287 -0.0011911448 0.017558709
000300 77 2a 97 3c 87 ec 01 3c 79 9c 6c bb 5a 38 00 bc
       0.018452866 0.007929928 -0.0036104007 -0.007825935
000310 1a 87 11 3c 27 4a c9 3c 5c a2 f0 bb 04 b5 27 3b
       0.008882308 0.024571491 -0.0073435735 0.0025590071
000320 7f 36 3e 3c 81 34 1d 3c 54 74 46 bb 7b a5 ac b9
       0.011609673 0.009595037 -0.003028174 -0.0003292969
000330 17 7c 03 3c 6e b3 b6 bb cd 2a c2 bb e9 b6 ea bb
       0.008025191 -0.005575589 -0.0059255124 -0.007162918
000340 db 82 bd ba d5 29 91 bc 19 2d 97 3c 89 61 09 3c
       -0.0014458554 -0.017720142 0.018454121 0.008385071
000350 ad 38 a2 bc a6 f4 94 3b 72 34 6f bc 24 76 65 ba
       -0.019802416 0.004545766 -0.014599906 -0.0008753261
000360 36 ed 3b 3a e7 12 7f 3c 9d 09 2c 3c 84 2a 9d 3b
       0.0007168831 0.0155684715 0.010500339 0.004796328
000370 92 76 7d bc 84 23 2f 3b 31 31 57 3b 57 61 9a ba
       -0.015470164 0.002672405 0.0032835717 -0.0011778277
000380 28 f1 20 3c d7 fc 75 bc 58 64 31 b9 40 60 f5 bb
       0.009823121 -0.015013895 -0.00016917416 -0.0074882805
000390 e2 81 b1 bc 00 b4 d7 3b f2 66 df ba eb ce 58 3c
       -0.021668378 0.006582737 -0.001704423 0.013232927
0003a0 0a de 21 bc dd 63 73 3b f3 65 99 ba 82 82 4d 3c
       -0.009879598 0.003713838 -0.0011703357 0.0125433225
0003b0 a0 0e 2a 3a 73 d3 0a 3b f5 9a d5 ba f2 b2 8f 3c
       0.00064871646 0.0021183162 -0.0016296791 0.017541382
0003c0 bf 3c 08 3c d4 67 17 bb 20 05 5a ba 97 76 16 3c
       0.008315264 -0.0023102658 -0.0008316804 0.009183547
0003d0 5d 42 ae 3b 4c f6 d6 3b a7 57 26 bc c7 f2 d3 bb
       0.0053179697 0.0065601226 -0.010152734 -0.0064681503
0003e0 0b 81 ff 3b 65 cd 0a 3b 10 8b 0f b9 24 e1 6e bb
       0.0077973655 0.0021179554 -0.00013689348 -0.0036450112
0003f0 bd 40 01 bc 35 f6 53 3c 1a d9 89 39 38 33 0c bc
       -0.00788897 0.012937118 0.0002629243 -0.008557133

action_model._discrete_distribution.branches.1.bias f4 [13]
000000 31 cd a7 bb a4 55 a3 bb 8a cb de ba db 34 df bb
       -0.0051208963 -0.0049845744 -0.0016997915 -0.006811721
000010 3e 40 11 bc 6a c7 68 bb 86 88 8d 3c 81 92 27 bc
       -0.008865414 -0.003551925 0.017277014 -0.0102278
000020 80 86 dc bb ea 9d b6 3c d1 64 d8 bb ba 5c ce bb
       -0.006729901 0.022292096 -0.006603815 -0.006297675
000030 b9 a2 ac bb
       -0.0052684215

action_model._discrete_distribution.branches.2.weight f4 [13, 142]
000000 09 fc c0 3c ae 28 90 3c 13 77 81 ba 6e 6f c3 3b
       0.02355768 0.017597523 -0.0009877406 0.005964211
000010 a6 87 2c bb 3d 14 cc bc a7 02 42 3b 36 de a7 bb
       -0.002632597 -0.024911994 0.0029603632 -0.005122925
000020 c8 33 01 3c 1d 3e 28 bb 9a d4 d4 ba 5f 5e 40 bb
       0.007885881 -0.0025671788 -0.0016237677 -0.0029353125
000030 af e0 54 bc 6c d1 53 3c 36 d8 8b 3c 8e ca 9b 39
       -0.012993022 0.012928348 0.01707087 0.0002971482
000040 1f c0 75 3c 38 78 bc 3b 0d 04 bf 3c f5 03 05 bc
       0.0149994185 0.005751636 0.023317361 -0.008118619
000050 f4 87 66 bb 77 16 c1 3a 9e a3 8c bc 91 f3 30 3c
       -0.003517625 0.0014731426 -0.017167863 0.010800258
000060 80 21 50 bc fb 3c 94 bc 80 86 b2 3c dc 3b c7 bb
       -0.0127032995 -0.018095484 0.02179265 -0.006080134
000070 22 b3 a3 3c e8 97 26 3c 01 41 3d 3c 45 f0 ff 3a
       0.019982878 0.010168053 0.011551143 0.0019526562
000080 f1 89 c9 bb 30 14 19 3b c0 75 a0 3c 04 8e 26 3b
       -0.006150477 0.002335798 0.019587398 0.0025414238
000090 e2 f6 31 3b 9d a2 05 3c 84 f9 2e 3c cf ee 1b bc
       0.002715521 0.008156446 0.010679606 -0.009517386
0000a0 a9 69 36 bc 69 1c e6 bb 71 fd e2 bb 21 78 83 3c
       -0.01113359 -0.0070224297 -0.006927185 0.016048493
0000b0 25 54 9f 3a ec 63 6c bc 88 e0 37 3c e4 61 c5 bb
       0.0012155814 -0.01442812 0.011222966 -0.0060236324
0000c0 13 59 ab bb 32 dd 35 3c aa 00 60 3a ae c6 f4 3c
       -0.0052291243 0.0111001 0.0008545021 0.029879894
0000d0 cc 3d 82 3b 83 09 69 bb 15 45 b3 3c 60 08 72 3b
       0.003974652 -0.0035558648 0.021883527 0.0036931261
0000e0 f0 71 fe 3b b9 8c 21 3c 61 f0 45 3a ae 7a 0e ba
       0.0077650473 0.009860211 0.0007550773 -0.0005435151
0000f0 8f d7 1c bc 7a b9 48 3b f8 da 53 3c 4e 71 29 bc
       -0.009572878 0.003062813 0.012930624 -0.010341955
000100 cc 96 22 3c d3 e0 46 bc 6a ee 54 3c be 1a 3e bc
       0.009923648 -0.012138563 0.0129962955 -0.0116030555
000110 8b ba 5f 3c 75 e7 ba bc b2 1c 8c bc 20 b3 ce bc
       0.013655315 -0.022815445 -0.017103527 -0.025231898
000120 2f d7 ab 3b f5 9d b2 3b 97 42 af 3c 1f 6b 04 3c
       0.0052441577 0.005450959 0.021394057 0.00808218
000130 09 c2 3b 3c 5e d3 dc 3b c8 e7 81 bc 61 de c4 ba
       0.011459836 0.006739064 -0.015857592 -0.0015019887
000140 69 08 1b bc 6b f1 0b 3c 57 c0 28 bc 52 61 8a bb
       -0.009462454 0.008541445 -0.010299764 -0.0042230273
000150 0a 2c a6 3b 2e bb 89 3c 78 f5 88 3a f1 ad 90 3c
       0.005071168 0.016812887 0.0010449132 0.017661067
000160 34 07 00 bb b3 b2 d6 3a 18 e3 a6 3b 08 b4 d9 bb
       -0.0019535543 0.0016380161 0.0050929897 -0.006643776
000170 9a b4 9d bb 56 b0 c1 ba d8 a7 81 3c b2 53 79 3a
       -0.004812789 -0.0014777284 0.015827104 0.0009511068
000180 a0 5e 8d 3b ce 23 2b 3c b2 72 11 3c 80 03 c1 3b
       0.0043142587 0.010445548 0.008877443 0.00589031
000190 cb a5 4e 3c ff 95 4f ba c5 fb ab bc f3 9e 0e bc
       0.01261277 -0.00079187745 -0.020994077 -0.008704889
0001a0 ea b9 6c bb 46 a9 f2 ba 11 88 d1 bb d7 44 0e bb
       -0.0036121556 -0.0018513582 -0.006394394 -0.0021708512
0001b0 a7 17 fc 3c fb a9 89 3c 6c 82 53 ba f5 19 5c bb
       0.030772997 0.016804686 -0.00080684456 -0.0033584808
0001c0 82 a6 15 bc ec 99 29 bc 32 90 23 3c 9a e1 be 3b
       -0.009133937 -0.010351639 0.009983109 0.0058252336
0001d0 d1 d4 19 bb 40 7c 01 3c 6e 7e f2 3b 69 45 72 bc
       -0.0023472796 0.007903159 0.0074003255 -0.0147870565
0001e0 8f 88 16 3b 33 24 a9 bc 36 8f 98 bb fc e7 82 b9
       0.002296958 -0.020647144 -0.004655744 -0.00024968374
0001f0 76 7e 37 3c ed 66 27 bc cb a1 85 3b c1 c2 21 bc
       0.011199584 -0.0102174105 0.004078125 -0.009873093
000200 16 3b b0 3c e2 2b 8e 3b 04 0f 85 3c 9c ed 5b 3a
       0.02151255 0.0043387273 0.016242512 0.00083895936
000210 91 09 b7 bb 2d a4 6f ba 56 7f 2b 3c 36 ba 29 3b
       -0.005585857 -0.00091415906 0.010467371 0.0025898344
000220 fb d0 ef 3b 77 96 df 3b 60 e3 8a 3c b8 e5 20 3c
       0.0073186136 0.0068233567 0.016954124 0.009820394
000230 30 d2 d5 ba 5e f0 16 3c 22 f7 ac 3b 5e 67 06 bc
       -0.0016313251 0.009212581 0.005278484 -0.008203356
000240 01 26 90 ba fe 64 94 bb 46 71 86 3c f5 88 3c bc
       -0.0010997654 -0.004528641 0.016411435 -0.0115072625
000250 14 61 ac 3b 56 c6 8b b9 e9 f8 7d 3c bb 86 b0 bb
       0.005260596 -0.00026659918 0.015501239 -0.005387155
000260 0a 28 0c 3c 97 8a 9c bb 66 d6 83 39 b3 1f 50 bc
       0.008554468 -0.0047772634 0.00025146006 -0.01270287
000270 56 5e 3f 3c 6b 0d 3e 3b 7a 66 33 3c 6f f4 78 3c
       0.011680206 0.0028999697 0.010949725 0.015194996
000280 90 25 29 bc 29 a9 09 bc f7 70 06 3c 92 ef 2f bc
       -0.010323897 -0.008402147 0.008205644 -0.01073827
000290 44 45 42 bc 90 69 43 3c 6b 6a b5 3b ca 9a fc ba
       -0.0118573345 0.0119270235 0.0055363677 -0.0019272205
0002a0 95 5b f4 bb 7d 96 98 3b 0f e2 9a 3c 80 d6 99 3a
       -0.0074572065 0.0046566115 0.018906621 0.00117369
0002b0 1e a8 3d 3c da 7f 9e bb 48 73 83 3c ae 6e e8 bb
       0.011575727 -0.0048370184 0.016046181 -0.007093272
0002c0 d3 25 36 3c 69 89 3d 3b 86 5e 50 3c 95 a9 a7 bb
       0.011117416 0.0028921014 0.012717849 -0.0051166513
0002d0 21 49 89 3b c8 15 83 3b c0 aa 2e 3b df 76 55 3b
       0.004189626 0.0040003993 0.0026652068 0.0032572073
0002e0 7f 30 15 3c 6a f9 89 bb 4c d6 4a 3b d1 a8 75 3b
       0.009105801 -0.0042106407 0.0030950485 0.0037484656
0002f0 68 32 71 3b 09 37 57 3b c2 13 17 bc 4a d2 14 3c
       0.0036803726 0.00328392 -0.009221019 0.00908334
000300 0b 35 fd b9 e9 fe 17 3c 4d 23 5d bc 4c 3b 1b bc
       -0.0004829544 0.009277084 -0.013497186 -0.009474587
000310 1d 90 a5 bb d1 01 e3 3b 0a 07 b4 3b 46 79 ff 3a
       -0.00505258 0.0069277068 0.005494003 0.0019491098
000320 a9 01 3b 3c 13 95 33 3c 81 2c c4 bb 1c 84 08 bb
       0.01141397 0.010960835 -0.0059867506 -0.0020830696
000330 49 b5 69 bc bc 1a 82 bc 0c 35 06 3c 51 7f c7 bb
       -0.014264413 -0.015881889 0.008191358 -0.0060881753
000340 42 5f 53 bc 62 0b 65 bb 25 00 0a 3c 7b 9b 35 bc
       -0.012901129 -0.0034949412 0.008422886 -0.011084433
000350 a3 54 fb bb b2 e7 5c bc ba e4 b1 3c 0b 69 ae bb
       -0.0076700016 -0.013482975 0.02171551 -0.0053225807
000360 dd 5d 0a bb 9e 81 6c bb e5 9a ad ba 78 d2 42 3c
       -0.0021113076 -0.0036088 -0.0013245015 0.011891
000370 d9 6b f3 bc d7 34 a0 3c bd fb a7 bc 15 22 cf 3b
       -0.029714512 0.019556446 -0.02050578 0.0063212016
000380 23 5f ba 3c a6 20 a6 bb 48 7b 88 ba 46 0b 81 bb
       0.022750443 -0.00506981 -0.0010412717 -0.0039381115
000390 e9 59 58 3c 97 19 58 3c 32 1b ad bc 7c 86 71 3c
       0.01320503 0.013189695 -0.021131132 0.014741536
0003a0 63 71 50 3c f3 50 89 bb d3 84 76 bb 71 4b 53 3c
       0.012722346 -0.004190558 -0.003761579 0.012896405
0003b0 73 c6 59 3b 1c 12 a0 bc b1 1d 47 bb 61 e5 1b 3c
       0.0033229857 -0.019539885 -0.0030382688 0.009515137
0003c0 d9 c9 e1 3c 07 e9 33 bb 5c 68 7f bb a1 49 49 3c
       0.027562069 -0.0027452128 -0.0038972115 0.012285621
0003d0 63 8e 3a bc 68 57 37 bc 81 8b 64 3b c8 ea 25 3c
       -0.011386487 -0.011190273 0.003487319 0.010126777
0003e0 44 99 8e bb 6f 91 f9 ba d2 d1 34 3c 67 b2 d4 bb
       -0.004351767 -0.0019040535 0.011036353 -0.006490994
0003f0 d4 a8 6b bc a7 99 fa 3a 2b 7e 60 3c 03 7a 22 3c
       -0.0143835135 0.0019119278 0.013701956 0.009916785

action_model._discrete_distribution.branches.2.bias f4 [13]
000000 5f 9f 08 bc ad 37 92 bb 82 4d 10 bc 40 9c 08 3a
       -0.008338778 -0.0044622035 -0.008807542 0.00052112713
000010 8a 20 83 bb aa f6 6b bb 60 17 5c 3c cf f5 97 bb
       -0.0040016817 -0.0036005178 0.013433307 -0.004637457
000020 e3 30 98 bb 61 7a af bb 9a af c2 3c 4f db 80 bb
       -0.0046444996 -0.005355165 0.023765374 -0.0039323936
000030 e6 86 1c bc
       -0.009553647
