results/NewTwoAgentsFullBoardAction/WhiteMLAgent/WhiteMLAgent-300.onnx (onnx, 681198 bytes, 133 tensors)

discrete_act_size_vector f4 [1, 64]
0	0x41500000	13.0
1	0x41500000	13.0
2	0x41500000	13.0
3	0x41500000	13.0
4	0x41500000	13.0
5	0x41500000	13.0
6	0x41500000	13.0
7	0x41500000	13.0
8	0x41500000	13.0
9	0x41500000	13.0
10	0x41500000	13.0
11	0x41500000	13.0
12	0x41500000	13.0
13	0x41500000	13.0
14	0x41500000	13.0
15	0x41500000	13.0
16	0x41500000	13.0
17	0x41500000	13.0
18	0x41500000	13.0
19	0x41500000	13.0
20	0x41500000	13.0
21	0x41500000	13.0
22	0x41500000	13.0
23	0x41500000	13.0
24	0x41500000	13.0
25	0x41500000	13.0
26	0x41500000	13.0
27	0x41500000	13.0
28	0x41500000	13.0
29	0x41500000	13.0
30	0x41500000	13.0
31	0x41500000	13.0
32	0x41500000	13.0
33	0x41500000	13.0
34	0x41500000	13.0
35	0x41500000	13.0
36	0x41500000	13.0
37	0x41500000	13.0
38	0x41500000	13.0
39	0x41500000	13.0
40	0x41500000	13.0
41	0x41500000	13.0
42	0x41500000	13.0
43	0x41500000	13.0
44	0x41500000	13.0
45	0x41500000	13.0
46	0x41500000	13.0
47	0x41500000	13.0
48	0x41500000	13.0
49	0x41500000	13.0
50	0x41500000	13.0
51	0x41500000	13.0
52	0x41500000	13.0
53	0x41500000	13.0
54	0x41500000	13.0
55	0x41500000	13.0
56	0x41500000	13.0
57	0x41500000	13.0
58	0x41500000	13.0
59	0x41500000	13.0
60	0x41500000	13.0
61	0x41500000	13.0
62	0x41500000	13.0
63	0x41500000	13.0

network_body._body_endoder.seq_layers.0.weight f4 [142, 71]
0	0x3d96a668	0.07355958
1	0xbe076332	-0.13221434
2	0xbd6f7809	-0.058464084
3	0x3d22b00c	0.039718673
4	0xbcf9df8e	-0.030502107
5	0xbab09606	-0.0013472445
6	0xbe918a27	-0.28425714
7	0xbe5132ac	-0.20429486
8	0x3d8ba601	0.06818772
9	0xbb960e3b	-0.004579333
10	0xbd45b104	-0.04826452
11	0xbb269310	-0.0025417246
12	0xbbc405a8	-0.0059821196
13	0x3e0612f4	0.13093168
14	0x3e707b2e	0.2348449
15	0xbdcce79f	-0.10005116
16	0xbeb4b09a	-0.35290986
17	0x3d8da9f8	0.069171846
18	0xbcd122d3	-0.0255293
19	0x3ce21f99	0.027602958
20	0x3d9988bb	0.074967824
21	0xbe4d5c96	-0.2005485
22	0xbe03f4a0	-0.12886286
23	0x3da855a4	0.0821946
24	0xbe19e82c	-0.15029973
25	0x3dab0e66	0.08352356
26	0x3e15ba76	0.1462191
27	0xbe00f3d0	-0.12593007
28	0x3db2a76e	0.08723341
29	0xbb1a8d15	-0.0023582627
30	0x3dfb40d6	0.12268226
31	0xbdfe4695	-0.12415806
32	0x3d751ea4	0.059843674
33	0x3d7ad702	0.061240204
34	0xbcaa4218	-0.02078347
35	0xbd59cd82	-0.053174503
36	0x3d230447	0.039799
37	0x3ec384c1	0.3818722
38	0x3dfdea7f	0.12398242
39	0x3e20c164	0.15698773
40	0xbd70cc78	-0.058788747
41	0x3d494a43	0.049143087
42	0x3db72507	0.08942609
43	0x3e630971	0.2217157
44	0xbdb3658d	-0.08759604
45	0xbe112585	-0.14174469
46	0x3b14dace	0.0022713426
47	0xbdd2ae00	-0.10287094
48	0x3bc56ecc	0.006025171
49	0xbd8bff72	-0.06835832
50	0xbd9a0e22	-0.07522227
51	0x3e125d80	0.1429348
52	0x3d8fc619	0.07020206
53	0x3cb9bc01	0.022672655
54	0x3de449d2	0.111468926
55	0xbe4c6c20	-0.19963121
56	0x3dc1cee0	0.094632864
57	0x3de34296	0.11096685
58	0xbd5e2c9d	-0.054241765
59	0xbc81058a	-0.015749712
60	0x3df81bde	0.1211469
61	0x3d8d12a8	0.06888324
62	0xbe0da055	-0.13830693
63	0x3d900175	0.07031528
64	0x3d82dd76	0.063898966
65	0xbcc818f9	-0.02442597
66	0xbdf186ab	-0.11793264
67	0x3da7f230	0.082004905
68	0x3e406a11	0.18790461
69	0x3cccdf0d	0.025008703
70	0xbe39ee99	-0.18157424
71	0xbd162510	-0.03665644
72	0xbd934823	-0.07191493
73	0x3e377c7f	0.17918585
74	0xbe2752ca	-0.16340175
75	0xbdc22472	-0.09479608
76	0xbdcbbec9	-0.09948499
77	0xbe13c91c	-0.14432186
78	0xbcfc3d45	-0.030790934
79	0x3d9701a2	0.07373358
80	0xbe0e9c6d	-0.13926859
81	0x3e36b77f	0.17843436
82	0x3d5fbd3c	0.054623827
83	0xbc1ce2f5	-0.009575595
84	0xbdceb120	-0.10092378
85	0xbd988549	-0.07447297
86	0xbc57bf16	-0.013168117
87	0xbdc775a2	-0.097392336
88	0x3e226397	0.15858303
89	0x3e166432	0.14686659
90	0xbe601a30	-0.2188499
91	0x3adc7435	0.00168193
92	0x3da5e589	0.08100421
93	0xbc0080f7	-0.007843248
94	0xbe69b5e0	-0.22823286
95	0xbeeb7bbe	-0.45992845
96	0x3e103b62	0.14085153
97	0xbe5e9269	-0.21735539
98	0xbd7b0a97	-0.061289396
99	0xbe1d428a	-0.15357414
100	0xbd790f31	-0.060805503
101	0xbd9bcefb	-0.07607838
102	0xbd945c96	-0.07244222
103	0xbca66786	-0.020313036
104	0xbd9fdbb5	-0.07805578
105	0xbe8395d9	-0.25700262
106	0x3cfaa107	0.030594362
107	0xbe49cb52	-0.19706467
108	0x3d1e3fd6	0.038635097
109	0x3e3894e9	0.18025555
110	0xbcf892d1	-0.030343445
111	0x3e008ec1	0.12554456
112	0xbd6d42e3	-0.057925116
113	0x3c32bca0	0.0109092295
114	0xbd97622b	-0.07391771
115	0xbaca5f5b	-0.0015439795
116	0x3db6ec81	0.08931828
117	0x3e05b683	0.13057904
118	0x3dbdab21	0.09261156
119	0x3cfc7e5a	0.030821968
120	0xbd7492e3	-0.059710395
121	0xbb9523b2	-0.0045513744
122	0x3c8fb9bc	0.01754462
123	0x3e172f59	0.14764155
124	0x3d8dd87a	0.06926055
125	0xbb4b6392	-0.003103469
126	0x3e5b4485	0.21412857
127	0xbe99df92	-0.30053383
128	0xbdc5dabc	-0.09660861
129	0x3c68fac7	0.014219946
130	0xbb9babda	-0.004750711
131	0xbe63275a	-0.2218298
132	0xbe12488e	-0.1428549
133	0x3cb1696c	0.021656714
134	0xbe5b8b59	-0.21439876
135	0xbdef8b18	-0.11696452
136	0xbe342568	-0.17592394
137	0x3daafd2f	0.08349072
138	0x3d5e9822	0.054344304
139	0x3c9d6554	0.019213356
140	0x3e1fef35	0.15618594
141	0x3db93e47	0.090450816
142	0x3e29f70a	0.16598144
143	0x3dde598a	0.10856922
144	0x3d87526e	0.06607519
145	0xbd7c8ffa	-0.061660744
146	0xbd944520	-0.07239747
147	0xbe8812c2	-0.2657681
148	0x3d197105	0.0374613
149	0xbdc8a7fb	-0.09797665
150	0xbc64f4c8	-0.013974376
151	0x3d00cb7f	0.03144407
152	0x3cfee860	0.031116664
153	0xbd5c4ae0	-0.053782344
154	0xbca439c9	-0.020047085
155	0xbd6c0312	-0.057620116
156	0xbe8745b1	-0.26420358
157	0xbdcb2b14	-0.09920326
158	0x3d87251c	0.06598875
159	0x3d453a8a	0.04815153
160	0x3e1d3cb3	0.15355186
161	0xbc1cc8b4	-0.009569336
162	0xbd54575d	-0.05184113
163	0xbd6d6b47	-0.057963636
164	0x3c90230a	0.017594833
165	0xbdfedb50	-0.12444174
166	0x3daa4d1b	0.08315488
167	0x3d8f2bee	0.06990801
168	0x3e1f7a9d	0.15574117
169	0xbd882210	-0.06647122
170	0xbc51b40d	-0.012799275
171	0x3d72a057	0.059234943
172	0xbdbe7aa4	-0.093007356
173	0x3e154450	0.1457684
174	0x3e2ef3ac	0.17085141
175	0x3e2e11d1	0.16998984
176	0xbdcffe05	-0.10155872
177	0x3e2f9d32	0.17149809
178	0x39cfb94b	0.0003962017
179	0x3d66863d	0.056280363
180	0xbdda4dfa	-0.10659404
181	0x3db698cf	0.08915865
182	0x3ddd0175	0.107912935
183	0x3dde4a96	0.1085407
184	0xbc8b37fc	-0.016994469
185	0x3da718c2	0.08159019
186	0xbd987cfc	-0.07445714
187	0x3c8595f6	0.016306859
188	0x3e7be6e4	0.24599797
189	0xbb1890ff	-0.0023279784
190	0x3e304c94	0.17216712
191	0x3cdf1ebb	0.027236333
192	0xbb692a4f	-0.0035578196
193	0x3e24e2d1	0.16102149
194	0xbd630e92	-0.055433817
195	0x3de0622e	0.10956226
196	0xbea472a2	-0.32118708
197	0xbcf94758	-0.030429527
198	0x3c44118c	0.011967074
199	0xbe5363d4	-0.2064355
200	0xbdf2a80c	-0.11848459
201	0x3e1b9fe1	0.15197708
202	0xbe55a604	-0.20864111
203	0x3c53f67e	0.012937186
204	0xbd145267	-0.036211397
205	0x3dce2a8e	0.100667104
206	0xbdade855	-0.084915794
207	0x3d505e8d	0.05087142
208	0x3e48a724	0.19595009
209	0xbc5860e2	-0.013206692
210	0x3db51898	0.088425815
211	0xbe06601c	-0.131226
212	0xbc611ad1	-0.013739304
213	0xbd9bcb33	-0.076071166
214	0xbcb11eb1	-0.02162108
215	0xbd787490	-0.060658038
216	0x3db9826b	0.090580784
217	0x3bdb1e40	0.0066869557
218	0xbdd581a2	-0.10425116
219	0x3d93194a	0.07182558
220	0xbe4a6c8e	-0.19767973
221	0x3c615104	0.013752226
222	0x3dbeab5e	0.093100294
223	0xbdf02a08	-0.11726767
224	0xbe022066	-0.12707672
225	0xbe986622	-0.2976542
226	0xbcb4089b	-0.02197676
227	0x3d83ca54	0.064350754
228	0x3cff312d	0.031151379
229	0x3e2f729b	0.17133562
230	0xbde55e89	-0.11199672
231	0xbd6db6f3	-0.058035802
232	0xbe8d96aa	-0.2765401
233	0xbe0ff385	-0.14057739
234	0xbc963f0f	-0.018340616
235	0xbd051b31	-0.032496635
236	0xbd9e8d15	-0.07741753
237	0xbdfe72fc	-0.12424275
238	0x3e18daa2	0.14927152
239	0x3d83adb0	0.06429613
240	0xbe429aa7	-0.19004308
241	0x3e1c3140	0.15253162
242	0xbc60aa30	-0.013712451
243	0xbe7b7602	-0.24556735
244	0x3e4b3c56	0.19847235
245	0x3c8c8b5a	0.017156292
246	0xbd60e59e	-0.05490648
247	0x3d7af08a	0.061264552
248	0xbe782af1	-0.24235131
249	0x3d47dd7c	0.04879521
250	0x3d892f1c	0.066984385
251	0xbd871e26	-0.06597547
252	0x3db921d5	0.09039656
253	0x3d39d7c8	0.0453718
254	0x3ccfa2b5	0.02534614
255	0xbdc7dd8c	-0.097590536

network_body._body_endoder.seq_layers.0.bias f4 [142]
0	0xbb3ccfde	-0.0028810422
1	0x3c0f3d84	0.008742694
2	0x3c0dea00	0.008661747
3	0x3b612e7a	0.0034359978
4	0x3c261ae9	0.010138252
5	0xbac057ce	-0.0014674605
6	0x3c27e971	0.010248528
7	0x3bfa60c0	0.007640928
8	0x3bcc418f	0.006233401
9	0x3b51bd4e	0.0032003704
10	0x3b65ca4c	0.0035063205
11	0xba45533d	-0.0007527357
12	0x3c38fbe8	0.011290528
13	0x3ba860a0	0.0051384717
14	0x3c4b985c	0.012426462
15	0x3a009e99	0.00049064454
16	0x3c122d45	0.008921926
17	0x3b96d247	0.0046027037
18	0x3bdfea4c	0.0068333503
19	0x3b963cb2	0.004584872
20	0x3b2645c9	0.0025371185
21	0x3bc6dee7	0.0060690525
22	0x3c310480	0.010804296
23	0x3c1054e1	0.008809299
24	0x3b107812	0.0022044224
25	0x3bdb62b5	0.0066951164
26	0x3be15c53	0.006877461
27	0x3c2ce12c	0.010551732
28	0x3bec5c93	0.007213184
29	0x3a496a9b	0.0007683427
30	0x3b3a3b61	0.002841674
31	0xbb6d5aa2	-0.0036217351
32	0x3b7222a8	0.0036946926
33	0x3c23ce72	0.009997951
34	0x3b889a71	0.0041688015
35	0x3ba0825d	0.004898353
36	0xbb25ec53	-0.0025317862
37	0x3ba5b452	0.0050568962
38	0x3c2e3a2b	0.0106339855
39	0xbab0a6d9	-0.0013477459
40	0x3c03b15b	0.00803789
41	0x3be0d518	0.0068613403
42	0x3b05fb1f	0.002044387
43	0x3c2c12d9	0.0105025405
44	0x37c16380	2.3053726e-05
45	0x3c25e230	0.010124728
46	0x3be86ad9	0.0070928154
47	0x3a62fa40	0.0008658506
48	0x3b857765	0.004073071
49	0x3b5f17e5	0.0034041342
50	0x3c6c6330	0.014427945
51	0x3c1f47c3	0.009721699
52	0x3bac8c61	0.005265758
53	0x3beeafea	0.007284154
54	0x3c325e63	0.010886761
55	0x3c38f790	0.011289492
56	0x3c3cec87	0.011531002
57	0xbb8b7932	-0.004256391
58	0x3c1ced8a	0.009578118
59	0x3bb3417e	0.0054704538
60	0x3a287fb9	0.00064277236
61	0x3c1676cb	0.009183596
62	0x3c13eed9	0.009029114
63	0xbaf95599	-0.0019022702
64	0xbb94c1eb	-0.0045397184
65	0x3c2b9eeb	0.010474901
66	0x39957389	0.00028505575
67	0x3bf2c97b	0.0074092722
68	0x3bc71296	0.0060752137
69	0x3c27036d	0.010193688
70	0x3b962b67	0.0045828107
71	0x3c0f6ca5	0.00875393
72	0x3c7d9f74	0.015479911
73	0x3c23c3ff	0.00999546
74	0x3c54d614	0.012990493
75	0xb93d1f61	-0.00018036134
76	0xb9395ad6	-0.00017676814
77	0x3a96aacb	0.0011494992
78	0xbb51699d	-0.003195382
79	0x3c268a18	0.01016476
80	0x3c46b2a6	0.012127554
81	0x3b967ccb	0.004592513
82	0x3b38458b	0.0028117623
83	0x3a0a104e	0.0005266712
84	0x3b7afe75	0.003829864
85	0x3b8c20cd	0.004276371
86	0x3bca5964	0.006175207
87	0x3c6b176e	0.014348848
88	0x3bc362d3	0.0059627085
89	0x3c0df951	0.008665399
90	0xbad02ff2	-0.001588343
91	0x3c3c36da	0.011487687
92	0x3bcc51b2	0.006235325
93	0xbc3a62c1	-0.011376084
94	0x3c058325	0.008148943
95	0x3c28513f	0.010273277
96	0x3c15d71d	0.009145525
97	0x3c5cab54	0.013468582
98	0x3ab5f250	0.0013881419
99	0x3c24c4eb	0.0100567145
100	0x3c594534	0.013261128
101	0xba34bbdd	-0.0006894449
102	0x3c1ac87f	0.009447216
103	0x3b70afea	0.0036725947
104	0x3817b454	3.616915e-05
105	0x3b8123c9	0.0039410335
106	0x3b2f7cbb	0.0026777226
107	0xba08b9f6	-0.00052156986
108	0x3bbd9434	0.0057854895
109	0x3c1f860a	0.009736547
110	0x3a538d57	0.00080700725
111	0x3c1d968f	0.0096184155
112	0x3bbf5190	0.0058385804
113	0x3ba3c92d	0.0049983473
114	0x3c145e59	0.009055697
115	0x3c0d763f	0.008634149
116	0x3bab7ab3	0.0052331327
117	0xbb8b1425	-0.004244345
118	0x3bf3a320	0.0074352175
119	0x3c132877	0.008981816
120	0x3bd9f386	0.0066513447
121	0x3c24eb82	0.010065915
122	0x3c153f86	0.009109383
123	0x3bf3894b	0.007432138
124	0x3c0f063c	0.008729514
125	0x3c434fde	0.011920897
126	0x3c3a1f3e	0.011359988
127	0x3c0f2217	0.008736155
128	0x3c4137b6	0.011793068
129	0x3af39841	0.0018584804
130	0x3bfe54f9	0.0077615944
131	0xbbef9886	-0.0073118834
132	0xbba25464	-0.004953908
133	0xbb986324	-0.0046504904
134	0x3c2cb182	0.010540368
135	0x3c2274aa	0.00991551
136	0x3bb8411f	0.0056229974
137	0x3c14a1eb	0.009071807
138	0x39fbbf3d	0.00048016934
139	0x3c4ac71f	0.012376576
140	0xbb052fab	-0.0020322602
141	0x3bf5c67c	0.007500468

network_body._body_endoder.seq_layers.2.weight f4 [142, 142]
0	0x3d67bfd3	0.056579422
1	0x3c19531f	0.0093581965
2	0x3dd4b8ce	0.10386811
3	0xbdc5a0d1	-0.09649814
4	0xbdebc978	-0.115130365
5	0xbd5ae6b2	-0.053442664
6	0x3d5e6355	0.05429395
7	0xbbc05699	-0.0058696982
8	0xbd9ec0cd	-0.077516176
9	0xbd02e73b	-0.0319588
10	0xbd4ca2bf	-0.049959894
11	0xbe0e32ec	-0.13886613
12	0x3cfbeab9	0.030751573
13	0x3adf46b4	0.0017034621
14	0x3d895ef0	0.06707561
15	0xbd45f8b2	-0.048332877
16	0x3caf519a	0.021401215
17	0x3e2a7c65	0.16649015
18	0x3dfdbb05	0.12389187
19	0x3d650a9e	0.05591833
20	0xbca689d4	-0.020329393
21	0xbda65fbe	-0.0812373
22	0xbe141d56	-0.14464316
23	0xbbe7ff9d	-0.007080032
24	0xbdddac16	-0.108238384
25	0x3cbc1b35	0.022962192
26	0xbdf0f03c	-0.11764571
27	0xbd91d0cf	-0.07119905
28	0x3ccf3748	0.025294915
29	0x3d538f4f	0.05165034
30	0x3d7da513	0.061925005
31	0x3c3ee462	0.01165113
32	0xbd125fd4	-0.03573592
33	0xbd0876d1	-0.033316437
34	0xbe82e265	-0.2556335
35	0x3c8ca458	0.017168209
36	0x3daf1f66	0.08550911
37	0xbd5e6817	-0.054298487
38	0xbc88de41	-0.016707541
39	0xbd7d1d30	-0.061795413
40	0x3df0900e	0.11746226
41	0xbe25ea92	-0.16202763
42	0x3bce3e4e	0.0062940484
43	0xbda511d3	-0.0806004
44	0xbdf06c2c	-0.11739382
45	0x3ce46301	0.02787924
46	0x3d08f89b	0.033440214
47	0xbdff1724	-0.124555856
48	0x3d3571fe	0.044298165
49	0x3d90404a	0.07043512
50	0x3d140625	0.036138672
51	0x3d52b003	0.05143739
52	0x3d401765	0.04689731
53	0x3d1ddc58	0.038540214
54	0x3d9022d9	0.07037897
55	0xbdd27a16	-0.10277192
56	0x3d50021f	0.050783273
57	0x3dc6c18c	0.09704885
58	0xbcd3f36e	-0.025872912
59	0x3dd7af44	0.10531476
60	0x3d6378f9	0.05553529
61	0x3d5b8f39	0.053603385
62	0xbdd4124b	-0.103550516
63	0xbd6b1f35	-0.05740281
64	0x3dd07182	0.101779
65	0xbd8f8b71	-0.07009018
66	0x3cadd564	0.021219917
67	0x3e2b537f	0.1673107
68	0xbd2111ea	-0.039323725
69	0xbe00c9dc	-0.12577003
70	0x3cc2c98a	0.023777742
71	0x3e2a0557	0.166036
72	0xbe065fe1	-0.13122512
73	0xbcc58672	-0.02411196
74	0x3da44c5e	0.080223784
75	0x3ada08bf	0.0016634687
76	0x3c8a089b	0.016849807
77	0x3e9f05dc	0.31059158
78	0x3d9a1248	0.07523018
79	0x3e08887e	0.13333318
80	0xbdf7b1c8	-0.12094456
81	0xbda67da8	-0.08129436
82	0xbe2cfc2a	-0.16893068
83	0xbca0392a	-0.019558508
84	0x3dfbea9b	0.12300607
85	0xbcb57c2d	-0.022153938
86	0xbd4cfff1	-0.050048772
87	0xbd967ed0	-0.07348406
88	0x3d154aba	0.036448218
89	0x3e01a0b5	0.12658961
90	0x3d120beb	0.035655897
91	0x3d4cf3c3	0.050037157
92	0xbde94603	-0.11390307
93	0x3df87511	0.12131704
94	0xbd1eadce	-0.03873997
95	0xbd769270	-0.060198247
96	0x3d00574f	0.031333264
97	0x3e159250	0.14606595
98	0x3db69726	0.08915548
99	0x3db6c695	0.08924595
100	0x3ceb307a	0.028709639
101	0xbc71bf1b	-0.014755036
102	0x3e5a4a1b	0.21317331
103	0x3e072192	0.131964
104	0x3dd97be0	0.106193304
105	0xbcbf0757	-0.02331893
106	0x3cfb3e91	0.030669482
107	0xbd5ff12d	-0.054673363
108	0x3d6854a1	0.056721333
109	0x3dfcfcb7	0.12352889
110	0x3c527723	0.012845787
111	0x3cd8abf8	0.026449189
112	0x3da03b7a	0.07823844
113	0x3c9ce634	0.019152738
114	0x3da039d8	0.07823533
115	0x3c9a2c12	0.018819842
116	0x3cf1d241	0.029519202
117	0x3d344bcd	0.0440176
118	0xbdb78251	-0.08960403
119	0xbd00736e	-0.031360082
120	0x3cd97cd5	0.026548782
121	0xbd5f9d9a	-0.05459366
122	0x3e2b6f3e	0.16741654
123	0x3d0ac4ff	0.033879276
124	0x3dc06c00	0.09395599
125	0xbdfa0f7b	-0.12209984
126	0x3c83ce3a	0.016089547
127	0x3dd5d505	0.10441021
128	0x3e201ae0	0.15635252
129	0xbd803dcc	-0.06261787
130	0x3dc0167f	0.09379291
131	0xbe1740fd	-0.14770885
132	0x3e0404e4	0.1289249
133	0x3cdb407a	0.026764143
134	0xbdfb4025	-0.12268094
135	0xbd0ec785	-0.034858245
136	0xbc2f2248	-0.010689326
137	0x3d20849d	0.03918897
138	0x3e00c589	0.12575354
139	0xbc9b8eea	-0.018989045
140	0xbd6caccf	-0.05778199
141	0x3c8bcbef	0.017065017
142	0xbd212234	-0.03933926
143	0xbd18b3eb	-0.03728096
144	0xbdb3956e	-0.08768736
145	0x3d9fdac4	0.07805398
146	0x3d8dddf5	0.069271006
147	0xbde10b28	-0.10988456
148	0xbb5c461a	-0.003361112
149	0x3d975c37	0.073906355
150	0x3af31134	0.0018544556
151	0xbc4a80c0	-0.012359798
152	0x3d60b9ba	0.054864623
153	0x3c120e75	0.00891458
154	0xbcc78a89	-0.02435805
155	0x3d2a85d5	0.04163154
156	0xbddc6c46	-0.10762839
157	0x3d625f44	0.055266634
158	0xba2ee203	-0.00066712516
159	0xbd48dea5	-0.049040455
160	0x3d8fed84	0.070277244
161	0x3dcbf3f0	0.09958637
162	0xbc338cf8	-0.010958903
163	0x3dd8a685	0.10578636
164	0xbb14321a	-0.002261287
165	0x3d1af821	0.03783429
166	0x3d778608	0.060430557
167	0x3e5bec9c	0.21476978
168	0xbd188699	-0.037237737
169	0xbde51790	-0.11186135
170	0x3cafe784	0.0214727
171	0x3cb47349	0.022027628
172	0xbd2caab0	-0.042154968
173	0x3dc5337a	0.09628959
174	0xbe314148	-0.17310059
175	0xbd24dc51	-0.040249173
176	0x3dfee129	0.1244529
177	0x3db016c1	0.0859809
178	0xbe315118	-0.17316091
179	0xbe4c5e5a	-0.19957867
180	0xbde2e0ea	-0.11078055
181	0xbda5ae2f	-0.080898635
182	0x3d222e68	0.039595038
183	0x3d62cbfc	0.055370316
184	0xbd8c9434	-0.06864205
185	0x3d8512b5	0.06497709
186	0x3bfa8a9a	0.007645917
187	0xbd051d25	-0.032498498
188	0x3d770482	0.060307033
189	0xbd805666	-0.06266479
190	0x3d054c7f	0.032543655
191	0x3d0e4d10	0.03474146
192	0xbdc90689	-0.098156996
193	0xbd747d2b	-0.059689682
194	0xbdd0a2f8	-0.10187334
195	0x3db936e0	0.0904367
196	0xbd883ffd	-0.0665283
197	0x3b2645be	0.002537116
198	0xbd38ad74	-0.045087293
199	0xbd864ed2	-0.065580025
200	0x3d1561ef	0.03647035
201	0x3dc6f122	0.09713961
202	0x3d6e8cc7	0.058239724
203	0x3dc3e1ce	0.09564553
204	0x3c146681	0.009057642
205	0xbdb6408d	-0.08899031
206	0xbe1c7753	-0.15279894
207	0xbc5896f6	-0.013219586
208	0x3d73c26d	0.05951159
209	0x3ca1f8df	0.019771991
210	0x3bd33838	0.006445911
211	0xbd57e937	-0.052712645
212	0xbd945764	-0.07243231
213	0x3d28c998	0.04120788
214	0xbd563281	-0.052294258
215	0xbc22db02	-0.009939911
216	0x3d4473f5	0.047962148
217	0xbde9c113	-0.11413779
218	0x3d53f071	0.051742975
219	0x3d381488	0.044941455
220	0xbcc8950d	-0.024485135
221	0x3d9e4a84	0.077290565
222	0x3df948a0	0.12172055
223	0xba0d40d5	-0.0005388384
224	0xbd7a2c22	-0.061077245
225	0xbd027271	-0.03184742
226	0x3d4f9e08	0.05068782
227	0x3da9e188	0.0829497
228	0x3e07d3ec	0.13264436
229	0x3c8d8821	0.017276825
230	0x3d153fe8	0.0364379
231	0x3e94df63	0.2907668
232	0x3a521937	0.00080146216
233	0x3d918855	0.071060814
234	0xbde1d800	-0.11027527
235	0xbe032b92	-0.1280959
236	0x3d191e37	0.03738233
237	0x3d299769	0.04140416
238	0xbdb8a38b	-0.09015568
239	0x3e4639cc	0.19357985
240	0xbdabbd7a	-0.08385749
241	0x3cb279ef	0.021786658
242	0xbbf8b742	-0.0075902054
243	0x3e05b6e1	0.13058044
244	0xbd69674e	-0.056983285
245	0x3ded1cc5	0.11577753
246	0x3da3689a	0.079789355
247	0xbd0bea50	-0.034159005
248	0x3e43b30c	0.1911127
249	0xbdcf9877	-0.10136502
250	0xbddb4682	-0.10706808
251	0x3b24a6ff	0.0025123951
252	0x3c5afe1d	0.013366249
253	0x3cc59a62	0.024121467
254	0xbd0e0e66	-0.0346817
255	0x3cc561dd	0.024094516

network_body._body_endoder.seq_layers.2.bias f4 [142]
0	0x3c190e6b	0.009341816
1	0x3bbce228	0.0057642646
2	0x3c1c20a6	0.009529268
3	0xbb04e58f	-0.002027843
4	0x3b8c592f	0.0042830925
5	0x3b96562e	0.00458791
6	0x3c0a2dbf	0.008433758
7	0x3bd6ffae	0.006561241
8	0x3c3b3059	0.011425101
9	0xbb2c6c0f	-0.0026309525
10	0x3c1392bb	0.009007151
11	0x3c104d0f	0.008807435
12	0x3c085e15	0.008323212
13	0x3c17412e	0.009231849
14	0x3b1fa3a5	0.0024359014
15	0x3bf8ad5d	0.007589026
16	0x3b8f1b59	0.0043672738
17	0x3bf0aec3	0.007345052
18	0x3bd4180b	0.0064725927
19	0x3bebd9d5	0.0071975985
20	0x3c1dc955	0.009630521
21	0xbb83f179	-0.0040265885
22	0x3badae0f	0.0053002904
23	0x3c0b60ec	0.008506995
24	0x3c2c7ea1	0.010528238
25	0xbb46d140	-0.0030337125
26	0x3c0c911b	0.008579518
27	0x3a0e150e	0.00054200075
28	0x3b73bbd2	0.0037190807
29	0x3b9f06e9	0.0048531187
30	0x3bef32c8	0.007299755
31	0xbaa1c3e0	-0.00123417
32	0x3c154db3	0.009112763
33	0x3c053667	0.008130646
34	0x3bd5c67a	0.0065239044
35	0x3b2a2c49	0.0025966337
36	0xbc0193a1	-0.007908733
37	0x3bb1ec10	0.005429752
38	0x3b40e2fe	0.0029432173
39	0x3a984e2e	0.0011619979
40	0x3befc4a3	0.007317142
41	0x3aaf23d2	0.0013362116
42	0x3c0bf31f	0.008541851
43	0x3c0909b4	0.00836413
44	0x3c0cbba5	0.00858966
45	0x3a858d71	0.0010189248
46	0xbacf0ed0	-0.0015797261
47	0x3c5f8b0f	0.013643994
48	0x3bd5fdd8	0.0065305047
49	0x3c16269c	0.009164479
50	0x3bea61f7	0.0071527916
51	0x3c253c63	0.010085198
52	0x3c15753b	0.009122188
53	0x3a5ed84f	0.00085008604
54	0x3837b59f	4.3799748e-05
55	0x3bf5d9ab	0.0075027547
56	0x3bfe313d	0.0077573345
57	0x3c29e881	0.010370375
58	0x3b1faab6	0.0024363226
59	0x3b7c8a03	0.003853441
60	0x3c25c106	0.010116821
61	0x3b8ac5c4	0.0042350013
62	0x3c2443d4	0.010025937
63	0x3c04b4c7	0.008099741
64	0x3c0b4202	0.008499624
65	0x39a826c7	0.00032072348
66	0x3b88deda	0.0041769566
67	0x3c52879a	0.012849713
68	0x3ae94148	0.0017795945
69	0x3ba5ec64	0.0050635803
70	0x3805d7dc	3.1910706e-05
71	0x3beb003b	0.0071716583
72	0x3c3340b2	0.0109407175
73	0x3bc2ec64	0.00594859
74	0x3bc47f8a	0.005996649
75	0x3c010366	0.007874345
76	0x3c25caba	0.010119135
77	0x3c1a9ee5	0.0094372975
78	0x3b988ff0	0.0046558306
79	0x3bdffb69	0.0068353903
80	0x3bcacf2e	0.0061892485
81	0x3a622b88	0.00086277025
82	0x3c494527	0.012284554
83	0x3b8ab7e5	0.0042333477
84	0x3bc3f607	0.0059802565
85	0x3c5ff143	0.013668361
86	0x3bb805bd	0.0056159184
87	0x3c08c1dc	0.008347001
88	0xbbf85820	-0.0075788647
89	0x3c48a9e6	0.012247538
90	0x3b1c5b8a	0.0023858272
91	0x3b5977b3	0.0033182919
92	0x3c0f3ee2	0.00874302
93	0x3bd2d47e	0.0064340224
94	0x3bb96d11	0.0056587537
95	0x3bc0ed75	0.005887682
96	0x3c3c0349	0.011475393
97	0x3bf0bd7a	0.007346806
98	0x3c33e001	0.0109787
99	0xbb739976	-0.0037170327
100	0xb9c9c3b2	-0.00038483512
101	0x3b811abf	0.003939956
102	0x3bf94eb8	0.007608261
103	0x3b5ddb10	0.0033852495
104	0x3c10b718	0.008832715
105	0x3bdacec2	0.0066774795
106	0x3c0a7fcf	0.0084533235
107	0x3c050fe8	0.008121468
108	0x3c5df259	0.01354655
109	0x3c371226	0.0111737605
110	0x3c2d1fbd	0.010566649
111	0x3c038045	0.008026187
112	0x3b19cb85	0.0023467254
113	0x3b85bb49	0.004081164
114	0x3c12f0f1	0.008968578
115	0x3c0cb49c	0.0085879825
116	0x3bd9ede2	0.0066506723
117	0x3bc63c67	0.006049681
118	0x3ac281ad	0.0014839672
119	0x3ab5a67e	0.0013858823
120	0x3bade510	0.0053068474
121	0x3bdb6c5e	0.006696268
122	0x3a89890c	0.0010493114
123	0x3c5386fe	0.012910603
124	0x3abf8760	0.0014612488
125	0x3c03e398	0.008049868
126	0x3b7ffb5d	0.0039059736
127	0x3b6cafda	0.0036115558
128	0x3b979281	0.004625619
129	0x3bbf4e6a	0.005838205
130	0x3c0efdb2	0.008727478
131	0x3bca6399	0.0061764237
132	0x3b35c67a	0.002773671
133	0x3bda7d36	0.0066677583
134	0x3c025043	0.007953706
135	0x3b63b2b6	0.0034743971
136	0x3ba954d7	0.0051675844
137	0x3bc3d949	0.00597683
138	0x3becfe2c	0.007232448
139	0xbaced375	-0.0015779572
140	0x3bf102f5	0.007355089
141	0x3b96ec3b	0.0046057976

action_model._discrete_distribution.branches.0.weight f4 [13, 142]
0	0x3bc219b3	0.0059234737
1	0x3b9562ab	0.0045588813
2	0xbc2291bb	-0.00992244
3	0xbc3acd6e	-0.011401517
4	0x3b3127c2	0.0027031754
5	0xbaa3f18d	-0.0012507901
6	0x3c2f2f9e	0.010692505
7	0xbc5dbf6f	-0.013534411
8	0x3aaec7db	0.0013334708
9	0x3c9c2bc6	0.019063842
10	0xbc9018b3	-0.017589903
11	0xbb8e665d	-0.0043456987
12	0xbc0d6e73	-0.00863229
13	0xb974b9fd	-0.0002333894
14	0x3b183e97	0.0023230666
15	0xbbb061ee	-0.005382768
16	0x3c140ae1	0.009035797
17	0xbac2ceba	-0.0014862635
18	0xbb1fe639	-0.0024398698
19	0xb8b03c1f	-8.4035324e-05
20	0xb9bbdc6c	-0.00035831647
21	0x3c1b3880	0.00947392
22	0x3af9f9d4	0.0019071647
23	0xbc8004e9	-0.015627341
24	0x3c7ea6c1	0.015542687
25	0x3c3399e3	0.010961982
26	0xbb2844f9	-0.0025675877
27	0x3b660cf1	0.0035102929
28	0x3b0fe3d4	0.0021955865
29	0x3c3cf4eb	0.011533002
30	0x3bd9472d	0.0066307993
31	0xbc4145c8	-0.011796422
32	0xbcbf0b9d	-0.023320967
33	0x3b8993b9	0.004198518
34	0x3a698b0c	0.0008908964
35	0xbc2993d5	-0.010350187
36	0x3ca165be	0.019701835
37	0x3ba1721d	0.0049269334
38	0xbaf701cc	-0.001884514
39	0xba4aec69	-0.00077409163
40	0xbbe29228	-0.006914396
41	0x3c767ed2	0.015044885
42	0xbbf1010d	-0.0073548616
43	0x3a4d8f01	0.00078414386
44	0xbc79637e	-0.015221475
45	0xb99a75df	-0.0002946099
46	0x3ba46414	0.005016813
47	0x3c7609db	0.015016998
48	0xbb302c14	-0.0026881741
49	0xbaef072a	-0.0018236388
50	0xbca4fd82	-0.020140413
51	0x3ba89f7e	0.005145966
52	0xbca7cced	-0.020483458
53	0xbc583d8d	-0.013198269
54	0x3c1c5b8f	0.009543314
55	0xbc7e2efd	-0.015514133
56	0xbc2f9750	-0.010717228
57	0xbc73c6a9	-0.014878907
58	0xba9d2a15	-0.0011990691
59	0xbbb87211	-0.005628832
60	0x3c3e7dce	0.011626674
61	0x3b5ffeb2	0.003417891
62	0xbb84d270	-0.0040534064
63	0xbbee59f2	-0.007273906
64	0x3bc3bb93	0.0059732883
65	0x3abd1578	0.0014425954
66	0x3a7bd0dc	0.00096060126
67	0xbb50aad8	-0.0031840112
68	0x3ba0d1c1	0.004907817
69	0x3b8be293	0.004268953
70	0x3c0264eb	0.007958631
71	0x3b997ae4	0.004683839
72	0xba81eb79	-0.0009912095
73	0xbc79f534	-0.015256215
74	0xbc4f59ed	-0.012655717
75	0xbb8375ac	-0.0040118303
76	0xbbe3bcc2	-0.006949992
77	0xbc10a0ba	-0.008827383
78	0xba0bce84	-0.00053332024
79	0x3ca11e28	0.0196677
80	0x3bdf8716	0.0068215234
81	0xbb6eedc4	-0.0036457637
82	0xbc0bcab3	-0.008532214
83	0x3c6a41c1	0.0142979035
84	0xbc055e93	-0.008140224
85	0xbb575117	-0.003285473
86	0xbc123f18	-0.008926176
87	0x3b9f8621	0.0048682843
88	0x3cb5282a	0.022113878
89	0x39baebd9	0.00035652405
90	0xbc482dae	-0.012217922
91	0x3b1fe6e9	0.0024399108
92	0xbad2ce0f	-0.0016083139
93	0xbc58ad5f	-0.013224929
94	0xbc7ecdac	-0.015551966
95	0x3a88b068	0.001042855
96	0x3b1bd68e	0.0023779008
97	0xbb1a3bfb	-0.0023534286
98	0x3bf6a215	0.007526646
99	0x3ab110fb	0.0013509089
100	0x3c93a266	0.018021774
101	0xbc68fde1	-0.014220686
102	0xbc98f66d	-0.018672192
103	0x3ba1b08d	0.0049343766
104	0xb81c0717	-3.71999e-05
105	0x3b78e218	0.003797656
106	0xbbe3daa4	-0.006953554
107	0xbb773045	-0.003771798
108	0x3b97813b	0.00462356
109	0xbb13f1e2	-0.0022574593
110	0xbbe07713	-0.0068501323
111	0xbbb3ee82	-0.005491079
112	0xbbafade8	-0.0053613074
113	0xbc2a0293	-0.01037659
114	0x3c0410dc	0.00806066
115	0xbc569d3f	-0.013099014
116	0xbbd1c96f	-0.0064021866
117	0xbc3b4bd4	-0.011431653
118	0x3ad8e002	0.0016546252
119	0x3c1c8654	0.009553511
120	0xbc7bb6d5	-0.015363415
121	0xbcb017ed	-0.021495784
122	0xbb0d7aa5	-0.0021587994
123	0x3caeafff	0.021324156
124	0x3b8ce2f1	0.0042995145
125	0xbbe86797	-0.007092427
126	0x3c78d7ad	0.01518814
127	0x3b41f21f	0.0029593778
128	0x3c1b43ca	0.009476611
129	0xbc4c5729	-0.0124719525
130	0x3c1c24a5	0.009530221
131	0x3c621067	0.013797856
132	0xbc09b8e8	-0.0084059015
133	0xb6e267c0	-6.747403e-06
134	0x3b54f3f8	0.003249405
135	0xbbe2d13b	-0.006921915
136	0xbc210bf4	-0.00982951
137	0xbb0d70d3	-0.002158214
138	0xbc558329	-0.013031759
139	0xbb48c41f	-0.0030634475
140	0xbbcf579d	-0.006327583
141	0xbc0ad8a8	-0.008474506
142	0x3c388300	0.011261702
143	0xbcac0354	-0.02099768
144	0xbc0f1cb0	-0.008734867
145	0x3c043a22	0.008070501
146	0xbc92c15e	-0.01791447
147	0xbb52ec4f	-0.0032184308
148	0xbc70ecf0	-0.014704928
149	0x3cc10552	0.023562107
150	0xb8d150f3	-9.9809746e-05
151	0x3c4232f7	0.011852971
152	0xbc812883	-0.015766388
153	0xbc392251	-0.011299686
154	0xbad5effb	-0.001632213
155	0xba0d3909	-0.0005387222
156	0xbb302c9a	-0.0026882053
157	0x3c39ed85	0.011348133
158	0x3be6de95	0.007045577
159	0x3b9413ae	0.0045189476
160	0xbbd0b427	-0.006369132
161	0x3bb5ae0d	0.00554443
162	0xbc29826b	-0.0103460355
163	0xbc9dbf5f	-0.019256292
164	0x3c03cfa7	0.008045114
165	0xba760610	-0.00093850587
166	0xbaf6eeed	-0.0018839516
167	0x3c574193	0.013138193
168	0x3b104cbd	0.0022018396
169	0x3aaa353a	0.0012985833
170	0x3c0a7e46	0.0084529575
171	0xbba336c9	-0.004980896
172	0xbb1645b6	-0.0022929735
173	0xbc92c3ff	-0.017915724
174	0x3af98aca	0.0019038555
175	0xbbb1efc4	-0.0054301936
176	0xbc3e5c1b	-0.011618639
177	0xbb311d73	-0.002702561
178	0xbc03b695	-0.008039136
179	0x3aa7ba41	0.0012796597
180	0x3cac5037	0.021034343
181	0x3c088980	0.008333564
182	0xbb166caa	-0.0022952952
183	0x3c9a473b	0.018832793
184	0xbb47d79c	-0.0030493503
185	0xbb72e4a5	-0.0037062552
186	0x3c05b62e	0.008161111
187	0x3b85dae9	0.004084934
188	0x3cc2e389	0.023790138
189	0x3b874137	0.0041276473
190	0xbb1a101c	-0.0023508137
191	0xbbc9f65c	-0.0061634015
192	0x3a5cd1d9	0.0008423604
193	0xbc1c7840	-0.009550154
194	0xbbc18491	-0.0059056957
195	0xbc5416cb	-0.012944887
196	0x3c4a2ee2	0.012340279
197	0x3b48b40a	0.003062489
198	0xbbfd0759	-0.007721823
199	0xbc64c20f	-0.013962283
200	0x3acb63c6	0.0015517406
201	0xb97169da	-0.00023022984
202	0xbc41a161	-0.011818261
203	0xbc03b52c	-0.0080388
204	0xb895482c	-7.118317e-05
205	0xbc70b488	-0.0146914795
206	0x39c93f19	0.0003838472
207	0xbb4d87d4	-0.0031361477
208	0x3c198298	0.009369515
209	0x3b36e685	0.0027908396
210	0x3b36d87c	0.002790003
211	0x3c0fcdc1	0.008777083
212	0x3b692b0f	0.0035578643
213	0x3b6d82df	0.0036241335
214	0xbc0052e2	-0.007832261
215	0xbc5911ce	-0.013248874
216	0x3bdc0bde	0.006715282
217	0x3b3f3d61	0.0029180872
218	0xbb930343	-0.004486473
219	0xb9ea698a	-0.0004471059
220	0xbc3d6c4b	-0.011561464
221	0xbb3ddbed	-0.0028970197
222	0xbb6fbf81	-0.003658265
223	0x3c086205	0.008324151
224	0xbb26fe95	-0.0025481333
225	0x3c6f831c	0.014618661
226	0xbb1f5f89	-0.0024318418
227	0xba8adf68	-0.0010595145
228	0x3aeb98af	0.001797458
229	0xbadd1860	-0.0016868226
230	0xbb3983f5	-0.0028307412
231	0xbc1904da	-0.009339536
232	0x3bd3a47d	0.0064588175
233	0xbc825684	-0.015910394
234	0xbabc6693	-0.0014373831
235	0xbcc6871f	-0.024234353
236	0xbc2c821b	-0.010529066
237	0x3be41b07	0.0069612297
238	0x3b0699fb	0.0020538557
239	0xbc0b4052	-0.008499222
240	0x3b98c9c2	0.0046627233
241	0x3b0ff38d	0.0021965236
242	0xbc426544	-0.011864964
243	0xbc36d79a	-0.011159802
244	0xbc7d6489	-0.015465864
245	0xbc8520d9	-0.016251015
246	0x3bef60b3	0.0073052286
247	0xbc3a23a5	-0.011361037
248	0x3c4df64e	0.012570931
249	0x3c5f3c4a	0.013625214
250	0xbb85c67a	-0.004082498
251	0xbbf2f8ae	-0.007414899
252	0x3ba06427	0.0048947516
253	0xbc640a91	-0.013918535
254	0xbb9bc014	-0.004753122
255	0x3bb37537	0.0054766196

action_model._discrete_distribution.branches.0.bias f4 [13]
0	0xbbe5716d	-0.007002047
1	0xbbc96278	-0.0061457716
2	0x3b9902dd	0.004669531
3	0x3b70eda6	0.0036762743
4	0x3b16ff66	0.0023040413
5	0xba2c7ab3	-0.0006579563
6	0xbad2674d	-0.0016052515
7	0xbb86b7aa	-0.00411125
8	0x3a96f797	0.0011517879
9	0x3a68ece4	0.0008885397
10	0x3b989c68	0.004657317
11	0x3ba06ef7	0.0048960405
12	0xbbbcf4d2	-0.0057664895

action_model._discrete_distribution.branches.1.weight f4 [13, 142]
0	0x3b3bed64	0.0028675431
1	0x3bcc8217	0.006241094
2	0x3c78e073	0.015190232
3	0xbacbd2a4	-0.0015550447
4	0xbbc23b4e	-0.00592748
5	0x3a292042	0.0006451645
6	0xbbe8e485	-0.00710732
7	0x3ad903d7	0.001655693
8	0xbae33d52	-0.0017337
9	0x3c927dce	0.017882254
10	0x3c85a285	0.016312847
11	0x3b526f7f	0.0032109914
12	0x3aff2a2a	0.0019467522
13	0xbc335071	-0.010944472
14	0x3c0fc39c	0.008774664
15	0x3c7229d8	0.014780484
16	0xbbd09d27	-0.0063663903
17	0xbb6a5a5d	-0.0035759427
18	0x3b8174d2	0.0039506936
19	0x3ad1114b	0.0015950588
20	0x3bcf5254	0.006326953
21	0xbcb5ad33	-0.022177314
22	0x3c55fda4	0.013060961
23	0x3c4dcddd	0.012561289
24	0xba38876b	-0.0007039222
25	0xbbd53847	-0.006506953
26	0xbcaa53f6	-0.020791989
27	0x3c1a9dea	0.009437064
28	0x3b953ed2	0.004554608
29	0x3c893af0	0.016751736
30	0x3c7270fb	0.014797444
31	0x3af056d4	0.0018336424
32	0xbaf4f072	-0.0018687381
33	0x3c74359b	0.014905359
34	0xbb152f5a	-0.002276382
35	0xbb9f6b18	-0.0048650615
36	0x3b6ea5ae	0.003641467
37	0xb9816783	-0.0002468192
38	0xbb9dc143	-0.0048142984
39	0x3c2df78c	0.010618102
40	0xbc186334	-0.009300996
41	0x3afe0e9a	0.0019383014
42	0x3a267b76	0.00063507946
43	0x3c6b5430	0.014363334
44	0xbb91fc6c	-0.00445514
45	0xbb99d91e	-0.004695072
46	0x3c84c4a9	0.016207056
47	0x3b420a13	0.0029608055
48	0xbc57a1d8	-0.013161145
49	0xbc694123	-0.014236721
50	0x3c820f53	0.015876448
51	0x3c0a204f	0.0084305545
52	0x3b672b4c	0.003527361
53	0x3c38fd10	0.011290804
54	0x3c5b7342	0.013394179
55	0xbbb88d88	-0.005632106
56	0xbbd4dc80	-0.006496012
57	0x3bae51c8	0.0053198077
58	0xbbefc4a8	-0.0073171444
59	0x3bb4d9d2	0.0055191303
60	0xbc0ed7a6	-0.008718407
61	0xbbb7ef24	-0.0056132246
62	0xbc37c8dc	-0.011217322
63	0xbbb093eb	-0.005388727
64	0xbcad9e29	-0.02119358
65	0x3b8496ce	0.0040462976
66	0xbc24368b	-0.01002277
67	0xbb1c7438	-0.0023872983
68	0xbc057c56	-0.00814732
69	0x3ca83179	0.020531403
70	0xbb214652	-0.0024608565
71	0x3afc57e8	0.0019252272
72	0xbc1cfcc8	-0.009581752
73	0xbbaa15d4	-0.0051905904
74	0x3c10a554	0.00882848
75	0xbbe43dd0	-0.0069653764
76	0x3abe51d2	0.0014520234
77	0x3b6cfad7	0.0036160254
78	0xbabd6734	-0.0014450313
79	0x3ad50fb0	0.0016255286
80	0x3c4616b6	0.012090376
81	0xbb8985d0	-0.00419686
82	0xbbb93529	-0.005652089
83	0xbb90e472	-0.004421764
84	0xbc8009ef	-0.015629737
85	0xba913fe9	-0.0011081669
86	0xbb075875	-0.002065209
87	0xbb92c6c1	-0.0044792597
88	0xbb4288c2	-0.0029683565
89	0xba88f1a0	-0.0010447986
90	0x3abb61ba	0.0014296093
91	0xbc0f7b6f	-0.008757456
92	0x3c024f40	0.007953465
93	0xb9e1c485	-0.00043061763
94	0xb8d592a4	-0.000101839454
95	0xbc47a862	-0.012186142
96	0xbbf883cd	-0.0075840713
97	0x3b78cc33	0.003796351
98	0x3c3604eb	0.011109571
99	0x3ad8c878	0.0016539237
100	0xbbddece3	-0.006772624
101	0xbc0719f6	-0.008245936
102	0xbb17f669	-0.0023187643
103	0xbc7472bf	-0.014919936
104	0xbbba58f9	-0.005686876
105	0x3b8960bc	0.00419244
106	0xbb25c16c	-0.002529229
107	0x3c6c4e58	0.0144229755
108	0x3c543ebe	0.012954412
109	0x3c2acca7	0.0104247695
110	0xbaef5b9b	-0.0018261553
111	0xbb9a4d1d	-0.0047088997
112	0xbbfc16de	-0.0076931557
113	0xbacbdeae	-0.0015554035
114	0xbbc0c6d2	-0.005883076
115	0x3c049975	0.008093228
116	0xbb22048c	-0.0024721948
117	0xbb3f27ba	-0.0029167966
118	0xbbb1a4be	-0.00542125
119	0xbb0e8e7a	-0.0021752403
120	0x3c2e9f2b	0.010658066
121	0x3c8d62d6	0.017259043
122	0xbb814005	-0.0039443993
123	0xbb3836cf	-0.002810884
124	0xbc645ca5	-0.013938104
125	0x3af10910	0.0018389542
126	0x3c598360	0.013275951
127	0xbb88d13a	-0.0041753324
128	0xbb2458f9	-0.0025077446
129	0xba5be1b3	-0.0008387819
130	0x3b311743	0.0027021922
131	0xbc262c3d	-0.010142383
132	0xbad4d06e	-0.0016236433
133	0x3a4f6ead	0.00079129153
134	0x3c0095d6	0.007848224
135	0xbc09cc03	-0.008410457
136	0x3a18f080	0.0005834177
137	0xbbbe5c80	-0.0058093667
138	0xba36dfc8	-0.0006976095
139	0x3a1ec56c	0.000605664
140	0x3beddf4f	0.0072592865
141	0xbb64eb0b	-0.0034930136
142	0x3c56fc04	0.013121609
143	0xbc51a4ad	-0.012795609
144	0xbc83de84	-0.016097315
145	0x3cb3880c	0.021915458
146	0xbbe19190	-0.0068838075
147	0xbc8a2de8	-0.016867593
148	0x3b775fab	0.0037746232
149	0x3c2512fa	0.010075325
150	0xbc760227	-0.015015162
151	0xbc2ff2e5	-0.010739063
152	0xba58ee00	-0.0008275211
153	0xbc05a3bd	-0.008156714
154	0xbcad8945	-0.02118362
155	0x3ca3884b	0.01996245
156	0xbc1c620b	-0.00954486
157	0x3b81fe4f	0.0039670835
158	0x3bcc5447	0.0062356326
159	0xbc892e8d	-0.01674583
160	0xbc1d4332	-0.00959854
161	0x3c04e818	0.008111976
162	0xbc4a10c2	-0.012333097
163	0xbc57a309	-0.013161429
164	0x3c93801c	0.018005423
165	0xbc567293	-0.01308884
166	0x3baad71b	0.005213631
167	0x3a5c8c8c	0.0008413277
168	0xbb72102b	-0.0036935906
169	0xbc85bf79	-0.016326653
170	0x3b691837	0.0035567412
171	0xbc0e2743	-0.008676353
172	0x3bae8136	0.0053254617
173	0x3bda0af9	0.00665414
174	0xbb0c70be	-0.0021429504
175	0xbc1e79de	-0.00967261
176	0xbbff633c	-0.007793812
177	0xba917f9b	-0.0011100651
178	0x3b11f93e	0.0022273804
179	0x3b9bf93d	0.004759936
180	0x3c7d3525	0.015454565
181	0x3b43c5fe	0.0029872651
182	0x3af43ed9	0.0018634453
183	0x3cd24539	0.025667774
184	0xbcb195e7	-0.021677924
185	0xbac8951d	-0.0015303228
186	0xbcbfc14f	-0.023407606
187	0x3d05afc3	0.032638323
188	0x3b1dd1cd	0.002408135
189	0xbc334b8e	-0.010943307
190	0xba9d702c	-0.0012011579
191	0x3b8ff191	0.0043928106
192	0xbb64c5d3	-0.0034907951
193	0x3bba1026	0.0056781946
194	0xbc27f51c	-0.01025131
195	0xbc0099a1	-0.007849128
196	0xbc8bf7b4	-0.017085887
197	0xbb3f9aeb	-0.0029236625
198	0xbc2ee3a5	-0.010674392
199	0xbcaab2f5	-0.020837286
200	0xbc6afcc7	-0.014342493
201	0xba0ff034	-0.000549081
202	0xbb8d51ab	-0.004312714
203	0xb9b98c54	-0.00035390502
204	0xbc9d7be7	-0.01922412
205	0xbc3e47aa	-0.011613766
206	0x3c1636fb	0.009168382
207	0xbbe4a5d6	-0.006977777
208	0xbc5acb63	-0.013354155
209	0xbc1f45d4	-0.009721238
210	0x3bfa4989	0.0076381606
211	0xbb22dda0	-0.0024851337
212	0x3c1ac8e3	0.009447309
213	0x382da556	4.1400395e-05
214	0xbcbb50f4	-0.02286575
215	0x3bfd0538	0.0077215694
216	0xba1c7e1a	-0.00059697183
217	0x3c03272c	0.008004945
218	0xba01fbe8	-0.00049584964
219	0x3c37687e	0.0111943465
220	0xbc2400ff	-0.010010003
221	0xbc424ea0	-0.011859566
222	0xbbb91617	-0.0056483853
223	0x3cb775a2	0.022394959
224	0xbc033de0	-0.008010358
225	0xbba00d6f	-0.004884414
226	0x3b345a47	0.002751963
227	0xbc0aac6a	-0.008463958
228	0xbc8871fd	-0.016655916
229	0xbb914883	-0.004433693
230	0x3b84acd8	0.004048925
231	0xbc2faef8	-0.010722868
232	0xbc1c1933	-0.009527492
233	0x3c563015	0.013072987
234	0xbc44665e	-0.011987297
235	0x3c576042	0.013145508
236	0xbc6f67af	-0.014612122
237	0x3b0ce683	0.00214997
238	0xbb9a087b	-0.004700718
239	0xbb7a910b	-0.0038233425
240	0xbc729a1e	-0.014807252
241	0x3c8064fb	0.015673151
242	0x3bbf4ff1	0.005838387
243	0x3a0ac45f	0.0005293544
244	0xba3e008c	-0.00072480063
245	0x3c85e0f6	0.016342621
246	0xbc89efa2	-0.016837899
247	0x38a612c2	7.918991e-05
248	0xbcb6bcb9	-0.022306787
249	0xbb1cfe11	-0.0023955146
250	0xbc4ac8fc	-0.01237702
251	0xbc4e0feb	-0.012577037
252	0xbbc7cf76	-0.0060977293
253	0xbb9a425b	-0.004707617
254	0x3c47f81a	0.012205148
255	0xbc9983b3	-0.018739557

action_model._discrete_distribution.branches.1.bias f4 [13]
0	0x3b4bb639	0.0031083955
1	0xbc22a9fb	-0.009928222
2	0xbb00dc61	-0.0019662606
3	0xbbd66af3	-0.006543511
4	0xbb4a0500	-0.0030825734
5	0xbaa0cab4	-0.0012267441
6	0x3b81af66	0.0039576767
7	0x39e8e3e6	0.00044420286
8	0xba82f9a7	-0.0009992615
9	0xba91e5de	-0.0011131128
10	0x3bdeee31	0.006803297
11	0x3bde84f6	0.0067907525
12	0xbaf5b2c2	-0.001874529

action_model._discrete_distribution.branches.2.weight f4 [13, 142]
0	0x3b4b1dae	0.0030993032
1	0x3b914d11	0.004434236
2	0xbc05d570	-0.008168563
3	0x3c3e94f2	0.011632191
4	0xbc179483	-0.009251717
5	0xbc5dbc5b	-0.013533677
6	0x3b1a5010	0.0023546256
7	0x39a8cfd7	0.0003219831
8	0x3c6987f0	0.014253601
9	0x3c40fba0	0.011778742
10	0xbc240a13	-0.0100121675
11	0x3b5f67ca	0.0034088963
12	0xbc104cd5	-0.008807381
13	0x3c64aaa3	0.013956699
14	0xbba9dd36	-0.005183841
15	0x3b553d6f	0.0032537838
16	0xbc63b7fc	-0.013898846
17	0x3c26248c	0.010140549
18	0xbb365fa6	-0.0027828007
19	0xbc0d210f	-0.008613839
20	0x3ba00f32	0.004884624
21	0x3bfe3951	0.0077582975
22	0x3b45092b	0.003006528
23	0xbc4403aa	-0.011963764
24	0xbc7243de	-0.014786689
25	0xbafa101a	-0.0019078285
26	0x3b36f827	0.0027918906
27	0x3a8f24af	0.0010920967
28	0x3c7d9292	0.01547684
29	0xbb464b19	-0.0030257164
30	0x3c18c433	0.009324121
31	0xb9c3996d	-0.0003730761
32	0x3c4f937a	0.0126694385
33	0x3c134a56	0.008989891
34	0xbc56aa0e	-0.013102068
35	0x3b76e54e	0.0037673297
36	0xbad4688e	-0.0016205476
37	0x3bf12ccd	0.007360077
38	0xbc8a5427	-0.01688583
39	0x39cfc2d9	0.0003962729
40	0x3c4e5cb0	0.012595341
41	0x3d1208f5	0.035653073
42	0x3b48fdd2	0.0030668867
43	0xbb265fa3	-0.0025386594
44	0x3b29bef5	0.0025901173
45	0xbb95ebfb	-0.00457525
46	0x3c1731d3	0.009228188
47	0xbbede73e	-0.007260232
48	0x3b8756fe	0.0041302433
49	0x3b93ed71	0.004514389
50	0x3bf18356	0.007370393
51	0x3c5193df	0.012791603
52	0x3c5425b5	0.012948443
53	0xba15270b	-0.0005689717
54	0xbbe93873	-0.007117325
55	0xbc23ce64	-0.009997938
56	0xbad88989	-0.0016520481
57	0xbad45a72	-0.0016201271
58	0xba87aaa8	-0.0010350542
59	0x3c1f072f	0.009706303
60	0xbc4e6c7b	-0.012599106
61	0xbc2bba7b	-0.010481472
62	0xbbda019a	-0.006653023
63	0x3c11784b	0.008878778
64	0x3c2ea358	0.010659061
65	0xbaa12a27	-0.0012295888
66	0xbb5431d6	-0.0032378337
67	0xbbe80116	-0.0070802076
68	0x3a382d0b	0.0007025755
69	0xbb8fd8df	-0.0043898667
70	0x39e95b51	0.0004450926
71	0x3bd3a9a0	0.00645943
72	0x3b30979c	0.0026945835
73	0xbba44a15	-0.005013714
74	0x3bbaf736	0.0057057394
75	0xbc4d467e	-0.012529014
76	0xbb113dd2	-0.0022162092
77	0x3c5eb7a9	0.013593593
78	0xbafe3791	-0.0019395222
79	0x3bf18d9b	0.007371617
80	0x3c1d29c7	0.00959248
81	0x3b8d416e	0.0043107783
82	0xbc0c2206	-0.008553034
83	0x3b5a1dd7	0.0033281946
84	0xbb34153f	-0.0027478484
85	0xbc20df1b	-0.0098188175
86	0x3c16f2d1	0.009213165
87	0xbb08e926	-0.002089092
88	0xbba131de	-0.0049192747
89	0xbb01c083	-0.0019798584
90	0xbc790bc5	-0.01520056
91	0xbb7ed7c1	-0.0038885924
92	0xbb8d3b21	-0.004310027
93	0x3bf51578	0.007479366
94	0x3bfe0fa1	0.007753328
95	0x3c388249	0.011261531
96	0xbbdd274b	-0.006749069
97	0xbbda865a	-0.006668848
98	0x3b4624a0	0.0030234233
99	0x3c2ea933	0.010660457
100	0xb9acbf10	-0.0003294875
101	0x3b7a3f1d	0.003818459
102	0x3b1fcabc	0.0024382314
103	0x3c3fc87b	0.011705513
104	0x3a0161ee	0.0004935552
105	0xbb267593	-0.002539967
106	0x3b0cc7b1	0.002148133
107	0x3bf1b37a	0.0073761316
108	0xbbbc5b44	-0.0057481844
109	0xba614cde	-0.0008594523
110	0x3acb28ab	0.0015499791
111	0xbbfc696e	-0.007702998
112	0x3b09ed7e	0.0021046097
113	0xb96974ec	-0.00022264168
114	0x3c801ae3	0.01563782
115	0x3c95485d	0.018222982
116	0xbc01cc33	-0.00792222
117	0x3ad12e8c	0.0015959307
118	0x3c629195	0.013828655
119	0x3ae2519f	0.0017266757
120	0x3c85a91b	0.016315987
121	0x3c4e658b	0.012597452
122	0xbc82d86e	-0.015972342
123	0x3bb45110	0.0055028275
124	0x3c271b9c	0.010199454
125	0x3c3627ba	0.01111787
126	0x3b5044f8	0.003177939
127	0xbc8a2e5f	-0.016867815
128	0xbc2e2ebd	-0.01063126
129	0x3a34519d	0.00068786164
130	0xbc1fa5c8	-0.009744115
131	0xbc477abd	-0.012175259
132	0x3b486bdf	0.0030581874
133	0xbc68f4a3	-0.014218482
134	0x3bb141fc	0.0054094773
135	0x3be61294	0.0070212577
136	0xbba0489e	-0.004891469
137	0x3ca4b4eb	0.0201058
138	0x3c1dc770	0.009630069
139	0x3c2c9bd0	0.0105351955
140	0x3b169010	0.0022974052
141	0xba390765	-0.0007058292
142	0xbc69890e	-0.014253868
143	0x3c11638f	0.008873834
144	0x3c3634dd	0.011121002
145	0xbc279528	-0.010228433
146	0x3c6bc70b	0.014390717
147	0x3c183f8e	0.009292496
148	0xbb69fe85	-0.0035704684
149	0x3bf5f7c5	0.007506343
150	0x3c27bd1c	0.010237958
151	0x3c97b622	0.018519465
152	0x3cd3646b	0.025804719
153	0xbae850a0	-0.0017724223
154	0x3ba28a89	0.0049603623
155	0xbc03133c	-0.008000191
156	0x3b4b2cd9	0.0031002073
157	0xbc3e83e6	-0.011628127
158	0x3c059c11	0.008154885
159	0x3c0c521c	0.008564498
160	0x3c04b0d8	0.008098803
161	0xbb1a9cd1	-0.0023592005
162	0xbc29a8e1	-0.010355205
163	0xba7c4333	-0.00096230506
164	0x3c35e4ce	0.011101915
165	0x3b04e2ab	0.0020276706
166	0xbb6bf34a	-0.0036003166
167	0xbc194301	-0.009354354
168	0x3bc200e7	0.0059205177
169	0xbc417774	-0.011808265
170	0x3c4ab034	0.012371112
171	0x3b9197e8	0.0044431575
172	0xbca6c587	-0.02035786
173	0x3bd083de	0.006363376
174	0xbc0e6e82	-0.008693339
175	0x3a3ec82e	0.0007277754
176	0xbbe84b4b	-0.0070890537
177	0xbb2dd060	-0.0026521906
178	0x3b80066d	0.003907016
179	0xbc138c7b	-0.009005661
180	0xbb895f39	-0.0041922596
181	0xbc630ec0	-0.013858497
182	0x3c8f6bf8	0.017507538
183	0xbb64c1f7	-0.003490565
184	0x3ba2f7b7	0.0049733776
185	0x3b2c76ef	0.0026316007
186	0x3c819196	0.015816491
187	0xbac4376d	-0.0014970131
188	0x3c83f023	0.016105717
189	0x3c598a35	0.01327758
190	0xbc9940b6	-0.018707614
191	0xbab73f62	-0.0013980682
192	0x3c270073	0.010192978
193	0x3c8afc46	0.016965996
194	0x3c82598a	0.015911836
195	0xbbe1823c	-0.00688198
196	0xbc5708e4	-0.013124678
197	0xbb93efda	-0.0045146765
198	0xbb2730cc	-0.0025511263
199	0x3c224e27	0.009906328
200	0x3b46def7	0.00303453
201	0xbab79a97	-0.0014007863
202	0x3bfaeed0	0.007657863
203	0xbbebdbe1	-0.0071978425
204	0x3a9a877f	0.0011789649
205	0x3c2b4fe6	0.010456061
206	0x3c663d6b	0.014052729
207	0xbb9457ae	-0.004527054
208	0xbbc5f3a2	-0.006041006
209	0x3c8f732c	0.017510973
210	0x3b94213e	0.0045205643
211	0x3ac61dc5	0.0015115073
212	0x3c750f1e	0.0149572175
213	0x3b225b83	0.0024773784
214	0x3c1ef33e	0.009701548
215	0xba94c8f2	-0.001135139
216	0x39e1cdad	0.00043068585
217	0x3c2cb611	0.010541455
218	0x3b62356e	0.003451671
219	0x3b2d63d8	0.0026457217
220	0xbbfbf50b	-0.0076891235
221	0x3b94f6ad	0.0045460076
222	0x3aecffc5	0.0018081596
223	0xb9fa3380	-0.00047722086
224	0x3bcdfdac	0.0062863436
225	0xbb4e5c8c	-0.0031488268
226	0xbc19abb2	-0.009379314
227	0x3a37bd5d	0.00070091133
228	0x39a4684d	0.00031358228
229	0xbac3559c	-0.0014902833
230	0x3c345b1f	0.011008053
231	0x3c741c70	0.014899358
232	0xbc0ca271	-0.008583651
233	0xb99a1e44	-0.0002939572
234	0xbbcb9d98	-0.006213855
235	0xbb965c9b	-0.004588676
236	0x3a776afa	0.0009438243
237	0x3be03b0a	0.0068429755
238	0x3ad0ace4	0.0015920666
239	0xba4953a8	-0.0007680007
240	0xbb579456	-0.0032894812
241	0x3ca6c55d	0.020357782
242	0xbbc1640e	-0.00590182
243	0xbc9486ce	-0.018130686
244	0x3b35dcf7	0.0027750114
245	0xbb305cd3	-0.0026910796
246	0xb98d87fa	-0.00026994926
247	0xbbe5d4e5	-0.0070139044
248	0x3bbdb8b5	0.005789841
249	0xbc792f58	-0.015209042
250	0x3c524f27	0.012836254
251	0x3c9bc611	0.019015344
252	0xbbd243d4	-0.006416777
253	0x3b82cf02	0.0039919624
254	0x3c4f9b95	0.012671371
255	0x3bd5c4d2	0.006523707

action_model._discrete_distribution.branches.2.bias f4 [13]
0	0x3aae4285	0.0013294971
1	0xbb2f4c8c	-0.0026748506
2	0x3a7bef0c	0.0009610511
3	0xbbb32ad6	-0.005467753
4	0x3aedd83e	0.001814611
5	0xbade9430	-0.0016981419
6	0x3a9426b9	0.0011303044
7	0xbc04332c	-0.008068841
8	0x3be6d963	0.0070449575
9	0x3b9e11c8	0.004823897
10	0xbb5a346a	-0.0033295401
11	0x3a49fb64	0.00077050016
12	0xbb2c8e2e	-0.0026329863
