results/NewTwoAgentsFullBoardAction/WhiteMLAgent/WhiteMLAgent-36208.onnx (onnx, 681198 bytes, 133 tensors)

discrete_act_size_vector f4 [1, 64]
00000000: 0000 5041 0000 5041 0000 5041 0000 5041
00000010: 0000 5041 0000 5041 0000 5041 0000 5041
00000020: 0000 5041 0000 5041 0000 5041 0000 5041
00000030: 0000 5041 0000 5041 0000 5041 0000 5041
00000040: 0000 5041 0000 5041 0000 5041 0000 5041
00000050: 0000 5041 0000 5041 0000 5041 0000 5041
00000060: 0000 5041 0000 5041 0000 5041 0000 5041
00000070: 0000 5041 0000 5041 0000 5041 0000 5041
00000080: 0000 5041 0000 5041 0000 5041 0000 5041
00000090: 0000 5041 0000 5041 0000 5041 0000 5041
000000a0: 0000 5041 0000 5041 0000 5041 0000 5041
000000b0: 0000 5041 0000 5041 0000 5041 0000 5041
000000c0: 0000 5041 0000 5041 0000 5041 0000 5041
000000d0: 0000 5041 0000 5041 0000 5041 0000 5041
000000e0: 0000 5041 0000 5041 0000 5041 0000 5041
000000f0: 0000 5041 0000 5041 0000 5041 0000 5041
13.0 13.0 13.0 13.0 13.0 13.0 13.0 13.0
13.0 13.0 13.0 13.0 13.0 13.0 13.0 13.0
13.0 13.0 13.0 13.0 13.0 13.0 13.0 13.0
13.0 13.0 13.0 13.0 13.0 13.0 13.0 13.0
13.0 13.0 13.0 13.0 13.0 13.0 13.0 13.0
13.0 13.0 13.0 13.0 13.0 13.0 13.0 13.0
13.0 13.0 13.0 13.0 13.0 13.0 13.0 13.0
13.0 13.0 13.0 13.0 13.0 13.0 13.0 13.0

network_body._body_endoder.seq_layers.0.weight f4 [142, 71]
00000000: bb3d 4cbd bac8 663d 47e8 db3d f9c8 c2bd
00000010: 42e7 6bbd a662 73be 1265 b33d 0388 88bd
00000020: 23e5 fbbc 1020 cf3d 5cf7 fc3d cd0f 36be
00000030: 00e7 e23d e490 f0bd dc33 cfbd db6e d5bd
00000040: 5467 b93c 5768 99bd dd5b 92bd f609 503c
00000050: dabc 08bd 8f55 71bd b789 013e 783d e03c
00000060: b847 8e3d 64d5 903c 571d a93d 093e 8f3d
00000070: c023 a8bd a761 ed3d b106 95bd 571a 753c
00000080: a1cb 863d 9257 b7bd 04c5 22be ece0 1dbc
00000090: ed0d b0bd 7171 263d 3f8b 6bbd 4671 4b3c
000000a0: d2ac 333d 0d74 e33d 1c09 dbbd 39c8 003e
000000b0: b897 3c3d f016 6cbd ec19 5cbe eebd 6bbe
000000c0: b1e3 55be 2025 ec3d 3f6f 983e 3873 05bd
000000d0: 0751 f03c aa37 c9be fd55 42bc ca5c a53d
000000e0: 2ddb 193d 82b5 98bd a8b7 673d 8003 6b3d
000000f0: c676 dcbb 1cc4 d6bc 277b 5dbc 021a 0dbe
00000100: 22aa e23c 6292 96bd db36 993d 74a5 ed3c
00000110: f395 43bc 6014 1c3d 3380 bdbc 24b6 1d3e
00000120: 3e3f 89bd 5ef0 da3d 90ec 5b3d 04ab b63e
00000130: 17b6 813e d66d 883d feee da3d 667e 643c
00000140: 0908 c2bd 42b7 6abc 2d06 9f3e 9e69 3a3c
00000150: 881a ca3d 0449 9abd 2f84 27bd 48fe 5e3e
00000160: a9b6 39bb a1c7 043e 389e 1e3e 6e63 bc3d
00000170: f8ec 093d 3146 81bb 5622 9f3c d974 78be
00000180: 5f01 80bc 97a0 56bd b0a6 8f3d e51a 5ebe
00000190: 39a1 943a 0533 2b3c c2a5 7fbd 725f 043e
000001a0: c182 63bd 8745 17be fd2c 863d af63 59be
000001b0: c383 103e 2b71 0abb 962b cbbc 696e e0bd
000001c0: 67cb 1c3e 8281 df3d 7a74 003e 34c1 913c
000001d0: 8c40 15be 7a51 19bc 2d15 f13d e9d0 e03c
000001e0: 8424 063d 8595 6a3d 483b 9fbd d43e 01be
000001f0: 3ba6 a63d 8fbf a7bb 3c64 28be 0e94 31be
00000200: 8198 ae3d fd0c 99be b65f 70be a266 1b3e
00000210: 63a0 63bd 6e03 71bd a606 a43d d6d4 8ebd
00000220: dfb5 023e 2e4c ac3d e6de 903d de1b 763d
00000230: e902 6ebe 4485 383d 9a98 633d 531d a0bd
00000240: f257 3fbe acfd 99bd 14b5 b1bd 3f1e dfbc
00000250: 4e00 123e 990f 26be 86f3 ed3c a44e 34be
00000260: c1d5 d4bd 3321 bdbd c46d 2b3e 342c 473e
00000270: a602 d5bc 838e 693b 7caf 1a3d a961 793e
00000280: 721f 343e fb85 c3bd c3a5 363e 3916 b3bd
00000290: 3510 1b3e e7b7 1d3e dac4 4e3c 6af0 03bc
000002a0: 7c7c 0d3e 7d6e 91bd a241 d2bc cf9c f8bd
000002b0: ac33 84bd 39fc 583e 2952 82bd 2ada 90bd
000002c0: 5344 283e 3754 a6bc 78e1 b9bd 46ed 0abe
000002d0: f65d 043e c8ea e03a 75f4 fb3c 0fc2 bf3d
000002e0: 9bdd 71be c809 82be 54e7 143e 969f 383c
000002f0: 7411 ccbc 5eda 8ebe 3a72 c4bd 2b42 1abc
00000300: 6818 bebd 96b4 f43c d916 d33c 5fff 2ebe
00000310: 4ab1 313d 076d c43c bf1b c03e 045a 3b3d
00000320: 9bfe dbbd bb3f 01bd f84d 9fbc 8aca 13be
00000330: dd64 0ebe bf09 bfbd 571a 80bd 29bc c73d
00000340: 2ff2 3dbd c58b f0bd a5a4 173e cec5 8fbb
00000350: b4a5 5d3c ad7b 163d c5f3 18be 59b7 6bbe
00000360: f8b8 f33c 4708 89bd 06a9 e83d e066 903a
00000370: 9b30 20bc 07a3 a23d a397 e4bd fbf7 a7bd
00000380: 7091 c43e 79d7 37be 7d5e 95bd ee14 713e
00000390: b270 373d 74a9 9bbe b141 66be 466b 423d
000003a0: 9a70 6dbd 7c0e bdbd a443 883d 8551 b33d
000003b0: bd41 473b 0911 5e3c f586 b0bd a706 2cbe
000003c0: 08ad 50be 7499 b7bb 9892 b0bc b272 7dbd
000003d0: fe78 c3bd 356c 6aba 66d9 75bd 78fa 9a3d
000003e0: 24d7 f1bd ac66 adbd 0df4 3bbe 3720 8abd
000003f0: 3a56 59be e0e0 47bc 001b 413d 858a db3d
-0.04986356 0.05634377 0.10737663 -0.09510989 -0.05759359 -0.237681 0.08759512 -0.06666567
-0.03074891 0.10113537 0.123518676 -0.17779465 0.11079216 -0.11746386 -0.10117313 -0.10421535
0.022632279 -0.07490604 -0.07146428 0.012697687 -0.033383228 -0.058919486 0.1265019 0.02737306
0.06947273 0.017679878 0.08257549 0.06994254 -0.08209944 0.11590891 -0.07276667 0.014959893
0.06581808 -0.089522496 -0.15895468 -0.009636145 -0.08596406 0.04063553 -0.057505842 0.012417143
0.043865986 0.11106119 -0.10695097 0.12576379 0.046043128 -0.057639062 -0.21494263 -0.23021671
-0.20887639 0.115305185 0.29772374 -0.032580584 0.029335512 -0.3930028 -0.0118613215 0.08074339
0.037562538 -0.07456495 0.056571633 0.057376385 -0.006728026 -0.02621656 -0.013518131 -0.13779452
0.027669016 -0.07352139 0.07481166 0.029009558 -0.011937606 0.03810537 -0.02313242 0.15401512
-0.067015156 0.10690378 0.0536924 0.3567735 0.25334236 0.066615745 0.106901154 0.013946151
-0.09474189 -0.014325919 0.310594 0.01137772 0.09868342 -0.07533458 -0.040897544 0.21776688
-0.0028337634 0.12966777 0.15490043 0.09198652 0.033673257 -0.003945135 0.019425552 -0.24263324
-0.015625654 -0.052399244 0.07014215 -0.21689947 0.0011339552 0.010449176 -0.06241394 0.12927034
-0.05554462 -0.14772616 0.065515496 -0.21229433 0.14112763 -0.0021124582 -0.024801057 -0.10958559
0.15311967 0.109133735 0.12544432 0.017792322 -0.14575404 -0.009357804 0.11771617 0.027443366
0.032749668 0.0572715 -0.07774979 -0.12621623 0.08137175 -0.005119271 -0.16444486 -0.17341635
0.085251816 -0.29892722 -0.23474011 0.1517587 -0.05557288 -0.05884116 0.080090806 -0.06974189
0.12764691 0.084129676 0.070737645 0.06008517 -0.23243298 0.045048967 0.055565454 -0.07818093
-0.18685892 -0.07519087 -0.08677116 -0.027236102 0.14257929 -0.16216888 0.029046785 -0.17608124
-0.10392333 -0.09234848 0.16741091 0.19450456 -0.02600224 0.0035637922 0.03776501 0.2435366
0.1759012 -0.09547039 0.1783667 -0.08744473 0.15142901 0.15402184 0.012620175 -0.008052925
0.13817018 -0.07101152 -0.025666062 -0.12139284 -0.06455168 0.21189965 -0.06363327 -0.070728615
0.16432314 -0.020303829 -0.09076208 -0.13567075 0.12926468 0.0017159814 0.030756215 0.093631856
-0.23619692 -0.25398088 0.1454137 0.011268517 -0.024910666 -0.27900976 -0.095920995 -0.00941519
-0.09281999 0.029871266 0.02576773 -0.17089604 0.043381967 0.02397777 0.3752117 0.045740142
-0.107419215 -0.03155492 -0.019446358 -0.14432731 -0.13905664 -0.09328031 -0.06255024 0.097526856
-0.046373542 -0.11745409 0.148089 -0.004387594 0.013528276 0.03673904 -0.1493674 -0.2301916
0.029751286 -0.06691032 0.11360364 0.0011016987 -0.009777213 0.07941251 -0.11161735 -0.082015954
0.3839221 -0.1795329 -0.07293413 0.2354314 0.04478521 -0.3040272 -0.22485997 0.047465585
-0.057968713 -0.09231278 0.066535264 0.08755783 0.0030404173 0.013553866 -0.08619491 -0.16799413
-0.20378506 -0.00560301 -0.021554276 -0.06187696 -0.09544562 -0.00089425157 -0.06002178 0.075673044
-0.11808613 -0.08466849 -0.18354817 -0.06744426 -0.21224299 -0.0121996105 0.04714489 0.1071978

network_body._body_endoder.seq_layers.0.bias f4 [142]
00000000: 7834 6fbb afdd 0a3b 2cac 56bb ce6c 54bb
00000010: 0978 1bbc 1388 abbb 08de 1c3a 66e8 07bb
00000020: f255 37bc fb1f 20bc 812f 95bb d174 5abb
00000030: cfbc 6fba 518d 1cbb 248b 683a 6411 01bc
00000040: 2f05 ec3b e525 003c 79c8 6e3b bff5 a33b
00000050: 847d 07bc 4b54 29bc 7569 b13a 2c8d 8fbb
00000060: c69c a3bb 617d 3b3a 5e7b f83a a9d0 c9bb
00000070: c56a 023b 13d1 b2bb 8cc1 7c3b ee33 faba
00000080: 28b1 a5bb bf6d 1cbb 2b52 12bc fc3f 52ba
00000090: 6d61 b9ba 7f7b abbb f096 9f3b d0d7 12bc
000000a0: f1b7 403a f81b 7ebb 1525 003a 2898 a53b
000000b0: 8395 03ba ff95 773a 6734 46bc f0d0 213c
000000c0: fc4f 19bb feed 28bc 4526 37bc 3ac5 7dbb
000000d0: 4c4e feba d1bf 063b 239b c9bb 5f3d 1bbc
000000e0: 1cf0 92bb e801 72bb c6c7 deba a7c3 20bb
000000f0: 1719 02bc 05dc 3bbc 144d 58bb fc83 693b
00000100: 6429 0a3c bdd1 b4bb 2800 0039 7b0a e4bb
00000110: 0d11 da3b 46f7 92bb 309f 9cbb 0d15 88ba
00000120: 58d9 a33b f942 7dbb 9100 33bb fc1b 34bc
00000130: d234 09bc cf9f 85bb 5e76 d7bb eb08 f1bb
00000140: 93f7 05bc a054 11ba a329 103b cb92 dbbb
00000150: 10f1 073c 180e 193b ab57 4dba af81 29bc
00000160: 7767 37bb 69fb 50bb ac0f a03b 2426 2d3c
00000170: b8b5 69b9 e3be bd3b c129 6f3c a8bc 5dbc
00000180: 9e26 fdba 87e2 cfbb bb44 10bc b2cd d7ba
00000190: 76d9 89ba 3a32 ce3b ae85 febb dc16 e8bb
000001a0: 1c3c 0b3b e011 073a 06f8 823b d5ba 49bb
000001b0: a314 43bb 43c8 153a bdbe 3bbc d6ca 22bb
000001c0: f7d3 dd39 a59d 73bb 776c 2ebb 50c3 483b
000001d0: f403 183a fb67 7aba fce6 73bb 640d 47bb
000001e0: 0dd8 2c3b 7613 caba aa51 fabb efa8 02bb
000001f0: 7496 873c 0549 0dbc 8e46 6cbb 1091 2dbc
00000200: 30d3 5ebb 203a cdbb ca60 bdbb 4b4a dc3b
00000210: c0c3 ba3a 6011 7a3b c572 e8bb 449b bd3b
00000220: 3cff 0cbc bda8 303a fe41 663b ad07 ac39
00000230: e9e1 03bc 8047 103b
-0.003649978 0.0021189263 -0.003275643 -0.0032413485 -0.009489068 -0.005234727 0.0005984013 -0.0020737885
-0.011189925 -0.00977325 -0.004552782 -0.0033333788 -0.0009145261 -0.0023887942 0.0008870831 -0.007877681
0.0072027664 0.007821535 0.003643541 0.0050036605 -0.008269671 -0.010335038 0.0013535457 -0.0043808427
-0.004993054 0.0007152167 0.0018957665 -0.0061589074 0.0019900065 -0.0054570525 0.0038567511 -0.0019088963
-0.005056519 -0.0023869125 -0.008930723 -0.00080203987 -0.0014143415 -0.0052332277 0.004870288 -0.0089625865
0.0007351628 -0.0038773995 0.0004888338 0.005053539 -0.00050195324 0.00094446534 -0.012097455 0.009876475
-0.0023393622 -0.010310648 -0.011178558 -0.0038722293 -0.0019401996 0.0020561109 -0.006152527 -0.009475081
-0.0044841897 -0.0036927406 -0.0016996793 -0.002453068 -0.007940552 -0.011466031 -0.0033004927 0.0035631647
0.00843272 -0.005518167 0.0001220709 -0.006959257 0.0066548646 -0.0044850437 -0.004779719 -0.001038225
0.0050002746 -0.0038644655 -0.002731357 -0.010993 -0.00837441 -0.0040778886 -0.0065753898 -0.0073557994
-0.008176702 -0.0005543921 0.0021997474 -0.0067008487 0.00829722 0.0023354348 -0.0007833193 -0.01034586
-0.0027985254 -0.0031888133 0.0048846807 0.010568175 -0.00022288307 0.0057905777 0.014597357 -0.013533749
-0.0019313877 -0.006344143 -0.008805449 -0.00164645 -0.0010517079 0.0062926086 -0.0077674007 -0.007082803
0.0021245545 0.0005152505 0.003996852 -0.0030781527 -0.002976694 0.000571374 -0.01145905 -0.0024840138
0.0004231033 -0.003717282 -0.0026614943 0.0030633993 0.0005798929 -0.00095522375 -0.0037216535 -0.0030372972
0.0026373893 -0.0015417177 -0.0076391296 -0.0019937118 0.016551234 -0.008623366 -0.0036052796 -0.010593668
-0.003400039 -0.0062630326 -0.0057793604 0.0067227236 0.0014249012 0.003815733 -0.0070937597 0.0057863314
-0.0086057745 0.0006739011 0.003513455 0.00032812115 -0.008049467 0.0022015274

network_body._body_endoder.seq_layers.2.weight f4 [142, 142]
00000000: 11c9 c5bc 5d67 a8bd e498 fd3d cb47 5abd
00000010: 7af8 aebb d3f7 09be d761 13be a63d 4abd
00000020: 3755 7a3d 7d97 2c3d 2b90 a63c 3aa1 383e
00000030: d540 ac3d b666 bebd cb37 9a3c 40d7 8eba
00000040: e4aa 0b3e bb7d 34bd 317b fe3d d69b e8bd
00000050: 3f48 24be 4984 82bd d65e 04bd d552 9bbd
00000060: e721 873c 0c59 4abe 6063 b13d dc24 88bd
00000070: 9203 003d 3d1d 5a3c 5c30 373e b969 d6bd
00000080: 100b 4dbd 2938 d4bc 5fa1 eb3d 5a9a 27be
00000090: 9354 23be 6915 f0bb 4aac edbd d659 6dbd
000000a0: d632 a0be 9d99 ed3d 7c9e d73d 87d5 70bc
000000b0: 08fa 8e3c b0c9 593d 3954 6dbd 5bd0 ddbb
000000c0: 8657 de3d c2e0 963d b9bd 30bd 8337 acbd
000000d0: 3a80 143e 11c7 a2bd 57a6 1bbd ddea aebd
000000e0: 8387 9dbd df96 fbbc fc39 113e a715 73bd
000000f0: 68db a03d c515 bcbd 8a8c acbd 392f b1bd
00000100: 7cb9 33bd 718f c4bd 79e4 fe3c 5e36 fbbd
00000110: 041c a3bd a179 3a3d d943 53bd 9521 3ebe
00000120: 4493 cfbc 2c63 0a3e 88d1 b2b9 9d1b b53c
00000130: 0f4b 54be 91f3 18bd b695 ffbc c0d0 b83c
00000140: a181 45bd 2c88 a43d 1731 2bbd 1eb5 67bd
00000150: 92d5 c6bd cb90 9bbd 863d 633b 2dd2 a6bd
00000160: e7d4 39bd fc1c 2a3d 64c3 b2bd bee6 4d3d
00000170: 0d9c c13c c924 6639 e34a 39bd cb1f c3bc
00000180: 4012 103d 2215 353d 8fe7 a13c ad65 c1bd
00000190: 4b8e f33d 561c 2e3d d3ff 31bb a245 2dbe
000001a0: 0ab6 31be 26e6 bc3d 20fe d8bc 2ae2 1dbd
000001b0: d77c 123d 9735 15bd 37e2 54bd 4950 b9bd
000001c0: 4144 06bd 93e8 3abc f22f 9fbd 5587 1cbe
000001d0: a878 ac3d 132b 18bb d47e 293e cfb8 56bd
000001e0: 6757 02bd 36c7 debd 9923 57bd 94d9 063e
000001f0: f3cc 1b3d 6573 2dbd e8b7 843d bf29 7ebc
00000200: a2f9 f13b 66b3 0ebd 49f2 263c 9326 11bd
00000210: 16fd fb3d fc6d 633d 4df2 24be 6348 b3bd
00000220: 3cdd a9bd e612 833c fe05 c2bd 61c3 a1bd
00000230: 0ca6 d23d 7719 fe3b d06e 5ebd 62bd 3a3e
00000240: e71e 383d 1b62 07bd e24b 253e a51b 733d
00000250: 9053 8fbd aa2b d0bd bdd7 90bb d0f3 c5bd
00000260: cb21 9dbd 71c1 fcbd 0356 27bd ab6e 343c
00000270: e7bb 6ebe 54ec 763b e013 463d 04c0 b3bd
00000280: 9a53 c3bd 41e0 58bd ea3d a3bc 2803 7ebd
00000290: dac0 a33d 8a0f 20bc 045a dcbd b138 59bd
000002a0: 0010 9cbc 18bb 103e 89de 583d ee39 87bd
000002b0: 3874 27bc 7069 03bd 604d a53d b6b8 d6bd
000002c0: 820e 02bd 1056 ba3d 5693 2d3d fbd7 093d
000002d0: 6b0d 15bd 1acd d0bc 2e49 7fbd 2bf1 8ebd
000002e0: 1b72 cf3d c7a3 acbd 0dcd 713b 4307 c9bd
000002f0: 961a bebd 011f 613d e449 fd3c 75ff 0c3d
00000300: 7b79 92bd 4128 e13d f35d 463d f1ce d1bd
00000310: 9658 1d3c 85d7 5cbd 047f e93d 5a32 63bc
00000320: 3bac 0a3c e386 55bd 34c3 82bc 9086 bbbd
00000330: 9e83 6bbd b672 15bd 5533 6f3d c920 28bc
00000340: e8a9 e33c ac9c 063e 5773 843d 5316 523d
00000350: 4d14 83bc ea51 143d f565 283e c766 70bc
00000360: f70f bcbd 3a62 c1bd ad9b 4b3c fc8c 3cba
00000370: cc7a 223d 731c 45bc 03a5 3b3c 5913 81bb
00000380: 7d32 ec3d ffd0 e23d 7762 0fbd 4cf0 c03c
00000390: 7fa1 a8bc 2711 9cbc 3dbc 9b3b 963a b0bc
000003a0: 3ec3 983d 2433 413e ee99 783d d5be 283c
000003b0: 19d0 153d 1a35 9d3c b927 4abe 3516 133e
000003c0: 3adb 59bd 5096 b73d 0525 c43c 8e0e 753d
000003d0: bd91 433a 70e7 3e3c b311 233c 1770 76bd
000003e0: d780 053e 030d 673d 165e 363d efeb 92bc
000003f0: be58 afbd a4e1 ecbd b310 5bbd ab80 94bd
-0.024143727 -0.0822284 0.12382677 -0.053291123 -0.0053396793 -0.13473444 -0.14392792 -0.0493752
0.061116423 0.042136658 0.020332417 0.18030253 0.08410803 -0.09296934 0.018825432 -0.001089789
0.13639408 -0.04406522 0.12425841 -0.11357848 -0.16043185 -0.06372888 -0.032317005 -0.07584158
0.016495658 -0.19760531 0.086615324 -0.06647655 0.031253405 0.013312635 0.17889541 -0.10469384
-0.05005938 -0.025905685 0.115053885 -0.16367474 -0.15950231 -0.007326771 -0.11605127 -0.057947002
-0.31288785 0.11601565 0.10528275 -0.014699346 0.017453209 0.05317086 -0.05794165 -0.0067692227
0.108565375 0.07367088 -0.043149684 -0.084090255 0.1450204 -0.07948125 -0.03800043 -0.0854089
-0.076918624 -0.03071159 0.14182276 -0.05934682 0.078543484 -0.0918384 -0.08425243 -0.08651585
-0.043878064 -0.09597672 0.031114804 -0.12266229 -0.07964328 0.04552615 -0.051578376 -0.18567498
-0.025338776 0.13514394 -0.0003410692 0.022107894 -0.20731758 -0.037341658 -0.031199317 0.022560477
-0.048219327 0.08033785 -0.041794863 -0.05656921 -0.09708704 -0.075959764 0.0034674122 -0.081455566
-0.045369055 0.041531548 -0.08728674 0.05026888 0.023633981 0.00021948213 -0.045237433 -0.023818871
0.035173655 0.044209607 0.019763736 -0.09443221 0.118923746 0.042507492 -0.002716054 -0.16921094
-0.17354599 0.09223585 -0.026488364 -0.038545765 0.035763588 -0.03642806 -0.051973548 -0.09048516
-0.032779936 -0.011407989 -0.07772817 -0.15286 0.08421451 -0.0023219034 0.16552287 -0.05242234
-0.031821635 -0.1087784 -0.052524183 0.13168937 0.03803725 -0.042346377 0.0648039 -0.015512883
0.007384495 -0.034839056 0.010189601 -0.035437178 0.12304132 0.05552481 -0.16108055 -0.08754041
-0.0829415 0.016000222 -0.09473799 -0.07898594 0.10285577 0.0077545005 -0.054304898 0.18236306
0.044951346 -0.033052545 0.16142228 0.059352536 -0.0699836 -0.10164578 -0.0044202493 -0.09665644
-0.07672461 -0.123415835 -0.04085351 0.011012713 -0.23313867 0.0037677484 0.048358798 -0.087768584
-0.0953743 -0.05294824 -0.019926984 -0.06201473 0.07995768 -0.00976933 -0.107593566 -0.05303258
-0.019050598 0.1413387 0.0529466 -0.06602846 -0.01022058 -0.032082975 0.08071399 -0.104844496
-0.031752117 0.09098446 0.04237684 0.03365324 -0.03638975 -0.025488425 -0.06232565 -0.06979593
0.10129186 -0.084296755 0.0036895901 -0.09815838 -0.092824146 0.05496121 0.030919023 0.03442331
-0.07152077 0.10994006 0.04842944 -0.10244549 0.00960364 -0.053916473 0.114011794 -0.013866985
0.0084639145 -0.05213059 -0.01596222 -0.09156525 -0.057498567 -0.03648635 0.058398563 -0.010261723
0.027790979 0.13145703 0.06467312 0.05129082 -0.016000891 0.03621093 0.16445144 -0.0146729415
-0.091827326 -0.09442563 0.012427253 -0.0007192639 0.03966789 -0.012030709 0.011452916 -0.003939074
0.115330674 0.11075019 -0.035006013 0.023552082 -0.02058482 -0.019051148 0.0047526644 -0.021512311
0.074591145 0.18867165 0.060693674 0.010299404 0.03657541 0.01919036 -0.19741715 0.1436394
-0.053187586 0.08964217 0.023943434 0.059828334 0.00074603764 0.011651859 0.00995295 -0.06016549
0.1303743 0.056408893 0.04452332 -0.017934768 -0.08561848 -0.11566475 -0.053482722 -0.07251104

network_body._body_endoder.seq_layers.2.bias f4 [142]
00000000: 4863 23bc df0d eabb a6e7 b5bb 8670 72bc
00000010: a864 bcbb 6ff9 2ebc a758 66bb a893 60bc
00000020: c21f adbb 856d dc3a f6e6 183a eb25 893c
00000030: 57ce b8bb b8c4 04bb df01 ef3a b720 1abb
00000040: 3e0e ae3b 97cc 46bc 72e0 e6ba ff80 0bbc
00000050: 8225 863a 2f11 e6bb b6c1 f1bb 9380 85bb
00000060: 27e1 183a 3080 08bc 579d 03ba c368 3e3b
00000070: 6961 4bbc fe36 f3bb 08c7 dfbb 8fce cdbb
00000080: 0a45 b8bb 438d 2fbc 2a07 98bb d323 cebb
00000090: 08ca e6bb 2598 19bc 7262 00bb b65a 31bc
000000a0: 77e2 aabb 5ee4 08bc ebb9 e0bb 2c14 a2bb
000000b0: 8b61 d439 45f9 343c 69cb cbbb 8508 06ba
000000c0: 2669 0c3c 561b 48ba bfcd e3bb 0653 fabb
000000d0: 770b f83b 9b06 1bbc 3897 fcbb 9205 b13c
000000e0: d792 b5bb 18e1 e5bb 355d c93b 82ed 62bc
000000f0: 255a e7bb 1f33 16bc d5dd bf39 0b90 0abc
00000100: 6c81 12bc 6fbf 07bc f3b5 ccbb 0cd3 fbbb
00000110: 75e0 3d3b 4184 c6bb 4ede 94ba eb33 943a
00000120: 920e b03b 7b99 27bc 4b0a 14bc 1230 32bc
00000130: 2928 61bc 2576 01bc 2430 01bc 968b fdbb
00000140: c947 9dbb 302c e5bb 9e68 f1bb 8be2 cdbb
00000150: f0cf cbbb 6838 31bc cbd0 79bc 8b5e 223c
00000160: 8d85 d8ba f37c 47bc 2b79 333b f238 953b
00000170: c26d aabb 2157 fabb 12a6 13bc 93bb 46bc
00000180: 8ea9 893b 6a37 77bb f2ce 0fbb 7b43 bbbb
00000190: 50ef 61bb ef44 893b 7a81 ecbb dedd c53a
000001a0: 4134 20bc 8e84 48bc 1642 4cbb 6e28 00bc
000001b0: 7af0 86bb 8666 cc3a 9735 e7ba 4880 febb
000001c0: 3fa2 d3bb 4868 7abc 03d2 433b 67f9 25bc
000001d0: ab50 f6bb db5d 44bb 6e0f 04bc e068 19bc
000001e0: 1a20 61bc d518 e1bb d452 34bb 7512 a4bb
000001f0: 0afe 1d3b 15c7 c6bb 7ebd 28bc 60c7 1fbc
00000200: f4be 14bc 4d99 fc3a 3b83 06bc d64f d2bb
00000210: e4b4 b7bb 8489 61bc 0396 e2bb d4bc 33bc
00000220: 2198 fabb b3ba 16bc 8d1f 17bc c200 48bc
00000230: 2682 62bc d044 663a
-0.009972401 -0.007142767 -0.0055512963 -0.0147973355 -0.005749304 -0.010679587 -0.0035148056 -0.013707079
-0.005283327 0.0016817307 0.00058327557 0.016741714 -0.005639832 -0.0020258855 0.001823481 -0.0023518035
0.0053117564 -0.012133739 -0.0017614497 -0.008514642 0.0010234567 -0.0070210914 -0.0073778285 -0.004074165
0.000583189 -0.0083313435 -0.0005020699 0.0029054142 -0.012413361 -0.007422327 -0.0068291463 -0.006280727
-0.0056234645 -0.010714832 -0.004639526 -0.0062908917 -0.007043127 -0.009374653 -0.0019589928 -0.01082485
-0.005214985 -0.008355228 -0.0068581006 -0.0049462523 0.00040508466 0.011045759 -0.0062193167 -0.0005112964
0.008569991 -0.0007633468 -0.006952017 -0.0076392917 0.007569726 -0.009462024 -0.0077084564 0.021609101
-0.0055411863 -0.0070153587 0.0061451443 -0.013850572 -0.0070603066 -0.009167462 0.00036595637 -0.008457194
-0.008941989 -0.008285387 -0.006247276 -0.007685071 0.0028972898 -0.0060582464 -0.0011357756 0.0011306977
0.0053728307 -0.010229464 -0.009035657 -0.010875719 -0.013742485 -0.007901703 -0.007885013 -0.007737587
-0.004799817 -0.006993793 -0.0073672077 -0.0062831095 -0.0062198564 -0.010816671 -0.015247534 0.009910236
-0.0016519293 -0.012175786 0.0027385454 0.0045539076 -0.0052010724 -0.007639781 -0.009011762 -0.012129682
0.0042011207 -0.0037722238 -0.0021943417 -0.0057148314 -0.0034474917 0.0041891257 -0.0072175832 0.0015096029
-0.009778083 -0.012238635 -0.003116732 -0.007822139 -0.0041180225 0.0015594519 -0.0017639872 -0.007766757
-0.00645855 -0.015283652 0.0029879815 -0.010130263 -0.0075169406 -0.0029963169 -0.008060319 -0.009363383
-0.013740564 -0.0068694153 -0.002751519 -0.005007083 0.0024107718 -0.006066213 -0.010299085 -0.009752125
-0.00907873 0.0019271761 -0.008209999 -0.0064182086 -0.0056062806 -0.013765696 -0.0069148554 -0.010970313
-0.0076475297 -0.009199786 -0.009223831 -0.012207212 -0.013824975 0.00087840576

action_model._discrete_distribution.branches.0.weight f4 [13, 142]
00000000: bc41 b4bb 95f0 3cbc d0fd 893b 816b d63b
00000010: b751 c0bb 6f8c bfbb 6d25 3fbb 5cb7 b33b
00000020: 7c36 ca3b e4a8 cfba e646 bdbb acf9 543a
00000030: 0eea 653c 2380 373c d115 a9bb f91d 193b
00000040: 7044 03bb a580 433c e680 bd3b c816 55bc
00000050: ad51 7d3c 80d1 81bb 5722 c3bc a5b6 453b
00000060: e5fe 8a3b 07b6 bcbb 55cb 3abc bd87 81bb
00000070: f6ae 34bc 7984 4e3c a7e4 073c f4a2 013c
00000080: fbc2 483c 8e65 0c3c 386e 13bb 1d3b d4bb
00000090: 5a3d 0bbb 0713 e83b 5866 363a 712f 553c
000000a0: 80b5 0dbc 5328 673c ffe1 48bc b760 0f3b
000000b0: 9d5c 93bb 5e73 8f3b 12de 393b 8ec5 26bc
000000c0: 0716 86ba 89a2 3f3b 3ed6 d53b eba6 0eba
000000d0: 8b1d e7bb ffb8 473c 1a1a b43c 11a0 ac3b
000000e0: d8e5 ce3b 2cb0 703b 2a36 2bbc 7cc8 17bc
000000f0: 95bd 3d3c eb69 c53b 185d 7abb bb50 6cbb
00000100: c01d 243b f802 4b3b fe6f 43bb 66a9 11bb
00000110: 0c61 283c be32 58bb 178d b53b 2985 873b
00000120: 73e1 29bb 9fd6 633b 0fe8 9d3c b10b 6fbc
00000130: a1d7 113c 3f40 adb8 6464 f7b9 9c29 523b
00000140: 0fba 273c 86a5 813b ecab 393b 1ce0 13bb
00000150: e655 33bc 984f 0c3c 72bd c73b e951 4cbb
00000160: 3406 563b c23f ccbb 8341 4fbc a415 23bc
00000170: 5549 013c 03ea 98b9 16fc 19bc c605 b5bb
00000180: 827f 983b c450 6b3c 972a 013b 55f6 92bb
00000190: ba37 73bc cc01 91bc 7e8c 783c 3429 833c
000001a0: 5c4f 47bc bd1d b3ba 9092 b63b e31c d83b
000001b0: 9e95 243b c3ea 4bbc acea a33b de29 1f3b
000001c0: a4e1 5f3a 89de a1bb 66bc b33a aaba 773b
000001d0: fe3b 0cbc e610 f43b 4f40 5f3b bf24 d8bb
000001e0: 09a4 813b 1d75 263b cf67 aa39 4567 163c
000001f0: 196f 413b d42c 353b 5795 d1bb 0c79 69bb
00000200: 7974 77bb 1f08 7c3a 953f 2abb 4f3e 0b3c
00000210: 1a75 5d3c 91b6 65bb ff76 2c3c d163 f53b
00000220: 8544 5b3c 1f7c f0ba 4aee bb3b c47c a8bb
00000230: dd80 7cbc 1554 483c fc03 94bb ab33 273b
00000240: 5120 a63b dbd5 7a3b 9527 efbb 5f35 36bc
00000250: 428e 8bb9 780e b4ba 248a 283b 444a bebb
00000260: c6f6 7dbb fa60 febb 8fd6 febb ef0f 943b
00000270: ab32 daba d5d3 8e3c a403 d7ba 2f24 a2bb
00000280: c004 9e3b 7329 343c 6495 cd3b acea bf3a
00000290: 60bc 493b a440 313c 0254 a53b f657 89bc
000002a0: ce87 e9ba 35e8 8f3b deac 5bbb 6670 4dbb
000002b0: 1141 f13b 0d5f 06bc c406 2fbc 0057 353b
000002c0: 5ad8 20bc 38fb 533b 8723 453c 2df5 52bb
000002d0: 4659 8d3c 5a56 8a3c a541 623b ae87 67bb
000002e0: 3d4a 0bbc 4503 c53b c309 38bb 72b1 86bb
000002f0: dd4b 3f3c 26f9 4ebc 8e57 3c3b 14bd de3b
00000300: 460b 433c e665 bf3a a200 20bc 3bc6 bbbb
00000310: 039b 983b 5be7 59bb 0aa4 e0bb e22c 213b
00000320: 3d18 0c3c c752 64bb 81ca 1b3c 1cee aaba
00000330: 1553 933b 5905 7fba 370f 81bc 1c29 1f3c
00000340: 9834 8fbb 7bfd c1bb e158 803c 8ef8 79bc
00000350: 0b55 16bc 068d 08bb 0fad b6ba 07cd 0ebb
00000360: 6d07 e83a 6baa 7abc 1580 773b bfe9 52bc
00000370: 9d69 963c 9443 123c a6f3 c7bb 60b6 1d3c
00000380: e76c 15bc 6558 d33b dd09 ae3b c593 a23b
00000390: f2af 073c 33ea 2c3c 04ad 15bc 0d51 c3bb
000003a0: 9d73 42bb 9486 533c 1873 d9bb 8c8e 85ba
000003b0: ce05 62bc 74b5 c1bb 7078 9dbb dce5 293c
000003c0: efa4 1d3c db00 5e3b b321 bbba 0ed3 e23b
000003d0: 3b63 3ebc 00fa 62ba 6649 ddba 0d3d 553c
000003e0: 99c4 2e3b 144f b83b 150d 473c 2769 763a
000003f0: 2be5 ea3b ecaf 09bc 32cd 20bc e1ac 9cbb
-0.005501 -0.011531969 0.004211165 0.006543577 -0.005869116 -0.0058455984 -0.0029166595 0.0054845046
0.006171046 -0.001584318 -0.005776274 0.0008124362 0.014032854 0.011199984 -0.0051600714 0.0023363812
-0.0020029806 0.011932527 0.005783188 -0.01300592 0.015461368 -0.003961742 -0.023820085 0.003016868
0.0042418116 -0.005759004 -0.011401017 -0.003952949 -0.011028042 0.012604826 0.008294261 0.007912386
0.012253518 0.008569134 -0.0022496115 -0.0064767734 -0.0021246285 0.0070823464 0.00069579994 0.013011799
-0.00864923 0.014108735 -0.012260913 0.0021877715 -0.0044971243 0.0043777665 0.0028361124 -0.010178937
-0.0010229953 0.0029241166 0.006525784 -0.0005441743 -0.0070530823 0.012190103 0.021985102 0.005268105
0.0063140206 0.00367261 -0.010449925 -0.009264108 0.011580844 0.0060245893 -0.003820246 -0.0036058861
0.0025042146 0.0030977111 -0.0029821391 -0.0022226213 0.010277044 -0.003298923 0.005540501 0.004135747
-0.0025921732 0.0034765375 0.019275693 -0.01459019 0.008901508 -8.2612496e-05 -0.00047186308 0.0032068258
0.010237231 0.0039564995 0.0028331233 -0.0022564 -0.010945773 0.0085638985 0.0060955817 -0.0031176752
0.0032657506 -0.0062331865 -0.012649897 -0.00995389 0.007891019 -0.00029166052 -0.009398481 -0.00552437
0.004653872 0.014362518 0.0019709223 -0.0044849315 -0.014844829 -0.017701052 0.015170215 0.016010858
-0.012164917 -0.0013665479 0.005571671 0.0065952404 0.0025113593 -0.012446108 0.0050023403 0.002428643
0.0008540398 -0.0049398583 0.0013712763 0.003780047 -0.008559225 0.0074483035 0.003406543 -0.0065961774
0.003956322 0.0025399395 0.0003250227 0.009179895 0.0029515682 0.0027645128 -0.0063959765 -0.0035625128
-0.0037758632 0.0009614247 -0.002597784 0.008498742 0.013516689 -0.0035051445 0.010526418 0.0074887057
0.013383036 -0.0018347538 0.0057351934 -0.0051418263 -0.015411583 0.012227078 -0.0045170765 0.0025512974
0.0050697704 0.003827444 -0.0072984197 -0.011121123 -0.00026618136 -0.0013737222 0.0025717104 -0.005807193
-0.0038751825 -0.0077630254 -0.007777042 0.004518501 -0.001664718 0.017434994 -0.0016404283 -0.004948161
0.0048223436 0.01099621 0.0062739123 0.0014642081 0.0030782446 0.010818634 0.005045415 -0.016765576
-0.0017816962 0.004391695 -0.0033519785 -0.0031347512 0.007362493 -0.008201373 -0.010682765 0.0027670264
-0.009817207 0.0032345783 0.012032396 -0.0032189593 0.017254483 0.016886879 0.003452399 -0.0035328674
-0.0085015865 0.0060123526 -0.002808199 -0.0041105086 0.011675802 -0.012632644 0.002873871 0.006797442
0.011904543 0.0014602512 -0.009765776 -0.005730418 0.0046571507 -0.003324947 -0.0068554925 0.0024593403
0.008550701 -0.0034839378 0.00950873 -0.0013040933 0.004495988 -0.0009728275 -0.015754325 0.009714391
-0.0043702833 -0.00592011 0.01566738 -0.015257014 -0.009175549 -0.002083601 -0.0013937074 -0.0021789686
0.0017702408 -0.01529942 0.0037765552 -0.012873112 0.018360907 0.008927245 -0.006102043 0.009626001
-0.009120203 0.0064497464 0.0053112344 0.004961463 0.008281695 0.010553884 -0.009135488 -0.0059605897
-0.0029670962 0.012910504 -0.0066360347 -0.0010189577 -0.013795329 -0.0059115235 -0.004805617 0.010369744
0.009621843 0.0033875022 -0.0014277011 0.0069221323 -0.011620338 -0.0008658469 -0.0016882836 0.013015044
0.0026667474 0.005624661 0.012149115 0.0009399824 0.007168432 -0.008403759 -0.009814547 -0.004781351

action_model._discrete_distribution.branches.0.bias f4 [13]
00000000: 16ba eb3a 9701 1b3b fda7 68ba c647 95bb
00000010: c05a f63b 5865 0a3b bd5b 5fb9 4fbe ab3b
00000020: 4033 7e3b 277e a13b caa9 b9bb 297b ba3b
00000030: 8241 dcb9
0.0017984535 0.002365207 -0.000887513 -0.004555675 0.0075181425 0.0021117534 -0.00021301112 0.0052411924
0.0038787872 0.0049283686 -0.0056659924 0.0056909514 -0.00042010477

action_model._discrete_distribution.branches.1.weight f4 [13, 142]
00000000: b961 8fbb ea1c fdba 4c15 febb b8c3 d3bb
00000010: c9a6 dcbb c5ae 1d3c 9bbf 12b9 52ad 17bb
00000020: f79d 483c c2ca 5e3c f6c5 3ebc bfe3 69bb
00000030: fd6a d6bb 5528 34bc 9257 713b d805 ef3b
00000040: 229a 7e3c 7c69 d8ba 17b0 f1bb fee0 6d3b
00000050: 4e86 bc3a 2b30 9b3c bd19 b4ba d5f5 1d3b
00000060: 579e 50bc c16a aaba efd7 5abc c30e c53b
00000070: 5d73 06bc c2df 73bb 5980 db3b 00b8 873b
00000080: 95cc 7a3b 34d6 27bc cd70 eab8 a517 623b
00000090: 002f 1f39 4f38 00bc 9fe0 edba 4890 8abc
000000a0: d38a 1dbb c79c 38bc 5887 a23b 5531 f93b
000000b0: 5499 793c bf68 4a3b dfcb 02bc 8b7d 193c
000000c0: 1229 8dbc 4047 31bc 2142 803b bce4 4e3c
000000d0: 3071 803c c075 433c 1682 b7bb 722b bd3b
000000e0: c8b7 ba3a 83b2 9339 9f9e e03c bbf9 8a38
000000f0: c9ed 653c fde3 633a 94f1 f43a d76b 2e3c
00000100: 2cbe e83b 0990 bd3b 8a1a 493a 2551 433c
00000110: e855 f1ba 69a0 62bb 2b84 abbb bd2f 22bc
00000120: 10c8 4b3a ba6b 983b 9d90 07bc b438 383c
00000130: aa36 24bc cccf 6bbb 5c18 773c 1b4d 123c
00000140: 10ae 1aba d238 c8bb 1d47 dd3b 6882 cf3a
00000150: 99ba c0ba 6cac ff3b 05ec c239 de29 d33b
00000160: 98d9 203b 098d 1b3c 3c0d 083c d161 213c
00000170: 2763 54bc 1d7e 493b 7ac6 973b 7fb7 e1b9
00000180: d235 e2b9 8d36 03bc bd8a 9d3b 4be8 4fbc
00000190: 0021 213b 176d 08bc cdb2 3e3c 6172 063c
000001a0: 794c a6bb c3a1 14bb e211 abbb a9be 04bc
000001b0: 4524 bbbc b7b2 48bc caaa 0dbc 1d07 66bc
000001c0: ef99 48bc 707c 2bbb 9da5 15bc 2c55 e13b
000001d0: 9bb3 bdbb d58a 45bb 71f5 b4bb 7fa3 63bc
000001e0: c455 07b9 f30b 44bc 2b0d ccba 901c 66bc
000001f0: fd58 6dbb 7261 3e3c 66b9 51bc 7954 1ebc
00000200: e16c 42bb 8a84 9f3a edae 9cbb 6462 3c3c
00000210: 7dd2 57bc e78d cf3b d567 3abc d3e3 f1bb
00000220: fe80 c5bb 18a2 d6bb ce9c 643c 6615 703c
00000230: 8610 763b 4b8e 703b 01a6 303c 67d6 c7bb
00000240: 7bde 04bc 42a4 2bbb fd6b 043c 9578 eb3b
00000250: b7f7 ed3b af29 fd3b 42ba ffba c2c7 f23b
00000260: f3f0 ebbb d084 65ba 1526 2e3c 1286 06bb
00000270: 1218 953b 0868 afbb 05b5 fabb 353e 793b
00000280: 68aa ddbb 0743 87bc 8105 58bc 810b e93b
00000290: 1516 a9bb 0d31 aa39 a46d 0abc 60ff 03bb
000002a0: d6ca 77bb 3d98 823c 7bd8 593b 4e58 68bb
000002b0: 93e2 b03b ea14 e13b 66fb 8f3b 1235 fc3b
000002c0: 7821 d3bb ee36 55bc ce91 f83b 93f9 d7bb
000002d0: 733f 1bbb 89ec ad3a 40c5 09bc 5c42 4b3c
000002e0: 1465 4dbb 24b5 f4bb e2bc 303c b96b 373c
000002f0: 72ab 573c f7fe acbb 9cff 3fbc dc81 77bc
00000300: 7810 3cbc 2727 8dbb 457d ea3b d430 bb3b
00000310: 5c0c f8bb e920 983b 4324 af3b 38af 8c3b
00000320: 3f5f 01ba 866c f63b 53e9 34bb 8bf9 4bbc
00000330: 45dc ddbb db01 32bc db6e 0a3c d5e7 373a
00000340: 2e28 823c ae17 c1bb dcc9 30bb 0ee3 c73a
00000350: 15da 8c3c 0d85 81bb a0a8 333c c254 8fbb
00000360: 3a98 a83b 176a d43a 5cb1 d33b 5313 473b
00000370: cb95 c53a 1ddb 94bc c20c 0b3c b88b 92bc
00000380: 2e20 113b 542b 82bb 955f 0b3c a374 e33b
00000390: 939f c13c 0c1e a43c 4c7d 2bbc 14fa dfbb
000003a0: 39ad 82bb ee01 cabb fa1a 043c 3d33 c7bb
000003b0: 4229 c03b edf4 8d3b 8f97 be3a 2e5a ea3b
000003c0: 98a7 d33c b8d8 8b3c 2fa8 abbb 05ff 8abb
000003d0: d4ef 1c3b 919c b6bb 11f3 6e3a 51f7 383b
000003e0: 332d 55bc 5769 aa3a daea 343c 7b67 0dba
000003f0: 91e8 eaba 4bc9 a9bb f906 ac3c ed08 65ba
-0.004375663 -0.0019310985 -0.0077540036 -0.0064625405 -0.0067337495 0.009624188 -0.00013995024 -0.0023144078
0.012244693 0.013598146 -0.011643877 -0.0035688726 -0.0065435157 -0.010995944 0.0036825878 0.007294398
0.015539678 -0.0016510929 -0.007375728 0.0036297436 0.0014383288 0.018943867 -0.0013740581 0.0024102826
-0.012733064 -0.0013001786 -0.013357147 0.0060137226 -0.008206216 -0.0037212227 0.00669865 0.0041418076
0.0038268913 -0.010243941 -0.00011179 0.0034498957 0.0001518093 -0.007825925 -0.0018148607 -0.016914502
-0.0024039045 -0.011267847 0.004959982 0.007604758 0.01523431 0.0030885187 -0.007983177 0.009368311
-0.017231498 -0.01082021 0.003914133 0.012627777 0.015678972 0.011929929 -0.0056002242 0.0057730014
0.0014245445 0.00028171026 0.027419386 6.626869e-05 0.014033743 0.00086933357 0.0018687719 0.010645828
0.0071027484 0.0057849926 0.0007671496 0.011921202 -0.0018412443 -0.0034580475 -0.0052342615 -0.009899077
0.0007773647 0.004651514 -0.008274225 0.011243988 -0.010022799 -0.003598201 0.015081491 0.008929516
-0.0005900571 -0.006110289 0.006752862 0.0015831711 -0.0014704048 0.0078025367 0.00037178412 0.0064442
0.0024543758 0.009494075 0.008303937 0.009849981 -0.012963093 0.0030745335 0.0046318145 -0.0004305206
-0.00043146178 -0.008008611 0.0048077987 -0.01268966 0.002458632 -0.00832679 0.011639309 0.008205981
-0.005075034 -0.0022679425 -0.0052206377 -0.008102098 -0.022844443 -0.01224964 -0.008646676 -0.014039782
-0.012243732 -0.00261667 -0.009133724 0.0068766084 -0.005789233 -0.0030142565 -0.005522423 -0.013893961
-0.00012906553 -0.01196574 -0.0015567889 -0.014044896 -0.0036216371 0.011619912 -0.01280055 -0.009663695
-0.0029666948 0.0012170237 -0.004781595 0.0114980675 -0.013172743 0.0063340547 -0.011377295 -0.007381895
-0.00602734 -0.006550085 0.013953401 0.014653539 0.003754647 0.0036705907 0.010781766 -0.006098557
-0.008109684 -0.0026190435 0.008082387 0.0071860054 0.007262196 0.0077259163 -0.0019510465 0.007409067
-0.0072003542 -0.00087554473 0.010629197 -0.002052669 0.0045499885 -0.0053529777 -0.0076509737 0.0038031463
-0.006764699 -0.016511453 -0.013184906 0.007111967 -0.005160103 0.00032461472 -0.008448992 -0.002014123
-0.0037810109 0.015941733 0.0033240605 -0.0035453024 0.0053981035 0.006868948 0.0043939827 0.007696756
-0.006443199 -0.013013585 0.0075857406 -0.006591031 -0.0023688942 0.0013269346 -0.0084088445 0.012405958
-0.0031340765 -0.0074678827 0.010787221 0.011195117 0.013163434 -0.0052794176 -0.011718657 -0.0151066445
-0.011478536 -0.004307646 0.0071560466 0.005712608 -0.0075698327 0.004642595 0.005344899 0.0042933486
-0.0004935152 0.007520261 -0.0027604892 -0.012449632 -0.006770643 -0.0108647 0.008449282 0.00070154417
0.0158883 -0.0058927154 -0.0026975786 0.0015250163 0.017193833 -0.0039526285 0.010965496 -0.0043741176
0.0051451 0.0016205934 0.006460352 0.0030376508 0.0015074549 -0.018170888 0.008486928 -0.017888889
0.0022144425 -0.0039724503 0.008506675 0.0069413944 0.023635661 0.020033859 -0.010466885 -0.0068352316
-0.003987935 -0.006164781 0.008063072 -0.006079106 0.0058642933 0.004332176 0.0014541018 0.0071518635
0.02583675 0.017071113 -0.005238555 -0.0042418265 0.002394666 -0.0055728634 0.0009115199 0.0028223584
-0.013011265 0.0013001364 0.011042321 -0.0005394143 -0.0017922093 -0.0051814667 0.020999419 -0.0008736987

action_model._discrete_distribution.branches.1.bias f4 [13]
00000000: ae71 c23a 44b2 28bb 71d4 9ebb f253 efbb
00000010: 3ad5 0d3b 04ba 07b8 bcae a0bb 7788 50b9
00000020: fd67 383c c47e 58bb e498 14bc 0468 bb3c
00000030: 8470 1fba
0.0014834905 -0.002574102 -0.0048471023 -0.0073037082 0.0021641986 -3.235975e-05 -0.0049036425 -0.00019887263
0.0112552615 -0.0033034543 -0.009069655 0.022876747 -0.0006082135

action_model._discrete_distribution.branches.2.weight f4 [13, 142]
00000000: dc5d 193c ade5 ae3b b0af c9bb 3df9 8fbc
00000010: ead7 9bbb 70c8 cebb 6aba 64bc e571 95bc
00000020: 6546 af3b 21be 53bc 1ca9 073c 4043 643b
00000030: d3dc 63bc 4da9 723c e637 65ba 6082 11bb
00000040: 9444 3dbb d0b9 8a3b 5079 9e3c 9533 d5b9
00000050: f512 f43a f974 993a 271c 423c 08e3 12bc
00000060: 32e0 52ba 1552 efba b59a f0ba defc cd3b
00000070: 2a35 483c 00ee 1ebc e494 54bc 0ba4 8e3b
00000080: 9b50 75b8 ad27 c4bb 6e48 a33b e891 e93a
00000090: 4ce9 873b e99b 8b3b 04a6 acb9 d4c2 57bb
000000a0: a4df 383c 60a5 813c 916b 013b 857e d7bb
000000b0: 30be 563c 68f5 dab9 9d61 a23b c409 d03a
000000c0: b28a 383b b3d3 c13b 00d9 f1ba 838d 1938
000000d0: c143 b6bb a9fa 9aba 7863 a03a d370 02bc
000000e0: 495f 973b 7d30 94bb e85f db3b 27a4 e7ba
000000f0: 314c f7bb d9fc 373b 3ce5 51bc cbef 853c
00000100: 2b8d 06ba 9760 8cbc 6bcd 9bbb cdf8 70bc
00000110: 879d 343c a154 973c df4b b2bb 63ca 3d3b
00000120: a571 0abb 8e50 4a3c be46 fb3a 6c66 c93b
00000130: 242a 663c e02f c1bb f6d0 4f3b e3cc 313c
00000140: dd12 203a ec20 f1bb 8e07 cbbb 846b 57bb
00000150: 8fa0 82ba e1ef b53c 2a81 99bc 2827 853c
00000160: 1332 db3b 878d 9535 2d38 3f3a cb17 6e3c
00000170: 8007 53bc cc06 44bc 6c74 d6bb 4ef2 343c
00000180: c60a 45bb 456b 93bc 7a30 12bc 03d8 9fbc
00000190: 6792 8dbb 9431 a63b 1fbf 8d3c 3728 41bc
000001a0: 7f98 0a3b f703 743c 1c8e 98bb e71e 4e3a
000001b0: 5d54 693b 12ae 3ebc 8968 663b 93a6 84ba
000001c0: 3b05 a5bb 791a cf3b 7edb 073c b120 ce3b
000001d0: f84e 23bc 2f45 cb3b fc4b cebb a85f 1f3c
000001e0: c9a4 ed3b 8340 cb3a a88c c93b 524b 3dbb
000001f0: e2c0 0d3c 24ec 1dba cfea b0bb ada7 dabb
00000200: d7c3 023c 2e6a b7bb 917a bdbb 48c8 713b
00000210: ccda b0bc a0f5 7abb 4c5a 0a3b 574c bdba
00000220: f92c b1bb 9945 6b3c ad31 3dbb c9fc 38bc
00000230: c891 10bc 38ad a9bb 837b 53ba 2368 c93b
00000240: b01f febb 6124 023c b950 78bc 1707 2b3b
00000250: fb9c b0bb e4ea 7dbc 7e3c 823b fdb2 673a
00000260: 49c7 9bbc a78f 773b a998 ef3b 1bf3 913c
00000270: 0b78 bfbb 450c 913c 74a0 a4bc f18d d03b
00000280: dca6 30bc 727b 51bb 74f8 63bb 5ee9 41bc
00000290: 9dff 233c d6f4 baba 51f8 b8bb c135 4e3b
000002a0: a749 433c 988d 3cbc fe31 f5bb 3cdf 053b
000002b0: 46b4 093c f36a 7eba 409e c63b 4862 17bc
000002c0: 1c49 4a3b 00b0 26bc d3dd a93b dc3a 153b
000002d0: 9faf 6a3c ce6d 013c 11e5 28bc 7377 733c
000002e0: 59ea 74bb 14ea d83b 0a36 99bc 5418 c7bb
000002f0: 8fb7 63bc facf 40bc d9d8 f53b 6101 20bb
00000300: 2678 a0bb 4391 dab8 3e0d 1fbc 5886 f83b
00000310: 536f fe3b 7d05 d1bb e044 9f3b 5151 4eb9
00000320: fd51 3abc cb79 533b ff25 4a3c bec3 9f3b
00000330: 9b97 54bc 80fb 42bb b913 7d3c c369 17bc
00000340: b184 4dbc 6838 8b3c 3ecf c4ba 68fd 8fb9
00000350: 136d e6bb f330 043c 08bf 063c 768f 733b
00000360: 93f5 6bbc 1725 a739 fa9f 12bc 47bf 76bc
00000370: 0a33 903a dcc2 953c 5339 84bb ee2b 29ba
00000380: 4948 603b 98d7 55bc 5382 c8bb 63c3 f7ba
00000390: 8ff0 1c3c 7f65 363c 4b24 86bc a2e0 93ba
000003a0: d4f8 843b 3b87 abbb e6f5 783a d8f7 783b
000003b0: 2629 ae3a 7a68 4abc 2f73 743b c31f c839
000003c0: ad8a 40bb bad3 713c d1da 053c d26d a43b
000003d0: 11a9 b63a ff3e d33b d8fc be3a 0f62 fbbb
000003e0: f6b8 2e3c 0af7 81bc aed3 cfbb c642 303c
000003f0: b4d2 a5ba 9ee7 673c a36c f5b7 c439 b3bb
0.009360757 0.005337438 -0.006154977 -0.0175749 -0.0047559636 -0.006310515 -0.01396046 -0.018242786
0.005348968 -0.012923748 0.008280065 0.0034830123 -0.013907629 0.014810872 -0.0008743986 -0.0022202954
-0.0028879987 0.0042335764 0.019344956 -0.00040664957 0.0018621372 0.0011707834 0.011847532 -0.008965261
-0.0008044272 -0.0018258715 -0.0018356653 0.0062862476 0.012219707 -0.009700298 -0.012974951 0.0043530515
-5.848762e-05 -0.005986175 0.0049829995 0.0017819973 0.004147684 0.0042605293 -0.00032930088 -0.0032922523
0.011283789 0.015825927 0.0019747952 -0.0065763616 0.013106868 -0.00041763042 0.004955484 0.0015872051
0.002815884 0.005915129 -0.0018451512 3.6609836e-05 -0.005562276 -0.001182397 0.0012236675 -0.00796147
0.004619513 -0.004522382 0.0066947825 -0.0017672823 -0.0075469245 0.0028074293 -0.012811001 0.016349694
-0.000513273 -0.017135901 -0.0047547123 -0.014707756 0.011023886 0.018472971 -0.0054411734 0.0028959743
-0.0021124866 0.012348307 0.0019170863 0.006146243 0.014048133 -0.0058955997 0.0031710244 0.010852071
0.00061063265 -0.007358661 -0.006195969 -0.003287048 -0.0009966063 0.02220911 -0.018738348 0.016254023
0.006689319 1.1142555e-06 0.00072944426 0.01453204 -0.012880206 -0.011964511 -0.0065446403 0.011044098
-0.0030066236 -0.017995486 -0.0089226905 -0.019512182 -0.004320431 0.005071828 0.017303048 -0.011789373
0.0021148024 0.014893523 -0.0046556126 0.0007862881 0.0035603263 -0.011638181 0.0035157523 -0.0010120444
-0.005036024 0.0063202945 0.008292077 0.006290518 -0.009967558 0.0062033157 -0.006295679 0.009727396
0.00725231 0.0015506897 0.0061508007 -0.0028884006 0.008651944 -0.00060242624 -0.005399085 -0.0066728205
0.007981262 -0.0055973744 -0.0057824333 0.0036893059 -0.021588705 -0.0038293377 0.002111095 -0.0014442307
-0.0054069725 0.014359855 -0.002886872 -0.011290737 -0.008823819 -0.00517812 -0.0008067416 0.0061464473
-0.0077552423 0.007943244 -0.0151559645 0.0026096755 -0.0053898073 -0.015497897 0.0039744964 0.0008838622
-0.019015925 0.0037774832 0.0073118997 0.017816117 -0.0058431677 0.017706046 -0.020096041 0.006364577
-0.01078197 -0.0031964448 -0.003478554 -0.011835424 0.010009673 -0.0014263641 -0.005644836 0.0031465145
0.011919416 -0.011508368 -0.007482766 0.0020427248 0.008404797 -0.0009705268 0.0060613453 -0.009239741
0.003086633 -0.010173798 0.005183914 0.0022770679 0.014324098 0.007899715 -0.01030852 0.014860022
-0.0037371127 0.006619701 -0.018702526 -0.006075898 -0.013898744 -0.0117683355 0.007502657 -0.0024414884
-0.0048971353 -0.00010422107 -0.009707747 0.0075843744 0.0077647357 -0.006378828 0.0048605055 -0.00019675984
-0.011372087 0.003226864 0.012338161 0.004875629 -0.012975599 -0.0029751956 0.015446597 -0.009241524
-0.012543843 0.01699467 -0.0015015376 -0.00027463888 -0.0070320456 0.008068311 0.008224256 0.0037164367
-0.014401811 0.00031880356 -0.008949274 -0.0150602525 0.0011001539 0.018281393 -0.004035154 -0.00064533844
0.0034222773 -0.01305189 -0.0061190515 -0.0018902834 0.009578838 0.011132597 -0.016374728 -0.0011282156
0.004057983 -0.0052346266 0.0009497091 0.0037989523 0.001328741 -0.012354011 0.00373001 0.00038170637
-0.0029379532 0.014759952 0.008169846 0.0050179744 0.0013935884 0.0064467187 0.0014571203 -0.0076716016
0.010664215 -0.015864868 -0.006342373 0.0107581075 -0.0012651295 0.014154343 -2.9256864e-05 -0.0054695327

action_model._discrete_distribution.branches.2.bias f4 [13]
00000000: b699 23bb ef85 1b3b 4084 813a 112d d5bb
00000010: 270e 493b c233 623b e4aa 8ebb f065 343a
00000020: ee76 a239 186d 113c 0074 6dbb d7cb 35b9
00000030: 75f9 3c3b
-0.0024963445 0.0023730954 0.0009881333 -0.0065056165 0.0030678601 0.0034515713 -0.004353868 0.0006881645
0.00030987657 0.008876108 -0.0036232471 -0.00017337441 0.0028835211

action_model._discrete_distribution.branches.3.weight f4 [13, 142]
00000000: cbb5 36bc b3d8 0dbc 8570 c23b b95a 94bb
00000010: 0e0c b83b f2a3 13bc d16e 8d3c f003 68bb
00000020: 1039 713b b4b6 263c 6d82 6bba afd2 b1bc
00000030: 906e 403c 436c f0ba 3c40 b83b b4e8 0b3c
00000040: 6d3b de3b 9a43 7abc e253 88bb 3667 3f3c
00000050: 6017 49bc 6dbb 75bb e11b 7c3c edee b4bb
00000060: 9366 dd39 f287 64bb 1e11 81bc 336d c03a
00000070: a8b8 3cbb 11a7 67bb e086 453b 0ae6 94bc
00000080: 50bd 393c 4c5e e73b 635b 853b c6aa e1bb
00000090: d834 83bb 1ee0 9fbb 38f0 763b 7108 933c
000000a0: 1ded 3c3b a10b 2fbb 2dc3 1ebc 2679 083c
000000b0: f7d5 8ebc 2354 773b 80f9 59bc f1bc a63b
000000c0: 961a 41bb 8d86 453a 848f dd3b 0594 8d3b
000000d0: 1c2f 9a3a d015 d1b9 27f1 133c 8844 2abb
000000e0: 8e24 e5ba 9147 4ebc 9ff0 90bc edb4 33bc
000000f0: c41c cfb9 bfbd f3b9 6592 06bc b7bc 5e3b
00000100: 452c 543c ab5d dd3b b15e 60bc 0c77 ce3b
00000110: 8a10 263b 57e7 773a d9be 593b ab6d ed3b
00000120: 67ac 813c 0bad 863b ec92 e93a 0616 0f3c
00000130: ef5e afbb e64e 42bc 202d 253c 3d63 db3a
00000140: df4f 46bc 3988 ae3b 0846 193b 3f19 a53b
00000150: 8e07 60bc 6b82 f6bb 3f53 ddbb 8a82 96bb
00000160: 7747 173b 208d 293c 4eca 6a3b 91a7 5e3b
00000170: a387 ab3c 923e a33b 9afe 9a3b 8c42 9038
00000180: dd8c 403b d124 ccbb 28f7 52bc 9832 a13c
00000190: c084 863b 5a62 15bb 59d1 ceba 6697 bb3b
000001a0: ce28 21bb 8bc2 33bc 42ad c03b c3f5 5e3a
000001b0: de5f 023b d7cd 74bb c840 2b3c 3ea8 ee3b
000001c0: 7520 1c3b bfb2 17bb 745d 173c 7c59 6b3c
000001d0: d144 2f3b ea62 22bc 558a 0cbc 16d8 31bc
000001e0: d681 f8b9 93c3 22bc 44f1 a73b ebd0 5c3b
000001f0: 7731 e7bb e699 b139 2551 2abc 666f 1fbc
00000200: 9e7e a5bc 5e9f d13a 1eb2 0bbc f071 acbb
00000210: 6c79 c03b 9181 0abc 43f3 a33b b876 e63a
00000220: e340 853c dd76 f23b 01fa 493c ab19 29bc
00000230: ed5a b8bc 5f15 a2bb c458 133c 5cc8 ab3c
00000240: b836 82bc 7e95 833b edc8 703c d964 643c
00000250: e3ad 773c 1ba0 c63b 23a3 5dbc 92bb 27bc
00000260: 17e7 443a 2d27 693b b45b 21bc b2e5 cd3b
00000270: bd85 e439 4620 96bc dc0d 03bc 2659 40bc
00000280: 10b8 a83b 9ac5 9a3b 41d5 b0bb 6986 3bba
00000290: e147 bebb f594 34bb 4a40 863b 6de4 043c
000002a0: 9cef 91bb 207e b7bb 2aac b6bb 2748 04bc
000002b0: 74ff 783a 7f94 48bb 7a65 f2ba 04db a23b
000002c0: 7b1b e8b9 3b81 f13b 892a 413c 816e b23c
000002d0: 5587 53bc 7b62 8b3c 8e1e 80bc 36a8 423c
000002e0: 0ddc 4e3c a08d 333a 45c3 503b b69a b3bc
000002f0: bbb5 cdbb 5c07 acbb c824 573b 7e04 2bbc
00000300: fd02 7e3b ab8c 7d3b 1dbd d93c eae7 91bb
00000310: fcef a6ba 11e8 b4ba f1a6 8abb ac80 ad3b
00000320: 955e aeb8 8eef 603c c34c 4c3c 1bcb b3bb
00000330: 755e 70bc fbb6 27bc b31a 8bbb 2706 01bb
00000340: 33f2 893b a922 23bb eef6 14bc 32bc d2bb
00000350: 4891 10bc 85fd 39bc 9396 25bc d7c8 f83b
00000360: 984b 053b d5d6 a63c b4fc a23b f0ab 72bb
00000370: 3736 963b 73e5 8b3a 73a5 233c e8fa 5dbb
00000380: 8545 e93b 405d 7a39 757a 7e3b 8760 a4bb
00000390: 858f 243b 7622 b43b b82d 2abc 8d1f 4c39
000003a0: f4db 883c 679b 1ebc 1094 48bb 74ec 0bbc
000003b0: 4eb7 5a3c ac83 773a cff3 923b c57c 5c3a
000003c0: c9e3 09bc b511 bcbb f95c 303a 71b9 40bc
000003d0: c058 2dbc 0b42 1fbc 91eb 843b b0e7 973b
000003e0: 0b33 75bb ec02 cfbb b1d2 2a3c a531 563c
000003f0: 2ad9 9b3b 7fdf 3bbb 9b95 75bb 8e36 89bb
-0.011151741 -0.008657622 0.0059338235 -0.0045274165 0.0056166714 -0.009011256 0.017264755 -0.0035402738
0.0036807694 0.010175396 -0.00089839735 -0.021706907 0.01174511 -0.0018342811 0.0056228917 0.0085393675
0.0067819864 -0.0152749065 -0.0041603902 0.011682322 -0.012273639 -0.0037495748 0.015387506 -0.0055216462
0.00042228829 -0.0034871069 -0.015755232 0.0014680981 -0.0028796587 -0.0035347382 0.0030140206 -0.018176097
0.0113366395 0.0070608016 0.004069732 -0.006886813 -0.004004102 -0.004879012 0.0037679803 0.017948361
0.0028827854 -0.0026709812 -0.009690088 0.008329665 -0.01743601 0.0037739358 -0.013304114 0.0050884415
-0.002946531 0.0007535003 0.006761493 0.004320624 0.0011763307 -0.00039879838 0.009029663 -0.002598079
-0.0017482208 -0.012590305 -0.017692862 -0.010968429 -0.0003950355 -0.00046489944 -0.008213614 0.0033986995
0.012950008 0.006755551 -0.013694451 0.0063008126 0.0025339448 0.00094567746 0.0033225326 0.0072457395
0.015829278 0.004109984 0.0017820275 0.008733278 -0.005351893 -0.011859631 0.010081559 0.0016737949
-0.012104004 0.0053262976 0.002338769 0.00503841 -0.013673676 -0.0075228713 -0.0067543085 -0.004593198
0.0023083368 0.010348588 0.003582615 0.003397439 0.0209387 0.004981824 0.004730058 6.8788504e-05
0.0029380836 -0.006229975 -0.012876309 0.019677445 0.0041051805 -0.0022794218 -0.0015778943 0.005724835
-0.0024590972 -0.010971676 0.005880029 0.0008505249 0.0019893567 -0.0037354135 0.010452457 0.0072832396
0.0023823057 -0.0023147312 0.00923859 0.014364596 0.0026743899 -0.009911278 -0.008577903 -0.010854742
-0.0004739898 -0.009934324 0.0051251967 0.003369386 -0.007055457 0.00033874734 -0.010395323 -0.009731149
-0.020201977 0.001599293 -0.008526353 -0.005262606 0.0058738496 -0.008453743 0.0050033643 0.0017582988
0.016266292 0.0073994235 0.012327672 -0.010321061 -0.022504294 -0.0049463953 0.008993331 0.020969562
-0.015895233 0.0040156236 0.014696342 0.01394006 0.015117141 0.0060615665 -0.013527664 -0.010237591
0.0007511242 0.003557633 -0.009848524 0.0062834853 0.00043587192 -0.018325936 -0.00799891 -0.011740005
0.005148895 0.004723263 -0.0053965156 -0.00071535126 -0.0058069085 -0.0027554606 0.0040970193 0.008111102
-0.0044536125 -0.005599752 -0.005574723 -0.008073843 0.00094985147 -0.0030606089 -0.0018493377 0.0049699564
-0.00044270963 0.007370142 0.011789926 0.021781208 -0.012910684 0.017014733 -0.01563957 0.011880925
0.012625706 0.0006849412 0.003185467 -0.021924358 -0.0062777675 -0.0052499007 0.003282832 -0.010438083
0.0038759105 0.003868858 0.026579434 -0.004452695 -0.0012736316 -0.0013802071 -0.0042313267 0.00529488
-8.314584e-05 0.013728989 0.012469473 -0.0054868585 -0.014670958 -0.010236497 -0.004245126 -0.0019687505
0.0042097806 -0.0024892485 -0.009092076 -0.006431126 -0.0088237 -0.011351948 -0.0101067005 0.0075923014
0.0020339247 0.020366112 0.004973972 -0.0037028752 0.0045840996 0.001067324 0.009988177 -0.0033871476
0.007118883 0.00023876596 0.0038830314 -0.00501639 0.0025109958 0.005497272 -0.010386877 0.0001946671
0.016706444 -0.0096806055 -0.003060583 -0.008540262 0.013349367 0.0009441923 0.0044846307 0.0008410926
-0.008416125 -0.0057394155 0.0006727721 -0.011762963 -0.010580242 -0.009720336 0.004056402 0.0046357736
-0.0037414457 -0.006317487 0.010426209 0.01307336 0.0047561126 -0.002866715 -0.0037473205 -0.0041874116

action_model._discrete_distribution.branches.3.bias f4 [13]
00000000: 475f 8b3b 7d49 89ba 1f43 fa3a 37bf d9ba
00000010: 168f 553b d41e 4e3a 1aea b23a 7c27 ea3a
00000020: f968 97bb 954c 353c d3a5 dfba 8237 03bb
00000030: b9ac aa39
0.0042533013 -0.0010474172 0.001909349 -0.0016612773 0.0032586507 0.000786287 0.001365009 0.001786455
-0.004620668 0.011065622 -0.0017062969 -0.00200221 0.00032553615
