results/NewTwoAgentsFullBoardAction/WhiteMLAgent/WhiteMLAgent-9494.onnx (onnx, 681198 bytes, 133 tensors)

discrete_act_size_vector f4 [1, 64]
13.0 13.0 13.0 13.0 13.0 13.0 13.0 13.0
13.0 13.0 13.0 13.0 13.0 13.0 13.0 13.0
13.0 13.0 13.0 13.0 13.0 13.0 13.0 13.0
13.0 13.0 13.0 13.0 13.0 13.0 13.0 13.0
13.0 13.0 13.0 13.0 13.0 13.0 13.0 13.0
13.0 13.0 13.0 13.0 13.0 13.0 13.0 13.0
13.0 13.0 13.0 13.0 13.0 13.0 13.0 13.0
13.0 13.0 13.0 13.0 13.0 13.0 13.0 13.0
00000000: 0000 5041 0000 5041 0000 5041 0000 5041
00000010: 0000 5041 0000 5041 0000 5041 0000 5041
00000020: 0000 5041 0000 5041 0000 5041 0000 5041
00000030: 0000 5041 0000 5041 0000 5041 0000 5041
00000040: 0000 5041 0000 5041 0000 5041 0000 5041
00000050: 0000 5041 0000 5041 0000 5041 0000 5041
00000060: 0000 5041 0000 5041 0000 5041 0000 5041
00000070: 0000 5041 0000 5041 0000 5041 0000 5041
00000080: 0000 5041 0000 5041 0000 5041 0000 5041
00000090: 0000 5041 0000 5041 0000 5041 0000 5041
000000a0: 0000 5041 0000 5041 0000 5041 0000 5041
000000b0: 0000 5041 0000 5041 0000 5041 0000 5041
000000c0: 0000 5041 0000 5041 0000 5041 0000 5041
000000d0: 0000 5041 0000 5041 0000 5041 0000 5041
000000e0: 0000 5041 0000 5041 0000 5041 0000 5041
000000f0: 0000 5041 0000 5041 0000 5041 0000 5041

network_body._body_endoder.seq_layers.0.weight f4 [142, 71]
0.053804167 -0.27683413 0.11751491 0.0051914193 -0.051350918 -0.17794254 0.004483893 -0.10522414
-0.034006007 -0.03694877 0.033847213 -0.020696586 -0.017078904 0.15535715 0.016193843 -0.06125408
0.043239836 0.009746455 -0.19832426 0.07549578 -0.058282677 0.06236421 0.08672073 0.34218308
0.23054275 0.14386989 0.13042045 0.019773958 0.034883846 0.037312463 0.05603703 0.071065
-0.14391601 -0.041392494 0.29677367 -0.0009899677 -0.15506789 -0.19126834 -0.101810984 0.011158998
-0.018069126 0.10540479 -0.06351101 0.20513083 0.3565124 0.35795236 0.14928253 -0.15429051
-0.17941488 0.027120821 -0.023536447 -0.12460556 -0.0008141676 0.062847756 -0.094247416 0.075521
-0.13015874 0.04187668 -0.13149296 -0.22124912 0.24520569 0.30389592 0.20935827 -0.008905448
0.008855461 -0.059460007 0.0375462 0.09397703 0.13994706 -0.11781558 -0.07132617 -0.047100116
-0.20199095 -0.093216814 0.038784333 0.30333036 -0.008240769 -0.11430024 -0.030129595 0.02282429
0.037265882 0.2032261 0.044124953 -0.08962829 -0.049393922 0.18241385 -0.0035905675 -0.08279863
-0.11338279 0.011091655 0.08553335 -0.2259322 -0.1369433 -0.103767246 -0.03467574 -0.02625323
0.14450724 0.13661568 0.026483642 -0.05549876 -0.086910754 -0.12700342 0.08295906 -0.10353428
-0.045039795 -0.101135865 0.0065803393 0.055875234 0.039430138 -0.026630608 0.12889597 0.18538553
0.026871676 -0.24864559 0.020126963 -0.0666739 0.009692972 0.09802483 -0.2488882 -0.15318793
0.15005773 0.06418787 -0.023512771 0.07530151 -0.058777876 0.09436922 -0.031171214 0.06063883
0.148596 0.14383839 0.025630282 0.043507002 -0.049412698 -0.2498263 -0.12136909 -0.083706915
0.09590866 0.04084426 0.14755343 0.11000228 0.08785554 -0.07247084 -0.08232069 -0.014901229
-0.10582151 -0.1284584 -0.00013040939 -0.14849767 0.07924536 0.18949006 -0.036428392 -0.08847861
0.22095974 0.040528 -0.0135588655 -0.15294178 0.15196119 -0.1640517 0.27935335 -0.14855252
0.03644601 0.29118028 -0.25252724 0.045615125 0.08855588 0.046979353 -0.016211657 -0.0076160654
-0.10930359 -0.062016536 0.14586864 0.10412867 0.04035509 0.043423835 0.11989652 -0.15768379
0.15917554 0.04781145 -0.004536952 0.0061174454 0.14122896 -0.029469077 -0.027766341 0.022701172
-0.08316111 -0.14708018 -0.22436705 0.147452 0.22809656 0.051609807 0.026967065 -0.030258963
-0.1033979 0.047895312 0.08187388 -0.06922782 -0.075510666 -0.033024937 0.038067613 -0.016992051
-0.022330757 -0.05075381 -0.08325539 0.009180749 0.032729242 0.05482511 -0.21323757 -0.054099746
0.035944782 -0.06269346 -0.051335603 -0.15813605 0.08907352 -0.0402871 -0.027728066 -0.032286033
-0.17357185 0.116459265 -0.07617156 0.11088434 0.11642571 0.147691 -0.10894975 0.16246039
-0.0021057043 0.23296657 -0.117596224 -0.24314779 -0.1999968 0.019918477 -0.112640046 0.068948396
0.12429331 0.21870448 0.06720479 -0.14866678 -0.0029486562 0.082035564 0.08957308 -0.004872216
-0.098469876 -0.20764963 -0.13180959 0.23638739 -0.017851999 -0.17096813 0.013216324 -0.08167763
0.062302563 -0.30515903 -0.030284535 0.06249802 -0.084525876 0.03776151 0.017858718 0.23136778
00000000: c261 5c3d 34bd 8dbe a8ab f03d c81c aa3b
00000010: 5755 52bd 9236 36be 9fed 923b c17f d7bd
00000020: e249 0bbd 9857 17bd 60a3 0a3d e38b a9bc
00000030: 0fe9 8bbc f215 1f3e f3a8 843c 8fe5 7abd
00000040: 411c 313d 98af 1f3c 8415 4bbe 889d 9a3d
00000050: d1b9 6ebd 9d71 7f3d a39a b13d 9f32 af3e
00000060: 6613 6c3e a152 133e f08c 053e fffc a13c
00000070: 5de2 0e3d f4d4 183d 1687 653d 878a 913d
00000080: b85e 13be 2d8b 29bd b8f2 973e cec1 81ba
00000090: 1eca 1ebe d9db 43be 4782 d0bd 3bd4 363c
000000a0: b405 94bc 77de d73d 0f12 82bd d10d 523e
000000b0: cb88 b63e 8845 b73e 85dd 183e 55fe 1dbe
000000c0: 89b8 37be 7c2c de3c 82cf c0bc 3331 ffbd
000000d0: dd6d 55ba 53b6 803d ca04 c1bd c1aa 9a3d
000000e0: 5548 05be e286 2b3d 17a6 06be 218f 62be
000000f0: 3317 7b3e 3f98 9b3e 0462 563e 28e8 11bc
00000100: 7f16 113c 568c 73bd 0bca 193d 0777 c03d
00000110: 484e 0f3e 4b49 f1bd 7413 92bd 0dec 40bd
00000120: b7d6 4ebe 75e8 bebd 52dc 1e3d 1e4e 9b3e
00000130: 4a04 07bc 3f16 eabd 57d2 f6bc 01fa ba3c
00000140: 1ca4 183d 811a 503e 5ebc 343d 098f b7bd
00000150: 4851 4abd b2ca 3a3e ba4f 6bbb 5492 a9bd
00000160: 3c35 e8bd c6b9 353c 1c2c af3d c55a 67be
00000170: dd3a 0cbe ec83 d4bd 2608 0ebd 0411 d7bc
00000180: b5f9 133e fbe4 0b3e 39f4 d83c ab52 63bd
00000190: 44fe b1bd 2f0d 02be 71e6 a93d c809 d4bd
000001a0: a67b 38bd 5220 cfbd e39f d73b 6edd 643d
000001b0: 7f81 213d 6f28 dabc 4efd 033e b4d5 3d3e
000001c0: fd21 dc3c f39c 7ebe 4de1 a43c 538c 88bd
000001d0: 45cf 1e3c 3ec1 c83d 8cdc 7ebe 4cdd 1cbe
000001e0: bca8 193e ee74 833d db9d c0bc ae37 9a3d
000001f0: 12c1 70bd a644 c13d c65a ffbc 6c60 783d
00000200: 8d29 183e 5f4a 133e 99f6 d13c 6634 323d
00000210: f864 4abd 77d2 7fbe 5c90 f8bd 886e abbd
00000220: c26b c43d 504c 273d 3f18 173e e048 e13d
00000230: 9bed b33d 976b 94bd c097 a8bd 4924 74bc
00000240: f3b8 d8bd 998a 03be 81be 08b9 c60f 18be
00000250: 644b a23d af09 423e f035 15bd 4634 b5bd
00000260: 4543 623e b000 263d 0126 5ebc c59c 1cbe
00000270: b79b 1b3e 2bfd 27be 6707 8f3e 271e 18be
00000280: 6948 153d 9515 953e 404b 81be edd6 3a3d
00000290: c95c b53d 6c6d 403d 4fce 84bc 3090 f9bb
000002a0: 90da dfbd 0d05 7ebd 975e 153e 6a41 d53d
000002b0: 614b 253d 31dd 313d 4f8c f53d dc77 21be
000002c0: eafe 223e f0d5 433d b6aa 94bb da74 c83b
000002d0: 539e 103e 2269 f1bc 3d76 e3bc cff7 b93c
000002e0: 5f50 aabd 309c 16be 7ac0 65be a8fd 163e
000002f0: 2592 693e ce64 533d 09ea dc3c a5e1 f7bc
00000300: 47c2 d3bd e02d 443d 7ead a73d 51c7 8dbd
00000310: 56a5 9abd 2845 07bd c9ec 1b3d ea32 8bbc
00000320: feee b6bc 3ae3 4fbd cd81 aabd da6a 163c
00000330: 190f 063d 4b90 603d f35a 5abe b297 5dbd
00000340: d63a 133d 6e65 80bd 4845 52bd 6bee 21be
00000350: 2d6c b63d 1604 25bd f825 e3bc 5c3e 04bd
00000360: d2bc 31be 3282 ee3d d6ff 9bbd 5417 e33d
00000370: 9a70 ee3d 4f3c 173e 0c21 dfbd 045c 263e
00000380: dbff 09bb ca8e 6e3e 4ad6 f0bd bcfb 78be
00000390: f6cb 4cbe 132c a33c d3af e6bd d134 8d3d
000003a0: 7e8d fe3d 11f4 5f3e aaa2 893d 1b3c 18be
000003b0: 3e3e 41bb 4302 a83d 1772 b73d 1ca7 9fbb
000003c0: 93aa c9bd 1ba2 54be 18f9 06be 890f 723e
000003d0: 5b3e 92bc 4512 2fbe 4889 583c 9a46 a7bd
000003e0: f930 7f3d ce3d 9cbe 4617 f8bc ecfd 7f3d
000003f0: e71b adbd d0ab 1a3d 724c 923c adeb 6c3e

network_body._body_endoder.seq_layers.0.bias f4 [142]
-0.004564789 0.002106963 -0.00597227 0.001864958 -0.0053325165 -0.007919248 0.0038760318 0.0011819169
-0.0054132524 -0.005970617 -0.0037774222 -0.00035695566 -0.0071808556 -0.0028730505 0.0023068583 -0.010445538
-0.0007242835 -0.0021675092 -0.00039842544 -0.006305461 0.0011320051 -0.004051378 -0.009055157 -0.0061569777
-0.0033791177 0.004480597 -0.0036534409 -0.0024524755 -0.0043437816 -0.0022373158 -0.0043396098 -0.00072023185
0.010180017 -0.0017597409 0.002742171 -0.0007817656 -0.006875979 -0.0013762111 0.00022981058 0.0017134657
-0.0053198515 0.0060213846 0.0013377486 0.0030105955 -0.007381815 -0.0028318337 0.0012226732 0.0028530622
0.005577559 -0.0004851588 0.0017667825 -0.003431901 -0.006941771 -0.00067366817 0.0004026469 0.0058642034
-0.0008296971 -0.0061012334 0.008395702 -0.0018447671 -0.005498045 0.0005961628 0.008425074 0.0037415538
0.0032408054 -0.0019133376 -0.009978261 0.0073727705 -0.0030574587 -0.0020001212 0.0046928423 0.00042533595
-0.004558695 -0.00038022417 0.000871101 -0.012743021 -0.0072424086 -0.0001562094 0.0018177727 -0.0060010427
0.0072683995 -0.008106467 -0.00090722356 0.014080717 -0.006861173 -0.0035684356 -0.0035102493 0.0013747774
0.005908968 0.021379378 -0.004309874 0.0141126625 -0.004679214 -0.008469562 -0.0061943987 -0.0077991225
0.0007024696 -0.005027414 -0.0038380784 0.0037922238 -0.011065602 -0.0024267023 -0.0026984809 8.538542e-06
-0.0056851343 0.0072948355 0.0012017923 -0.003701637 -0.0038707247 0.0048330263 -0.0023499762 -0.00041820767
-0.0040544304 -0.002636825 -0.014298749 -0.0045196326 -0.0022458353 0.005380557 -0.006784368 -0.0054476247
-0.003175012 -0.0016221437 0.0013899504 0.0014989406 3.4692954e-07 -0.0031123292 0.0035921964 -0.007385369
-0.005547366 0.005475363 0.0048393807 0.007951714 0.0060968236 -0.0039038984 -0.005326047 -0.0019382319
-0.0021399541 0.00027384603 0.0024302194 -0.0010426763 -0.006367212 -0.0033533587
00000000: 3a94 95bb f914 0a3b 08b3 c3bb 9b71 f43a
00000010: 64bc aebb bcbf 01bc 0605 7e3b 8dea 9a3a
00000020: a761 b1bb 2aa5 c3bb a18e 77bb c725 bbb9
00000030: 624d ebbb ca49 3cbb a92e 173b c323 2bbc
00000040: d8dd 3dba c50c 0ebb c2e3 d0b9 0a9e cebb
00000050: ca5f 943a 6cc1 84bb 155c 14bc 79c0 c9bb
00000060: 3074 5dbb f9d1 923b 916e 6fbb b6b9 20bb
00000070: 4856 8ebb ee9f 12bb 4933 8ebb f1cd 3cba
00000080: 16ca 263c 1ba7 e6ba ffb5 333b 67ef 4cba
00000090: e44f e1bb fb61 b4ba 4ff9 7039 5e96 e03a
000000a0: 2652 aebb 094f c53b 6557 af3a 694d 453b
000000b0: 27e3 f1bb 4996 39bb 1b42 a03a 71fa 3a3b
000000c0: f5c3 b63b e95c feb9 6293 e73a bfe9 60bb
000000d0: cc77 e3bb 1b99 30ba 5a1a d339 8128 c03b
000000e0: 0880 59ba dbec c7bb 208e 093c 1dcc f1ba
000000f0: f228 b4bb cf47 1c3a 5209 0a3c db34 753b
00000100: b163 543b f5c8 faba dc7b 23bc 4897 f13b
00000110: a55f 48bb 7714 03bb 6ac6 993b a0ff de39
00000120: 1b61 95bb d358 c7b9 995a 643a 1bc8 50bc
00000130: ba51 edbb 24cc 23b9 5542 ee3a 65a4 c4bb
00000140: c12b ee3b fdd0 04bc bed2 6dba cfb2 663c
00000150: b1d3 e0bb 6adc 69bb 360c 66bb e031 b43a
00000160: 04a0 c13b ce23 af3c d839 8dbb cc38 673c
00000170: 1854 99bb ebc3 0abc 62fa cabb c88f ffbb
00000180: f025 383a 01bd a4bb 4588 7bbb f586 783b
00000190: 804c 35bc 4f09 1fbb ffd8 30bb c240 0f37
000001a0: 5d4a babb 8409 ef3b 7585 9d3a 2a97 72bb
000001b0: fcab 7dbb 5d5e 9e3b 0f02 1abb e242 dbb9
000001c0: 07db 84bb 95ce 2cbb 4d45 6abc 6d19 94bb
000001d0: dd2e 13bb 624f b03b 674f debb fd81 b2bb
000001e0: dd13 50bb 1c9e d4ba ff2e b63a 1a78 c43a
000001f0: a241 ba34 38f8 4bbb 0e6b 6b3b f700 f2bb
00000200: aec6 b5bb ad6a b33b ab93 9e3b e847 023c
00000210: ddc7 c73b 8cd8 7fbb 1f86 aebb 450c feba
00000220: 793e 0cbb fe92 8f39 5144 1f3b 69aa 88ba
00000230: 0ca4 d0bb 06c4 5bbb

network_body._body_endoder.seq_layers.2.weight f4 [142, 142]
-0.052102156 0.10401257 0.09039479 -0.022666201 0.05973481 0.07273061 0.15066694 -0.093435906
-0.054122616 0.04439871 0.029010966 -0.06795608 0.0010684245 0.024685796 0.056699555 -0.031224772
0.012571972 0.10465449 -0.090521574 -0.14049798 0.16658568 0.04815718 0.1489106 0.010626799
-0.007161189 -0.09058602 -0.089114666 -0.08628574 -0.1001308 -0.042299032 -0.1345321 -0.15067063
-0.051318873 -0.08551809 -0.023941357 0.04815365 -0.1179865 0.11203215 0.054486837 0.025106449
-0.052660882 0.0743621 0.016100207 0.058940336 0.20466559 0.07888449 -0.012073702 0.007261428
-0.034568977 -0.012937877 -0.09659609 0.01138036 -0.0074318387 -0.086991124 -0.073233806 -0.1710623
0.13235468 -0.059714798 -0.027888857 0.0145636415 0.058929026 0.0073280344 -0.010073587 0.03862664
-0.040005792 -0.06600003 0.035626125 -0.0063022426 -0.01489431 -0.005301178 -0.033632133 -0.15764503
-0.059502237 -0.00371174 -0.023022253 0.017162 0.07585301 -0.016259523 -0.015521766 0.14304188
0.0012959014 -0.07866186 -0.2541805 0.0110256225 -0.05162812 -0.035830315 -0.004355618 0.05480845
0.07799611 -0.0038633153 -0.02390891 0.13368824 -0.025253434 0.02269766 0.07359809 -0.012279087
-0.0038115457 0.18542868 -0.014942435 0.07859586 -0.037387613 0.017620616 0.020800462 0.03077353
0.0028415497 0.038164776 0.19974601 -0.00238753 0.08314532 0.044550225 0.04565064 0.10657053
0.14134714 -0.051763088 -0.13931178 0.025232771 0.021499522 -0.07841113 -0.12744021 0.111180626
0.03213076 -0.089701146 -0.02561894 -0.029348081 -0.060044814 0.028347671 -0.009960563 -0.09107253
-0.046598695 -0.15726851 -0.10103484 -0.066533215 -0.09906973 -0.1885135 0.0065420405 0.009849451
0.0900556 -0.11807548 -0.030248955 0.064118735 -0.04502278 0.11727758 0.038832482 0.0400488
0.007756387 -0.09436799 -0.13293974 -0.009901412 0.0034973286 0.03370649 0.0357392 0.06986224
-0.010353077 0.11467639 -0.07116179 0.054717712 -0.024821885 -0.061898675 0.068988524 0.026979014
-0.07012924 0.11070484 0.0868182 -0.069901824 0.0053955014 -0.027846226 -0.031377528 -0.071092896
0.07154781 -0.024312371 -0.03805564 -0.17713355 -0.019411825 -0.15616103 0.13873671 0.0011136738
0.15558277 -0.23488371 0.029156717 0.10472631 0.026739093 -0.0075526927 -0.04546888 0.08065808
-0.085120715 0.050922886 -0.014715472 0.11038972 -0.04283759 0.03840641 0.14043237 0.003229432
0.029340131 0.09849727 0.09762237 0.0805895 0.15391813 0.036366798 -0.04535456 -0.13017116
-0.013817885 0.0023118474 -0.074451186 -0.07821254 -0.010546134 -0.043732494 0.052034155 -0.08443328
0.05318909 -0.0154746175 -0.09937909 0.024947317 0.07480848 -0.09739943 -0.031101823 0.003214272
-0.022510858 -0.015691461 0.029471003 0.19829822 -0.013511394 0.07446414 0.03864076 0.0136675965
0.038596444 -0.08049567 0.015556739 0.015525018 0.04237649 0.078544766 0.0068428805 0.054783314
-0.047249395 -0.13049743 -0.18546717 0.0490855 -0.029982625 -0.08152431 3.5045017e-05 0.069864154
0.01324675 -0.15514416 0.0558077 0.057691064 -0.043369416 0.030762456 0.07404921 0.005121389
0.020387031 0.2579199 0.06543748 0.1480603 0.09561248 -0.0040655737 0.039192427 -0.09755652
00000000: 1269 55bd 8b04 d53d e720 b93d 78ae b9bc
00000010: 7dac 743d c9f3 943d 6f48 1a3e 535b bfbd
00000020: adaf 5dbd 6cdb 353d 68a8 ed3c 8f2c 8bbd
00000030: 610a 8c3a de39 ca3c cb3d 683d 18cb ffbc
00000040: acfa 4d3c 1855 d63d 6063 b9bd b4de 0fbe
00000050: 7095 2a3e 7740 453d 057c 183e 071c 2e3c
00000060: 68a8 eabb 2a85 b9bd c081 b6bd 94b6 b0bd
00000070: 6011 cdbd c041 2dbd c8c2 09be 6749 1abe
00000080: bd33 52bd 1c24 afbd aa20 c4bc c33c 453d
00000090: e8a2 f1bd 1d71 e53d 972d 5f3d 0aac cd3c
000000a0: f0b2 57bd 284b 983d 95e4 833c 6c6b 713d
000000b0: db93 513e 318e a13d c7d0 45bc 46f1 ed3b
000000c0: 3398 0dbd 64f9 53bc 2cd4 c5bd b174 3a3c
000000d0: c886 f3bb 6728 b2bd 9bfb 95bd f52a 2fbe
000000e0: fc87 073e 8197 74bd 2c77 e4bc 579c 6e3c
000000f0: 905f 713d 0220 f03b b00b 25bc f836 1e3d
00000100: 1ddd 23bd 062b 87bd b3ec 113d 0b83 cebb
00000110: 4407 74bc 81b5 adbb d9c1 09bd b36d 21be
00000120: 9eb8 73bd aa40 73bb 2a99 bcbc 5397 8c3c
00000130: d358 9b3d b132 85bc 014f 7ebc 9279 123e
00000140: 3cdb a93a 7819 a1bd f223 82be d0a4 343c
00000150: 0278 53bd cfc2 12bd 92b9 8ebb d37e 603d
00000160: 6dbc 9f3d ad2f 7dbb 9edc c3bc 92e5 083e
00000170: 4ae0 cebc 71f0 b93c 98ba 963d 392e 49bc
00000180: 20cb 79bb 04e1 3d3e 1dd1 74bc def6 a03d
00000190: c123 19bd 1c59 903c bb65 aa3c c518 fc3c
000001a0: 4b39 3a3b ab52 1c3d 388a 4c3e 1b78 1cbb
000001b0: 1848 aa3d 4c7a 363d 2afc 3a3d a641 da3d
000001c0: 4ebd 103e 8805 54bd bfa7 0ebe f5b4 ce3c
000001d0: c41f b03c 0496 a0bd b07f 02be abb2 e33d
000001e0: 8b9b 033d 3cb5 b7bd d0de d1bc 636b f0bc
000001f0: 8df1 75bd 6039 e83c a131 23bc 3c84 babd
00000200: 46de 3ebd ff0a 21be 5beb cebd 9142 88bd
00000210: 12e5 cabd af09 41be 9d5e d63b 975f 213c
00000220: 126f b83d 8fd1 f1bd a8cc f7bc af50 833d
00000230: ce69 38bd 3a2f f03d cf0e 1f3d 360a 243d
00000240: 4a29 fe3b 0144 c1bd 5b21 08be 8839 22bc
00000250: 7033 653b d10f 0a3d 4463 123d ef13 8f3d
00000260: f49f 29bc 75db ea3d 46bd 91bd ae1f 603d
00000270: 4457 cbbc 7789 7dbd db49 8d3d 1803 dd3c
00000280: eb9f 8fbd 38b9 e23d becd b13d b028 8fbd
00000290: bfcc b03b c51d e4bc b985 00bd 2799 91bd
000002a0: a987 923d bd2a c7bc 3be0 1bbd 7f62 35be
000002b0: 8c05 9fbc ade8 1fbe ff10 0e3e b1f8 913a
000002c0: 1751 1f3e 5b85 70be 11da ee3c bf7a d63d
000002d0: f10b db3c 947c f7bb 943d 3abd 1030 a53d
000002e0: c553 aebd 8494 503d 2a19 71bc 0114 e23d
000002f0: 7876 2fbd 0a50 1d3d 81cd 0f3e e1a4 533b
00000300: b75a f03c f0b8 c93d 3dee c73d 1c0c a53d
00000310: b79c 1d3e 5af5 143d b4c5 39bd 974b 05be
00000320: 6964 62bc 5d82 173b dd79 98bd e52d a0bd
00000330: b1c9 2cbc d820 33bd c421 553d 5beb acbd
00000340: cedc 593d 4089 7dbc 4487 cbbd 515e cc3c
00000350: 3035 993d 5a79 c7bd 40c9 febc 89a6 523b
00000360: b168 b8bc 618b 80bc 2c6d f13c b00e 4b3e
00000370: e55e 5dbc a880 983d c645 1e3d 0eee 5f3c
00000380: 4e17 1e3d eada a4bd b1e1 7e3c a55c 7e3c
00000390: f892 2d3d 14dc a03d 3e3a e03b 7864 603d
000003a0: 9588 41bd 1ea1 05be 1beb 3dbe e10d 493d
000003b0: 1f9e f5bc 38f6 a6bd 4dfd 1238 f014 8f3d
000003c0: e608 593c 1cde 1ebe 9d96 643d 774d 6c3d
000003d0: 21a4 31bd 8c01 fc3c 1da7 973d 53d1 a73b
000003e0: b402 a73c 140e 843e 1604 863d 1f9d 173e
000003f0: 7ad0 c33d 8138 85bb 3d88 203d b6cb c7bd

network_body._body_endoder.seq_layers.2.bias f4 [142]
-0.008321802 0.008360262 -0.0017433498 0.007981084 -0.0035671706 -0.0055953707 0.019846883 -0.0064113485
0.010900092 -0.0028264557 -0.012487756 -0.006115998 -0.005559571 0.00028628545 -0.0052993507 0.050378993
-0.0063422616 -0.0017738328 -0.0080532245 0.0011803127 -0.009331471 0.0008222893 0.0032416012 0.00068735133
0.024904994 -0.010357007 -0.0016760589 0.010484979 -0.005331477 -0.0078028324 -0.010569686 -0.0033579627
-0.0043286174 -0.0008266054 -0.004699555 -0.008762896 -0.01662748 -0.0009368623 -0.01981331 -0.0013654839
0.0005596518 0.008116086 0.009963578 -0.004705661 -0.001405607 -0.0015308036 -0.0066121095 -0.0034409831
-0.008932663 -0.00040332018 0.005077323 -0.014371686 0.008576164 0.03445741 0.018068004 -0.0030874172
-0.0065380326 -0.006736025 6.4078085e-05 0.0066009625 -0.002133195 -0.0048178458 -0.008243981 0.005711208
-0.003829253 0.0008244661 -0.009668548 -0.0029186124 0.02833288 0.017964937 -0.020157756 -0.014132856
-0.025663342 -0.0046523632 -0.006738833 -0.0032256201 -0.0026526817 -0.0017255613 0.011384093 -0.0048011364
-0.016111035 0.0040383134 -0.004191529 0.0058203153 0.0054060807 -0.0074425736 -0.010905538 -4.798212e-05
-0.0048424476 -0.0018113476 -0.0062322393 0.010252425 0.008896744 -0.0029594358 -0.006479266 -0.0054231114
-0.020637043 -0.0068908636 -0.0042438773 -0.0013063082 -0.00017741366 -0.0019219214 -0.0071904305 -0.0040856944
-0.0057258676 -0.008827442 0.0069700433 0.0066063846 -0.006579302 -0.0074504144 -0.0050494047 0.0028174499
0.041907996 -0.008619858 0.00617806 -0.00035103114 0.0039454675 -0.0018261626 0.00042837826 -0.007147743
-0.006812692 -0.002392653 0.014994064 -0.006692785 -0.0049478463 0.013088597 -0.0015616373 -0.0065653115
0.0321968 0.07695118 -0.0067212894 -0.013114746 0.002032377 0.0036605939 -0.0008998172 0.00064215384
0.0063210432 0.023409862 -0.016782856 -0.0020683126 -0.0015456125 -0.007376222
00000000: 2b58 08bc 7bf9 083c 1d81 e4ba 18c3 023c
00000010: 31c7 69bb 5f59 b7bb ee95 a23c 4a16 d2bb
00000020: 4d96 323c 0f3c 39bb 7299 4cbc b668 c8bb
00000030: 102d b6bb 9518 9639 2da6 adbb 345a 4e3d
00000040: bfd2 cfbb f47f e8ba acf1 03bc b9b4 9a3a
00000050: 07e3 18bc e78e 573a 0b71 543b 5e2f 343a
00000060: 8f05 cc3c 70b0 29bc 34af dbba 30c9 2b3c
00000070: acb3 aebb e7ae ffbb 7a2c 2dbc 4411 5cbb
00000080: 13d7 8dbb 8db0 58ba bafe 99bb 4092 0fbc
00000090: 5a36 88bc c497 75ba 864f a2bc 09fa b2ba
000000a0: 99b5 123a 55f9 043c 463e 233c f231 9abb
000000b0: 583c b8ba 3fa5 c8ba 65aa d8bb 1e82 61bb
000000c0: 4e5a 12bc b874 d3b9 ac5f a63b 3877 6bbc
000000d0: 0a83 0c3c 3723 0d3d 5a03 943c 4456 4abb
000000e0: fe3c d6bb e0b9 dcbb a961 8638 e34c d83b
000000f0: 13cd 0bbb 05df 9dbb c311 07bc 1625 bb3b
00000100: 34f4 7abb fc20 583a d468 1ebc 3146 3fbb
00000110: 5b1a e83c 342b 933c e121 a5bc 7f8d 67bc
00000120: ee3b d2bc da72 98bb 6ed1 dcbb ed64 53bb
00000130: 9dd8 2dbb 3b2c e2ba 5984 3a3c da52 9dbb
00000140: 4afb 83bc d453 843b 1859 89bb 58b8 be3b
00000150: 7e25 b13b d5e0 f3bb 24ad 32bc 6940 49b8
00000160: 65ad 9ebb bd6a edba d037 ccbb caf9 273c
00000170: a6c3 113c 18f3 41bb 0650 d4bb 5bb4 b1bb
00000180: 040f a9bc c1cc e1bb 3910 8bbb 6e38 abba
00000190: 1e08 3ab9 fbe8 fbba b49d ebbb 4ae1 85bb
000001a0: 0fa0 bbbb faa0 10bc f664 e43b 5f7a d83b
000001b0: 2f97 d7bb 9b22 f4bb 7a75 a5bb f7a4 383b
000001c0: b8a7 2b3d 4e3a 0dbc 5371 ca3b 9a0a b8b9
000001d0: fb48 813b d95b efba f597 e039 9d37 eabb
000001e0: 013d dfbb 0ece 1cbb aaa9 753c 264f dbbb
000001f0: 8b21 a2bb 8e71 563c daaf ccba d321 d7bb
00000200: cbe0 033d 9598 9d3d 433e dcbb 3bdf 56bc
00000210: a131 053b 93e6 6f3b b6e1 6bba 3756 283a
00000220: c120 cf3b 0ac6 bf3c 337c 89bc 878c 07bb
00000230: 2696 caba 3cb4 f1bb

action_model._discrete_distribution.branches.0.weight f4 [13, 142]
-0.0021471044 -0.004199017 -0.0027833588 -0.0058339112 0.019952623 -0.00613338 0.006894166 -0.014842338
-0.016336752 0.005335581 -0.0075075454 0.0037640298 0.02386004 0.0075365277 0.018507957 0.0009402185
0.007261431 0.0021142773 -0.004281919 -0.0024061827 0.003438869 -0.0063030478 0.0011578022 -0.0073022027
-0.0011923325 -0.0009871467 -0.012651872 0.010159607 0.020224651 6.8433255e-05 0.009739743 0.009676029
-0.0005476717 -0.019570261 0.007919901 0.0012636669 0.011012988 0.008484306 -0.009653126 -0.005752755
0.003111969 -0.012493547 -0.003411289 0.0019806596 0.005736133 -0.011754588 -0.0051237033 0.000104986335
-0.0016124954 0.0069983075 0.0070489123 0.008961215 -0.0011137201 -0.006877167 0.011765271 0.0076040695
-0.0030170577 -0.012853091 6.514032e-05 -0.00554371 0.005971065 0.003783647 0.006579739 -0.0007430826
0.0034337977 -0.01812127 0.0050946753 -0.0019709272 -0.007901942 0.012960787 -0.012002265 -0.004652321
0.0019537979 0.0014210586 0.006463294 -0.008035425 0.008300055 -0.009194562 -7.8809644e-05 0.0043506986
0.0043719276 9.2217146e-05 0.00897901 -0.023068141 -0.035833117 -0.007777449 0.014031344 0.01147548
0.020287419 -0.0050756503 0.013284486 -0.0009613491 0.0037594088 0.0036720557 0.012572777 0.0057705133
0.0005233294 0.0037931986 3.8889673e-05 0.007295756 0.005161398 0.0034056653 -0.0050304057 -0.015731432
-0.009772022 0.0046054246 -0.020456828 -0.0072384216 0.008813836 -0.0046587195 0.00206879 -0.00018977336
-0.011306401 -0.0041001583 -0.01278773 0.00025638897 0.009745195 -0.0022590414 0.0077112024 0.011005671
-6.0490194e-05 0.00019093127 -0.0126308575 -0.00053250516 0.008765508 0.0027955219 -0.018035851 0.0066541736
0.00507272 0.0065544723 0.002814367 -0.0063840672 0.004600854 -0.0029668584 -0.0041528507 0.008553227
0.014768171 0.0039116843 -0.004281423 -0.011086566 -0.0046427296 0.001542634 0.0008890669 -0.0031639226
0.017641252 -0.0050301324 0.024460861 0.0023363803 0.0009033102 -0.009591754 -0.0062688245 0.007064921
0.006827847 0.012934013 0.010336153 -0.004274788 0.002111172 -0.01510771 0.0119342785 0.008697165
-0.0076966886 -0.0063979896 -0.013865155 0.010566775 -0.0043868776 0.008890357 0.0010647845 -0.0040487745
-0.0030817452 -0.010120952 -0.013793202 0.012873988 0.016317092 -0.007386648 0.008168065 0.0059732096
-0.0020356902 0.00021347795 -0.0060059545 -0.006839353 -0.015656225 -0.0098785525 -0.008610368 -0.0077828183
-0.0027328713 0.0036779873 -0.0039042823 -0.010284538 0.021461891 -0.006720453 0.014503754 0.016357029
-0.014579461 -0.0064868117 0.0029104282 0.00118531 -0.008106156 0.0034570303 -0.0031133876 0.0012381205
0.012919307 -0.009411363 0.0067875716 0.03019659 9.97276e-05 -0.009184235 -0.009317168 0.006280961
-0.003003543 0.008250405 0.012582117 -0.01801921 -0.0075612944 -0.012836341 0.0013002035 0.013217377
-0.016457485 -0.0070369765 0.00481053 -0.011773162 -0.0059170094 -0.011686398 0.0014860458 0.004108271
0.0044039055 0.013635105 -0.008361471 -0.012130581 -0.023140576 0.010470893 0.021122204 0.009903015
-0.0071425885 -0.0033780544 0.001301299 -0.007334498 -0.011535354 0.012504676 -0.0010449144 -0.0047786064
-0.0001939262 -0.0061910166 -0.008968205 -0.016012054 0.002577409 -0.0029698906 -0.0078502325 -0.00031424992
0.0026402804 0.0054281238 -0.0068102772 0.014412346 0.0021116298 -0.0046800603 -0.010521935 0.00024649917
00000000: 6fb6 0cbb e897 89bb 0369 36bb 652a bfbb
00000010: af73 a33c 85fa c8bb 75e8 e13b 472d 73bc
00000020: a7d4 85bc 19d6 ae3b db01 f6bb f1ad 763b
00000030: 2176 c33c faf4 f63b 009e 973c ff78 763a
00000040: 4cf1 ed3b b08f 0a3b 574f 8cbb 0cb1 1dbb
00000050: a65e 613b cc89 cebb 65c1 973a 5147 efbb
00000060: 0a48 9cba 2663 81ba cc49 4fbc 7b74 263c
00000070: 2bae a53c d383 8f38 7193 1f3c 3588 1e3c
00000080: a091 0fba d051 a0bc 79c2 013c a0a1 a53a
00000090: d26f 343c c201 0b3c 2528 1ebc 9b81 bcbb
000000a0: 2df2 4b3b bcb1 4cbc ef8f 5fbb f4cd 013b
000000b0: 2cf6 bb3b 5196 40bc bde4 a7bb 1c2c dc38
000000c0: 5e5a d3ba 0f52 e53b 90fa e63b 0fd2 123c
000000d0: 3ffa 91ba dc59 e1bb 20c3 403c 8f2b f93b
000000e0: d4b9 45bb c595 52bc f19b 8838 03a8 b5bb
000000f0: eca8 c33b 10f7 773b da9a d73b 6ecb 42ba
00000100: 9109 613b 0f73 94bc 3cf1 a63b ac2a 01bb
00000110: 2677 01bc 7b59 543c 26a5 44bc 7f72 98bb
00000120: 4a0b 003b d042 ba3a 0aca d33b 04a7 03bc
00000130: f4fc 073c caa4 16bc 9b46 a5b8 4e90 8e3b
00000140: 6342 8f3b b464 c138 b31c 133c 66f9 bcbc
00000150: bfc5 12bd f9d9 febb b9e3 653c a703 3c3c
00000160: cd31 a63c a451 a6bb 2ca7 593c 0c03 7cba
00000170: 6a60 763b dfa6 703b 0dfe 4d3c 9316 bd3b
00000180: 0b30 093a 5097 783b 781d 2338 3d11 ef3b
00000190: f220 a93b 9531 5f3b 1ad6 a4bb 34df 80bc
000001a0: d51a 20bc 1ae9 963b 1495 a7bc 4830 edbb
000001b0: e867 103c 2ca8 98bb 8994 073b e6fd 46b9
000001c0: 7c3e 39bc 9f5a 86bb a183 51bc f26b 8639
000001d0: 4faa 1f3c 6d0c 14bb 41ae fc3b 2151 343c
000001e0: dab6 7db8 b934 4839 a8f1 4ebc d197 0bba
000001f0: 359d 0f3c 1335 373b ecbf 93bc 410b da3b
00000200: 0f39 a63b e6c6 d63b 3e71 383b 7031 d1bb
00000210: c3c2 963b a06f 42bb a314 88bb d622 0c3c
00000220: 33f6 713c 962d 803b 2e4b 8cbb 6ea4 35bc
00000230: 0a22 98bb 3532 ca3a 4510 693a d059 4fbb
00000240: 6384 903c cfd3 a4bb 2562 c83c f51d 193b
00000250: 1fcc 6c3a bb26 1dbc b66a cdbb da80 e73b
00000260: 22bc df3b 2fe9 533c f858 293c 8513 8cbb
00000270: 975b 0a3b 5486 77bc fe87 433c 8e7e 0e3c
00000280: 8134 fcbb 3aa6 d1bb ad2a 63bc 4420 2d3c
00000290: ccbf 8fbb dca8 113c 3d90 8b3a 95ab 84bb
000002a0: 1bf7 49bb 59d2 25bc e2fc 61bc 6bed 523c
000002b0: 6cab 853c b20b f2bb 59d3 053c eaba c33b
000002c0: 3769 05bb 0dd9 5f39 99cd c4bb a71c e0bb
000002d0: 7c41 80bc a7d9 21bc 8012 0dbc 0307 ffbb
000002e0: f919 33bb 630a 713b fdde 7fbb 7b80 28bc
000002f0: d9d0 af3c 3f37 dcbb 27a1 6d3c 2dff 853c
00000300: b1de 6ebc 528f d4bb e2bc 3e3b 675c 9b3a
00000310: afcf 04bc 588f 623b fa09 4cbb 6e48 a23a
00000320: 80ab 533c 1e32 1abc 476a de3b d75e f73c
00000330: d924 d138 7979 16bc 09a7 18bc 85d0 cd3b
00000340: 17d7 44bb b52c 073c 3925 4e3c 069d 93bc
00000350: bcc4 f7bb 844f 52bc 976b aa3a b28d 583c
00000360: d9d1 86bc 7096 e6bb a7a1 9d3b 38e4 40bc
00000370: 79e3 c1bb 4e78 3fbc 6cc7 c23a ad9e 863b
00000380: a34e 903b c765 5f3c 8dfe 08bc 58bf 46bc
00000390: 4e91 bdbc 1c8e 2b3c 7908 ad3c 4140 223c
000003a0: 600c eabb 5962 5dbb 5990 aa3a 3b56 f0bb
000003b0: c8fe 3cbc 6ae0 4c3c 82f5 88ba db95 9cbb
000003c0: ab58 4bb9 03de cabb 61ef 12bc b62b 83bc
000003d0: bfe9 283b 7fa2 42bb 439e 00bc e9c1 a4b9
000003e0: 8e08 2d3b 67de b13b bf28 dfbb c321 6c3c
000003f0: 4563 0a3b 315b 99bb 3264 2cbc 8f3c 8139

action_model._discrete_distribution.branches.0.bias f4 [13]
0.0027422912 0.0040859887 0.0009777934 0.0076319105 0.009573745 -0.0032394018 -0.0027882094 -0.00675443
-0.0016541125 -0.0026651677 0.0031596187 -2.3711083e-05 -0.0011711232
00000000: 03b8 333b c2e3 853b 4d29 803a 1b15 fa3b
00000010: 32db 1c3c 254c 54bb 64ba 36bb 4454 ddbb
00000020: cece d8ba 18aa 2ebb 9b11 4f3b 2ae7 c6b7
00000030: 6080 99ba

action_model._discrete_distribution.branches.1.weight f4 [13, 142]
-0.0019512754 -0.015555369 0.017508427 -0.004093151 0.0067862174 -0.006219842 -0.025459146 -0.008832698
0.006043471 0.004797226 -0.008469703 0.0041022133 -0.004775832 0.0031792007 0.02106824 -0.007561182
0.022061031 -0.017706413 -0.0035134524 0.007947272 -0.002834581 3.4857276e-05 -0.0009991667 -0.009053698
0.0006876652 0.0013640319 0.0064181434 -0.015911004 0.004119639 -0.009042637 0.009747655 0.002200009
0.007706716 0.018367669 0.012717438 0.01037089 0.00666184 0.024769833 -0.023775367 -0.007969723
0.00482928 -0.017075539 0.00029919125 -0.018873833 -0.014485739 -0.0042174296 0.0035066083 0.010274963
-0.0104061775 -0.0051182597 -2.0386287e-05 -0.008507442 -0.005549231 -0.0003179342 -0.0049781757 -0.0032723546
-0.00459514 0.0146613 0.020009926 -0.008013369 0.010083257 -0.0053078 0.007023515 -0.01851567
0.008657697 -0.011618416 -0.006262737 -0.00020599626 -0.01829242 0.007894493 -0.007258268 0.005100466
0.0013112441 -0.0040081106 -0.011058057 0.0040726503 0.0066810423 0.010443556 -0.016744832 8.0818e-05
-0.0015193484 0.018233096 0.014519117 0.00405637 -0.013813945 0.014059989 -0.014905851 0.0060490323
0.0009202894 0.022278823 -0.0025545822 -0.0158942 -0.00071956025 -0.002617439 0.00875847 0.019884102
-0.0062043727 -0.014487006 0.0073772557 0.007705183 0.0024141956 -0.016688857 0.007731764 0.0066004163
-0.010099684 -0.010511344 -0.012714486 -0.010489108 0.0070621944 0.007673463 0.008807346 -0.011764949
0.00916567 0.0026185615 -0.0197404 -0.0057758307 -0.0051069786 0.018720979 0.0151358545 0.01674325
0.0030478342 0.0039633755 -0.011277092 0.007876723 0.00092634006 0.000736141 -0.0040769214 0.007930445
-0.029114328 -0.013080291 0.0051699933 -0.0119440155 -0.022890402 -0.004398616 0.0028758564 0.018631727
-0.010686843 -0.00020897918 -0.005905214 -0.009783603 0.011053989 -0.008935101 -0.005370666 0.005831835
0.010017485 -0.005893786 -0.00043847717 -0.0013541626 0.007068136 -0.010927353 0.017521165 0.010231387
0.009423753 0.005413792 -0.012163746 0.010300465 0.01623316 0.0045459936 0.0012701461 0.011090459
-0.00817469 0.011039419 -0.0041400166 0.012267886 -0.010252633 0.006585121 0.0018893788 0.0017157997
-0.0070650605 0.0063169417 0.008322257 0.0033947767 -0.009150255 0.006201612 -0.0051595783 0.008692078
0.0035186089 -0.0031227136 0.008615241 0.018332196 0.002833432 -0.0033635139 0.011096048 -0.00013972333
-0.004790697 -0.009247793 0.0053318804 -0.0070364648 -0.000495369 0.002335727 -0.0053023538 0.0007039068
0.009926964 -0.00032357773 -0.010285779 0.0057068756 -0.009982914 0.011390143 -0.021758912 -0.009680159
0.011343626 -0.0076781414 0.0041743345 0.002305668 -0.0016547636 -0.001212933 -0.0020841167 -0.017008573
-0.003953071 -0.0012896503 -0.00457423 -0.0011404742 -0.0013467323 0.0016938209 -0.0038699477 0.00837995
-0.0135054905 0.013822128 0.0043852804 -0.0076388977 -0.0010949265 2.8330902e-05 -0.0016515472 0.020308986
-0.007054669 0.0014544872 0.029091058 -0.00035808183 -0.0014050305 0.017241944 -0.0068899323 0.012418754
-0.0123373745 0.0013870578 -0.0030583811 -0.026220303 -0.0047801635 0.017711643 0.0022695374 -0.0022792944
-0.0149660325 0.0133867115 0.028653188 -0.009277161 -0.0010700785 -0.0024452764 0.001056881 -0.00018576636
0.0058810306 0.0019910873 -0.00035314294 0.0076103155 0.006436668 0.006778466 0.0042118784 0.014090243
00000000: f0c1 ffba f2db 7ebc d56d 8f3c d71f 86bb
00000010: eb5e de3b d1cf cbbb b38f d0bc 05b7 10bc
00000020: 4f08 c63b 0c32 9d3b 82c4 0abc dc6b 863b
00000030: 957e 9cbb 235a 503b 4d97 ac3c cbc3 f7bb
00000040: 56b9 b43c 0a0d 91bc f341 66bb 4635 023c
00000050: 61c4 39bb b733 1238 79f6 82ba f655 14bc
00000060: 6e44 343a 51c9 b23a 4a4f d23b cb57 82bc
00000070: 09fe 863b 9227 14bc a1b4 1f3c 072e 103b
00000080: 9f88 fc3b cb77 963c cd5c 503c aaea 293c
00000090: 904b da3b 1bea ca3c 8fc4 c2bc 7193 02bc
000000a0: f03e 9e3b 00e2 8bbc c5dc 9c39 4c9d 9abc
000000b0: 9855 6dbc 5d32 8abb 20cf 653b 5258 283c
000000c0: ac7e 2abc 13b7 a7bb 3803 abb7 cc62 0bbc
000000d0: 53d6 b5bb 68b0 a6b9 f71f a3bb 0075 56bb
000000e0: d492 96bb f335 703c dbeb a33c 814a 03bc
000000f0: 3f34 253c 0eed adbb 8425 e63b 2dae 97bc
00000100: 03d9 0d3c 2b5b 3ebc a537 cdbb b300 58b9
00000110: fcd9 95bc e757 013c c4d6 edbb cf21 a73b
00000120: 0dde ab3a 7856 83bb da2c 35bc de73 853b
00000130: a5ec da3b 731b 2b3c 752c 89bc d57c a938
00000140: df24 c7ba 935d 953c 97e1 6d3c 4ceb 843b
00000150: e353 62bc de5b 663c ac37 74bc f636 c63b
00000160: 943f 713a 1482 b63c c76a 27bb 8e34 82bc
00000170: dfa0 3cba 5789 2bbb b07f 0f3c fce3 a23c
00000180: 0d4e cbbb e85a 6dbc e8bc f13b c27b fc3b
00000190: 7b37 1e3b 12b7 88bc bd5a fd3b 4e48 d83b
000001a0: 2579 25bc c637 2cbc 6b50 50bc 82da 2bbc
000001b0: fb69 e73b ac71 fb3b b04c 103c c6c1 40bc
000001c0: 9b2b 163c 2c9c 2b3b 9fb6 a1bc 2e43 bdbb
000001d0: 7158 a7bb bd5c 993c 60fc 773c 2429 893c
000001e0: 2cbe 473b 34df 813b 8dc3 38bc 5f0d 013c
000001f0: a1d5 723a 96f9 403a b297 85bb b2ee 013c
00000200: 2c81 eebc b84e 56bc 0c69 a93b d5b0 43bc
00000210: a784 bbbc 4422 90bb dd78 3c3b 90a1 983c
00000220: de17 2fbc 6c21 5bb9 8780 c1bb 684b 20bc
00000230: ca1b 353c 8864 12bc 69fc afbb fa18 bf3b
00000240: 6120 243c a920 c1bb 69e3 e5b9 287e b1ba
00000250: d29b e73b a408 33bc 8c88 8f3c 8ca1 273c
00000260: 1666 1a3c 2e66 b13b 734a 47bc 48c3 283c
00000270: 67fb 843c 8ff6 943b 087b a63a c2b4 353c
00000280: 23ef 05bc aede 343c faa8 87bb 3eff 483c
00000290: a9fa 27bc 00c8 d73b 08a5 f73a afe4 e03a
000002a0: 0682 e7bb 59fe ce3b 135a 083c e77a 5e3b
000002b0: f3ea 15bc e436 cb3b ae11 a9bb 3869 0e3c
000002c0: 7698 663b 71a6 4cbb f126 0d3c 672d 963c
000002d0: 1ab1 393b 666e 5cbb 33cc 353c b282 12b9
000002e0: 47fb 9cbb 0e84 17bc 0eb7 ae3b 2592 e6bb
000002f0: a7db 01ba ff12 193b 5ebf adbb 6386 383a
00000300: b4a4 223c dea5 a9b9 af85 28bc be00 bb3b
00000310: 608f 23bc b99d 3a3c bf3f b2bc 8899 1ebc
00000320: 9eda 393c eb98 fbbb dbc8 883b b11a 173b
00000330: a7e4 d8ba 47fb 9eba ad95 08bb 9055 8bbc
00000340: c388 81bb 7c09 a9ba 6ce3 95bb f77b 95ba
00000350: d684 b0ba 3303 de3a f39e 7dbb 0f4c 093c
00000360: 2246 5dbc 3576 623c 66b2 8f3b b84f fabb
00000370: a383 8fba 26a8 ed37 ba78 d8ba 085f a63c
00000380: da2a e7bb 7ea4 be3a 5f50 ee3c eebc bbb9
00000390: 0029 b8ba fa3e 8d3c f1c4 e1bb 0878 4b3c
000003a0: b322 4abc f0cd b53a 1f6f 48bb f6cb d6bc
000003b0: eba2 9cbb 0218 913c 85bc 143b 3760 15bb
000003c0: 1734 75bc f053 5b3c 17ba ea3c 3cff 17bc
000003d0: e041 8cba ee40 20bb 0b87 8a3a 47ca 42b9
000003e0: a9b5 c03b e77c 023b 0b26 b9b9 f45f f93b
000003f0: afea d23b e51d de3b cc03 8a3b c3da 663c

action_model._discrete_distribution.branches.1.bias f4 [13]
0.007899696 0.002099868 0.0004070879 -0.005701237 -0.005792149 0.0038076492 0.0031787513 -0.0014984672
-0.0049227183 0.0059328657 -0.0014257474 0.0029658214 -0.0019560123
00000000: ba6d 013c f09d 093b 6a6e d539 71d1 babb
00000010: 11cc bdbb c189 793b 9952 503b 3768 c4ba
00000020: c14e a1bb 7c68 c23b 25e0 baba 3a5e 423b
00000030: 7130 00bb

action_model._discrete_distribution.branches.2.weight f4 [13, 142]
0.0039013196 0.0070304913 -0.013017952 0.00072675943 0.0014222473 0.003173425 0.025776058 -0.0052959705
-0.008292821 -0.009507714 -0.0052832044 -0.01274154 -0.0033275934 0.0025366712 -0.010098321 0.010696889
-0.0013529644 0.013895359 0.01463848 -0.0076761884 -0.00034018248 -0.016083255 0.010256841 0.0048465217
0.012406132 0.019346783 -0.0042985072 0.008625626 -0.026583087 0.0046044183 -0.02554843 0.006731027
-0.022920419 -0.02106421 0.0012377999 -0.006858011 0.00023322062 0.0008741164 0.012643146 -0.0070295543
-0.008722416 0.0069712074 -0.009123491 0.0041837026 0.0086521255 -0.009628021 -0.00062627444 0.00086850085
0.003024592 -0.018404895 0.0098847505 0.008260359 -0.00047251658 0.023450404 0.016090674 -0.017864227
0.017780358 0.00830538 -0.017009147 -1.6765045e-05 -0.0015852053 0.0029673846 -0.009402339 0.004315559
0.0062769046 0.0143149635 0.0016849769 -0.008028753 0.018867785 0.012095038 0.012935753 0.008687142
-0.0019168744 -0.014148387 0.0208106 -0.007000596 0.0010696817 -0.004710146 0.012581069 -0.012514741
0.029662918 0.0098791085 -0.006667388 0.0056000478 -0.02892751 0.003007825 -0.00221533 -0.007788796
-0.008742969 -0.0005721015 -0.004988743 0.0107954675 0.010751806 0.017007789 -0.008366716 -0.006697296
-0.0020386023 0.016063064 -0.008549075 -0.0032115055 -0.0029658494 -0.0042029987 -0.011104909 -0.030699095
0.0040661255 0.004044405 0.0011094345 0.0148855215 0.015303541 -0.024046341 -0.014591971 0.0026305288
0.008314577 -0.00948054 0.0014056345 0.016835768 0.003257552 -0.010138092 -0.010475173 -0.017650124
-0.0054291626 -0.010319761 0.018706258 -0.010445161 0.0031153546 0.004768204 -0.011566471 -0.010242963
-0.00949651 0.013423786 0.014111843 0.016270693 0.0035514724 -2.518903e-05 -0.0026219368 -0.018593168
0.019599773 0.018184654 0.013444021 0.012341016 -0.005352236 0.0154900635 0.01776336 0.016525537
-0.026881352 0.01012462 -0.019075802 -0.016855568 0.011112427 -0.0055122296 -0.039971467 -0.011820579
0.004559208 -0.0026044827 0.0015026846 0.011066011 -0.0044480995 0.023871582 -0.006103221 0.012273495
0.0028237097 -0.022547899 0.019654108 -0.00061286736 0.014730677 0.015756415 -0.0025426187 0.010588576
-0.022683792 0.0061138766 -0.0065190936 0.015727112 -0.00708851 0.002924241 -0.0080896 -0.0063898857
-0.003806609 0.001014155 -0.0101068355 -0.012689426 0.010440647 0.0020470927 -0.0099430885 0.01768841
-0.02285535 -0.0019657116 0.020975545 0.011377469 -0.0013429342 -0.007478461 0.023202335 -0.008645808
0.01731653 0.0132327415 -0.00057269644 0.009902 0.02085921 -0.03553743 0.007276873 -0.0012096431
-0.020092048 0.0067575723 -0.014430986 -0.014256263 0.008933449 0.0042347116 -0.006376982 0.011403738
-0.0028959033 0.0034126916 0.022801341 0.013156458 0.021843454 0.01093274 0.010314972 -0.0066834134
0.004722288 0.012548624 -0.011004099 -0.004977561 0.0037368843 0.014494032 0.015756413 0.0048395484
-0.0074785966 -0.0056315074 -0.027298678 -0.01679022 0.009911077 -0.0091623785 0.0023994981 -0.013274536
0.0056866803 0.02087456 0.015960425 0.010152531 -0.020244587 -0.0036290481 0.023250412 0.008068872
-0.013660866 -0.0065381657 -0.02432309 -0.013030486 0.011298202 -0.0070108455 0.01618244 0.0076316698
-0.0056109186 0.005387211 -0.022534428 -0.008826492 -0.0042888904 -0.012510868 0.014780421 -0.010546505
00000000: 48ad 7f3b 0960 e63b 4049 55bc 0084 3e3a
00000010: b36a ba3a 3df9 4f3b 5028 d33c d289 adbb
00000020: 9dde 07bc 3ec6 1bbc bb1e adbb e4c1 50bc
00000030: c113 5abb 483e 263b 6e73 25bc 0142 2f3c
00000040: f455 b1ba 5ca9 633c 3cd6 6f3c 8988 fbbb
00000050: 855a b2b9 08c1 83bc 4f0c 283c 92cf 9e3b
00000060: 1743 4b3c 257d 9e3c 7eda 8cbb 7f52 0d3c
00000070: c6c4 d9bc a9e0 963b f14a d1bc f28f dc3b
00000080: 9ac3 bbbc da8e acbc ac3d a23a 2ab9 e0bb
00000090: af8c 7439 f524 653a 3325 4f3c 2d58 e6bb
000000a0: 77e8 0ebc ba6e e43b b27a 15bc 7117 893b
000000b0: a5c1 0d3c d9be 1dbc 912c 24ba 1bac 633a
000000c0: 3c38 463b ddc5 96bc a6f3 213c 7556 073c
000000d0: 1abc f7b9 101b c03c 97d0 833c 0058 92bc
000000e0: 1da8 913c 4a13 083c c456 8bbc a9a2 8cb7
000000f0: aac6 cfba 7478 423b 450c 1abc 8869 8d3b
00000100: 7eae cd3b 4f89 6a3c 71da dc3a 088b 03bc
00000110: 9d90 9a3c 442a 463c 7bf0 533c 8454 0e3c
00000120: a23f fbba a3ce 67bc fe7a aa3c 4165 e5bb
00000130: 9034 8c3a 9257 9abb d420 4e3c a10a 4dbc
00000140: a6ff f23c fcdb 213c 1b7a dabb 9b80 b73b
00000150: 63f9 ecbc ee1e 453b 122f 11bb 2839 ffbb
00000160: ab3e 0fbc 15f9 15ba 9c78 a3bb 79df 303c
00000170: 5828 303c eb53 8b3c 8d14 09bc fe74 dbbb
00000180: 129a 05bb b096 833c 6b11 0cbc 1f78 52bb
00000190: b25e 42bb 4fb9 89bb 5df1 35bc ab7c fbbc
000001a0: 223d 853b ee86 843b 726a 913a 67e2 733c
000001b0: b4bb 7a3c d5fc c4bc 2a13 6fbc f364 2c3b
000001c0: dd39 083c 4454 1bbc 443d b83a 2aeb 893c
000001d0: a77c 553b 3d1a 26bc 0fa0 2bbc fe96 90bc
000001e0: 1ee7 b1bb 3714 29bc de3d 993c 2e22 2bbc
000001f0: fa2a 4c3b 983e 9c3b 4c81 3dbc 1ad2 27bc
00000200: 4097 1bbc 70ef 5b3c 5c35 673c 1e4a 853c
00000210: d2bf 683b 084d d3b7 cdd4 2bbb b350 98bc
00000220: b48f a03c fcf7 943c 5044 5c3c f931 4a3c
00000230: cf61 afbb 09ca 7d3c 7784 913c 9060 873c
00000240: 4836 dcbc bce1 253c db44 9cbc b014 8abc
00000250: e610 363c ef9f b4bb 1fb9 23bd 1aab 41bc
00000260: 6965 953b f8af 2abb baf5 c43a 374e 353c
00000270: 5dc1 91bb 568e c33c 87fd c7bb c516 493c
00000280: fd0d 393b 5fb6 b8bc a701 a13c d5a8 20ba
00000290: f058 713c 9913 813c 10a2 26bb b57b 2d3c
000002a0: 5cd3 b9bc ea56 c83b 1f9e d5bb 25d6 803c
000002b0: bb46 e8bb 9fa4 3f3b 3e8a 04bc 3f62 d1bb
000002c0: 4d78 79bb 65ed 843a 2497 25bc 4fe7 4fbc
000002d0: 3f0f 2b3c 8428 063b 56e8 22bc 49e7 903c
000002e0: 253b bbbc 2bd3 00bb e8d4 ab3c 9068 3a3c
000002f0: 6505 b0ba e10d f5bb d312 be3c 26a7 0dbc
00000300: 65db 8d3c 24ce 583c 0221 16ba 003c 223c
00000310: efe0 aa3c b28f 11bd d672 ee3b e38c 9eba
00000320: 1498 a4bc a06e dd3b f16f 6cbc 1a93 69bc
00000330: 9a5d 123c 56c3 8a3b 01f6 d0bb bed6 3a3c
00000340: 32c9 3dbb 77a7 5f3b e1c9 ba3c 2f8e 573c
00000350: 0bf1 b23c 3c1f 333c 2100 293c 8900 dbbb
00000360: 6cbd 9a3b be98 4d3c 894a 34bc cf1a a3bb
00000370: 84e6 743b 6078 6d3c 9813 813c 1395 9e3b
00000380: 040f f5bb 8288 b8bb 7aa1 dfbc a58b 89bc
00000390: 1262 223c cd1d 16bc e640 1d3b 707d 59bc
000003a0: 5557 ba3b 2001 ab3c 70bf 823c cd56 263c
000003b0: fad7 a5bc 53d5 6dbb a677 be3c 4d33 043c
000003c0: d3d1 5fbc 1c3e d6bb 3841 c7bc d27d 55bc
000003d0: 181c 393c 3cbb e5bb 0991 843c 1613 fa3b
000003e0: ccdb b7bb 3487 b03b 1f9a b8bc fe9c 10bc
000003f0: d289 8cbb 62fa 4cbc 9429 723c 40cb 2cbc

action_model._discrete_distribution.branches.2.bias f4 [13]
-0.00802282 -0.009404652 0.0036281024 0.0021268986 0.0018723821 -0.00866362 0.007226403 -0.0018484814
0.0030135417 -0.0027548305 0.0024928441 0.0013914616 0.01320851
00000000: 2572 03bc f815 1abc 75c5 6d3b 7063 0b3b
00000010: b86a f53a dbf1 0dbc 76cb ec3b be48 f2ba
00000020: d77e 453b 638a 34bb fc5e 233b b461 b63a
00000030: 8268 583c

action_model._discrete_distribution.branches.3.weight f4 [13, 142]
-0.014097701 -0.006600014 -0.0013260263 -0.01318695 -0.011385251 0.006656711 0.007010711 0.0065265256
0.0104641225 0.0027977892 -0.0038311572 -0.0048029316 0.00603356 -0.0022738625 0.007481284 -0.018872939
0.018894726 0.008022581 -0.014904381 0.0023611854 -0.008382109 -0.0014406566 -0.012963998 0.004462022
-0.0087261 -0.0042614667 0.016435813 -0.00786057 0.0029123388 -0.0081132455 0.025399717 -0.0065676803
-0.007732314 0.0017731291 0.009846073 -0.008167129 0.012275572 0.0027060101 -0.016126985 0.014216678
0.012332167 0.01016247 0.02167287 -0.0047083683 -0.012034028 -0.010306679 -0.006964871 0.014583733
-0.00461103 0.009173963 -0.0065592076 0.0018872152 -0.0054793544 0.005505756 -0.01195845 0.011213623
-0.004970337 0.0017802066 0.010749408 0.0022318752 0.003626089 0.0085250335 -0.01318243 0.0017626917
-0.003825666 -0.011552116 0.010018185 -0.012459798 0.011451686 -0.021450095 -0.0028605538 -0.0032236653
-0.0058200653 0.0018495279 -0.0022900251 -0.00040602472 0.0061237775 -0.007612864 -0.011288357 0.0026825
-0.010436195 0.015070106 0.014836297 0.00351016 0.024809366 0.010311609 -0.006310823 0.020575345
-0.0057752845 0.017284377 -0.01265608 -0.00851711 -0.009359912 -0.006320675 0.02664953 -0.011354939
-0.0022707235 -0.011814908 -0.0005444366 0.0077176737 -0.0057421434 -0.0020578997 -0.0030383049 0.018053055
-0.020817837 0.006068061 -0.012149761 0.001612505 0.004999144 -0.009058686 0.006946806 0.0012246637
-0.0034481974 -0.0045963214 -0.010537514 -0.023576982 -0.00037263313 -0.0008125178 0.010482795 0.0021623496
0.0059805466 -0.0012957716 -0.011633798 0.005531967 0.0015957863 -0.004340028 -0.002804735 0.010400826
-0.0017139418 -0.02164342 -0.006008546 -0.013753661 0.012524994 -0.011870836 0.009929674 0.012798072
-0.006948467 -0.008132561 -0.011729007 0.010629535 0.0058685667 -0.0005583858 0.01108918 0.02000909
-0.0015603543 0.00060684123 -0.014349579 -0.005127377 0.007421585 -0.00015779419 -0.006459623 0.000119311575
0.0012915356 -0.015492243 -0.0008998042 0.0058214506 -0.016730236 0.0021342165 -0.006179431 0.007816457
-0.006172946 0.0036552171 -0.018484669 0.014905348 -0.00074367784 0.011697574 0.011327897 -0.0036288523
-0.00123411 -0.010733116 0.004229652 -0.011324481 -0.015952867 0.007713269 0.0007300645 -0.008308232
0.0026075453 -0.010485357 -0.0076538757 0.010141563 0.017729186 0.0077564255 -0.016135579 0.002330531
0.005936461 -0.016498193 -0.0009369589 -0.0013806102 -0.0010395262 0.0031341063 -0.012996911 0.0133681195
-0.013043594 -0.0013892463 0.0077697393 -0.0051632454 0.005492572 -0.019376343 0.02173051 0.00819685
-0.0012703164 0.014281248 -0.0025194658 0.0015774543 -0.0037139256 0.01512117 -0.0009882384 0.0059143784
-0.007547749 -0.016218213 0.018265758 0.00939183 0.013746934 0.0063296827 -0.007044027 -0.0011760057
-0.017476188 -0.01718107 -0.0023729343 0.014059641 -0.005181405 0.0048772963 0.0025124946 -0.015244848
0.0017153034 0.0055510034 0.012912652 0.0034458374 -0.010508087 -0.01995848 -0.004301577 0.007843019
-0.01794944 0.0045289043 0.0062370296 -0.0090706665 -0.0012310597 0.011288262 0.009032355 0.011642223
0.011496097 0.00080146635 -0.016232347 -0.0074895513 -0.00073672563 -0.022291498 0.008388609 -0.0057453727
0.0013747206 0.0039567472 0.0022578675 0.006129189 -0.019229729 0.0030755876 -0.0034234177 -0.020219503
00000000: 0bfa 66bc ee44 d8bb 0fce adba 140e 58bc
00000010: 3489 3abc 8a20 da3b 1bba e53b 77dc d53b
00000020: b671 2b3c 1d5b 373b 2714 7bbb e961 9dbb
00000030: 2bb5 c53b 1505 15bb 8f25 f53b 6c9b 9abc
00000040: 1dc9 9a3c 2571 033c 8131 74bc 1ebe 1a3b
00000050: 1d55 09bc 6ad4 bcba f366 54bc 2736 923b
00000060: ebf7 0ebc c6a3 8bbb 66a4 863c 9fc9 00bc
00000070: f0dc 3e3b 6bed 04bc 1113 d03c b235 d7bb
00000080: 5a5f fdbb 5768 e83a 6c51 213c 6ccf 05bc
00000090: 7b1f 493c 5157 313b bd1c 84bc 12ed 683c
000000a0: db0c 4a3c 7d80 263c 4d8b b13c a848 9abb
000000b0: 5f2a 45bc 58dd 28bc 9339 e4bb 9cf0 6e3c
000000c0: 2018 97bb 644e 163c 9fee d6bb 6f5c f73a
000000d0: 288c b3bb a169 b43b 60ed 43bc 58b9 373c
000000e0: 35de a2bb d255 e93a 491e 303c a744 123b
000000f0: aea3 6d3b 95ac 0b3c 1efb 57bc 1e0a e73a
00000100: 06b8 7abb 1645 3dbc 5023 243c 2e24 4cbc
00000110: da9f 3b3c 1cb8 afbc 2178 3bbb 2144 53bb
00000120: 3fb6 bebb dc6b f23a 3f14 16bb b7df d4b9
00000130: f8a9 c83b 5575 f9bb cdf2 38bc e2cc 2f3b
00000140: 93fc 2abc 9be8 763c f113 733c b60a 663b
00000150: 033d cb3c 06f2 283c 05cb cebb a08d a83c
00000160: 993e bdbb f797 8d3c 725b 4fbc 598b 0bbc
00000170: 515a 19bc aa1d cfbb 1d50 da3c 110a 3abc
00000180: 6bd0 14bb 5193 41bc 86b8 0eba 8ae4 fc3b
00000190: 9728 bcbb d4dd 06bb 4c1e 47bb 00e4 933c
000001a0: 2b8a aabc 96d6 c63b cb0f 47bc b05a d33a
000001b0: dccf a33b e26a 14bc 08a2 e33b e584 a03a
000001c0: 27fb 61bb bd9c 96bb 8aa5 2cbc 8424 c1bc
000001d0: f95d c3b9 26ff 54ba 07c0 2b3c 35b6 0d3b
000001e0: 76f8 c33b e1d6 a9ba af9b 3ebc 8145 b53b
000001f0: b429 d13a cb36 8ebb a5cf 37bb 3a68 2a3c
00000200: 58a6 e0ba 8b4d b1bc 56e3 c4bb 0957 61bc
00000210: a235 4d3c e57d 42bc 12b0 223c 01af 513c
00000220: f7af e3bb 6f3e 05bc 052b 40bc 8027 2e3c
00000230: 1b4d c03b a360 12ba 64af 353c 1aea a33c
00000240: cd84 ccba 6d14 1f3a 7f1a 6bbc 8e03 a8bb
00000250: c430 f33b 8e75 25b9 3fab d3bb ea36 fa38
00000260: be48 a93a 2dd3 7dbc d6e0 6bba dec1 be3b
00000270: d90d 89bc 36de 0b3b d37c cabb 9910 003c
00000280: 6d46 cabb 5e8c 6f3b 296d 97bc 9035 743c
00000290: 60f3 42ba 2ea7 3f3c a598 393c 0ad2 6dbb
000002a0: dcc1 a1ba f4d9 2fbc e598 8a3b 518a 39bc
000002b0: 96af 82bc 97bf fc3b cd61 3f3a 401f 08bc
000002c0: 5ae3 2a3b c6ca 2bbc 5dcd fabb cc28 263c
000002d0: cc3c 913c 9d29 fe3b c32e 84bc d2bb 183b
000002e0: a586 c23b 3827 87bc 3f9e 75ba 97f5 b4ba
000002f0: b640 88ba 9465 4d3b fff0 54bc f505 5b3c
00000300: ccb4 55bc 5f17 b6ba 4c99 fe3b 7130 a9bb
00000310: 09fb b33b 23bb 9ebc 2f04 b23c 154c 063c
00000320: bf80 a6ba e5fb 693c 9f1d 25bb 95c2 ce3a
00000330: 5565 73bb c9be 773c c787 81ba 67cd c13b
00000340: 1c53 f7bb 0fdc 84bc 12a2 953c 31e0 193c
00000350: d23a 613c 3a69 cf3b 95d1 e6bb 3424 9aba
00000360: 392a 8fbc 51bf 8cbc 3b83 1bbb 695a 663c
00000370: c7c8 a9bb bad1 9f3b aaa8 243b 87c5 79bc
00000380: 08d4 e03a 31e5 b53b 978f 533c 8fd3 613b
00000390: 1d2a 2cbc f77f a3bc 3ef4 8cbb 0280 003c
000003a0: b40a 93bc 3467 943b ff5f cc3b 229d 14bc
000003b0: 825b a1ba 67f2 383c 71fc 133c 06bf 3e3c
000003c0: 205a 3c3c 7f19 523a b3f9 84bc e96a f5bb
000003d0: d220 41ba a99c b6bc 6070 093c ae43 bcbb
000003e0: f82f b43a 9aa7 813b bbf8 133b 5dd7 c83b
000003f0: aa87 9dbc cc8f 493b 6b5b 60bb 5fa3 a5bc

action_model._discrete_distribution.branches.3.bias f4 [13]
0.0053878506 -0.0020401562 -0.0021719139 0.0051122145 0.006810983 0.007754745 0.010103153 0.0036209286
-0.010155777 0.00017113496 -0.00757728 -0.007649321 -0.00066458626
00000000: 918c b03b 24b4 05bb ab56 0ebb 5d84 a73b
00000010: ab2e df3b 841b fe3b b287 253c 1a4d 6d3b
00000020: 6b64 26bc b172 3339 d54a f8bb 28a7 fabb
00000030: a137 2eba
