results/NewTwoAgentsFullBoardAction/WhiteMLAgent/WhiteMLAgent-0.onnx (onnx, 681198 bytes, 133 tensors)

discrete_act_size_vector f4 [1, 64]
00000000: 0000 5041 0000 5041 0000 5041 0000 5041
00000010: 0000 5041 0000 5041 0000 5041 0000 5041
00000020: 0000 5041 0000 5041 0000 5041 0000 5041
00000030: 0000 5041 0000 5041 0000 5041 0000 5041
00000040: 0000 5041 0000 5041 0000 5041 0000 5041
00000050: 0000 5041 0000 5041 0000 5041 0000 5041
00000060: 0000 5041 0000 5041 0000 5041 0000 5041
00000070: 0000 5041 0000 5041 0000 5041 0000 5041
00000080: 0000 5041 0000 5041 0000 5041 0000 5041
00000090: 0000 5041 0000 5041 0000 5041 0000 5041
000000a0: 0000 5041 0000 5041 0000 5041 0000 5041
000000b0: 0000 5041 0000 5041 0000 5041 0000 5041
000000c0: 0000 5041 0000 5041 0000 5041 0000 5041
000000d0: 0000 5041 0000 5041 0000 5041 0000 5041
000000e0: 0000 5041 0000 5041 0000 5041 0000 5041
000000f0: 0000 5041 0000 5041 0000 5041 0000 5041
13.0 13.0 13.0 13.0 13.0 13.0 13.0 13.0
13.0 13.0 13.0 13.0 13.0 13.0 13.0 13.0
13.0 13.0 13.0 13.0 13.0 13.0 13.0 13.0
13.0 13.0 13.0 13.0 13.0 13.0 13.0 13.0
13.0 13.0 13.0 13.0 13.0 13.0 13.0 13.0
13.0 13.0 13.0 13.0 13.0 13.0 13.0 13.0
13.0 13.0 13.0 13.0 13.0 13.0 13.0 13.0
13.0 13.0 13.0 13.0 13.0 13.0 13.0 13.0

network_body._body_endoder.seq_layers.0.weight f4 [142, 71]
00000000: 42e4 1b3d 641a 7abc 0df9 84bd 567e 5a3b
00000010: a96f 6a3e 1a6e 1e3c 398f 2abe c5e7 0ebe
00000020: dd4a 3fbe 98c5 103e 6b67 b5bd 79a3 b9bd
00000030: 3975 16be bb78 39bd 245b 08bc c4ca 0bbd
00000040: 17ef 363e 5712 6abd 9318 103d a401 983d
00000050: ee89 143e a696 ad3d 1f02 14be 7093 f33d
00000060: 0aa5 89be 61c8 c23d 8ebf a0bb 313d e43d
00000070: 4372 86bd a152 153e d759 be3c 5862 35be
00000080: 495c b93d 5f76 fc3c f4db 2d3d ca62 ed3d
00000090: 074f c03d fda6 cabd e660 073e d360 3a3c
000000a0: 4dd8 cb3b bb80 733e 02b1 2ebe 4b08 963d
000000b0: 0805 5bbd 627a 22be 41b0 853e 7930 dcbd
000000c0: adc0 7b3e 3e75 12bd acb7 6f3d 5588 f9bd
000000d0: a374 e83d 864a 34be 32da f4bc 4c35 373d
000000e0: 402a bc3c cdd1 8cbd c208 073d 126d ebbc
000000f0: 90be 833d df5b 0cbe 674f c63c 9fcd 30be
00000100: 9ec7 0a3e e25a 08be a6d9 09bd 5b0b ce3d
00000110: 35bd 25be 6346 803d 9738 88bd 6c4d 4f3e
00000120: d79c dcbd 8bcf 88bd 1306 9cbb dd6c d3bd
00000130: 6275 50bb e2ec db3d b430 75bd db5d da3d
00000140: 621a 893c 56e0 d1bc 6fa5 59be 4d0f a13d
00000150: 966a 17bd b782 743e 018b fbbd cca6 86bd
00000160: d3a0 f7bd 603f 043e 22ff b9bd e939 1abe
00000170: f75b b8bd 39c6 61bd 9416 86bd 2c6a 543d
00000180: 101e 0abe ff7d 1b3e f387 91bd b7e5 5c3d
00000190: 41e2 4bbd b879 92be 1a3b 0f3d 185c 37bb
000001a0: 8438 16be 1e01 5ebd 73f2 633c 12d3 f33d
000001b0: 9117 d23d c9d5 58be 6ac0 b53d 894a ae3d
000001c0: e7a6 b23d 55a2 1dbc e745 47be 26f5 0abe
000001d0: a0f9 133e efb9 84bc f762 9ebd 78fa a8bd
000001e0: 4473 15be cda8 0d3e ce5c 04bd 2484 09bd
000001f0: b6bf 903d 2460 87bc ff21 55bd 5faa d33d
00000200: 29a3 003e 784d 23be ff86 aa3d e645 973c
00000210: bd04 8ebd df56 05be 4aa5 063e 2129 6e3e
00000220: 84e0 9dbe 894b 13be d1fd 15be 2d9e 1ebe
00000230: 8d97 d73d 9d51 353e f87d 9a3d 2986 923e
00000240: be9c 80be 2998 00be e3b8 803d 63da 053e
00000250: 05d9 773c 96e7 403e d38c 74bc 780c b2bd
00000260: 1790 083e 9c64 81bd c093 4b3d deba 523c
00000270: 3a25 97bd 463a bbbd a1fe e2bd 1545 f0bd
00000280: d76a 623e 7b11 2f3e 113a 02bd 7041 0ebd
00000290: aa27 023e fdd2 103e f770 c63d 0492 dbbd
000002a0: 5283 1abe 44ad 553e 71a8 58be 25d6 d0bd
000002b0: f41d a73d 025e 0dbe a7c2 ab3d d39f 4c3e
000002c0: 4980 833c 08d1 94be f055 17be be65 293e
000002d0: a160 d3bd f82c b53d f6a9 693d a0fd aebc
000002e0: 3b75 e93d 3797 2a3e 9a29 6f3d 2f33 03be
000002f0: 3962 7f3e 6682 a23c c4db 24be c491 ef3d
00000300: c5f0 30be 5baf 00be 479f 1d3a c1c4 6abd
00000310: 628a 81bd fa89 743d 7845 313b b216 053b
00000320: 2952 1c3e ef6f 103e 859a 283e ffb1 3e3e
00000330: 6453 f0bd 534a 85bc caee 69be 3143 16be
00000340: dee1 753d c408 14bd bcba 0ebe 2431 05be
00000350: c7df 043d d7e8 e63d ade6 03be 632c 423e
00000360: b0fb 58be 254e c33d 390e 43bc e9d9 df3d
00000370: 8620 43be b415 003e e1ed 1ebd 00f0 4c3d
00000380: 83f3 b13c 099b 913c 54eb 833d e3c8 b63c
00000390: 10d4 363c 414b 2e3e 4edc fbbd f982 8ebd
000003a0: f115 8fbe 4a40 5c3e 3239 ff3d 4078 a8bd
000003b0: e0ba 2b3e 31c6 88be 3823 793b 2363 12be
000003c0: 6b68 6e3d 5495 0bbd 139c 0d3e ada1 cd3b
000003d0: b8e6 443e 8759 3bbe c2fc e83d ef0c 40bc
000003e0: 3da3 8d3d 28f2 95be 21c7 75bc d169 3e3e
000003f0: 4d27 ed3c 024d debd b19a 57be ec6d 1dbe
0.03805948 -0.015265081 -0.06492815 0.0033339462 0.22894157 0.009669805 -0.16656198 -0.139556
-0.18680902 0.14137876 -0.08857616 -0.09064383 -0.14693154 -0.045281153 -0.008322511 -0.03412892
0.17864643 -0.057146396 0.035179686 0.07422188 0.14505741 0.084759995 -0.14453934 0.11893356
-0.26883727 0.095108755 -0.0049056476 0.11144484 -0.065647624 0.14582302 0.023236198 -0.17713296
0.09050805 0.030818162 0.04244609 0.11591108 0.09390073 -0.09895132 0.13220558 0.011375624
0.0062208534 0.23779576 -0.1705971 0.073258005 -0.053471595 -0.15866998 0.26111034 -0.10751433
0.24585219 -0.035756342 0.058524773 -0.121842064 0.11350372 -0.17606553 -0.0298892 0.044728562
0.022969365 -0.06875954 0.032967336 -0.028738532 0.06432831 -0.13706921 0.024207784 -0.17265938
0.1355271 -0.13315919 -0.03365483 0.1006076 -0.16185458 0.06263425 -0.06651419 0.20244378
-0.10772102 -0.06680211 -0.0047614663 -0.103234984 -0.0031808247 0.10738541 -0.0598609 0.10662433
0.016736213 -0.025619667 -0.21254514 0.078642465 -0.036966883 0.23877989 -0.12282372 -0.06574783
-0.12091222 0.129148 -0.09081866 -0.15061153 -0.09001916 -0.05512068 -0.06547275 0.051859066
-0.1348803 0.15184782 -0.071060084 0.05393001 -0.04977632 -0.2860849 0.034968473 -0.0027978476
-0.14669997 -0.054200284 0.013912785 0.11905493 0.10258401 -0.21175303 0.08874591 0.0851031
0.0872324 -0.0096212225 -0.1946026 -0.13570079 0.14450693 -0.016201941 -0.0773372 -0.08250898
-0.14594752 0.13833924 -0.032315068 -0.033573285 0.07067816 -0.016525336 -0.052034374 0.1033523
0.1256224 -0.1594752 0.0832653 0.018465947 -0.069344975 -0.1302142 0.1314899 0.23257877
-0.30835354 -0.14384283 -0.14647605 -0.15490027 0.10526953 0.17706914 0.07543558 0.2861798
-0.25119585 -0.12558044 0.06285264 0.13071589 0.015127425 0.18838343 -0.014926153 -0.086937845
0.13336216 -0.06318018 0.049701452 0.012861935 -0.07380147 -0.09141974 -0.11083723 -0.11731926
0.22111069 0.17096512 -0.031793658 -0.034730375 0.12710443 0.14142986 0.09689515 -0.1072121
-0.15089157 0.20866877 -0.21158005 -0.10197095 0.0816001 -0.13805392 0.08386736 0.19982843
0.016052382 -0.29065728 -0.14778876 0.16542718 -0.10321165 0.08846468 0.057046853 -0.021361172
0.11399313 0.16659246 0.058389284 -0.12812494 0.24939813 0.01983757 -0.16099459 0.116977245
-0.17279346 -0.12566893 0.0006012809 -0.057316545 -0.063252226 0.059701897 0.0027049463 0.0020307717
0.15265717 0.141052 0.16465195 0.18622588 -0.117346555 -0.016270792 -0.22844997 -0.14674069
0.060029857 -0.036141172 -0.13938421 -0.13007027 0.032439973 0.112748794 -0.12880965 0.18962245
-0.21189761 0.09536389 -0.011905246 0.10930235 -0.19055375 0.12508279 -0.038801078 0.05003357
0.02172256 0.017774122 0.0644137 0.022312587 0.011158958 0.17020895 -0.12297879 -0.06958575
-0.27946427 0.215089 0.12462081 -0.08226061 0.16770506 -0.26713708 0.0038015377 -0.1429563
0.05820505 -0.034077957 0.13829069 0.006275377 0.19228637 -0.1829587 0.11376335 -0.011721834
0.06915901 -0.29286313 -0.015001089 0.18595053 0.028949404 -0.10854532 -0.21055104 -0.15373963

network_body._body_endoder.seq_layers.0.bias f4 [142]
00000000: 0000 0000 0000 0000 0000 0000 0000 0000
00000010: 0000 0000 0000 0000 0000 0000 0000 0000
00000020: 0000 0000 0000 0000 0000 0000 0000 0000
00000030: 0000 0000 0000 0000 0000 0000 0000 0000
00000040: 0000 0000 0000 0000 0000 0000 0000 0000
00000050: 0000 0000 0000 0000 0000 0000 0000 0000
00000060: 0000 0000 0000 0000 0000 0000 0000 0000
00000070: 0000 0000 0000 0000 0000 0000 0000 0000
00000080: 0000 0000 0000 0000 0000 0000 0000 0000
00000090: 0000 0000 0000 0000 0000 0000 0000 0000
000000a0: 0000 0000 0000 0000 0000 0000 0000 0000
000000b0: 0000 0000 0000 0000 0000 0000 0000 0000
000000c0: 0000 0000 0000 0000 0000 0000 0000 0000
000000d0: 0000 0000 0000 0000 0000 0000 0000 0000
000000e0: 0000 0000 0000 0000 0000 0000 0000 0000
000000f0: 0000 0000 0000 0000 0000 0000 0000 0000
00000100: 0000 0000 0000 0000 0000 0000 0000 0000
00000110: 0000 0000 0000 0000 0000 0000 0000 0000
00000120: 0000 0000 0000 0000 0000 0000 0000 0000
00000130: 0000 0000 0000 0000 0000 0000 0000 0000
00000140: 0000 0000 0000 0000 0000 0000 0000 0000
00000150: 0000 0000 0000 0000 0000 0000 0000 0000
00000160: 0000 0000 0000 0000 0000 0000 0000 0000
00000170: 0000 0000 0000 0000 0000 0000 0000 0000
00000180: 0000 0000 0000 0000 0000 0000 0000 0000
00000190: 0000 0000 0000 0000 0000 0000 0000 0000
000001a0: 0000 0000 0000 0000 0000 0000 0000 0000
000001b0: 0000 0000 0000 0000 0000 0000 0000 0000
000001c0: 0000 0000 0000 0000 0000 0000 0000 0000
000001d0: 0000 0000 0000 0000 0000 0000 0000 0000
000001e0: 0000 0000 0000 0000 0000 0000 0000 0000
000001f0: 0000 0000 0000 0000 0000 0000 0000 0000
00000200: 0000 0000 0000 0000 0000 0000 0000 0000
00000210: 0000 0000 0000 0000 0000 0000 0000 0000
00000220: 0000 0000 0000 0000 0000 0000 0000 0000
00000230: 0000 0000 0000 0000
0.0 0.0 0.0 0.0 0.0 0.0 0.0 0.0
0.0 0.0 0.0 0.0 0.0 0.0 0.0 0.0
0.0 0.0 0.0 0.0 0.0 0.0 0.0 0.0
0.0 0.0 0.0 0.0 0.0 0.0 0.0 0.0
0.0 0.0 0.0 0.0 0.0 0.0 0.0 0.0
0.0 0.0 0.0 0.0 0.0 0.0 0.0 0.0
0.0 0.0 0.0 0.0 0.0 0.0 0.0 0.0
0.0 0.0 0.0 0.0 0.0 0.0 0.0 0.0
0.0 0.0 0.0 0.0 0.0 0.0 0.0 0.0
0.0 0.0 0.0 0.0 0.0 0.0 0.0 0.0
0.0 0.0 0.0 0.0 0.0 0.0 0.0 0.0
0.0 0.0 0.0 0.0 0.0 0.0 0.0 0.0
0.0 0.0 0.0 0.0 0.0 0.0 0.0 0.0
0.0 0.0 0.0 0.0 0.0 0.0 0.0 0.0
0.0 0.0 0.0 0.0 0.0 0.0 0.0 0.0
0.0 0.0 0.0 0.0 0.0 0.0 0.0 0.0
0.0 0.0 0.0 0.0 0.0 0.0 0.0 0.0
0.0 0.0 0.0 0.0 0.0 0.0

network_body._body_endoder.seq_layers.2.weight f4 [142, 142]
00000000: 50a0 78bd 1c56 5d3d 5945 2ebc a8a5 90bd
00000010: 0cb2 d3bd fa46 19bd 3a10 0bbc 8752 f2bb
00000020: 0f89 d13d 6594 8cbc 0cc8 893d b513 d8bd
00000030: 11ec eabc d34b 81bc 76f0 88bd ede6 f13d
00000040: 3075 d1bd f5f9 3a3e b8cc a2bd c198 94bc
00000050: b92e 9ebd 6c7a d1bd 89ca 883d 8df4 073d
00000060: 09eb 7ebc 1250 863d f282 f43d 5a5e 4d3d
00000070: bb2e a5bd aacb e63d 921a 443d a829 07bd
00000080: e224 74bd b9c2 e23d 1bd5 edbc 44aa 80bd
00000090: 5500 c23d 6205 17be 9919 93bd 5f4c d03d
000000a0: 8e65 f03c b093 b2bc 4472 453d 1ffd c7bd
000000b0: 3dba 7d3c fcc9 6f3d 3523 bcbd 2f08 14bd
000000c0: 3eae 04bd 100e 9d3c 5446 9fbb a81b 9b3a
000000d0: 0e69 c93d df57 483e 3028 4c3d 70db 57bd
000000e0: 3bd3 f3bc bdff 82bd 754c 713d 7d64 12be
000000f0: e142 a43d 7731 debd 1e38 cdbd 3e31 0a3c
00000100: 6c55 25bd 8f69 91bd 87f1 2c3d 739e 283b
00000110: b801 873d 5479 9c3d 96ca 25be e27e 80bd
00000120: 6a1e aabc a4d6 6e3d f6c1 2e3d 5f36 a03d
00000130: 0a9b 323e 66ae e1bb d36a aabd f2cb 20be
00000140: 6fb7 bf3c d4da cd3c d107 a0bd c9dd e9bc
00000150: 5dbb 0b3d a3e2 903d 3a2f 8e3d 8f71 e03d
00000160: ffbd bd3d 5ecc 00be 6b56 cf3b 3855 8abc
00000170: be9a c4bd 5f62 ba3d 9f10 dbbd a16b cebc
00000180: c061 293d 6649 ed3b 6265 cebd 147b 7ebc
00000190: 394b 19be eb00 84bc 2ac9 25bd 15c0 70bd
000001a0: 832d b13d c94e c0bd 82c8 babd a57b 91bd
000001b0: d8b6 423d bdd8 9fbc 2037 debc c151 913d
000001c0: c250 7c3e 4a3b 97bd 6d47 17be a595 563c
000001d0: 54ab 84be 233c 94bc c93a a83d a6aa 28be
000001e0: 3134 eb3d e966 83be 9bc8 c53c ede5 a6bc
000001f0: 2f27 81bd 1888 c3bd 5919 633e c64d 27be
00000200: 95d3 df3b f5b6 aabd d2b1 7cbb b2a3 0f3d
00000210: 391d 02bd f1e8 503e 3ca9 8ebb 3a9e 063d
00000220: 66ca 2abe db8a 36bc 1ac2 7f3c 0501 183e
00000230: 8ebe 2a3e c713 12bd 3eb2 153e 57cd 93bd
00000240: 84cb dcbc 761b a33b 8ea8 1dbd 3c91 7e3c
00000250: c5c6 003d 52ca e83c 8943 333e 8c7d ba3d
00000260: 5839 ef3d 37dc 083d 3b7f f63d b9a5 b8bd
00000270: 1769 ed3d c651 8c3c 0cd8 13bd 9dfc 21bd
00000280: 1e51 0fbc 77b7 5bbd 782f a1bd 44b9 fb3d
00000290: 5322 7e3d 0da0 3dbc 2fc3 27be a1c1 853d
000002a0: 7106 4abd 621b 42bd 1a5c 883d 7a24 863b
000002b0: 9408 e93d 90f8 8fbd 505a c9bc dd88 a33c
000002c0: 5c85 96bc b93c d53b a863 73bd 0e31 e1bd
000002d0: db4e 073e 2b9a b73d 7dcc 973d 6a91 bb3c
000002e0: fe28 27bc 5f07 a03c e8dd cc3c 87a7 15be
000002f0: 3638 8c3d 513b 66bc d3ac b7bd 344e c63c
00000300: 8969 33bd f677 a13d 0a3e 583e 2e73 8c3d
00000310: ee2d 52bc 13e5 9e3d 897f 93bd eb4e e4bd
00000320: fe6f 09bd 448e 183e dc5f a43d 4859 873d
00000330: 0c52 5e3d 8faa 20bd 482f e03d b60c 153e
00000340: 0918 6a3c 633a 493d 1d16 98bd 8e7a cabc
00000350: 7e3a 29bd eb58 e9bd 88f1 89bd 1b61 933d
00000360: 786f 2ebe 67a8 00be 9524 acbd 2508 963d
00000370: 500d b8bc f512 e7bd 5dec e8bc e7ad ec3d
00000380: 4126 f7bb 1525 c93d 5992 033d 6661 513d
00000390: 5dc2 60bd a6b9 0e3d 0d31 543d fb07 d1bd
000003a0: 5fc3 d53d 374c 1f3e b28a cc3c c06b acbd
000003b0: 5bf2 853d 504f 9f3d 835b 533c 7b2e 52bc
000003c0: 140d a63d 7dd7 cbbd aaaf 6abd 97fd 7b3d
000003d0: c53a c33d 641a 243e 55e6 08be 6683 8bbd
000003e0: febe a63d cac1 11bd 0eb1 89bd bd7d 36bc
000003f0: 9825 a7bd da06 263e 5806 183d a019 3b3d
-0.06069976 0.0540372 -0.010636651 -0.070628464 -0.10336694 -0.037421204 -0.008487755 -0.007395092
0.1023122 -0.017160604 0.06727609 -0.10550634 -0.028677018 -0.015783226 -0.06686489 0.11811624
-0.1022743 0.18259414 -0.07949203 -0.018139245 -0.077237554 -0.10228428 0.066792555 0.033192206
-0.015558966 0.06558241 0.11939038 0.05013881 -0.08065554 0.112693146 0.047876902 -0.03299871
-0.059605487 0.11072297 -0.02903228 -0.062824756 0.094727196 -0.14748147 -0.07182617 0.10170817
0.0293453 -0.021798939 0.048204675 -0.09765076 0.015486297 0.058542237 -0.09186403 -0.036140617
-0.032392733 0.019171745 -0.0048606787 0.0011833804 0.09834491 0.1956477 0.049843013 -0.052699506
-0.029763808 -0.063964345 0.058910806 -0.14296146 0.08020569 -0.108492784 -0.10020469 0.008434592
-0.040364668 -0.07100212 0.042222526 0.0025729209 0.06592125 0.07640329 -0.16190562 -0.06274201
-0.020766456 0.058310166 0.042665444 0.078228705 0.17441955 -0.006887245 -0.08321156 -0.15702799
0.023402898 0.02512876 -0.07813991 -0.028548138 0.03411423 0.070744775 0.069426015 0.109591596
0.092647545 -0.1257796 0.0063274405 -0.016886339 -0.09599827 0.09100794 -0.106965296 -0.025197806
0.041352987 0.007241416 -0.10077931 -0.015532274 -0.14970101 -0.016113719 -0.040475048 -0.058776934
0.08651259 -0.09390027 -0.09120275 -0.071036614 0.047537655 -0.019512529 -0.027125895 0.070956714
0.24640182 -0.07384355 -0.1477334 0.0130972015 -0.25911963 -0.018095082 0.082143374 -0.16471347
0.11484564 -0.25664452 0.024143508 -0.020373309 -0.06306302 -0.09547442 0.22177638 -0.16338262
0.0068306425 -0.083356775 -0.0038558138 0.03506822 -0.03176615 0.2040136 -0.0043536704 0.03286574
-0.16678771 -0.011141504 0.015610242 0.14844139 0.16674253 -0.035663392 0.14618775 -0.072169
-0.026952513 0.004977639 -0.038490824 0.015537556 0.03143956 0.028416786 0.17506231 0.091059774
0.11680859 0.03341314 0.12035986 -0.09015984 0.1159231 0.017128836 -0.03609471 -0.03954755
-0.008747367 -0.053641763 -0.07870382 0.12291196 0.062044453 -0.011573804 -0.1638305 0.065310724
-0.04932255 -0.047389396 0.06658192 0.004093704 0.11378589 -0.070298314 -0.024579197 0.019962722
-0.018374138 0.006507483 -0.05942121 -0.109956846 0.13213675 0.08964952 0.0741205 0.022896487
-0.010202644 0.019534765 0.025008157 -0.14614688 0.06846659 -0.014052228 -0.089685105 0.024207212
-0.043801818 0.07884209 0.21117416 0.06857906 -0.012828333 0.07758536 -0.0720206 -0.11147865
-0.03355407 0.1489802 0.08026096 0.06608826 0.054277465 -0.039225157 0.10946518 0.1455563
0.014287957 0.049127948 -0.07426093 -0.024716642 -0.041315548 -0.11393913 -0.067355216 0.07196256
-0.1703471 -0.1256424 -0.08405415 0.07325772 -0.022467285 -0.11282913 -0.02843302 0.11556607
-0.007542402 0.09821526 0.03212199 0.051118277 -0.05487286 0.034845017 0.05180459 -0.102066
0.10437655 0.15556417 0.024968479 -0.08418989 0.06540366 0.077787995 0.012900236 -0.012828465
0.08107963 -0.099532105 -0.057296433 0.06152114 0.09532694 0.16025692 -0.13369115 -0.06812172
0.081418976 -0.035585202 -0.067232236 -0.011138377 -0.08161467 0.16213551 0.037115425 0.045678735

network_body._body_endoder.seq_layers.2.bias f4 [142]
00000000: 0000 0000 0000 0000 0000 0000 0000 0000
00000010: 0000 0000 0000 0000 0000 0000 0000 0000
00000020: 0000 0000 0000 0000 0000 0000 0000 0000
00000030: 0000 0000 0000 0000 0000 0000 0000 0000
00000040: 0000 0000 0000 0000 0000 0000 0000 0000
00000050: 0000 0000 0000 0000 0000 0000 0000 0000
00000060: 0000 0000 0000 0000 0000 0000 0000 0000
00000070: 0000 0000 0000 0000 0000 0000 0000 0000
00000080: 0000 0000 0000 0000 0000 0000 0000 0000
00000090: 0000 0000 0000 0000 0000 0000 0000 0000
000000a0: 0000 0000 0000 0000 0000 0000 0000 0000
000000b0: 0000 0000 0000 0000 0000 0000 0000 0000
000000c0: 0000 0000 0000 0000 0000 0000 0000 0000
000000d0: 0000 0000 0000 0000 0000 0000 0000 0000
000000e0: 0000 0000 0000 0000 0000 0000 0000 0000
000000f0: 0000 0000 0000 0000 0000 0000 0000 0000
00000100: 0000 0000 0000 0000 0000 0000 0000 0000
00000110: 0000 0000 0000 0000 0000 0000 0000 0000
00000120: 0000 0000 0000 0000 0000 0000 0000 0000
00000130: 0000 0000 0000 0000 0000 0000 0000 0000
00000140: 0000 0000 0000 0000 0000 0000 0000 0000
00000150: 0000 0000 0000 0000 0000 0000 0000 0000
00000160: 0000 0000 0000 0000 0000 0000 0000 0000
00000170: 0000 0000 0000 0000 0000 0000 0000 0000
00000180: 0000 0000 0000 0000 0000 0000 0000 0000
00000190: 0000 0000 0000 0000 0000 0000 0000 0000
000001a0: 0000 0000 0000 0000 0000 0000 0000 0000
000001b0: 0000 0000 0000 0000 0000 0000 0000 0000
000001c0: 0000 0000 0000 0000 0000 0000 0000 0000
000001d0: 0000 0000 0000 0000 0000 0000 0000 0000
000001e0: 0000 0000 0000 0000 0000 0000 0000 0000
000001f0: 0000 0000 0000 0000 0000 0000 0000 0000
00000200: 0000 0000 0000 0000 0000 0000 0000 0000
00000210: 0000 0000 0000 0000 0000 0000 0000 0000
00000220: 0000 0000 0000 0000 0000 0000 0000 0000
00000230: 0000 0000 0000 0000
0.0 0.0 0.0 0.0 0.0 0.0 0.0 0.0
0.0 0.0 0.0 0.0 0.0 0.0 0.0 0.0
0.0 0.0 0.0 0.0 0.0 0.0 0.0 0.0
0.0 0.0 0.0 0.0 0.0 0.0 0.0 0.0
0.0 0.0 0.0 0.0 0.0 0.0 0.0 0.0
0.0 0.0 0.0 0.0 0.0 0.0 0.0 0.0
0.0 0.0 0.0 0.0 0.0 0.0 0.0 0.0
0.0 0.0 0.0 0.0 0.0 0.0 0.0 0.0
0.0 0.0 0.0 0.0 0.0 0.0 0.0 0.0
0.0 0.0 0.0 0.0 0.0 0.0 0.0 0.0
0.0 0.0 0.0 0.0 0.0 0.0 0.0 0.0
0.0 0.0 0.0 0.0 0.0 0.0 0.0 0.0
0.0 0.0 0.0 0.0 0.0 0.0 0.0 0.0
0.0 0.0 0.0 0.0 0.0 0.0 0.0 0.0
0.0 0.0 0.0 0.0 0.0 0.0 0.0 0.0
0.0 0.0 0.0 0.0 0.0 0.0 0.0 0.0
0.0 0.0 0.0 0.0 0.0 0.0 0.0 0.0
0.0 0.0 0.0 0.0 0.0 0.0

action_model._discrete_distribution.branches.0.weight f4 [13, 142]
00000000: 9e52 933b fa74 6a3b 7c85 163c d27f 1abc
00000010: 5f1c cbbb 0eaf 8dbc 67a4 853b c8fc 28bc
00000020: 03d7 093b a895 153c 87ff d83b 2a7c 99bb
00000030: 9ca7 a8ba 181b 9ebc 9d32 03bc 1abc 09bb
00000040: 53f9 bebb 4869 d5ba 7fc7 32bb da98 fc3b
00000050: 7d45 8dbb f424 333b ef62 30bc b52b debb
00000060: 5fb9 273b f876 d73b 7b0f df3b 5200 a0bb
00000070: eafc dd3a 0132 1cbc 051c 9fbc 93ff d83b
00000080: eb1e c2bb bbe4 ac3b cb37 bd3b 668d 063c
00000090: 387e ac3b 2947 41bb f071 7fbc bdd7 223b
000000a0: aa1a 723b b340 7ebb 8098 7bbb 6217 d9bb
000000b0: 0727 42bc cf23 33bc 089a 0f3b 0e2b 223b
000000c0: 23bc b0bb 3785 9cbb 0288 e23b 86a6 9bbb
000000d0: f714 46bb 8b5f 09bc 3b1e 413c e922 af3b
000000e0: d592 383c 37ad 40bb 0ca6 1dbc cdae 4d3c
000000f0: ef20 9fba 5ed7 903b 103b 67bc 91da 91bc
00000100: 4bf9 61bb 5f54 57bc dab3 b4b9 c2e9 243c
00000110: 7389 2a3c b046 2d3c cd8e c8bc 4aa5 e9b7
00000120: 68c2 47bb f57b 2b3c 875d cbbb 2d0f 4c3c
00000130: df26 8a3a ef9c 22bc 72fe 223c 2783 14bc
00000140: 5b77 303a 17cc 36bb 5237 21bb fbdc 423b
00000150: 1ea3 8f3b 7215 a6ba c364 debc bff1 04bc
00000160: 7d12 8b3c 3a5b 703a 3ea1 333b c5eb 65bc
00000170: 87b4 fc3a e83d 20bc f124 3f3b e9f6 833b
00000180: 8fe2 5fbc f024 5f3c 73d6 893b 2bb4 443c
00000190: 2ffc 203c 6477 0ebc 8b2c 66ba d0de e43b
000001a0: d7be ffbb d726 0fbb 75e8 43bb 874d 4b3b
000001b0: e734 8abb 4dc1 a4bb e338 2cbb 5b4e 26bc
000001c0: a716 483c 7be8 e0bb b7ee f139 7c2e 9338
000001d0: f07e fbba 5d0c 55bb e3c6 d9bb 6213 e3bb
000001e0: 2fb1 813b eb00 cf37 d3e3 873c 08d1 23bc
000001f0: 45e4 f9bb d0e2 713c 2042 3f3c 6e75 8fbb
00000200: 4289 fabb 1e6f c53b c509 643c ece4 9f3b
00000210: 0557 4bbc cd2b 49b9 000b 61bc cb9f 233b
00000220: c77e 563b 8d55 d1bb 9fbf 1bbc d48a c23a
00000230: 38fa 493b c34d 5b3c a48b 1d3b 587d 5e3c
00000240: c3e4 13bb 41e1 293b 4b34 643b 69d5 bcbb
00000250: 1bfa 1d3c 1f24 523a 6f5e 06bc 5cb9 43bb
00000260: 95bf 5dbc 1a32 34bc fb49 82ba 0b41 103c
00000270: cb9c 63bc bbfa a83b 8b32 da3b 0b96 013c
00000280: 1f52 7cba 4b7f dd3b 474e 713b af10 673b
00000290: 6a55 c23b 7b6f 57bc 89d0 aa3b c19d 3e3c
000002a0: 3388 8abb 286a f63b 73fe 1abc 9ac6 dabb
000002b0: 2d7e ec3b 2bbb 89ba d88d 403c 485e ba3b
000002c0: 1fee f4bb bd21 a3bb 3894 76bb 1f5e 65bb
000002d0: f697 8fba cd35 0a3c 22f0 0cbc 83ba 75ba
000002e0: 0058 8fbb 560a b2bb 93ce 243c 27a0 7e3b
000002f0: 3353 87bb eb77 df3b 82b6 afbb 7f4e 823b
00000300: 7a31 7e3c feb7 8dbc 9f33 3cb8 17bf 37bc
00000310: 57c2 003c c32c 663b fc05 883c ffc4 1abc
00000320: c34a f5bc 7c87 cc3a e08c cdb9 587b a8ba
00000330: 148d 95bb 418f 10bb 0b81 d9bb 963c c8bc
00000340: bfd5 71ba 0b1c 3b3a 7de2 1c3b 7289 193b
00000350: 3615 133c 9ff4 973b f179 9abc b36a a5bb
00000360: c0ad f0b8 d39b 443a 0b11 403b 5b05 0b3c
00000370: e236 b7bb cfd5 823a 11a6 11bb fb32 12bc
00000380: 5205 833b 377b 153b 2862 f7bb ef8a 8abb
00000390: 57e9 7b3c f52d 703b bdac e339 a66a 99ba
000003a0: 7277 d7bb ed69 2f38 4a3d fc3a 07fa 553c
000003b0: 76f9 23bc 35c0 743c 8b4e 6fbb a53f 5ebc
000003c0: 2b8b 903c 29b0 1fba 1d93 9a3b 6ef1 34bc
000003d0: c3f1 723a 008e d2bb 7242 63bb f22f f8bb
000003e0: 13d4 ef3a 80d7 b9bb d6ab 16bc 5d2b 453c
000003f0: 7dc7 e1bb 8ed6 193c 8407 1b3c 05f5 1f3c
0.0044959327 0.003577529 0.009187099 -0.009429889 -0.0061984505 -0.017295387 0.004078436 -0.010314174
0.0021032698 0.009129919 0.006622258 -0.004683991 -0.0012867334 -0.019300029 -0.008007673 -0.0021016658
-0.0058280616 -0.0016281987 -0.0027279553 0.007708651 -0.004311262 0.0027335258 -0.010765775 -0.0067801126
0.0025592668 0.0065754615 0.0068072653 -0.0048828507 0.0016936336 -0.009533406 -0.01942254 0.0066222637
-0.005924096 0.0052762902 0.0057744733 0.008212423 0.00526407 -0.0029491878 -0.01559113 0.0024847828
0.0036942163 -0.0038795888 -0.0038390458 -0.006625102 -0.011850125 -0.01093383 0.0021911878 0.00247449
-0.0053935214 -0.0047766226 0.006913186 -0.0047500758 -0.0030224898 -0.008384596 0.011786993 0.005344738
0.011265476 -0.002940012 -0.009622108 0.012553883 -0.0012140552 0.004420205 -0.014113203 -0.017804416
-0.0034480866 -0.013142674 -0.00034466275 0.010065498 0.010408747 0.010575935 -0.024482155 -2.7852733e-05
-0.0030480865 0.010466565 -0.0062062177 0.01245479 0.0010540149 -0.009925111 0.00994836 -0.009064472
0.00067316525 -0.0027892643 -0.0024599624 0.0029733765 0.0043834588 -0.0012671186 -0.027147656 -0.008114277
0.01697659 0.0009168867 0.002740934 -0.014033263 0.0019279876 -0.009780385 0.0029166306 0.0040272367
-0.013664856 0.013619646 0.0042064725 0.012005846 0.00982575 -0.008695457 -0.0008780441 0.006984569
-0.0078047323 -0.0021843219 -0.0029893194 0.0031021552 -0.004217732 -0.005027926 -0.0026279024 -0.010150517
0.012212432 -0.0068636513 0.00046144958 7.0181646e-05 -0.0019187611 -0.003250859 -0.0066460236 -0.006929801
0.0039578895 2.467675e-05 0.016588127 -0.009998567 -0.007626089 0.014763549 0.01167348 -0.0043780124
-0.007645757 0.006025209 0.013918345 0.0048795845 -0.012410884 -0.00019185171 -0.013735533 0.002496707
0.0032729374 -0.0063883723 -0.009506135 0.0014842399 0.0030819308 0.013385239 0.002403953 0.013579689
-0.0022566773 0.0025921615 0.0034821208 -0.005762745 0.009642149 0.0008016247 -0.008201226 -0.0029865121
-0.013534446 -0.010998273 -0.0009940261 0.00880457 -0.013892363 0.0051568425 0.006658857 0.007909308
-0.0009625274 0.0067595593 0.0036820339 0.0035257747 0.0059305923 -0.013149138 0.0052128476 0.011634291
-0.004227662 0.007519979 -0.0094600795 -0.006676507 0.0072171898 -0.0010508051 0.011752568 0.0056875087
-0.0074746753 -0.004978387 -0.0037624966 -0.0034998727 -0.0010955322 0.008435679 -0.008602174 -0.0009373801
-0.004374504 -0.005433361 0.010059017 0.0038852782 -0.004129791 0.0068197153 -0.005362333 0.0039766426
0.015514726 -0.017299648 -4.487077e-05 -0.011214993 0.007858834 0.0035121895 0.016604416 -0.009446382
-0.029942876 0.0015604342 -0.00039205607 -0.0012854142 -0.004563937 -0.0022058042 -0.0066376976 -0.024442952
-0.0009225271 0.00071376626 0.0023938708 0.002342787 0.008977225 0.0046373154 -0.018856974 -0.00504812
-0.00011476455 0.0007500026 0.0029307033 0.008485164 -0.0055912593 0.0009981933 -0.0022224227 -0.0089232875
0.003998437 0.0022809037 -0.007549543 -0.004227988 0.015375457 0.0036648486 0.00043425514 -0.0011704757
-0.0065755183 4.1821902e-05 0.001924434 0.013060099 -0.010008207 0.014938404 -0.003651532 -0.013564979
0.017644485 -0.00060916186 0.0047172443 -0.011043889 0.00092675927 -0.006425619 -0.0034677056 -0.007574075
0.0018297456 -0.0056714416 -0.009196242 0.012034264 -0.006890236 0.009389533 0.009462241 0.009763007

action_model._discrete_distribution.branches.0.bias f4 [13]
00000000: 0000 0000 0000 0000 0000 0000 0000 0000
00000010: 0000 0000 0000 0000 0000 0000 0000 0000
00000020: 0000 0000 0000 0000 0000 0000 0000 0000
00000030: 0000 0000
0.0 0.0 0.0 0.0 0.0 0.0 0.0 0.0
0.0 0.0 0.0 0.0 0.0

action_model._discrete_distribution.branches.1.weight f4 [13, 142]
00000000: 66ee 463b 975a e5bb 1bbc 53bc 6ed7 48ba
00000010: 6591 a23b e268 2fbc 2f8a 24bb 590b a23b
00000020: 8515 9e3b 081b e33b 44a3 823b a30b 72bc
00000030: d5cf 0a3c 104f 32bb 85d6 6dbb 2748 89bb
00000040: cd6e b93b 47e9 263c 33dd 273c 3b05 ccba
00000050: b608 11bc 694d 9a3c 7fb0 e23a 3a30 86bc
00000060: 75ef e8bb 2a83 343c 731b 02bc c339 783c
00000070: 1b17 84bb a70c d5b9 f213 303c d2ae db3a
00000080: 5a3d 9139 66ca c33b e7a4 ddba 659f 003c
00000090: 3238 fdbb 97b7 173b f7e3 073b c70a 4fbc
000000a0: 759b 793c 92c9 f9bb 7d69 eb3a f366 b93b
000000b0: 25fe d6bb adc8 533c e859 283c 79d5 433b
000000c0: 278a 14bb 8931 353c 2a86 aabb 46e8 b9ba
000000d0: 402f cf39 4ae9 22bc 4711 63ba 1bda 0d3b
000000e0: 6b4c 663c e0e1 77bc bf64 ca39 f767 63bb
000000f0: 0fb5 91bb b1b2 27bc 2841 f6bb 082e 0e3b
00000100: da74 cebc f306 a6ba 8d5a 9a3a 40e1 4139
00000110: af58 ff39 bf1f 0a3c f552 acbb 18de 03bb
00000120: e17b 853c 69cd 1b3c 7f39 23ba e6a3 48bb
00000130: 2ae4 fdbb fd75 ee3b b9b0 953b 7a9e 813c
00000140: 83b2 ebbb 516d 083c 5bc1 9c3b 6fb7 b9bb
00000150: e99b 843c 85e4 a538 dea1 3b3c 11f3 03bb
00000160: 48f1 83bc 6bd2 393b f76f c3bb b81b 0b3b
00000170: 275e 25bc d38c a53c 32c7 42bc 154a 79ba
00000180: 95c6 f33b 166b 90ba 1fc9 89bb f3da a838
00000190: 83f6 bdba 934f 4abc 185a 35bc dd9a 6fbb
000001a0: 4d25 983c ba48 1fbb 6717 1a3c 097d 02bb
000001b0: 545a 0dbb 11ef 83bb 04e0 b0ba e39a 923c
000001c0: 4f8c b339 b513 c3bb b83b 993b f3e7 2e3c
000001d0: dfdf 5dbb 4bbb 4dbc 8745 ab3a 069d 013a
000001e0: 1fa1 443b 5d81 123c 1b5c 773a 1f69 17bc
000001f0: aa5f cebb 43e6 2539 b218 ebba d746 61bc
00000200: 0b40 d8bb 6be8 233c b3f9 f03b f2a7 173b
00000210: b83f 7aba 9723 71bb e5c8 3dba 17b0 0fbc
00000220: 5a59 eabb 3d88 8ebb 9484 08bc f66d 473c
00000230: 9dc0 613b 4a6f edbb 83bb 3bbc 485a 2b3b
00000240: 8771 be3b 932b 09bc 62f3 bb3b 3b02 e7ba
00000250: 0564 5fbb 9e35 023c 7cd6 083b 42b2 d0bb
00000260: 7726 a5bb 2196 913b 538a d13a fd1d 613b
00000270: d40b a6bb 8f1c 2abc c3ba 1c3a 2b35 e0bb
00000280: efb2 9abb 18e3 97bc 85b8 51bc 3f34 5e3b
00000290: a27f 163c 0f8a 0c3c a109 2cbc b0e1 f5b9
000002a0: 4e44 0e3c 4f7f d5b6 67d2 1c3b ed34 4d3c
000002b0: abe8 9dbb 637a 1f3c ba23 22bb 0326 4cbc
000002c0: c0fc b6bb 1b6f 97b9 3c7f 17bc 6a75 5b3b
000002d0: 038c 94bc 2553 f93b a84b ecba 5856 b6ba
000002e0: 83b3 dc3b ec85 823b f0c0 80bb bbc7 26bc
000002f0: 3eed 2dbc caa0 3abb 3923 093c 9283 0bbb
00000300: 8929 143c 9f48 ea3a 439d b13b 686b d5ba
00000310: 083d 64bb 0488 443b 6782 d33b 0dc1 42bb
00000320: f5b8 5ebb 7a45 953c 593f 993b ac15 4cbc
00000330: 370f c3b9 5cf8 343a e6a1 3f3c b2eb 4cbc
00000340: 3a6f f43b ff16 23bb a6bf 043b 3d56 e9bb
00000350: 5ac2 ad3a 32b8 2abc ea57 483c a747 013b
00000360: d85d 1dbc 8105 113b 53bc 203c 974c f23b
00000370: ddc1 a1bb d3a2 54bb e811 b13b 4783 083c
00000380: 4b88 d9bb 281f fb3b 7fb0 93bb ac9a 933b
00000390: fb2f 88bb f4b8 cabc 9ad2 603b d3f0 bdbb
000003a0: f79d a03c 0f60 d43a 4f6c 723c 5cac 263c
000003b0: 52c8 d93c 405b 79bb ef88 b6bb eca6 29ba
000003c0: d6ed 2fbb 05dd e4bb 2edb 823c a8a6 1c3c
000003d0: c2bb 58bc 525a e3bb bb09 783a ef2d f939
000003e0: 906c e2bb 0ec9 0cbb 05b6 53bc 2824 5e3b
000003f0: 377b cbbb 9b95 203c 9096 77bb b8f0 48ba
0.00303545 -0.0069993245 -0.012923266 -0.0007661496 0.00496118 -0.010706158 -0.0025106778 0.0049452004
0.0048243427 0.0069307126 0.003986748 -0.014773282 0.008472403 -0.002720777 -0.0036291194 -0.0041895094
0.0056589604 0.010187454 0.010245609 -0.0015565524 -0.0088521745 0.01883574 0.0017295032 -0.016380418
-0.0071086236 0.0110176 -0.007941115 0.01515049 -0.0040310747 -0.00040635953 0.010746943 0.0016760475
0.00027702266 0.0059750555 -0.0016910107 0.007850503 -0.0077276463 0.00231502 0.0020735243 -0.012636847
0.015234818 -0.007622906 0.0017960515 0.0056580245 -0.006561058 0.012926263 0.010275342 0.0029881878
-0.0022665353 0.011059173 -0.005203982 -0.0014183603 0.0003951732 -0.009943316 -0.00086619373 0.0021644894
0.014056305 -0.015129536 0.00038603504 -0.003469942 -0.0044466327 -0.010235474 -0.0075150914 0.0021694917
-0.025202204 -0.0012666866 0.0011776254 0.00018489826 0.00048703465 0.00843042 -0.0052589127 -0.0020121392
0.016294422 0.009509423 -0.0006226524 -0.003061527 -0.0077481465 0.007277249 0.004568186 0.015822638
-0.007192911 0.008326844 0.004783792 -0.005667619 0.016187625 7.910378e-05 0.011452166 -0.0020133893
-0.016106263 0.0028354179 -0.005964275 0.0021226238 -0.010093248 0.020208752 -0.011888312 -0.0009509635
0.0074394443 -0.0011018242 -0.0042048837 8.051647e-05 -0.0014493022 -0.012348074 -0.011068843 -0.0036560812
0.018572474 -0.0024304823 0.009404994 -0.0019910953 -0.0021568732 -0.0040263017 -0.0013494496 0.017896121
0.0003424608 -0.005953277 0.0046763085 0.010675418 -0.0033855361 -0.012556861 0.0013066985 0.0004944358
0.0030003262 0.008941975 0.0009436027 -0.009241371 -0.006298025 0.00015821405 -0.0017936437 -0.0137498
-0.0065994314 0.010004143 0.007353985 0.0023140875 -0.0009546238 -0.0036794895 -0.00072397134 -0.00877001
-0.007151765 -0.004349737 -0.00833239 0.012172213 0.0034447082 -0.0072459327 -0.0114582805 0.002614634
0.0058118734 -0.008372205 0.0057358006 -0.0017624566 -0.0034086716 0.007947354 0.0020879796 -0.0063689062
-0.0050399858 0.0044429456 0.0015986658 0.003435015 -0.005067328 -0.010382785 0.00059787574 -0.0068422756
-0.0047210376 -0.018540904 -0.012800341 0.0033905653 0.0091857035 0.008577838 -0.010500343 -0.00046898192
0.008683277 -6.3627153e-06 0.002392912 0.0125248255 -0.004818996 0.009733769 -0.0024740533 -0.012460235
-0.0055843294 -0.00028883744 -0.009246644 0.0033486732 -0.018133169 0.0076087886 -0.0018027918 -0.001391123
0.0067352667 0.00398325 -0.00392925 -0.010179455 -0.010615645 -0.0028477185 0.008370214 -0.0021288139
0.009043106 0.0017874426 0.0054203584 -0.001628262 -0.0034826417 0.0029988298 0.006454754 -0.0029717118
-0.0033984755 0.018221606 0.004676741 -0.012456339 -0.00037204634 0.00069034635 0.011696314 -0.012507366
0.0074595483 -0.0024885533 0.0020255833 -0.007120876 0.0013256774 -0.010419892 0.012227992 0.0019726546
-0.009604894 0.0022128525 0.009810525 0.007394384 -0.0049364404 -0.0032445684 0.005403746 0.00833208
-0.006638562 0.007663626 -0.004507124 0.0045045223 -0.0041561103 -0.024746396 0.0034305216 -0.0057965307
0.019606574 0.0016202944 0.014796331 0.01017293 0.026584778 -0.0038048774 -0.005570523 -0.00064717117
-0.0026844642 -0.0069843554 0.015973654 0.009561218 -0.013228359 -0.0069382573 0.0009461899 0.00047527204
-0.0069099143 -0.0021482143 -0.012921815 0.0033896063 -0.0062097567 0.009801294 -0.0037778951 -0.00076652644

action_model._discrete_distribution.branches.1.bias f4 [13]
00000000: 0000 0000 0000 0000 0000 0000 0000 0000
00000010: 0000 0000 0000 0000 0000 0000 0000 0000
00000020: 0000 0000 0000 0000 0000 0000 0000 0000
00000030: 0000 0000
0.0 0.0 0.0 0.0 0.0 0.0 0.0 0.0
0.0 0.0 0.0 0.0 0.0

action_model._discrete_distribution.branches.2.weight f4 [13, 142]
00000000: 97e8 68bb b567 22bb 3be7 d4bb ffb4 ca3a
00000010: ef51 603a b2e1 ea3b 49f4 b6bb 2ae7 7a3c
00000020: 3d99 52bc dd27 2e3c f9a9 9c3b 1306 91bc
00000030: fd73 103c ebe1 45bb 2516 2a3c 3b2e 5d3b
00000040: d463 45bb b3d1 a7bb e940 9bba 9d1a d4bb
00000050: 1d98 fc3b 2a22 ef3a 936f 8a3c 9215 163b
00000060: bb86 3e3b 3a2f 343c 37b1 a63b f311 733a
00000070: af8c 493a 1d3f 803c 4a38 5b3c 6b58 b83b
00000080: 907c 5b3c b76f 1cba 10e8 f6bb 6fcd 473b
00000090: 8deb f63b 47d3 0b3b 4234 af3b 16db c7bb
000000a0: 4755 ba3b cb7f 5dbb dfcc 4a3b 2cd7 4bbc
000000b0: 45bd 4f3b e47f 0cbb f7e4 573b 378d e2bb
000000c0: 2335 ff3b 4df7 eabb 47d4 893b ef72 843c
000000d0: 61be 32ba 5084 cd3b fa32 ebbb 036c 023b
000000e0: c78e 95bc abd5 0e3b 4a15 d1bb db5d 183c
000000f0: 12e0 98ba 0d52 e03b 3653 2abc 2d86 94b9
00000100: 6198 383c 3d55 e63b 6376 8cbb 8400 c4ba
00000110: f33c ae3b 9754 993b 606d 4bbc df40 453b
00000120: 8cf6 0d3c 9bf7 1e3b 2a96 3ebc 1dd9 a0bb
00000130: dcce 92bb 39c1 27bb 3b90 713c 5f54 0b3c
00000140: 03e9 083b 9bdc da3b 1804 7dbb f67d 983c
00000150: 9e37 953b c5eb d2bb 0989 263b 3f91 dbbb
00000160: 60a0 d6bb a47c 0c3c 23ba 99bb 51c2 98bc
00000170: c8d2 94bb c18c 16bc f089 e43b 4018 ac3b
00000180: dd78 e83b d647 03bc 7f6d 903b d327 173b
00000190: 039e d1bb 5f21 5abb 220d cdbb 22ce 623a
000001a0: 59ec 853b 7b8b b0bb 0309 8e3c 4906 9fbb
000001b0: 4731 31bc 4234 69bc 639c 7e3c e3df 6539
000001c0: cb4e ed3a 6f51 86b8 0036 ff3b 3d31 2dbc
000001d0: 83dc 903c e2e0 243c 9b54 b4ba 6c41 0cbc
000001e0: ba8f 833b 87e6 dfbb ca44 57bc 4921 ca3b
000001f0: 451b 1bbb 2088 5ebc bdaf 7abb 0f1d 163c
00000200: 68e1 0abc 35aa 5bbb e810 86ba 1738 8ebb
00000210: c728 dc3b a948 94b9 879c 513b 82d9 a7bb
00000220: 2541 ebb9 5518 133c 6d79 613c ba47 aebb
00000230: a392 a93b 0151 b839 5507 363c 7792 e938
00000240: 9868 2c3c 1ebd 81bc 1d23 37bb 1565 9a3b
00000250: bf47 07bc 6561 873b 1dce e7bb 4377 05bc
00000260: bd7a 853c fcac 1dbb 4f12 5a3b f524 a4bb
00000270: 772b 573b 5895 2d3c 7aef 49ba 78a1 5c3c
00000280: 6467 3e3c 2c26 293b cfd4 b43b f852 6d3c
00000290: e347 e1b7 8bcf 01bc b5f5 e0bb 6525 14b9
000002a0: 7f6b d0bb fd19 f33b 34a5 a03c 3906 26bb
000002b0: 1adc 90bc f0d4 283c 804d 2fbc 0c69 c93b
000002c0: 0427 193b cd3e 2d39 fa19 593c babd 50bc
000002d0: 93a4 d4bb 8fb9 e9bb 8fee b93b 7d5e 943c
000002e0: e705 2e3b 07ee abba 7892 133c cad6 58bb
000002f0: df60 fe3a 59b3 033a 9787 983b 27e0 89bb
00000300: e58f 2bbc 13d3 e3bb 534d 90ba c689 4b3b
00000310: b179 91bb 4df0 d63b 7356 38bb 1d71 123c
00000320: 9511 5e3b 4a6e 90bb 0b6f bbbb f1b2 3ebc
00000330: 6977 a5bb 60d2 50ba 8f82 523c 2893 303b
00000340: e370 6bbb f5a6 593b 0061 55bc 32da 983b
00000350: 7bc8 6ebb cd62 4e3a 60ae 6b3c fd34 f93a
00000360: 3a44 ce3b 59cb 41bc 43b5 663c 234b 773b
00000370: 867c c6ba ae5a 963b 20bb edbb 954b 803a
00000380: ef3d 803b 3716 ed3b 590f 983b c96f 80bb
00000390: e8f0 78bb 07ce 32bc 6f97 08bc 9f86 ae3b
000003a0: a4b7 aabb 7db2 b7b9 5124 043a b793 73bc
000003b0: 98da 3b3c 65d6 633c 52dc 10bc dea9 05bb
000003c0: d86c 61bc c18b 8fba 7459 183b faa1 333c
000003d0: ab14 08ba 4ca3 c939 f41a 993b 2b91 383c
000003e0: 7367 15bb 4550 a83b aaa3 3ebc 23d3 73bb
000003f0: 5853 77bb 43b9 363c 3ce3 b7bc 9a70 9a3a
-0.0035539025 -0.0024781052 -0.0064972914 0.0015465318 0.0008557131 0.0071680183 -0.0055833203 0.015313903
-0.012853918 0.010629621 0.0047810045 -0.017703092 0.008816716 -0.0030194472 0.010381256 0.003374948
-0.0030119317 -0.0051214336 -0.0011844906 -0.006472899 0.007708563 0.0018244435 0.016898906 0.002290104
0.0029072005 0.010997588 0.0050870436 0.0009272389 0.0007688505 0.015655095 0.01338012 0.0056257746
0.013396397 -0.00059675745 -0.007534988 0.0030487438 0.007535404 0.0021335648 0.005346806 -0.006099115
0.0056864354 -0.0033798094 0.0030944867 -0.012441438 0.0031698507 -0.0021438533 0.003294287 -0.006913807
0.007788317 -0.007170594 0.0042062136 0.016168086 -0.000681853 0.0062718764 -0.0071777077 0.0019900806
-0.018256558 0.0021794837 -0.0063807117 0.009299721 -0.0011663458 0.0068457187 -0.010395816 -0.00028328729
0.011266799 0.007029204 -0.0042865737 -0.0014953767 0.0053173243 0.0046792733 -0.012416214 0.003009848
0.008664738 0.002425647 -0.011632482 -0.0049086944 -0.004480226 -0.0025597347 0.01474386 0.008504002
0.002089084 0.0066791303 -0.0038607176 0.01861475 0.004553749 -0.0064367973 0.002541127 -0.0067006643
-0.00654988 0.0085746385 -0.0046913787 -0.018647345 -0.0045417286 -0.009188832 0.0069744512 0.0052519143
0.007094486 -0.0080127325 0.004407584 0.0023064509 -0.0063970103 -0.003328405 -0.006257669 0.0008651932
0.0040870127 -0.005387721 0.017338281 -0.004853044 -0.010814971 -0.014233651 0.015540215 0.00021922546
0.0018105147 -6.404786e-05 0.0077884197 -0.010570821 0.017683273 0.010063382 -0.0013758125 -0.00856052
0.0040149363 -0.006832901 -0.013138959 0.0061685187 -0.0023667377 -0.013582259 -0.003825172 0.009162202
-0.008476593 -0.00335182 -0.0010228427 -0.0043401825 0.006718728 -0.00028282896 0.0031984167 -0.0051223645
-0.0004487123 0.008977969 0.01376186 -0.005318609 0.005174951 0.00035155567 0.0111101465 0.00011137587
0.010522984 -0.015837248 -0.0027944513 0.004711757 -0.008256852 0.0041314834 -0.007074131 -0.00814611
0.016293878 -0.0024059406 0.0033275073 -0.0050092884 0.0032832304 0.010594688 -0.00077032263 0.0134662315
0.01162133 0.0025810106 0.005518533 0.014485113 -2.6855565e-05 -0.007923017 -0.006865228 -0.0001412831
-0.006360471 0.0074188695 0.019610025 -0.00253333 -0.017683078 0.0103046745 -0.01069963 0.0061465558
0.0023369202 0.00016521961 0.013250822 -0.012740547 -0.0064893453 -0.007132716 0.0056741904 0.018111462
0.002655381 -0.0013117202 0.009007089 -0.0033087009 0.0019407532 0.00050239783 0.0046548354 -0.0042076292
-0.010471319 -0.0069526522 -0.0011009373 0.0031057461 -0.0044395556 0.006559408 -0.00281277 0.008938101
0.0033884991 -0.0044076787 -0.0057200245 -0.011639343 -0.005049635 -0.00079659186 0.01284851 0.002694318
-0.003592544 0.0033211086 -0.013023615 0.004664683 -0.0036435414 0.0007872999 0.014384836 0.0019012984
0.0062947543 -0.011828267 0.014081302 0.0037733994 -0.0015143312 0.0045884466 -0.007254973 0.000978815
0.003913633 0.007235314 0.0046405015 -0.003919576 -0.0037985388 -0.010913379 -0.008336886 0.0053261067
-0.00520988 -0.00035037464 0.0005040812 -0.014866761 0.011465691 0.013906096 -0.008841591 -0.0020395438
-0.0137588605 -0.0010951684 0.0023246678 0.010963911 -0.0005191068 0.00038459373 0.0046724025 0.0112650795
-0.0022797256 0.005136522 -0.0116357 -0.0037204705 -0.0037738886 0.011152568 -0.022447221 0.0011782825

action_model._discrete_distribution.branches.2.bias f4 [13]
00000000: 0000 0000 0000 0000 0000 0000 0000 0000
00000010: 0000 0000 0000 0000 0000 0000 0000 0000
00000020: 0000 0000 0000 0000 0000 0000 0000 0000
00000030: 0000 0000
0.0 0.0 0.0 0.0 0.0 0.0 0.0 0.0
0.0 0.0 0.0 0.0 0.0

action_model._discrete_distribution.branches.3.weight f4 [13, 142]
00000000: f831 3abc 0520 5dbc 88ca 55ba 5006 d33a
00000010: 4467 22bb bfc2 8f3c 534a 9c39 8fc0 7b3b
00000020: 1b8e 333c 27f6 993b cfb7 ccbb 39d7 c8bb
00000030: 2b36 8abb 0805 11bc 9bf2 073c ba30 33bc
00000040: ef7b a6bc 4146 a43b c256 a23b fc2d 98bc
00000050: 3776 953a 6809 cd3a 8872 ddba aad1 dabc
00000060: 60d7 6cbb d253 efba fe44 47bc 43c2 893b
00000070: 032f 563c 6c70 c43a 704a 32bc 2ce7 403c
00000080: 48f6 333b 82a0 bfbb 0289 15bb 2f74 c5bc
00000090: 7f98 fd3b 48e8 febb 76c7 bebb 7fd0 c5ba
000000a0: d78a 14bc 2554 d03b cfec 623c 1b66 063c
000000b0: c06f 793c bf83 57bc 8882 eebb afaf bfbb
000000c0: e277 80bb c72c 3bbc 2ac9 31bc 8777 943b
000000d0: 6d0d d4bb 930c 2e3c 975b 393a c56c 123c
000000e0: b7d8 cebb 9177 2ebc c77e 2bb9 3f4e 023c
000000f0: 4db7 763b 3b0b 943b e092 6c3b bd41 cf3b
00000100: 053c a4bb b87e 64bb 6506 86bb a5cf 563c
00000110: 47f3 ea3b d9fd 8b3b 44a0 39bc 10a5 2ebb
00000120: b556 71bb 6e15 35bb 237b 5e3a f7e5 163c
00000130: d18c 02bc 631e eaba 3554 11bc 472d 41bc
00000140: a38d b63b f973 9fba 3141 1abc 47dc be3a
00000150: 3b2c 6f3a b093 d73b 0be0 233c 6253 273b
00000160: ffd0 333c cfad 373b 5b21 d3ba ff13 bebb
00000170: 132e 15bc 47d1 923c 0b56 b5bb f781 babb
00000180: c9a1 85b9 936d 3ebc f56f 6a3b 77d9 17bb
00000190: 8c63 a1bb dc64 08bb 6d33 2dbb 09d0 abba
000001a0: 734b babb 7d7a 8b3a 4f4e 2fbc 7f70 36bb
000001b0: c740 45ba bcab c5b9 cbad 563c cb82 4fba
000001c0: 1dbe f1bb 6b14 f13b 2191 c03a 2051 953b
000001d0: 4f54 85ba 567c 21bc 944f 85ba d7c4 37bc
000001e0: 33d0 933a 3744 52bb 8c87 3cbc 3742 073a
000001f0: 104d dd3b 4dbb a4b9 79d3 433a 73c8 90bc
00000200: efc5 983b cfde 85bb 458e 403c 323a eabb
00000210: 75b2 c73a 0165 923b c11f 3cbc eade e53a
00000220: df1b 1f3c 669d 0dbc a7b0 c53b b75f 75bb
00000230: 0ced ca3c 22a1 ee3b 205d 57bb 5879 843b
00000240: 2a46 d8bb d781 103b fbd1 7cbc 9beb 333b
00000250: 0214 573c 3c9e 37bc 4592 03bc c72f f13b
00000260: 53d8 a93a 0529 16bc a817 aebb 60c6 433c
00000270: 0728 d03b f5e4 4c3c eab3 c5ba 0ce6 bfbc
00000280: a813 b33b 6b24 ab3b 6732 6d3c af77 233b
00000290: eb2e 9a3c 7f2e 353c fd37 f8bb a00c 4c3b
000002a0: 6bbe 823c 6fa7 2e3c 188f 69bb 4ab2 0e3c
000002b0: e503 df3b 2b05 9ebc d5e3 fd3b f513 a73b
000002c0: fb78 f6ba c532 4dbc 8617 3a3b f248 383b
000002d0: 13cf 1f3b e825 283b e3ba 91bc c006 b8bb
000002e0: dee4 3cbc 0657 0b3c cff5 2f3b ca6a 9ebb
000002f0: 3f8a 8cbc 1553 ebbb 95fc c7ba 12c5 cdbb
00000300: 42fb 3d3c 9071 1a3b 97e1 373c f751 f0bb
00000310: 9c4a a6ba caa3 2dbb 17e2 04bc 9ad6 8e3b
00000320: 67f0 15bc 21cb a73c 1b57 a0bb 41f2 a9bb
00000330: 8bca f0bb a2f9 f0bb 1fd3 283c 8b20 4fbc
00000340: f3fa 17bb 3c37 b33a 3047 413c d5b7 76bb
00000350: 735c fb3b e39d 89ba 5fbd 443b 0269 d5ba
00000360: 8d33 663a 5961 03bb 6d71 283b e876 d73c
00000370: 66af 14bc efad 6d3c b4d6 93bb ce27 053c
00000380: d3c6 65bc d409 903b 3fa0 c23b a8d8 fb3b
00000390: 57dd 6739 478e d5ba a523 63bc 58ac cebc
000003a0: 4568 3a3c 200f 25bc b766 63bc 0d52 07bb
000003b0: 05f3 b6bb a5e2 803b b6c2 243c 9b10 8dbc
000003c0: 3b0d 59ba 7f6a c8bb a3bf ab3b 870c 55ba
000003d0: 3d72 c6bb a87a 2abb e8ea c2bb 0b74 99b9
000003e0: e36e 0c3a 8b3e a8ba aae9 c9bb 0b10 8cbb
000003f0: 1c2c 4a3c 6cd5 bbba 67d7 013c c803 7dba
-0.011364453 -0.013496404 -0.00081554847 0.0016099904 -0.002478079 0.017548917 0.00029810015 0.0038414334
0.010959174 0.004698533 -0.0062474976 -0.006129172 -0.004217883 -0.008851297 0.008297588 -0.01093691
-0.020322768 0.0050132577 0.00495419 -0.018576615 0.0011403029 0.0015643062 -0.0016895095 -0.026711304
-0.0036139116 -0.0018259233 -0.012162445 0.004204066 0.013072732 0.0014987118 -0.010882005 0.011773866
0.0027460027 -0.0058479914 -0.0022817259 -0.024103252 0.007739126 -0.007779155 -0.0058221174 -0.0015092044
-0.009066305 0.006357687 0.013850405 0.008203055 0.015224397 -0.013153969 -0.007278744 -0.0058498005
-0.003920541 -0.01142425 -0.010851184 0.0045308503 -0.006471327 0.010623115 0.0007070838 0.0089370655
-0.0063124555 -0.010648624 -0.00016355059 0.007953226 0.0037645877 0.0045179403 0.0036098287 0.0063249753
-0.0050120377 -0.003486557 -0.0040901178 0.01311103 0.007170114 0.0042722044 -0.011329714 -0.0026648678
-0.0036825363 -0.0027631181 0.0008486977 0.009210101 -0.007968144 -0.0017861839 -0.008870174 -0.01179058
0.0055710836 -0.00121653 -0.009414957 0.0014561497 0.00091237173 0.006578885 0.0100021465 0.0025531878
0.0109751215 0.0028027182 -0.0016107963 -0.0058007236 -0.009105223 0.017922057 -0.0055339388 -0.0056917625
-0.00025488276 -0.011622804 0.0035772298 -0.002317039 -0.004925197 -0.002081207 -0.0026428357 -0.0013108264
-0.005685264 0.0010641363 -0.010699823 -0.002783805 -0.0007524606 -0.0003770272 0.013102959 -0.0007915913
-0.0073773996 0.0073571703 0.0014691689 0.00455679 -0.0010172221 -0.009856304 -0.0010170811 -0.011216364
0.0011277258 -0.0032084116 -0.011506926 0.0005159708 0.0067535713 -0.00031420068 0.00074701715 -0.017673707
0.0046622674 -0.0040853987 0.01175267 -0.0071480507 0.001523568 0.004467607 -0.01148218 0.0017537747
0.009711235 -0.008643484 0.0060330215 -0.0037441084 0.024771236 0.007282392 -0.0032861903 0.0040427856
-0.006600161 0.0022050047 -0.015430923 0.0027453664 0.013127329 -0.01120716 -0.008030479 0.007360432
0.0012958146 -0.009165053 -0.0053128786 0.011949152 0.006352428 0.0125057595 -0.0015083526 -0.023425125
0.0054649897 0.005222847 0.014477349 0.0024943163 0.0188212 0.011058449 -0.0075750337 0.0031135455
0.015959939 0.0106600365 -0.003563827 0.0087095 0.006805884 -0.019289574 0.007748107 0.0050988146
-0.0018804366 -0.012524311 0.0028395369 0.002811965 0.00243849 0.002565736 -0.01778931 -0.005616039
-0.011529176 0.008504635 0.0026849394 -0.0048345076 -0.017155765 -0.007181535 -0.001525777 -0.006279596
0.011595549 0.0023566224 0.011223218 -0.0073339897 -0.001268703 -0.002649533 -0.008110545 0.0043590786
-0.009151555 0.020482602 -0.0048931963 -0.0051863496 -0.0073483638 -0.0073539773 0.010304241 -0.012642036
-0.002319035 0.0013673077 0.011796758 -0.0037646194 0.007670933 -0.0010499324 0.00300201 -0.0016281905
0.00087814854 -0.0020047037 0.0025702373 0.026301816 -0.009075021 0.014506801 -0.0045116786 0.008127166
-0.014024454 0.004395703 0.005939513 0.0076857395 0.00022112332 -0.0016293012 -0.013863479 -0.025228664
0.011377399 -0.010074407 -0.01387947 -0.0020648271 -0.0055831694 0.003933268 0.010056188 -0.017219832
-0.00082798646 -0.006116211 0.0052413507 -0.0008127172 -0.0060560987 -0.002601305 -0.005948413 -0.00029268893
0.00053570996 -0.0012836022 -0.006161888 -0.0042743734 0.012339618 -0.0014330572 0.007924891 -0.00096517475

action_model._discrete_distribution.branches.3.bias f4 [13]
00000000: 0000 0000 0000 0000 0000 0000 0000 0000
00000010: 0000 0000 0000 0000 0000 0000 0000 0000
00000020: 0000 0000 0000 0000 0000 0000 0000 0000
00000030: 0000 0000
0.0 0.0 0.0 0.0 0.0 0.0 0.0 0.0
0.0 0.0 0.0 0.0 0.0
