results/JustWhite2-debug1/WhiteMLAgent/WhiteMLAgent-305.onnx (onnx, 126200 bytes, 15 tensors)

discrete_act_size_vector f4 [1, 5]
8.0 8.0 8.0 8.0 5.0
00000000: 0000 0041 0000 0041 0000 0041 0000 0041
00000010: 0000 a040

network_body._body_endoder.seq_layers.0.weight f4 [128, 64]
-0.14322832 -0.12143755 0.039580945 -0.13723981 0.05668766 0.0006741144 -0.10325285 -0.025652952
0.07923086 -0.10669048 -0.090553544 -0.038729794 0.26945376 -0.027093122 0.062598266 -0.034800526
0.20023747 -0.012916318 0.23061547 -0.061155077 0.06853562 -0.17732589 0.06419892 -0.168635
-0.10112002 -0.041313272 0.17271392 0.12864399 -0.09990894 -0.1325875 0.2722209 0.0320547
0.088569716 -0.029058456 0.16649151 -0.0033044268 -0.04769327 -0.12836507 -0.15192275 0.15902245
-0.13542524 -0.15227884 -0.04909555 0.056826703 0.085261725 -0.04735761 -0.17627047 -0.122207224
0.21642265 0.012903758 0.06130065 0.24787302 0.031178385 0.07390499 -0.17476997 -0.12517953
-0.26417235 0.027770307 -0.13362795 0.012036843 -0.02829414 -0.03202399 0.090270944 -0.07588067
-0.078094035 -0.075568624 0.10346514 -0.07812242 0.039753467 -0.25450766 0.043446098 -0.002633654
-0.0035500254 -0.108947694 -0.071720466 0.1342131 -0.00031255672 0.10411962 -0.020839848 -0.120665245
-0.15030167 -0.09047576 0.089605525 0.0802726 -0.082774684 0.11799483 -0.23281899 0.009509357
0.08606438 -0.092785545 -0.02008443 -0.0666942 0.08685858 -0.14947946 0.090730995 0.14462043
-0.05848032 0.10100062 -0.043846868 -0.012650388 0.03201957 0.08334468 -0.0744852 0.09550028
-0.03288437 -0.08183242 -0.107139796 0.024534719 0.11863731 -0.03236546 -0.13499859 0.17985582
-0.06684553 0.12532365 0.03619704 -0.12761576 -0.038878463 -0.32105443 0.10488851 0.091977574
0.078976795 -0.048084795 0.080635756 0.077185094 0.26853687 -0.010842196 -0.11167695 0.17808175
-0.18303926 0.108995385 0.03218241 0.022019995 -0.026213823 -0.00720224 0.054010388 -0.048538454
-0.03852954 -0.0892971 -0.01483937 -0.0915963 0.13408743 0.0049161008 -0.17908545 0.02890445
-0.05737534 0.22950144 0.004185581 -0.09052486 0.0883816 0.108723685 0.035022583 0.09328957
-0.06902786 -0.098820664 0.0057068025 -0.09080026 0.19896995 0.050270237 0.17864539 0.0616496
-0.15011229 -0.02309375 0.07231433 0.052534774 -0.10944851 0.050726067 -0.1328077 0.023281317
0.28516662 -0.0625395 0.05774521 -0.10577887 -0.1550716 -0.04349487 -0.042866576 0.030694364
0.07518084 0.02047475 0.0023026653 -0.08480737 -0.24903959 -0.040631372 0.2715468 0.023440313
-0.17245057 -0.032851398 0.19010304 0.21239966 0.044918742 0.02600373 0.07571559 0.12219368
0.008822337 0.05126393 -0.1401698 -0.017744523 0.073935874 -0.022151483 0.1784963 0.12769549
0.22295937 -0.014623974 0.016766505 -0.21385352 0.0585052 0.1418079 -0.07621155 -0.022612315
-0.0005836103 -0.054025088 -0.12113947 -0.117602736 0.05936804 -0.043545034 0.029651428 0.067755505
0.14098527 0.14129739 -0.044074915 -0.3325344 0.13443625 0.016266933 0.053746082 0.059045397
0.07923854 -0.04321597 0.006377931 0.116412036 0.14831163 -0.1642211 -0.06719065 0.10096446
-0.079867564 -0.19608745 0.043317113 -0.099899255 -0.11720408 -0.07529712 0.01667327 0.09677248
0.061427742 -0.1155508 0.12371265 0.10233105 -0.22031546 -0.05004809 -0.115792565 0.1537477
0.14712729 0.22330882 -0.115538806 0.11177601 -0.07006258 -0.17253566 0.28723016 0.020416148
00000000: 72aa 12be 40b4 f8bd a11f 223d 9888 0cbe
00000010: 5231 683d 0db7 303a 3b76 d3bd 2426 d2bc
00000020: ca43 a23d 8a80 dabd 2374 b9bd 22a3 1ebd
00000030: d8f5 893e 65f2 ddbc 8533 803d ff8a 0ebd
00000040: 0d0b 4d3e f79e 53bc 7626 6c3e bf7d 7abd
00000050: 675c 8c3d eb94 35be b97a 833d a7ae 2cbe
00000060: 0318 cfbd 1b38 29bd ebdb 303e 40bb 033e
00000070: 0f9d ccbd 05c5 07be 8a60 8b3e ca4b 033d
00000080: 0a64 b53d 000c eebc c07c 2a3e 158f 58bb
00000090: 055a 43bd 2272 03be a391 1bbe c8d6 223e
000000a0: eaac 0abe fcee 1bbe 6a18 49bd 1ec3 683d
000000b0: b39d ae3d 0efa 41bd 3f80 34be c847 fabd
000000c0: e69d 5d3e 496a 533c 6416 7b3d 6dd2 7d3e
000000d0: d069 ff3c 805b 973d e6f6 32be 102f 00be
000000e0: 9941 87be 8e7e e33c c4d5 08be 2e36 453c
000000f0: 1dc9 e7bc 962b 03bd f9df b83d 5367 9bbd
00000100: c4ef 9fbd b9c3 9abd 88e5 d33d a6fe 9fbd
00000110: 88d4 223d d44e 82be 89f4 313d 6299 2cbb
00000120: 8ba7 68bb f81f dfbd 2ee2 92bd 296f 093e
00000130: a7de a3b9 ab3c d53d 54b8 aabc 571f f7bd
00000140: aee8 19be 5b4b b9bd 1a83 b73d f665 a43d
00000150: c685 a9bd 46a7 f13d 1a68 6ebe 22cd 1b3c
00000160: 8642 b03d 5906 bebd 1a88 a4bc f896 88bd
00000170: e9e2 b13d 2511 19be 2cd1 b93d 6117 143e
00000180: 0f89 6fbd 6ad9 ce3d c698 33bd 9343 4fbc
00000190: f426 033d 9eb0 aa3d b28b 98bd a795 c33d
000001a0: c3b1 06bd c197 a7bd 1c6c dbbd 09fd c83c
000001b0: 1ef8 f23d a591 04bd 123d 0abe 202c 383e
000001c0: 4fe6 88bd d854 003e 5943 143d b5ad 02be
000001d0: 063f 1fbd 3f61 a4be cacf d63d bd5e bc3d
000001e0: 96be a13d 90f4 44bd 5c24 a53d 3813 9e3d
000001f0: aa7d 893e 77a3 31bc e2b6 e4bd 105b 363e
00000200: a56e 3bbe f938 df3d b4d1 033d 4763 b43c
00000210: 5fbe d6bc c500 ecbb ff39 5d3d 42d0 46bd
00000220: 27d1 1dbd 66e1 b6bd d420 73bc d796 bbbd
00000230: 374e 093e 3e17 a13b 2d62 37be 06c9 ec3c
00000240: 6802 6bbd 6d02 6b3e 3327 893b 1965 b9bd
00000250: 6a01 b53d 86aa de3d d773 0f3d 9a0e bf3d
00000260: 7b5e 8dbd 7d62 cabd 2100 bb3b 7df5 b9bd
00000270: c7be 4b3e 2ae8 4d3d d1ee 363e 4a84 7c3d
00000280: 09b7 19be 1b2f bdbc 8919 943d b42e 573d
00000290: 8a26 e0bd 23c6 4f3d befe 07be 76b8 be3c
000002a0: 5c01 923e b614 80bd 3e86 6c3d 98a2 d8bd
000002b0: 17cb 1ebe ad27 32bd dd94 2fbd bf72 fb3c
000002c0: 6af8 993d aaba a73c 50e8 163b 7daf adbd
000002d0: 3c04 7fbe 156d 26bd 2f08 8b3e e605 c03c
000002e0: e296 30be 308f 06bd 5faa 423e 4c7f 593e
000002f0: b7fc 373d c605 d53c c610 9b3d ae40 fa3d
00000300: 908b 103c 20fa 513d ac88 0fbe f65c 91bc
00000310: b16b 973d 0777 b5bc bcc7 363e 9bc2 023e
00000320: 764f 643e 6599 6fbc e959 893c 6bfc 5abe
00000330: 26a3 6f3d 1736 113e cd14 9cbd 763d b9bc
00000340: 6dfd 18ba 6949 5dbd f817 f8bd b4d9 f0bd
00000350: e72b 733d 475c 32bd 8de7 f23c 66c3 8a3d
00000360: 715e 103e 43b0 103e e687 34bd f341 aabe
00000370: a8a9 093e 3b42 853c da24 5c3d 96d9 713d
00000380: d147 a23d 3b03 31bd f7fd d03b 6f69 ee3d
00000390: 01df 173e 9329 28be 409b 89bd 74c6 ce3d
000003a0: 9b91 a3bd 26cb 48be 496d 313d fb97 ccbd
000003b0: b108 f0bd 6035 9abd 6296 883c a630 c63d
000003c0: a89b 7b3d e6a5 ecbd 0f5d fd3d f192 d13d
000003d0: 609a 61be 3aff 4cbd a724 edbd 0970 1d3e
000003e0: 89a8 163e 11ab 643e 9c9f ecbd d2ea e43d
000003f0: f87c 8fbd 30ad 30be d50f 933e c43f a73c

network_body._body_endoder.seq_layers.0.bias f4 [128]
0.028639622 0.010802048 0.021014102 0.026963506 0.02273069 0.020150557 -0.015635751 0.02821564
0.024304098 0.030926796 0.018520573 0.014795568 0.022302063 -0.015743157 0.028181517 -0.0009975275
0.034376044 0.014759606 0.022353023 0.022457685 0.029587278 0.012935556 0.019018717 0.025733396
0.02959834 0.02856673 0.024831396 -0.018067213 0.034008026 0.029320624 0.03101055 0.012150855
0.024311982 -0.0030276498 0.029835183 -0.0048824963 0.020943208 0.01431826 0.024743322 0.019488236
0.02074938 0.025851464 0.021815393 0.019493397 -0.010240332 0.022410251 0.027242461 0.015341132
0.017987926 0.013270918 0.030033005 0.017434912 0.02280894 0.02670185 0.005542563 0.02626726
0.027588325 0.023346094 0.019198928 0.01690364 0.0036111174 0.027741214 0.021234205 0.011325508
-0.0063408944 0.023573704 0.014422749 0.025862226 0.025081843 0.019669741 0.020323006 0.020205237
0.026972868 0.02845415 0.022254037 0.025883468 0.008250656 0.026893562 0.025693882 0.011284849
0.027661191 0.032253794 0.011868049 0.025850667 0.018592972 0.029855132 0.025230225 0.024762223
-0.0049716267 -0.003341217 0.033151124 0.021343073 0.026226822 0.023813339 -0.020663304 0.028505862
0.029156528 0.022233477 0.025190582 0.008026476 0.009884154 -0.020207569 -0.021850228 0.023892019
0.029757094 0.026507773 -0.0044685085 0.02434301 0.022642342 0.012332933 0.024633316 0.020191476
-0.01893099 0.014560725 0.026762886 0.010045265 0.023825739 0.02135775 -0.00982751 0.021905828
0.028568644 -0.014476671 0.025779234 0.02153334 0.02275696 0.025233576 0.0229483 0.024245365
00000000: a49d ea3c 13fb 303c c425 ac3c 92e2 dc3c
00000010: b635 ba3c c812 a53c 8c16 80bc 7c24 e73c
00000020: 6319 c73c 315a fd3c 75b8 973c 1c69 723c
00000030: d1b2 b63c cbf7 80bc eddc e63c 78bf 82ba
00000040: e5cd 0c3d 46d2 713c b01d b73c 2ef9 b73c
00000050: 0561 f23c a7ef 533c 24cd 9b3c d8ce d23c
00000060: 3878 f23c c604 ea3c 366b cb3c b101 94bc
00000070: 004c 0b3d ce31 f03c d609 fe3c 6114 473c
00000080: ec29 c73c 896b 46bb ea68 f43c 59fd 9fbb
00000090: 1791 ab3c 2397 6a3c 82b2 ca3c cba5 9f3c
000000a0: 9bfa a93c 73c6 d33c 32b6 b23c 9eb0 9f3c
000000b0: 11c7 27bc b495 b73c 952b df3c 5f59 7b3c
000000c0: 6a5b 933c 446e 593c c707 f63c a9d3 8e3c
000000d0: d0d9 ba3c d7bd da3c 639e b53b 702e d73c
000000e0: e900 e23c 4f40 bf3c 1247 9d3c 8179 8a3c
000000f0: 7fa8 6c3b 8b41 e33c 5bf3 ad3c a08e 393c
00000100: 47c7 cfbb a41d c13c 654d 6c3c 05dd d33c
00000110: 7078 cd3c 7022 a13c 6f7c a63c 7485 a53c
00000120: 34f6 dc3c ad18 e93c 194e b63c 9109 d43c
00000130: c22d 073c e34f dc3c fa7b d23c 16e4 383c
00000140: b999 e23c 8e1c 043d 3572 423c c7c4 d33c
00000150: 4a50 983c c092 f43c 9eaf ce3c 25da ca3c
00000160: 07e9 a2bb 52f8 5abb 79c9 073d abd7 ae3c
00000170: a2d9 d63c 3114 c33c 1746 a9bc 2085 e93c
00000180: acd9 ee3c fb22 b63c 7b5c ce3c 7b81 033c
00000190: 26f1 213c 588a a5bc 40ff b2bc 32b9 c33c
000001a0: 26c5 f33c d426 d93c 916c 92bb fe6a c73c
000001b0: 6f7c b93c 1210 4a3c cfcb c93c 9868 a53c
000001c0: 2a15 9bbc 1b90 6e3c d73d db3c e594 243c
000001d0: 322e c33c 73f6 ae3c 9103 21bc da73 b33c
000001e0: ca08 ea3c 8f2f 6dbc f92e d33c b066 b03c
000001f0: ce6c ba3c a5b6 ce3c 13fe bb3c 379e c63c

network_body._body_endoder.seq_layers.2.weight f4 [128, 128]
-0.06381846 0.06374109 0.23002994 -0.06631608 0.019250382 0.16631523 -0.26716363 0.079750285
0.061396006 -0.08093168 0.07542056 -0.07734248 0.121974304 -0.17157184 -0.024649264 -0.06326668
0.10024671 -0.05926236 -0.17197973 -0.02357863 0.047513656 -0.015709516 0.13023451 0.16761644
-0.081716284 -0.016110115 -0.05381301 0.08848577 -0.18488182 -0.084598035 -0.05087313 -0.015749462
-0.08165679 0.16010916 0.13335453 0.010779531 -0.21964367 -0.10152195 -0.057869732 -0.009450463
0.15811074 0.05811554 0.14898407 -0.062779315 0.061547726 0.061988045 0.15645587 0.05894228
-0.07330283 0.0399883 -0.049579464 0.0439262 -0.049499635 -0.109602705 -0.039138213 -0.050959997
-0.1659093 -0.16238031 -0.062383525 0.10721974 0.098087534 0.018357873 -0.06993586 0.18217205
0.05979649 -0.037458867 -0.08640627 0.11669017 0.09519056 0.053714454 -0.051229153 0.045209542
-0.009419754 -0.13915415 -0.15146317 0.089124 -0.04569846 0.07795557 -0.007962042 -0.01109735
-0.043709278 -0.0430172 -0.032541443 0.09112701 -0.03745771 -0.04876173 -0.08505229 0.048183005
-0.05939608 0.14847049 -0.096330486 -0.040331513 -0.16805759 0.061658047 0.012203608 -0.1086185
-0.03824912 -0.056827728 -0.06299486 -0.08869126 0.015350373 -0.070948444 0.04200794 0.038945846
-0.076356634 0.057847653 -0.02560653 -0.028205914 0.03614415 -0.049857214 0.08814969 0.056792714
0.043778416 -0.065765105 0.049263045 0.018524494 0.038240742 -0.13313748 -0.094839945 -0.01775376
-0.04769457 0.032017145 -0.12458943 -0.077191815 0.086240835 0.01719861 0.03885423 -0.050216943
-0.018846715 0.08149008 0.017405448 -0.15893619 0.115190044 -0.052438077 -0.10370565 0.11710057
-0.14195612 0.21350314 -0.121200465 0.0063781696 0.14239854 0.028418303 0.048220184 -0.057604343
0.07465178 0.105874605 0.11260366 0.1536617 -0.011693388 0.076553956 -0.06058168 -0.04071799
0.05289061 -0.047428902 0.1240853 -0.08095755 -0.11855619 0.13486469 0.06778351 -0.10661109
0.07818103 -0.02189478 0.016076108 0.08861671 0.03698542 0.012306955 -0.021784415 -0.028459083
0.1086247 0.045772437 0.015474342 -0.07431295 -0.027096217 -0.0009986203 0.072149634 0.11707999
-0.0031179676 -0.0033870959 0.09420707 -0.059975002 0.19638275 0.010774461 0.1197917 0.058849256
-0.01977813 -0.03611162 0.012942748 0.025146518 -0.043093756 0.03802111 0.023191376 0.09924498
-0.09228509 0.014282809 0.075156525 -0.036702815 -0.22787781 0.023969222 -0.0007110502 0.07658212
-0.025041234 0.17506659 0.092917435 0.035844572 -0.027407782 0.13623235 0.010121454 0.09455111
-0.062028002 -0.015299354 0.12157031 0.08247541 0.12565918 0.033174068 0.063767314 0.03952118
0.06524978 0.068875425 0.1017777 0.1660945 -0.14228165 -0.06186919 -0.13601878 -0.04284408
0.05574983 0.029996539 -0.04735416 0.10947014 -0.007768085 -0.073732644 0.012098523 -0.04351755
0.17971447 0.08240603 0.037061423 0.3012434 0.10430862 -0.13764124 -0.030946167 -0.057253614
-0.0022297755 -0.15352029 0.21133803 0.15863894 0.15506724 -0.016302574 -0.05196665 0.032572404
-0.07149688 -0.074283615 0.07104679 0.11552109 0.088772915 0.060806587 -0.10571269 -0.07806985
00000000: 41b3 82bd b08a 823d f88c 6b3e bad0 87bd
00000010: fab2 9d3c 8a4e 2a3e acc9 88be 1e54 a33d
00000020: 617a 7b3d 82bf a5bd 1876 9a3d bc65 9ebd
00000030: aacd f93d 87b0 2fbe 41ed c9bc f691 81bd
00000040: 264e cd3d 17bd 72bd 741b 30be f927 c1bc
00000050: ae9d 423d 3eb1 80bc 325c 053e a5a3 2b3e
00000060: de5a a7bd 5cf9 83bc 086b 5cbd 0738 b53d
00000070: a951 3dbe bc41 adbd 5860 50bd 0405 81bc
00000080: ad3b a7bd a8f3 233e 178e 083e a19c 303c
00000090: 45ea 60be bdea cfbd d008 6dbd 1dd6 1abc
000000a0: c8e7 213e 8f0a 6e3d 488f 183e 7192 80bd
000000b0: 7819 7c3d 2de7 7d3d f835 203e 766d 713d
000000c0: cb1f 96bd c6ca 233d d613 4bbd f6eb 333d
000000d0: 21c0 4abd 6277 e0bd 644f 20bd 6ebb 50bd
000000e0: 21e4 29be 0647 26be de85 7fbd 0696 db3d
000000f0: 1ee2 c83d 4063 963c 883a 8fbd 4f8b 3a3e
00000100: 2aed 743d 786e 19bd c5f5 b0bd 41fb ee3d
00000110: 45f3 c23d b003 5c3d a9d5 51bd a42d 393d
00000120: 5055 1abc 6d7e 0ebe 2919 1bbe a586 b63d
00000130: 4f2e 3bbd 2ba7 9f3d 3973 02bc a9d1 35bc
00000140: 8008 33bd ce32 30bd 2d4a 05bd cca0 ba3d
00000150: 416d 19bd 61ba 47bd e52f aebd 8b5b 453d
00000160: 4e49 73bd a608 183e eb48 c5bd a832 25bd
00000170: 4a17 2cbe 268d 7c3d a4f1 473c 6073 debd
00000180: 1cab 1cbd 31c4 68bd 7303 81bd c3a3 b5bd
00000190: 2280 7b3c 6b4d 91bd 8510 2c3d ae85 1f3d
000001a0: de60 9cbd a9f1 6c3d c9c4 d1bc 1710 e7bc
000001b0: e30b 143d 1437 4cbd d387 b43d 7a9f 683d
000001c0: ff50 333d dbaf 86bd 0cc8 493d aec0 973c
000001d0: 53a2 1c3d 3155 08be 723b c2bd 5570 91bc
000001e0: 625b 43bd 6924 033d be28 ffbd be16 9ebd
000001f0: 099f b03d 19e4 8c3c 9d25 1f3d 48b0 4dbd
00000200: 6d64 9abc 45e4 a63d df95 8e3c 2bc0 22be
00000210: c2e8 eb3d 4fc9 56bd a163 d4bd 6cd2 ef3d
00000220: f25c 11be 91a0 5a3e f337 f8bd f7ff d03b
00000230: ecd0 113e 80cd e83c 8782 453d 88f2 6bbd
00000240: 08e3 983d c9d4 d83d bf9c e63d 7e59 1d3e
00000250: a095 3fbc 52c8 9c3d 7f24 78bd e8c7 26bd
00000260: d3a3 583d cf44 42bd 6f20 fe3d 12cd a5bd
00000270: 96cd f2bd f819 0a3e 15d2 8a3d ea56 dabd
00000280: 601d a03d af5c b3bc 0bb2 833c ad7c b53d
00000290: 067e 173d 1ca3 493c 3b75 b2bc 0623 e9bc
000002a0: a076 de3d e17b 3b3d 1888 7d3c 6331 98bd
000002b0: e3f8 ddbc 23e4 82ba 30c3 933d a2c7 ef3d
000002c0: d156 4cbb 0afa 5dbb a3ef c03d 59a8 75bd
000002d0: 8f18 493e 5d87 303c 5a55 f53d eb0b 713d
000002e0: bf05 a2bc c7e9 13bd d20d 543c 1200 ce3c
000002f0: 1483 30bd 06bc 1b3d d7fb bd3c f440 cb3d
00000300: f7ff bcbd 7102 6a3c aaeb 993d b155 16bd
00000310: cd58 69be 1a5b c43c c565 3aba 16d7 9c3d
00000320: 4623 cdbc a844 333e 7f4b be3d c2d1 123d
00000330: 4986 e0bc 7e80 0b3e 74d4 253c 03a4 c13d
00000340: 1311 7ebd 24aa 7abc dbf9 f83d dee8 a83d
00000350: cdac 003e 88e1 073d 7098 823d f6e0 213d
00000360: ada1 853d 8f0e 8d3d d470 d03d ad14 2a3e
00000370: 48b2 11be 8c6a 7dbd 8248 0bbe 467d 2fbd
00000380: ef59 643d 4dbb f53c 70f6 41bd e131 e03d
00000390: 6c8b febb 2401 97bd e238 463c 753f 32bd
000003a0: 1207 383e 7ec4 a83d b8cd 173d 933c 9a3e
000003b0: c29f d53d d3f1 0cbe d182 fdbc c482 6abd
000003c0: 6d21 12bb 6c34 1dbe ff68 583e 3f72 223e
000003d0: f2c9 1e3e fa8c 85bc fbda 54bd a46a 053d
000003e0: f56c 92bd 0222 98bd fb80 913d 5296 ec3d
000003f0: 93ce b53d 5410 793d e57f d8bd 16e3 9fbd

network_body._body_endoder.seq_layers.2.bias f4 [128]
-0.019819444 0.026267538 0.014550489 0.025272725 0.024367116 0.023568647 0.020788802 -0.01683066
0.018638864 0.020178175 0.022079635 0.02535841 0.011179757 0.024634872 0.013069802 0.022335412
0.021973368 0.006062717 0.010002112 0.021450516 0.023533171 0.0034264922 -0.011777601 -0.014340453
0.021626713 -0.009578767 0.019764977 0.021093033 0.024432262 0.021893386 0.025012612 0.021984931
0.019085208 0.017098946 0.020877657 0.013504245 0.022554033 0.019178474 0.008857626 0.024636172
0.02334879 -0.019765267 0.025125524 0.019891236 -0.02328103 -0.0026876754 -0.009273902 0.02656201
0.025904333 -0.0021376568 0.02345269 0.02319698 0.020549243 -0.011031418 0.021070968 0.024096802
0.027434563 0.018766338 0.026179532 0.027908383 0.02296873 0.027330808 -0.021576311 0.019885132
0.023276525 -0.01726209 0.026300851 0.017940601 -0.004502688 0.022195209 -0.013989182 0.026650544
0.0067009972 -0.017626667 0.024085239 0.018251877 0.022571009 0.00016745244 0.019735321 0.028584594
0.021995738 0.0116101885 -0.020828044 0.0089909835 0.0024511595 -0.01216922 -0.017419646 -0.009266822
-0.01407513 0.024337616 0.018559298 0.029628588 0.023462916 0.023894971 0.013931756 0.025816642
0.01818364 0.025336733 0.014294793 0.023681147 -0.020072745 0.018541738 0.02548807 -0.018291557
0.024668196 0.021189354 0.02673119 0.023601187 0.028406436 0.029011246 0.00030103588 0.021426221
0.019251723 0.016173327 -0.01803581 0.02021093 0.022409631 -0.013547996 0.009516051 0.02198076
-0.018571643 0.025581598 0.019046428 0.025890915 -0.015778787 0.01441549 0.025215605 -0.021752505
00000000: 635c a2bc 052f d73c 2d65 6e3c bf08 cf3c
00000010: 8c9d c73c 0913 c13c 474d aa3c 74e0 89bc
00000020: 88b0 983c b34c a53c 5ae0 b43c 71bc cf3c
00000030: 4d2b 373c 12cf c93c b922 563c c1f8 b63c
00000040: 7e01 b43c c2a9 c63b e6df 233c feb8 af3c
00000050: a3c8 c03c 008f 603b d7f6 40bc 38f4 6abc
00000060: 812a b13c 43f0 1cbc 29ea a13c 4ccb ac3c
00000070: 2b26 c83c c259 b33c 40e7 cc3c be19 b43c
00000080: 9558 9c3c 1713 8c3c 9f07 ab3c e940 5d3c
00000090: 3cc3 b83c 2d1c 9d3c 931f 113c ccd1 c93c
000000a0: f645 bf3c c5ea a1bc 0bd4 cd3c f2f2 a23c
000000b0: dcb7 bebc b623 30bb 90f1 17bc 9398 d93c
000000c0: 5335 d43c ee17 0cbb db1f c03c 9807 be3c
000000d0: e356 a83c 1fbd 34bc 069d ac3c a866 c53c
000000e0: 73be e03c ddbb 993c 7576 d63c 1fa0 e43c
000000f0: eb28 bc3c dce4 df3c cec0 b0bc 25e6 a23c
00000100: 69ae be3c 3a69 8dbc e274 d73c 2bf8 923c
00000110: 498b 93bb bad2 b53c e232 65bc 3e52 da3c
00000120: 0a94 db3b cd65 90bc 684e c53c f684 953c
00000130: d6e6 b83c 2c96 2f39 f8ab a13c 3d2a ea3c
00000140: 6830 b43c a938 3e3c 939f aabc eb4e 133c
00000150: a2a3 203b 6861 47bc a5b3 8ebc ded3 17bc
00000160: 609b 66bc ae5f c73c ab09 983c a7b7 f23c
00000170: 4d35 c03c 63bf c33c 0542 643c 6c7d d33c
00000180: dbf5 943c fb8e cf3c b534 6a3c f7fe c13c
00000190: 996f a4bc d8e4 973c 5bcc d03c 2dd8 95bc
000001a0: f514 ca3c 4c95 ad3c 5efb da3c 4757 c13c
000001b0: 9db4 e83c fea8 ed3c 5ad4 9d39 0b86 af3c
000001c0: cab5 9d3c ed7d 843c d6bf 93bc 6491 a53c
000001d0: 6794 b73c 6af8 5dbc 36e9 1b3c ff10 b43c
000001e0: 8f23 98bc 8090 d13c 4107 9c3c 2f19 d43c
000001f0: 8442 81bc f32e 6c3c f590 ce3c 4f32 b2bc

action_model._discrete_distribution.branches.0.weight f4 [8, 128]
-0.0027801006 0.0006614457 0.009254104 0.013529212 0.016090086 -0.0039820275 0.022935499 -0.019118525
-0.014346966 0.007814318 -0.000903622 -0.011669066 0.016058339 0.018819172 0.00039982112 0.02210543
0.01847093 0.017280988 0.012880779 -0.016995033 -0.008214788 -0.01104031 -0.016635189 -0.0023672727
0.0070784935 -0.003332699 -0.013900957 0.010060685 0.01526223 0.013891582 0.0069609266 0.015494405
0.011886582 0.0016817603 -0.0008944559 0.009593741 0.007646328 0.016910791 0.01855788 0.012114
0.018341348 0.0010810993 0.005660351 -0.016588088 0.016913649 0.0026772672 -0.036544096 0.0092724925
-0.004253613 -0.0066203177 0.019380864 -0.006792525 0.0069260895 -0.0024783323 0.019292621 -0.026540292
0.015767576 0.003740133 -0.0020467113 0.0013433346 0.025681442 -0.00029499715 -0.022314051 0.019109732
-0.0054977215 0.017299054 -0.0042505497 0.0084363 -0.0010022433 0.013154085 -0.011357852 -0.009818988
-0.0016954924 -0.026174186 0.009706927 0.013203202 -0.005832133 -0.009693216 -0.011929183 0.014683641
0.021591894 0.0040605715 -0.0036566525 -0.016140688 0.006558238 0.00062827335 -0.009006487 -0.0065277233
0.004053512 0.0015792937 0.0007012079 -0.005742806 0.03173911 -0.013512506 0.01715294 0.012860439
-0.0073245633 0.011996509 -0.010069138 0.008920807 0.002013964 0.0041806577 -0.0236954 -0.011652441
0.01388955 0.0059352107 0.0059508784 0.012305089 0.0022834146 0.0013178473 0.0007698325 -0.0012270934
0.018088004 0.0081466045 -0.0056875846 0.017791765 0.014838768 -0.028713321 -0.005750051 0.0070325155
0.0019133843 -0.00660492 0.012396614 0.0022121891 -0.011776382 -0.007663243 0.0037778798 -0.0029767384
-0.020221014 0.008301025 0.0031049242 -0.015664006 0.0018046757 0.007632985 -0.0014108776 0.004661661
-0.01449705 0.007516113 -0.004756038 0.025879895 -0.014121331 0.016242659 0.004994018 0.010600063
0.027257368 -0.009080763 -0.008878907 0.011732246 0.0057562115 0.020361686 -0.0034246086 -0.0028411485
0.006946967 0.0013807 0.0070616524 0.010011089 -0.0046906588 -6.701391e-05 0.0072178277 0.0035682875
0.00021878778 0.007016482 0.009627639 0.004520432 0.013835303 -0.008478309 -0.002937868 0.0039415294
-0.014983307 -0.010773172 0.01916968 0.00025306534 -0.017565528 0.0104064485 -0.004855093 0.012594418
-0.001664334 -0.0125335455 -0.0008767057 -0.008834199 0.013434611 0.025815586 -0.019962357 0.004098639
0.019524433 0.01366311 0.0069795735 0.009499763 0.0063416827 0.0061723283 0.012127042 0.014063004
0.0089166565 -0.014670045 0.008410765 0.015813226 -0.0028579186 0.0077841473 -0.012909892 0.007833586
-0.010642802 -0.0058640055 0.008934301 0.008195638 0.030292155 -0.0011946094 0.0018056441 0.010305712
0.017212585 0.0049012913 0.019068632 -0.0022243406 -0.0021164175 -0.012569646 -0.006981357 0.000693445
0.010921192 0.00819933 0.017555472 0.009247823 0.009723481 0.0036525335 -0.0044796173 0.013391949
0.011271744 0.015401641 0.0031347102 0.0012620948 -0.016048282 0.023173748 0.0219638 0.009403277
-0.0020226536 0.0054512643 0.020839471 0.004928417 5.5903172e-05 0.021988736 -0.0037414846 0.005286168
-0.007856348 0.015963115 -0.018652055 0.00358539 0.0030538582 0.012419241 0.001168366 -0.006867105
-0.016746247 -0.00080205494 0.014463238 0.006735956 -0.010009474 -0.0068834047 0.005407729 0.005312428
00000000: 5932 36bb df64 2d3a 879e 173c a1a9 5d3c
00000010: 5bcf 833c ab7b 82bb 3ae3 bb3c 749e 9cbc
00000020: 890f 6bbc a007 003c 0ce1 6cba 9c2f 3fbc
00000030: c78c 833c aa2a 9a3c 159f d139 7216 b53c
00000040: 5950 973c dc90 8d3c e709 533c 2b39 8bbc
00000050: 5197 06bc 6be2 34bc 8546 88bc 3f24 1bbb
00000060: b5f2 e73b 6969 5abb d7c0 63bc 92d5 243c
00000070: 6f0e 7a3c 8599 633c 7c18 e43b 3fdc 7d3c
00000080: f0bf 423c 836e dc3a eb79 6aba 112f 1d3c
00000090: 0c8e fa3b 8088 8a3c b206 983c cc79 463c
000000a0: 9840 963c acb3 8d3a 777a b93b bee3 87bc
000000b0: 7e8e 8a3c 1775 2f3b 43af 15bd a7eb 173c
000000c0: e461 8bbb 40ef d8bb 9ec4 9e3c d493 debb
000000d0: 40f4 e23b 846b 22bb 8f0b 9e3c 076b d9bc
000000e0: 012b 813c 051d 753b 1e22 06bb d412 b03a
000000f0: e361 d23c d9a9 9ab9 f5cb b6bc 038c 9c3c
00000100: 3b26 b4bb bfb6 8d3c 3248 8bbb 6838 0a3c
00000110: b45d 83ba 3b84 573c 4916 3abc d2df 20bc
00000120: 493b deba 3f6b d6bc ce09 1f3c 3e52 583c
00000130: 7a1b bfbb 4bd0 1ebc 9f72 43bc a793 703c
00000140: 7ce1 b03c 8b0e 853b 73a4 6fbb 7a39 84bc
00000150: 7de6 d63b b6b2 243a f28f 13bc 83e6 d5bb
00000160: 53d3 843b 4e00 cf3a 44d1 373a 262e bcbb
00000170: de00 023d 8f63 5dbc 5384 8c3c 97b4 523c
00000180: e402 f0bb 018d 443c 07f9 24bc 9428 123c
00000190: b6fc 033b e6fd 883b db1c c2bc e1e9 3ebc
000001a0: ff90 633c 287c c23b 96ff c23b 499b 493c
000001b0: 57a5 153b 9ebb ac3a 96ce 493a 6cd6 a0ba
000001c0: 4b2d 943c 5679 053c eb5e babb 09c0 913c
000001d0: 4e1e 733c 3338 ebbc ec6a bcbb 0471 e63b
000001e0: 86ca fa3a 166e d8bb 2b1b 4b3c 60fa 103b
000001f0: baf1 40bc f11b fbbb 4e96 773b 6215 43bb
00000200: 8aa6 a5bc 0601 083c fc7b 4b3b cd51 80bc
00000210: de8a ec3a 1e1e fa3b 32ed b8ba d9c0 983b
00000220: 0985 6dbc ba49 f63b 8ad8 9bbb 1302 d43c
00000230: 285d 67bc 530f 853c dca4 a33b e3ab 2d3c
00000240: d84a df3c 7bc7 14bc d678 11bc 9b38 403c
00000250: 9a9e bc3b 8dcd a63c 666f 60bb 9032 3abb
00000260: 62a3 e33b 9bf8 b43a 6f65 e73b 8d05 243c
00000270: 19b4 99bb d289 8cb8 8783 ec3b eed9 693b
00000280: 666a 6539 84ea e53b 3fbd 1d3c 2220 943b
00000290: 77ad 623c 9be8 0abc 3f89 40bb f227 813b
000002a0: 8b7c 75bc f581 30bc bc09 9d3c dbad 8439
000002b0: 95e5 8fbc cf7f 2a3c 7917 9fbb d158 4e3c
000002c0: c825 daba 8059 4dbc b9d2 65ba 51bd 10bc
000002d0: d81c 5c3c 357b d33c 1988 a3bc e04d 863b
000002e0: b4f1 9f3c 3ddb 5f3c e8b4 e43b e5a4 1b3c
000002f0: e4cd cf3b 3e41 ca3b 80b0 463c 8468 663c
00000300: 2b17 123c a15a 70bc 4ecd 093c bd8a 813c
00000310: eb4b 3bbb 2912 ff3b 0384 53bc 7158 003c
00000320: 265f 2ebc d826 c0bb 2d61 123c ff46 063c
00000330: 4127 f83c 7194 9cba 5dab ec3a 4ad9 283c
00000340: 6801 8d3c 039b a03b d235 9c3c 3ec6 11bb
00000350: 98b3 0abb ebf0 4dbc dec3 e4bb 4ec8 353a
00000360: cdee 323c 7c56 063c 7ed0 8f3c 2e84 173c
00000370: 3c4f 1f3c 585f 6f3b c1c9 92bb e869 5b3c
00000380: 1fad 383c 2a57 7c3c b66f 4d3b e06c a53a
00000390: b077 83bc dfd6 bd3c 6ded b33c 3410 1a3c
000003a0: 7f8e 04bb 85a0 b23b 8ab7 aa3c 8f7e a13b
000003b0: 9379 6a38 b921 b43c b233 75bb 9737 ad3b
000003c0: e9b7 00bc 14c5 823c 32cc 98bc ddf8 6a3b
000003d0: 3d23 483b 127a 4b3c dc23 993a 7405 e1bb
000003e0: 6d2f 89bc ff40 52ba 38f7 6c3c 4bb9 dc3b
000003f0: c7fe 23bc 2f8e e1bb 5233 b13b e013 ae3b

action_model._discrete_distribution.branches.0.bias f4 [8]
0.010147564 0.006929268 0.0040628943 0.00047220272 -0.0014923144 -0.014744883 -0.012947862 -0.008229698
00000000: f841 263c ea0e e33b 0722 853b fa91 f739
00000010: c399 c3ba 8694 71bc 4523 54bc dbd5 06bc

action_model._discrete_distribution.branches.1.weight f4 [8, 128]
-0.0066190124 0.007625042 0.0010234114 0.013431563 0.019769639 -0.004411604 0.018750273 -0.0020323882
-0.015707796 0.014012203 0.01420938 0.004025907 0.0016756094 0.0044625103 0.008317635 0.018443817
-0.011723033 0.029196728 0.0004433874 0.012184841 0.0034415305 -0.0036186296 -0.008414176 -0.023077277
0.02381937 -0.011010604 0.00017628228 0.014105866 -0.000120667064 0.016468044 0.0015619111 0.0012566431
0.022633161 -0.01325005 0.018025888 0.012551074 0.0065819314 0.008053464 -0.015969131 0.017768672
0.0031235968 -0.019140424 0.013308704 0.004803553 -0.015566831 -0.012094451 -0.0023054 0.0050339573
0.018681867 -0.018842898 0.027459443 0.0062123323 0.0076384065 0.01702257 0.007710685 0.005254228
0.009060881 0.017151551 0.0039020397 0.022417566 0.010735007 0.0037545953 -0.009333437 0.017974965
0.011388874 -0.020761605 0.007420406 0.0058688615 -0.012512407 0.013849368 -0.0037909087 0.019729206
0.008060472 0.002598741 0.01131284 0.012703382 0.005706444 -0.005254588 -0.0012960656 0.031465467
0.016798455 0.021345621 -0.011661105 0.0146587035 0.0019773236 -0.006346405 -0.0038513916 -0.0005364603
-0.016421437 0.0112962285 0.007448533 0.022657236 0.01732198 0.016549986 0.013719366 0.016146746
0.008743765 0.031659503 0.034061532 0.008242044 -0.013116294 0.030076982 0.0069963653 -0.0016383218
0.019094378 0.017362311 0.0123815425 0.016568888 0.013772206 0.01038074 0.0053759255 0.008472963
0.018372156 -0.0007796839 -0.0016314377 0.001884041 0.02800449 -0.0062396065 0.00652901 -0.00042388722
-0.020408247 0.015760994 -0.0007419483 0.02229624 -0.005528956 0.0066813882 0.00019263753 -0.0023278582
0.0054944344 0.021627108 -0.022807242 0.014162754 0.013232304 -0.009002294 0.0010345529 -0.010446363
0.005918896 0.028951218 0.0014944586 -0.018979149 0.0048830635 0.021454772 0.016315628 0.0280723
0.015314552 -0.0024488124 0.0070604305 0.016110457 0.0031807558 -0.013690438 -0.024765205 -0.017162295
0.0066099516 -0.01041313 0.0023674099 0.010515571 0.008707533 0.026217343 0.01646158 0.024984933
-0.0053339223 0.012204771 0.01044951 0.012898884 0.01632935 0.0067018797 -0.00644445 0.012554247
0.01613599 -0.006071902 0.016355935 0.0142396735 0.0020991138 0.008273065 0.0068074744 0.023692645
-0.007997242 -0.012403671 0.028521588 0.0078433 -0.0054298323 -0.023850987 0.017104872 0.016895756
0.020111868 0.01629099 0.016285809 0.015561083 0.018731527 0.01026059 -0.012817896 0.008153626
-0.002273167 -0.01622049 0.009364895 0.0030925248 -0.0032366123 0.012472331 -0.018292192 0.0135936495
-0.02226769 -0.022804324 0.024798598 0.013487161 0.01515967 -0.014410608 0.0057890657 -0.007208582
0.0040589743 -0.018841067 -0.004499595 0.008230285 -0.009017471 -0.009043099 -0.02828995 -0.011439625
-0.016121002 0.015020507 -0.0060442574 0.009169433 0.010816023 0.011784663 -0.0027713173 0.005971691
0.0070622335 0.022953272 0.009547615 0.025905438 -0.020130277 0.0017380861 -0.007025439 -0.015600093
-0.005120365 0.009661897 0.0069134757 0.0105992975 -0.008929368 0.00626155 -0.006310557 0.006674276
0.023340393 0.006367404 -0.00970358 -0.00075120264 0.008356876 -0.037630126 -0.0012550361 0.01085354
-0.016346497 0.012643173 -0.0015152756 0.016836261 -0.012816714 -0.012431726 0.018485457 0.0006156252
00000000: 4de4 d8bb 7ddb f93b fd23 863a 0f10 5c3c
00000010: f0f3 a13c 378f 90bb 2c9a 993c d131 05bb
00000020: a3ad 80bc 7093 653c 76ce 683c c1eb 833b
00000030: 1fa0 db3a 403a 923b b146 083c 7d17 973c
00000040: f711 40bc fa2d ef3c 7376 e839 eda2 473c
00000050: 4d8b 613b 8826 6dbb 9ddb 09bc 8f0c bdbc
00000060: d720 c33c d265 34bc 6ad8 3839 4a1c 673c
00000070: a30e fdb8 fee7 863c 0ab9 cc3a f2b5 a43a
00000080: 2e69 b93c bd16 59bc 07ab 933c 05a3 4d3c
00000090: 3ead d73b adf2 033c b2d1 82bc 9b8f 913c
000000a0: 42b5 4c3b 61cc 9cbc c00c 5a3c 2067 9d3b
000000b0: 060c 7fbc ce27 46bc 3216 17bb e5f3 a43b
000000c0: b70a 993c 6c5c 9abc a0f2 e03c d290 cb3b
000000d0: 994b fa3b eb72 8b3c eaa9 fc3b a92b ac3b
000000e0: 1774 143c 6981 8c3c 5db9 7f3b 0ba5 b73c
000000f0: e2e1 2f3c a80f 763b 46eb 18bc 3c40 933c
00000100: 6698 3a3c 3e14 aabc e126 f33b 944f c03b
00000110: d700 4dbc 76e8 623c e570 78bb 259f a13c
00000120: 1210 043c a44f 2a3b 7d59 393c d921 503c
00000130: 1ffd ba3b ae2e acbb bfe0 a9ba efe1 003d
00000140: ea9c 893c 03dd ae3c 380e 3fbc 0f2b 703c
00000150: fc95 013b 81f5 cfbb a167 7cbb 3ea1 0cba
00000160: 4086 86bc d113 393c d312 f43b ab9b b93c
00000170: d3e6 8d3c d693 873c 31c7 603c 2e46 843c
00000180: 0242 0f3c 65ad 013d 1b84 0b3d a309 073c
00000190: b9e5 56bc 0164 f63c c441 e53b f5bc d6ba
000001a0: d06b 9c3c 683b 8e3c f4db 4a3c 7abb 873c
000001b0: d2a4 613c fb13 2a3c 8828 b03b 2fd2 0a3c
000001c0: 3481 963c b363 4cba f7d5 d5ba edf1 f63a
000001d0: ac69 e53c 9d75 ccbb 4ef1 d53b 2e3d deb9
000001e0: 322f a7bc 331d 813c 4f7f 42ba 9ba6 b63c
000001f0: 3f2c b5bb 8cef da3b befe 4939 fb8e 18bb
00000200: a80a b43b 552b b13c 41d6 babc e50a 683c
00000210: 4ecc 583c 5c7e 13bc d699 873a 3927 2bbc
00000220: 4cf3 c13b 1b2b ed3c b6e1 c33a 297a 9bbc
00000230: 1b02 a03b ebc1 af3c 5aa8 853c e1f7 e53c
00000240: e3e9 7a3c 417c 20bb 2f5b e73b 14fa 833c
00000250: 3a74 503b dc4d 60bc 66e0 cabc f197 8cbc
00000260: 4b98 d83b d59b 2abc 8c26 1b3b 8049 2c3c
00000270: 0aaa 0e3c c1c5 d63c 6fda 863c 34ad cc3c
00000280: 2fc8 aebb 85f6 473c 6c34 2b3c d755 533c
00000290: 21c5 853c 719b db3b f72b d3bb 54b0 4d3c
000002a0: a02f 843c cef6 c6bb e2fc 853c 854d 693c
000002b0: 4991 093b c08b 073c 3c11 df3b 1417 c23c
000002c0: dd06 03bc c438 4bbc 1ba6 e93c 2f81 003c
000002d0: bcec b1bb 2563 c3bc 841f 8c3c f868 8a3c
000002e0: a5c1 a43c af74 853c d169 853c eaf3 7e3c
000002f0: dc72 993c 091c 283c 2702 52bc c996 053c
00000300: 6af9 14bb d5e0 84bc 376f 193c f5ab 4a3b
00000310: 581d 54bb bf58 4c3c 82d9 95bc e6b7 5e3c
00000320: bb6a b6bc 22d0 babc 6e26 cb3c 41f9 5c3c
00000330: 4460 783c 791a 6cbc 34b2 bd3b f835 ecbb
00000340: 2501 853b 9558 9abc 5771 93bb 51d8 063c
00000350: 04be 13bc 8229 14bc 53c0 e7bc 446d 3bbc
00000360: 3110 84bc 9318 763c e80e c6bb 643b 163c
00000370: b035 313c 7614 413c fd9e 35bb 2dae c33b
00000380: 4f6a e73b 8008 bc3c 9a6d 1c3c a437 d43c
00000390: 40e8 a4bc 7ed0 e33a a735 e6bb 8897 7fbc
000003a0: bcc8 a7bb ef4c 1e3c 708a e23b ada8 2d3c
000003b0: 7c4c 12bc b02d cd3b cac8 cebb e3b3 da3b
000003c0: 5a34 bf3c a8a5 d03b c4fb 1ebc 5bec 44ba
000003d0: 47eb 083c 0c22 1abd 0680 a4ba 0cd3 313c
000003e0: 17e9 85bc 5025 4f3c 369c c6ba 33ec 893c
000003f0: 32fd 51bc 70ae 4bbc d06e 973c e861 213a

action_model._discrete_distribution.branches.1.bias f4 [8]
0.0120302895 0.017376726 0.0046340064 -0.008743918 -0.0155979665 -0.019802248 -0.0139093725 -0.020478692
00000000: b11a 453c a359 8e3c ddd8 973b a642 0fbc
00000010: 9d8e 7fbc 5338 a2bc 23e4 63bc eec2 a7bc

action_model._discrete_distribution.branches.2.weight f4 [8, 128]
-0.0023676124 0.015002373 0.0004832511 -0.004737692 0.009165544 -0.0012649003 0.01004149 0.005527159
-0.008266056 -0.0089616 -0.0033785414 0.0076084808 0.0038137105 -0.006520627 0.008026889 0.012218574
0.0045242575 0.015857719 0.0069244937 0.016748609 0.018945843 0.009163177 -0.023768337 -0.0057574576
-0.002116406 -0.0074094906 -0.012299724 0.0030917295 0.011621684 0.011094891 0.0025427293 0.009854451
0.020108959 0.01020772 -0.0055362904 -0.0035437448 -0.006927377 0.00089681474 0.0010017009 0.020987228
0.011523618 -0.013909478 0.019745847 -0.014298334 -0.017483369 0.0063214717 -0.0007881574 0.022934314
0.00453328 -0.0011849744 0.001512855 0.0044963104 -0.008179193 0.018634722 0.0123703545 0.0021556488
0.010832894 0.008211025 0.014531986 0.012906932 -0.008864411 -0.0055856677 -0.011576679 0.019815557
0.02139501 -0.0020764715 -0.0029728033 -0.0021586514 -0.016213482 0.020136923 -0.010739063 0.020580143
-0.0024758521 -0.012266667 0.023087615 0.004866221 0.000100662844 0.014577605 0.010209457 0.019559314
0.018874237 0.0069577103 0.0020075634 0.004670786 -0.0071825837 0.002960287 -0.012892443 -0.008156155
-0.0046115266 0.012708817 0.0067368783 -0.004207389 0.013176927 0.026448447 0.005798538 0.012643038
-0.006677008 0.0071793054 0.010824827 0.0030853513 -0.015754834 0.0030079535 0.01426352 -0.019644158
0.018165337 0.003988837 0.0017008374 0.0072425012 0.014632824 0.012808736 0.002537374 0.009987177
-0.006544404 0.017250704 0.0038494465 -0.010597738 0.0014052138 0.013382199 -0.001127427 -0.016708726
-0.0021528557 0.0010869893 0.0059589474 0.018167445 -0.017658694 0.004185431 0.006228636 -0.0001734013
0.010971716 0.0063075633 -0.003580229 0.03073043 0.008991775 0.0192232 -0.016247509 -0.023242299
-0.010759134 0.016974507 -0.0066057527 -0.020235546 0.042097323 0.01679869 -0.022510706 0.011465853
-0.020150771 0.016143586 -0.009581393 -0.010057665 -0.018482216 -0.027950382 0.0072603896 -0.022534423
0.026509909 -0.01810368 -0.012147359 0.03015674 0.0054154824 0.0045743454 0.0011262089 0.012380257
0.028985308 -0.01887274 -0.003194869 -0.0019423888 0.014440685 0.01907505 -0.006156787 0.0034278028
0.013714243 -0.023029799 -0.023628755 -0.0057202275 0.014512192 -0.0047562323 -0.018021835 -0.012697028
-0.02062998 -0.0026967532 0.024695508 -0.0037506416 0.0038749594 -0.021528322 0.016685117 0.0075859386
0.008349894 0.005002225 0.0039223386 0.0010370251 0.0083839595 -0.03520426 -0.0050208485 -0.003059977
-0.0002967685 -0.012214368 0.017246896 0.0013918163 -0.00929652 0.0009490955 -0.016323522 0.0073354747
-0.010577582 -0.027107704 -0.006597549 -0.005990107 -0.0045945435 0.00014965353 0.005175916 0.0020557276
0.0039716205 0.013936123 -0.008995758 0.015532266 0.0056780833 0.010115429 -0.0081270095 0.009380371
-0.0031296525 -0.003150861 0.007822507 -0.0131020965 0.009356661 -0.013038554 0.0054797484 0.0064501753
-0.027135964 0.004254507 -0.01305237 0.008868719 -0.03811346 0.008598024 -0.02339539 -0.005394721
0.023390772 0.0067084203 0.018119546 0.008315624 -0.0078028627 -0.0036562143 -0.02250509 0.0052535
0.014511706 0.016561173 -0.027338512 0.0023028953 0.014400614 -0.033785272 -0.038971562 0.01858249
-0.0101318015 -0.0069926414 0.014056563 -0.006054731 -0.0065452345 -0.0041545187 0.024135558 -0.014946265
00000000: f229 1bbb 83cc 753c dd5c fd39 a43e 9bbb
00000010: 142b 163c 03cb a5ba 1085 243c 2c1d b53b
00000020: 5a6e 07bc add3 12bc 856a 5dbb 9050 f93b
00000030: 72ef 793b fcaa d5bb 3683 033c 6a30 483c
00000040: 3940 943b 0ce8 813c dde6 e23b 6134 893c
00000050: 5034 9b3c 2621 163c d1b5 c2bc 0ea9 bcbb
00000060: 67b3 0abb 50cb f2bb c884 49bc 9d9e 4a3b
00000070: e068 3e3c 58c7 353c eba3 263b 9074 213c
00000080: 8bbb a43c 483e 273c c569 b5bb 2c3e 68bb
00000090: 0dff e2bb 3818 6b3a 814b 833a 68ed ab3c
000000a0: 8fcd 3c3c 94e4 63bc 0bc2 a13c 8f43 6abc
000000b0: 4839 8fbc 5924 cf3b 599c 4eba bee0 bb3c
000000c0: e98b 943b 2551 9bba fd4a c63a c955 933b
000000d0: 0602 06bc d8a7 983c 07ad 4a3c c945 0d3b
000000e0: 737c 313c 8987 063c 9117 6e3c 9977 533c
000000f0: 093c 11bc fa07 b7bb 1cac 3dbc 3c54 a23c
00000100: 9744 af3c 6915 08bb 5dd3 42bb 2978 0dbb
00000110: 23d2 84bc 30f6 a43c e5f2 2fbc b097 a83c
00000120: e841 22bb 21fa 48bc 3d22 bd3c d274 9f3b
00000130: f41a d338 e8d6 6e3c 9145 273c db3a a03c
00000140: 259e 9a3c 81fd e33b 5391 033b 650d 993b
00000150: e15b ebbb 6001 423b d33a 53bc 65a1 05bc
00000160: 4a1c 97bb a438 503c 08c1 dc3b 23de 89bb
00000170: 0ae4 573c 6aaa d83c aa01 be3b bf24 4f3c
00000180: cdca dabb 6140 eb3b 9d5a 313c 9b33 4a3b
00000190: 4810 81bc 1621 453b 8ab1 693c c9ec a0bc
000001a0: 79cf 943c cab4 823b a2ee de3a 8152 ed3b
000001b0: 83be 6f3c bcdb 513c 124a 263b 42a1 233c
000001c0: 7172 d6bb 5951 8d3c ff46 7c3b 23a2 2dbc
000001d0: 272f b83a 0341 5b3c 2cc6 93ba bde0 88bc
000001e0: ed16 0dbb 4f79 8e3a 4643 c33b e5d3 943c
000001f0: f7a8 90bc f125 893b 9619 cc3b 0fd3 35b9
00000200: b6c2 333c adaf ce3b 46a2 6abb 62be fb3c
00000210: 3d52 133c f979 9d3c 7f19 85bc a266 bebc
00000220: 1447 30bc 1f0e 8b3c 1275 d8bb 04c5 a5bc
00000230: 3e6e 2c3d 689d 893c 5f68 b8bc 46db 3b3c
00000240: 3b13 a5bc 8e3f 843c 46fb 1cbc e8c8 24bc
00000250: 0468 97bc 33f8 e4bc 90e8 ed3b 1c9a b8bc
00000260: 4f2b d93c 2b4e 94bc b705 47bc 450b f73c
00000270: 5c74 b13b 64e4 953b 4d9d 933a 90d6 4a3c
00000280: 9972 ed3c 019b 9abc 0261 51bb c197 feba
00000290: 9f98 6c3c 4743 9c3c dfbe c9bb fda4 603b
000002a0: b4b1 603c fda8 bcbc 1791 c1bc bf70 bbbb
000002b0: 8cc4 6d3c 2bda 9bbb 87a2 93bc 3207 50bc
000002c0: 3400 a9bc 03bc 30bb 3c4e ca3c 53cd 75bb
000002d0: 08f3 7d3b 2a5c b0bc 3aaf 883c 7793 f83b
000002e0: fecd 083c b4e9 a33b f686 803b caec 873a
000002f0: e05c 093c 5832 10bd ee85 a4bb e589 48bb
00000300: 9897 9bb9 c61e 48bc 5d49 8d3c 9b6d b63a
00000310: 6e50 18bc b9cc 783a e8b8 85bc 6c5e f03b
00000320: 984d 2dbc fa10 debc 4130 d8bb a948 c4bb
00000330: d38d 96bb 50ec 1c39 bb9a a93b 63b9 063b
00000340: 5e24 823b 5654 643c f262 13bc 0c7b 7e3c
00000350: 370f ba3b 2fbb 253c 2627 05bc 21b0 193c
00000360: db1a 4dbb ad7e 4ebb f929 003c 2daa 56bc
00000370: ae4c 193c a99f 55bc 768f b33b fe5b d33b
00000380: 3e4c debc 6469 8b3b 9cd9 55bc 1b4e 113c
00000390: dc1c 1cbd bade 0c3c b0a7 bfbc 33c6 b0bb
000003a0: 019e bf3c 4fd2 db3b 716f 943c 413e 083c
000003b0: 28af ffbb 199d 6fbb 985c b8bc 8d25 ac3b
000003c0: 82c2 6d3c 4cab 873c 04f5 dfbc 2cec 163b
000003d0: 8ef0 6b3c 6d62 0abd a5a0 1fbd 4e3a 983c
000003e0: dbff 25bc 8722 e5bb 804d 663c c466 c6bb
000003f0: 6879 d6bb a122 88bb efb7 c53c 2ee1 74bc

action_model._discrete_distribution.branches.2.bias f4 [8]
0.008252033 0.01626626 0.008048188 0.00063382095 -0.0026034235 -0.014359988 -0.01834391 -0.019611754
00000000: 8933 073c d240 853c 8cdc 033c 0127 263a
00000010: 339e 2abb 2846 6bbc f845 96bc d4a8 a0bc

action_model._discrete_distribution.branches.3.weight f4 [8, 128]
0.012941666 0.0077570835 -0.0064218794 0.0052573862 0.016276529 -0.014915372 -0.0083763255 -0.010780283
-0.0279507 -0.0055770488 -0.001292741 0.027464058 0.0047518066 0.02103526 0.00840943 -0.0062103285
-0.020520188 4.7079953e-05 0.02032039 0.015964862 0.022331072 0.020409808 -0.023208426 -0.010175367
0.020992104 -0.0017698378 -0.006236579 0.019574542 -0.0041485694 0.016057832 0.012662014 0.010923953
0.019838871 0.009612268 0.014707472 0.017558793 -0.012781896 -0.021830905 0.0039919415 0.02928728
0.012353589 -0.02374362 0.0048709447 0.00052673154 4.536256e-05 0.004465656 -0.00067180634 0.008567499
-0.0041614296 0.013514585 0.024145946 -0.002628984 -0.010823933 -0.008737653 0.028429335 -0.010633446
-0.0006931905 0.009323033 0.011821133 0.004674631 0.005468684 0.023974108 -0.02326478 0.005701703
-0.019220633 -0.031437177 0.023190098 0.0010158983 -0.019530533 0.022994746 -0.022330714 0.014470193
-0.0032062063 -0.0067591206 0.031093756 0.0057803807 -0.014579806 -0.019139126 0.010728111 0.014221559
0.01879404 0.02033338 -0.02649027 -0.020529216 -0.012604711 -0.009383892 -0.020018773 0.0018357284
0.005809285 0.006857567 -0.0032320523 0.017850697 0.01844214 0.003537332 0.0003634591 0.029042661
0.012124361 0.003578791 -0.0023463292 0.013764984 -0.0121016875 0.013268226 0.023759164 0.002586051
-0.0032583382 0.0077413493 0.017993953 0.0141729815 0.0010580426 0.018541312 -0.0023068374 0.012691856
0.03285122 0.016609665 -0.019724337 0.020457104 0.0096535 -0.014441498 -0.0022947178 0.024091154
-0.021685656 0.009147609 9.463137e-05 -0.03129895 0.002317522 0.012326018 0.017489655 -0.012247283
0.0044221813 0.01648969 0.035703793 0.0022821901 0.004795797 0.00499997 0.029733859 0.007761365
-3.1166448e-05 0.0008400814 0.0035919165 0.011261117 0.010588995 0.0048644454 -0.0037877003 0.0090185795
0.0025243196 -0.0009204629 0.0057167136 0.014793644 0.00021121642 0.003536639 -0.0043334872 0.00019050081
-0.006047376 0.0060356357 -0.004668019 -0.004400062 0.0018015617 0.0026701526 0.006954413 0.015555791
0.011361464 -0.016455945 0.013427949 0.0022498625 0.010278542 0.0078062764 0.003531891 0.0012716909
0.009461534 -0.018250855 0.01771867 0.010598693 -0.009136078 -0.0027175169 0.011725657 0.0025846031
0.026541833 -0.014268918 0.02221731 0.007733981 0.012445586 -0.0012818347 -0.0005249422 -0.0031658118
0.024186188 0.018701017 0.0011363095 -0.0098190345 0.0063019083 0.010071615 -0.0061007473 0.00790503
0.0022110245 0.019736089 0.0043259324 0.0054141427 -0.01187914 0.01292254 -0.008639007 0.00603543
0.0029391034 -0.026020799 0.014970649 0.020251988 0.00024356373 0.042992696 0.0056211157 0.021258093
0.015247253 0.008771646 -0.0072243377 0.020732485 0.018777357 -0.009519268 -0.0095613375 -0.026160955
-0.018225323 0.019514281 -0.0099654505 0.013870328 0.011392423 0.0059773983 0.011145613 0.020047775
-0.008628635 0.021443702 0.008544278 0.0132270185 -0.014932125 0.011691739 -0.005348393 -0.0067931376
0.017715681 0.029212397 0.0031603372 0.011896687 0.01004718 0.020964155 0.011647011 0.012753061
-0.0023504586 0.013623074 -0.028228167 0.0029641162 -0.016085519 -0.010118712 -0.007458875 0.0068094945
-0.0071384064 0.0096590305 0.006556019 0.024855353 -0.01994609 -0.0036671264 0.00085459213 -0.013530036
00000000: 4809 543c 222f fe3b a16e d2bb 2746 ac3b
00000010: 5b56 853c 9b5f 74bc db3c 09bc c99f 30bc
00000020: def8 e4bc adbf b6bb 3171 a9ba 4efc e03c
00000030: 0bb5 9b3b 2352 ac3c b5c7 093c 0380 cbbb
00000040: f419 a8bc b777 4538 f276 a63c bec8 823c
00000050: a7ef b63c 7832 a73c 991f bebc 95b6 26bc
00000060: a2f7 ab3c e7f9 e7ba 375c ccbb ca5a a03c
00000070: b9f0 87bb b78b 833c 5674 4f3c 61fa 323c
00000080: 2185 a23c c67c 1d3c 9cf7 703c 75d7 8f3c
00000090: 286b 51bc bad6 b2bc d5ce 823b e1eb ef3c
000000a0: b566 4a3c fb81 c2bc 729c 9f3b 5b14 0a3a
000000b0: ae43 3e38 a354 923b 291c 30ba b25e 0c3c
000000c0: 9a5c 88bb 476c 5d3c b8cd c53c 084b 2cbb
000000d0: de56 31bc 5f28 0fbc a3e4 e83c e837 2ebc
000000e0: 3ab7 35ba a2bf 183c 6dad 413c a62d 993b
000000f0: a532 b33b 5965 c43c c895 bebc 5ad5 ba3b
00000100: 9774 9dbc 45c4 00bd 29f9 bd3c e427 853a
00000110: 7ffe 9fbc 7a5f bc3c e7ee b6bc 6314 6d3c
00000120: 371f 52bb 9d7b ddbb 55b8 fe3c 5969 bd3b
00000130: 23e0 6ebc a8c9 9cbc f5c4 2f3c 8b01 693c
00000140: f5f5 993c 3092 a63c 1f02 d9bc e32c a8bc
00000150: fd83 4ebc e5be 19bc 69fe a3bc d39c f03a
00000160: d15b be3b 71b5 e03b d7d0 53bb a03b 923c
00000170: f913 973c 95d2 673b a88e be39 e0ea ed3c
00000180: 41a5 463c 268a 6a3b dfc4 19bb 8786 613c
00000190: 2846 46bc f962 593c 94a2 c23c bc7a 293b
000001a0: d889 55bb 25ab fd3b 0e68 933c cb35 683c
000001b0: 05ae 8a3a f3e3 973c 4f2e 17bb 81f1 4f3c
000001c0: 008f 063d fe10 883c ef94 a1bc a895 a73c
000001d0: b729 1e3c 089c 6cbc fa62 16bb d05a c53c
000001e0: 1ea6 b1bc dadf 153c d474 c638 5433 00bd
000001f0: 91e1 173b 11f3 493c 7746 8f3c d4a8 48bc
00000200: f2e7 903b 6315 873c 243e 123d cc90 153b
00000210: 1026 9d3b cad6 a33b 6c94 f33c 0c53 fe3b
00000220: b8b8 02b8 e938 5c3a 5c66 6b3b 8c80 383c
00000230: 777d 2d3c ed65 9f3b 113b 78bb aac2 133c
00000240: 0e6f 253b 384b 71ba 4553 bb3b 0a61 723c
00000250: fa79 5d39 f5c6 673b edff 8dbb 2cc1 4739
00000260: 1129 c6bb 95c6 c53b 2ef6 98bb 652e 90bb
00000270: 6122 ec3a bafd 2e3b d8e1 e33b b7dd 7e3c
00000280: 6f25 3a3c 9ece 86bc e600 5c3c 6e72 133b
00000290: 5467 283c cbcb ff3b 4c77 673b deae a63a
000002a0: 8d04 1b3c d182 95bc bf26 913c 24a6 2d3c
000002b0: 7daf 15bc 5e18 32bb f81c 403c 7262 293b
000002c0: 426e d93c 2ec8 69bc 1301 b63c 566d fd3b
000002d0: 92e8 4b3c 3c03 a8ba 469c 09ba 8279 4fbb
000002e0: 1d22 c63c e032 993c 38f0 943a 04e0 20bc
000002f0: 3d80 ce3b 6a03 253c c7e8 c7bb 1984 013c
00000300: d6e6 103b 94ad a13c 8dc0 8d3b 1f69 b13b
00000310: b9a0 42bc 10b9 533c 9f8a 0dbc dbc4 c53b
00000320: f99d 403b 9229 d5bc 7447 753c 7fe7 a53c
00000330: 2465 7f39 1c19 303d 5631 b83b 7425 ae3c
00000340: 9dcf 793c f3b6 0f3c 23ba ecbb 2cd7 a93c
00000350: f9d2 993c b4f6 1bbc 28a7 1cbc 804f d6bc
00000360: 464d 95bc 6adc 9f3c 2146 23bc 5f40 633c
00000370: 49a7 3a3c 0dde c33b 179c 363c 3b3b a43c
00000380: 1e5f 0dbc b4aa af3c 4dfd 0b3c 23b6 583c
00000390: dfa5 74bc b58e 3f3c 9341 afbb f898 debb
000003a0: 7a20 913c d64e ef3c a91d 4f3b 52ea 423c
000003b0: ed9c 243c 05bd ab3c 1bd3 3e3c 37f2 503c
000003c0: 270a 1abb 5033 5f3c c23e e7bc 9e41 423b
000003d0: c7c5 83bc f4c8 25bc 9469 f4bb 2e22 df3b
000003e0: 4be9 e9bb e940 1e3c e0d3 d63b 749d cb3c
000003f0: fc65 a3bc 2c54 70bb b506 603a 16ad 5dbc

action_model._discrete_distribution.branches.3.bias f4 [8]
0.014262897 0.013176989 0.010150194 -0.0071689673 -0.01685476 -0.017041273 -0.015115862 -0.017461676
00000000: edae 693c 4ce4 573c 004d 263c a8e9 eabb
00000010: fe12 8abc 249a 8bbc 85a8 77bc ca0b 8fbc
