results/NewTwoAgentsFullBoardActionKeepAfterFail/BlackMLAgent/BlackMLAgent-88728.onnx (onnx, 681198 bytes, 133 tensors)

discrete_act_size_vector f4 [1, 64]
000000 00 00 50 41 00 00 50 41 00 00 50 41 00 00 50 41
       13.0 13.0 13.0 13.0
000010 00 00 50 41 00 00 50 41 00 00 50 41 00 00 50 41
       13.0 13.0 13.0 13.0
000020 00 00 50 41 00 00 50 41 00 00 50 41 00 00 50 41
       13.0 13.0 13.0 13.0
000030 00 00 50 41 00 00 50 41 00 00 50 41 00 00 50 41
       13.0 13.0 13.0 13.0
000040 00 00 50 41 00 00 50 41 00 00 50 41 00 00 50 41
       13.0 13.0 13.0 13.0
000050 00 00 50 41 00 00 50 41 00 00 50 41 00 00 50 41
       13.0 13.0 13.0 13.0
000060 00 00 50 41 00 00 50 41 00 00 50 41 00 00 50 41
       13.0 13.0 13.0 13.0
000070 00 00 50 41 00 00 50 41 00 00 50 41 00 00 50 41
       13.0 13.0 13.0 13.0
000080 00 00 50 41 00 00 50 41 00 00 50 41 00 00 50 41
       13.0 13.0 13.0 13.0
000090 00 00 50 41 00 00 50 41 00 00 50 41 00 00 50 41
       13.0 13.0 13.0 13.0
0000a0 00 00 50 41 00 00 50 41 00 00 50 41 00 00 50 41
       13.0 13.0 13.0 13.0
0000b0 00 00 50 41 00 00 50 41 00 00 50 41 00 00 50 41
       13.0 13.0 13.0 13.0
0000c0 00 00 50 41 00 00 50 41 00 00 50 41 00 00 50 41
       13.0 13.0 13.0 13.0
0000d0 00 00 50 41 00 00 50 41 00 00 50 41 00 00 50 41
       13.0 13.0 13.0 13.0
0000e0 00 00 50 41 00 00 50 41 00 00 50 41 00 00 50 41
       13.0 13.0 13.0 13.0
0000f0 00 00 50 41 00 00 50 41 00 00 50 41 00 00 50 41
       13.0 13.0 13.0 13.0

network_body._body_endoder.seq_layers.0.weight f4 [142, 71]
000000 79 3b e1 3d 8f d0 49 bd 76 63 bc 3d 8b a0 51 be
       0.10997672 -0.049271163 0.09198658 -0.20471399
000010 da 14 23 3e 4c c5 23 3e 93 ea be 3d 44 f0 fd bb
       0.15925923 0.15993232 0.09322085 -0.007749589
000020 b0 12 35 3d 76 05 13 3e 29 dd 78 bc 96 85 0e bd
       0.044207275 0.14357552 -0.015189447 -0.034795366
000030 62 d1 2f bd 1a 72 5e 3e 0b fa 06 be c8 10 4b be
       -0.042924292 0.21723214 -0.13181321 -0.1983062
000040 7d 09 03 be 1c 1f bf be 6d d4 61 bd 28 d9 b4 bd
       -0.12796588 -0.37328422 -0.055134226 -0.08830482
000050 f6 1a 06 bd 19 f2 5c bd b4 40 a7 bc b5 52 62 bd
       -0.032740556 -0.05394182 -0.020416595 -0.055254657
000060 a4 ac e4 bd 3a 48 32 be bd 0d cb 3d 1a 55 fd bd
       -0.11165741 -0.17410365 0.0991473 -0.123697475
000070 c3 5f 09 bd f0 e9 18 bb 1a 63 98 bd 4f 3d 57 3d
       -0.03353859 -0.0023332797 -0.07440777 0.052548703
000080 ad 69 d5 bc 5d b3 16 3d af 34 f9 bd 0a 79 b6 bb
       -0.026051367 0.036792148 -0.12168252 -0.005568628
000090 2c bd de 3c e3 fd 88 be 65 e7 4e bd 34 83 4b bd
       0.027189814 -0.267562 -0.050513644 -0.049685672
0000a0 34 15 0c be f1 03 70 3d 09 fb a2 3d b5 57 1a 3e
       -0.13679963 0.05859751 0.079580374 0.1507252
0000b0 d6 53 41 3c 6c cc f8 3c 3a 80 9e bc 1c 78 9a 3e
       0.011799773 0.030370913 -0.019348253 0.3016976
0000c0 38 c6 fa bd dc 6a aa 3d f1 03 93 3b 66 9e 41 3e
       -0.122448385 0.08321163 0.004486554 0.1890808
0000d0 9e 9c 50 be dd 13 32 be 67 3a 9c 3c ba 87 ab bc
       -0.20372245 -0.1739039 0.019070817 -0.020938743
0000e0 fd 4c 87 bd cc 2b 0f 3e dd de 00 3e e1 a0 1e 3d
       -0.06606481 0.13981551 0.12585016 0.038727645
0000f0 3e 56 1b be 71 e5 ad be 1d 0c 79 bd ad fb ac bd
       -0.15169618 -0.33964112 -0.060802568 -0.08446441
000100 1a c6 08 bd 3e c2 31 3d a4 c7 d8 3b 57 6c 6f 3d
       -0.03339205 0.043398134 0.006615596 0.05845293
000110 ce ff 89 3d dd 73 48 3e a8 2e b9 bd 1e c2 13 bd
       0.06738244 0.19575448 -0.09042102 -0.036073796
000120 00 ad 5a 3e 0a 6d 01 be e1 8f 18 be c3 3e bb bc
       0.21355057 -0.12639251 -0.14898635 -0.022857076
000130 0c b4 4a 3d d4 3e 2e 3e bf f8 09 bb ed 62 3f 3e
       0.049488112 0.17016155 -0.0021052805 0.18690081
000140 0a 88 20 bd 41 8b c2 3c cc 51 f9 3d cb b3 00 3d
       -0.039192237 0.023748042 0.12173805 0.031421464
000150 8c 4d f2 bc 58 40 16 3e d8 0a a4 bc 69 76 8a bd
       -0.029577993 0.14672983 -0.020024702 -0.06760866
000160 aa cc 1a 3d 3a 4c 48 bd 1c 79 92 bc 13 c6 2e be
       0.03779284 -0.04890082 -0.017880015 -0.17067747
000170 cd 73 ba 3d 38 31 ce bd dc 82 61 be 56 6d 03 3e
       0.091041185 -0.100679815 -0.22022575 0.12834677
000180 c2 7a e5 bd 2d 32 8d be 79 49 8e be ff 0c 86 bd
       -0.11205055 -0.27577344 -0.2779043 -0.065454476
000190 ee a1 c4 3d 1f 3c 21 bd 84 ea e6 bc ec ba 20 3d
       0.09601198 -0.039363977 -0.028187998 0.039240763
0001a0 40 bc 41 bd b1 55 b5 bc f8 f4 47 bb c0 32 97 3e
       -0.04729867 -0.022135587 -0.0030511003 0.29530907
0001b0 0c 3c 6b 3d a7 b7 af 3d 29 a3 f3 bd fe 6c b8 3d
       0.057430312 0.08579951 -0.11896355 0.090051636
0001c0 c4 cc 2f 3d a2 0f c9 bc ee 23 51 bc 92 fa 06 be
       0.04291989 -0.024543587 -0.012764914 -0.13181522
0001d0 3c 08 08 b9 cf 1c 6d 3e 88 4d 25 be 56 58 92 bd
       -0.00012973038 0.23155521 -0.16142857 -0.07145755
0001e0 46 4d 90 bd 55 fe 3f bd cd 5f a2 bd 26 32 85 3c
       -0.07045989 -0.04687341 -0.07928429 0.016259264
0001f0 f1 91 3c 3e c3 67 2b 3d 1e 1c 8c 3b 04 6c 5c 3d
       0.18415047 0.041847 0.004275813 0.05381395
000200 e2 1e 89 be 23 df 02 3e 43 a0 de bd 22 98 39 3e
       -0.26781374 0.12780432 -0.10870411 0.1812444
000210 b8 9a 57 3e b4 fd 79 3d 38 5f cd 3d 0c 82 50 be
       0.21055114 0.061032966 0.10027927 -0.20362109
000220 d5 e4 07 3e 58 05 b0 be da 5c 6c bd a7 de 40 be
       0.13270886 -0.34379077 -0.057705738 -0.18834935
000230 a6 5a 3d bc fa 15 3e 3e f5 7f 33 be 0a fb 97 bc
       -0.011557257 0.18563071 -0.1752928 -0.018552322
000240 be b5 1f be bf e7 ae 3c cb d0 5d 3d e5 72 b7 3c
       -0.15596673 0.02135074 0.0541542 0.022393653
000250 37 c7 2a be 17 8f 75 3e 94 92 d1 3d d0 22 82 bc
       -0.16677557 0.23980366 0.10233036 -0.01588574
000260 a7 08 9e 3d 23 b1 cf 3d 40 8f ca 3d b1 0a 56 bd
       0.07716494 0.10141208 0.09890604 -0.05225629
000270 ac 22 48 be 0e 64 de bd 7d df 10 be 78 1d 0b bd
       -0.19544476 -0.10858928 -0.14147754 -0.03396365
000280 3f ea dd 3d ab 01 62 3e 9c 3e 9a 3e 90 21 c5 bc
       0.108356945 0.22070949 0.30125892 -0.024063855
000290 b8 26 e0 3d 27 83 8a 3d da cb e9 3d 08 ed 75 be
       0.10944885 0.067632966 0.11415835 -0.24016201
0002a0 27 3b 0f 3b 10 4c 9d bd 2c 4f c9 bb 52 3a 21 be
       0.0021855326 -0.076805234 -0.006143471 -0.15744904
0002b0 ed 0f 24 be 4c 71 6e 3e c5 57 3b 3e 12 a6 a1 bd
       -0.160217 0.23285407 0.182952 -0.078930035
0002c0 f5 f8 c3 bd 97 3e 01 bd b5 2d 04 bc 5e f1 19 be
       -0.09568969 -0.03155383 -0.008067538 -0.1503348
0002d0 0f 36 55 3d c9 6b 45 3c 47 6a 5a 3e d0 4a 26 be
       0.052053507 0.012049624 0.21329604 -0.16239476
0002e0 53 82 b4 bc 2a 14 5e 3d 68 15 0a be 75 7b 2f 3d
       -0.0220348 0.05421845 -0.13484728 0.042842347
0002f0 01 0b 2a 3e 3a fe 45 3c 70 7a 9a 3d d6 3a e1 bc
       0.1660576 0.012084538 0.07542884 -0.027493875
000300 b1 fd 09 be 80 ab a2 3d 59 c6 d9 bd 63 57 05 3e
       -0.13475682 0.07942867 -0.10633535 0.13021617
000310 a3 9b 6c be d5 11 60 be c4 b4 07 bd 8a 3d f4 bc
       -0.23106246 -0.21881802 -0.033131376 -0.0298145
000320 2a 68 3d 3e 7e 92 4a 3d 4c f9 fd bd 92 c9 18 3e
       0.18496767 0.049456112 -0.12401065 0.14920643
000330 f0 bd de 3d 8e 5c 6b ba 63 42 ca bd 38 ba 4d be
       0.108760715 -0.00089783303 -0.098759435 -0.20090568
000340 4f e4 fc bc 53 16 c0 3d b9 57 9c 3d 4e ee 14 be
       -0.030870585 0.09379258 0.07633919 -0.14544031
000350 42 2f 3c be c2 d8 d5 ba 76 3a 4a 3e 71 81 7c 3e
       -0.18377402 -0.0016315209 0.19748864 0.24658753
000360 05 36 c4 bc 7d 6e a7 bd 05 99 ea 3d be 6c d6 bd
       -0.02395154 -0.08175371 0.114549674 -0.1046996
000370 e4 f0 12 be e5 eb 24 3e b4 42 83 3c 7f f4 ba bc
       -0.14349705 0.16105612 0.016023017 -0.022821663
000380 3a a7 cc bd ac 61 5e be 26 8f 30 3d f1 35 a7 be
       -0.099928334 -0.21716946 0.043105267 -0.32658342
000390 19 a4 42 3d 47 1c fe bd 36 cd 96 be 25 0c b7 bd
       0.047519777 -0.12407737 -0.2945344 -0.08937863
0003a0 c8 34 b9 3e db 28 01 bc 6b fe 0a bc 2a fd 5f 3d
       0.3617308 -0.007883276 -0.0084835095 0.054684795
0003b0 82 20 64 be 86 ba 24 3e f5 f5 8c 3e 1f 75 28 be
       -0.22278026 0.16086778 0.275314 -0.16450928
0003c0 6a f7 09 3d 7b 56 01 3d 14 56 07 3d ec fe 95 3c
       0.033683218 0.031576615 0.033041075 0.018310033
0003d0 4b 13 27 3e 1b 76 17 3d 70 1d 0f 3e 47 c8 e8 bc
       0.16315953 0.03697787 0.13976073 -0.028415812
0003e0 da 19 ee bb e4 88 60 3d 35 4b 74 3c 07 75 72 be
       -0.0072662653 0.05481805 0.014910509 -0.23677455
0003f0 db 10 3f bc 5e b6 e4 3d d3 c0 20 bd 21 ac 0a be
       -0.0116617335 0.11167596 -0.03924639 -0.13542224

network_body._body_endoder.seq_layers.0.bias f4 [142]
000000 02 1b 16 bc ed 36 44 b9 e0 67 9a 3c 14 74 33 bc
       -0.009161713 -0.00018712478 0.01884836 -0.010952968
000010 67 7e 85 bc c2 66 1f bb 4d 17 54 3a 5a ee 0b bc
       -0.016295625 -0.0024322723 0.000809063 -0.008540714
000020 c6 78 34 bb 52 e8 be 3b 72 f0 9f bb 57 c9 45 3c
       -0.0027537807 0.0058260346 -0.0048809582 0.012071929
000030 f2 95 02 3c ce b3 96 3c 82 62 11 bd ad d2 3a bb
       0.00797032 0.018396284 -0.035494335 -0.002850692
000040 b9 67 b3 bc aa c4 20 bd 64 54 6f ba b2 16 59 bc
       -0.021900045 -0.039250053 -0.00091297016 -0.01325004
000050 e6 18 41 3c 55 f1 ca 3b bc 9c 03 bd 08 7b 9c bc
       0.011785721 0.00619332 -0.032131895 -0.019101635
000060 49 d9 a0 bc af e3 71 bd a9 e8 53 bb aa 4d 81 bc
       -0.01963486 -0.059055027 -0.0032334721 -0.015784103
000070 74 e8 39 bc 9f 53 82 bc 36 09 2a 3b 93 ff 9e 3a
       -0.011346925 -0.015909014 0.0025945432 0.001213061
000080 a8 55 aa bc 8e 84 af bc 35 bb d0 bb e2 a2 75 bc
       -0.020792797 -0.021425512 -0.006369973 -0.014992448
000090 ce b8 80 bc 92 cf 34 bd 49 11 ff bc 69 ea 8f bc
       -0.015713122 -0.044143267 -0.031136172 -0.01756783
0000a0 eb c1 e3 bc da 72 ad bc 19 3e 57 bc f1 49 eb 3b
       -0.027802428 -0.02117293 -0.013137364 0.0071804454
0000b0 6e 4c a1 bc 19 f0 ed bb 5e fb f7 bb 52 7b 87 3c
       -0.019689765 -0.007261288 -0.007567807 0.016538296
0000c0 21 66 95 3a 0c 00 ff bc be 72 d6 3a 41 82 99 3c
       0.0011398235 -0.031127952 0.00163611 0.018738868
0000d0 af 3c fa bb 38 b7 03 3b 08 dd d3 bc a0 06 7d bb
       -0.0076366286 0.002009822 -0.025862232 -0.0038608685
0000e0 47 ac 55 3c 1a c6 c9 3c 90 0e ae ba 8e 7c 98 39
       0.013041562 0.024630595 -0.0013279486 0.000290845
0000f0 ee ad 62 3c 11 9c d2 3c 30 97 bc bc 95 3a 05 3d
       0.013835413 0.025709184 -0.02302131 0.03252657
000100 d6 ef 6d bc c3 0e 70 3b 6b ce c5 bb 44 13 1b 3c
       -0.014522513 0.0036629892 -0.00603657 0.0094650425
000110 69 f2 75 bc e1 21 b3 bc 73 10 ae b9 c3 ec 7d bb
       -0.015011408 -0.02186674 -0.00033200122 -0.0038745857
000120 48 80 da 3b 9c 37 8c 3c 2b 15 b6 bb a8 d8 09 3c
       0.0066681243 0.01711636 -0.0055567226 0.008413471
000130 d5 cd 0f bc 88 13 53 bc 58 a8 2b bc 89 eb f4 bc
       -0.0087771015 -0.012883075 -0.010477148 -0.029897468
000140 df 28 c6 ba 90 71 53 bc 9d 02 d1 bb 93 3c 40 3c
       -0.0015118382 -0.012905493 -0.0063784854 0.011733192
000150 9d c5 40 3c 32 29 ac 3c 68 3b b8 bc 29 8e a5 3c
       0.011765865 0.021015737 -0.022489265 0.020209389
000160 14 e9 31 3c 40 f1 a1 bb d6 ae f6 bb 33 38 10 3c
       0.010858793 -0.0049420893 -0.0075281663 0.008802461
000170 68 02 de 3a ed dc 10 bd 48 5e dc 3a d6 f6 84 3c
       0.0016937973 -0.03536694 0.0016812766 0.016230982
000180 41 76 36 3b 12 9c e1 3b 7e a8 0d 3a ab 55 6c bc
       0.002784148 0.00688506 0.00054038304 -0.014424722
000190 ea 9a 6f bc df ad 64 3c 57 2f 9f ba 55 27 85 bb
       -0.014624337 0.01395747 -0.0012144846 -0.0040635266
0001a0 64 5e d1 3c fb 0b 1f bc c2 ed d9 3b f7 bb 4a 3c
       0.025557704 -0.009707446 0.0066506574 0.012373916
0001b0 46 dc ef 3c 21 58 7d bc 04 51 85 bc a0 b6 82 3a
       0.02927984 -0.015462906 -0.016273983 0.0009972639
0001c0 5d 63 d1 bb 4f 0f 1e bc 95 d9 c9 bc 61 a8 ce 3b
       -0.006390019 -0.009647205 -0.024639884 0.0063066934
0001d0 58 75 85 3c e0 74 b3 3b f1 c1 9a 3b 70 ca ad 3b
       0.016291305 0.005476579 0.0047228266 0.0053036734
0001e0 4c 5e 83 bc 22 c5 be bc 4e 0d 2a bb ab 49 2a bd
       -0.016036175 -0.02328736 -0.0025947872 -0.04157416
0001f0 59 2d 1c bb 44 74 02 bc b1 11 3c 3c d1 8d c8 bb
       -0.002383074 -0.00796229 0.011478827 -0.0061204215
000200 4d 74 34 bd 93 37 12 ba 1e 26 cc ba 9d f3 ba 3a
       -0.044056226 -0.0005577739 -0.0015575325 0.0014263276
000210 3d b8 d1 ba 7a f9 08 3a ea ca f1 3b 7d 23 89 bc
       -0.0016000342 0.0005225163 0.0073789256 -0.016740555
000220 83 96 5d bc 34 d4 2e 3c ea 87 64 3b b1 3e 3a bc
       -0.013524654 0.01067071 0.003487105 -0.011367486
000230 02 f9 03 3b 6e be 7e bc
       0.0020137434 -0.015548332

network_body._body_endoder.seq_layers.2.weight f4 [142, 142]
000000 a6 aa 9a 3d 06 bf 0d be 22 18 02 bd ab 86 eb bd
       0.0755208 -0.13842401 -0.031761296 -0.11500295
000010 a1 37 e4 3d 6d 7a 0c 3c bd 2c 0d be 13 b5 38 3c
       0.11143423 0.00857411 -0.13786598 0.01127364
000020 82 63 12 be 32 49 ca bd 28 d1 c3 bd 84 c4 6b 3e
       -0.14295772 -0.09877242 -0.09561378 0.23024184
000030 08 82 b6 bd 52 9e 2a 3d ba 74 11 bd 44 8b ae 3d
       -0.0891152 0.041654892 -0.03551171 0.085226566
000040 3d 58 81 bd 71 92 0d 3e f4 09 7c 3d c4 ab 21 bd
       -0.06315658 0.13825394 0.06153293 -0.03947045
000050 f2 bc 55 3d b9 f9 4a be 6d 91 a2 bc 09 24 c0 3d
       0.052182145 -0.19821824 -0.019844735 0.09381873
000060 b5 8c 93 3b 5c 93 db bc 1f 6a 58 be 64 86 96 bc
       0.0045028576 -0.026803665 -0.21134232 -0.01837463
000070 8d 0e d3 bd 3b 1f 79 bd 23 cb 06 3e 48 e2 0a be
       -0.1030551 -0.0608208 0.13163428 -0.13562882
000080 5e 9f 28 3d ad fb b3 ba 4b b4 e7 bd 13 65 4e bd
       0.04116761 -0.0013731621 -0.11313685 -0.05038936
000090 ee 55 21 3e 7a ad 72 39 33 64 eb bd 76 40 a9 3d
       0.15755436 0.00023143544 -0.11493721 0.08264248
0000a0 75 0b c7 bd 73 64 ee 3d 8e 22 ac bd c2 e8 cb 3d
       -0.09718982 0.11640253 -0.08405028 0.099565044
0000b0 8f 2a 48 bd 04 d2 10 bd fc 36 05 3b 55 88 6b bd
       -0.048868712 -0.035356537 0.0020326963 -0.057503063
0000c0 92 33 5d 3d e5 37 b7 3c f2 10 d3 3d 4c fc 89 bd
       0.05400426 0.02236552 0.103059664 -0.06737575
0000d0 97 dd b0 3d 81 d2 a8 bd 77 f7 c8 bd c5 5e ab b8
       0.08636015 -0.082432754 -0.09812825 -8.1715676e-05
0000e0 be b5 2c be ca 73 27 3e 81 db 01 be 49 43 37 3e
       -0.16866204 0.16352764 -0.1268139 0.17896761
0000f0 c8 ad 3e bd 73 9a 22 bc e1 f6 95 bc 33 1f 14 be
       -0.04655245 -0.009924519 -0.018306198 -0.14465027
000100 32 fc 61 3c f5 7c 96 bd ca 16 a3 3d ca 0b 7b 3c
       0.013793038 -0.073480524 0.07963331 0.015322635
000110 b7 c0 7b 3d 3e 6a f0 bd d0 07 47 3e 54 c8 28 3d
       0.061463084 -0.11739014 0.19436574 0.041206673
000120 11 be e2 3d 37 95 39 be 95 a0 1d be 0e 61 41 3d
       0.110714085 -0.18123327 -0.15393288 0.0472117
000130 1d 06 98 bd 8f 30 82 bd 01 97 95 bd 77 25 d9 3d
       -0.07423041 -0.06356918 -0.07304192 0.10602849
000140 ae e5 f3 bd 6d 37 cf bd eb f4 14 be 19 bb 6b 3d
       -0.11909042 -0.101179935 -0.14546554 0.057551477
000150 2b 67 65 bd 39 a2 e4 3d 6f 90 51 bd ef 10 2e be
       -0.05600659 0.11163754 -0.051163133 -0.16998647
000160 5f 10 4c bc 5a f8 18 3e f6 0e 7a 3c 47 c1 54 3d
       -0.012455075 0.14938489 0.015262356 0.051942136
000170 68 e3 d4 bd 79 37 8c bd 70 02 49 3d 86 8c 2c be
       -0.10394937 -0.06846518 0.04907459 -0.1685048
000180 81 5c 04 3e 20 86 85 bd 58 fa 00 be 85 8e 61 bd
       0.12925912 -0.06519723 -0.12595499 -0.055067558
000190 ae 3f 14 3e 53 c6 5b 3d b7 17 a9 3d ce af a8 bc
       0.14477417 0.053655934 0.08256476 -0.020591643
0001a0 ec d0 7b 3d 57 43 0b bd ca b3 c2 3d e3 7a b2 3d
       0.06147854 -0.033999767 0.09506948 0.08714845
0001b0 4b 92 cb 3d b1 19 25 3e 1b 78 1f 3a c4 a3 97 3d
       0.099400125 0.16123082 0.0006083266 0.07404283
0001c0 90 4c 15 bd 52 d3 08 be 14 07 7f bc b0 3a 1f 3e
       -0.03644997 -0.13361862 -0.015565652 0.15549731
0001d0 5e 52 57 3d f8 0b 01 be 7c d0 44 3d 7a ce 9b be
       0.052568786 -0.12602222 0.04805039 -0.30430967
0001e0 1b 12 15 bd 23 f6 45 3c 4c b4 25 3e c0 8c f3 bc
       -0.03639422 0.012082609 0.16182059 -0.0297302
0001f0 47 cf ee 3d 62 24 af 3d 17 e2 3d be ff b3 8d 3c
       0.11660629 0.08551861 -0.18543278 0.017297743
000200 c8 b0 c5 bc 81 74 66 bd 65 e0 25 3d f9 cf a7 bc
       -0.024132147 -0.05626345 0.040497202 -0.020484911
000210 db 42 8f 3d 2a cf 3a 3d 44 97 19 be b9 86 46 3d
       0.069951735 0.045607723 -0.1499911 0.048468325
000220 e3 10 85 bd d0 d7 dd 3d 44 f2 88 3d cd 36 a5 3c
       -0.064973615 0.108321786 0.066868335 0.020167733
000230 a9 e2 5c bd 68 42 f6 3c c6 2b da bd c3 33 16 3d
       -0.053927097 0.030060962 -0.1065288 0.036670458
000240 50 65 54 bd 25 3f ca bd 51 6d b7 bd 3c 72 e8 3d
       -0.05185443 -0.09875325 -0.08956397 0.113499135
000250 d5 d2 2a 3e 24 aa 45 3d 46 fa 3b 3e 1c 49 cf bd
       0.16681989 0.048257962 0.1835719 -0.101213664
000260 75 3d f0 bc 81 8a 2c 3d c5 6a b4 3d 9b e9 19 3e
       -0.02932618 0.042124275 0.08809427 0.1503052
000270 cc 12 88 bd de 10 69 3c b3 0e 7b bd d1 ab 20 3d
       -0.0664421 0.014225213 -0.061293315 0.039226357
000280 15 a0 4a 3d 49 e3 8b bd 30 77 39 3c 2e 8d 91 bd
       0.049469072 -0.068304606 0.01131992 -0.07107006
000290 5d a0 ff bd 71 f6 75 bd e8 a8 7a bd 0f f5 58 be
       -0.12481759 -0.060049478 -0.061196238 -0.21187232
0002a0 8f 2f 6d 3c fb a0 f4 bc 2c eb 21 3e e1 55 36 bd
       0.014476671 -0.029861918 0.15812367 -0.044515494
0002b0 59 94 a6 3c 47 40 a2 3c 3b ac 02 3e 20 b4 67 3d
       0.02033441 0.01980604 0.12761013 0.056568265
0002c0 6e 69 57 3d a3 d5 25 3d 2d e0 92 3c 8a 3a 06 3d
       0.05259078 0.040486943 0.017929161 0.03277067
0002d0 0d 91 f7 3d 27 d9 10 be 62 26 38 bd e1 19 03 be
       0.12088213 -0.14145337 -0.04495848 -0.12802841
0002e0 bc 0e 70 3d 1f 06 51 3d 5e 8b a5 3d 49 72 bd 3c
       0.0586078 0.05103123 0.08083223 0.023125784
0002f0 24 f7 69 3d 78 a9 9d bd 97 ff 07 3d a5 34 99 3c
       0.057120457 -0.07698339 0.033202734 0.01870186
000300 ef e6 8f 3d 05 b3 c4 bd e3 b0 0b 3d b2 15 93 3e
       0.07026469 -0.09604458 0.03410424 0.2872749
000310 ba 44 70 3e a5 69 d8 bc 70 07 f6 bc 83 4f 29 bd
       0.23463717 -0.026417563 -0.030032843 -0.041335594
000320 26 fe e0 3c df 3a 34 be 12 8f 3a be 35 0d ac 3c
       0.027464937 -0.17600583 -0.1821864 0.021002391
000330 3e dd c1 3c 32 1d d6 bd 0d 9b 83 3c eb d7 8d 3d
       0.023665067 -0.10454787 0.016065145 0.06925949
000340 02 a7 15 bd 27 5f 3f bd f4 a3 8d bc c3 23 cb 3d
       -0.036536224 -0.046721604 -0.017290093 0.099189304
000350 62 6c 06 3d 28 e0 8e 3c 1b 22 f3 bd 96 19 ca bd
       0.032818206 0.01744087 -0.118717395 -0.098681614
000360 f7 23 fd 3b b0 42 c3 3d 99 35 c5 3d 79 a4 ce 3d
       0.0077252346 0.09534204 0.096293636 0.100899644
000370 b5 bf 6c 3c e0 94 c1 bd b6 3a 5c 3e 1d 81 84 3c
       0.014450003 -0.09452224 0.21506771 0.016174847
000380 c6 4f 5a bd ad ef 00 be 84 5b c5 bc 3d 77 81 bd
       -0.053298734 -0.12591429 -0.02409149 -0.06321571
000390 3b f4 e7 bc d3 3b 3c bd e0 0c e5 bd c0 52 97 3c
       -0.0283147 -0.04595549 -0.11184096 0.018472075
0003a0 08 61 d7 bd 6b c5 a2 bd f1 66 19 bc 02 d5 b3 3d
       -0.10516554 -0.07947811 -0.009362922 0.087808624
0003b0 0b 7f 17 be 91 4a 96 bc 6f 22 c3 bd f8 4d 7b 3d
       -0.14794557 -0.018346103 -0.09528052 0.061353654
0003c0 3e e2 72 3e 48 84 ad bc c3 3d e5 bd 52 cb e6 bd
       0.23719117 -0.02118124 -0.11193421 -0.11269249
0003d0 dd f7 4f 3e 93 85 d2 bd a6 41 63 be 3b a7 15 3c
       0.20309396 -0.102793835 -0.22193012 0.009134109
0003e0 cf c0 bf 3c 57 8b ce 3d 58 52 82 3d c9 66 c0 bd
       0.023407368 0.10085171 0.06363362 -0.09394605
0003f0 99 3e 36 3d 04 aa 1c 3d 00 18 55 3c 9c 3a 2d 3e
       0.04449329 0.038248077 0.01300621 0.16916889

network_body._body_endoder.seq_layers.2.bias f4 [142]
000000 c9 5b 84 3c 07 81 3b 3d 09 46 78 3d 91 c1 f3 3c
       0.016157048 0.045777347 0.060613666 0.029755386
000010 47 5f 13 3d 4f a9 98 3c c4 5e 14 bb c8 71 9b 3c
       0.035979535 0.01863542 -0.0022639493 0.018975154
000020 7c bb 54 3d ee f8 8b bc 01 6c e1 3b ee c7 fb 3c
       0.05193661 -0.017086472 0.00687933 0.030734982
000030 a1 8a 8b bc 3b 60 82 3c de 0d d5 3c 91 9d 87 3c
       -0.017033877 0.015915027 0.026007589 0.016554626
000040 51 28 f8 bb 3c 17 17 3d 6c 1e 2c 3d 40 84 06 bb
       -0.0075731655 0.036887392 0.0420212 -0.0020525604
000050 41 11 7c 3c 7d f4 ef 3b 18 44 28 3d 79 48 0b bc
       0.015384973 0.0073228464 0.041080564 -0.008501166
000060 53 25 03 bc c1 95 aa 3b 00 7b 10 3d 89 31 07 3c
       -0.008004504 0.0052058403 0.035273552 0.008251556
000070 0a 2b fe 3c c2 9a fa ba f8 6b 98 3b b3 fc 3d 3d
       0.031026382 -0.0019119608 0.0046515428 0.04638357
000080 10 99 9f 3c 57 0d ad bb 66 3a b9 3c fc f1 ce 3c
       0.019482166 -0.0052811312 0.022610854 0.025261872
000090 b1 c5 b3 3b f8 8d e7 bb dc 97 6d 3d 83 7b cd 3c
       0.005486213 -0.0070664845 0.058006153 0.025083309
0000a0 bd 00 e2 3a 3a 32 1e 3d b4 c6 02 3c 4e 53 0a 3c
       0.0017242652 0.03862212 0.007981945 0.008442713
0000b0 85 58 78 ba 21 f3 ae 3c c5 ba 02 bc 14 89 c5 3c
       -0.00094736397 0.021356167 -0.0079791 0.024113216
0000c0 18 a5 8d 3b 63 f5 11 bc 08 79 fd 3c a7 c5 08 3b
       0.004322659 -0.008908602 0.030941501 0.0020869763
0000d0 08 b9 dc 3c 0c 33 20 3d 21 7a 41 bc e7 2d e5 3a
       0.026943699 0.039111182 -0.011808903 0.0017484993
0000e0 c7 9a 8e 3c e7 29 51 3c 89 f1 1f 3d b0 22 84 3c
       0.017407788 0.012766338 0.039048705 0.016129822
0000f0 79 c6 47 3d 83 87 c1 3c 37 68 57 bb 9a 1e 0b 3c
       0.048773263 0.023624187 -0.0032868513 0.008491183
000100 7c e6 e3 3c 3f 11 a6 3b ad da f2 bb cf 59 2f 3d
       0.027819864 0.005067974 -0.007411322 0.042810258
000110 fe 0f 9b 3c b9 e2 86 3c b3 af 02 3d 9c 0a db 3c
       0.018928524 0.016465532 0.03190584 0.026738457
000120 5a ff 5d bb cc db b0 3c da a4 ce 3c 40 c9 77 bb
       -0.0033874125 0.021589182 0.025225092 -0.0037809163
000130 0a ce 1f bc 5d a9 37 3c 45 7f 7b bc 1d f7 b8 3c
       -0.009753713 0.011209813 -0.015350168 0.02257877
000140 a6 5a 82 bc 7f e6 7d 3c a3 62 63 3c bc 60 a5 3b
       -0.015912365 0.015496849 0.013878497 0.005046932
000150 d2 d3 8b bc 90 1f 7f bb 34 06 e3 3c af 36 38 3d
       -0.017068777 -0.0038928725 0.027712919 0.044974025
000160 51 08 f7 3c 6d 8b f8 3c ff 8b a9 3c 99 fb 01 3d
       0.030155333 0.03033992 0.020696638 0.031734083
000170 bd d7 40 3b ba dc 06 3c d5 66 d3 3c e8 34 38 3d
       0.0029425465 0.008231336 0.02580587 0.04497233
000180 ca ff 63 bc 1f f5 3f 3d a4 9c 83 bc 83 a7 23 3b
       -0.013915965 0.046864625 -0.016065903 0.002497167
000190 e0 40 06 3d aa 9d e7 3b 27 51 3d 3c f1 21 77 bc
       0.032776713 0.0070683556 0.011554993 -0.015083776
0001a0 2d 97 5b 3d 61 0f a9 3c c5 68 d7 3c 1f 8e d4 3c
       0.05361097 0.020637216 0.026295075 0.025946675
0001b0 84 6a c9 3c 39 36 06 3d 4b d7 97 bc a8 f1 15 bc
       0.024586923 0.032766555 -0.018535277 -0.009151854
0001c0 b9 c9 af 3c e7 3c 9b ba b4 37 ce 3a b8 ae 17 3d
       0.021458494 -0.0011843712 0.0015733154 0.03703186
0001d0 76 c7 63 3c 27 84 0e 3d 72 99 2d 3c e1 45 cd 39
       0.013902536 0.034794 0.010595666 0.0003915271
0001e0 a5 e9 67 3b 00 43 7e 3d 20 03 fd 3c 05 ee 2f 3d
       0.0035387066 0.062075615 0.03088528 0.042951602
0001f0 05 21 79 3d e7 79 30 bc c8 05 da 3c aa 45 3d 3d
       0.060822506 -0.010771251 0.026614085 0.046209015
000200 9e 26 4b 3d 4d 0f f2 ba 85 7d 4e 3c d1 23 27 3d
       0.049597375 -0.0018467695 0.012603168 0.04080564
000210 a9 06 e5 3c 65 0a 01 bc bf 5e 8e 3c 70 7e c3 bc
       0.027957277 -0.007876013 0.017379163 -0.023864001
000220 a8 ce 82 bc 17 bd 9b 3c d8 4a 8e 3a 5c 51 00 3c
       -0.015967682 0.019011064 0.0010856045 0.007831898
000230 50 f4 16 3d 5c a5 50 3d
       0.03685409 0.05093895

action_model._discrete_distribution.branches.0.weight f4 [13, 142]
000000 50 06 43 bd 54 e6 75 bd 4f b1 e1 3a 6d ef 1d 3c
       -0.047613442 -0.06003411 0.001721898 0.009639603
000010 74 25 04 3d 4b 41 b3 3c 26 43 c5 bd f6 6a f0 3b
       0.03226228 0.02188172 -0.09631948 0.0073369695
000020 0a 05 61 3d 0c f8 92 bd ab da e5 3c 98 d8 46 3d
       0.054936446 -0.071762174 0.02805837 0.048546404
000030 07 cd 29 bd 4c ca 8d bd 73 b7 f3 3d 2a 9d da bd
       -0.041455295 -0.06923351 0.119002245 -0.10674508
000040 fc cc 68 3d 2c c6 8f 3d 3b 50 dc 3a 4c 50 ca 3c
       0.056836113 0.0702022 0.0016808579 0.024696492
000050 0e b0 af bb d2 6e 44 3d 4b ce 60 bd 1f 36 4d bd
       -0.0053615635 0.04795725 -0.054884236 -0.050100442
000060 53 f5 cd 3c b2 87 fa bc aa 2e 43 bd dc 00 3e 3d
       0.025141394 -0.030582283 -0.047651924 0.04638754
000070 8e b2 9c 3c 9b d3 10 3d 50 7d 17 3d 7b 42 0f 3d
       0.01912811 0.035358053 0.03698474 0.03497551
000080 4b 23 bf 3d fb 40 29 bd 72 dc 96 bd 02 a0 1b 3c
       0.093329035 -0.041321736 -0.07366265 0.009498598
000090 69 9b 41 3c a0 14 85 3c 85 27 df bb c9 a5 d5 3c
       0.011816838 0.016245186 -0.006810131 0.02608003
0000a0 32 a1 5e bc d6 53 01 3c 5d 8b fd 3c 9e 86 1d 3d
       -0.013588237 0.007893523 0.030950243 0.03845846
0000b0 c1 c5 b5 bb 6b f4 d6 3c ff c8 ed 3c 92 7c 3a bc
       -0.0055472557 0.026239594 0.029026506 -0.011382239
0000c0 fe a8 ee 3d 28 8e d6 3c 44 3f 72 3d 9f 29 11 bc
       0.116533265 0.026190832 0.059142366 -0.008860021
0000d0 53 fb 73 3d 68 d6 41 bc a9 08 ac 3d 9b 1d 0c 3d
       0.059565853 -0.011830904 0.08400089 0.03420792
0000e0 da 07 30 bd 87 ff a0 bd 52 83 6e 3d b7 1f 02 bd
       -0.042976238 -0.07861238 0.058230706 -0.031768527
0000f0 57 4f 0b bc 2b d0 1d 3d 89 52 d3 3d b3 25 9c 3c
       -0.008502803 0.038528603 0.10318477 0.019060945
000100 d5 ec 43 3d 1b 03 72 3d 1e 32 d7 bd 10 3e 1d bb
       0.047833283 0.059084993 -0.10507606 -0.002399329
000110 9f 2c 30 bc c5 f8 f7 bc ab 06 5e bd c2 de 08 bd
       -0.010752826 -0.03026999 -0.054205578 -0.033415563
000120 20 62 22 3d de c4 9a 3c 6e 83 04 3e 12 50 02 bb
       0.03964436 0.018892702 0.12940761 -0.0019884151
000130 2b 98 bc bd 72 5e 5a bd f9 2c 38 3d dd 3a 54 bd
       -0.09208711 -0.053312726 0.044964764 -0.05181395
000140 41 29 f5 3b 1d c7 2e 3d 2c f6 00 3c 04 1b 8b 3d
       0.0074817245 0.042670358 0.007871192 0.06792262
000150 5c 52 37 bd 2f ad 91 3b 27 9b 54 3b 09 84 fd 3c
       -0.04475628 0.004445694 0.003244111 0.030946748
000160 a3 06 c7 bd 7d 44 00 bd 08 d7 db bd 59 62 c3 bd
       -0.09718063 -0.031315316 -0.10734373 -0.09540243
000170 c9 73 06 3d 88 ac 4e 3b 15 3c d4 3c 04 78 2b 3d
       0.032825265 0.0031535942 0.025907556 0.041862503
000180 95 c5 ce bb b5 41 8a 3d 77 fc 0e 3d 60 ce e7 3b
       -0.0063101747 0.06750814 0.034908738 0.0070741624
000190 ee 8c 97 bd 3e 3e 77 bd 7a 94 16 3d fe b2 0b 3d
       -0.07399927 -0.060362093 0.036762692 0.034106247
0001a0 9e 1c 58 bd cd ed 94 3d 7c 82 27 3c 33 12 19 3c
       -0.052761666 0.072719194 0.010223981 0.009342718
0001b0 1e 32 c4 3c 77 8e a3 bd 25 7d 71 3d 90 b2 89 3d
       0.023949679 -0.079861574 0.058957238 0.06723511
0001c0 76 ed 8d bd 7b f4 b5 3d bd a6 c9 bd 75 89 d4 3c
       -0.06930058 0.088845216 -0.09846256 0.02594445
0001d0 f7 f7 6e bd 10 d1 c5 bc c6 f3 cf bb c9 77 ec 3c
       -0.058341946 -0.02414754 -0.0063461987 0.028865712
0001e0 60 e4 66 3c fd 52 1f bc 7e 48 ae 3c eb 54 93 bc
       0.014092535 -0.009724376 0.021274801 -0.017984828
0001f0 86 b0 3b bd 1a bc 51 3d ba 5a 82 bd 1f 36 1e 3d
       -0.045822643 0.05120478 -0.06364961 0.038625833
000200 f5 75 38 3d 79 fb 3c bd 3a 55 3a bd 92 03 1c bd
       0.045034368 -0.04613826 -0.045491435 -0.038089342
000210 c5 eb c6 3b 82 ed 44 bc 5b 14 ae bd db 53 f5 3c
       0.0060705864 -0.012019517 -0.08499976 0.029947212
000220 c9 5e 92 bc 41 54 17 3c cf 00 a8 3d 2b 6b fd 3c
       -0.017867463 0.009236396 0.08203279 0.03093489
000230 6b bd 7e 3d ea a1 30 3d bf 02 9c bc 21 64 0d bd
       0.06219236 0.043123163 -0.019044278 -0.03451932
000240 5f 6c a3 bd b4 a2 aa bd 86 1b 49 3d fa 49 7f bd
       -0.079796545 -0.083318144 0.049098514 -0.06232641
000250 a8 81 37 bd c8 24 dc bb 78 b5 ab 3b 8f 80 f2 bb
       -0.044801384 -0.006718252 0.0052401386 -0.0074005793
000260 be b7 aa bc 13 57 10 3c 4c d9 b5 39 58 4a ff bd
       -0.020839568 0.008809823 0.0003468491 -0.12465352
000270 c2 07 30 3c 41 0e e1 3b b5 59 72 3c c2 10 5c bd
       0.010744037 0.0068681543 0.014791896 -0.05372692
000280 5a b3 b2 bd 4e 15 f8 bd 64 b3 e9 3c 80 2c bd ba
       -0.08725615 -0.121134385 0.028527923 -0.0014432818
000290 17 41 3b bd 79 88 02 3d 64 d3 00 3d f8 91 b1 bc
       -0.04571637 0.03186843 0.031451598 -0.021676049
0002a0 82 f2 3a 3d 5a 9c 65 3c cf 27 ed bd 16 83 92 3d
       0.04564143 0.014014328 -0.115798585 0.07153909
0002b0 bd c3 8f bc 92 c1 8e ba 55 74 eb 3b 47 07 1f bd
       -0.01754939 -0.0010891429 0.0071854987 -0.0388253
0002c0 4c 6d e7 bc b2 d5 88 bd ff 73 34 bd 59 02 05 3d
       -0.028250359 -0.06681384 -0.044055935 0.032472942
0002d0 a5 38 5c 3d 76 2a ae bd 7d ba 48 bd fe 45 29 3d
       0.053764958 -0.085041925 -0.049005974 0.041326515
0002e0 e0 03 b2 bd 23 6a 98 3a ee 74 bd bc 00 6f d0 bc
       -0.08692145 0.0011628311 -0.023127045 -0.025443554
0002f0 6a 50 40 bd da 07 d6 bd ab 73 65 bd 05 99 bd bd
       -0.04695169 -0.10450716 -0.056018513 -0.09257702
000300 f4 2d ba bc af dc 18 3b b7 4b 4f 3c 0a fc ce bc
       -0.02272699 0.0023324897 0.012652329 -0.025266666
000310 3d ac 74 3d 74 c4 c2 bc 3c 77 b5 3c eb 5b 5f 3d
       0.05973457 -0.023775317 0.022151582 0.05453102
000320 54 88 7a bd ee 87 c7 bc cc eb 72 bc ba a6 4c bd
       -0.06116517 -0.024356809 -0.014826726 -0.04996369
000330 5a 1d 45 bd bd af 0d 3d 71 9e 47 3d f8 d6 c1 3d
       -0.048123695 0.034591425 0.048735086 0.0946483
000340 6e 39 77 bd 1b 30 dd bd 99 4e 9b bd f4 86 f6 3c
       -0.060357504 -0.10800191 -0.07583351 0.030093648
000350 dd 48 c6 3c 6b c5 a1 bc 4a 35 c7 bd 02 82 d0 bc
       0.024204666 -0.019747457 -0.09726961 -0.025452618
000360 36 65 52 3c 20 01 f9 bc aa 2c 28 3d 3f 7a 89 ba
       0.012841513 -0.030396044 0.04105822 -0.0010488703
000370 0d 33 88 3d 50 99 05 bd 4d 8f 1a 3c 4d ce 43 3d
       0.06650362 -0.032616913 0.00943358 0.047804166
000380 8a 4f a9 bc ac 3f e8 3c b1 d0 07 3e d0 b4 ac 3b
       -0.02066781 0.028350674 0.13263203 0.005270578
000390 82 f1 8d bc 44 84 f3 bc 78 98 9d bc 85 f7 85 bc
       -0.017327074 -0.029726155 -0.019237742 -0.016353378
0003a0 10 a2 94 bc e9 8b 84 3d 1a e5 84 bd 24 86 bb 3c
       -0.018143684 0.06471998 -0.0648901 0.022891112
0003b0 5c a5 61 3c fc ad d4 3d fb e9 61 3c 08 29 de 3d
       0.013772335 0.103847474 0.013788695 0.1084767
0003c0 a8 ad a6 3c 77 d6 7e 3c b4 58 09 bd d0 ec 68 3d
       0.020346478 0.015554062 -0.03353186 0.056866467
0003d0 e1 8f 4c 3d 1d 4f bb bc 42 28 0a bd 5b 2a 9e bc
       0.0499419 -0.022864873 -0.0337298 -0.019307306
0003e0 ba 1e 2c 3d e3 df 61 bd 8e b8 c6 bc bb 24 e5 3c
       0.04202149 -0.055145156 -0.024257924 0.027971616
0003f0 f5 5d 3b bd 80 35 82 bd 3b 0f 07 be 00 13 ab bd
       -0.0457439 -0.063578606 -0.13189404 -0.08353233

action_model._discrete_distribution.branches.0.bias f4 [13]
000000 93 4a c7 3c 68 29 95 bd 8a cc 6c 3c e6 a2 62 3d
       0.024327552 -0.07283288 0.014453063 0.055331133
000010 f0 42 af 3c 83 44 25 bd d1 50 70 3d 0e c3 13 3c
       0.021394223 -0.04034854 0.058670823 0.009018673
000020 d1 67 b3 3b 97 96 97 bc 7b 69 38 3c d0 6a 7c bc
       0.0054750224 -0.018504424 0.011255617 -0.015406325
000030 00 45 02 3d
       0.031804085

action_model._discrete_distribution.branches.1.weight f4 [13, 142]
000000 1d da d3 3a b0 93 f7 bc c0 5a 46 3d 3a 4d 3e bc
       0.0016163025 -0.03022179 0.04842639 -0.011615092
000010 aa f8 bd 3c d9 0b ae bb 7e 4c 29 bc 5e e2 a8 3c
       0.023189861 -0.005311471 -0.010333179 0.020615753
000020 b9 fd 85 3d 5c 27 c9 bc da 13 59 bd 40 10 3c 3d
       0.065425344 -0.0245549 -0.052997448 0.045913935
000030 9c fd 0a 3b 71 44 dc bc 52 0f 6b 3d 55 df 3b bc
       0.0021208292 -0.026888104 0.057387657 -0.011466821
000040 98 00 4f bc 71 66 dc 3d d5 48 85 bd c4 d1 a7 bd
       -0.012634419 0.10761727 -0.06508032 -0.081943065
000050 8d ba a7 3b 20 e9 aa bd f7 32 d7 bc 7a e4 26 bd
       0.005118674 -0.08345246 -0.02626942 -0.040745236
000060 0c 15 a5 bd 20 5d 72 bd ae fc 23 bd d1 ac a2 bd
       -0.08060655 -0.059170842 -0.040035896 -0.07943118
000070 f3 c5 92 3d 8e a0 a4 bd 5a 12 84 bd df 15 67 bd
       0.07166662 -0.08038436 -0.06448813 -0.056417342
000080 be 22 87 bd 03 88 2d bd 22 fa 4a bd b6 a2 b1 3c
       -0.065984234 -0.04236604 -0.04955495 0.021684032
000090 64 f3 ca 3b 76 ba 2b 3d 06 49 06 3d d7 94 28 bd
       0.006193565 0.04192587 0.032784484 -0.04115757
0000a0 56 19 8e 3d e3 e7 b0 bb 50 b9 c8 3c 13 f2 91 bc
       0.06938426 -0.005398737 0.024502426 -0.017815625
0000b0 81 2c 62 bd 6c 2f a8 bd c5 a3 a5 3c c2 b9 74 3c
       -0.055218223 -0.0821217 0.020219693 0.014936866
0000c0 79 20 d9 bc 49 48 aa 3c cc ba 91 bc 5b 89 5f 3b
       -0.026504742 0.020786421 -0.017789267 0.003410897
0000d0 2f 47 67 bc b8 ed 13 bd 83 d7 f9 bc b9 eb a3 bc
       -0.014116093 -0.03611538 -0.030498272 -0.020009862
0000e0 e5 09 c9 3c 11 99 38 bd 43 81 15 bd 49 0e ec bd
       0.02454085 -0.04506785 -0.036500227 -0.11526162
0000f0 1f 66 0a 3c cf be 8d bd 22 e2 a0 bc 46 da 13 bd
       0.008447199 -0.069211595 -0.019639079 -0.036096834
000100 80 f2 f2 bd f4 35 02 bd ed 29 54 bd 52 48 44 3d
       -0.118626595 -0.031789735 -0.051797796 0.047920533
000110 b2 10 b6 bc e1 d6 2d bd 59 80 9d 3b 52 8d 8d bd
       -0.022224758 -0.042441253 0.00480656 -0.0691172
000120 b8 54 38 bc ea 1d ef bc 2b 20 b3 bd b1 6a ed bb
       -0.011250667 -0.029189069 -0.0874637 -0.0072453846
000130 f4 db 8a 3c 84 31 bc 3c ea 1d 14 bd ee 31 ec bc
       0.016950585 0.02297283 -0.03616134 -0.028832402
000140 ef 01 81 bd 30 7c a5 bd b7 65 c7 bb 9c 25 9c bd
       -0.06299197 -0.080803275 -0.0060851234 -0.07624361
000150 05 e8 d8 3a 79 2a 31 bd 05 78 bb bd 53 8b 93 bc
       0.0016548639 -0.043253396 -0.09153751 -0.01801077
000160 6d 16 0f bd ad 17 19 3d de 8f 9c bc 3c b9 0a bd
       -0.034933496 0.037376095 -0.01911157 -0.03386806
000170 d0 e4 03 3c 13 a9 80 bc f1 d0 01 bc ad dc c2 bb
       0.008050159 -0.01570562 -0.007923351 -0.0059467168
000180 ed cf 07 bd 06 e3 e7 bc 74 cc 5f 3c 7c d3 55 bc
       -0.033157278 -0.028306495 0.013659585 -0.01305091
000190 e5 18 63 3c ba cf ea 3a 65 3c 82 3c 26 59 af bb
       0.013860916 0.001791469 0.015897939 -0.0053512035
0001a0 0f 96 f3 bd 72 3b 83 3d ea 26 0e be 44 25 88 bd
       -0.11893856 0.06407823 -0.13882032 -0.06647733
0001b0 b1 4a 5d bc 35 f8 6c bc 28 cc 4e bd 62 30 87 3d
       -0.013506577 -0.014463474 -0.050487667 0.06601025
0001c0 63 17 e1 bc a1 d3 64 bd ef d8 3e bd c5 f3 82 3b
       -0.027476972 -0.055865888 -0.046593603 0.0039963447
0001d0 0e d8 26 be 4f 78 65 bd 6f 63 de 3c 82 1e 0d be
       -0.16293356 -0.05602294 0.027147023 -0.13781169
0001e0 fb cc 43 bc 92 0a 92 3c eb a7 17 bd e6 d3 2e bd
       -0.011950727 0.017827306 -0.037025373 -0.04268255
0001f0 1c fc df bd 1c 3e 23 3c e9 34 69 bd b3 50 d0 bd
       -0.10936758 0.0099635385 -0.056935225 -0.10171642
000200 d0 f5 80 bc 06 0d a7 bd 9c 92 2a 3d db 50 0a 3d
       -0.015742213 -0.08156781 0.041643724 0.033768516
000210 4d 8f de bb a3 af 39 bd 8e f4 98 3b 59 0f 6d bc
       -0.006791985 -0.045333516 0.004667825 -0.014468991
000220 51 81 59 bd 8a b0 0f bc 4e ab 8d 3c 90 27 91 3c
       -0.05310184 -0.008770118 0.017293599 0.01771906
000230 77 f9 0f bd 3c 2e 59 bc f5 d6 d9 3c 15 26 0b 3b
       -0.035150018 -0.013255652 0.026591757 0.0021232415
000240 cd ef b0 3d 96 13 99 bc ee 9d d2 3d 8b e8 cb 3b
       0.08639488 -0.018686097 0.10284029 0.0062227896
000250 23 8c 59 bc e3 60 a8 3c 9e 69 ff 3b 41 aa dd bc
       -0.01327804 0.020554012 0.007794573 -0.027058722
000260 a0 5b 03 bd 99 99 06 3d a2 fd b3 bc 40 3d 56 3d
       -0.032069802 0.032861326 -0.021971527 0.052304506
000270 71 ce 16 bd bf 22 cd bd be 3f a1 bd 08 f2 98 bd
       -0.03681797 -0.10016393 -0.07873486 -0.07468039
000280 61 30 df 3d c1 34 ba bc 02 57 b3 3d 2d 62 24 bd
       0.108978994 -0.022730233 0.0875683 -0.04013269
000290 c3 e1 42 3c 0b 2c 59 3d 0c 94 05 bd fd c2 5b bd
       0.011894646 0.05302052 -0.03261189 -0.053652752
0002a0 ca 63 40 bd 75 c8 2b 3d e0 bc 83 3d 62 ad 75 3d
       -0.046970166 0.041939218 0.064325094 0.059979804
0002b0 58 89 80 3a da 7e 93 3c 13 a1 4b 3c 4a 28 f7 3c
       0.0009806557 0.018004823 0.01242854 0.030170579
0002c0 b2 57 f6 3c 8f c7 8e bc bf c7 cf bc 21 a1 b5 bc
       0.030071113 -0.017429141 -0.025363801 -0.022171559
0002d0 fc f0 7f 3d b3 b6 0a bd 31 1f e7 3d eb 2a 90 bb
       0.06248568 -0.03386564 0.11285246 -0.0043996475
0002e0 33 f2 0f 3d a4 d1 7e 3d 1f 70 09 3d 6c 76 63 bb
       0.03514309 0.062211648 0.033554193 -0.0034708036
0002f0 70 ca 5a bd 98 e6 9b 3d 04 f3 c3 bd 00 3f 72 bd
       -0.053415716 0.07612342 -0.09567836 -0.059142113
000300 9e 88 91 bc 59 ba 0a be 9d 09 66 3d e6 83 ee bc
       -0.01776534 -0.13547648 0.05616151 -0.029115628
000310 9a 5a 10 bb 08 79 e9 3c 4e 0d 2e 3d f5 18 13 3c
       -0.002202666 0.028500095 0.042493157 0.008978118
000320 9c 05 05 3c 6d 80 b8 3d dc 3f 41 3d a8 53 bf 3c
       0.008119013 0.0900887 0.04718004 0.02335532
000330 8c e1 56 bb 79 83 39 bd e8 f1 fc bb 7b e8 80 3d
       -0.0032788245 -0.045291398 -0.007719267 0.06294342
000340 90 10 d7 bc 4b e5 1d 3d 21 76 9c bc 20 f6 a7 bc
       -0.026253015 0.03854875 -0.019099297 -0.020503104
000350 f5 b1 ad 3d cd ff 09 3c 0c 61 5a bd 13 78 f1 bd
       0.08481208 0.008422804 -0.053315207 -0.117904805
000360 5c 53 96 3d ce 1a bd bd 84 45 ac bb f7 ab 9e 3d
       0.07340118 -0.09233628 -0.0052573103 0.077476434
000370 fd 86 09 3d 3b ec 55 3d b8 40 3c bd 1c 70 f8 3c
       0.033576 0.05222724 -0.045960158 0.030326895
000380 c5 64 33 3d f2 d5 c3 bd f2 91 05 bc 20 14 e7 bc
       0.043797273 -0.09562291 -0.008152472 -0.028207839
000390 83 9c f4 3b 19 94 69 3d 70 18 94 3d 07 bb 9f bc
       0.0074649467 0.057026003 0.072312236 -0.019498361
0003a0 be cb e1 bc 7c d9 3a bd 39 56 73 3d 3b 50 5c bc
       -0.027562972 -0.045617566 0.0594084 -0.013446863
0003b0 2a 16 94 bc 01 a6 83 bd ed 28 e6 bc f8 51 5d 3b
       -0.018076975 -0.06428147 -0.028095687 0.003377078
0003c0 55 a0 ce bd 85 4e 84 3d e0 c6 c9 bc 87 53 e2 3b
       -0.10089175 0.06460289 -0.024630964 0.00690693
0003d0 d0 82 15 3d c4 49 36 bc 18 47 4b bd 00 d8 9c bb
       0.036501706 -0.0111259855 -0.049628347 -0.0047864914
0003e0 b5 ba 70 3b c5 ae ca 3d 5f 8d 3a bd fa de ce bd
       0.003673238 0.09896616 -0.04554498 -0.10101123
0003f0 1a 41 48 bd e9 e8 9d bc 68 9a 7d bb ad 0f f6 bc
       -0.04889021 -0.0192761 -0.003869677 -0.030036772

action_model._discrete_distribution.branches.1.bias f4 [13]
000000 00 9c ad bc b3 3b 04 3d 09 50 16 bc 35 5b f2 3c
       -0.02119255 0.032283496 -0.009174355 0.029584507
000010 f3 b0 a6 3c a9 bb 8e bc de 7b 3e 3d 03 84 9b 3b
       0.020348048 -0.017423468 0.046504848 0.0047459616
000020 b5 6d 0d be 83 a3 cc 3c 2e 70 96 3c 2f 37 38 3d
       -0.13811381 0.024980312 0.018364038 0.044974502
000030 7b 5d 35 3c
       0.011069651

action_model._discrete_distribution.branches.2.weight f4 [13, 142]
000000 46 6d 23 3d 62 63 c3 bc 91 aa d2 bd 3e 6d c7 ba
       0.039899133 -0.0238511 -0.10286439 -0.0015215052
000010 f3 b9 3d 3d f8 5e 8f 3d 2a 9a a2 3c 54 95 85 3c
       0.046319913 0.07000536 0.019848902 0.016306557
000020 8f 63 7d 3c 8c c4 a8 3d dd 39 ad bd dc 35 e1 bc
       0.015465631 0.08240613 -0.08458302 -0.027491502
000030 6a dd c4 3b 45 c3 f2 ba ab b2 f2 bc 2a 25 c2 bd
       0.00600784 -0.001852133 -0.029626211 -0.09479745
000040 2f d8 8d 3d c8 e1 96 bd 6b ac dc 3c 9f 66 3a 3d
       0.069259994 -0.07367283 0.026937684 0.045508023
000050 3b 22 a8 3d 7f 51 27 3d 89 d1 a0 bd d7 1e da 3b
       0.08209654 0.040849205 -0.07852466 0.0066565084
000060 ef 51 ef bc 39 24 4b bd 77 d1 1a 3d 90 f0 c6 ba
       -0.029213874 -0.04959509 0.037797417 -0.0015177894
000070 f8 9a 18 3c 68 3f 2e 3d ec c7 36 bd af c4 44 3d
       0.009314291 0.042540938 -0.044624254 0.048039135
000080 f1 cb 73 3d bd dd 73 3d 7a ea 96 bc 61 7e 94 3c
       0.059520666 0.059537638 -0.018422354 0.018126668
000090 6d 0b bc 3d 9c 05 e8 bc 29 d1 df 3c a6 26 2e bb
       0.09181867 -0.028322987 0.027321415 -0.002657333
0000a0 dd 4d 7f 3d be 57 23 bc 25 7c 7d 3d 6b 4b d8 bc
       0.062330116 -0.00996965 0.06188597 -0.02640315
0000b0 35 13 00 bd ff b9 7b 3d e8 6a a4 3b 39 62 e6 3b
       -0.031268317 0.061456677 0.005017627 0.007030752
0000c0 ca be fc 3d 81 93 ab 3d 27 73 96 3d 5d 59 c9 3c
       0.123410776 0.083777435 0.07346182 0.024578745
0000d0 5c b1 4e ba e0 47 10 bc 98 fa 17 3c 9c f4 c2 bb
       -0.0007884705 -0.008806199 0.009276055 -0.00594957
0000e0 bf ac 4c bc ab 42 e4 3c f2 cc 9e 3c dc a0 1b bd
       -0.012492358 0.027863821 0.019384835 -0.037995204
0000f0 e1 ba a0 3d 3d c4 c4 3d 1f a0 df 3c 3b 6c 29 3d
       0.07848144 0.09607742 0.027298031 0.041362982
000100 4e be 53 3d a1 8a 67 3d 5d 5e 94 bd 75 54 64 3d
       0.05169516 0.05652869 -0.07244561 0.055744607
000110 d1 ad bc 3c c7 51 7b 3c 74 27 dc 3d 27 f3 10 bc
       0.0230321 0.015339321 0.107497126 -0.008847035
000120 d9 d3 92 3c 0c 18 2f 3c 57 23 47 bc d5 a0 23 3d
       0.017923282 0.010686886 -0.012154422 0.039948303
000130 95 0f 16 3d 17 b5 66 3d ab 40 0c bd c5 90 f3 bc
       0.036635954 0.056325044 -0.03424136 -0.029732117
000140 35 1d df 3d 88 4b c4 3d fc 01 0c bd 0d 8d 11 bd
       0.10894243 0.09584719 -0.03418158 -0.035534907
000150 05 a3 1e 3d 36 9d 23 bb bb 83 0a 3d 0e 2b 72 3d
       0.038729686 -0.0024965531 0.033817034 0.05912309
000160 b0 64 88 bd 1a fa 59 bd ea 3e de 3d de 70 a9 3d
       -0.066598296 -0.05321703 0.10851844 0.08273481
000170 5c b5 39 3d a9 9a 71 3d c8 71 83 3c 5e fd 75 bb
       0.045338973 0.058985386 0.016045466 -0.0037535052
000180 3f 47 b9 3c 86 42 53 3b 36 af bb 3c b4 53 4c 3b
       0.02261698 0.0032235696 0.022910696 0.003117782
000190 3e ef 1b bd a7 a0 9d bc bd 69 3f bd 05 ee df bb
       -0.038069956 -0.019241644 -0.0467317 -0.006833794
0001a0 39 1a 36 3d 46 c8 19 3c d3 1e 8d 3d 1d b8 98 bc
       0.0444586 0.009386128 0.06890645 -0.01864248
0001b0 3f 4d 88 bd 7e 85 c1 bc ec 99 b3 3c f6 de c2 3d
       -0.066553585 -0.023623224 0.021923982 0.09515183
0001c0 55 61 1f bd d4 14 d0 3c 68 23 da 3b 90 ca 2f bd
       -0.038911182 0.025400557 0.006657053 -0.042917788
0001d0 1d f1 26 3c 22 a9 e2 bb ea ef 5b bd c5 d8 00 bd
       0.010189322 -0.006917135 -0.053695597 -0.031456728
0001e0 72 c4 ac 3d 49 dc b6 bb d8 20 b5 bc 56 17 a2 bd
       0.084359065 -0.0055804593 -0.022110388 -0.07914607
0001f0 c5 f8 96 bc cc 87 98 bc c1 0d 53 3d 80 13 1c 3d
       -0.01842917 -0.01861944 0.05152679 0.038104534
000200 38 f8 26 3b 21 d0 d8 ba 80 90 30 3d ad 01 b0 bc
       0.002547754 -0.001654152 0.043106556 -0.021485174
000210 4a 10 9c 3c 45 e2 44 bc 47 63 51 bc 6d 35 0d 3d
       0.019050736 -0.0120168375 -0.012780017 0.03447478
000220 4a 69 00 3d b4 be 08 bd 02 8d 47 3b a7 56 2a bc
       0.03135041 -0.033384994 0.0030449037 -0.010396636
000230 f0 03 7d 3d 9c b7 bc bd e2 c5 03 ba dc 07 c5 bc
       0.061771333 -0.09214708 -0.000502674 -0.0240516
000240 cb 96 10 bd 15 3e bb 3b 31 12 85 bd 0c 61 55 bd
       -0.035300057 0.005714188 -0.0649761 -0.052094504
000250 3b 1e cb 3d be e8 93 bc b3 d5 9c bd 73 3f a1 3d
       0.099178754 -0.018055316 -0.076579474 0.0787343
000260 87 8c 49 bc 47 c9 ab bc 31 13 d6 3b a3 c3 d3 bc
       -0.012301571 -0.02097 0.0065330495 -0.025850123
000270 e3 b3 7d bd 01 08 63 3d bc 4f 54 bc 08 c8 31 3d
       -0.06193913 0.055427555 -0.012958463 0.043403655
000280 a6 67 07 bd e2 e6 14 bd 15 51 64 bd 0b 5e f4 3c
       -0.03305783 -0.036353 -0.05574139 0.02983
000290 f0 8d 99 3c 1f 2f cc 3d cd c9 f3 bc aa 7e 3f 3d
       0.018744439 0.09969925 -0.029759312 0.046751656
0002a0 05 51 4b 3c d3 8c 93 bb 74 88 f1 bc e4 18 c8 3b
       0.012409453 -0.0045028715 -0.029484011 0.006106483
0002b0 0a 93 08 bc 2e 3b b4 bc b1 28 13 bd 98 7e 45 3d
       -0.008335838 -0.022000875 -0.03592748 0.048216432
0002c0 b7 e3 f3 3c b2 10 92 bd 5b d7 b4 3b b6 f3 1c bd
       0.029771669 -0.07132091 0.0055188364 -0.03831836
0002d0 a6 1b c0 bd 73 ac cd bc 71 87 56 3d e1 19 25 bd
       -0.093802735 -0.025106644 0.05237526 -0.040307883
0002e0 e8 dc 54 3d 17 5b 62 3d 46 e9 8b bd 4c 22 8e bd
       0.051968485 0.05526265 -0.06831603 -0.06940135
0002f0 b8 e1 35 3d 8f ba 17 bd 87 bf 33 bd df ce ef 3c
       0.044404715 -0.03704315 -0.043883827 0.029273449
000300 09 81 24 3b 75 b7 12 3d 7c 09 a4 3c 4d 30 3c 3c
       0.0025101325 0.03581949 0.020024054 0.011486125
000310 9a ec 93 3d 39 3d c4 ba 5d 4c 14 3d bb 3d 8a bc
       0.072228625 -0.0014971859 0.03620564 -0.016875139
000320 ad 7a e6 3c d2 80 5a b9 41 e4 04 bb 78 b4 97 bc
       0.028134668 -0.0002083809 -0.0020277651 -0.018518671
000330 f4 7c bc bb 95 67 29 bd 30 4a bc 3c a8 da 67 bd
       -0.0057522003 -0.04135855 0.022984594 -0.05660501
000340 13 a9 65 bc 6b e1 b0 bc 64 07 20 bc fa ae e6 bc
       -0.014017361 -0.021591863 -0.009767387 -0.028159607
000350 c9 57 6e bd 50 8d 76 bd 58 73 62 3d 88 c3 91 bd
       -0.058189187 -0.06019336 0.05528578 -0.07117373
000360 f6 fe 65 bd 02 be 54 3d 21 aa c3 bc 79 2b 9b bd
       -0.056151353 0.051939018 -0.023884835 -0.07576651
000370 a6 df 0d 3d 9b 68 55 3c 2a 28 ed bb 9e 3e bd 3c
       0.034637116 0.013025428 -0.007237454 0.023101147
000380 b1 b1 15 bd 0e da aa bd 08 15 27 3c 5c 2c 0f 3d
       -0.036546413 -0.08342372 0.010197885 0.034954414
000390 34 e1 08 3d 4e 70 ab bc b5 0c 2d bc 95 1d 4d 3d
       0.033417895 -0.020927574 -0.010562112 0.05007704
0003a0 7f 3a ae bc 91 fd c9 bd d2 48 f0 3c d5 2d 02 3d
       -0.021268127 -0.09862817 0.029331598 0.03178199
0003b0 fc 7a 1c be 5b 50 40 bd 0f 8a 94 3d 8b 8f 49 bb
       -0.1528129 -0.046951633 0.07252895 -0.0030755724
0003c0 b3 45 9d bc 28 11 2a 3d cf cc 12 be 11 ec 0b bd
       -0.019198274 0.041520268 -0.14335941 -0.034160677
0003d0 27 85 7f bd 18 66 d7 bc 7b cf 13 be 61 9f ab ba
       -0.062382843 -0.0262938 -0.14434616 -0.0013093763
0003e0 cc b7 24 3d 15 ed 1f bd 53 61 1b 3d 47 8c 98 bd
       0.040214345 -0.03904446 0.037934612 -0.07448631
0003f0 ec 6f 17 bd 64 0e 20 3c 54 dd ec bc 1b de 9d 3c
       -0.03697197 0.009769056 -0.028914131 0.019270947

action_model._discrete_distribution.branches.2.bias f4 [13]
000000 96 c0 ff 3b af 05 15 bd 2c 1b cb 3c 80 ec 26 3d
       0.0078049405 -0.036382373 0.02479323 0.040752888
000010 dc 6c 29 bd 21 c8 0a 3d 46 5a 6a bd 17 9b 23 3c
       -0.041363582 0.033882264 -0.057214998 0.009985707
000020 b4 77 b9 bc b3 1c 01 3d 73 84 87 bc c8 55 2b 3c
       -0.022640087 0.03152151 -0.016542649 0.010457464
000030 99 da 24 3d
       0.040247533
