results/NewTwoAgentsFullBoardActionKeepAfterFail/BlackMLAgent/BlackMLAgent-2697.onnx (onnx, 681198 bytes, 133 tensors)

discrete_act_size_vector f4 [1, 64]
0	0x41500000	13.0
1	0x41500000	13.0
2	0x41500000	13.0
3	0x41500000	13.0
4	0x41500000	13.0
5	0x41500000	13.0
6	0x41500000	13.0
7	0x41500000	13.0
8	0x41500000	13.0
9	0x41500000	13.0
10	0x41500000	13.0
11	0x41500000	13.0
12	0x41500000	13.0
13	0x41500000	13.0
14	0x41500000	13.0
15	0x41500000	13.0
16	0x41500000	13.0
17	0x41500000	13.0
18	0x41500000	13.0
19	0x41500000	13.0
20	0x41500000	13.0
21	0x41500000	13.0
22	0x41500000	13.0
23	0x41500000	13.0
24	0x41500000	13.0
25	0x41500000	13.0
26	0x41500000	13.0
27	0x41500000	13.0
28	0x41500000	13.0
29	0x41500000	13.0
30	0x41500000	13.0
31	0x41500000	13.0
32	0x41500000	13.0
33	0x41500000	13.0
34	0x41500000	13.0
35	0x41500000	13.0
36	0x41500000	13.0
37	0x41500000	13.0
38	0x41500000	13.0
39	0x41500000	13.0
40	0x41500000	13.0
41	0x41500000	13.0
42	0x41500000	13.0
43	0x41500000	13.0
44	0x41500000	13.0
45	0x41500000	13.0
46	0x41500000	13.0
47	0x41500000	13.0
48	0x41500000	13.0
49	0x41500000	13.0
50	0x41500000	13.0
51	0x41500000	13.0
52	0x41500000	13.0
53	0x41500000	13.0
54	0x41500000	13.0
55	0x41500000	13.0
56	0x41500000	13.0
57	0x41500000	13.0
58	0x41500000	13.0
59	0x41500000	13.0
60	0x41500000	13.0
61	0x41500000	13.0
62	0x41500000	13.0
63	0x41500000	13.0

network_body._body_endoder.seq_layers.0.weight f4 [142, 71]
0	0x3ded7442	0.1159444
1	0xbd71686d	-0.05893748
2	0x3ddf48c1	0.109025486
3	0xbe496679	-0.19667996
4	0x3e212f22	0.15740636
5	0x3e2e7d11	0.17039897
6	0x3ddb2d20	0.10701966
7	0x3b0d1929	0.002152989
8	0x3d6ce2c3	0.057833444
9	0x3e152748	0.14565766
10	0xbc8a7c03	-0.016904837
11	0xbccd6dd5	-0.025076786
12	0xbd4d456d	-0.050115038
13	0x3e52c6bd	0.20583625
14	0xbdff5cad	-0.124688484
15	0xbe420021	-0.18945362
16	0xbe01b9fa	-0.126686
17	0xbec4e425	-0.3845531
18	0xbd43bef9	-0.047789548
19	0xbd95df6f	-0.07318007
20	0xbc90d020	-0.017677367
21	0xbd36d719	-0.044638727
22	0xbbd42163	-0.0064737066
23	0xbd321296	-0.043474756
24	0xbdb93c2e	-0.090446815
25	0xbe26b517	-0.16280018
26	0x3deb5090	0.114899755
27	0xbde14483	-0.10999396
28	0xbcbb3a29	-0.022854881
29	0x3c04e14a	0.008110354
30	0xbd7a204f	-0.061065968
31	0x3d786ee3	0.060652625
32	0xbce5dffd	-0.028060907
33	0x3d712645	0.058874387
34	0xbde5b310	-0.11215794
35	0x3bdffaf7	0.0068353373
36	0x3d33045b	0.043705326
37	0xbe7e5ba3	-0.24839644
38	0xbd62afa0	-0.05534327
39	0xbcff9495	-0.03119878
40	0xbdf40c84	-0.1191645
41	0x3d8d414a	0.068972185
42	0x3dafd42a	0.08585389
43	0x3e207fbb	0.15673725
44	0x3cad96c6	0.021190058
45	0x3d30d216	0.043169104
46	0xbc5541b3	-0.013016152
47	0x3e945cec	0.28977144
48	0xbde3596b	-0.111010395
49	0x3db9b0df	0.090669386
50	0x3c61a36e	0.013771875
51	0x3e3bd64e	0.1834347
52	0xbe312ee6	-0.17303047
53	0xbe22c677	-0.15896021
54	0x3d06cf3e	0.032912485
55	0xbc944a81	-0.018101932
56	0xbd5f2f6e	-0.05448859
57	0x3e0038f5	0.12521727
58	0x3e100b34	0.14066774
59	0x3d90ef93	0.07076945
60	0xbe16f451	-0.14741637
61	0xbeb159b7	-0.3463876
62	0xbd739eb9	-0.05947754
63	0xbd6d7403	-0.057971966
64	0xbd357828	-0.044304043
65	0x3d27a934	0.04093285
66	0xbb8b5a5c	-0.004252715
67	0x3cdf7c65	0.027280996
68	0x3d145180	0.036210537
69	0x3e3a20e8	0.18176615
70	0xbdbd16c0	-0.09232855
71	0xbade015f	-0.0016937664
72	0x3e4f2653	0.20229463
73	0xbdf75563	-0.12076833
74	0xbde161b1	-0.11004961
75	0xbc2804e2	-0.01025507
76	0x3d4a48b1	0.04938573
77	0x3e345cbe	0.17613503
78	0xba149f00	-0.0005669445
79	0x3e0f2242	0.13977912
80	0xbd120f02	-0.035658844
81	0x3d60f37e	0.054919712
82	0x3ddff2b2	0.10934962
83	0xba98487c	-0.0011618282
84	0xbc265408	-0.010151871
85	0x3e08cb9d	0.13358922
86	0x3c46ee58	0.0121417865
87	0xbd836602	-0.06415941
88	0x3d06f347	0.03294685
89	0xbc5e5fdf	-0.013572662
90	0x3bc321f9	0.0059549776
91	0xbe114ecd	-0.14190216
92	0x3dbfb56f	0.093607776
93	0xbdb979a8	-0.09056407
94	0xbe600201	-0.21875764
95	0x3df08007	0.11743169
96	0xbddf3afc	-0.10899922
97	0xbe70aeee	-0.2350423
98	0xbe813ee3	-0.2524329
99	0xbd82c071	-0.063843615
100	0x3db3cd13	0.08779349
101	0xbd1ccf83	-0.038283836
102	0xbc88f37f	-0.01671767
103	0x3d1cd1fa	0.038286187
104	0xbd0bd2e1	-0.034136657
105	0xbcb67b1e	-0.022275504
106	0xbc669448	-0.014073439
107	0x3e97eae4	0.29671395
108	0x3d55fc2c	0.052242443
109	0x3daf859a	0.08570404
110	0xbe0146c7	-0.12624656
111	0x3d7aa938	0.061196536
112	0x3d0ea25a	0.0348228
113	0xbcba9e1b	-0.022780469
114	0x3a8747c1	0.0010321067
115	0xbdecb97d	-0.115588166
116	0xbc307db8	-0.010772161
117	0x3e59e11c	0.21277279
118	0xbe1c2583	-0.15248685
119	0xbd8845f9	-0.06653971
120	0xbd9b9a80	-0.07597828
121	0xbd61ee4f	-0.05515891
122	0xbdad7ce5	-0.08471087
123	0x3cc66471	0.024217816
124	0x3e396d9b	0.18108217
125	0x3d0dba34	0.034601405
126	0x3b129e76	0.0022372282
127	0x3d48f70d	0.04906373
128	0xbe892018	-0.26782298
129	0x3ddd15d2	0.107951775
130	0xbdf86e12	-0.12130369
131	0x3e09191a	0.13388482
132	0x3e403f59	0.18774165
133	0x3d5369de	0.051614635
134	0x3dab637e	0.08368586
135	0xbe5163b7	-0.20448194
136	0x3e83ab38	0.25716567
137	0xbe61b0e1	-0.2204013
138	0x3d82acb9	0.063806005
139	0xbd88e1cb	-0.066836916
140	0x3ce58e7b	0.028022042
141	0x3e5917d2	0.21200493
142	0xbe23413c	-0.15942854
143	0xbd44fbfe	-0.04809188
144	0xbe2c0574	-0.16798955
145	0xbb6709df	-0.0035253686
146	0x3d252a4b	0.040323537
147	0x3a4ae2af	0.0007739467
148	0xbe2cd59b	-0.16878359
149	0x3e4dfa95	0.2011512
150	0x3d2e6391	0.042575423
151	0xbd847ce3	-0.06469133
152	0x3d28898f	0.04114681
153	0x3d7b606d	0.061371256
154	0x3d4befe1	0.049789313
155	0xbd878be1	-0.06618477
156	0xbe4bdf46	-0.19909391
157	0xbdf52e91	-0.119717725
158	0xbe3bc9df	-0.18338726
159	0xbd956338	-0.07294315
160	0x3d97db0a	0.07414825
161	0x3e373e49	0.17894854
162	0x3e65add2	0.22429588
163	0xbd93b0d9	-0.072114654
164	0x3d855135	0.0650963
165	0x3d13ea3b	0.03611205
166	0x3dabb819	0.08384723
167	0xbe8641d8	-0.2622211
168	0xbd3746b7	-0.044745173
169	0xbdda4932	-0.10658492
170	0xbd1e9821	-0.0387193
171	0xbe328a0e	-0.17435476
172	0xbe5ac74a	-0.21365085
173	0x3e59ddd7	0.21276031
174	0x3e1aa75b	0.15102904
175	0xbdf8bf3d	-0.12145851
176	0xbdc38c46	-0.095482394
177	0xbd7dbed1	-0.061949555
178	0xbd2ea598	-0.04263839
179	0xbe33a27c	-0.17542452
180	0x3c86cc64	0.016454883
181	0xbca6f402	-0.020380024
182	0x3e2c799d	0.16843267
183	0xbe2db398	-0.16963041
184	0xbd5c8383	-0.053836357
185	0x3d3541e8	0.044252306
186	0xbe20af0b	-0.15691774
187	0x3cad7f31	0.021178814
188	0x3e108ea9	0.1411692
189	0xbd1c36dc	-0.038138255
190	0x3d2c0728	0.041999012
191	0xbd72d4a0	-0.059284806
192	0xbe1dd4b0	-0.15413165
193	0x3d3c4b7a	0.045970418
194	0xbdeaad88	-0.1145888
195	0x3ddee04a	0.108826235
196	0xbe597d4d	-0.21239205
197	0xbe6c5bec	-0.2308194
198	0xbd898d1f	-0.0671637
199	0xbd811d59	-0.06304426
200	0x3e0af97d	0.13571735
201	0x3c658be9	0.014010408
202	0xbe0ddf06	-0.13854608
203	0x3dcdf10f	0.10055744
204	0x3d811cbb	0.06304308
205	0xbcfe06b8	-0.031009063
206	0xbd8d55da	-0.069011405
207	0xbe3cc6b7	-0.18435179
208	0xbc91461f	-0.017733632
209	0x3db1afdc	0.08676121
210	0x3d8df164	0.06930807
211	0xbdd34c9a	-0.10317345
212	0xbe0ec8a1	-0.13943721
213	0x3c0b5640	0.00850445
214	0x3e3bf028	0.18353331
215	0x3e6dfdf9	0.23241414
216	0xbc21d930	-0.009878442
217	0xbd33929f	-0.043841
218	0x3ddbfc12	0.10741438
219	0xbdae8572	-0.085215464
220	0xbe059b46	-0.13047513
221	0x3e0d2c64	0.13786465
222	0x3af59840	0.0018737391
223	0x3c2b5db2	0.01045935
224	0xbd9b8801	-0.075943
225	0xbe2d0d41	-0.16899587
226	0x3d81a06d	0.06329427
227	0xbe8dee6f	-0.27720973
228	0x3d6e4ad6	0.058176838
229	0xbde87e30	-0.11352193
230	0xbe6c1486	-0.23054704
231	0xbd98f5da	-0.074687675
232	0x3eb456c6	0.35222453
233	0xbc436228	-0.011925258
234	0xbc83cd9d	-0.016089255
235	0x3d90457a	0.070445016
236	0xbe554e36	-0.20830616
237	0x3e24fe0b	0.16112535
238	0x3e8b3ca2	0.27194697
239	0xbe19f13e	-0.15033433
240	0x3ceae6d8	0.028674528
241	0x3d52cbd2	0.05146391
242	0x3d5c6467	0.05380669
243	0x3bee7ea5	0.007278281
244	0x3e197a97	0.1498817
245	0x3d40fcc4	0.047116056
246	0x3e021003	0.1270142
247	0xbc6f8568	-0.014619209
248	0xbc9b0604	-0.018923767
249	0x3d2679cb	0.040643495
250	0x3cdc85ec	0.026919328
251	0xbe72022a	-0.23633638
252	0xbc907cb6	-0.017637592
253	0x3de29ffc	0.11065671
254	0xbd776b83	-0.060405266
255	0xbe0221a7	-0.1270815

network_body._body_endoder.seq_layers.0.bias f4 [142]
0	0x3ae56c9d	0.0017503683
1	0x3a3060a2	0.00067282666
2	0xbc32933a	-0.010899359
3	0xbc073a42	-0.008253636
4	0xbc205671	-0.009786234
5	0xbb5c52cf	-0.0033618694
6	0x3a82f42b	0.0009990981
7	0xbc5674e0	-0.013089389
8	0xb94a4b88	-0.00019292359
9	0x3c1413ce	0.009037925
10	0xbb064a88	-0.0020491201
11	0x3c1b8326	0.009491717
12	0x3c10dbdd	0.008841482
13	0xbb81418c	-0.0039445814
14	0xbc200891	-0.009767667
15	0xb9974c4b	-0.00028857807
16	0xbc0dfe06	-0.008666521
17	0xbbfc9f36	-0.007709409
18	0xba9fad1c	-0.0012182328
19	0xbc62eefc	-0.013850924
20	0x3c370ec3	0.011172953
21	0x39d1174d	0.00039880947
22	0xbc184293	-0.009293216
23	0xbbb0f08c	-0.005399769
24	0xbc05d9f7	-0.008169643
25	0xbc5c85bf	-0.013459622
26	0x3ade77e4	0.0016972986
27	0xbc158d2b	-0.009127895
28	0x3a9a649e	0.0011779254
29	0xbaad9f1c	-0.0013246271
30	0x3a080062	0.00051880453
31	0x3baf642f	0.005352519
32	0xbc4ef9ef	-0.012632831
33	0x3bb16243	0.005413325
34	0xbb9413df	-0.0045189704
35	0xbbf8f445	-0.0075974786
36	0x3a488e0c	0.0007650561
37	0xbbd04586	-0.006355944
38	0xbc257fc7	-0.010101265
39	0xbc5ff231	-0.013668583
40	0xbb059b28	-0.002038667
41	0xbb9e02bd	-0.004822104
42	0xbbc140a7	-0.0058975997
43	0x3ba8ed2d	0.0051552267
44	0xbb439c80	-0.002984792
45	0xbbbc8cc0	-0.0057540834
46	0x3bf1e473	0.0073819696
47	0x3c27ce68	0.010242082
48	0xbc2788a1	-0.010225446
49	0xbc147709	-0.009061583
50	0x3c277f08	0.010223158
51	0xbc2a6b07	-0.010401494
52	0xbba1684e	-0.004925764
53	0x3b6cb44e	0.0036118212
54	0xb9aa92dd	-0.00032534348
55	0xba7f8710	-0.0009747604
56	0x3c0a1fc3	0.008430424
57	0x3aa0bee7	0.0012263925
58	0xbc1e20a3	-0.009651336
59	0x3a98340f	0.0011612194
60	0xbc2232a6	-0.009899771
61	0x3c06c60f	0.008225932
62	0x3b7b6503	0.0038359768
63	0x3c8f7ef1	0.017516585
64	0xbb63736f	-0.0034706255
65	0x3be50ed9	0.0069902954
66	0xbb594a0c	-0.0033155708
67	0xbc0082a4	-0.007843647
68	0xbb8e7ead	-0.004348597
69	0xbb845f62	-0.004039691
70	0x3b271fd9	0.002550116
71	0xbb65fa1a	-0.00350917
72	0x39a7ae63	0.0003198265
73	0x3c83561d	0.016032273
74	0xbb6b443d	-0.0035898827
75	0x3ba972e6	0.0051711677
76	0x3c2dd7a6	0.010610497
77	0xbc15ab11	-0.009135024
78	0x39c25e14	0.00037072657
79	0xbaa7823c	-0.0012779902
80	0xb904a9da	-0.00012651776
81	0xbb8683af	-0.0041050534
82	0xbb78315b	-0.0037871215
83	0x3c18f557	0.009335837
84	0xbbd00eea	-0.006349434
85	0xbaf8ca38	-0.0018981164
86	0xbbe94cfb	-0.0071197725
87	0x3c02ef1e	0.00799158
88	0xbc256fa3	-0.010097417
89	0xb985c4c1	-0.0002551433
90	0x3bd03a99	0.0063546416
91	0x3c16731f	0.00918272
92	0xbb62f414	-0.0034630345
93	0xbba29e7a	-0.0049627395
94	0x3c501336	0.012699893
95	0x3c77b1d6	0.015118083
96	0x3c265d9d	0.010154155
97	0xba3621f4	-0.00069478084
98	0xb9331762	-0.00017079481
99	0x3c0035c9	0.007825323
100	0xbb992a19	-0.004674208
101	0x3c4398b5	0.011938264
102	0x3b9d2295	0.0047953823
103	0xbc2a53e8	-0.010395981
104	0x3c063ddc	0.008193459
105	0xbc2bc34c	-0.010483574
106	0x3bd643a1	0.0065388237
107	0x3ba86323	0.005138771
108	0x3bf7e36f	0.007564954
109	0xba7fd99b	-0.0009759904
110	0xbbdbf69c	-0.0067127477
111	0xba0e92c8	-0.0005438742
112	0xbb02bfd2	-0.001995076
113	0xbbb31985	-0.0054656886
114	0xba4f5728	-0.00079094106
115	0x3b972cd0	0.0046134964
116	0xbb8d196f	-0.0043060104
117	0x3b5549ea	0.0032545277
118	0x3b36d994	0.0027900683
119	0x3b9f1cc7	0.0048557254
120	0xbc3295f8	-0.010900013
121	0xbc0370b8	-0.00802248
122	0x3a111450	0.0005534338
123	0xbb8eecef	-0.004361741
124	0x3c17bd8b	0.009261499
125	0x3b34f75c	0.0027613258
126	0xbb6d5e72	-0.0036219624
127	0xbab97711	-0.0014149864
128	0xbc1f0e13	-0.009707945
129	0xba4a7d07	-0.0007724319
130	0x3cb02373	0.021501279
131	0x3a2b3073	0.0006530352
132	0xbbced61a	-0.006312144
133	0x3b121b93	0.0022294268
134	0x3c2b972d	0.010473055
135	0xbb00a521	-0.0019629674
136	0x3af3dd5b	0.0018605398
137	0x3c10c245	0.00883538
138	0x3c108880	0.008821607
139	0x3b3d18ba	0.002885385
140	0xbb1bd666	-0.0023778914
141	0x3b26043c	0.0025332114

network_body._body_endoder.seq_layers.2.weight f4 [142, 142]
0	0x3cbfe32a	0.02342375
1	0xbdc4efe0	-0.09616065
2	0xbc381977	-0.01123654
3	0xbddd4405	-0.10803989
4	0x3daca2a7	0.08429461
5	0x3a3a887b	0.0007115674
6	0xbd61dee2	-0.0551442
7	0x3c04c638	0.0081039
8	0xbdd6de9d	-0.10491679
9	0xbdf24ed1	-0.11831439
10	0xbd44fbc7	-0.048091676
11	0x3e7d4a18	0.24735296
12	0x3b26c9a0	0.0025449768
13	0x3d20ddcd	0.039274026
14	0xbcd981b1	-0.0265511
15	0x3daf90b5	0.085725226
16	0xbd41493e	-0.04718899
17	0x3e2e0577	0.16994272
18	0x3d713701	0.058890346
19	0x3bf3807a	0.007431087
20	0x3c61a39b	0.013771917
21	0xbe1454ea	-0.14485517
22	0xbc9f8434	-0.019472219
23	0x3d9c840f	0.07642376
24	0x3d48ec48	0.04905346
25	0x3b7167b3	0.0036835491
26	0xbe05bd1b	-0.1306042
27	0xbc8cfef5	-0.017211417
28	0xbd83346a	-0.064064816
29	0xbd9f958c	-0.07792196
30	0x3e2723ec	0.16322297
31	0xbdcc90d5	-0.09988562
32	0x3c959450	0.018259197
33	0xbc6db5cf	-0.014508679
34	0xbd12cae4	-0.035838023
35	0x3c2b4064	0.010452364
36	0x3e2eddae	0.17076752
37	0x3cc01867	0.023449136
38	0xbdf8bc85	-0.12145332
39	0x3dcafa2d	0.099109985
40	0xbd96350b	-0.07334336
41	0x3de1466a	0.109997585
42	0xbdfcb731	-0.123396285
43	0x3d8a29e8	0.06746274
44	0xbcbaed50	-0.022818238
45	0x3c2e5213	0.010639685
46	0x3cbacb13	0.022801911
47	0xbd8b53e9	-0.06803114
48	0x3d8e19a8	0.06938487
49	0xbc5f090d	-0.013612998
50	0x3dac593e	0.08415459
51	0xbdae765e	-0.085186705
52	0x3db1bb87	0.08678346
53	0xbd84231d	-0.0645201
54	0xbd9162bd	-0.07098911
55	0xbd0e0cca	-0.034680165
56	0xbe28ae45	-0.16472729
57	0x3e2f51ab	0.17120998
58	0xbd8aebe8	-0.06783277
59	0x3e1110af	0.1416652
60	0xbd97468a	-0.07386501
61	0xbd6d70ec	-0.05796902
62	0xbcba2926	-0.0227247
63	0xbe03b7b1	-0.12863041
64	0xbd95efd7	-0.073211364
65	0x3c26e5b1	0.010186599
66	0x3db1d916	0.08683984
67	0x3c2c2f66	0.010509348
68	0x3db5549d	0.08854029
69	0xbd6bc16b	-0.057557505
70	0x3e1a9d6c	0.15099114
71	0x3ca5d7fc	0.020244591
72	0x3d4b6ba3	0.049663197
73	0xbe1464ef	-0.14491628
74	0xbd8aec02	-0.06783296
75	0x3d2fcfa0	0.042922616
76	0xbd41c6e5	-0.04730882
77	0xbd816d57	-0.06319683
78	0xbd0a7d72	-0.03381104
79	0x3dd7739d	0.10520098
80	0xbd997d13	-0.07494559
81	0xbda212d3	-0.07913747
82	0xbdaf47bd	-0.08558605
83	0x3c5bb3bf	0.013409554
84	0xbd7cb6de	-0.061697833
85	0x3de8ff4b	0.11376818
86	0x3d03c12a	0.032166637
87	0xbdfd4cd0	-0.123681664
88	0xbda7f4b4	-0.0820097
89	0x3d53f976	0.051751576
90	0x3d83ca5c	0.06435081
91	0x3d257356	0.040393196
92	0xbcb5acb9	-0.022177087
93	0xbdaba1c4	-0.08380464
94	0x3d399cbb	0.045315485
95	0xbe41399b	-0.18869631
96	0x3d9b7f67	0.075926594
97	0xbdc5b027	-0.09652739
98	0xbd5ecafa	-0.054392792
99	0xbcda9a96	-0.02668504
100	0x3dfd8976	0.12379734
101	0x3d5530b7	0.05204841
102	0x3d481b57	0.0488542
103	0xbd8173b1	-0.063208945
104	0x3e02d864	0.12777859
105	0xbd57959b	-0.05263291
106	0x3db448b2	0.08802928
107	0x3d8e9762	0.06962468
108	0x3d6b1646	0.05739429
109	0x3e2bc8ae	0.16775772
110	0x3daab303	0.08334925
111	0x3ca6d03c	0.020362966
112	0x3d9649db	0.073383056
113	0xbe276427	-0.16346799
114	0xbd4ea3b6	-0.050449096
115	0x3db2f993	0.08739009
116	0xbbc6db79	-0.0060686436
117	0xbd8b59f9	-0.0680427
118	0x3bf71e06	0.007541421
119	0xbe1d4440	-0.15358067
120	0x3bf6e830	0.007535003
121	0x3d16b2c5	0.03679158
122	0x3e28b4c2	0.16475204
123	0xbcd095b8	-0.025462016
124	0x3ddc96b3	0.10770931
125	0x3dcf7853	0.10130372
126	0xbe360908	-0.17776883
127	0x3d4ad80b	0.04952244
128	0x3c9914d5	0.018686691
129	0x3a871350	0.0010305438
130	0x3c48eb46	0.012263125
131	0xbd53e058	-0.051727623
132	0x3cf903bd	0.03039729
133	0x3dbc0108	0.09179884
134	0xbd1fe716	-0.03903874
135	0x3cf07676	0.029353362
136	0xbcf295a5	-0.029612372
137	0x3e31720f	0.17328666
138	0x3d1ef6c2	0.038809545
139	0xb9bd3311	-0.00036086937
140	0xbbc5ce8e	-0.006036586
141	0x3d1bf11b	0.038071733
142	0xbdd038e7	-0.10167103
143	0x3ca2ee15	0.019888917
144	0xbdd52664	-0.10407713
145	0x3cd3724b	0.025811335
146	0xbd400794	-0.046882227
147	0x3d068a82	0.032846935
148	0x3e03ee61	0.12883903
149	0x3d1b5839	0.037925933
150	0x3d81788e	0.06321822
151	0xbca8f6a3	-0.020625418
152	0xbc02024e	-0.00793512
153	0x3d93765c	0.0720031
154	0x3dfc3a90	0.123158574
155	0x3e07a298	0.13245618
156	0xbd4736b1	-0.048636142
157	0xbcd6c57b	-0.026217213
158	0xbda72f54	-0.08163324
159	0x3bb927cf	0.0056504975
160	0x3deb52ea	0.11490424
161	0xbcab3f3d	-0.020904178
162	0xbd5fce77	-0.05464026
163	0xbda9c7e6	-0.08290081
164	0xbda003e5	-0.07813243
165	0xbdd55f29	-0.10418541
166	0xbdba2c40	-0.09090471
167	0xbe33e8f8	-0.1756934
168	0x3d84c032	0.06481971
169	0xbcf96113	-0.030441796
170	0x3ddc9c4d	0.107719995
171	0xbc37a984	-0.011209849
172	0x3d00316b	0.03129713
173	0xbd0ae1f9	-0.03390691
174	0x3d679974	0.05654283
175	0x3dfa4348	0.12219864
176	0xbc882077	-0.016617043
177	0x3d7c9c93	0.06167276
178	0xbd9be5a7	-0.07612162
179	0x3d6b7d19	0.05749235
180	0x3cf60f70	0.030036658
181	0xbdc5a0a7	-0.09649783
182	0xbdcdde92	-0.100522175
183	0xbe104e37	-0.14092337
184	0xbdb1676f	-0.086623065
185	0xbda0d9e3	-0.078540586
186	0x3e192028	0.14953673
187	0x3daedb84	0.08537963
188	0x3d8efb31	0.06981505
189	0xbd180fae	-0.03712433
190	0xbc219552	-0.009862261
191	0x3ca73b4e	0.02041402
192	0xbc2de7e2	-0.010614367
193	0xbd7d0ae6	-0.06177797
194	0x3dafd5db	0.085857116
195	0x3e524052	0.20532349
196	0x3e73afbc	0.23797506
197	0xbdc3f055	-0.09567324
198	0xbd03d244	-0.032182947
199	0xbca37f8f	-0.019958286
200	0x3db2b3af	0.08725678
201	0xbe2c6440	-0.16835117
202	0xbdc3658b	-0.09540852
203	0xbd313fd7	-0.043273773
204	0x3d588c16	0.05286797
205	0xbdefee44	-0.117153674
206	0x3cce1d7a	0.02516054
207	0x3d800b59	0.062521644
208	0x3ce9ca67	0.028538896
209	0xbc862ee5	-0.016379783
210	0x3d882446	0.066475436
211	0x3e1ee330	0.15516353
212	0xbcace862	-0.021106903
213	0x3cec7be2	0.028867666
214	0xbdbf98d0	-0.093553185
215	0x3a2ecb23	0.0006667843
216	0x3a709525	0.00091774977
217	0x3ce75ffd	0.028244013
218	0x3d37517d	0.044755448
219	0x3d11560e	0.03548246
220	0x3c9bfbe8	0.019041017
221	0xbde2b345	-0.11069349
222	0x3e1926d1	0.14956214
223	0xbcc602a8	-0.024171188
224	0x3cb19691	0.021678241
225	0xbdae65b6	-0.085154936
226	0xbde27f87	-0.1105948
227	0xbda13f1f	-0.078733675
228	0xbc407876	-0.01174747
229	0x3c394b35	0.011309435
230	0xbdb00ac9	-0.08595807
231	0xbd5a8b69	-0.053355608
232	0xbda53ead	-0.08068595
233	0xbde6a0e6	-0.11261158
234	0x3c1d61b1	0.009605811
235	0x3d68b793	0.056815695
236	0xbdd01cd6	-0.1016175
237	0xbc0e4cd9	-0.008685314
238	0xbdee0d69	-0.116236515
239	0x3da086f8	0.07838243
240	0x3e467e0c	0.1938402
241	0x3be75dac	0.007060727
242	0xbdd94795	-0.10609356
243	0xbe17c14e	-0.14819834
244	0x3ddeca31	0.10878409
245	0xbbd99f71	-0.0066413213
246	0xbe5781dd	-0.21045633
247	0xbd55f576	-0.052236043
248	0xbde9fb20	-0.114248514
249	0x3c8855c0	0.016642451
250	0x3d7b5ca3	0.061367642
251	0xbdc05903	-0.09391978
252	0x3d94314e	0.072359666
253	0xbc1f5da8	-0.009726919
254	0x3d99d08f	0.075104825
255	0x3e28e9a4	0.16495377

network_body._body_endoder.seq_layers.2.bias f4 [142]
0	0x3c440392	0.011963742
1	0x3cc0b2ba	0.023522723
2	0xbab91ac9	-0.0014122362
3	0x3c6f5ce7	0.014609552
4	0x3c993dfb	0.018706312
5	0xbbaafda0	-0.0052182227
6	0xbbbf2c8f	-0.005834169
7	0x38f75662	0.00011793968
8	0x3b1dd2a0	0.002408184
9	0xbc1f40b9	-0.009720021
10	0xbc028898	-0.007967137
11	0x3ab169b7	0.0013535534
12	0x3bb4f68b	0.0055225543
13	0x3c74ef97	0.014949701
14	0x3b6ce974	0.003614989
15	0xbbf36ba1	-0.007428602
16	0x3a18f2a6	0.0005834497
17	0xbc03d3dd	-0.008046118
18	0xbbbda766	-0.0057877777
19	0xbbe4664b	-0.006970202
20	0x3b994780	0.004677713
21	0xb9966d76	-0.00028691784
22	0x3c46a1bc	0.012123521
23	0x3c478451	0.012177543
24	0x3beb190c	0.0071746167
25	0xbbebdbf7	-0.0071978527
26	0x3c4c5dd2	0.01247354
27	0x3a0ccbea	0.0005370962
28	0x3c355aef	0.011069044
29	0xbb162526	-0.0022910326
30	0xba433a29	-0.0007447326
31	0x3c082707	0.008310086
32	0x3c1129ba	0.008860046
33	0x3c5adbcb	0.013358067
34	0x3b44ba53	0.0030018284
35	0x3b3d8342	0.0028917347
36	0x3c331b82	0.010931851
37	0xbbbb858c	-0.005722707
38	0x3c533fdd	0.012893644
39	0xbbbf8b48	-0.005845461
40	0x3ae5b5dc	0.0017525512
41	0x3c201b88	0.009772189
42	0x3b07e1bd	0.0020733916
43	0x3c012a19	0.007883572
44	0xbb9a35c0	-0.0047061145
45	0xbb15a9de	-0.0022836844
46	0x39370d0d	0.00017457102
47	0xbc0c991e	-0.008581428
48	0x3be0f106	0.0068646697
49	0xbae80f64	-0.0017704782
50	0x3c8d3507	0.0172372
51	0x3b65652d	0.0035002932
52	0x3cb85dba	0.02250563
53	0x3b6ff455	0.003661414
54	0x3ad1df56	0.0016011994
55	0x3b322caa	0.0027187266
56	0xbba40366	-0.005005288
57	0xbbc4531b	-0.0059913523
58	0x3b42af41	0.002970651
59	0x3bd2e2f2	0.0064357454
60	0x3c2159ad	0.0098480405
61	0xba4435df	-0.0007484834
62	0x3b8da7a2	0.004322962
63	0x3c27f390	0.010250941
64	0x3c5a8d9d	0.013339427
65	0xbbb40da2	-0.005494789
66	0xbbd91a5e	-0.0066254577
67	0x3ba80c0d	0.0051283897
68	0x3c3664c1	0.01113242
69	0x3bc6e65b	0.006069941
70	0x3c57feef	0.0131833395
71	0xbc60883e	-0.013704358
72	0x3bfa56c5	0.0076397383
73	0xbc3ad82a	-0.011404077
74	0x3bb8787e	0.005629598
75	0x3abba98e	0.0014317499
76	0xbc05a911	-0.008157984
77	0x3b8d39a5	0.0043098503
78	0x3c48d1a3	0.012257013
79	0x3b049761	0.002023183
80	0x3afd61ec	0.0019331551
81	0xbb19305b	-0.002337477
82	0x3c010919	0.007875704
83	0x3b972106	0.004612091
84	0xbc0d5c59	-0.008627974
85	0xbb39dec0	-0.002836153
86	0x3c58830e	0.01321484
87	0x3b859720	0.0040768534
88	0x3b2eeb3f	0.002669051
89	0x3cad78fe	0.021175858
90	0x3ca0586a	0.01957341
91	0xbb110e08	-0.0022133607
92	0xbbaec987	-0.0053340825
93	0xbaef1602	-0.0018240812
94	0x3bf67e01	0.007522345
95	0xba4a9cc3	-0.0007729048
96	0x3909d746	0.00013145534
97	0x3cd3d5ec	0.025858842
98	0xba29ce4c	-0.0006477579
99	0x3c3abe7c	0.011397954
100	0x3c16e0f2	0.009208905
101	0xbb452a24	-0.0030084932
102	0xbb6ee509	-0.0036452434
103	0xbc23c343	-0.0099952845
104	0x3bf5a00c	0.0074958857
105	0xbbf86cca	-0.007581328
106	0x3b8e71a6	0.004347044
107	0x3bda2805	0.0066576027
108	0x3b948b06	0.0045331744
109	0x3bae0c32	0.0053115124
110	0x3b01c191	0.0019799212
111	0x3c1e6387	0.009667284
112	0x3c85aa1f	0.016316472
113	0x3c33ff9a	0.010986233
114	0xbc420254	-0.011841375
115	0x3c0e94bb	0.008702452
116	0xbb9cecb0	-0.0047889575
117	0xbad8b6ab	-0.0016533931
118	0x3ad9388e	0.0016572641
119	0x3ba84a29	0.0051357937
120	0xbbd6c313	-0.0065540164
121	0x3d0d04c8	0.034428388
122	0x3c002755	0.0078218775
123	0xbb82c964	-0.003991293
124	0x39aaa996	0.00032551278
125	0x3cd0372f	0.025416939
126	0x3a0667da	0.00051271694
127	0x3b985b8c	0.004649585
128	0x3bfed2e6	0.007776606
129	0xbbe4c918	-0.00698198
130	0xbb289737	-0.0025724897
131	0x3c32f128	0.010921754
132	0x3bc8056b	0.0061041615
133	0x3bc14b27	0.0058988514
134	0xb99940c8	-0.000292307
135	0x3b08b764	0.0020861262
136	0xbb485d4c	-0.0030573187
137	0x38c6f18e	9.486369e-05
138	0x3be9de96	0.00713713
139	0x3b5da3b9	0.003381951
140	0x3ce36569	0.027758317
141	0xbb6fdc40	-0.0036599785

action_model._discrete_distribution.branches.0.weight f4 [13, 142]
0	0xbb1c4d45	-0.0023849767
1	0xbcf23b83	-0.029569393
2	0x3c01dcb9	0.00792616
3	0xbc02d6a7	-0.007985747
4	0xbabb0aa4	-0.0014270139
5	0x3bd12f60	0.0063838214
6	0xba2d0ac1	-0.0006601029
7	0x3bef4396	0.007301758
8	0xbc4e1f67	-0.012580729
9	0xbaac6e56	-0.0013155441
10	0xbc03e7cf	-0.008050873
11	0xbc2037a0	-0.009778887
12	0xbc3be0ed	-0.011467201
13	0xbcb2e1fb	-0.021836272
14	0x3b9b1b58	0.0047334842
15	0x3c3c8991	0.011507408
16	0x3c6a5e49	0.014304706
17	0x3c50d512	0.012746112
18	0xb8bd86ab	-9.037306e-05
19	0x3c0f37fd	0.008741376
20	0xbbde1ace	-0.0067780977
21	0xbbe27f20	-0.006912127
22	0xbb276266	-0.0025540828
23	0xbd010322	-0.03149713
24	0x38d58f6c	0.00010183346
25	0x3c6ff5a8	0.014645971
26	0x3cd38f73	0.025825238
27	0xbc2ac57e	-0.010423062
28	0x3c84ab2d	0.016194904
29	0x3c2a5f8a	0.010398755
30	0xbc5dfadf	-0.013548582
31	0xbc44d41a	-0.01201346
32	0x3ad4c255	0.0016232232
33	0x3bf5b582	0.007498444
34	0xbcc9db76	-0.02464078
35	0xbc88678f	-0.016650943
36	0x3c8762b2	0.016526554
37	0xbca0dd0c	-0.019636653
38	0xb9a94732	-0.00032287237
39	0x3b91ccec	0.0044494774
40	0x3c5d1fab	0.01349632
41	0xbcf40f46	-0.02979244
42	0xbc77f620	-0.015134364
43	0x3880d2c0	6.142771e-05
44	0xbc412fa2	-0.011791142
45	0x3b9e00d8	0.004821878
46	0x3b0df192	0.002165888
47	0xbb06167d	-0.0020460181
48	0x3c518236	0.012787392
49	0xbcb7dadd	-0.02244323
50	0x3c65b663	0.014020535
51	0xbcac2919	-0.02101569
52	0x3c28e780	0.0103091
53	0xba82163c	-0.0009924839
54	0x3ca32042	0.019912843
55	0x3aa587a8	0.001262893
56	0xbc8ffc58	-0.017576382
57	0x3bedd19e	0.0072576543
58	0x3c7fb84d	0.015607906
59	0xba75bd40	-0.0009374209
60	0x3c0f6afb	0.0087535335
61	0xbc6a87c9	-0.0143146
62	0x3cc9abfc	0.024618141
63	0x3bf2aced	0.0074058683
64	0xb96e491e	-0.00022724687
65	0x3c1ccaa3	0.009569797
66	0xbcbd9ca2	-0.023145977
67	0x3c5b12aa	0.013371149
68	0xbb5fdaea	-0.0034157583
69	0xbc9afab6	-0.018918376
70	0x3cba9694	0.02277688
71	0xbc07cad7	-0.008288107
72	0x3c8f3413	0.017480886
73	0xbc18121b	-0.00928166
74	0xbd020fb4	-0.031753257
75	0x3bb9040e	0.0056462353
76	0xbb994403	-0.004677297
77	0x3be262cd	0.0069087506
78	0xbc9c871e	-0.019107398
79	0xbce9ffc4	-0.028564341
80	0xbb7a67e8	-0.0038208906
81	0x3c43a40b	0.011940966
82	0x3ca9a840	0.02071011
83	0xbc91834d	-0.017762804
84	0xbc88451d	-0.016634518
85	0x3c2fc082	0.01072705
86	0x3c279cbc	0.0102302395
87	0xbc430371	-0.011902676
88	0x3b18571c	0.002324528
89	0xbc9cfc68	-0.019163325
90	0xbcb314ca	-0.021860499
91	0x3b7b57d7	0.0038351917
92	0xbc95d7f5	-0.018291453
93	0x3ba8a758	0.005146902
94	0xbc460060	-0.01208505
95	0xbb36eb34	-0.0027911188
96	0x3c503636	0.012708237
97	0x3c606b96	0.0136975255
98	0xbb6dd838	-0.0036292206
99	0x3c146d67	0.009059287
100	0xbac5ff16	-0.0015105929
101	0xbc50369d	-0.012708333
102	0x3c02c6cc	0.007981967
103	0x3b7c77d9	0.0038523583
104	0x3b0984a5	0.0020983603
105	0x3ca86632	0.020556543
106	0xbcb3f87d	-0.021969074
107	0xbc80f341	-0.015740993
108	0x3bc60547	0.0060431096
109	0xbd0742a1	-0.033022527
110	0x3c59778c	0.013273131
111	0x3be47a1d	0.006972565
112	0xbc949312	-0.018136535
113	0x3c88d9a3	0.01670534
114	0xbaa9642c	-0.001292353
115	0xbb3feff4	-0.002928731
116	0xbc05a3bd	-0.008156714
117	0x39269bda	0.00015889053
118	0x3c6ba3d3	0.01438232
119	0x3c14ec39	0.009089523
120	0xbc9fdeff	-0.019515513
121	0xbba738fc	-0.0051032286
122	0xbbc4b2e9	-0.006002773
123	0xbbfe7772	-0.007765704
124	0xbcc5fdd9	-0.024168896
125	0xbca07b8c	-0.019590162
126	0xbb9fb6d2	-0.004874089
127	0xbb39738a	-0.0028297626
128	0xbba94cc9	-0.005166624
129	0xbc2b1627	-0.010442293
130	0x3ba44f2a	0.00501432
131	0x3bd2c3a4	0.0064320136
132	0xbc0c4bc7	-0.008562989
133	0xbb9ea0ef	-0.004840962
134	0x3a9c7ca9	0.0011939007
135	0xbc88ec70	-0.016714305
136	0xbbfeea6f	-0.0077794115
137	0xbab6d4ce	-0.0013948919
138	0xbccdeda0	-0.025137722
139	0xbc6969b5	-0.014246394
140	0x3ce0083f	0.027347682
141	0xbbccdecc	-0.0062521454
142	0x3cb77ff6	0.022399884
143	0x3c4bc5aa	0.0124372635
144	0x3b6a4c40	0.0035751015
145	0xbcdbe8ff	-0.0268445
146	0xbadbd3d0	-0.0016771499
147	0x3a86d498	0.0010286747
148	0x3b2064ec	0.0024474217
149	0x3c5d5e17	0.013511202
150	0xba0bf48f	-0.0005338871
151	0x3bad77e4	0.005293833
152	0xbb09c799	-0.002102351
153	0x3c051d02	0.008124592
154	0x3bf379bd	0.007430284
155	0xbc4aee7b	-0.01238596
156	0x3c4a0915	0.012331267
157	0x3b433e63	0.0029791824
158	0xbc3cd82b	-0.011526148
159	0xbadead67	-0.0016988934
160	0xbc15f06a	-0.009151557
161	0x3ad90d8f	0.0016559827
162	0x3aabab64	0.0013097343
163	0xbc06111c	-0.00818279
164	0xbcd4929c	-0.025948815
165	0xbc8636ce	-0.016383555
166	0x3c00b46c	0.007855516
167	0x3b691527	0.0035565586
168	0x3bfc4603	0.0076987757
169	0xbb80799d	-0.0039207474
170	0xbbaaf48a	-0.0052171396
171	0x3c28ea2e	0.010309739
172	0x3c5a821a	0.013336683
173	0x3b8c3c76	0.0042796684
174	0x3c42fcc4	0.011901084
175	0x3ae9878b	0.0017816884
176	0x3c8631a4	0.016381092
177	0xbc283e3c	-0.010268744
178	0xb9c6058b	-0.00037769633
179	0xbc2043b1	-0.009781764
180	0x3c0c4b73	0.00856291
181	0xb9ab01c4	-0.00032616977
182	0x3a2c9543	0.0006583521
183	0x3caa9e63	0.020827478
184	0xbc7bbd24	-0.015364919
185	0x3c7d1b29	0.01544837
186	0xbbdb6a6a	-0.006696035
187	0x3c519a7b	0.012793179
188	0xbbd481b3	-0.006485188
189	0x3b6ae878	0.0035844129
190	0xbb6c5bcb	-0.0036065455
191	0x3acaa76c	0.0015461273
192	0xbc16ea33	-0.009211111
193	0x3c86f218	0.016472861
194	0xbc790309	-0.015198478
195	0xbb86ba48	-0.004111562
196	0x3cc38f3e	0.023872014
197	0x3c28b703	0.01029754
198	0x3c060471	0.00817977
199	0xbbed6ebb	-0.007245866
200	0x3c80f3cd	0.015741253
201	0x3cc62b20	0.024190485
202	0xbc61a6a1	-0.013772638
203	0x3a4033bf	0.00073319295
204	0x3bfb3dc9	0.0076672775
205	0xbc88758a	-0.01665761
206	0xbc87cf0a	-0.016578216
207	0xbb439688	-0.0029844362
208	0x3cc78fff	0.024360655
209	0xbc79fefe	-0.015258549
210	0x3c9259c7	0.017865075
211	0xbc191473	-0.009343254
212	0x3b6ed87c	0.0036444953
213	0x3c2667c9	0.01015658
214	0xbd01ed6a	-0.031720556
215	0x3b8a1079	0.0042133895
216	0x3cdc12e7	0.026864482
217	0x3bb544d1	0.005531885
218	0xbad3a6b0	-0.0016147699
219	0xbb3202ab	-0.0027162235
220	0x3c603688	0.013684876
221	0x3d03d692	0.032187052
222	0xbc6c9434	-0.014439631
223	0x3cc4e65e	0.024035629
224	0xbcae995e	-0.021313366
225	0xbc59dc2c	-0.013297122
226	0x3c97422b	0.018464169
227	0x3b91fbf9	0.0044550863
228	0x3cb1be5c	0.021697216
229	0x3c177e99	0.009246492
230	0xbc9b5a0b	-0.018963834
231	0xbc20d961	-0.009817452
232	0x3b771bdd	0.0037705817
233	0x3b864f12	0.0040987814
234	0xbb2aa4f7	-0.0026038268
235	0x399e4ce2	0.0003019339
236	0x3c74e87f	0.0149480095
237	0xbb2d2555	-0.0026419957
238	0xbad7a84e	-0.0016453357
239	0x3ca74f5b	0.020423582
240	0xbbad249f	-0.0052839066
241	0x3be538e6	0.006995308
242	0x3c2831d5	0.010265787
243	0x3bf0a90e	0.0073443716
244	0xbc01376f	-0.007886752
245	0x3ca065ab	0.019579729
246	0x3adf6e53	0.0017046429
247	0xbbfe166b	-0.0077541373
248	0x3ca33855	0.019924322
249	0x3c0de2af	0.008660003
250	0x3a8fcadf	0.0010970494
251	0x3cceecd2	0.02525941
252	0xbca8ab62	-0.020589534
253	0xbaeff5d3	-0.0018307514
254	0xbcae4e1c	-0.02127748
255	0x3c2f0336	0.010681918

action_model._discrete_distribution.branches.0.bias f4 [13]
0	0xbb15f8f1	-0.0022883976
1	0x3b6a4bdb	0.003575078
2	0x3b9bb6c5	0.0047520124
3	0xbaf98feb	-0.0019040083
4	0xbb9026b1	-0.0043991436
5	0xbbda6b75	-0.006665642
6	0x3b562a07	0.003267886
7	0x3c173cef	0.009230836
8	0xbc4e95d3	-0.012608963
9	0x3bc89ae1	0.0061219786
10	0x3c063530	0.008191392
11	0xbc8149bc	-0.01578223
12	0x3ba7ef57	0.005124967

action_model._discrete_distribution.branches.1.weight f4 [13, 142]
0	0x3c915236	0.017739397
1	0x3ca28bed	0.019842112
2	0x3bc2c6c5	0.0059441053
3	0x3b8586a3	0.004074888
4	0x3b543125	0.0032377925
5	0xbb8b5bab	-0.004252871
6	0x3b4144eb	0.0029490541
7	0xbc469697	-0.012120864
8	0xbbb4b777	-0.005515035
9	0x3b123a26	0.0022312491
10	0x3a618c44	0.000860397
11	0x3c17a962	0.009256693
12	0xbbcc70a1	-0.0062390123
13	0x3b8be11d	0.004268779
14	0x3bc27cc4	0.0059352834
15	0xbabf3bb2	-0.0014589934
16	0x3cc7cc88	0.02438952
17	0x3c50e09d	0.0127488645
18	0x3bb1c9c0	0.005425662
19	0xbbce4f3c	-0.0062960666
20	0xbc590ef7	-0.013248197
21	0xbbfe68b0	-0.0077639446
22	0xbbfd1ece	-0.0077246195
23	0xbc9e1ae3	-0.01929993
24	0xbbae53ad	-0.0053200335
25	0x3c8267b8	0.015918598
26	0x3ba5cdfa	0.0050599547
27	0x3a40c29f	0.00073532196
28	0x3c108dec	0.008822899
29	0xba30c1a1	-0.000674272
30	0xbc89d3a0	-0.016824543
31	0xbc52d569	-0.012868264
32	0x3c0eb880	0.00871098
33	0xbbc5704a	-0.006025349
34	0xbc8e2e52	-0.017356072
35	0x3b9bab5c	0.0047506522
36	0x3c8c0743	0.017093306
37	0xbb4549f4	-0.0030103894
38	0xbcc15fa6	-0.023605179
39	0x3bb33395	0.0054687955
40	0xbbef4393	-0.0073017566
41	0xbcbb0abc	-0.022832267
42	0xbc1a0120	-0.009399682
43	0xbb7a25cd	-0.0038169504
44	0xba64fd89	-0.00087352894
45	0xb98318dc	-0.0002500479
46	0x3bbd8d5d	0.005784674
47	0xbba96578	-0.0051695667
48	0x3c626fee	0.013820631
49	0xbc85df1c	-0.016341738
50	0x3bc47e33	0.0059964894
51	0x3ca3aa50	0.019978672
52	0xbb64acb9	-0.003489299
53	0xbb789e59	-0.003793618
54	0x3c4ed819	0.012624764
55	0xbc966224	-0.018357344
56	0xbc463021	-0.012096436
57	0xb7118102	-8.6727105e-06
58	0x3b528784	0.003212423
59	0xbcd24414	-0.025667228
60	0x3c469c4f	0.012122228
61	0x3b6f5765	0.0036520597
62	0x3bd28e27	0.0064256373
63	0x3caa5297	0.020791335
64	0x3be6e8a3	0.0070467754
65	0x3c9b8d29	0.018988209
66	0xbbdb0eb7	-0.0066851038
67	0x3afb971e	0.0019194817
68	0x3c384c19	0.011248612
69	0x3bb5a7b3	0.005543673
70	0x3c5f1a16	0.013617059
71	0xbcd0213e	-0.025406476
72	0xbb6b28ea	-0.003588254
73	0xbc0ebf82	-0.008712651
74	0x3be352ec	0.0069373753
75	0xbb7b77f6	-0.0038371063
76	0x39db8e88	0.0004187713
77	0x3bd5e8ec	0.0065280106
78	0x3bc29b34	0.005938912
79	0xbc866449	-0.016405242
80	0xbc82f17e	-0.015984293
81	0x3a8dd37b	0.0010820472
82	0x3c48ead9	0.012263023
83	0xbbde30be	-0.006780713
84	0xbc198dd8	-0.009372197
85	0x3abc07cc	0.0014345585
86	0xbcc6de81	-0.02427602
87	0x3bd7350d	0.0065676034
88	0x3ab36b00	0.0013688505
89	0x3b0df7d5	0.0021662612
90	0x3c97cf6d	0.018531526
91	0x3b86de8b	0.0041158847
92	0xbbcf7b2f	-0.0063318233
93	0xbc312810	-0.010812774
94	0x3b2e1989	0.0026565513
95	0x3b275c19	0.0025537072
96	0x3c0a7fd2	0.008453326
97	0x3c52c029	0.012863197
98	0x3c7147b0	0.014726564
99	0xbc797504	-0.015225653
100	0xbc0b431e	-0.008499889
101	0xbcb0e4f5	-0.02159355
102	0x3c1f331f	0.009716778
103	0x3cba2edc	0.022727422
104	0xbc80df09	-0.015731351
105	0x3c17ed13	0.0092728315
106	0x3bd4129f	0.0064719464
107	0xbc0e4c71	-0.008685217
108	0xbc088e62	-0.008334728
109	0xbc97a6ef	-0.018512217
110	0x3c477ec4	0.012176219
111	0x3caca7bf	0.021076081
112	0x3c955caa	0.018232662
113	0xbc527ee4	-0.012847636
114	0x3be0dff8	0.0068626367
115	0xbc26b758	-0.0101755485
116	0xbca64870	-0.020298213
117	0x3b3af0b2	0.0028524813
118	0xbc3708cd	-0.011171532
119	0xbc4da70d	-0.012552035
120	0xbbb80399	-0.0056156632
121	0x3cc8f125	0.02452905
122	0x3c5928e0	0.013254374
123	0x3c4c34a1	0.01246372
124	0x3993374e	0.0002807923
125	0xba33a56f	-0.00068529596
126	0xbc757524	-0.014981542
127	0xbca47961	-0.02007741
128	0x3bf4f1e2	0.0074751237
129	0xbc427ebc	-0.011871036
130	0x3cacae63	0.021079248
131	0x3ca0ce0f	0.019629506
132	0x3bb520b6	0.005527581
133	0xbc2bffbd	-0.0104979845
134	0x3c953532	0.018213842
135	0x3c8acc12	0.016943011
136	0xbba57eb2	-0.0050505036
137	0xbbe0c718	-0.0068596713
138	0x3c27731f	0.010220318
139	0xbcc6601b	-0.024215749
140	0xbc98be11	-0.018645318
141	0x3c75afce	0.014995528
142	0xbc5f48d0	-0.0136282
143	0x3ca28706	0.019839775
144	0x3cc4d9f1	0.024029704
145	0xbc92437e	-0.017854448
146	0x3baec022	0.0053329626
147	0xba6bf114	-0.0009000462
148	0x3a4a0762	0.00077067886
149	0xbc771dfc	-0.015082832
150	0x3b3a31d8	0.0028411057
151	0xbbbb5839	-0.005717304
152	0x3aa1fcc1	0.0012358652
153	0xbc4ad8a3	-0.012380752
154	0x3b2f56c4	0.0026754597
155	0xbb974db3	-0.0046174168
156	0x3c400232	0.011719273
157	0x3c15ac6c	0.009135347
158	0xbafe7f6a	-0.0019416634
159	0xbbcf5612	-0.006327399
160	0xbb87d01d	-0.004144682
161	0x3bf95bf5	0.007609839
162	0x3cabbd76	0.020964365
163	0xb9d13def	-0.0003990973
164	0xbb28b1ba	-0.00257407
165	0x3cfe483e	0.031040307
166	0xbbfd554f	-0.007731117
167	0xbb4d0617	-0.0031284147
168	0xbca28479	-0.019838559
169	0x3be952a6	0.007120448
170	0x3cf8d5a0	0.030375302
171	0x3b75b1f8	0.003749011
172	0xba92f6fc	-0.0011212523
173	0xbc036166	-0.008018827
174	0xbcb199ab	-0.02167972
175	0x3b8d55de	0.0043132147
176	0xbb204b6c	-0.0024459017
177	0xbb0e1d02	-0.002168477
178	0x3c2b44fd	0.01045346
179	0xbc799885	-0.015234117
180	0xbcc89b13	-0.024488008
181	0xbbedab2b	-0.007253071
182	0x3a3aa0f3	0.000711932
183	0x3cbc1a20	0.022961676
184	0xbc84d591	-0.016215118
185	0xbbdd99e8	-0.006762732
186	0x3b5087ca	0.0031819218
187	0x3904575b	0.00012621043
188	0xbc4ea81c	-0.012613323
189	0xbba1a29f	-0.004932716
190	0x3a6b6caf	0.00089807337
191	0x3c552e42	0.013011517
192	0xb9aec907	-0.00033337643
193	0xbc84d2b7	-0.016213758
194	0xbc491059	-0.012271964
195	0xbcdbdce6	-0.026838731
196	0xba453aca	-0.0007523714
197	0x390a4de5	0.00013189724
198	0xbb0e3853	-0.0021701052
199	0xbc6e06dd	-0.0145280035
200	0x3c11382b	0.008863489
201	0xbb900e36	-0.0043962253
202	0xbc27f8f9	-0.010252231
203	0xbacb9790	-0.001553284
204	0xbaa80c11	-0.0012820979
205	0x3bd22279	0.006412801
206	0x3b9956ba	0.004679528
207	0x3c179d46	0.0092538055
208	0xbc95dda4	-0.018294163
209	0xbc18bc08	-0.009322174
210	0xbc872e2a	-0.016501505
211	0xbba7d48e	-0.005121774
212	0xbc8054b9	-0.015665399
213	0x3b98ce10	0.0046632364
214	0xbc2e8357	-0.010651431
215	0x3c2b777d	0.0104655
216	0xbceb60d4	-0.028732695
217	0xbbb50da0	-0.005525306
218	0xbbc8fa40	-0.0061333477
219	0x395d79bb	0.0002112155
220	0x3c4ed179	0.012623184
221	0xbb8b6e77	-0.004255112
222	0xbc2a08d8	-0.010378085
223	0x3c0696e1	0.008214683
224	0x3a7074f3	0.00091727
225	0xbcaba10e	-0.02095082
226	0xbc98956b	-0.018625936
227	0x3b965167	0.0045873406
228	0x3b17f8b5	0.0023189012
229	0x3c27fac9	0.010252663
230	0xbc7d2e1f	-0.015452891
231	0xbb51ae7c	-0.003199487
232	0x3cab7ef2	0.020934556
233	0xbcf05f27	-0.029342247
234	0xbb04782b	-0.0020213227
235	0x3c295144	0.010334317
236	0x3bf144eb	0.007362952
237	0xbc56e909	-0.013117083
238	0xbb5c379f	-0.0033602489
239	0x3cac640e	0.021043804
240	0xbbf3ea83	-0.0074437275
241	0x3cc791ad	0.024361456
242	0xbc32b6c2	-0.010907831
243	0xbaec2f34	-0.0018019439
244	0x3c436e17	0.011928103
245	0xbc89f7a3	-0.016841715
246	0xbc034bf5	-0.008013715
247	0x3c67deed	0.014152271
248	0xba8ba79e	-0.0010654812
249	0x3cc7993d	0.024365062
250	0xbbe24489	-0.0069051427
251	0xbc548c5b	-0.0129729165
252	0x3b58eba8	0.0033099446
253	0x3c3698ea	0.011144856
254	0x3c996f19	0.018729733
255	0xbbdfaf8d	-0.006826347

action_model._discrete_distribution.branches.1.bias f4 [13]
0	0xbb4c39c0	-0.0031162351
1	0xbbe7d515	-0.007074962
2	0xbbea3685	-0.0071476125
3	0x3b44591a	0.0029960335
4	0x3ab8f229	0.0014110255
5	0xbb672ffc	-0.0035276404
6	0x3b9e5638	0.0048320554
7	0xbc0bf885	-0.008543138
8	0xba8e45c1	-0.0010854529
9	0xbb821b29	-0.003970523
10	0x3c4401b3	0.011963296
11	0x3c2da1df	0.010597675
12	0xbbcdf6e3	-0.0062855347

action_model._discrete_distribution.branches.2.weight f4 [13, 142]
0	0x3c9ae269	0.018906789
1	0xbc9e6b94	-0.019338407
2	0xbc2139fb	-0.009840484
3	0x3c5bf0d1	0.013424114
4	0x3ba352d4	0.004984239
5	0xbb2f3329	-0.0026733375
6	0x3bd5c61b	0.00652386
7	0xbb3541da	-0.0027657659
8	0x3a7a983f	0.00095594296
9	0x3c756078	0.014976613
10	0x3c5ad30e	0.013355983
11	0xbc1fb520	-0.009747773
12	0x3c82dfbb	0.015975824
13	0xbc6cfe2d	-0.014464897
14	0xbca76aa6	-0.020436596
15	0xbcbf9d2a	-0.023390371
16	0xbbd2c074	-0.0064316336
17	0x3bae17a9	0.005312879
18	0xbbcc53cc	-0.0062355753
19	0x3c4c490d	0.012468589
20	0x3c791f02	0.015205147
21	0x3c9fc265	0.019501874
22	0xba14c072	-0.00056744285
23	0xbc1dd43a	-0.009633118
24	0xbc4061c4	-0.011742059
25	0x39951075	0.00028431756
26	0x3cb172a4	0.02166111
27	0x3bb66518	0.0055662505
28	0xbc310b0d	-0.010805857
29	0xbbbea758	-0.005818289
30	0x3c526c3e	0.01284319
31	0x3d0607ca	0.032722272
32	0x3c66b39f	0.014080911
33	0x3cf02624	0.029315062
34	0x3ca2e2d6	0.019883554
35	0x3c475ba3	0.012167844
36	0x3cc94ccc	0.024572752
37	0xbbfe2c15	-0.00775672
38	0x3bf7bb41	0.007560164
39	0x3bc7768e	0.006087131
40	0x3c6250e1	0.013813228
41	0xbcaa37bc	-0.02077853
42	0xbc1bb935	-0.009504606
43	0xbc19efdb	-0.009395565
44	0xbc1bd4a8	-0.00951115
45	0x3ced4ca3	0.028967207
46	0xbbde23ee	-0.0067791855
47	0x3be7b96f	0.007071666
48	0x3c9c90a1	0.019111933
49	0x3c59b670	0.013288125
50	0x3c8dcbac	0.017309032
51	0xbcc04b0b	-0.023473283
52	0x3c93476a	0.017978389
53	0xbb99ba89	-0.004691426
54	0xbac65d05	-0.0015133923
55	0xbbf8ca65	-0.0075924867
56	0x3c427fe1	0.011871309
57	0xbbce169d	-0.006289317
58	0x3cae9d7c	0.021315329
59	0x3cb07396	0.02153949
60	0x3c79fbe9	0.015257814
61	0x3cf338da	0.029690195
62	0xbbe8b61c	-0.0071017873
63	0x3bec87ed	0.007218352
64	0x3ab6cd41	0.0013946668
65	0x3ba5190e	0.005038387
66	0x3b990312	0.0046695555
67	0x3be1a329	0.0068859053
68	0x3c058d64	0.008151386
69	0x3d08148d	0.033222724
70	0x3d08d5e9	0.033407126
71	0xbc3fd3ab	-0.01170818
72	0xbb618ea5	-0.0034417298
73	0xbc07b025	-0.008281742
74	0x3c25ba55	0.010115226
75	0x3bf79e8b	0.0075567416
76	0xbb5b31bd	-0.0033446394
77	0x3cb92d7c	0.022604696
78	0xbcca791f	-0.024715958
79	0x3d0d2e3e	0.034467928
80	0x3c81f9bc	0.015866153
81	0x3b168c1d	0.0022971698
82	0xbc0fe4ee	-0.008782608
83	0xbc4204e2	-0.0118419845
84	0x3d23fd2e	0.040036373
85	0xbb97f317	-0.004637133
86	0x3d24c7ff	0.040229794
87	0x3c82c6a6	0.015963864
88	0x3b1f3495	0.0024292816
89	0x3bc16fac	0.005903205
90	0x3c83a603	0.016070371
91	0x3bb7b131	0.0056058397
92	0x3a0c5948	0.000535388
93	0x3ca55f99	0.020187186
94	0xbbceb846	-0.006308588
95	0x3c59757d	0.01327264
96	0xbae1a483	-0.0017215166
97	0xbc48b398	-0.01224985
98	0xbc1e3a9a	-0.009657526
99	0x3c2663ec	0.010155659
100	0xbc1cc70a	-0.009568939
101	0xbc5e36a4	-0.013562832
102	0xbb57d7ac	-0.0032934947
103	0xbc041adc	-0.008063044
104	0x3c6ab0c8	0.0143243745
105	0xbbf7f803	-0.007567407
106	0x3ca151b5	0.019692281
107	0xbc14f2f5	-0.009091129
108	0xbcd01a34	-0.02540312
109	0x3c5c069d	0.013429311
110	0x3af24cfa	0.0018486076
111	0x3c998778	0.018741354
112	0xbcc06a3c	-0.023488156
113	0x3cd00f68	0.025397971
114	0x3c1358eb	0.008993368
115	0xbc91734d	-0.017755175
116	0x3b1d72d8	0.002402475
117	0xbc2b08ec	-0.010439139
118	0x3c016507	0.007897622
119	0xbb80b86f	-0.003928236
120	0x3c305202	0.01076174
121	0xbd0e8caf	-0.034802135
122	0x3c8392ab	0.016061148
123	0xbc2787d1	-0.010225252
124	0xbc8fc87c	-0.017551653
125	0xbcccaef6	-0.024985772
126	0x3c960a25	0.018315384
127	0x3c13c9bb	0.009020264
128	0xbc6d837d	-0.014496681
129	0x3b746251	0.0037290046
130	0x39ed8cbe	0.00045309024
131	0xbb96b20e	-0.0045988625
132	0xba0c5da2	-0.00053545285
133	0x3c2b69cf	0.010462238
134	0x3c086f1f	0.008327275
135	0x3ba72e25	0.0051019364
136	0x3b10178d	0.0021986694
137	0xba3aa5ac	-0.0007120024
138	0x3c3c7b48	0.011504002
139	0x3afa5d86	0.0019101358
140	0x3c2797e5	0.010229086
141	0xbc50e7d6	-0.0127505865
142	0x3ca1e431	0.01976213
143	0x3bce100d	0.0062885345
144	0x3bd2a4d9	0.006428343
145	0x3c0443af	0.008072778
146	0xbcd7acd1	-0.026327522
147	0xbbabbaaa	-0.005240758
148	0x3a999bd5	0.0011719415
149	0x3c6aa672	0.01432191
150	0xbb20f9b6	-0.0024562902
151	0x3b38ce19	0.0028199016
152	0x3c1885c2	0.009309234
153	0xbc112469	-0.0088587785
154	0x3c86c792	0.016452584
155	0xbbd7dc1e	-0.0065875193
156	0xbcbffba0	-0.023435414
157	0xbc354036	-0.011062672
158	0x3be71a16	0.0070526702
159	0xbc6d2685	-0.014474516
160	0xbc1bebbd	-0.009516654
161	0xbb8572f9	-0.0040725437
162	0x3c42800c	0.011871349
163	0xbc953fe4	-0.018218942
164	0x3a4552d4	0.0007527296
165	0x3d05f487	0.032703903
166	0xb9ebc370	-0.00044968305
167	0x3c340eba	0.010989839
168	0x3bb3cf23	0.005487339
169	0x3b163568	0.0022920016
170	0x3cc987b0	0.024600834
171	0x3bdcbf83	0.006736697
172	0x3c8d1a1b	0.017224362
173	0x389e1020	7.5370306e-05
174	0xbd1e8336	-0.03869935
175	0xbc6a40ea	-0.014297703
176	0x3c82913b	0.015938392
177	0x3b066e5e	0.0020512561
178	0xbc379544	-0.011205021
179	0x3c6e13ef	0.01453112
180	0x3ba9cdbb	0.0051819957
181	0x3c8e6201	0.017380716
182	0x3ce43f6f	0.027862279
183	0xbb9bbe93	-0.004752943
184	0x3c9c4060	0.019073665
185	0xbba66563	-0.005078004
186	0x3c748b00	0.014925718
187	0x3c18454b	0.0092938645
188	0xbb841211	-0.004030474
189	0x3b9b43f1	0.004738324
190	0x3bd761a9	0.0065729213
191	0xbc15a9ab	-0.00913469
192	0xbbc1b12a	-0.005911012
193	0xbb88d133	-0.004175329
194	0xbcd0bc99	-0.025480555
195	0x3c044d33	0.008075046
196	0x3cbcb04d	0.023033286
197	0xbb55d4d4	-0.0032628076
198	0x3b5da304	0.0033819089
199	0xbb3f5808	-0.0029196758
200	0xbb90b4fb	-0.004416106
201	0xbc46841b	-0.012116457
202	0x3c0f5943	0.008749309
203	0x3b90efa3	0.004423098
204	0x3c15feec	0.009155016
205	0xbd006d8e	-0.03135448
206	0x3c49b6f3	0.012311685
207	0xbab5318a	-0.0013823968
208	0xbbae2ba9	-0.0053152633
209	0xbb470938	-0.0030370485
210	0x3c062c6a	0.0081893
211	0xbc052386	-0.008126145
212	0xbc89c5fb	-0.016818037
213	0xba3fbc9b	-0.0007314176
214	0xbbe5308f	-0.006994314
215	0x3b235dfc	0.0024927845
216	0x3b61f37d	0.0034477406
217	0xbac38d8f	-0.0014919507
218	0x3a929a24	0.0011184854
219	0x3c63c6d3	0.013902384
220	0x3c114dbf	0.008868634
221	0x398b43e9	0.00026562743
222	0x3c71b6b9	0.014753037
223	0x3acd21c9	0.0015650328
224	0x3c48a3a8	0.01224605
225	0xbc64cc5e	-0.013964741
226	0x39d46116	0.00040508126
227	0x3c9649ce	0.01834574
228	0x3cc634b5	0.024195055
229	0xbc73769c	-0.014859822
230	0xbc713cc2	-0.014723958
231	0x3cd4cfd3	0.025978005
232	0xbcf1a966	-0.02949972
233	0x3c849746	0.016185414
234	0x3c2b6985	0.01046217
235	0x3c941c14	0.018079795
236	0xbb45bda5	-0.0030172851
237	0x3b38a272	0.0028172997
238	0x3cb1803d	0.021667594
239	0x3b621bec	0.0034501506
240	0xbc2b055b	-0.010438289
241	0xbc873cf2	-0.016508553
242	0xbc77e18c	-0.015129458
243	0xbb56b13b	-0.0032759446
244	0xbc7a4bd6	-0.01527687
245	0x3c2b8856	0.010469517
246	0x3b9b6feb	0.0047435663
247	0x3b43efba	0.0029897527
248	0x3b9fa635	0.0048721083
249	0xbc9b601d	-0.018966729
250	0x3c44e969	0.01201854
251	0xbc0652ce	-0.008198453
252	0xbc043978	-0.008070342
253	0x3b12a692	0.0022377116
254	0xbc3d79b2	-0.011564659
255	0xbc8ebd31	-0.017424198

action_model._discrete_distribution.branches.2.bias f4 [13]
0	0x3c4b1f3b	0.012397583
1	0x3bd74461	0.0065694307
2	0xb8ab7efc	-8.177568e-05
3	0xbc3c21ee	-0.011482699
4	0xbbf5129f	-0.0074790264
5	0x3bf05394	0.007334182
6	0x3ae6bed5	0.001760448
7	0xbaa4aff8	-0.001256465
8	0xbc377186	-0.0111965
9	0x3c0d0bb8	0.008608751
10	0xbc2f31ae	-0.010692997
11	0x3bab746a	0.0052323835
12	0xbb7bfedf	-0.0038451476
