results/NewTwoAgentsFullBoardActionKeepAfterFail/BlackMLAgent/BlackMLAgent-22947.onnx (onnx, 681198 bytes, 133 tensors)

discrete_act_size_vector f4 [1, 64]
0	0x41500000	13.0
1	0x41500000	13.0
2	0x41500000	13.0
3	0x41500000	13.0
4	0x41500000	13.0
5	0x41500000	13.0
6	0x41500000	13.0
7	0x41500000	13.0
8	0x41500000	13.0
9	0x41500000	13.0
10	0x41500000	13.0
11	0x41500000	13.0
12	0x41500000	13.0
13	0x41500000	13.0
14	0x41500000	13.0
15	0x41500000	13.0
16	0x41500000	13.0
17	0x41500000	13.0
18	0x41500000	13.0
19	0x41500000	13.0
20	0x41500000	13.0
21	0x41500000	13.0
22	0x41500000	13.0
23	0x41500000	13.0
24	0x41500000	13.0
25	0x41500000	13.0
26	0x41500000	13.0
27	0x41500000	13.0
28	0x41500000	13.0
29	0x41500000	13.0
30	0x41500000	13.0
31	0x41500000	13.0
32	0x41500000	13.0
33	0x41500000	13.0
34	0x41500000	13.0
35	0x41500000	13.0
36	0x41500000	13.0
37	0x41500000	13.0
38	0x41500000	13.0
39	0x41500000	13.0
40	0x41500000	13.0
41	0x41500000	13.0
42	0x41500000	13.0
43	0x41500000	13.0
44	0x41500000	13.0
45	0x41500000	13.0
46	0x41500000	13.0
47	0x41500000	13.0
48	0x41500000	13.0
49	0x41500000	13.0
50	0x41500000	13.0
51	0x41500000	13.0
52	0x41500000	13.0
53	0x41500000	13.0
54	0x41500000	13.0
55	0x41500000	13.0
56	0x41500000	13.0
57	0x41500000	13.0
58	0x41500000	13.0
59	0x41500000	13.0
60	0x41500000	13.0
61	0x41500000	13.0
62	0x41500000	13.0
63	0x41500000	13.0

network_body._body_endoder.seq_layers.0.weight f4 [142, 71]
0	0x3dcf523e	0.10123108
1	0xbd924caa	-0.07143529
2	0x3dc3aa66	0.09553985
3	0xbe597278	-0.21235073
4	0x3e153f4c	0.14574927
5	0x3e22431b	0.15845911
6	0x3dbb5de5	0.09148768
7	0xbc69f4bd	-0.014279542
8	0x3d36dea0	0.044645905
9	0x3e055548	0.13020813
10	0xbcee8c75	-0.02911971
11	0xbd1a3f89	-0.037658248
12	0xbd60a454	-0.054844216
13	0x3e49a8ef	0.1969335
14	0xbe0e07b2	-0.13870123
15	0xbe5047ed	-0.20339938
16	0xbe0efd68	-0.13963854
17	0xbec9898d	-0.39362755
18	0xbd70ed99	-0.05882034
19	0xbdb221e4	-0.086978704
20	0xbce3fde3	-0.027831024
21	0xbd7075d5	-0.058706123
22	0xbc9b1183	-0.018929249
23	0xbd628a3e	-0.05530762
24	0xbdd41489	-0.10355479
25	0xbe33fffa	-0.17578116
26	0x3dce8cbb	0.10085436
27	0xbe006be6	-0.1254116
28	0xbd1e5893	-0.03865869
29	0xbc064acb	-0.008196543
30	0xbd959d77	-0.07305425
31	0x3d469d25	0.04848971
32	0xbd275a34	-0.04085751
33	0x3d33d28f	0.043901976
34	0xbe009782	-0.12557796
35	0xbc089d47	-0.008338279
36	0x3d0205d3	0.031743836
37	0xbe867d0e	-0.26267284
38	0xbd8a479b	-0.06751939
39	0xbd4879a4	-0.04894413
40	0xbe098eeb	-0.13433425
41	0x3d5e82c7	0.054323938
42	0x3d920442	0.07129718
43	0x3e12b6a9	0.14327492
44	0x3c119fc8	0.0088881925
45	0x3ced433b	0.028962722
46	0xbccc16c4	-0.0249132
47	0x3e8d20d3	0.27564105
48	0xbe0005a7	-0.12502156
49	0x3d9c559d	0.07633517
50	0xbb014f1d	-0.0019730993
51	0x3e307e73	0.17235737
52	0xbe4383e4	-0.19093281
53	0xbe34ab7d	-0.17643543
54	0x3ca2f150	0.019890457
55	0xbcedc731	-0.029025646
56	0xbd8a9851	-0.06767333
57	0x3de967c2	0.11396743
58	0x3dfb19e9	0.12260801
59	0x3d5b14e6	0.053486727
60	0xbe28660c	-0.16445178
61	0xbeb8bede	-0.3608312
62	0xbd8c6001	-0.06854249
63	0xbd991a78	-0.07475752
64	0xbcfc15ff	-0.030772207
65	0x3cb2f997	0.02184753
66	0xbcaa0484	-0.020754106
67	0x3cea0cc8	0.028570548
68	0x3d199975	0.037499864
69	0x3e2a1e92	0.16613224
70	0xbdd0c4ff	-0.10193824
71	0xbc13b62c	-0.009015601
72	0x3e51995d	0.2046866
73	0xbe02c73d	-0.12771316
74	0xbdf885c3	-0.12134888
75	0xbb05550e	-0.0020344886
76	0x3d4a39d4	0.049371555
77	0x3e33596a	0.17514578
78	0xb9b6305b	-0.00034749773
79	0x3e276ece	0.16350862
80	0xbd0fc79c	-0.03510247
81	0x3d318992	0.043344088
82	0x3df21a30	0.11821401
83	0x3c0bae41	0.008525432
84	0xbcda70f1	-0.026665183
85	0x3e101356	0.14069876
86	0xbaaff3b9	-0.0013424075
87	0xbd877507	-0.06614118
88	0x3d1b7826	0.03795638
89	0xbd065ecd	-0.032805253
90	0x3b86dbc5	0.004115554
91	0xbe1665f4	-0.1468733
92	0x3dca68e7	0.0988329
93	0xbdc4ec08	-0.09615332
94	0xbe5c0e9a	-0.21489945
95	0x3df6bd6f	0.1204785
96	0xbdeb6693	-0.11494174
97	0xbe841cca	-0.25803214
98	0xbe8837a0	-0.26604939
99	0xbd74b789	-0.059745345
100	0x3db4045c	0.08789894
101	0xbd4338a9	-0.047661457
102	0xbccf47b4	-0.025302745
103	0x3d1f481e	0.038887136
104	0xbd251f89	-0.040313277
105	0xbc85178a	-0.016246576
106	0xbc6179f7	-0.013761989
107	0x3e924749	0.2857001
108	0x3d5b15bc	0.053487524
109	0x3dbdd994	0.09270015
110	0xbe05b255	-0.1305631
111	0x3d84bf62	0.06481816
112	0x3d15dc10	0.03658682
113	0xbcdcce6a	-0.026953895
114	0xbb76ecbc	-0.0037677726
115	0xbe002c9b	-0.12517016
116	0xbc326c62	-0.010890098
117	0x3e66cbbb	0.22538655
118	0xbe195666	-0.14974365
119	0xbd8e5036	-0.06948893
120	0xbdaa5abb	-0.08318087
121	0xbd6b0f99	-0.057387922
122	0xbdab0e3b	-0.083523236
123	0x3c2b92ee	0.0104720425
124	0x3e3d30e2	0.18475679
125	0x3d224694	0.03961809
126	0x3b027943	0.0019908703
127	0x3d44438a	0.047915973
128	0xbe875267	-0.26430055
129	0x3e03b00a	0.12860122
130	0xbdfbc4eb	-0.122934185
131	0x3e25115b	0.16119902
132	0x3e457217	0.19281803
133	0x3d6c2d41	0.057660345
134	0x3dbdffcc	0.09277305
135	0xbe506dac	-0.20354337
136	0x3e856baa	0.26058704
137	0xbe5bedca	-0.21477428
138	0x3cab17a4	0.020885296
139	0xbde0c8d7	-0.10975807
140	0x3c298ff3	0.010349262
141	0x3e423ebc	0.18969244
142	0xbe1e5157	-0.15460716
143	0xbc99c88f	-0.018772392
144	0xbe2305cc	-0.1592018
145	0x3bbd4b4c	0.0057767984
146	0x3d0a32fd	0.033740032
147	0x3c5199ce	0.012793018
148	0xbe248b6a	-0.16068807
149	0x3e69aaaf	0.22819017
150	0x3d734263	0.059389483
151	0xbd322b8c	-0.04349856
152	0x3d84e068	0.064881146
153	0x3d98a584	0.074534446
154	0x3da29278	0.07938093
155	0xbd397027	-0.045272972
156	0xbe327a83	-0.17429547
157	0xbdd70628	-0.10499221
158	0xbe241ed5	-0.16027386
159	0xbd6088ea	-0.05481807
160	0x3dd13a22	0.10216166
161	0x3e536098	0.20642316
162	0x3e86c238	0.26320052
163	0xbd78e4e3	-0.06076516
164	0x3dcfc216	0.10144441
165	0x3d81b270	0.063328624
166	0x3de1296e	0.1099423
167	0xbe6b9e85	-0.23009689
168	0xbcb930f5	-0.022606352
169	0xbdbae43e	-0.09125565
170	0xbc94d3ee	-0.018167462
171	0xbe1a81b7	-0.15088545
172	0xbe3cd4c1	-0.18440534
173	0x3e6aacbd	0.22917457
174	0x3e2f46a6	0.17116794
175	0xbdbac183	-0.09118941
176	0xbdbbcf4b	-0.09170397
177	0xbd237cc3	-0.039913904
178	0xbca11e1c	-0.019667678
179	0xbe298219	-0.16553535
180	0x3d3eb96d	0.046563555
181	0x3be566e1	0.0070007895
182	0x3e4806dc	0.19533867
183	0xbe206f89	-0.15667547
184	0xbcec4435	-0.028841117
185	0x3d6ca16e	0.05777114
186	0xbe0cf0e1	-0.13763763
187	0x3d08f035	0.033432204
188	0x3e21d9e1	0.1580577
189	0xbb45be49	-0.0030173233
190	0x3d93ccb6	0.0721678
191	0xbce1181f	-0.027477322
192	0xbe0e2d22	-0.13884404
193	0x3d98b708	0.074567854
194	0xbdd7118a	-0.10501392
195	0x3e0310c2	0.12799361
196	0xbe5987d1	-0.21243216
197	0xbe5974be	-0.2123594
198	0xbd1b9553	-0.037984204
199	0xbcfacd49	-0.030615466
200	0x3e2d2058	0.1690687
201	0x3d59b4d9	0.053150985
202	0xbdfd51e5	-0.12369136
203	0x3e054458	0.13014352
204	0x3dc6fc09	0.09716041
205	0xbc7d03c0	-0.015442789
206	0xbdb9d038	-0.09072918
207	0xbe407799	-0.18795623
208	0xbd0938b6	-0.03350135
209	0x3d861c3e	0.065483555
210	0x3d44bb53	0.04803021
211	0xbdfca241	-0.12335635
212	0xbe250148	-0.1611377
213	0x3bd14eaf	0.0063875536
214	0x3e444d8c	0.19170207
215	0x3e6e52a3	0.23273711
216	0xbc3066c6	-0.010766691
217	0xbd5b2c20	-0.053508878
218	0x3dd4fce2	0.10399796
219	0xbdda5006	-0.106597945
220	0xbe0d49ca	-0.1379768
221	0x3e169237	0.14704214
222	0x3c5986d7	0.013276777
223	0xbc28ffaa	-0.010314861
224	0xbdbfd538	-0.0936684
225	0xbe4086a5	-0.18801363
226	0x3d7e7cd3	0.06213076
227	0xbe998b0a	-0.2998889
228	0x3d864452	0.06556
229	0xbdd9fc80	-0.10643864
230	0xbe805994	-0.25068343
231	0xbd84aea1	-0.0647862
232	0x3eb48fd5	0.35265985
233	0xbbd50fcb	-0.006502127
234	0xbc709e6f	-0.014686211
235	0x3d8335a7	0.06406718
236	0xbe57bf6a	-0.21069112
237	0x3e287cf7	0.1645392
238	0x3e8fea47	0.28108427
239	0xbe12a10b	-0.14319246
240	0x3d2ca74c	0.042151734
241	0x3d3a370e	0.04546266
242	0x3d3c9094	0.046036318
243	0x3ca7b32c	0.020471178
244	0x3e257fb6	0.16161999
245	0x3d04aa65	0.032389063
246	0x3e09abe1	0.13444473
247	0xbc629a0c	-0.013830673
248	0xbc41a7ea	-0.011819819
249	0x3d442bad	0.047893215
250	0x3c79eb02	0.015253784
251	0xbe74724f	-0.2387173
252	0xbc7d550d	-0.015462172
253	0x3de84ad9	0.11342401
254	0xbd5c95ad	-0.05385368
255	0xbdf97a2f	-0.12181508

network_body._body_endoder.seq_layers.0.bias f4 [142]
0	0xbc4106f2	-0.011781441
1	0xb98b2f81	-0.0002654754
2	0x3c313fc1	0.010818423
3	0xbbfea224	-0.0077707935
4	0xbba5bebf	-0.005058139
5	0x398cf5b7	0.00026885953
6	0xba629000	-0.00086426735
7	0xbcd3f3af	-0.025873033
8	0xbbcbbb26	-0.006217378
9	0x3c493ca3	0.012282523
10	0xbb90ecfd	-0.0044227825
11	0x3bcd2ad3	0.0062612086
12	0x3c16d871	0.009206877
13	0xba99b661	-0.0011727327
14	0xbc6702d5	-0.014099796
15	0xbb86ffa8	-0.004119832
16	0xbb365f6e	-0.0027827877
17	0xbc74ec44	-0.014948908
18	0xbc092c6b	-0.0083724065
19	0xbc2da5ec	-0.010598641
20	0x3c2c613f	0.010521232
21	0x3b84330a	0.0040344046
22	0xbc87af09	-0.016562955
23	0xbc61afc1	-0.013774813
24	0xbc4bb778	-0.012433879
25	0xbca27635	-0.019831756
26	0xbc1d3233	-0.009594488
27	0xbc72b9be	-0.014814792
28	0xbc5d0629	-0.013490238
29	0xbc76cf54	-0.015064079
30	0x3aadd986	0.001326368
31	0x3babe000	0.0052452087
32	0xbc92cc7e	-0.017919775
33	0x3b794e71	0.003804114
34	0xbbfcb32c	-0.0077117886
35	0xbc443161	-0.0119746635
36	0x3b42ef86	0.0029744818
37	0xbc936237	-0.017991168
38	0xbcc094a9	-0.023508387
39	0xbcc08e06	-0.023505222
40	0xbc94af2c	-0.018149935
41	0x3a9d31dd	0.001199301
42	0xbc12bfa2	-0.008956822
43	0x3b5c15de	0.003358237
44	0xbc497e71	-0.012298212
45	0xbc0848d8	-0.008318149
46	0x3c0934fd	0.00837445
47	0x3b83e34e	0.0040248996
48	0xbb6c6f82	-0.0036077206
49	0xbc9297da	-0.017894674
50	0x3c405fb5	0.011741568
51	0x3b693266	0.0035583018
52	0xbb96f605	-0.0046069645
53	0x39a42496	0.00031307776
54	0xbaf8dfcb	-0.0018987594
55	0xbbc01b0c	-0.0058625992
56	0x3b5fbaeb	0.0034138511
57	0x3beee8a6	0.0072909174
58	0xbb88d22c	-0.004175445
59	0xb9ba488b	-0.00035530733
60	0xbc739a60	-0.014868349
61	0x3acafe83	0.0015487227
62	0x3b94501a	0.0045261504
63	0x3cccae2d	0.024985397
64	0xbbcdc30a	-0.006279354
65	0xbabbddbe	-0.0014333052
66	0xbbcab5e9	-0.006186236
67	0xbcb3bcb1	-0.021940561
68	0xbc577829	-0.013151207
69	0xbc990da0	-0.018683255
70	0xba00ec63	-0.0004918037
71	0xbc045293	-0.008076328
72	0x38af237b	8.351259e-05
73	0x3c833a19	0.016018914
74	0xbb4b4d5d	-0.0031021454
75	0x3b093846	0.0020938083
76	0x397a28ee	0.00023857105
77	0xba3d54e8	-0.000722243
78	0xbb9bb685	-0.0047519826
79	0xbbffe43a	-0.007809189
80	0xbc5b5ae6	-0.013388371
81	0xbbef3ff4	-0.007301325
82	0xbc02aa73	-0.007975209
83	0x3c0a4f0d	0.008441699
84	0x3c7a2bad	0.015269202
85	0x3be9598c	0.0071212705
86	0xbc82a7fe	-0.015949246
87	0x3c22c0bd	0.009933648
88	0xbac6a275	-0.0015154617
89	0xbbc48d87	-0.0059983167
90	0x3b70487a	0.0036664293
91	0x3be66075	0.0070305415
92	0x3b2172dc	0.0024635112
93	0xbc9e8b6b	-0.019353589
94	0x3c0cafd8	0.008586846
95	0x3c77c7b8	0.0151233
96	0x3c41f29f	0.0118376305
97	0x3c91f717	0.017818017
98	0xbb909a37	-0.004412915
99	0x3ba23c2d	0.004951021
100	0xbc6e723d	-0.014553604
101	0x3c504d38	0.012713723
102	0x3b33c82c	0.0027432544
103	0x3b7b32a1	0.0038329738
104	0x3ce6c8d3	0.028171932
105	0xbca64f8a	-0.020301599
106	0x3bc78810	0.006089218
107	0x3ca60071	0.020263882
108	0x3c57e0f1	0.013176189
109	0xbc38edad	-0.011287135
110	0xbc5afaec	-0.0133654885
111	0xbb92a5c3	-0.0044753267
112	0xbb7c7648	-0.003852265
113	0xbc99b0a1	-0.018760981
114	0xbc8ad188	-0.016945615
115	0x3bd5920a	0.0065176534
116	0xbc51e257	-0.012810311
117	0x3c29756f	0.01034294
118	0x3baefd85	0.0053402805
119	0x3bd36b8d	0.00645203
120	0xbceda2d7	-0.029008312
121	0xbcbf3f34	-0.023345567
122	0xbbaafabe	-0.005217879
123	0xbc4123b9	-0.011788302
124	0x3c818c51	0.015813978
125	0xbba6cf8d	-0.00509066
126	0x3c567e53	0.0130916415
127	0xbb582a01	-0.003298402
128	0xbc83c03e	-0.01608288
129	0x39deb70f	0.0004247953
130	0x3be929b6	0.007115568
131	0xb9aefdad	-0.0003337687
132	0xbb727df8	-0.0037001353
133	0x3b06139b	0.0020458463
134	0x3be6017d	0.0070192204
135	0xbc8df20b	-0.01732733
136	0xbc327f45	-0.010894601
137	0x3be10f11	0.006868251
138	0x3c76bb30	0.015059277
139	0xbb9f4571	-0.004860573
140	0x3ac662b5	0.0015135618
141	0x3bcf6a0a	0.0063297795

network_body._body_endoder.seq_layers.2.weight f4 [142, 142]
0	0x3cee4e3f	0.029090045
1	0xbdc9aed0	-0.09847796
2	0x3c8347fa	0.016025532
3	0xbde01b72	-0.10942735
4	0x3df91593	0.12162318
5	0xbcc81a97	-0.024426742
6	0xbddd5845	-0.10807852
7	0x3c93ce1c	0.018042617
8	0xbe0dfdaa	-0.13866296
9	0xbe03349b	-0.12813036
10	0xbd6036cc	-0.05473976
11	0x3e88de12	0.26731926
12	0xbd26f909	-0.040764842
13	0x3cc007f9	0.023441302
14	0xbda7ccec	-0.081933826
15	0x3d8abba6	0.06774072
16	0xbca629bd	-0.020283574
17	0x3e193891	0.14962985
18	0x3d6ecf99	0.05830345
19	0xbcdf0517	-0.027224107
20	0x3d0ff6c4	0.035147443
21	0xbe28ce8c	-0.16485041
22	0xbd150d2f	-0.036389526
23	0x3db5108d	0.088410474
24	0x3d3831cb	0.04496936
25	0xbc013400	-0.007885933
26	0xbe18d556	-0.14925131
27	0xbc8f1202	-0.017464641
28	0xbda250ff	-0.07925605
29	0xbda79aef	-0.08183848
30	0x3e0736c0	0.13204479
31	0xbdccc6c6	-0.099988505
32	0x3cb835a0	0.022486508
33	0xbc9932e3	-0.018701022
34	0xbda05fbe	-0.078307614
35	0x3b411900	0.0029464364
36	0x3e3deaa5	0.18546541
37	0x3cb0aab7	0.021565778
38	0xbdf9dc7c	-0.12200257
39	0x3dc3e114	0.095644146
40	0xbd5d3926	-0.05400958
41	0x3d570407	0.052494075
42	0xbde6cd3d	-0.11269615
43	0x3db51e08	0.08843619
44	0xbd4df14a	-0.05027894
45	0xbbdc5cd6	-0.006724934
46	0xbc8c346c	-0.01711484
47	0xbd0b7444	-0.034046426
48	0x3d5b5007	0.053543117
49	0xbc1acc00	-0.009448051
50	0x3dceb1e2	0.10092522
51	0xbda171a6	-0.07883005
52	0x3db01be3	0.08599069
53	0xbd4fe661	-0.050756816
54	0xbddcff0f	-0.10790836
55	0xbc9daf9c	-0.019248776
56	0xbe3c20b2	-0.18371847
57	0x3e522213	0.20520811
58	0xbdbc7ec2	-0.09203865
59	0x3e215e12	0.15758541
60	0xbd5ae3e3	-0.053439986
61	0xbd39b840	-0.04534173
62	0xbd140a33	-0.03614254
63	0xbe08d8fc	-0.13364023
64	0xbdb9bd33	-0.0906929
65	0xbd199cec	-0.037503168
66	0x3d9c34f2	0.07627286
67	0x3cc16ce1	0.023611488
68	0x3d75718a	0.059922732
69	0xbda00876	-0.07814114
70	0x3e2ff674	0.17183858
71	0x3cf70741	0.030154826
72	0x3dad9b7a	0.084769204
73	0xbe40f192	-0.18842152
74	0xbdf50e37	-0.11965602
75	0x3d83e69e	0.06440471
76	0xbcfa2ed8	-0.030539915
77	0xbd3f68ac	-0.046730682
78	0xbd491e49	-0.049101148
79	0x3de30361	0.11084629
80	0xbd90b2b1	-0.07065333
81	0xbdab7335	-0.08371583
82	0xbdde7c83	-0.108635925
83	0x3cd27f17	0.025695367
84	0xbd925f8e	-0.07147132
85	0x3d64cf64	0.055861846
86	0x3a981cba	0.0011605241
87	0xbe397931	-0.18112637
88	0xbd6d0123	-0.057862412
89	0x3d9cc303	0.07654383
90	0x3bf4ec37	0.007474448
91	0x3d7825da	0.060582973
92	0xbd805648	-0.06266457
93	0xbd9ef4f4	-0.07761565
94	0x3d4de199	0.050263975
95	0xbe460a29	-0.19339813
96	0x3ddc7265	0.107640065
97	0xbd7bb1b7	-0.06144878
98	0xbda957e1	-0.08268715
99	0xbd1aea41	-0.03782106
100	0x3de70169	0.11279566
101	0x3d510981	0.051034454
102	0x3d94d78c	0.07267675
103	0xbda1b078	-0.07894987
104	0x3dbb0f3e	0.091337666
105	0xbd283152	-0.04106266
106	0x3dc8710d	0.09787188
107	0x3d9329a3	0.07185676
108	0x3d412363	0.047152888
109	0x3e26032d	0.16212149
110	0x3d6842f4	0.056704476
111	0x3ca3ae52	0.019980583
112	0x3d0b63b6	0.03403064
113	0xbe1d8910	-0.15384316
114	0xbd2b4656	-0.041815124
115	0x3e0246e4	0.12722355
116	0x3aaf97b8	0.0013396656
117	0xbdc6c721	-0.097059496
118	0x3d2a1b8a	0.04153017
119	0xbe7f2ffc	-0.24920648
120	0xbbf06e97	-0.007337402
121	0x3d068d3c	0.032849535
122	0x3e083be3	0.13304095
123	0xbcc7c0a5	-0.024383852
124	0x3dadab63	0.08479955
125	0x3dd034a9	0.10166294
126	0xbe684872	-0.22683886
127	0x3d3c8ecd	0.046034623
128	0xbd3757c5	-0.044761438
129	0xbd0e214e	-0.03469973
130	0x3cd879fa	0.02642535
131	0xbcca12e2	-0.024667207
132	0x3d6b370e	0.05742555
133	0x3d8ab037	0.067718916
134	0xbda986e4	-0.082776815
135	0x3c8715b0	0.016489834
136	0xbca089c8	-0.01959695
137	0x3e236469	0.15956272
138	0x3da5a2ea	0.08087714
139	0x3c2075d0	0.009793714
140	0xbce37448	-0.027765408
141	0x3cc98864	0.024601169
142	0xbdc5a70f	-0.096510045
143	0x3d25c076	0.04046675
144	0xbda2d2c4	-0.079503566
145	0xbc8d8303	-0.017274385
146	0xbd142b2c	-0.036173984
147	0x3c0f45b3	0.008744645
148	0x3e0d8402	0.13819888
149	0x3d12cb92	0.03583867
150	0x3dbdc8b4	0.09266797
151	0xbd4ac6bf	-0.049505945
152	0xbb995b60	-0.004680082
153	0x3cd95a1f	0.02653223
154	0x3ddf13a2	0.108924165
155	0x3e038932	0.12845305
156	0xbdbe298f	-0.092852704
157	0xbcbf6259	-0.023362326
158	0xbdad6b77	-0.08467763
159	0xbbfeaa39	-0.007771757
160	0x3dbeef16	0.09322946
161	0xbd675a77	-0.05648276
162	0xbda20b79	-0.079123445
163	0xbdc7f714	-0.09763923
164	0xbdf279b0	-0.11839616
165	0xbe06220b	-0.13098924
166	0xbdec0789	-0.11524875
167	0xbe4d959c	-0.20076603
168	0x3d622c5a	0.05521808
169	0xbcd6b879	-0.02621101
170	0x3dc09de5	0.09405116
171	0xba6604b0	-0.0008774502
172	0xbbbe9821	-0.005816475
173	0xbd6cbbcc	-0.057796285
174	0x3d478d2a	0.04871861
175	0x3d9b05ef	0.07569491
176	0xbcbaad2f	-0.022787658
177	0x3cd0a1c1	0.025467755
178	0xbd930d9e	-0.07180332
179	0x3d5bef47	0.05369499
180	0x3cde1a2e	0.027112093
181	0xbe103186	-0.14081392
182	0xbdde62e6	-0.10858707
183	0xbe12f723	-0.14352088
184	0xbda541c0	-0.080691814
185	0xbd9917d7	-0.0747525
186	0x3e16e1a8	0.14734519
187	0x3d5a49a4	0.053292885
188	0x3d0e68f2	0.034768052
189	0xbd05d4c8	-0.032673627
190	0x3cea5c18	0.028608367
191	0x3ca2b668	0.019862369
192	0x3c85739f	0.016290484
193	0xbcb3204e	-0.02186599
194	0x3d633ba2	0.055476792
195	0x3e61155b	0.21980803
196	0x3e6ca8d0	0.23111272
197	0xbdcc872d	-0.0998672
198	0xbcd1493c	-0.025547616
199	0xb9cd1dc1	-0.00039122815
200	0x3de62c86	0.11238961
201	0xbe2ae6b4	-0.16689569
202	0xbd987d76	-0.07445805
203	0xbd20e9c8	-0.03928545
204	0x3d054be2	0.03254307
205	0xbdd5f113	-0.10446372
206	0xbc2924a3	-0.010323676
207	0x3d1f8457	0.03894457
208	0xbc284d3a	-0.0102723185
209	0xbc9f8550	-0.019472748
210	0x3d01bd8c	0.031674907
211	0x3e12c6d8	0.14333665
212	0xbcdfb75a	-0.027309109
213	0x3c6392f0	0.013890013
214	0xbddb51f8	-0.10708994
215	0xbd7c39ab	-0.061578434
216	0x391f06d9	0.00015165973
217	0x3cf0247c	0.029314272
218	0x3d8e9f61	0.06963993
219	0x3da87b6f	0.08226668
220	0x3cc8ab48	0.024495736
221	0xbde9cdd4	-0.11416212
222	0x3e372db9	0.17888536
223	0xbcb44e42	-0.022009972
224	0xbc58bacd	-0.0132281305
225	0xbdf6d5af	-0.12052476
226	0xbdb3facc	-0.0878807
227	0xbda4b2fa	-0.080419496
228	0xbcefeb41	-0.029286982
229	0xbcedd597	-0.029032512
230	0xbdab1c0f	-0.08354961
231	0xbd328594	-0.04358442
232	0xbdac915f	-0.08426165
233	0xbe097262	-0.1342254
234	0x3bb0b357	0.0053924727
235	0x3d861f25	0.06548909
236	0xbdbaeb3d	-0.091268994
237	0xbcd357a2	-0.025798623
238	0xbdf33ccd	-0.11876831
239	0x3d73994c	0.059472367
240	0x3e4d551b	0.20051996
241	0xbd05f8a4	-0.032707825
242	0xbdf9b885	-0.121933974
243	0xbe1b72ef	-0.15180562
244	0x3dd0a20b	0.10187157
245	0xbc6d35be	-0.014478145
246	0xbe834c50	-0.2564416
247	0xbd17d1f3	-0.037065458
248	0xbdcdb7d5	-0.10044829
249	0x3cbe15c3	0.023203736
250	0x3da46548	0.0802713
251	0xbdc42055	-0.09576479
252	0x3d95466c	0.072888225
253	0xbc924383	-0.017854458
254	0x3d0c8ead	0.034315754
255	0x3e25bb01	0.16184618

network_body._body_endoder.seq_layers.2.bias f4 [142]
0	0x3c4bbf27	0.012435711
1	0x3bc71b2e	0.006076238
2	0x3d055826	0.032554768
3	0x3caa9322	0.020822112
4	0x3c95d053	0.018287813
5	0x3be90324	0.00711097
6	0xb9a750d0	-0.00031912932
7	0x3c42bace	0.011885358
8	0x3cc62161	0.024185838
9	0xbc138d0d	-0.009005797
10	0xba7c040e	-0.00096136413
11	0x3bd59f39	0.006519225
12	0x3c20f170	0.009823188
13	0x3c18c617	0.009324572
14	0x3b5459e6	0.0032402216
15	0x3c46a081	0.012123228
16	0x3c1dcd32	0.009631442
17	0x3be438f0	0.0069647953
18	0x3c613951	0.013746575
19	0xbb5d14b7	-0.003373427
20	0xbb6e12c8	-0.0036327112
21	0x38a37bf2	7.795532e-05
22	0x3cd3c00c	0.025848411
23	0xbaa0b516	-0.0012260999
24	0x3cac03cf	0.02099791
25	0x3c5375f0	0.012906536
26	0x3ccb00f5	0.02478073
27	0xbc0df5c1	-0.008664549
28	0x3c4be894	0.012445588
29	0x3c780807	0.015138633
30	0x3cf2c2ef	0.029633967
31	0x3ca39611	0.019969018
32	0x3cc5be97	0.024138732
33	0x3c3bb18f	0.0114559075
34	0xb9aea9d6	-0.00033314404
35	0x3aed8b28	0.0018123137
36	0x3ccf51f6	0.025307637
37	0xbbaab0b7	-0.0052090543
38	0x3d05a508	0.03262809
39	0x3b204f4a	0.0024461322
40	0xbb0a8c09	-0.0021140596
41	0x3c9e561e	0.019328173
42	0x3baec66d	0.005333713
43	0x3c878915	0.016544858
44	0xbcb70f9a	-0.022346307
45	0xb9cb5f3b	-0.0003879013
46	0x3a7446bf	0.00093184033
47	0xbc2ac3c9	-0.010422655
48	0x3c295961	0.010336251
49	0xbb9345fd	-0.0044944272
50	0x3d14a9ca	0.036294736
51	0x3cbf8614	0.023379363
52	0x3cc44023	0.023956364
53	0x3c357abc	0.011076625
54	0xbc8b31ba	-0.016991485
55	0x3c45fd23	0.012084278
56	0xbc65807f	-0.014007687
57	0x3c6ab447	0.014325208
58	0x3c63f0a7	0.013912356
59	0x3b6c0ce9	0.0036018437
60	0x3c7880c5	0.01516742
61	0xbbff9e08	-0.007800821
62	0x3c815319	0.015786694
63	0x3c1cc365	0.00956807
64	0x3c8d757c	0.017267935
65	0xbc45ae19	-0.012065434
66	0xbba4cd23	-0.005029337
67	0x3baf034a	0.0053409683
68	0x3c4c45c6	0.012467807
69	0x3caa8791	0.020816596
70	0x3cd068a1	0.025440516
71	0x3b2105bb	0.0024570066
72	0x3c355581	0.011067749
73	0x3c19846a	0.009369949
74	0x3ca9506a	0.020668227
75	0xbc1a95ac	-0.009435099
76	0x3b65fe77	0.00350943
77	0x3ba75af9	0.0051072803
78	0xbb939677	-0.004504021
79	0xbb9a0c98	-0.0047012083
80	0x3b9f909d	0.004869534
81	0xbc3ef930	-0.011656091
82	0x3cc0f55b	0.023554495
83	0x3cd78a6e	0.026311126
84	0xbc31e121	-0.010856898
85	0x3b9808da	0.004639727
86	0x3bb6e726	0.0055817543
87	0x3bac0fd3	0.00525091
88	0x3c9fd54f	0.019510893
89	0x3cab1c6c	0.020887576
90	0x3cbc02fe	0.022950646
91	0x3b89fcf0	0.0042110607
92	0xbab58d11	-0.0013851245
93	0xba3a5cd7	-0.0007109171
94	0x3c21acf2	0.0098678935
95	0x3c776689	0.01510013
96	0xbc4e2343	-0.012581649
97	0x3c81f817	0.015865369
98	0xbaba57a0	-0.0014216788
99	0x3c6f6c8b	0.014613281
100	0x3cee3ee6	0.029082727
101	0xbc17c175	-0.009262432
102	0x3bf4b128	0.0074674077
103	0x3b8fa273	0.004383379
104	0x3ca7d601	0.020487787
105	0x3bb2196e	0.0054351604
106	0x3c02a743	0.007974449
107	0x3cc5b494	0.024133958
108	0x3cddef77	0.027091725
109	0x3c783b66	0.01515088
110	0xbc19cb34	-0.009386826
111	0x3c01e0b9	0.007927113
112	0x3cd70046	0.026245248
113	0xbbaf88e6	-0.0053568957
114	0xbc0daec5	-0.008647625
115	0x3c9be519	0.01903014
116	0x3ab95e04	0.0014142399
117	0x3c88cf31	0.016700359
118	0x3ba0e168	0.004909683
119	0x3ba17ae7	0.004927981
120	0x3a3e217b	0.0007252914
121	0x3d323f82	0.043517597
122	0x3bde7597	0.00678892
123	0x3cd0a267	0.025468064
124	0x3cc70732	0.024295423
125	0x3cd04eae	0.025428142
126	0x3bd0f18c	0.006376451
127	0x3c20ef39	0.00982266
128	0x3c83049c	0.015993409
129	0xbc808d66	-0.015692424
130	0x3afa5321	0.0019098261
131	0x3cfd9259	0.030953573
132	0x3caedc76	0.021345358
133	0x3c45dc65	0.012076472
134	0x3b1b3a7f	0.002368599
135	0xbb8923a5	-0.0041851574
136	0xbc0b9dbd	-0.008521494
137	0xba78712d	-0.0009477314
138	0x3c4a0307	0.012329823
139	0x3cd9792e	0.02654704
140	0x3ca0944a	0.01960196
141	0x3ce42253	0.027848398

action_model._discrete_distribution.branches.0.weight f4 [13, 142]
0	0xbc841e3c	-0.016127698
1	0xbc81ccb5	-0.015844682
2	0x3b755489	0.003743442
3	0x3c4c8be7	0.012484527
4	0x3d89f53c	0.06736228
5	0xbc8f018c	-0.017456792
6	0xbc5f999e	-0.013647465
7	0x3ca1a272	0.01973078
8	0x3c8a2903	0.016865259
9	0xbc03e635	-0.008050491
10	0x3c42cc57	0.011889539
11	0x3d997570	0.074931026
12	0xbcfe5865	-0.03104801
13	0xbd04c69d	-0.032415975
14	0x3d029871	0.03188366
15	0x3c0a3f61	0.008437962
16	0x3bc96cb2	0.0061469907
17	0x3d67d7f2	0.056602426
18	0xbc96573a	-0.01835214
19	0x3bf0e789	0.00735182
20	0xbd20ee99	-0.039290044
21	0x3c48edce	0.012263728
22	0xbc34fd11	-0.011046664
23	0xbd0e88e8	-0.034798533
24	0xbd0aea9b	-0.033915143
25	0xbaa86bca	-0.0012849506
26	0xbc84f2ba	-0.016229022
27	0xbce8a2d0	-0.028397948
28	0xbc408261	-0.011749835
29	0x3bbd3bc7	0.0057749483
30	0x3d8666f2	0.06562604
31	0x3afb37af	0.0019166375
32	0xbbac054d	-0.0052496553
33	0xbc3568be	-0.011072336
34	0xbd478dd4	-0.048719242
35	0xbc9c08b4	-0.019047119
36	0x3c982372	0.01857159
37	0x3c629093	0.0138284145
38	0x3c56e18a	0.013115296
39	0xbae0d9c5	-0.0017154744
40	0x3d07d912	0.033166
41	0xbc3a71f0	-0.011379704
42	0xbb4d254d	-0.003130275
43	0x3d0c6ba6	0.03428235
44	0xbbaa2df8	-0.005193468
45	0xbc6fd656	-0.014638504
46	0x3ccbfbb9	0.024900304
47	0x3c90e7f3	0.017688727
48	0x3c96718c	0.01836469
49	0xbceb7b52	-0.028745327
50	0x3c69e776	0.014276376
51	0xbcdbd7a7	-0.02683623
52	0x3d0a7d9e	0.033811204
53	0xbd20e065	-0.0392765
54	0x3c91917d	0.01776957
55	0x3d73d5c4	0.059530035
56	0xbc374660	-0.011186212
57	0xbd141372	-0.036151357
58	0x3c8e3a81	0.017361881
59	0xbafd12e8	-0.0019308003
60	0xbc233fcf	-0.009963944
61	0xbc3456b6	-0.011007002
62	0x3d45d371	0.04829735
63	0x3cbd98f2	0.02314422
64	0x3d1ea72e	0.038733654
65	0x3bb67fa3	0.0055694147
66	0xbd3380c7	-0.043823984
67	0x3c3a7a04	0.01138163
68	0xbb31cda1	-0.002713062
69	0xbc82a1f3	-0.015946364
70	0x3cdd82d1	0.027039917
71	0xbb56c86f	-0.0032773276
72	0xbaaf5d1b	-0.0013379188
73	0xbc1f5e2b	-0.009727041
74	0x3cabbc5e	0.020963844
75	0xba812f62	-0.000985604
76	0xbc628368	-0.013825275
77	0xbd333644	-0.043752924
78	0xbc261ded	-0.010138971
79	0xbd573254	-0.05253823
80	0x3a9cbf2e	0.0011958831
81	0x3c71d0a1	0.014759214
82	0x3d5a8a06	0.053354286
83	0xbcac63fc	-0.02104377
84	0xbcadf476	-0.021234732
85	0xbc8ed197	-0.017433925
86	0x3cc2d885	0.023784885
87	0xbcf5e2fa	-0.030015457
88	0xbd098fd0	-0.033584416
89	0xbb145eb9	-0.0022639467
90	0xbd50cc69	-0.05097619
91	0xbba716af	-0.0050991396
92	0x3d039f83	0.032134544
93	0x3b633677	0.0034669915
94	0xbc9dd602	-0.019267086
95	0xbc33cd15	-0.010974188
96	0xbcd9b8e9	-0.02657743
97	0x3d09d58c	0.03365092
98	0xbcc6e94b	-0.024281165
99	0x3d0434bf	0.032276865
100	0xbd44a331	-0.048007194
101	0x3c3b893b	0.0114462925
102	0x3d008010	0.03137213
103	0x3963badc	0.00021718018
104	0xbb971825	-0.0046110325
105	0x3d3a40c6	0.04547193
106	0xbce4b001	-0.027915956
107	0xbb53b9a6	-0.00323067
108	0x3c0ce626	0.008599794
109	0xbc9c8fc1	-0.019111516
110	0x3bea311d	0.007146968
111	0x3cb2fcd3	0.021849072
112	0xbc5022d4	-0.012703616
113	0x3caf9ce1	0.02143711
114	0xbc486110	-0.012230173
115	0xbbe2ceab	-0.0069216094
116	0xbc9a9cd7	-0.018873615
117	0xbbff95eb	-0.007799854
118	0x3cb07bb7	0.021543367
119	0x3c6541fa	0.013992781
120	0xbd354f09	-0.044264827
121	0xbd176c76	-0.03696867
122	0xbc25a71e	-0.010110645
123	0x3d18684a	0.037208833
124	0xbd93645f	-0.07196879
125	0x3d00ba98	0.03142795
126	0xbd1e8360	-0.038699508
127	0xbb9005b1	-0.0043952097
128	0xbd2306ff	-0.039801594
129	0x3b39d9b7	0.0028358528
130	0xbd032ffe	-0.03202819
131	0xbdc37c9c	-0.09545252
132	0x3cd39495	0.025827685
133	0xbcee7ce1	-0.029112281
134	0xbc8b2b6e	-0.016988482
135	0xbc957a01	-0.018246653
136	0xbcb29e0c	-0.021803878
137	0xbc98e527	-0.018663956
138	0xbadba573	-0.0016757682
139	0x3c376c72	0.011195289
140	0x3c96138d	0.01831987
141	0x3c05b17e	0.008159993
142	0x3d1f63f7	0.038913693
143	0x3cd89b9f	0.026441393
144	0x3cd0b749	0.025478022
145	0xbd430162	-0.04760874
146	0x3d034bb5	0.03205462
147	0x3b3e0961	0.002899729
148	0xbcc78e82	-0.024359945
149	0x3ccc88ad	0.024967516
150	0x3c293d1b	0.01032951
151	0xbc2351bf	-0.00996822
152	0xbb212b64	-0.0024592513
153	0x3cc6e9e4	0.02428145
154	0xba99952a	-0.0011717428
155	0xbb5b3aaf	-0.0033451726
156	0x3b1d0de9	0.002396459
157	0x3c6c69b3	0.0144294975
158	0xbd5a1534	-0.053242877
159	0xbd18a07a	-0.037262417
160	0xbc90f7f4	-0.017696358
161	0xbd2e82a0	-0.042605042
162	0x3d7b82a3	0.06140388
163	0xbd231a10	-0.039819777
164	0x3cb29e0b	0.021803876
165	0x3d04cf11	0.032424036
166	0x3d0890eb	0.03334133
167	0x3c89d450	0.016824871
168	0x3c80765f	0.015681444
169	0x3c8136f6	0.015773278
170	0xbbcf5a07	-0.006327871
171	0x3d0bdac0	0.034144163
172	0x3c9ef666	0.019404601
173	0x3bc18671	0.0059059192
174	0xbd0109be	-0.03150343
175	0x3bb2a5b0	0.0054518804
176	0x3b4c909f	0.003121413
177	0xbcbd3182	-0.023094896
178	0xbd2507d1	-0.040290657
179	0x39b60160	0.0003471477
180	0x3cc745ba	0.02432524
181	0x3ba910ca	0.005159472
182	0x3ccec956	0.025242489
183	0x3ba0cce4	0.0049072374
184	0xbc104551	-0.008805589
185	0x3c7d8cb4	0.015475441
186	0x3cd3cf2c	0.025855623
187	0x3c37fbf3	0.011229503
188	0xbd38bd8a	-0.045102634
189	0xbc7277af	-0.014799043
190	0xbd30241d	-0.04300319
191	0xbd003334	-0.03129883
192	0xbd09ef8d	-0.03367572
193	0x3d72e514	0.059300497
194	0x3c688fc8	0.014194436
195	0x3bf0f72e	0.007353685
196	0x3d5d9beb	0.054103773
197	0x3d04432d	0.032290626
198	0x3ccb75db	0.024836471
199	0x3cad81b7	0.021180017
200	0x3c0550d3	0.008136946
201	0x3caa8132	0.020813558
202	0xbd684741	-0.056708578
203	0x3c60bc2b	0.013716738
204	0xbcb2000e	-0.021728542
205	0xbd2c3594	-0.042043284
206	0x3c8cd76b	0.017192563
207	0xbd83d1b0	-0.06436479
208	0x3c3cc376	0.011521211
209	0xbd82b013	-0.0638124
210	0xbce1b799	-0.027553366
211	0xbcb551b1	-0.02213368
212	0xbbf9f1ea	-0.0076277154
213	0xbce9ff22	-0.02856404
214	0xbd76c68e	-0.06024795
215	0x3ce9e29b	0.028550437
216	0x3bb17645	0.00541571
217	0x3b50703b	0.0031805176
218	0x3d51cb9d	0.05121957
219	0x3ca43d20	0.020048678
220	0x3d3a0f02	0.04542447
221	0x3cc670dd	0.02422374
222	0xbd9af55d	-0.075663306
223	0x3c778d8f	0.015109434
224	0xbc9cc75e	-0.019138034
225	0xbd56c3e8	-0.052432925
226	0x3d2ddb9e	0.04244577
227	0x3af59b57	0.0018738311
228	0x3d6b31a6	0.057420395
229	0x3ca8ceed	0.020606482
230	0xbce2f8a5	-0.027706454
231	0xbd21cac4	-0.039500013
232	0xbbee7e55	-0.0072782435
233	0x3d238d52	0.039929695
234	0xbc8d65aa	-0.017260391
235	0x3d36c079	0.04461715
236	0x3c585609	0.013204106
237	0x3d780bec	0.060558245
238	0xbc556ea7	-0.01302687
239	0x3d80f1e2	0.062961355
240	0xbd01fd17	-0.031735506
241	0x3c4f66ad	0.012658757
242	0xbc26e6d9	-0.010186874
243	0x3cfc97c5	0.030834088
244	0x3da62280	0.08112049
245	0xbb5ce948	-0.0033708382
246	0xbcc05d0d	-0.02348187
247	0xbd07c141	-0.033143286
248	0x3bef6842	0.0073061297
249	0xbd620a8f	-0.05518585
250	0x3c5a1e29	0.013312855
251	0x3cdf4fcc	0.02725973
252	0xbd3a2995	-0.045449812
253	0xbcf2c74e	-0.029636052
254	0xbd096cc2	-0.033550985
255	0x3adb0d4a	0.0016712334

action_model._discrete_distribution.branches.0.bias f4 [13]
0	0x3cc146b2	0.02359328
1	0x3bd07db6	0.006362642
2	0x3c848dec	0.016180955
3	0xbba5a4a0	-0.005055025
4	0xbbdde32a	-0.006771465
5	0xbbfd94e2	-0.0077386955
6	0xbcf19c7c	-0.029493563
7	0x3c08b474	0.008343805
8	0x3cd1b132	0.025597189
9	0xbc176c92	-0.009242194
10	0x3aaa021a	0.0012970597
11	0x3c0781b8	0.008270673
12	0x39d7274c	0.00041037274

action_model._discrete_distribution.branches.1.weight f4 [13, 142]
0	0xbbb23962	-0.0054389695
1	0x3cfa1a18	0.03053002
2	0x3cf94cd1	0.030432137
3	0x3b1870f9	0.0023260696
4	0x3cb7d6ea	0.022441346
5	0xbd6aa717	-0.057288256
6	0x3a351260	0.000690734
7	0x3c035d64	0.0080178715
8	0xbaec5415	-0.001803043
9	0x39dcd6d7	0.00042121738
10	0x3a87cd53	0.0010360874
11	0x3d5f0979	0.054452393
12	0xbc9ad8c1	-0.018902184
13	0xbc93906c	-0.018013202
14	0x3cb71c3f	0.022352336
15	0x3c4fe6b7	0.012689284
16	0x3c18ca51	0.00932558
17	0x3d4b555c	0.049641952
18	0x3c7ecf7f	0.015552401
19	0xbc90888e	-0.01764324
20	0xbcf8e553	-0.030382788
21	0xbc80e87e	-0.01573586
22	0xbccf1897	-0.02528028
23	0xbc65a846	-0.01401717
24	0xbcb49270	-0.022042483
25	0xbb729bfd	-0.0037019246
26	0xbd42d775	-0.047568757
27	0xbbc8f658	-0.006132882
28	0x3cbb328f	0.022851257
29	0x3a88c634	0.0010435046
30	0x3b90b4f2	0.0044161016
31	0x3a28c44c	0.0006437942
32	0xbccd0499	-0.025026606
33	0xbcb25c91	-0.021772655
34	0xbd1832f6	-0.037157975
35	0x3be4659d	0.006970121
36	0x3924e301	0.00015724824
37	0x3c706106	0.01467157
38	0x3cb3177f	0.02186179
39	0x3c267aed	0.010161144
40	0xbcc78ac9	-0.02435817
41	0xbc98d643	-0.018656855
42	0x3c87797b	0.016537419
43	0xbc1c54d3	-0.009541708
44	0xbbd30e45	-0.00644091
45	0xbc069724	-0.008214746
46	0xbcf9fc00	-0.03051567
47	0x3b28b49e	0.0025742422
48	0x3c77251f	0.015084534
49	0xbcc8fde5	-0.024535129
50	0x3c4bc21e	0.012436418
51	0xbbbc27c7	-0.0057420465
52	0xbc92b542	-0.017908696
53	0xbce59edb	-0.02802985
54	0x3d55b66b	0.05217592
55	0xbce9c5d2	-0.02853671
56	0x3c5a1116	0.013309738
57	0x3bcfc752	0.0063408995
58	0x3bc0b702	0.005881191
59	0xbd3aa849	-0.045570645
60	0xbc9a19ec	-0.018811189
61	0xbc820629	-0.015872078
62	0x3c27a542	0.010232272
63	0xbc44bb7e	-0.012007592
64	0x3b9070ce	0.0044079786
65	0xbbce8f19	-0.0063036797
66	0xbc895e3e	-0.016768571
67	0xbc229a79	-0.009924524
68	0x3c2b75ba	0.01046508
69	0xbc1b5cb7	-0.009482554
70	0x3b04e195	0.002027606
71	0x3bbfadb3	0.005849564
72	0xbcf5ac18	-0.029989287
73	0x3c30fc1d	0.010802296
74	0xbb981829	-0.004641552
75	0xbab24b6e	-0.0013602802
76	0xbd2aef24	-0.04173197
77	0xbc2c1e15	-0.010505219
78	0xbc8ac8c6	-0.01694144
79	0xbc002302	-0.0078208465
80	0xbd268a16	-0.040659033
81	0xbc8b710e	-0.017021682
82	0xbd321334	-0.043475345
83	0xbc6c5024	-0.014423404
84	0xbcc2da53	-0.023785746
85	0xbcdcad59	-0.026938127
86	0xbdc7b3e0	-0.09751105
87	0xbbdecdf1	-0.0067994525
88	0x3b31925d	0.0027095296
89	0x3cd4989b	0.025951674
90	0x3c32c727	0.010911739
91	0xbd7e0401	-0.062015537
92	0xbc4789a0	-0.012178808
93	0x3c0d6729	0.008630552
94	0x3d3fb1cd	0.046800423
95	0x3c288b74	0.0102871545
96	0x3c9e74c2	0.019342784
97	0x3d42bef5	0.047545392
98	0x3bb59f8d	0.0055427016
99	0xbc52acd6	-0.01285859
100	0xbb4a30e6	-0.00308519
101	0xbd1dc75d	-0.038520206
102	0x3ab98cf9	0.0014156393
103	0x3c9cca06	0.019139301
104	0xbd195a71	-0.037439767
105	0x3d27de9e	0.04098379
106	0xbc1720d8	-0.009224139
107	0x3a005d3f	0.0004896707
108	0x3ceb55c6	0.028727423
109	0x3c219a27	0.009863413
110	0xbca297ef	-0.019847838
111	0x3d4758f7	0.048668828
112	0x3d7da2d9	0.06192288
113	0xbba062b5	-0.0048945793
114	0xbc971df0	-0.018446892
115	0xbd010778	-0.031501263
116	0xbd45db14	-0.048304632
117	0x3c560e90	0.013064995
118	0xbc09908a	-0.008396277
119	0xbd1ce97a	-0.038308598
120	0xbb97d185	-0.004633131
121	0x3d5d291b	0.05399428
122	0x3d50cd75	0.05097719
123	0x3c217576	0.009854665
124	0x3b391c74	0.002824572
125	0xbd001cee	-0.03127759
126	0xbd1ec00a	-0.03875736
127	0xbd21e97a	-0.0395293
128	0xbb474167	-0.0030403973
129	0xbceb7886	-0.028743993
130	0x3daa9864	0.083298475
131	0x3c843553	0.016138708
132	0x3d313321	0.04326165
133	0xbccb1e39	-0.024794685
134	0x3ca0fec7	0.019652737
135	0xbbfa0bd2	-0.0076308036
136	0xbcb5ae0d	-0.02217772
137	0x3cd0aed6	0.025473993
138	0x3d010a07	0.031503703
139	0xbd0a0f57	-0.033706035
140	0xbc6e50d4	-0.014545638
141	0xbcd4defd	-0.025985235
142	0x3bed5935	0.0072433003
143	0x3bc14cc4	0.0058990438
144	0x3c903b5e	0.017606433
145	0xbcbf09af	-0.023320047
146	0x3cdacbf9	0.02670859
147	0x3d5874b0	0.052845657
148	0xbc8d3581	-0.017237427
149	0xbca3cc6c	-0.019994937
150	0x3d1232a5	0.03569283
151	0xbc73977b	-0.014867659
152	0xbcb672cc	-0.022271536
153	0x3cd3d1ef	0.02585694
154	0xbc84b31a	-0.016198684
155	0x3ca877d5	0.020564953
156	0xbc8c0a58	-0.017094776
157	0x3c35d364	0.011097763
158	0xbcf63eae	-0.030059185
159	0xbd24e93f	-0.040261503
160	0x3d8b635d	0.068060614
161	0xbb6776a2	-0.0035318513
162	0x3d327545	0.04356887
163	0xbcdab674	-0.026698329
164	0x3ccab0a5	0.024742434
165	0x3cf541ee	0.029938664
166	0xbbb00b3e	-0.005372434
167	0x3d1763d2	0.03696043
168	0xbcb6ed61	-0.022329988
169	0x3ce23366	0.0276124
170	0x3d60f593	0.054921698
171	0xbbfe61ec	-0.007763138
172	0x3b85d2ce	0.004083968
173	0xbc84155e	-0.01612347
174	0xbd01974a	-0.03163842
175	0x3c627dc5	0.013823931
176	0x3c91512b	0.0177389
177	0xbc4f9d15	-0.012671729
178	0xbca8868f	-0.020571975
179	0x3cd3582a	0.025798876
180	0xbbb59c82	-0.005542339
181	0x3cb84301	0.022492887
182	0x3d45e902	0.048317917
183	0xbc841070	-0.01612112
184	0xbc29e2d0	-0.010369018
185	0xbd344e23	-0.04401983
186	0x3cd97dd1	0.026549252
187	0xbb70a724	-0.0036720717
188	0x3c51d35f	0.012806742
189	0x3cb283bf	0.021791337
190	0xbc9ffed1	-0.019530686
191	0xbbe633e4	-0.007025229
192	0xbcefe37f	-0.029283283
193	0xbd0dd219	-0.034624193
194	0x3cbbce64	0.022925563
195	0xbc40dfd5	-0.011772116
196	0x3c92d8d7	0.017925663
197	0x3c1b410f	0.00947596
198	0x3d326cd7	0.04356083
199	0xbcf41e88	-0.029799715
200	0xbc7a7a96	-0.015288016
201	0xbc372598	-0.011178397
202	0xbcb9cc69	-0.022680478
203	0x3b2e873a	0.0026630894
204	0xbb2d1fd2	-0.0026416671
205	0x3c62bee5	0.013839458
206	0xbc1942f3	-0.009354341
207	0x3c265ded	0.01015423
208	0xbcc55090	-0.024086267
209	0xbc8fffc8	-0.01757802
210	0x3c9b6d66	0.018973064
211	0xbc56a32e	-0.0131004285
212	0xbc253505	-0.010083442
213	0x3c6dc136	0.014511397
214	0x3b6aec6a	0.003584648
215	0xbdac51d8	-0.08414048
216	0x3c6497f5	0.013952245
217	0xbc9fa185	-0.019486198
218	0x3d33de1e	0.043913
219	0x3c3f0519	0.01165893
220	0x3d6fadf7	0.058515515
221	0x3c57c527	0.013169563
222	0xbc936782	-0.017993692
223	0xbd1fd213	-0.0390187
224	0x3a51f289	0.0008008858
225	0xbd92cdc4	-0.07168153
226	0xbc1736df	-0.009229391
227	0x3cb6a2d0	0.022294432
228	0x3c085748	0.008321591
229	0x3cbde5e2	0.023180906
230	0x3d068b01	0.03284741
231	0xbd2bcd14	-0.041943625
232	0xbbe8d7ab	-0.0071057878
233	0xbd0288c2	-0.031868704
234	0xbd2cb94f	-0.04216891
235	0xbb8b5303	-0.004251839
236	0xbd37124a	-0.044695176
237	0xba4e2bbc	-0.00078647933
238	0x3bf77d58	0.007552784
239	0x3ce897d6	0.028392714
240	0xbd1d754f	-0.038441952
241	0x3cd713b3	0.02625451
242	0xbcfc4648	-0.030795231
243	0x3c7e7773	0.015531409
244	0x3d3e5ab8	0.046473235
245	0xbd1212d5	-0.03566249
246	0xbcda2136	-0.026627164
247	0xbcf72045	-0.030166754
248	0xbcd9b48b	-0.026575347
249	0x3cfdce04	0.030982025
250	0xbc7be0f5	-0.015373458
251	0xbd220e2a	-0.03956429
252	0x3c88eccd	0.016714478
253	0xbc22e084	-0.009941224
254	0xbcbd0c78	-0.023077235
255	0xbca2727d	-0.019829983

action_model._discrete_distribution.branches.1.bias f4 [13]
0	0xbc22cd69	-0.009936669
1	0x3c9b344d	0.018945837
2	0xbd1a060e	-0.03760343
3	0xbc90d30a	-0.017678756
4	0x3bdc5e53	0.0067251115
5	0xbc88d2f4	-0.016702153
6	0xbcf73952	-0.0301787
7	0x3be17fc6	0.006881687
8	0xbd19de9a	-0.037565805
9	0xbaa2ef3f	-0.001243092
10	0x3d1b5d23	0.03793062
11	0x3cfe21b1	0.031021925
12	0x3c280cba	0.0102569405

action_model._discrete_distribution.branches.2.weight f4 [13, 142]
0	0x3d1a25e5	0.037633795
1	0x3b3f04cb	0.0029147144
2	0xbca507bc	-0.02014529
3	0x3d74af66	0.059737585
4	0x3d82267a	0.06354995
5	0x3d05cece	0.032667927
6	0x3cc28485	0.02374483
7	0x3d7332bf	0.059374567
8	0x3d0bf77a	0.03417156
9	0x3d231e9d	0.039824117
10	0x3b865a17	0.004100095
11	0x3c2396fe	0.00998473
12	0x3d31b7cb	0.04338817
13	0xbc13b0e8	-0.009014346
14	0x3c536ccc	0.012904357
15	0xbd06c806	-0.0329056
16	0x3d18a7a6	0.037269257
17	0x3c5cf8f6	0.013487091
18	0x3c258a6f	0.010103806
19	0x3d54a571	0.05191559
20	0x3cd673eb	0.02617832
21	0x3d84d972	0.06486787
22	0xbc907936	-0.017635923
23	0x3ce523c4	0.027971156
24	0xbcf3b41f	-0.029748974
25	0xbd216386	-0.039401554
26	0x3d4180f7	0.04724213
27	0x3ced8788	0.02899529
28	0x3be2b3e1	0.006918416
29	0x3d2570ad	0.04039066
30	0x3c8530b6	0.016258579
31	0x3d38c06f	0.045105394
32	0x3cd63c77	0.026151879
33	0x3d720a24	0.059091702
34	0x3cdb8eb0	0.026801437
35	0x3ccf358d	0.02529409
36	0x3d931775	0.071822084
37	0x3d2bbf58	0.041930526
38	0xbc528aa8	-0.012850441
39	0x3ccd3835	0.025051216
40	0x3d5e011b	0.054200273
41	0x3ccfb83c	0.025356404
42	0x3c2136ee	0.009839756
43	0xbc57339f	-0.013134866
44	0x3c7b3a8c	0.015333783
45	0x3d2c404e	0.042053513
46	0x3c355144	0.0110667385
47	0x3cd7a1ba	0.026322234
48	0x3d746ad2	0.059672184
49	0x3d3510c7	0.044205453
50	0x3d474658	0.04865107
51	0x3cf04491	0.02932957
52	0x3d6edffc	0.058319077
53	0x3bc111c2	0.0058920095
54	0x3cb0ce85	0.021582851
55	0x3c72fc94	0.014830727
56	0x3c6ee137	0.014580063
57	0x3c407ee8	0.011749007
58	0x3cb68f7c	0.022285216
59	0x3c2c45cd	0.010514689
60	0x3d780c60	0.060558677
61	0x3d24ee61	0.0402664
62	0x3d1a9ad6	0.03774532
63	0x3ceaf456	0.028680962
64	0x3c4261e9	0.011864164
65	0x3d0ff202	0.035142906
66	0x3cbf0db3	0.023321962
67	0x3cd4ad3b	0.025961509
68	0x3d223565	0.039601702
69	0x3cb8603d	0.022506827
70	0x3d4d3e84	0.050108448
71	0x3ada2b8b	0.0016645057
72	0x3c885e75	0.016646603
73	0x3d1b6c8c	0.037945315
74	0x3d06c195	0.032899458
75	0x3d4dfff0	0.05029291
76	0xbc4f7f12	-0.012664573
77	0x3d7b2878	0.06131789
78	0xbd53130b	-0.051531833
79	0x3cbb8139	0.022888767
80	0x3d2b64e7	0.041844275
81	0x3d7a3ca0	0.061092973
82	0xbd102dba	-0.03519986
83	0xbcf268f7	-0.029591067
84	0x3d24f657	0.04027399
85	0x3cc6e33f	0.024278281
86	0x3d861567	0.06547051
87	0x3d74f310	0.059802115
88	0x3c5636f5	0.013074626
89	0xbc0bf855	-0.008543094
90	0x3d815cf5	0.06316558
91	0xbbbf7b16	-0.0058435304
92	0xbc5c31fd	-0.0134396525
93	0x3d39c27f	0.0453515
94	0x3c45779a	0.012052441
95	0x3d16e916	0.03684338
96	0x3c7ce3cf	0.015435173
97	0x3d1410e8	0.036148936
98	0x3cfee87e	0.03111672
99	0x3c0ae5ac	0.00847761
100	0x3d149b6b	0.03628103
101	0x3d10c6e1	0.035345916
102	0x3c58f17f	0.013241171
103	0x3c9f598c	0.019451879
104	0x3c0f9e10	0.008765712
105	0x3c0acaa1	0.008471162
106	0x3cac026f	0.020997254
107	0xbc3a1e54	-0.01135977
108	0x3ca8b962	0.02059621
109	0x3cb4321f	0.021996556
110	0x3d2aaa12	0.041666098
111	0x3d932257	0.07184284
112	0xbcfcad67	-0.030844403
113	0x3cc1f31b	0.023675492
114	0xbc04e802	-0.008111956
115	0xbad20478	-0.001602306
116	0x3ca809b9	0.020512449
117	0x3cc0cd34	0.023535348
118	0xbc794660	-0.015214533
119	0xbced4413	-0.028963124
120	0x3d30f09a	0.043198206
121	0xbca56080	-0.020187616
122	0x3cc36c83	0.023855453
123	0xbbd355be	-0.0064494302
124	0xbd7e93a4	-0.06215252
125	0xbcef934f	-0.029245047
126	0x3cb03e99	0.021514224
127	0x3d2e3c81	0.04253817
128	0xbc979a18	-0.018506095
129	0x3cdfb25a	0.027306724
130	0x3cb3099c	0.021855168
131	0x3c3867b5	0.011255194
132	0x3cd984e0	0.026552618
133	0xba10d66a	-0.0005525114
134	0x3d970bab	0.07375272
135	0x3d17705e	0.036972396
136	0x3d01cd3c	0.031689867
137	0x3d34f57c	0.044179425
138	0x3d3ca004	0.04605104
139	0x3cbbae51	0.022910269
140	0x3d34c4de	0.04413306
141	0x3afb42c4	0.0019169678
142	0x3be931ec	0.007116547
143	0xbc87c7b4	-0.016574718
144	0xb982dac0	-0.00024958514
145	0xbcbd02b1	-0.023072572
146	0xbd9ae1d1	-0.07562602
147	0xbcf84a53	-0.030308878
148	0x3bf587de	0.0074930033
149	0x3c71897b	0.014742251
150	0xbd0357e8	-0.032066256
151	0xbbbe382a	-0.005805035
152	0xbc9da988	-0.019245878
153	0x3b5cdd7a	0.0033701346
154	0x3b41ae88	0.0029553492
155	0x3baf13e8	0.005342949
156	0xbd7727d5	-0.06034072
157	0x3d3ea649	0.0465453
158	0xbc108ed0	-0.008823112
159	0x3cca4c9f	0.024694739
160	0xbcf0742e	-0.029352274
161	0x39958d78	0.00028524897
162	0xbcb5720d	-0.02214911
163	0xbcabe6c8	-0.020984069
164	0x3ccdafda	0.025108267
165	0x3c829176	0.015938502
166	0x3b59db3b	0.0033242244
167	0x3d027763	0.031852137
168	0xbd1c1fce	-0.03811627
169	0xbcae1db2	-0.021254394
170	0x3c630841	0.013856948
171	0xbd0f7ed7	-0.035033073
172	0xbceaf4bc	-0.028681152
173	0xbc753857	-0.014967046
174	0xbd2d1612	-0.042257376
175	0xbbe9f206	-0.007139447
176	0x3d2cd2ac	0.0421931
177	0xbb900c06	-0.0043959646
178	0xbc76ec5b	-0.015071
179	0x3c64a1b6	0.0139545705
180	0x3c888db6	0.016669136
181	0x3b9a6928	0.0047122426
182	0x3bef17da	0.0072965445
183	0xbca557fb	-0.020183554
184	0x3d23f13e	0.04002499
185	0x3cb99521	0.022654118
186	0xbb3f645a	-0.0029204101
187	0x3b649678	0.0034879725
188	0xbca54fcc	-0.020179652
189	0xbc4b74e0	-0.012418002
190	0xbbfb133f	-0.0076622064
191	0x3c15e128	0.00914792
192	0xbd0fcead	-0.03510921
193	0xbbc05114	-0.0058690403
194	0xbc3b073e	-0.011415301
195	0xbc03f5fd	-0.008054254
196	0x3c567cc2	0.013091268
197	0x3b69bed7	0.0035666728
198	0x3d177dd7	0.036985245
199	0xbc332ef4	-0.0109364875
200	0xbb890f8d	-0.004182762
201	0xbcbd1cdc	-0.02308505
202	0xbd50d58e	-0.05098491
203	0x3be371f9	0.006941077
204	0xbb9dca85	-0.004815402
205	0xbd18755e	-0.037221305
206	0x3cf5b254	0.02999226
207	0x3a9cd1ec	0.0011964417
208	0xbd473104	-0.04863073
209	0x3c24f1dd	0.01006743
210	0x3cb37872	0.021908019
211	0xbc479eec	-0.012183886
212	0xbcf53961	-0.029934587
213	0xbad785fb	-0.0016443128
214	0xbc39cd95	-0.0113405185
215	0xbd65cbba	-0.056102492
216	0x3c375c4e	0.011191441
217	0xbc76983a	-0.015050942
218	0xbad4c48e	-0.0016232894
219	0x3be0c4e5	0.006859409
220	0xbc9e5a8b	-0.019330284
221	0xb9a38056	-0.000311854
222	0xbc069e01	-0.008216382
223	0xbd0dc031	-0.034607116
224	0xbcad2420	-0.02113539
225	0xbcceebfb	-0.025259009
226	0x3ba1bdb7	0.004935946
227	0xbb88f36c	-0.004179409
228	0x3ce28d37	0.027655227
229	0xba97cf8c	-0.001158224
230	0x3ab44fb1	0.001375666
231	0x3d85441d	0.06507132
232	0xbd17353d	-0.036916006
233	0xbc2690cb	-0.010166357
234	0x3cf155db	0.029459884
235	0x3c4061e5	0.01174209
236	0xbd93fb43	-0.07225659
237	0xbd63f473	-0.055653047
238	0x3cad5315	0.02115778
239	0xbc251cce	-0.010077668
240	0xbc9a395e	-0.018826183
241	0x3c160459	0.00915631
242	0xbce17a0c	-0.027524017
243	0xbcc3bb55	-0.023893038
244	0xbd7dc32c	-0.06195371
245	0x3cc58a0a	0.024113674
246	0xbb0c2122	-0.0021382053
247	0xbd74b990	-0.05974728
248	0x3b792826	0.0038018315
249	0xbca9d955	-0.020733515
250	0x3d0a1ff7	0.03372189
251	0xbc21e041	-0.009880126
252	0xbc41b117	-0.011822007
253	0x3c384e73	0.0112491725
254	0xbce182b8	-0.027528152
255	0x3d075b40	0.033046007

action_model._discrete_distribution.branches.2.bias f4 [13]
0	0x3d45774f	0.048209485
1	0xbbca9ded	-0.006183377
2	0x3cb2fb42	0.021848325
3	0xbc35e8cb	-0.011102865
4	0xbc8e71b2	-0.017388199
5	0x3c18ab9d	0.00931826
6	0xbca5dec5	-0.020247826
7	0xbc63f413	-0.013913172
8	0xbc9f5420	-0.019449294
9	0x3ce7e2cf	0.028306393
10	0xbd3f946c	-0.046772406
11	0xbc214df4	-0.009845246
12	0x3ca683b4	0.020326473
