results/NewTwoAgentsFullBoardActionKeepAfterFail/BlackMLAgent/BlackMLAgent-38930.onnx (onnx, 681198 bytes, 133 tensors)

discrete_act_size_vector f4 [1, 64]
13.0 13.0 13.0 13.0 13.0 13.0 13.0 13.0
13.0 13.0 13.0 13.0 13.0 13.0 13.0 13.0
13.0 13.0 13.0 13.0 13.0 13.0 13.0 13.0
13.0 13.0 13.0 13.0 13.0 13.0 13.0 13.0
13.0 13.0 13.0 13.0 13.0 13.0 13.0 13.0
13.0 13.0 13.0 13.0 13.0 13.0 13.0 13.0
13.0 13.0 13.0 13.0 13.0 13.0 13.0 13.0
13.0 13.0 13.0 13.0 13.0 13.0 13.0 13.0
00000000: 0000 5041 0000 5041 0000 5041 0000 5041
00000010: 0000 5041 0000 5041 0000 5041 0000 5041
00000020: 0000 5041 0000 5041 0000 5041 0000 5041
00000030: 0000 5041 0000 5041 0000 5041 0000 5041
00000040: 0000 5041 0000 5041 0000 5041 0000 5041
00000050: 0000 5041 0000 5041 0000 5041 0000 5041
00000060: 0000 5041 0000 5041 0000 5041 0000 5041
00000070: 0000 5041 0000 5041 0000 5041 0000 5041
00000080: 0000 5041 0000 5041 0000 5041 0000 5041
00000090: 0000 5041 0000 5041 0000 5041 0000 5041
000000a0: 0000 5041 0000 5041 0000 5041 0000 5041
000000b0: 0000 5041 0000 5041 0000 5041 0000 5041
000000c0: 0000 5041 0000 5041 0000 5041 0000 5041
000000d0: 0000 5041 0000 5041 0000 5041 0000 5041
000000e0: 0000 5041 0000 5041 0000 5041 0000 5041
000000f0: 0000 5041 0000 5041 0000 5041 0000 5041

network_body._body_endoder.seq_layers.0.weight f4 [142, 71]
0.09216417 -0.08009656 0.0848748 -0.22104858 0.13560182 0.15066807 0.083960004 -0.024402466
0.035626512 0.121093504 -0.03652855 -0.047382783 -0.06155653 0.19238684 -0.14428991 -0.21278091
-0.14883353 -0.40138522 -0.06607885 -0.09444448 -0.03517884 -0.066400126 -0.02725702 -0.064427644
-0.11018879 -0.18549551 0.09338197 -0.13522866 -0.04837638 -0.014758835 -0.08231408 0.042404134
-0.049094237 0.036619913 -0.13348415 -0.017932076 0.024501251 -0.26975173 -0.07441759 -0.056831226
-0.14219701 0.043700095 0.063284785 0.13511497 0.0017614037 0.02201451 -0.033449903 0.2674491
-0.13128656 0.069136776 -0.009378852 0.16450797 -0.19536239 -0.18438534 0.012729197 -0.036675103
-0.07415439 0.11134098 0.11394885 0.049606256 -0.1673255 -0.35955623 -0.068516985 -0.08139486
-0.022975415 0.009352382 -0.032252733 0.01961797 0.028547404 0.16475102 -0.10078119 -0.024397807
0.20931788 -0.13337052 -0.13676743 -0.006017195 0.041526083 0.16999833 -0.010603604 0.17147681
-0.039805315 0.028344141 0.11563266 0.010197338 -0.028681902 0.13266148 -0.0033073334 -0.070680074
0.036138255 -0.038426716 -0.0146007035 -0.15651539 0.09466224 -0.10055547 -0.2148115 0.11931109
-0.11604198 -0.26602143 -0.27972016 -0.069233015 0.08379466 -0.051022336 -0.033500213 0.033812713
-0.043662336 -0.017424759 -0.020033112 0.28019127 0.049423832 0.09059778 -0.13306879 0.0658213
0.034053262 -0.028858272 -0.013275948 -0.13490653 -0.007700239 0.22049604 -0.15946805 -0.07018076
-0.087491974 -0.05320447 -0.10308456 0.008894554 0.17853163 0.03951048 -0.00366904 0.046916846
-0.27382898 0.11560694 -0.1273676 0.16247353 0.1902749 0.05941696 0.091344215 -0.1984114
0.25775653 -0.20986462 0.015421789 -0.115221776 0.008757259 0.19095707 -0.15891704 -0.015367737
-0.14481482 0.022518571 0.03627093 0.023394758 -0.15760618 0.23345688 0.06992192 -0.036456294
0.066162825 0.07924495 0.08599601 -0.05062598 -0.18617326 -0.09801825 -0.16193707 -0.05316069
0.09875781 0.21432921 0.26980832 -0.03497862 0.10249193 0.060179234 0.11558371 -0.23104115
-0.021299196 -0.08783933 -0.017466666 -0.15135154 -0.17472565 0.22970283 0.17871505 -0.08802785
-0.09584146 -0.038821444 -0.019907365 -0.1634865 0.05252006 0.009225579 0.19669507 -0.15825815
-0.029803365 0.05130882 -0.14227547 0.026984133 0.15922716 0.0022885043 0.074131854 -0.01975358
-0.13512503 0.07554809 -0.10260022 0.1335879 -0.22651102 -0.21641994 -0.03209094 -0.03050172
0.17537588 0.04896947 -0.120297566 0.13037314 0.101873085 -0.014808299 -0.093314506 -0.24102749
-0.07770873 0.05466784 0.037214387 -0.13109015 -0.16962712 0.00251211 0.19919896 0.24611504
-0.0032864816 -0.057294626 0.12294171 -0.09506389 -0.14059134 0.1502298 0.01312197 -0.005479342
-0.08983712 -0.19591208 0.068527624 -0.30273962 0.06495158 -0.11135406 -0.25394872 -0.06371809
0.36974728 0.0057018986 0.00079447427 0.057811227 -0.20680022 0.17290254 0.29012227 -0.14652221
0.048929583 0.044938292 0.048311792 0.023650667 0.16781317 0.036299687 0.14600872 -0.016908856
-0.010387716 0.0508552 0.020285703 -0.23638953 -0.009908354 0.110866204 -0.059771642 -0.11974255
00000000: 92c0 bc3d aa09 a4bd d7d2 ad3d 8f5a 62be
00000010: 34db 0a3e bb48 1a3e 39f3 ab3d aee7 c7bc
00000020: 1bed 113d dfff f73d f69e 15bd 7314 42bd
00000030: b322 7cbd 0e01 453e bcc0 13be 3de3 59be
00000040: d167 18be 5d82 cdbe 5954 87bd 1c6c c1bd
00000050: b017 10bd cafc 87bd 1d4a dfbc a4f2 83bd
00000060: a9aa e1bd 89f2 3dbe 0c3f bf3d 6279 0abe
00000070: 5026 46bd 0acf 71bc 4994 a8bd f5af 2d3d
00000080: 0a17 49bd c3fe 153d 12b0 08be 4ae6 92bc
00000090: d9b6 c83c e61c 8abe 4068 98bd dcc7 68bd
000000a0: 189c 11be dffe 323d 749b 813d 945b 0a3e
000000b0: e7de e63a c657 b43c c402 09bd 17ef 883e
000000c0: fc6f 06be 9597 8d3d c2a9 19bc c774 283e
000000d0: 140d 48be 83cf 3cbe 1f8e 503c a238 16bd
000000e0: 42de 97bd bd06 e43d 045e e93d ee2f 4b3d
000000f0: 6057 2bbe c117 b8be a252 8cbd 59b2 a6bd
00000100: f036 bcbc bc3a 193c 711b 04bd ddb5 a03c
00000110: 3fdc e93c 7eb4 283e 5e66 cebd e9dd c7bc
00000120: 6d57 563e 4892 08be c30c 0cbe e42b c5bb
00000130: 4117 2a3d 0b14 2e3e bdba 2dbc 9e97 2f3e
00000140: e60a 23bd f931 e83c d1d0 ec3d bc12 273c
00000150: 4ff6 eabc 69d8 073e d9bf 58bb b7c0 90bd
00000160: b505 143d 5565 1dbd ca37 6fbc 9245 20be
00000170: 47de c13d 07f0 cdbd 8cf7 5bbe 5f59 f43d
00000180: 6ba7 edbd f633 88be 7b37 8fbe 0aca 8dbd
00000190: 899c ab3d ccfc 50bd 8537 09bd 337f 0a3d
000001a0: 47d7 32bd 5ebe 8ebc 7b1c a4bc 3b75 8f3e
000001b0: a570 4a3d 548b b93d 2f43 08be 51cd 863d
000001c0: 6f7b 0b3d 2f68 ecbc 5d83 59bc f024 0abe
000001d0: 4952 fcbb b7c9 613e 984b 23be eeba 8fbd
000001e0: fe2e b3bd eeec 59bd ff1d d3bd 77ba 113c
000001f0: ffd0 363e bed5 213d 4774 70bb e12b 403d
00000200: 5033 8cbe 55c3 ec3d a76c 02be 765f 263e
00000210: 6cd7 423e 335f 733d ad12 bb3d 5c2c 4bbe
00000220: aaf8 833e c0e6 56be acab 7c3c 65f9 ebbd
00000230: 9b7a 0f3c 408a 433e 26bb 22be f6c8 7bbc
00000240: 564a 14be de78 b83c d490 143d 5da6 bf3c
00000250: 8463 21be 520f 6f3e 3933 8f3d 3253 15bd
00000260: 6080 873d 2d4b a23d ad1e b03d 305d 4fbd
00000270: 34a4 3ebe cbbd c8bd d5d2 25be 06bf 59bd
00000280: 8941 ca3d 1e79 5b3e 5124 8a3e be45 0fbd
00000290: 4ae7 d13d 807e 763d 27b7 ec3d 0d96 6cbe
000002a0: a77b aebc 1be5 b3bd 4116 8fbc e6fb 1abe
000002b0: 48eb 32be 3837 6b3e 1401 373e f247 b4bd
000002c0: 8748 c4bd 3c03 1fbd c514 a3bc 0169 27be
000002d0: 461f 573d e226 173c 6f6a 493e 6d0e 22be
000002e0: 3026 f4bc 3229 523d a9b0 11be d40d dd3c
000002f0: 720c 233e bbfa 153b 71d2 973d 43d2 a1bc
00000300: 375e 0abe f5b8 9a3d 1020 d2bd 44cb 083e
00000310: 81f2 67be 309d 5dbe ca71 03bd bede f9bc
00000320: bc95 333e 3694 483d 925e f6bd 8980 053e
00000330: d6a2 d03d 829e 72bc ad1b bfbd e9cf 76be
00000340: c125 9fbd 63eb 5f3d 1d6e 183d 7f3c 06be
00000350: bbb2 2dbe 36a2 243b d0fa 4b3e 9505 7c3e
00000360: 0362 57bb c5ad 6abd ddc8 fb3d dbb0 c2bd
00000370: 2df7 0fbe d7d5 193e 88fd 563c 0d8c b3bb
00000380: 86fc b7bd 2d9d 48be 3658 8c3d b000 9bbe
00000390: 5505 853d 990d e4bd 9105 82be a17e 82bd
000003a0: 844f bd3e fed6 ba3b 4444 503a 77cb 6c3d
000003b0: 70c3 53be 5d0d 313e e88a 943e eb09 16be
000003c0: 636a 483d 3711 383d 96e2 453d 0bbf c13c
000003d0: 37d7 2b3e fbae 143d 4f83 153e 7184 8abc
000003e0: 3d31 2abc 8b4d 503d 342e a63c 1910 72be
000003f0: a656 22bc d20d e33d 1cd3 74bd 953b f5bd

network_body._body_endoder.seq_layers.0.bias f4 [142]
-0.019578233 -0.005397467 0.01340365 -0.004784649 -0.005508675 -0.0009801021 -0.0048939018 -0.030291015
0.0039912183 0.02689699 -0.0008042684 0.010812116 0.007540361 -0.0032237303 -0.010148958 -0.002566432
0.00051945844 -0.013019588 -0.00765771 -0.01181507 0.0072445055 0.0008257147 -0.016735816 -0.013752153
-0.013788874 -0.035911854 -0.003742906 -0.015180482 -0.0105144335 -0.014337347 0.0009004634 0.0033274447
-0.019311398 -0.0066507854 -0.0037387558 -0.00890359 0.0001057048 -0.027839724 -0.027182369 -0.020942423
-0.02608115 0.0009465545 -0.009538991 0.0036642218 -0.021657601 -0.009831616 0.0050161635 0.022031978
-0.004377866 -0.020095509 0.014785896 0.023455726 -0.009786032 0.00441922 -0.010181649 -0.008609276
-0.00056666264 0.025308348 0.0055900835 -0.0036018186 -0.011252758 0.01171477 0.0071666306 0.028577022
-0.02413794 0.0054811994 -0.009982142 -0.013978974 -0.017878104 -0.021507211 -0.0037217117 -0.008269129
0.0001646697 0.015259658 -0.005450189 0.0011246272 0.0051797 -0.01647894 -0.016424917 -0.002355271
0.00095106935 -0.01195034 -0.010582591 0.007911965 0.019273361 0.01365993 -0.01690978 0.018186148
-0.013186805 -0.0065726764 0.007352972 0.010912889 0.0009996818 -0.026268767 0.008298605 0.016477583
0.0073850406 0.004700176 -0.0032876986 0.007745867 -0.012638595 0.012360491 0.003548614 0.0043455497
0.023361836 -0.01099312 0.007567479 0.009738739 0.01615772 -0.014576577 -0.010955308 -0.006172354
-0.0019668487 -0.018561872 -0.017780097 0.0075176647 -0.0067566875 0.005800683 0.0049216133 0.00054855115
-0.038715422 -0.015986502 -0.008360134 -0.012464595 0.006673453 -0.007250742 0.011984165 -0.0024484852
-0.027071541 0.00032505207 -0.0008324803 0.0045204866 -0.003491149 0.00047826418 0.0034413026 -0.0218413
-0.0089008175 0.0052690855 0.01359772 -0.0051153316 0.0036958128 0.005972435
00000000: 8862 a0bc 3cdd b0bb fc9a 5b3c 8bc8 9cbb
00000010: 1d82 b4bb c576 80ba 065d a0bb dd24 f8bc
00000020: c4c8 823b 1457 dc3c 8ad5 52ba 4d25 313c
00000030: 2215 f73b 3845 53bb d147 26bc 9631 28bb
00000040: 442c 083a 1c50 55bc 87ed fabb ff93 41bc
00000050: 5163 ed3b c774 583a 8d19 89bc b650 61bc
00000060: bbea 61bc 4f18 13bd 8b4b 75bb 8eb7 78bc
00000070: bb44 2cbc 31e7 6abc 130d 6c3a 4211 5a3b
00000080: f032 9ebc d5ee d9bb ea05 75bb 5de0 11bc
00000090: d5ad dd38 2210 e4bc 8fad debc 728f abbc
000000a0: 23a8 d5bc 3222 783a 6e49 1cbc 7123 703b
000000b0: 486b b1bc c914 21bc a15e a43b 687c b43c
000000c0: 3474 8fbb 569f a4bc 8b40 723c 3926 c03c
000000d0: 9855 20bc 1bcf 903b eed0 26bc ec0d 0dbc
000000e0: 168c 14ba 7453 cf3c 052d b73b 7d0c 6cbb
000000f0: 7d5d 38bc 4fef 3f3c 0ed6 ea3b 5c1a ea3c
00000100: eebc c5bc a29b b33b 238c 23bc 1108 65bc
00000110: 1a75 92bc e42f b0bc f6e7 73bb 3e7b 07bc
00000120: 30ab 2c39 a503 7a3c 8097 b2bb 3a68 933a
00000130: 79ba a93b d8fe 86bc 8c8d 86bc e45a 1abb
00000140: 2f51 793a 5ccb 43bc 9b62 2dbc 30a1 013c
00000150: 2be3 9d3c e6cd 5f3c 6186 8abc 1efb 943c
00000160: 780d 58bc 9b5f d7bb 33f1 f03b f9cb 323c
00000170: c107 833a 9931 d7bc dff6 073c fffb 863c
00000180: 36fe f13b ef03 9a3b 6e76 57bb 0bd1 fd3b
00000190: 1c12 4fbc a883 4a3c dd8f 683b 1d65 8e3b
000001a0: 5261 bf3c 7d1c 34bc 9df8 f73b 3b8f 1f3c
000001b0: 325d 843c 98d2 6ebc e47d 33bc 7541 cabb
000001c0: 3fe6 00bb 110f 98bc 91a7 91bc be56 f63b
000001d0: 3467 ddbb a813 be3b 7c45 a13b a5cc 0f3a
000001e0: 1094 1ebd 20f6 82bc f2f8 08bc 4d38 4cbc
000001f0: fbac da3b a297 edbb 3b59 443c c476 20bb
00000200: 23c5 ddbc c06b aa39 cf3a 5aba 9720 943b
00000210: c3cb 64bb 88bf fa39 7a87 613b 87ec b2bc
00000220: bcd4 11bc 4ba8 ac3b f9c8 5e3c 839e a7bb
00000230: 7335 723b 6bb4 c33b

network_body._body_endoder.seq_layers.2.weight f4 [142, 142]
0.031812213 -0.10750474 0.01156283 -0.09390599 0.10121709 -0.035956968 -0.089072645 0.019188752
-0.15035278 -0.09851712 -0.06092262 0.25766808 -0.057230953 0.025666367 -0.042573962 0.07072585
-0.054989666 0.14392231 0.024240447 -0.03435779 0.03395597 -0.17822376 -0.024285857 0.103083014
0.061738648 -0.01772389 -0.18128817 -0.017354079 -0.083874844 -0.07627625 0.14307624 -0.103443556
0.03135136 -0.020456813 -0.07974366 -0.018353296 0.17566766 0.0154406605 -0.1133221 0.07953939
-0.03854248 0.087290436 -0.10695916 0.101741716 -0.06357636 -0.0060348012 -0.0075756973 -0.07616975
0.035277322 0.002008894 0.12342837 -0.08306572 0.10844645 -0.042363606 -0.10562127 -0.0050371867
-0.19087479 0.20557411 -0.09484248 0.15276875 -0.05334407 -0.043731168 -0.044070635 -0.13692512
-0.08859604 -0.06961261 0.08442212 0.011022624 0.049218666 -0.07847677 0.18800801 0.046990305
0.11319808 -0.18066067 -0.13213198 0.058792654 -0.038055535 -0.040377706 -0.06418573 0.12593366
-0.08091866 -0.08296491 -0.114567354 0.03659243 -0.08766749 0.13715045 0.0019805292 -0.15030977
-0.07616818 0.09020229 0.014193191 0.040610764 -0.0548731 -0.073005356 0.055392344 -0.19341008
0.109515406 -0.041418582 -0.11703055 -0.028294919 0.13498512 0.059195798 0.06510119 -0.04043083
0.07555865 -0.021503098 0.114029035 0.057844892 0.0580449 0.16142376 0.040255476 0.037332922
0.039382983 -0.14949979 -0.036304433 0.15152189 0.004313663 -0.11022245 0.03762537 -0.25773123
0.019255608 0.0351203 0.14927278 -0.029240001 0.08358352 0.10374939 -0.21448381 0.07336337
-0.0366776 -0.042279664 0.024055231 -0.034009334 0.069491945 0.08399067 -0.08657517 0.017823469
-0.02813508 0.15985163 0.1023482 0.01827619 -0.026662048 0.032979604 -0.09736289 0.05699441
-0.0740044 -0.036406327 -0.089472465 0.06163441 0.16947469 0.025132554 0.16141433 -0.11723208
-0.0073450934 0.037761528 0.12334448 0.101841435 -0.07042344 0.0117053315 -0.08364904 0.018495288
0.09173225 -0.03799121 -0.025654579 -0.06971815 -0.10629355 -0.10983549 -0.09116487 -0.20492588
0.037843697 -0.02662258 0.14357938 -0.006022821 0.011884453 -0.026612261 0.11646286 0.06556683
0.018427227 0.028793693 -0.0308395 0.043565404 0.07918924 -0.14298409 -0.07666932 -0.14340457
-0.024968795 -0.014901633 0.18478061 0.03980557 0.03697919 -0.049051467 0.01842269 0.008622073
0.061142668 -0.09264616 0.03306163 0.27336428 0.21362852 -0.07009764 -0.04104388 0.014302941
0.04242186 -0.17282607 -0.0951303 -0.038324706 0.04578678 -0.1071609 -0.031287566 0.0509609
-0.0066660233 -0.028844498 0.031651456 0.14870441 -0.006770241 0.021901393 -0.128124 -0.058074944
0.0057143853 0.044682063 0.09880763 0.08631879 0.0028381296 -0.093940265 0.2002953 0.0056803385
-0.023910105 -0.080607064 -0.03519512 -0.044229038 -0.024820743 -0.024951128 -0.0706102 0.0039420715
-0.10218887 -0.1009285 0.033431876 0.06661353 -0.1238994 -0.023100952 -0.08853768 0.035101786
0.24806781 -0.0373451 -0.06616649 -0.12632613 0.15078987 -0.064648256 -0.27033076 -0.056916513
-0.04651898 0.054456607 0.07301967 -0.096162215 0.08651936 0.020647641 0.052531384 0.1432732
00000000: 864d 023d 722b dcbd 0672 3d3c c951 c0bd
00000010: e84a cf3d 9d47 13bd b86b b6bd bb31 9d3c
00000020: 14f6 19be 58c3 c9bd ff89 79bd 12ed 833e
00000030: 016b 6abd 4642 d23c 0962 2ebd b7d8 903d
00000040: d83c 61bd 5f60 133e e793 c63c c1ba 0cbd
00000050: 6a15 0b3d 4a80 36be 22f3 c6bc 301d d33d
00000060: aae1 7c3d b131 91bc 9ba3 39be 242a 8ebc
00000070: 93c6 abbd b936 9cbd 9482 123e 37da d3bd
00000080: 496a 003d 0c95 a7bc a550 a3bd a759 96bc
00000090: 39e2 333e d3fa 7c3c 6b15 e8bd 8ce5 a23d
000000a0: b8de 1dbd 54c5 b23d 670d dbbd f65d d03d
000000b0: 5334 82bd 95bf c5bb 8e3d f8bb e3fe 9bbd
000000c0: f47e 103d a6a7 033b 03c8 fc3d 5c1e aabd
000000d0: 2c19 de3d 7685 2dbd f74f d8bd fc0e a5bb
000000e0: ae74 43be 0582 523e c63c c2bd 696f 1c3e
000000f0: 507f 5abd 741f 33bd 6983 34bd 1936 0cbe
00000100: d771 b5bd 0e91 8ebd 81e5 ac3d 3c98 343c
00000110: 8399 493d 6eb8 a0bd 2c85 403e e878 403d
00000120: 65d4 e73d 1cff 38be 9b4d 07be 91d0 703d
00000130: 1fe0 1bbd 1863 25bd cf73 83bd c1f4 003e
00000140: afb8 a5bd 82e9 a9bd 4aa2 eabd f2e1 153d
00000150: 038b b3bd 2b71 0c3e c4cb 013b ceea 19be
00000160: 10fe 9bbd fabb b83d 8f8a 683c 7957 263d
00000170: 9ec2 60bd d583 95bd 15e3 623d 4b0d 46be
00000180: 9d49 e03d 88a6 29bd b7ad efbd bfca e7bc
00000190: 8a39 0a3e 4b77 723d c653 853d cc9a 25bd
000001a0: 7ebe 9a3d 4427 b0bc 0e88 e93d c4ee 6c3d
000001b0: 7dc0 6d3d 454c 253e ede2 243d 68ea 183d
000001c0: 0d50 213d 7916 19be f5b3 14bd 8e28 1b3e
000001d0: a159 8d3b 4fbc e1bd 0f1d 1a3d 59f5 83be
000001e0: f0bd 9d3c 4eda 0f3d f7da 183e ba88 efbc
000001f0: d62d ab3d 8f7a d43d a5a1 5bbe 893f 963d
00000200: 403b 16bd 712d 2dbd 7a0f c53c 5f4d 0bbd
00000210: cb51 8e3d 4d03 ac3d 534e b1bd 8602 923c
00000220: 8a7b e6bc 25b0 233e ef9b d13d f3b7 953c
00000230: 5e6a dabc 9f15 073d 3266 c7bd f872 693d
00000240: 9e8f 97bd cd1e 15bd 573d b7bd 5d74 7c3d
00000250: c68a 2d3e c9e2 cd3c cc49 253e 5f17 f0bd
00000260: 1caf f0bb d5ab 1a3d 089c fc3d 3e92 d03d
00000270: 2a3a 90bd b8c7 3f3c 3050 abbd 6e83 973c
00000280: 1ede bb3d ac9c 1bbd 8d29 d2bc 64c8 8ebd
00000290: 6fb0 d9bd 6ef1 e0bd a6b4 babd 17d8 51be
000002a0: fe01 1b3d 9917 dabc 7906 133e 165b c5bb
000002b0: 02b7 423c f501 dabc 1484 ee3d e747 863d
000002c0: b2f4 963c c0e0 eb3c 1ea3 fcbc a371 323d
000002d0: f82d a23d 6c6a 12be ce04 9dbd a6d8 12be
000002e0: 5c8b ccbc fb25 74bc 2137 3d3e 2a0b 233d
000002f0: 7e77 173d 31ea 48bd 2eeb 963c 9843 0d3c
00000300: bc70 7a3d 45bd bdbd a26b 073d 67f6 8b3e
00000310: 6fc1 5a3e 5a8f 8fbd a11d 28bd e256 6a3c
00000320: 8bc2 2d3d 51f9 30be add3 c2bd 5efa 1cbd
00000330: eb8a 3b3d 2d77 dbbd 6427 00bd 60bc 503d
00000340: a86e dabb 4c4b ecbc f5a4 013d f845 183e
00000350: e6d8 ddbb 8d6a b33c f032 03be fedf 6dbd
00000360: bd3f bb3b 8a04 373d a85b ca3d e8c7 b03d
00000370: eaff 393b c163 c0bd 361a 4d3e 2222 ba3b
00000380: 20df c3bc 5115 a5bd c228 10bd 8229 35bd
00000390: df54 cbbc 4f66 ccbc 159c 90bd 7e2c 813b
000003a0: 6648 d1bd 9ab3 cebd ddef 083d ad6c 883d
000003b0: f8be fdbd 353e bdbc 3e53 b5bd e4c6 0f3d
000003c0: 7d05 7e3e 2df7 18bd 4c82 87bd a35b 01be
000003d0: a968 1a3e 4e66 84bd cb68 8abe 4a21 69bd
000003e0: b08a 3ebd e40d 5f3d 568b 953d b2f0 c4bd
000003f0: 1031 b13d 3e25 a93c 262b 573d 36b6 123e

network_body._body_endoder.seq_layers.2.bias f4 [142]
0.018149534 0.039876245 0.043812066 0.02169314 0.019100497 0.033293296 0.00055412593 0.0019522547
0.024127603 -0.0055372147 -0.00058064103 0.0005600389 0.013806081 0.012318637 0.017544687 0.016935946
-0.010607209 0.017864008 0.0015770069 -0.0035452594 -0.0049825576 0.008966014 0.029488936 0.007947132
0.022456987 0.013520007 0.013864361 -0.009323023 0.032176726 0.005584251 0.025107203 0.03096296
0.0065612635 0.00513552 0.020607546 0.0017487418 0.023339964 -0.0081304265 0.041095335 0.008270464
0.0060783196 0.0114526125 0.00934102 0.015020602 0.009811525 -0.00013213404 0.006888791 0.0020295533
0.014962216 0.0030470702 0.041236646 0.01689156 0.010374261 0.0043500606 -0.029877517 0.017058203
-0.0062711183 0.00063213 0.010998611 0.0077512073 0.008414161 0.0048691896 0.010687608 0.014183421
0.018391592 -0.028611725 -0.0023447406 0.020131808 0.03766952 0.017188324 0.0338879 0.008365618
0.0108082 0.012668708 0.012695531 -0.013065537 0.0031878897 0.016994353 -0.0006298831 -0.0036543938
0.0039338483 -0.022695608 0.008858375 0.017638562 -0.011473417 -0.00045784508 0.015497472 -0.001477496
0.016874876 0.025292968 0.03305105 -0.0064474135 -0.0033648908 -0.010659998 0.016461907 0.008707545
0.008712579 0.02909598 -0.011124821 0.012261825 0.036084644 0.00068768783 0.0017563781 -0.009282889
-0.0005813679 0.016992727 0.004320948 0.045904752 0.01058538 0.021765782 0.0025648333 0.011021117
0.026564274 -0.0119002955 -0.004846929 0.01292778 -0.0142090265 0.031017601 0.0023791348 -0.002347918
0.0043643923 0.038201306 0.013597133 0.017824145 0.040266197 -0.0055171256 -0.00027033617 0.024744509
0.029362129 -0.005591081 -0.006468413 0.037313726 0.015623952 0.0033316028 0.0061485795 -0.0075715794
-0.0079618255 -0.00014857209 0.010059798 -0.008867138 0.028508011 0.0304128
00000000: 55ae 943c 4655 233d 4874 333d d0b5 b13c
00000010: a578 9c3c 8d5e 083d c342 113a cce2 ff3a
00000020: 40a7 c53c 8671 b5bb 2936 18ba 93cf 123a
00000030: e732 623c 1cd4 493c e0b9 8f3c 41bd 8a3c
00000040: dcc9 2dbc 8a57 923c 92b3 ce3a 9557 68bb
00000050: b944 a3bb 30e6 123c c892 f13c b034 023c
00000060: b7f7 b73c 0583 5d3c 5827 633c 98bf 18bc
00000070: becb 033d 18fc b63b 9fad cd3c 09a6 fd3c
00000080: deff d63b dd47 a83b 28d1 a83c 0a36 e53a
00000090: 7433 bf3c 7b35 05bc 9553 283d d780 073c
000000a0: a42c c73b bda3 3b3c 140b 193c f918 763c
000000b0: 85c0 203c 768d 0ab9 5ebb e13b 4102 053b
000000c0: 1524 753c 5bb1 473b c2e7 283d 2b60 8a3c
000000d0: cef8 293c f48a 8e3b b2c1 f4bc a5bd 8b3c
000000e0: f47d cdbb 87b5 253a 8533 343c d7fd fd3b
000000f0: 8ddb 093c b98d 9f3b 141b 2f3c 9461 683c
00000100: f7a9 963c 2363 eabc 38aa 19bb 76eb a43c
00000110: 5b4b 1a3d 87ce 8c3c 0ace 0a3d f20f 093c
00000120: e014 313c 6a90 4f3c eb00 503c d610 56bc
00000130: eaeb 503b be37 8b3c bd1e 25ba 8e7e 6fbb
00000140: 83e7 803b 24ec b9bc b822 113c bf7e 903c
00000150: 00fb 3bbc ed0a f0b9 1ce9 7d3c 8aa8 c1ba
00000160: 2e3d 8a3c 3333 cf3c 8a60 073d d344 d3bb
00000170: 8085 5cbb 46a7 2ebc 1fdb 863c 17aa 0e3c
00000180: 34bf 0e3c b15a ee3c e244 36bc d2e5 483c
00000190: 7ecd 133d f345 343a 4536 e63a 4217 18bc
000001a0: f066 18ba 5534 8b3c bd96 8d3b 9f06 3c3d
000001b0: 4d6e 2d3c 274e b23c c316 283b ea91 343c
000001c0: 529d d93c 75f9 42bc fdd2 9ebb 0acf 533c
000001d0: facc 68bc a018 fe3c 42eb 1b3b 87df 19bb
000001e0: 2d03 8f3b f978 1c3d 82c6 5e3c f103 923c
000001f0: 2bee 243d 01c9 b4bb e8bb 8db9 ffb4 ca3c
00000200: d988 f03c 6335 b7bb fbf4 d3bb 47d6 183d
00000210: 9bfb 7f3c 0557 5a3b 067a c93b 031b f8bb
00000220: 5172 02bc 04ca 1bb9 dad1 243c 7947 11bc
00000230: a289 e93c 4424 f93c

action_model._discrete_distribution.branches.0.weight f4 [13, 142]
-0.01831731 -0.08229955 -0.010194579 -0.0015265618 0.06613255 -0.010976408 -0.065720685 0.010954119
0.023263557 -0.015906787 0.021044774 0.0641778 -0.034709048 -0.014723882 0.055601753 -0.01604213
0.05122144 0.074597314 -0.027821511 0.019795522 -0.035773493 0.042968996 -0.060772132 -0.04330933
0.025241444 0.011705148 -0.018178057 0.0033658626 -0.012494534 0.01508481 0.06492975 0.0015902844
0.052094426 0.0077247946 -0.06918182 -0.024147147 0.03394718 0.029548392 0.010555851 0.026238179
0.012521622 0.00039740335 0.034600757 0.019896703 0.0041269874 0.0132449 0.04609666 0.018162386
0.07919238 0.0012876381 0.04596483 0.010608967 0.0479635 -0.046504594 0.034721527 0.06654919
-0.029822996 -0.005800702 0.036527965 -0.015524597 -0.01952465 -0.012759726 0.06907121 0.009228455
0.057956316 0.056546606 -0.099279 0.0066171912 0.0073606027 -0.031380028 0.004351903 -0.027586607
0.009979541 0.0066071935 0.11093403 0.031260308 -0.075206794 -0.04940095 0.042260904 -0.116898514
0.038898814 0.014024913 0.04614885 0.004798865 -0.0382713 -0.0027973787 0.03853521 -0.025048597
-0.0055029276 -0.05113028 -0.059897732 0.002881617 0.02804158 -0.0028933138 0.034094494 0.011366518
0.0002824172 0.096076004 -0.0010591518 0.00060796394 -0.060384225 -0.00094931334 0.07668636 0.029453982
-0.0002763774 0.06647085 -0.020780543 0.03599595 -0.004480974 -0.052181214 0.07349052 0.039004866
-0.061054524 0.04195289 -0.04961482 -0.011316489 -0.031431492 -0.016956834 0.04320442 0.025871973
-0.021517323 -0.01577334 -0.005263979 0.046674844 -0.047846127 0.016260343 -0.050596945 0.004562033
-0.004110304 -0.008950685 0.003588991 -0.10837266 0.008739543 -0.01228537 -0.027839944 0.0064569577
0.0028748915 0.029357478 0.023620887 0.00692114 0.06257188 0.013543627 0.0377244 0.0032991557
-0.031105664 -0.06895251 0.013253493 -0.021112945 -0.008519553 0.051755574 -0.031587213 -0.00033298237
0.003939015 -0.022452801 0.018314542 -0.047832254 0.004512335 0.026140157 -0.035447337 -0.027484316
-0.06963888 -0.04860909 0.034000453 -0.017843608 0.043125305 0.06266041 0.062050823 -0.0006644299
0.06394058 0.011922547 -0.013222055 0.034235284 0.0035219495 0.030918056 -0.07361921 0.00799392
-0.05476619 -0.037831765 -0.060068823 -0.0074091 0.011970873 -0.010084658 -0.014874206 0.03704024
-0.0446917 -0.0262558 -0.05322034 -0.009061911 -0.027670955 -0.059847377 -0.028618494 -0.034119654
-0.028290423 0.079344414 0.049298845 0.0031567079 0.034386806 -0.0067034313 0.041109033 0.044082474
-0.015022844 -0.020215517 -0.015414056 -0.036464497 -0.01009748 -0.012945476 0.017187871 -0.04140509
0.0083570825 -0.08335407 -0.0706892 -0.02579227 -0.0039132927 -0.03399841 -0.03943017 0.099000104
-0.05126651 0.016887663 0.032199748 0.024537211 0.014718417 0.0057963342 -0.033446904 0.03229838
0.005877482 -0.020109236 0.051158477 0.036414657 0.0048074047 -0.0039123343 -0.026808217 -0.07542317
0.013512336 0.052904263 -0.042324953 0.059722126 0.0066008344 0.06284288 0.00042388722 0.07120173
-0.009121852 0.009481573 -0.020940525 0.017863434 0.09558016 -0.029436218 -0.021541502 -0.030162234
0.033371683 -0.07416663 -0.0058209817 -0.025596095 -0.054218315 -0.03540206 -0.080435924 -0.034139197
00000000: 2f0e 96bc ab8c a8bd 2a07 27bc ea16 c8ba
00000010: 8170 873d 64d6 33bc 9198 86bd e878 333c
00000020: 3793 be3c f34e 82bc 1766 ac3c a76f 833d
00000030: 132b 0ebd 703c 71bc aabe 633d c96a 83bc
00000040: 93cd 513d 7ac6 983d f0e9 e3bc 382a a23c
00000050: 3a87 12bd 4200 303d 33ec 78bd 2065 31bd
00000060: 25c7 ce3c f3c6 3f3c 26ea 94bc ce95 5c3b
00000070: e0b5 4cbc 4726 773c e4f9 843d 1771 d03a
00000080: f760 553d 4620 fd3b 33af 8dbd 3dd0 c5bc
00000090: 330c 0b3d 780f f23c 73f2 2c3c 73f1 d63c
000000a0: 7d27 4d3c 935a d039 86b9 0d3d 69fe a23c
000000b0: ae3b 873b 2301 593c dacf 3c3d 49c9 943c
000000c0: 9d2f a23d f7c5 a83a 9e45 3c3d 3cd1 2d3c
000000d0: 6075 443d 9a7b 3ebd 2938 0e3d f14a 883d
000000e0: 5b4f f4bc d113 bebb 599e 153d e15a 7ebc
000000f0: 29f2 9fbc 2b0e 51bc 3575 8d3d f232 173c
00000100: 9a63 6d3d 6a9d 673d ca52 cbbd 06d5 d83b
00000110: 3631 f13b 5888 00bd 699a 8e3b 4ffd e1bc
00000120: 3b81 233c 2881 d83b 6131 e33d cf0a 003d
00000130: 0506 9abd a758 4abd c519 2d3d 7d68 efbd
00000140: 5d54 1f3d c0c8 653c 9406 3d3d cc3f 9d3b
00000150: 5ec2 1cbd 3a54 37bb 19d7 1d3d b732 cdbc
00000160: e751 b4bb fc6d 51bd 5357 75bd 83d9 3c3b
00000170: 75b7 e53c c09d 3dbb aba6 0b3d a23a 3a3c
00000180: 6511 9439 7fc3 c43d 3dd3 8aba c55f 1f3a
00000190: 7355 77bd 57db 78ba bd0d 9d3d 7a49 f13c
000001a0: bfe6 90b9 de21 883d f53b aabc 7d70 133d
000001b0: 22d5 92bb f8bb 55bd 3382 963d 91c3 1f3d
000001c0: 4f14 7abd cbd6 2b3d e938 4bbd cc68 39bc
000001d0: 4fbe 00bd 0fe9 8abc 1ef7 303d 76f1 d33c
000001e0: 1945 b0bc 1737 81bc 757d acbb 1f2e 3f3d
000001f0: 4dfa 43bd 6934 853c be3e 4fbd 1b7d 953b
00000200: bbaf 86bb e5a5 12bc 4735 6b3b 7cf2 ddbd
00000210: 4d30 0f3c 9448 49bc 9810 e4bc e394 d33b
00000220: ad68 3c3b 187f f03c 9780 c13c bbca e23b
00000230: b025 803d 17e6 5d3c e784 1a3d a636 583b
00000240: 4ed1 febc f936 8dbd 2e25 593c 0ef5 acbc
00000250: 9895 0bbc a7fd 533d 9861 01bd 2394 aeb9
00000260: da12 813b f0ee b7bc 6108 963c c1eb 43bd
00000270: 36dc 933b e223 d63c 3a31 11bd ca26 e1bc
00000280: d49e 8ebd 531a 47bd 0f44 0b3d c22c 92bc
00000290: 29a4 303d 1a54 803d 0129 7e3d 232d 2eba
000002a0: 47f3 823d c956 433c 51a1 58bc 4c3a 0c3d
000002b0: 82d0 663b dd47 fd3c abc5 96bd eef8 023c
000002c0: 8352 60bd 7bf5 1abd ba0a 76bd 09c8 f2bb
000002d0: 7b21 443c 1f3a 25bc f1b2 73bc 82b7 173d
000002e0: a50e 37bd 6716 d7bc 92fd 59bd 6978 14bc
000002f0: 33ae e2bc 8622 75bd 5571 eabc 0dc1 0bbd
00000300: 51c1 e7bc 537f a23d 96ed 493d c5e0 4e3b
00000310: 2ed9 0c3d 75a8 dbbb f261 283d d38f 343d
00000320: 6022 76bc 039b a5bc 3d8b 7cbc cc5b 15bd
00000330: e76f 25bc 4319 54bc 94cd 8c3c 6298 29bd
00000340: 25ec 083c 8ab5 aabd 80c5 90bd 504a d3bc
00000350: 143b 80bb eb41 0bbd 8881 21bd 91c0 ca3d
00000360: d5fc 51bd ff57 8a3c e2e3 033d 4302 c93c
00000370: 8425 713c 2def bd3b 9fff 08bd 4e4b 043d
00000380: e497 c03b 20bc a4bc 8d8b 513d 8927 153d
00000390: 6f87 9d3b 0a33 80bb e89c dbbc 7777 9abd
000003a0: d862 5d3c 24b2 583d ee5c 2dbd 309f 743d
000003b0: d04b d83b c5b3 803d 2e3d de39 36d2 913d
000003c0: d273 15bc 9958 1b3c 778b abbc 5656 923c
000003d0: 88bf c33d 3924 f1bc ce77 b0bc ca16 f7bc
000003e0: bfb0 083d ade4 97bd efbd bebb e7ae d1bc
000003f0: 0614 5ebd c001 11bd 97bb a4bd 8bd5 0bbd

action_model._discrete_distribution.branches.0.bias f4 [13]
0.028976722 -0.04013265 0.013985847 0.022181226 -0.023794211 -0.030634668 -0.027637083 0.050545614
0.03699589 -0.007282496 0.017430155 -0.012497825 0.01881013
00000000: 9760 ed3c 2262 24bd e524 653c 67b5 b53c
00000010: 14ec c2bc 8ef5 fabc 2a67 e2bc eb08 4f3d
00000020: 0189 173d 01a2 eebb afc9 8e3c adc3 4cbc
00000030: b417 9a3c

action_model._discrete_distribution.branches.1.weight f4 [13, 142]
-0.01993967 0.07106556 0.03185378 -0.02231794 0.007910913 -0.04486472 0.0037921492 -0.03180101
-0.0148911765 -0.014121696 -0.013500212 0.046722528 -0.02999637 -0.038997147 0.06401769 0.0005156082
-0.0059913993 0.081867956 0.0076413956 -0.05417708 -0.025086042 -0.059192818 -0.01996224 0.0062930374
-0.08153283 -0.017521797 -0.04921706 0.0047426736 0.034761034 -0.01469911 -0.02088173 0.0017362747
-0.053203445 -0.061912823 -0.046306007 0.031143691 -0.025293594 0.007971867 0.010344585 -0.0064162384
-0.026098263 -0.04060378 -0.007894347 -0.019122267 -0.01165909 -0.032845214 -0.032872446 -0.018335143
-0.019187994 -0.029613772 0.007627585 -0.04355883 -0.016323164 -0.04737196 0.02705928 -0.036115367
0.012437295 -0.0122421505 -0.0048044072 -0.06492408 -0.036114693 -0.007020187 -0.015512827 -0.03502476
-0.02320541 -0.0051244763 -0.029702615 0.011222728 0.007136101 -0.03606445 0.0042710607 -0.025164442
-0.045932584 -0.030515864 -0.020313382 0.00039231242 -0.029059198 -0.023238212 -0.027543439 -0.013745712
-0.0753284 -0.005987383 -0.058263578 -0.028536366 0.012710568 -0.056719173 -0.105829775 -0.03456039
-0.051224012 0.05230117 0.003322684 -0.040653154 -0.00090572017 -0.030265272 0.06514939 -0.0043783006
0.0035870092 0.024517786 -0.000107456086 0.008574388 0.014652555 -0.019206684 0.029948993 0.007316611
-0.06708666 0.02841281 -0.034471493 -0.037392076 0.027768988 -0.008236877 -0.04237367 0.05517575
0.052013777 -0.017498653 -0.030140186 -0.054302048 -0.078459136 -0.020563051 0.007799244 -0.075440876
-0.025579546 0.043457158 0.03575213 -0.0053416067 -0.04415724 -0.031799227 -0.023677872 -0.08869371
-0.033558935 -0.049975105 0.056243908 0.01899022 0.008686823 -0.052496124 0.008891254 -0.01285129
-0.028073542 -0.009924465 0.022048587 -0.04056241 -0.027015675 -0.02173293 0.030879358 -0.019086717
0.04343739 -0.029720852 0.06537767 0.06954663 -0.020630907 0.025334034 0.08218023 0.0025612656
-0.061491884 0.0235331 -0.007930007 0.055998817 -0.06542625 -0.039407883 -0.042433184 -0.09289679
0.08508769 -8.028549e-05 0.08172282 -0.023254273 0.006246941 0.007930771 -0.019061323 0.00603848
-0.010290926 0.01988664 0.014643468 0.0070357495 -0.00018417908 -0.009987896 -0.029136147 0.03532553
0.021226956 -0.03844876 0.014225681 0.012677674 0.010675259 0.03819884 0.059481 0.0030263988
0.028507397 -0.027481234 0.035951667 0.013388062 -0.020387186 0.027352486 -0.045329325 -0.039528925
-0.009500278 -0.065595806 0.0050598797 -0.0128125725 0.03583563 0.03215641 0.03928347 -0.009107553
-0.022645736 -0.016014902 -0.02503883 0.002795299 0.06507653 0.002608406 4.945317e-05 0.010903889
-0.029439889 0.02805343 -0.015185468 0.0065557132 0.026379136 0.0074563976 0.03711558 -0.10719822
-0.043171197 -0.037205517 0.024254272 0.02444776 0.019488106 0.01642455 0.017902782 -0.03451588
0.0094560785 -0.08122336 -0.0065428726 0.053267997 0.018852595 0.047527563 0.043207996 -0.025780978
-0.024795657 -0.010382452 -0.014913069 0.03265085 -0.091927975 0.006117614 -0.027443925 0.008825436
-0.03099146 0.05213525 0.0018239344 -0.011293397 0.046832215 0.023261258 -0.02012135 -0.015135651
-0.010806705 0.032085463 -0.045612875 -0.04318411 0.013688029 0.008292407 0.029819965 -0.0009347049
00000000: 8558 a3bc d28a 913d 1c79 023d 1dd4 b6bc
00000010: c69c 013c 12c4 37bd b585 783b c741 02bd
00000020: 1ffa 73bc b05e 67bc fe2f 5dbc 1f60 3f3d
00000030: f3ba f5bc 79bb 1fbd b51b 833d e129 073a
00000040: 8053 c4bb 63aa a73d ac64 fa3b c9e8 5dbd
00000050: 3e81 cdbc 2b74 72bd da87 a3bc d335 ce3b
00000060: affa a6bd df89 8fbc d497 49bd 6e68 9b3b
00000070: 9661 0e3d 89d4 70bc 2910 abbc b693 e33a
00000080: dbeb 59bd 4d98 7dbd 5eab 3dbd 0e21 ff3c
00000090: 8334 cfbc 6f9c 023c 567c 293c 4f3f d2bb
000000a0: 06cc d5bc 2650 26bd 4b57 01bc 4da6 9cbc
000000b0: c505 3fbc b488 06bd 42a5 06bd 9533 96bc
000000c0: 2430 9dbc 9598 f2bc d2f0 f93b be6a 32bd
000000d0: 28b8 85bc 1a09 42bd 6cab dd3c b5ed 13bd
000000e0: ccc5 4b3c 4d93 48bc 4a6e 9dbb ebf6 84bd
000000f0: 00ed 13bd 9909 e6bb 8329 7ebc 1f76 0fbd
00000100: 4619 bebc 39eb a7bb e652 f3bc 88df 373c
00000110: f4d5 e93b 51b8 13bd 41f4 8b3b a925 cebc
00000120: ce23 3cbd 68fc f9bc 4068 a6bc 48af cd39
00000130: 8e0d eebc 105e bebc c7a2 e1bc b235 61bc
00000140: c745 9abd cf31 c4bb caa5 6ebd 19c5 e9bc
00000150: fc3f 503c 5d52 68bd 48bd d8bd 328f 0dbd
00000160: 45d0 51bd c039 563d 63c1 593b ec83 26bd
00000170: da6d 6dba e0ee f7bc 0b6d 853d d977 8fbb
00000180: 0714 6b3b 86d9 c83c 0c5a e1b8 977b 0c3c
00000190: 4511 703c 5657 9dbc 9757 f53c 2ec0 ef3b
000001a0: bb64 89bd fbc1 e83c fb31 0dbd 6f28 19bd
000001b0: ca7b e33c f7f3 06bc 0390 2dbd f8ff 613d
000001c0: 660c 553d 5659 8fbc 8de8 f6bc d36b 5ebd
000001d0: 2faf a0bd d873 a8bc cd90 ff3b bf80 9abd
000001e0: 328c d1bc 2200 323d d370 123d a508 afbb
000001f0: 39de 34bd e83f 02bd 19f8 c1bc 0ca5 b5bd
00000200: 1875 09bd b2b2 4cbd 0360 663d 6191 9b3c
00000210: 2d53 0e3c 2d06 57bd 9fac 113c 388e 52bc
00000220: 7cfa e5bc 399a 22bc 3d9f b43c c524 26bd
00000230: fa4f ddbc 4209 b2bc b5f6 fc3c bf5b 9cbc
00000240: 68eb 313d 2579 f3bc bae4 853d 776e 8e3d
00000250: 2602 a9bc 5289 cf3c 1c4e a83d e8da 273b
00000260: eade 7bbd 7dc8 c03c dcec 01bc 045f 653d
00000270: 33fe 85bd 296a 21bd 6bce 2dbd ac40 bebd
00000280: 7442 ae3d f25e a8b8 4b5e a73d bf7f bebc
00000290: 24b3 cc3b 11f0 013c 7e26 9cbc 71de c53b
000002a0: 469b 28bc 4fe9 a23c 28eb 6f3c 258c e63b
000002b0: 3220 41b9 46a4 23bc eeae eebc 81b1 103d
000002c0: 27e4 ad3c 727c 1dbd d512 693c 05b6 4f3c
000002d0: 48e7 2e3c 6376 1c3d 59a2 733d 8c56 463b
000002e0: 5888 e93c 5320 e1bc 0e42 133d 9a59 5b3c
000002f0: 0703 a7bc 5212 e03c 3eab 39bd 15e9 21bd
00000300: 0ea7 1bbc 1857 86bd 59cd a53b d3eb 51bc
00000310: 62c8 123d 71b6 033d b4e7 203d d937 15bc
00000320: 8d83 b9bc af31 83bc 3b1e cdbc 5631 373b
00000330: d846 853d caf1 2a3b f06b 4f38 3aa6 323c
00000340: ec2b f1bc 4fd0 e53c 78cc 78bc 4fd1 d63b
00000350: 0f19 d83c cc54 f43b 8206 183d be8a dbbd
00000360: 48d4 30bd d064 18bd e5b0 c63c ab46 c83c
00000370: 85a5 9f3c c78c 863c dba8 923c 8660 0dbd
00000380: abed 1a3c 6f58 a6bd 9865 d6bb 8b2f 5a3d
00000390: c270 9a3c 43ac 423d defa 303d a132 d3bc
000003a0: 4320 cbbc 291b 2abc f255 74bc e6bc 053d
000003b0: bc44 bcbd 4476 c83b 15d2 e0bc 9098 103c
000003c0: cde1 fdbc c68b 553d 1511 ef3a f107 39bc
000003d0: 23d3 3f3d 658e be3c 88d5 a4bc 86fb 77bc
000003e0: 9b0e 31bc 0c6c 033d 91d4 3abd d2e1 30bd
000003f0: c143 603c e0dc 073c 0049 f43c fc06 75ba

action_model._discrete_distribution.branches.1.bias f4 [13]
-0.036265705 0.035726186 -0.014044877 -0.031651657 -0.030229261 -0.0040888665 0.011773596 -0.012607371
-0.06263788 0.043340847 0.042220302 0.026470106 -0.012703091
00000000: 598b 14bd 9f55 123d 7c1c 66bc 2ba5 01bd
00000010: 5ba3 f7bc e6fb 85bb 0ae6 403c 268f 4ebc
00000020: 4a48 80bd 2c86 313d 32ef 2c3d d6d7 d83c
00000030: a020 50bc

action_model._discrete_distribution.branches.2.weight f4 [13, 142]
0.063734174 -0.006871502 -0.051150255 0.03928452 0.070919655 0.0073594777 0.020885667 0.07129816
0.041970022 0.058359567 0.008201612 -0.017432919 0.036573283 -0.008427969 0.012564852 -0.05228717
0.055372704 0.021434935 0.009213315 0.07805931 0.037717678 0.06007795 -0.025807166 0.008994322
-0.033720955 -0.038695637 0.02801638 0.020884516 0.030445457 0.049103495 0.024363177 0.043548133
0.033490486 0.051087823 0.020882038 0.018922849 0.057033945 0.0433888 0.002513698 0.020424843
0.06700621 0.014972346 -0.0062825386 -0.011521739 0.024027044 0.04933634 0.010931578 0.020922123
0.06382929 0.066701345 0.054900926 0.03975468 0.061093308 0.024162464 0.040979568 0.00017091882
0.0045414297 0.016289258 0.047958788 0.04321462 0.07388935 0.026597144 0.03753787 0.04322593
0.012288659 0.037402034 0.014054101 0.052334055 0.021469414 0.039989732 0.061082512 -0.043624323
0.003962936 0.06482075 0.023863317 0.061662193 -0.013920147 0.08852785 -0.06269739 0.028327152
0.060160547 0.06286683 -0.027297119 -0.020388564 0.04755783 0.04447587 0.076330915 0.067788854
0.014761755 -0.0019759191 0.06964736 0.0134668285 -0.028111365 0.06012202 0.0043890253 0.03963408
0.02150781 0.0105320895 0.040207483 0.020420885 0.023754306 -0.013908322 0.022801338 0.0149739515
0.02141007 0.016781492 0.043400344 -0.005264322 0.005029252 0.003043233 0.042412423 0.047353737
0.009984256 0.030076621 -0.0038942958 -0.02567953 0.005276532 0.020006591 0.0010587699 -0.043235004
0.063349485 0.0025124194 0.032667276 0.013249317 -0.06694305 0.0021501847 0.029341545 0.06503443
-0.022594858 0.018809112 0.011467561 0.02606675 0.03964857 0.044686716 0.010802605 0.04094206
0.045477476 0.02310143 0.057074968 0.067747466 0.056213703 -0.03198729 -0.017359108 -0.06279855
0.02389771 -0.03521442 -0.07886218 -0.01719287 0.020913908 0.0013529062 -0.040042885 0.015108857
-0.015205182 -0.0028151472 -0.0068499483 -0.022600543 -0.11015404 0.050889224 -0.026270293 0.0005264012
-0.021550281 0.0049959803 0.017068606 -0.015423701 0.048441954 0.026383491 0.013580738 0.05749072
-0.024445735 0.0021947178 0.006677709 -0.02851002 -0.018790847 -0.016070254 -0.0800111 0.028563492
0.049798615 -0.008574498 -0.0064833155 0.03437759 -0.016719466 0.0068461304 -0.02332899 -0.008242032
0.06309198 0.021173552 -0.031574294 -0.008220158 -0.037522092 -0.0525506 -0.05968682 0.008468918
-0.03845144 -0.007814265 -0.004973309 -0.0069750766 0.030220013 -0.010885735 0.06771564 -0.03555268
-0.022456484 -0.02188945 -0.0595115 0.020297145 -0.0034785399 -0.022638526 0.046306934 0.006852792
-0.046796154 -0.015219204 0.02845263 -0.022198051 -0.019246899 0.008871828 0.006177173 -0.08575092
-0.051342253 -0.013774923 -0.01682215 -0.031106835 -0.017896546 -0.034449223 -0.0072288075 -0.031948995
-0.058254622 -0.05153875 0.00090372 0.0002196147 0.035668783 -0.0050187586 -0.021969074 0.052136958
-0.020968212 -0.03959844 0.05169477 -0.012220956 -0.08782613 -0.06252697 0.02942727 -0.028066058
-0.020557122 -0.007713993 -0.035097677 -0.00058926764 -0.06625242 -0.0034876566 -0.0027581349 -0.061401065
-0.011052221 -0.025716014 0.005815359 -0.01634781 -0.031320654 -0.0010533321 -0.027450807 0.01353886
00000000: 1087 823d 562a e1bb ee82 51bd cee8 203d
00000010: 533e 913d c627 f13b 6b18 ab3c c504 923d
00000020: c2e8 2b3d 710a 6f3d 0e60 063c 7bcf 8ebc
00000030: decd 153d 7715 0abc cfdc 4d3c 122b 56bd
00000040: 7dce 623d 5198 af3c 72f3 163c 8fdd 9f3d
00000050: da7d 1a3d 4c14 763d 8d69 d3bc ec5c 133c
00000060: fc1e 0abd 517f 1ebd 9b82 e53c 0116 ab3c
00000070: c068 f93c bf20 493d 4995 c73c 875f 323d
00000080: 522d 093d 7741 513d cf10 ab3c 1704 9b3c
00000090: 6d9c 693d 74b8 313d dbbc 243b 0052 a73c
000000a0: 8d3a 893d 924e 753c c1dd cdbb adc5 3cbc
000000b0: 5dd4 c43c e714 4a3d 5d1a 333c df64 ab3c
000000c0: eeb8 823d b79a 883d cbdf 603d ced5 223d
000000d0: fa3c 7a3d 5cf0 c53c 31da 273d ac38 3339
000000e0: 46d0 943b 0d71 853c 6f70 443d d001 313d
000000f0: 4d53 973d 41e2 d93c 4fc1 193d ac0d 313d
00000100: 5f56 493c e032 193d 2c43 663c 3c5c 563d
00000110: a0e0 af3c 46cc 233d a831 7a3d 6baf 32bd
00000120: 84db 813b bec0 843d 017d c33c 7f91 7c3d
00000130: 5411 64bc 174e b53d 7d67 80bd 580e e83c
00000140: e86a 763d 53c0 803d 359e dfbc eb05 a7bc
00000150: 00cc 423d 542c 363d 6253 9c3d e2d4 8a3d
00000160: 4adb 713c 6c7e 01bb 46a3 8e3d f9a3 5c3c
00000170: ce49 e6bc 8242 763d d0d1 8f3b 5857 223d
00000180: 2631 b03c c98e 2c3c 9ab0 243d b349 a73c
00000190: 6498 c23c bbdf 63bc dfc9 ba3c 4e55 753c
000001a0: 2c64 af3c 5779 893c 8fc4 313d 5580 acbb
000001b0: 6ccc a43b fa70 473b a6b8 2d3d fef5 413d
000001c0: 0195 233c 3f63 f63c 7137 7fbb e15d d2bc
000001d0: c2e6 ac3b dde4 a33c 6cc6 8a3a 3017 31bd
000001e0: 60bd 813d 67a7 243b 1fce 053d aa13 593c
000001f0: 7019 89bd 1dea 0c3b ae5d f03c c530 853d
00000200: da18 b9bc 9115 9a3c 70e2 3b3c f089 d53c
00000210: 8a66 223d 6b09 373d 69fd 303c ddb2 273d
00000220: 9746 3a3d 363f bd3c 71c7 693d 2fbf 8a3d
00000230: 5740 663d 1b05 03bd b034 8ebc 879c 80bd
00000240: 21c5 c33c ff3c 10bd 7f82 a1bd 10d8 8cbc
00000250: a553 ab3c 0054 b13a 0204 24bd 248b 773c
00000260: 281f 79bc 557e 38bb 8875 e0bb c624 b9bc
00000270: 7198 e1bd 3871 503d cc34 d7bc 30fe 093a
00000280: 378a b0bc 52b5 a33b 76d3 8b3c b1b3 7cbc
00000290: 126b 463d 3122 d83c be81 5e3c 647b 6b3d
000002a0: 6c42 c8bc 41d5 0f3b afd0 da3b d88d e9bc
000002b0: 43ef 99bc c4a5 83bc dcdc a3bd fcfd e93c
000002c0: a2f9 4b3d 0d7c 0cbc fe71 d4bb 84cf 0c3d
000002d0: 43f7 88bc 8155 e03b 701c bfbc 9609 07bc
000002e0: 5e36 813d 2874 ad3c 0c54 01bd d7ad 06bc
000002f0: c4b0 19bd 4c3f 57bd 2b7a 74bd 37c1 0a3c
00000300: 427f 1dbd 6707 00bc 24f7 a2bb 2f8f e4bb
00000310: f68f f73c 155a 32bc 7fae 8a3d b09f 11bd
00000320: a9f6 b7bc 8151 b3bc 55c2 73bd 3346 a63c
00000330: 37f8 63bb 6e74 b9bc 57ac 3d3d 638d e03b
00000340: 53ad 3fbd f859 79bc 7d15 e93c b0d8 b5bc
00000350: acab 9dbc 255b 113c e269 ca3b 2e9e afbd
00000360: 414c 52bd 37b0 61bc 9bce 89bc c3d3 febc
00000370: c79b 92bc a11a 0dbd a2df ecbb f3dc 02bd
00000380: 669c 6ebd 4c1a 53bd 9fe7 6c3a 5f48 6639
00000390: 6e19 123d 6674 a4bb 7df8 b3bc 908d 553d
000003a0: 87c5 abbc f931 22bd e5bd 533d 683a 48bc
000003b0: 30de b3bd 240e 80bd 7511 f13c caea e5bc
000003c0: 6967 a8bc aac5 fcbb 95c2 0fbd 1579 1aba
000003d0: 59af 87bd 2b91 64bb d3c1 34bb af7f 7bbd
000003e0: 6014 35bc 64aa d2bc c48e be3b d8eb 85bc
000003f0: 164a 00bd f60f 8aba 84e0 e0bc 18d2 5d3c

action_model._discrete_distribution.branches.2.bias f4 [13]
0.043452762 -0.005689898 0.014893289 -0.04365225 -0.032081563 0.024787478 -0.015985819 0.021421243
0.004765938 0.02385198 -0.021753727 -0.015774941 0.014430644
00000000: 86fb 313d 5372 babb fb02 743c b4cc 32bd
00000010: f567 03bd 1c0f cb3c b1f4 82bc 9a7b af3c
00000020: 962b 9c3b 3a65 c33c df34 b2bc 733a 81bc
00000030: 826e 6c3c

action_model._discrete_distribution.branches.3.weight f4 [13, 142]
-0.017931739 -0.009251724 0.017461399 -0.054643948 0.011466265 -0.036435496 -0.04080429 0.019661687
0.07427959 -0.041017763 -0.0002686092 0.071857974 0.00012781564 -0.0036568835 0.013137135 -0.0750652
-0.010369159 -0.0020087843 -0.061194208 -0.018293044 -0.013480461 -0.013785578 0.022217998 0.015990013
-0.050335 -0.045981165 0.02372124 -0.012820538 0.023609437 0.012001926 -0.035409085 0.029601464
-0.018034961 -0.03441869 -0.0351837 -0.048538275 -0.039557636 0.027654558 0.010483051 0.016716385
-0.0018690405 0.024585353 0.034577876 -0.0428511 -0.026180295 -0.013703701 -0.01717914 0.04483092
-0.013517582 0.028391205 0.017983336 -0.095708705 -0.024542453 -0.038324285 0.033908304 0.02330632
-0.007428293 0.02544054 -0.02225259 -0.0599117 0.013746971 0.0014483174 -0.013927853 -0.049740545
-0.03290386 -0.005490519 -0.03403293 -0.0067950715 -0.044642955 0.053176876 0.019099144 -0.027789207
-0.09845751 -0.14624846 0.03084113 -0.09880049 0.020456735 -0.006965431 0.001798801 0.020537708
-0.07604417 -0.033639364 0.024851974 -0.025801493 -0.015633686 -0.05752653 -0.019369157 -0.0074325865
-0.031445123 0.073715724 -0.03912118 0.025283432 0.03134856 -0.0022566086 -0.02426158 -0.0013306885
0.002476182 0.038888615 -0.03705425 0.084144846 0.0075595663 0.025216622 -0.013241196 0.0030316648
0.015823597 0.011803053 -0.032175858 0.016292522 -0.00051128527 -0.043120347 -0.05013252 -0.03327994
-0.013226056 -0.006439178 -0.039648056 -0.0064647594 -0.0069366945 -0.0126491375 0.038369052 -0.011302035
-0.028839106 0.011784862 0.07983457 0.017293494 -0.08479517 0.0055260896 0.0051347776 0.0015789014
0.030510066 0.047184736 0.015783563 0.03294601 0.04473971 0.0036020172 0.06461644 -0.04287649
0.0029623723 0.03867197 0.025898898 0.0001214894 -0.032020815 -0.003235248 -0.031554338 0.0839925
-0.06878636 0.0041997056 0.04508748 -0.035327755 0.011878502 0.003671576 -0.017127723 -0.038253773
0.045374863 0.05754519 -0.020572321 -0.07301978 -0.0063718953 -0.03813776 -0.061273403 -0.008753397
0.06859875 -0.07331832 0.01215422 -0.06396353 -0.06783767 0.0378711 -0.011591757 -0.0022873993
-0.02277342 -0.013286358 -0.045003474 -0.044146042 0.07275962 -0.032927938 -0.03321838 -0.027505234
-0.053189926 -0.009512836 -0.028154561 -0.03721533 -0.0073512224 -0.013842556 -0.038056854 -0.007708243
-0.03872582 0.049362168 -0.013961733 -0.028449396 -0.016109664 -0.028467437 -0.023303282 -0.02333166
-0.044273324 -0.0032360519 -0.024494387 -0.010279175 0.06099607 -0.003481063 -0.01019412 -0.058072828
-0.0332062 0.042451542 -0.02737091 -0.03678103 0.051757976 -0.039772905 0.07876045 -0.025999112
-0.04301932 -0.032165457 -0.021591885 -0.03626746 0.024390418 -0.039542 -0.0144138755 -0.037945893
0.050346207 0.007754462 0.02282434 -0.01904686 0.009948446 -0.025017155 0.021442136 -0.020443927
-0.0612125 -0.0071570463 -0.050056893 0.048066657 -0.021857923 -0.03716098 -0.028454402 -0.028031481
-0.07401202 -0.049867887 -0.047289424 -0.032916036 -0.028129261 -0.052365214 0.0070937905 -0.020383913
-0.089499064 0.029962128 -0.08756477 0.052109044 0.042177405 -0.039429512 -0.012338099 -0.015913107
-0.0071676606 0.0073060566 0.004316677 0.022833247 -0.1099229 -0.04468394 0.027962327 0.05144294
00000000: 95e5 92bc 8b94 17bc 350b 8f3c 55d2 5fbd
00000010: 00dd 3b3c 633d 15bd 6622 27bd 8c11 a13c
00000020: e61f 983d 3e02 28bd 1ed4 8cb9 462a 933d
00000030: 4006 0639 53a8 6fbb 233d 573c c9bb 99bd
00000040: 68e3 29bc cfa5 03bb c7a6 7abd 4bdb 95bc
00000050: 27dd 5cbc e8dc 61bc 8502 b63c 7dfd 823c
00000060: 132c 4ebd bf56 3cbd 0c53 c23c 3c0d 52bc
00000070: 9468 c13c baa3 443c 1e09 11bd c57e f23c
00000080: 0ebe 93bc 9dfa 0cbd c91c 10bd 12d0 46bd
00000090: 3007 22bd d08b e23c 1ac1 2b3c cdf0 883c
000000a0: 98fa f4ba 3967 c93c 88a1 0d3d a384 2fbd
000000b0: 0f78 d6bc 7d85 60bc 45bb 8cbc a0a0 373d
000000c0: d978 5dbc ac94 e83c ca51 933c ed02 c4bd
000000d0: 410d c9bc edf9 1cbd 6fe3 0a3d e5ec be3c
000000e0: 0a69 f3bb ae68 d03c 104b b6bc f965 75bd
000000f0: fa3a 613c 78d5 bd3a a631 64bc bebc 4bbd
00000100: 33c6 06bd d0e9 b3bb 1d66 0bbd 31a9 debb
00000110: 88db 36bd ffcf 593d cf75 9c3c 31a6 e3bc
00000120: 17a4 c9bd 28c2 15be 8aa6 fc3c e957 cabd
00000130: e294 a73c 453e e4bb bfc5 eb3a b23e a83c
00000140: 0cbd 9bbd 6ec9 09bd 5e96 cb3c a75d d3bc
00000150: 3712 80bc f0a0 6bbd 11ac 9ebc 0e8d f3bb
00000160: 9acc 00bd 45f8 963d 883d 20bd 331f cf3c
00000170: 5967 003d 9ce3 13bb 39c0 c6bc 7f6a aeba
00000180: 7147 223b ab49 1f3d 32c6 17bd 2254 ac3d
00000190: 3db6 f73b 1793 ce3c 9af1 58bc e5ae 463b
000001a0: 7da0 813c 9861 413c d5ca 03bd e577 853c
000001b0: c607 06ba f69e 30bd c257 4dbd 8c50 08bd
000001c0: 19b2 58bc bdff d2bb 0066 22bd 55d6 d3bb
000001d0: 364d e3bb 543e 4fbc de28 1d3d 2c2c 39bc
000001e0: fd3f ecbc 4b15 413c 4f80 a33d 16ab 8d3c
000001f0: 17a9 adbd 3314 b53b a341 a83b 24f3 ce3a
00000200: 3ff0 f93c c844 413d 884c 813c 65f2 063d
00000210: fc40 373d d20f 6c3b a055 843d 429f 2fbd
00000220: 5c24 423b 8066 1e3d ed29 d43c 20c8 fe38
00000230: 4228 03bd 7406 54bb 1f3f 01bd 4304 ac3d
00000240: dddf 8cbd af9d 893b a6ad 383d d6b3 10bd
00000250: 0c9e 423c d39e 703b 704f 8cbc fdaf 1cbd
00000260: feda 393d 81b4 6b3d 4987 a8bc 658b 95bd
00000270: 55cb d0bb 5736 1cbd d2f9 7abd 686a 0fbc
00000280: 807d 8c3d ea27 96bd 7e22 473c 50ff 82bd
00000290: 7aee 8abd ba1e 1b3d 5aeb 3dbc 31e8 15bb
000002a0: 538f babc 06af 59bc 9055 38bd 7bd2 34bd
000002b0: ff02 953d 72df 06bd ff0f 08bd a852 e1bc
000002c0: aedd 59bd badb 1bbc 65a4 e6bc 1a6f 18bd
000002d0: 86e2 f0bb e3cb 62bc 81e1 1bbd 6e95 fcbb
000002e0: f79e 1ebd fc2f 4a3d c1bf 64bc b50e e9bc
000002f0: 6af8 83bc 8b34 e9bc 86e6 bebc 0a22 bfbc
00000300: f257 35bd f113 54bb 74a8 c8bc fc69 28bc
00000310: 04d7 793d 8c22 64bb 3d05 27bc c6dd 6dbd
00000320: 3903 08bd abe1 2d3d f538 e0bc b5a7 16bd
00000330: 2c00 543d eae8 22bd 294d a13d 17fc d4bc
00000340: 0735 30bd edbf 03bd 77e1 b0bc 308d 14bd
00000350: 6ace c73c cbf6 21bd 2d28 6cbc 276d 1bbd
00000360: d337 4e3d 2419 fe3b 1cfa ba3c 2908 9cbc
00000370: cffe 223c c7f0 ccbc 6ba7 af3c 067a a7bc
00000380: f5b9 7abd a885 eabb 7508 4dbd 8be1 443d
00000390: 630f b3bc 1d36 18bd 3519 e9bc 47a2 e5bc
000003a0: 9d93 97bd 4542 4cbd 8eb2 41bd f7d2 06bd
000003b0: 566f e6bc e87c 56bd 0773 e83b 2afc a6bc
000003c0: 494b b7bd 2373 f53c 2855 b3bd 4b70 553d
000003d0: 37c2 2c3d d780 21bd bd25 4abc 345c 82bc
000003e0: b2de eabb a567 ef3b e972 8d3b ca0c bb3c
000003f0: 421f e1bd 8206 37bd 4011 e53c d5b5 523d

action_model._discrete_distribution.branches.3.bias f4 [13]
0.010666584 -0.0052506626 0.03643098 -0.009243771 -0.06835916 0.020082816 -0.017516699 -0.0061142393
0.04669237 -0.021108605 0.002433106 -0.02241917 0.017085752
00000000: e5c2 2e3c c00d acbb a738 153d 3073 17bc
00000010: e3ff 8bbd b884 a43c 2e7f 8fbc f559 c8bb
00000020: 8040 3f3d f4eb acbc bf74 1f3b 68a8 b7bc
00000030: 6bf7 8b3c
